model/lstm-ANGI-360-.pth (torch, 53964 bytes, 12 tensors)

conv1.weight f4 [2, 4, 3]
000000 35 d8 58 33 45 b8 2a 2a 94 d7 90 b0 75 83 97 39
       5.0488058e-08 1.5162964e-13 -1.053865e-09 0.00028898907
000010 01 d5 c4 29 a3 f0 b9 29 61 29 1b ae 55 8e a3 29
       8.741099e-14 8.257394e-14 -3.527967e-11 7.263345e-14
000020 46 67 fd 36 be f4 43 b9 91 43 97 29 2e 0c c4 ac
       7.55201e-06 -0.00018687823 6.717468e-14 -5.5720073e-12
000030 76 ea f1 29 70 8d 63 2a 9f 53 16 b5 5e 3a e6 b9
       1.07432224e-13 2.0210721e-13 -5.600104e-07 -0.00043912505
000040 38 d7 f2 b8 e0 33 65 29 b9 e7 81 29 0b 24 56 29
       -0.00011579547 5.089321e-14 5.768948e-14 4.7548808e-14
000050 c8 87 39 34 33 51 35 b9 df e8 d5 28 a2 25 b7 28
       1.7278865e-07 -0.00017291754 2.3748742e-14 2.0333402e-14

conv1.bias f4 [2]
000000 b7 7d 1a 37 6e 7c 7d 37
       9.208386e-06 1.5108946e-05

lstm.weight_ih_l0 f4 [80, 2]
000000 58 f0 55 b0 99 e2 c6 1f ed bc da 21 9b 63 1f 22
       -7.78305e-10 8.4231136e-20 1.4822263e-18 2.1601249e-18
000010 4e 3a c2 af 7d fc a4 a2 51 b9 11 a1 fc a2 19 b4
       -3.5329822e-10 -4.471962e-18 -4.9373175e-19 -1.4308529e-07
000020 d0 06 25 32 7a eb e9 a2 84 9b e7 a2 01 0b af ab
       9.605813e-09 -6.3404097e-18 -6.2777334e-18 -1.2437552e-12
000030 8d 7b 31 b7 a6 9f 81 28 5a 22 8e ac 59 91 b6 23
       -1.05787885e-05 1.4391113e-14 -4.0396965e-12 1.9794037e-17
000040 aa 35 82 21 ac ba a4 36 bf ea 1b a1 96 d5 52 9f
       8.823347e-19 4.9093123e-06 -5.2826727e-19 -4.4645904e-20
000050 c7 ac 9a 1f 20 1c c0 9b 4b 0b 13 37 23 ff f9 a6
       6.550737e-20 -3.178191e-22 8.764512e-06 -1.7347001e-15
000060 c0 a7 a0 b5 49 a5 e0 a6 87 c6 2a 32 f0 0c 2b a9
       -1.1969751e-06 -1.5587923e-15 9.940442e-09 -3.798085e-14
000070 f1 40 54 1d 82 f3 50 b5 f5 30 e6 35 47 e7 13 21
       2.809154e-21 -7.784039e-07 1.7150584e-06 5.011163e-19
000080 2a 62 b9 ac 81 cb 68 a8 76 aa 1f 31 7f 0b b2 2f
       -5.2689146e-12 -1.2922715e-14 2.323444e-09 3.238618e-10
000090 73 ce 80 af 76 e5 b6 b3 fc e2 20 36 bf 39 11 a4
       -2.3429755e-10 -8.516774e-08 2.397398e-06 -3.1490776e-17
0000a0 cd d2 b7 a0 e5 5b 0f 32 c1 e4 71 28 5e 2d ef a4
       -3.1140902e-19 8.34459e-09 1.34277905e-14 -1.0372658e-16
0000b0 20 d0 cc 27 c1 15 38 a3 8a ec 43 36 4e 96 02 b7
       5.6847024e-15 -9.9792666e-18 2.9194948e-06 -7.783599e-06
0000c0 84 3f 49 32 c1 82 5f 34 1b 60 93 a0 96 d2 b3 29
       1.1714182e-08 2.0816061e-07 -2.4966366e-19 7.985728e-14
0000d0 6d 3b b5 36 79 bc 36 b7 da bd 6e 26 39 04 77 22
       5.4011384e-06 -1.0891928e-05 8.2830134e-16 3.3476978e-18
0000e0 33 8f df 1e 04 17 7d 9d 9b 84 40 37 0d 01 1f ac
       2.367027e-20 -3.349617e-21 1.1474966e-05 -2.2595842e-12
0000f0 83 ba 4f 32 7a 2e a4 a1 71 f9 80 1f 79 ed 11 1e
       1.2091394e-08 -1.1125375e-18 5.4622775e-20 7.725344e-21
000100 23 5d b2 36 95 f3 c6 22 53 84 d5 34 22 b8 2e a4
       5.315656e-06 5.392591e-18 3.977062e-07 -3.7886202e-17
000110 de b6 82 9e b3 4b 3b aa 80 db 04 2c 6f 7b 1a b1
       -1.3839917e-20 -1.66352e-13 1.8880175e-12 -2.2480113e-09
000120 25 61 24 20 6e be 40 37 6f 27 d7 a3 90 d4 02 9e
       1.3923483e-19 1.148843e-05 -2.3327047e-17 -6.9260996e-21
000130 0b 81 e1 36 a5 7a 76 20 8e 02 4f 37 b7 40 ab 25
       6.720545e-06 2.087759e-19 1.2338756e-05 2.9707624e-16
000140 c4 dc 4b ad 44 f2 e3 34 89 35 a4 2b 83 0e 8d b1
       -1.1588234e-11 4.2458316e-07 1.166776e-12 -4.10529e-09
000150 80 e8 a7 2b 09 c5 ce af 69 61 a6 ac 68 c0 06 2e
       1.1930595e-12 -3.7611184e-10 -4.7288185e-12 3.0638964e-11
000160 49 b9 87 ad b9 f2 28 2e b2 22 84 29 72 96 56 2c
       -1.5430006e-11 3.841436e-11 5.867996e-14 3.0494743e-12
000170 ec 10 88 34 f7 26 90 ad 81 73 a0 34 8b 26 25 ac
       2.5344286e-07 -1.6388208e-11 2.9886363e-07 -2.3469306e-12
000180 d6 bd 04 ad 6d 14 31 2c 09 8c 91 aa cb 84 16 2c
       -7.545483e-12 2.5164551e-12 -2.5854343e-13 2.1389997e-12
000190 92 01 46 ab 71 87 2a af 0f 0f 59 aa bf 69 7f 2b
       -7.034591e-13 -1.5509528e-10 -1.9278696e-13 9.074095e-13
0001a0 d9 6c 6e 2a 8c 08 04 ac ab 59 1c ab 64 64 a1 2c
       2.117641e-13 -1.8763073e-12 -5.554677e-13 4.587041e-12
0001b0 97 06 4f ac 39 30 60 2c a4 5c fa 35 8a 68 86 2c
       -2.9420127e-12 3.1859084e-12 1.8653413e-06 3.8201152e-12
0001c0 1b f3 b3 36 c2 5b 46 36 81 2b 88 aa 6d f0 70 b5
       5.362917e-06 2.955771e-06 -2.418864e-13 -8.975683e-07
0001d0 eb 20 2f 2b 03 79 4b ac 56 a2 05 b6 bc 69 04 33
       6.221817e-13 -2.891521e-12 -1.9913036e-06 3.082981e-08
0001e0 79 77 f5 35 a6 7f 90 27 d5 a5 dc a6 70 dc 32 b4
       1.8288694e-06 4.0106426e-15 -1.5310515e-15 -1.6657737e-07
0001f0 37 cd 23 2a 97 fe 24 a3 21 94 e2 2d 70 ae 70 31
       1.4548506e-13 -8.944369e-18 2.5759008e-11 3.5023753e-09
000200 bf 2e b3 2c 2d 3e 45 a3 a5 bf d5 1f 22 ca 93 20
       5.092676e-12 -1.0692558e-17 9.052606e-20 2.503653e-19
000210 16 52 36 32 0a 2c 51 24 3e dd 8b 30 5e 17 fd 36
       1.06124585e-08 4.5356953e-17 1.0176462e-09 7.542708e-06
000220 2b 6f 60 20 e1 3d 8f a2 d9 78 11 9e 5b 6a 23 1e
       1.901032e-19 -3.8825745e-18 -7.701227e-21 8.651142e-21
000230 2b ca 96 30 3e 30 e2 b5 25 36 32 35 fc eb 6c a9
       1.0971396e-09 -1.6852352e-06 6.638896e-07 -5.260721e-14
000240 56 7f 37 b7 04 75 a7 23 b7 3c 46 21 b9 43 93 a4
       -1.0937298e-05 1.8155734e-17 6.7165365e-19 -6.3865814e-17
000250 c1 6f 15 21 04 23 03 20 7a ca 6d b7 d5 4c 1c 32
       5.063107e-19 1.1107717e-19 -1.4173444e-05 9.097865e-09
000260 fc 26 a4 a1 ea ec 13 a1 38 0b 94 1e 5e 36 8a 9e
       -1.1123391e-18 -5.011909e-19 1.567475e-20 -1.4633804e-20
000270 51 5e 51 aa 76 bb 97 a3 8b 63 29 22 8d 16 c8 22
       -1.8595652e-13 -1.6450846e-17 2.2956469e-18 5.4233985e-18

lstm.weight_hh_l0 f4 [80, 20]
000000 6a d4 24 b0 e1 cc cb a2 8c 53 71 28 7c 12 c5 35
       -5.996471e-10 -5.5240184e-18 1.3396304e-14 1.4683023e-06
000010 55 d6 62 b5 3e 40 10 a3 4c f8 47 1c da 19 1c 2a
       -8.4503455e-07 -7.8198595e-18 6.6164493e-22 1.3864552e-13
000020 44 c6 51 2d e9 db 96 2c a0 75 34 a7 ac 2f b4 30
       1.1924298e-11 4.2876713e-12 -2.5043783e-15 1.3110273e-09
000030 ae 03 7e 32 80 ba 1b b6 68 f7 dd b6 0c 04 fd 9f
       1.47855825e-08 -2.3205357e-06 -6.615115e-06 -1.0715636e-19
000040 e3 e1 9e 29 c5 fe 6f 1b 4d 8d 57 9e ae f9 a8 ac
       7.0557946e-14 1.9851937e-22 -1.14112255e-20 -4.802567e-12
000050 44 ff ad 1c a4 d1 ae 1e c8 5f 41 b1 db c7 e8 21
       1.1514164e-21 1.8509672e-20 -2.8139642e-09 1.5773833e-18
000060 75 d5 30 a8 9f 7d 9f 20 e3 2b a7 9f 46 ad f1 1d
       -9.816249e-15 2.7018777e-19 -7.0799856e-20 6.397133e-21
000070 bd 06 40 1d 21 fe 7a 26 cb 45 b3 1d c5 a3 aa a4
       2.5414472e-21 8.7080583e-16 4.745307e-21 -7.4003184e-17
000080 3c b8 92 a4 22 a9 16 9d 89 95 a7 1e dd 52 42 35
       -6.362951e-17 -1.9939774e-21 1.7743659e-20 7.2391214e-07
000090 81 a6 86 9f c6 a7 95 a0 e5 92 c9 36 9b 5d 8a 1e
       -5.7026665e-20 -2.5352605e-19 6.0073676e-06 1.4650033e-20
0000a0 ea 1a e7 a6 69 3a 0d 9e 28 85 4b 9f e6 c3 8c 1e
       -1.603614e-15 -7.476557e-21 -4.3097066e-20 1.4904098e-20
0000b0 85 6a 71 36 ac 3b 9e 9c ff 20 57 21 77 75 0b a0
       3.59738e-06 -1.0470988e-21 7.2888503e-19 -1.1812624e-19
0000c0 e2 0c 35 b5 1f 9c 36 1d 64 d1 92 b5 4f c8 a7 a2
       -6.74465e-07 2.4168212e-21 -1.0938788e-06 -4.5477526e-18
0000d0 aa de aa 1f ad 15 ea 9e a9 f8 37 b7 c8 e1 b1 b2
       7.236617e-20 -2.4784679e-20 -1.0965546e-05 -2.0708185e-08
0000e0 60 00 42 9d cd da 95 21 13 6c c6 b4 60 5a 43 a0
       -2.567588e-21 1.0154549e-18 -3.6959008e-07 -1.6547045e-19
0000f0 d3 f4 72 1e ed 87 07 b4 45 9e 15 1f 26 a0 9b b0
       1.2862002e-20 -1.2622304e-07 3.1682895e-20 -1.1323251e-09
000100 f6 00 3e a4 5c 08 91 9d 71 15 f7 a0 02 9d fa 2f
       -4.1200497e-17 -3.8389824e-21 -4.1857616e-19 4.5586296e-10
000110 92 f8 c4 ac 94 19 92 1d ee 4c e3 21 dd 20 1d 35
       -5.598252e-12 3.8672325e-21 1.5402481e-18 5.853488e-07
000120 96 b4 27 b5 1a 09 05 37 1a 46 93 1b 0d 51 9b a6
       -6.2475135e-07 7.929537e-06 2.4364412e-22 -1.0777254e-15
000130 cc eb 5c a2 10 2d 04 9e 47 1b d1 1c c9 74 6a 9f
       -2.994039e-18 -6.9973405e-21 1.3837511e-21 -4.964803e-20
000140 46 f6 12 28 f1 2c 69 9d ff 52 fe 1f db 79 b0 a1
       8.15803e-15 -3.0860527e-21 1.0771049e-19 -1.1958479e-18
000150 14 6b 71 9d 40 9e db 22 b1 83 17 1f 6a a7 6c b7
       -3.1951443e-21 5.9527623e-18 3.2084426e-20 -1.4105675e-05
000160 d9 14 ba 36 fa 26 f3 b1 5e f4 90 27 35 b3 ad 25
       5.545659e-06 -7.076662e-09 4.0232972e-15 3.0132152e-16
000170 f1 a2 db 27 bf 78 13 a9 8b 03 73 9f d1 d3 2d a0
       6.096137e-15 -3.2745287e-14 -5.1460182e-20 -1.4723754e-19
000180 46 68 3f b4 a4 1f 05 37 a7 ad d3 b2 0f af ca b2
       -1.7826196e-07 7.934785e-06 -2.46426e-08 -2.3595502e-08
000190 a4 4e 7d 20 d8 e7 e1 1c ab c9 0f a1 32 7b ad 24
       2.1455954e-19 1.4949181e-21 -4.871719e-19 7.523549e-17
0001a0 99 c8 13 9d 01 0f 49 20 a0 d3 1f 9d af e1 7f 9a
       -1.9558995e-21 1.7030327e-19 -2.1152882e-21 -5.291507e-23
0001b0 41 1b 3c a0 bf 5d 1d a3 80 28 24 9e a0 d9 66 ac
       -1.5933237e-19 -8.5308386e-18 -8.690463e-21 -3.2805772e-12
0001c0 32 aa 06 9e cc 61 8a 2c bd e8 0f 37 04 a6 28 a8
       -7.1290965e-21 3.9330535e-12 8.577653e-06 -9.361872e-15
0001d0 11 6a 14 b2 38 93 a2 9e f8 2e 84 ac cf 69 19 b1
       -8.6388505e-09 -1.7213305e-20 -3.7568802e-12 -2.2324576e-09
0001e0 5b 3a a1 a6 a4 aa 3c 9f 71 f8 41 a8 d8 3d 30 29
       -1.1187436e-15 -3.99517e-20 -1.0767524e-14 3.913349e-14
0001f0 7b c4 34 22 9d f3 5d 26 71 b4 f8 a6 d4 e9 69 b5
       2.4498565e-18 7.7004935e-16 -1.7257366e-15 -8.713953e-07
000200 6b 7a 10 25 d7 db 83 21 84 4c 01 1e 4e f9 ff 21
       1.2531486e-16 8.935096e-19 6.845026e-21 1.7345463e-18
000210 7d 18 a2 32 58 ef db 33 23 c8 c5 2c e5 6c 43 2a
       1.8870418e-08 1.02415186e-07 5.6212964e-12 1.735726e-13
000220 3c ec 1c 26 ad 05 e7 b3 17 fd 08 1f 57 a8 cb a0
       5.444353e-16 -1.0757808e-07 2.900847e-20 -3.4500936e-19
000230 a4 03 6c 37 d8 34 6f a8 8b ee af a5 bd 4a 02 1d
       1.4067544e-05 -1.3278624e-14 -3.0519304e-16 1.7243996e-21
000240 7d df f7 33 23 0c cc b0 53 36 f7 a2 a0 43 a0 a0
       1.1542486e-07 -1.4846403e-09 -6.7007002e-18 -2.7149805e-19
000250 0e 83 17 1e 07 00 6e 9e 45 e6 07 2f 69 68 a5 b5
       8.020975e-21 -1.2599621e-20 1.2359987e-10 -1.2323845e-06
000260 da 85 0b 1d ab 6a 75 34 ab ce 2a 22 c7 87 2f 33
       1.8465696e-21 2.2856209e-07 2.3148705e-18 4.086885e-08
000270 2c c5 20 32 ad 35 d8 35 0b da be aa d1 c1 61 1e
       9.358057e-09 1.6108876e-06 -3.3902078e-13 1.1951481e-20
000280 bb 67 ec a3 2c 22 7c b6 5f 5f 62 37 62 42 84 9e
       -2.5631103e-17 -3.7570817e-06 1.3492855e-05 -1.4003499e-20
000290 14 46 b9 9d cd fc d9 aa 98 49 bf b5 46 df 93 1d
       -4.904155e-21 -3.872236e-13 -1.4252028e-06 3.9141435e-21
0002a0 da 7d 29 2a 4a 00 8a 33 68 28 08 30 de f4 1e aa
       1.5053879e-13 6.426178e-08 4.953393e-10 -1.4118174e-13
0002b0 ec 06 84 aa b6 1a 22 9f 64 e1 48 b7 3e 1f 40 24
       -2.3452713e-13 -3.432693e-20 -1.1973407e-05 4.1659827e-17
0002c0 e1 a1 72 a8 2c ea 3c 1f 70 e1 61 32 c9 8f 11 1f
       -1.34688005e-14 4.000425e-20 1.3147982e-08 3.082388e-20
0002d0 81 18 26 1b ee ed 60 9e 1c 86 6c 20 fc 5c ea 9f
       1.3739116e-22 -1.1907664e-20 2.003435e-19 -9.9256685e-20
0002e0 51 f1 62 b2 48 2e 88 9d fd fc 9f 24 a9 46 e6 1d
       -1.32098e-08 -3.6046754e-21 6.938384e-17 6.0953554e-21
0002f0 7a 01 d9 b0 7f 0b 8d 2f d1 d6 07 29 70 77 d6 35
       -1.5789248e-09 2.565592e-10 3.0162345e-14 1.5979003e-06
000300 e7 15 98 9c a8 5c 11 23 76 18 ae 9c 25 cd 8f a1
       -1.0064178e-21 7.8800865e-18 -1.1520677e-21 -9.744358e-19
000310 83 f0 0d b6 d2 e1 51 1e d0 37 5b 27 37 45 2a 1d
       -2.1150634e-06 1.11110664e-20 3.0422611e-15 2.2535096e-21
000320 b3 12 a3 b2 a3 58 94 36 09 3a ba 36 16 d5 3e a8
       -1.89842e-08 4.4210624e-06 5.549988e-06 -1.0593324e-14
000330 e8 b8 20 31 49 b9 02 23 f2 a3 ea a4 f0 8c 2b b3
       2.3388171e-09 7.08655e-18 -1.0175906e-16 -3.9942222e-08
000340 f8 6d 70 1e 7e 3e e7 a1 6b 4a 2c a2 8e a9 2b 9b
       1.2728235e-20 -1.566971e-18 -2.3349743e-18 -1.4199575e-22
000350 ef 52 d1 a3 ff 61 8e 9e 70 d4 fa 26 1b 63 30 b6
       -2.2694949e-17 -1.5075365e-20 1.7404816e-15 -2.628373e-06
000360 81 1a e7 21 e3 50 39 9d b7 c4 29 2f f4 67 3f a4
       1.5660184e-18 -2.4526364e-21 1.5440348e-10 -4.1504575e-17
000370 08 1f e5 21 eb b3 3a 1f 2b a6 1e af 75 3a f8 9f
       1.5525857e-18 3.9535857e-20 -1.4429051e-10 -1.05128795e-19
000380 b5 b0 98 31 0d 81 b4 27 27 59 ca 9d 54 92 0e 21
       4.4438715e-09 5.0099953e-15 -5.3561136e-21 4.8305135e-19
000390 a1 c8 0a 36 e4 66 6c b5 21 19 2b 20 79 c9 9a 36
       2.0680384e-06 -8.8066577e-07 1.4492578e-19 4.613012e-06
0003a0 b1 e4 47 9e 62 a7 0d 1c 9b cc 35 32 28 7c ea 33
       -1.05822646e-20 4.6869324e-22 1.05821085e-08 1.0919058e-07
0003b0 46 93 c6 9d a7 1e 40 b7 a0 dd 01 2a db e7 63 b4
       -5.256244e-21 -1.1451229e-05 1.1534393e-13 -2.1225371e-07
0003c0 77 95 54 1e c9 91 69 35 14 2f c4 1e e2 26 12 9a
       1.1254095e-20 8.701141e-07 2.0771778e-20 -3.0223502e-23
0003d0 94 4b e0 a6 45 1c f8 a0 80 88 b1 21 8f 3e 5a ad
       -1.5563608e-15 -4.2031541e-19 1.2030118e-18 -1.2405756e-11
0003e0 37 76 04 a1 11 44 f7 a0 c9 f3 b8 b1 ed c0 90 b5
       -4.4879796e-19 -4.188847e-19 -5.38282e-09 -1.0784985e-06
0003f0 a2 e5 ea 2d 0d 48 7b 1c a6 94 bc 1c 20 86 f1 36
       2.6704697e-11 8.3142057e-22 1.2479221e-21 7.197974e-06

lstm.bias_ih_l0 f4 [80]
000000 5b 2d 33 35 23 dd 38 a8 4a 1d 21 29 53 6d 61 35
       6.67487e-07 -1.0262003e-14 3.5774586e-14 8.397812e-07
000010 d6 ba 00 29 12 46 32 2a c1 48 dc b6 df 0e c1 23
       2.8583764e-14 1.5833886e-13 -6.5649806e-06 2.09314e-17
000020 14 d0 ee a5 d3 78 35 b7 a8 e7 a5 24 95 92 49 b6
       -4.1427418e-16 -1.0816572e-05 7.1949784e-17 -3.0036656e-06
000030 a6 f0 e9 29 2c 49 35 24 2d 9a 8f a6 97 80 cf 26
       1.03890244e-13 3.9310098e-17 -9.964408e-16 1.4398365e-15
000040 88 e9 1c 32 47 6c 66 a7 e3 45 11 25 c3 76 8f a8
       9.133494e-09 -3.197761e-15 1.2600424e-16 -1.5927694e-14
000050 27 e8 4e 25 12 35 2a b4 09 e0 6a 31 f5 ea eb 27
       1.7946308e-16 -1.585179e-07 3.417883e-09 6.5480344e-15
000060 88 27 13 b5 cc 26 6c 21 7c fe 1f 2a 25 82 81 23
       -5.4819293e-07 8.001126e-19 1.4210329e-13 1.4041326e-17
000070 e1 42 3d ae c9 5f 44 b2 2e c5 7f 24 99 41 3f 36
       -4.3033025e-11 -1.1430481e-08 5.546133e-17 2.84994e-06
000080 27 c6 a7 28 d2 4d 88 b0 26 58 18 24 3c af 5b 2c
       1.862666e-14 -9.91742e-10 3.303441e-17 3.1219046e-12
000090 45 4a 09 34 8c 84 35 b7 92 69 0c 25 5c b4 2b 31
       1.2786138e-07 -1.0819302e-05 1.2178833e-16 2.4986297e-09
0000a0 01 91 69 b2 08 9e d3 34 da 06 fa 31 d4 d6 44 b3
       -1.3595355e-08 3.9416796e-07 7.2767365e-09 -4.583019e-08
0000b0 10 eb 85 b4 c5 64 95 30 52 0d 6d 37 9d c6 93 31
       -2.494421e-07 1.0869817e-09 1.4129402e-05 4.300843e-09
0000c0 7f b0 d6 33 af 0e 44 b1 7e 21 72 b2 2a 40 2b b0
       9.997256e-08 -2.85301e-09 -1.4093869e-08 -6.230062e-10
0000d0 cf 85 b4 36 1d 03 79 b1 23 f4 d1 b1 20 34 00 b3
       5.3799954e-06 -3.6236039e-09 -6.1104557e-09 -2.984973e-08
0000e0 f7 c9 91 33 c1 e6 25 b1 f5 ab a6 31 98 d4 10 b3
       6.788826e-08 -2.4141829e-09 4.850785e-09 -3.3720966e-08
0000f0 a9 12 95 b2 7d 16 2a a8 f5 4f f0 28 8c a8 14 b6
       -1.7354369e-08 -9.441772e-15 2.6680028e-14 -2.2151826e-06
000100 88 4e 28 32 b8 0e 96 24 1d 3b 36 37 db f3 e5 28
       9.796743e-09 6.5077065e-17 1.0861809e-05 2.5529863e-14
000110 c2 04 a1 a5 6c c4 fb 2b bc c7 78 24 b3 95 17 b4
       -2.7932272e-16 1.7889141e-12 5.394561e-17 -1.4117431e-07
000120 e7 f1 39 28 6e a5 07 37 9d eb 77 24 8d ec c1 25
       1.0322017e-14 8.085144e-06 5.375916e-17 3.3640456e-16
000130 45 aa ca b0 15 c4 7b 36 25 86 18 25 90 3a 50 b1
       -1.4745828e-09 3.751605e-06 1.3229348e-16 -3.0301273e-09

lstm.bias_hh_l0 f4 [80]
000000 8d 35 0a a8 63 a3 17 a8 70 f6 0b b3 22 2c 9c 2d
       -7.672151e-15 -8.417613e-15 -3.2587593e-08 1.7754746e-11
000010 03 ea 17 29 89 9f 12 1f 8d c5 c3 2a dc ac 8a 23
       3.3731708e-14 3.1048667e-20 3.4776037e-13 1.5035199e-17
000020 9b 08 62 b3 ce dc f4 22 f5 69 39 aa eb 95 2b 36
       -5.2627552e-08 6.637012e-18 -1.6468062e-13 2.556825e-06
000030 7e c1 89 34 75 63 5b 24 24 fb 03 ac 71 d3 ce b1
       2.5659023e-07 4.75723e-17 -1.875563e-12 -6.019427e-09
000040 d8 9e ab 26 18 16 15 a3 ca 88 12 25 68 2a 5b a8
       1.1908563e-15 -8.081985e-18 1.2709827e-16 -1.21661375e-14
000050 47 cc 56 25 f5 75 03 a8 02 ae 83 2a c4 ea 9e b0
       1.8630753e-16 -7.297539e-15 2.3391017e-13 -1.1562737e-09
000060 5b 14 ec 28 a1 9f 4c 20 22 cf 7f af ee ed 67 25
       2.6210091e-14 1.7332289e-19 -2.3265703e-10 2.011667e-16
000070 2c 9d 9e b3 67 45 2f b5 91 39 a5 24 f0 6a 1d a7
       -7.386038e-08 -6.5293574e-07 7.1654865e-17 -2.1846098e-15
000080 1d 90 70 28 d6 8b a1 24 67 db ab ad e8 bc a3 25
       1.3353926e-14 7.005951e-17 -1.9537883e-11 2.8404e-16
000090 0a 3d e0 26 d3 5c de 2b 5e e5 ab 36 8d 18 a4 a8
       1.5559667e-15 1.5799813e-12 5.122899e-06 -1.8218305e-14
0000a0 a4 3f 81 b2 8f 93 51 b6 62 f6 d5 36 97 d9 75 b3
       -1.5046517e-08 -3.1229317e-06 6.3765774e-06 -5.7241405e-08
0000b0 e3 23 73 b4 8c e0 ed 2f 21 7d 9a 32 62 73 76 31
       -2.2644194e-07 4.32696e-10 1.7984862e-08 3.58633e-09
0000c0 3e eb 39 b2 85 1d 24 b1 8e c2 2f b2 fd 66 52 b0
       -1.0821905e-08 -2.388192e-09 -1.0230577e-08 -7.654391e-10
0000d0 28 dd d4 31 72 f1 91 b2 bb c8 1f b2 3a 80 11 b3
       6.1951546e-09 -1.6990018e-08 -9.300659e-09 -3.3877065e-08
0000e0 c5 2c 31 33 2f 9d f7 b0 21 7c 85 33 a3 9f bd b6
       4.125174e-08 -1.801629e-09 6.215874e-08 -5.651223e-06
0000f0 6c 4c 4c 25 fc 26 e8 a7 cb ee 61 29 f6 b3 16 2c
       1.7720072e-16 -6.4435202e-15 5.0167156e-14 2.141618e-12
000100 1e 31 61 29 dd 0a 4e b7 45 d0 46 2a 72 3e 65 23
       5.000264e-14 -1.2281086e-05 1.7658191e-13 1.2427338e-17
000110 f9 d6 50 b2 b9 c9 00 23 1a 39 d4 26 02 90 21 21
       -1.2156073e-08 6.98161e-18 1.4725932e-15 5.4739515e-19
000120 5f c3 6c 37 20 62 76 23 c3 79 ec 24 0a 60 49 2b
       1.41121845e-05 1.33564655e-17 1.0255496e-16 7.1542826e-13
000130 fb 28 a1 34 f8 5a 1b 2f 16 a9 16 25 32 03 d3 a8
       3.0018404e-07 1.4129486e-10 1.3067715e-16 -2.3427092e-14

lstm.weight_ih_l1 f4 [80, 20]
000000 1b 8c 84 b6 55 68 23 b7 92 8e bd 2d 98 7d 9b aa
       -3.950217e-06 -9.739849e-06 2.1550126e-11 -2.762068e-13
000010 db b8 b1 33 ab 5e 1f 27 19 d1 85 2e a8 86 90 ae
       8.27583e-08 2.2117002e-15 6.085283e-11 -6.5722816e-11
000020 23 f1 55 2c 3a 6b dc a8 a5 bd 8a a9 a0 0c 8f a7
       3.0402978e-12 -2.4471409e-14 -6.161329e-14 -3.970416e-15
000030 d9 e5 b6 36 94 db a8 2c 11 3c 75 a9 20 a4 75 aa
       5.4507805e-06 4.7992253e-12 -5.4453028e-14 -2.1817314e-13
000040 b4 71 7e ae 03 ab b0 2c d8 fb 6b 2a f2 91 5e ad
       -5.7853902e-11 5.021207e-12 2.0959569e-13 -1.2651645e-11
000050 e8 2c 1f a8 ee c6 d6 a6 0a 5c 2e 27 63 3e 3a a6
       -8.8360105e-15 -1.4903153e-15 2.4197245e-15 -6.4616263e-16
000060 1c 9b 62 ac 65 1f b8 b3 1a 5a d9 27 72 39 17 b6
       -3.2202635e-12 -8.573878e-08 6.0327287e-15 -2.253419e-06
000070 6d 2e 0d 24 c4 22 20 35 e2 f0 0e a3 09 bd 0e a1
       3.0613825e-17 5.9655235e-07 -7.748844e-18 -4.8361657e-19
000080 5d e9 17 27 47 aa 22 b4 05 48 ac b3 b2 00 52 a6
       2.1081966e-15 -1.5149372e-07 -8.0224744e-08 -7.285933e-16
000090 c9 ce 76 b5 7d 26 5e 28 65 1f 6a b2 56 6c 11 2a
       -9.1943053e-07 1.2331821e-14 -1.3627731e-08 1.2916174e-13
0000a0 73 42 3b aa 35 a6 09 b5 f6 ef 13 2e 71 37 27 ab
       -1.663199e-13 -5.127834e-07 3.363706e-11 -5.940726e-13
0000b0 a7 53 9f ac 6f 49 4a 28 20 eb ee 2e ea a5 0e b4
       -4.528339e-12 1.1229176e-14 1.08647535e-10 -1.328514e-07
0000c0 02 94 bf 2b cd d4 10 a9 c3 ea e6 36 8d 87 b1 a7
       1.3612447e-12 -3.2159e-14 6.881864e-06 -4.9274333e-15
0000d0 98 26 eb 2d a1 35 68 b7 ba df a4 b2 00 ec 0a ab
       2.6733546e-11 -1.3840764e-05 -1.9193852e-08 -4.9354965e-13
0000e0 7d d9 62 2b a0 19 26 a9 eb 4f 71 b6 8d 10 2b ae
       8.0593155e-13 -3.688163e-14 -3.5958317e-06 -3.88956e-11
0000f0 12 7c 90 a8 19 0d 9c ac a1 26 31 2c 26 c6 71 ac
       -1.6041018e-14 -4.435241e-12 2.5174656e-12 -3.4358154e-12
000100 9b 40 21 aa 4f ba 4d b5 54 33 a5 2c ce 1d 01 a9
       -1.4322087e-13 -7.6639566e-07 4.6952806e-12 -2.8669605e-14
000110 37 10 7b 29 fe d9 fc 2b 9b 8f 09 a8 e9 95 0d b4
       5.574726e-14 1.7966182e-12 -7.636167e-15 -1.3186185e-07
000120 fc f0 79 2c 73 44 f4 a7 34 e8 72 a9 6e 0a bc a8
       3.5518801e-12 -6.7797817e-15 -5.39362e-14 -2.0876716e-14
000130 08 8c a7 29 24 bc d1 a6 38 0b e5 28 e7 0f 09 ac
       7.4405814e-14 -1.4553284e-15 2.5428973e-14 -1.9477699e-12
000140 fa 42 de aa fb 56 f0 ac 48 85 f7 2d 3d b1 cb aa
       -3.9481596e-13 -6.830867e-12 2.8139838e-11 -3.6183028e-13
000150 68 bb 85 b6 b6 96 a1 27 cc f6 81 2e 4b aa 17 29
       -3.985526e-06 4.4849878e-15 5.910081e-11 3.367644e-14
000160 ce 06 24 2b 37 96 95 a8 04 26 0d aa 4c d3 aa a7
       5.827395e-13 -1.6607468e-14 -1.2536505e-13 -4.7413567e-15
000170 ca 9e 9d b6 3e f3 6a a9 34 39 12 31 a4 4d 0f b5
       -4.69745e-06 -5.2169417e-14 2.1278312e-09 -5.3384633e-07
000180 06 7b 89 2a c2 6c 26 a8 f7 cf f2 2a 3c 22 b5 ad
       2.4421453e-13 -9.238434e-15 4.313214e-13 -2.059252e-11
000190 af ce a2 a9 6a c3 15 ad 10 c2 55 2d 9f 17 f2 2a
       -7.230099e-14 -8.51306e-12 1.2150739e-11 4.3004226e-13
0001a0 97 ab 84 ab eb 11 ca 27 65 dc 16 2e 44 55 a1 28
       -9.42679e-13 5.608569e-15 3.43018e-11 1.7911569e-14
0001b0 d2 a2 63 af bb c5 c7 a8 8d 4b a3 a9 29 72 49 a7
       -2.0703375e-10 -2.217919e-14 -7.25176e-14 -2.795624e-15
0001c0 98 c3 c5 b4 de 22 4b a9 3b a0 84 b5 57 27 19 aa
       -3.6836423e-07 -4.5105297e-14 -9.8814e-07 -1.3602779e-13
0001d0 1e 32 2b ae c2 22 3b a8 fa f6 8b 36 f7 9c d5 ad
       -3.892541e-11 -1.0388122e-14 4.1712747e-06 -2.4285003e-11
0001e0 4d bd 63 36 02 42 d1 af f3 13 65 b7 4b f0 6d ad
       3.3935823e-06 -3.806378e-10 -1.3654108e-05 -1.3525246e-11
0001f0 6a b5 91 ae 18 c4 8f 2a e7 cf 64 31 99 cb c0 2b
       -6.626062e-11 2.553797e-13 3.3296546e-09 1.369893e-12
000200 cb db 24 36 ab f0 8f b4 eb c6 e9 ac 79 b4 57 aa
       2.456584e-06 -2.6810935e-07 -6.6443426e-12 -1.915845e-13
000210 56 24 06 31 f6 d5 59 ac 47 14 03 ac 5e 12 ee ad
       1.952022e-09 -3.0956327e-12 -1.8627476e-12 -2.7065624e-11
000220 4e 10 a2 2d 0e aa 03 ab 87 3d 6c 35 f4 ba f1 b0
       1.8424508e-11 -4.677655e-13 8.8006385e-07 -1.7588193e-09
000230 61 10 93 b2 80 dd 89 ad 77 76 07 34 19 83 00 ab
       -1.71205e-08 -1.5673463e-11 1.2615952e-07 -4.565667e-13
000240 b1 f5 c1 ac 78 bc 41 b7 e1 cb f1 b6 c7 e3 ae b4
       -5.512667e-12 -1.1547578e-05 -7.2060943e-06 -3.2575755e-07
000250 17 46 8b 34 dd f0 b8 b5 24 46 e8 a9 62 71 e5 a7
       2.5941765e-07 -1.3779169e-06 -1.0315037e-13 -6.36832e-15
000260 ab 83 75 b3 f0 eb 24 b6 d4 19 7d a9 a3 19 c7 aa
       -5.716326e-08 -2.4575238e-06 -5.6199687e-14 -3.536729e-13
000270 a0 db 6e 35 7d 11 d7 a8 08 2b 83 2b 3f 31 89 31
       8.8981506e-07 -2.387738e-14 9.320053e-13 3.9928234e-09
000280 70 06 c2 ac aa 16 32 35 39 5a b1 36 d1 84 13 ac
       -5.5145263e-12 6.634315e-07 5.2855144e-06 -2.0963684e-12
000290 fa 91 ad ac cf f6 f3 28 40 b8 b2 b1 74 1c 07 b5
       -4.9331624e-12 2.7085456e-14 -5.2014286e-09 -5.0332824e-07
0002a0 f0 8e b0 2b 49 49 09 a8 41 71 c4 32 46 e2 e2 a8
       1.2545225e-12 -7.620919e-15 2.2868905e-08 -2.518917e-14
0002b0 6a d0 13 30 c3 c4 21 b7 1d e9 a4 35 96 5a f4 2b
       5.377446e-10 -9.64216e-06 1.2286797e-06 1.7362385e-12
0002c0 45 7d 95 2b b7 95 f9 b4 96 6d 5a 33 a8 e3 15 af
       1.0621856e-12 -4.6488796e-07 5.0856748e-08 -1.3632351e-10
0002d0 3d 2d 11 a8 e9 b9 38 ab 5f f9 ed 2b 7f f6 21 b6
       -8.058926e-15 -6.5627934e-13 1.6909077e-12 -2.413435e-06
0002e0 4b 2c 40 aa eb 54 bd 25 5d 7f 2d b5 f0 76 e6 26
       -1.7068393e-13 3.2843816e-16 -6.463286e-07 1.5991694e-15
0002f0 da 18 1d 2e 91 39 00 a7 9f aa fb a7 a7 e5 27 b7
       3.571974e-11 -1.7794775e-15 -6.9851483e-15 -1.0007446e-05
000300 51 32 0d 30 7c 1e b5 a7 80 43 90 a7 ee de 99 a8
       5.1367005e-10 -5.0270643e-15 -4.0041213e-15 -1.7083093e-14
000310 e0 4b ed 28 e6 57 fd b3 8d e8 60 28 cf 54 bc ab
       2.6345191e-14 -1.1797219e-07 1.2484924e-14 -1.3381743e-12
000320 8f 9e d5 b6 ec 71 0f ab b7 a5 a1 b4 ff 40 1c 32
       -6.3663533e-06 -5.0961904e-13 -3.010916e-07 9.0951735e-09
000330 02 85 01 aa f2 1e c7 2c 19 fd ae b5 24 c8 51 37
       -1.1503648e-13 5.659356e-12 -1.3037671e-06 1.250397e-05
000340 2b 00 70 28 4f 75 d1 a6 18 a9 e7 a7 30 4b ef b6
       1.3322713e-14 -1.4534085e-15 -6.429871e-15 -7.131508e-06
000350 25 76 0f 2c b4 a9 b6 a7 32 66 4a a7 84 52 79 a8
       2.0387106e-12 -5.069914e-15 -2.8088532e-15 -1.3840169e-14
000360 93 64 84 b2 a1 65 8a a6 c7 06 7f ac 8b d8 14 ac
       -1.5412558e-08 -9.60322e-16 -3.6241442e-12 -2.115227e-12
000370 7f 17 19 b7 22 fa 9e ae 76 3a a0 35 02 b8 57 ac
       -9.124981e-06 -7.229441e-11 1.1937943e-06 -3.0655482e-12
000380 88 25 99 ad 1e 92 2f 35 3f f4 dc 2f d9 a8 25 b6
       -1.7410753e-11 6.540521e-07 4.0191314e-10 -2.4685198e-06
000390 3e a8 ad 2c ad a8 11 aa d3 31 f1 b4 c7 88 42 a9
       4.9356344e-12 -1.2937108e-13 -4.4926e-07 -4.319529e-14
0003a0 dd a5 95 b6 a0 87 02 ad 42 37 0d ab 45 1b a4 ac
       -4.459855e-06 -7.419759e-12 -5.016995e-13 -4.664188e-12
0003b0 a4 00 48 2c 06 c6 37 aa 41 2a 0b 2c 57 3e 3f af
       2.8422065e-12 -1.6322368e-13 1.9776544e-12 -1.7393496e-10
0003c0 bd f5 01 ab 60 a7 90 ad 8d 4b 88 2e e4 44 44 ab
       -4.6171037e-13 -1.6445234e-11 6.1979845e-11 -6.9728793e-13
0003d0 9b e9 09 ad 8f a1 97 b5 21 32 a9 2f 73 27 1b 37
       -7.839419e-12 -1.1297396e-06 3.077654e-10 9.247905e-06
0003e0 93 17 89 2b f7 22 6f a9 e6 f5 81 aa c8 ac a8 2b
       9.740979e-13 -5.3098988e-14 -2.308563e-13 1.1985074e-12
0003f0 b1 26 88 2e fd 22 0e aa c4 e9 d7 ac b5 92 82 ab
       6.191437e-11 -1.2624273e-13 -6.1366207e-12 -9.277775e-13

lstm.weight_hh_l1 f4 [80, 20]
000000 4a a4 3c b3 34 d0 00 34 fd 87 bd b2 0b 41 83 b1
       -4.392158e-08 1.1996673e-07 -2.2064336e-08 -3.8199963e-09
000010 0d 63 72 32 b5 80 26 32 14 20 ab 32 5e a6 c0 b2
       1.41087755e-08 9.691736e-09 1.9921607e-08 -2.2427397e-08
000020 04 d1 40 36 bb 64 b0 b1 2f 15 6b b7 12 1b 1e 33
       2.8731893e-06 -5.133726e-09 -1.4012024e-05 3.6811862e-08
000030 33 1a bf 32 ab 2d 64 32 29 70 40 2d 2b 0c 0b 31
       2.224724e-08 1.328173e-08 1.0938841e-11 2.0234079e-09
000040 27 5b 58 b2 a9 59 6c 33 ba 6e 0e 31 96 ae 0f b2
       -1.259358e-08 5.5029577e-08 2.072666e-09 -8.363392e-09
000050 7f 57 0d ac 0c 2d bd a8 6a 8c 61 ac d4 ea 25 32
       -2.0085875e-12 -2.1002751e-14 -3.2052369e-12 9.657658e-09
000060 f2 91 89 ae d2 5c 02 2d ad 6e 51 ad ef 34 3a ac
       -6.255964e-11 7.410255e-12 -1.19048495e-11 -2.6461574e-12
000070 9b 34 a5 2c 40 ef 17 ab fd 60 f1 aa 08 f8 10 b2
       4.6954224e-12 -5.3978e-13 -4.28775e-13 -8.438299e-09
000080 1d 78 2d 2c e3 7a fb b6 d0 fb fe 26 f4 35 b0 2a
       2.4651455e-12 -7.494689e-06 1.7693044e-15 3.1301318e-13
000090 67 cc 08 ac ef 61 81 b4 dc c6 91 29 1f 96 60 ab
       -1.9440229e-12 -2.4099378e-07 6.47379e-14 -7.978912e-13
0000a0 81 62 02 b3 2f 29 b4 af 2f 59 0c b3 49 56 fc b1
       -3.0357572e-08 -3.2771072e-10 -3.2677402e-08 -7.3439748e-09
0000b0 da d1 04 33 e4 5a af 32 fe 5e 70 b4 9e 4b 37 37
       3.0924504e-08 2.0414014e-08 -2.23863e-07 1.0925256e-05
0000c0 ee 69 6c 33 60 bf e1 b1 0a c3 0e b2 ed 47 d6 33
       5.5044374e-08 -6.5701187e-09 -8.309835e-09 9.978235e-08
0000d0 60 4d 64 33 f0 e5 a7 32 38 fc 99 2d a3 17 89 31
       5.315576e-08 1.9545922e-08 1.7506094e-11 3.989912e-09
0000e0 d1 2a d4 b2 22 e7 04 34 80 e5 03 35 65 cf 26 b2
       -2.4699519e-08 1.2377544e-07 4.913527e-07 -9.709628e-09
0000f0 ae f0 b9 b0 fd a8 aa ad e2 90 5d b1 c6 9a 39 b0
       -1.3528927e-09 -1.9401808e-11 -3.224209e-09 -6.7522554e-10
000100 8e f9 b8 30 cf 3c a3 30 85 e9 48 b2 e0 32 d7 b0
       1.345869e-09 1.1877094e-09 -1.1694628e-08 -1.5657768e-09
000110 49 b1 5d 31 ed 05 ae af 1a d6 4c 31 e3 28 8d 31
       3.2260508e-09 -3.1654626e-10 2.980761e-09 4.1082884e-09
000120 58 26 58 31 aa b3 81 34 ee b7 c1 2b e0 78 0d 32
       3.1453933e-09 2.4158845e-07 1.3764526e-12 8.234764e-09
000130 22 94 fc b0 b0 d3 19 35 9d 8f 6f 2e 85 46 b4 b6
       -1.8377515e-09 5.730499e-07 5.4469863e-11 -5.3726276e-06
000140 01 e9 13 b3 ff a3 b4 b1 3f 87 ad b2 6d 2f 85 b1
       -3.443802e-08 -5.2573337e-09 -2.0201353e-08 -3.876201e-09
000150 b8 b5 be 32 67 92 3a 32 f1 5d 14 b4 d7 08 8b b2
       2.2201547e-08 1.0859913e-08 -1.381775e-07 -1.618575e-08
000160 45 ef e3 32 98 59 63 b1 05 2e 49 b1 13 64 12 33
       2.6535085e-08 -3.3083776e-09 -2.9275509e-09 3.408429e-08
000170 bf 4a a6 32 e1 e0 49 32 44 a1 53 2d cb f1 16 31
       1.9358934e-08 1.1750871e-08 1.20297695e-11 2.1965316e-09
000180 7f 8a 1b b2 8b 9b 36 37 b6 ae 27 30 d8 85 58 35
       -9.053678e-09 1.08842605e-05 6.1002525e-10 8.066104e-07
000190 bf e7 66 b2 57 86 17 af 4e 35 5c b2 17 7d 5e b1
       -1.3440455e-08 -1.3781097e-10 -1.28178055e-08 -3.2376357e-09
0001a0 fa d5 16 32 7b 69 06 32 18 8b 73 b7 87 d4 33 b2
       8.779802e-09 7.82381e-09 -1.4516314e-05 -1.0467494e-08
0001b0 1e a8 bf 32 a3 06 41 b1 22 bc 48 b1 f7 9f 02 34
       2.2311777e-08 -2.808897e-09 -2.9210772e-09 1.2165388e-07
0001c0 ac 27 a2 32 3b 68 79 32 63 50 24 2d ee f6 9a b5
       1.8877323e-08 1.4517407e-08 9.34017e-12 -1.154576e-06
0001d0 ab 3f 2e b2 5a 68 22 33 67 82 07 30 35 6d a7 b1
       -1.0142609e-08 3.781347e-08 4.9298027e-10 -4.872755e-09
0001e0 99 d3 d6 b5 13 c7 dd b1 81 ee 97 b5 e0 ab d5 b4
       -1.6005826e-06 -6.4545786e-09 -1.131979e-06 -3.9799397e-07
0001f0 3c 01 21 35 ce 8f 17 35 d0 7a b1 b6 b0 1e a5 b5
       5.997897e-07 5.6461147e-07 -5.2893083e-06 -1.2302389e-06
000200 c8 1a 1f 37 26 4e a4 36 71 bf 4e b4 dc b5 32 36
       9.483374e-06 4.8966785e-06 -1.9254891e-07 2.6629923e-06
000210 15 b4 f3 35 11 8d 0b 35 11 b3 22 30 39 20 26 34
       1.8157322e-06 5.1986814e-07 5.9189725e-10 1.5471677e-07
000220 f0 c9 0f b5 41 d4 7b 36 03 96 0b 33 2e be d3 b4
       -5.356551e-07 3.7525463e-06 3.2499894e-08 -3.9440187e-07
000230 3f 50 8d b2 2c 09 79 af 2d 78 91 b2 71 fc fa b1
       -1.6451052e-08 -2.2649677e-10 -1.6934871e-08 -7.304657e-09
000240 77 f6 00 33 a5 1b 3c 37 5d 26 54 b4 f7 05 c6 b2
       3.002648e-08 1.121211e-05 -1.9757995e-07 -2.3052946e-08
000250 fd 07 1f 33 ca 8b b4 b1 b8 b4 fb b1 89 88 72 33
       3.7027338e-08 -5.2545817e-09 -7.325607e-09 5.6469194e-08
000260 06 db 5d 33 c8 33 eb 32 6e 48 b3 2d 2a db 55 b3
       5.1654773e-08 2.7381148e-08 2.038211e-11 -4.9792256e-08
000270 c4 e4 be b2 ab bf 13 34 62 11 57 30 6c 06 83 b5
       -2.2222942e-08 1.376017e-07 7.8241247e-10 -9.76213e-07
000280 45 23 64 b3 b0 9d 3f af f6 c7 9a b3 a4 e0 a4 b2
       -5.3117464e-08 -1.742737e-10 -7.2075565e-08 -1.9194268e-08
000290 3b c6 58 33 21 41 42 33 a7 7a be b4 f4 d0 33 b5
       5.047171e-08 4.522838e-08 -3.54795e-07 -6.6986763e-07
0002a0 05 de 18 34 30 05 7d b2 5b d1 56 b2 0d 9a d0 36
       1.4236873e-07 -1.4727718e-08 -1.2504041e-08 6.216817e-06
0002b0 c7 a2 b4 33 c7 2f d3 33 5e 2b 3a 37 f4 b4 2c 32
       8.411512e-08 9.834144e-08 1.1096561e-05 1.0052862e-08
0002c0 9a d9 f5 36 ba 33 54 34 08 e3 11 b4 bf 7a b2 b3
       7.326901e-06 1.9762857e-07 -1.3586771e-07 -8.311098e-08
0002d0 4a 26 83 b0 b7 db 81 ad 50 0f 43 b1 65 2d 78 36
       -9.542387e-10 -1.4763175e-11 -2.8384939e-09 3.6981303e-06
0002e0 72 e1 7f b6 91 90 51 b6 f0 3f 67 b2 99 4f ae b0
       -3.8129187e-06 -3.1227576e-06 -1.3460507e-08 -1.2682789e-09
0002f0 07 8f 41 31 a7 41 8c af 60 4b 86 af 80 b2 14 36
       2.8166498e-09 -2.55125e-10 -2.4428015e-10 2.215762e-06
000300 db 13 7a 31 e4 ca 81 30 a4 85 b2 2b 5c 3d 8b 2f
       3.6391075e-09 9.44365e-10 1.2684753e-12 2.532755e-10
000310 69 68 2c b0 20 9e 6b 36 0f 7c 8c 2e 4e 77 6d b0
       -6.272161e-10 3.510977e-06 6.3885e-11 -8.638964e-10
000320 29 2c c6 b0 06 42 53 ad 57 aa 7c 36 18 41 23 b0
       -1.4418947e-09 -1.20086215e-11 3.7650077e-06 -5.939156e-10
000330 44 e0 a5 b5 00 13 77 30 50 74 cd b1 07 30 e1 b0
       -1.2358728e-06 8.9885077e-10 -5.9795084e-09 -1.6384555e-09
000340 0a 41 f0 30 0d b4 89 af ad 30 81 af ea 78 c1 b3
       1.7480783e-09 -2.5048089e-10 -2.349955e-10 -9.009257e-08
000350 2c f7 ab 30 74 f0 cd 30 00 fa 85 2b 36 5f 6a 2f
       1.2512138e-09 1.4984054e-09 9.519607e-13 2.1316002e-10
000360 51 e8 35 b0 08 63 80 31 05 da 4f 2e 8c 30 c0 af
       -6.617756e-10 3.736549e-09 4.725999e-11 -3.495909e-10
000370 1a 13 19 b4 d0 88 1e b6 db 24 2c b4 85 37 2a b3
       -1.4256184e-07 -2.362347e-06 -1.6032156e-07 -3.9631704e-08
000380 02 18 ee 33 fc 30 28 34 2a 1d 9a b5 19 b8 93 b4
       1.10871056e-07 1.566404e-07 -1.1482382e-06 -2.7514832e-07
000390 1d c9 9e 34 f6 04 33 b3 54 83 ee b6 e8 3b c1 34
       2.9576123e-07 -4.1681197e-08 -7.1082413e-06 3.599264e-07
0003a0 8c 74 38 34 41 52 04 34 a9 e6 04 2f df 0d a3 32
       1.7178735e-07 1.2323382e-07 1.2087277e-10 1.8982005e-08
0003b0 53 f3 28 b6 d7 6d aa b5 95 59 f9 32 f2 88 7e b3
       -2.5175584e-06 -1.2697955e-06 2.9028152e-08 -5.9263535e-08
0003c0 54 fb 2a b3 b5 4a e8 af 1d a3 64 b3 9c 23 94 b5
       -3.980979e-08 -4.2253637e-10 -5.3233737e-08 -1.1037223e-06
0003d0 01 92 43 33 1e bd 11 33 eb f1 12 b5 9c 19 79 b3
       4.5534765e-08 3.3932444e-08 -5.4741275e-07 -5.7998122e-08
0003e0 fd e7 19 36 00 ac 04 b2 21 5c 52 b2 f7 7a 38 34
       2.2933812e-06 -7.7225195e-09 -1.22445565e-08 1.718107e-07
0003f0 3c ee 65 33 f3 cc 47 37 08 5d 12 2e dd 59 d0 31
       5.353489e-08 1.1909043e-05 3.3279185e-11 6.063813e-09

lstm.bias_ih_l1 f4 [80]
000000 9d 58 94 36 e6 bf ad 31 26 22 40 37 82 b1 ef b6
       4.4210597e-06 5.056779e-09 1.1452043e-05 -7.1434197e-06
000010 25 18 a2 36 9b d7 da 36 ab 50 8f 39 36 70 dd 37
       4.830787e-06 6.522006e-06 0.00027335188 2.6397505e-05
000020 e5 e0 bf 37 e9 36 02 35 0e 76 ba 34 6f 68 e9 38
       2.2873699e-05 4.850868e-07 3.4731096e-07 0.00011129758
000030 63 d8 90 37 e3 de 5e b6 a0 f9 f0 2c e4 0c 33 34
       1.72669e-05 -3.3210315e-06 6.848924e-12 1.6675364e-07
000040 23 c8 46 36 5f 51 c0 38 2d 9b 50 b6 34 a7 60 35
       2.9620794e-06 9.17043e-05 -3.108474e-06 8.3689815e-07
000050 74 b2 db 36 a4 a1 36 30 87 c2 5b 37 03 8b 3a 35
       6.5474833e-06 6.644092e-10 1.3098709e-05 6.949269e-07
000060 e1 ec d1 36 eb 8e 93 36 8d 7b ac 39 f1 ae 0b 37
       6.2562617e-06 4.3975792e-06 0.0003289845 8.325777e-06
000070 5f 24 e8 37 71 dd 2b 35 ba 7e f5 34 ae b1 61 38
       2.7673492e-05 6.4024704e-07 4.5727012e-07 5.3809657e-05
000080 82 5f fb 37 e3 c3 65 36 0c ad 99 b3 9c 30 86 34
       2.9966006e-05 3.423768e-06 -7.156095e-08 2.4994813e-07
000090 91 25 48 36 fb 97 99 38 2a 31 55 b5 a8 b5 ef 35
       2.982419e-06 7.323917e-05 -7.9420226e-07 1.7859757e-06
0000a0 34 6f 1f bb f4 82 f3 b7 db 1c 67 bb df 65 56 ba
       -0.0024327757 -2.9028837e-05 -0.0035265002 -0.0008178632
0000b0 e1 55 18 3b c2 65 13 3b 51 82 92 bc 31 70 33 bb
       0.0023244547 0.0022491072 -0.017884405 -0.0027380104
0000c0 4a 7b 8b 3b 51 01 1c ba 35 8d 25 ba 01 92 d9 3b
       0.0042566406 -0.0005951124 -0.0006315292 0.0066397195
0000d0 eb 71 73 3b c8 eb 11 3b b5 ed 2d 36 de 43 e5 39
       0.0037146758 0.002226578 2.5917373e-06 0.0004372885
0000e0 bc 9b cc ba af 17 27 3c 56 11 b6 38 bd 86 86 ba
       -0.0015610377 0.010198518 8.681665e-05 -0.0010263544
0000f0 c8 95 d2 36 e7 e8 4f 30 02 50 5b 37 4d 0f 56 35
       6.2759245e-06 7.5637135e-10 1.30720455e-05 7.974348e-07
000100 f6 81 a5 36 be 40 89 36 ea 17 b6 39 4f b3 f9 36
       4.9325126e-06 4.090455e-06 0.00034731562 7.4416525e-06
000110 b1 e3 e7 37 b3 b5 0d 35 b0 b6 cb 34 f4 27 4e 38
       2.7643373e-05 5.2791e-07 3.794462e-07 4.9151437e-05
000120 a2 d1 93 37 68 21 7c 36 ad ef e7 2c 03 9a 68 34
       1.7621383e-05 3.7570371e-06 6.5920242e-12 2.1662713e-07
000130 51 02 6e 36 6b 38 9a 38 5c da 0a 32 e8 5d 86 35
       3.5466112e-06 7.353801e-05 8.082306e-09 1.0011108e-06

lstm.bias_hh_l1 f4 [80]
000000 bf fa c1 36 34 0f 3b 30 77 a1 3b 37 d3 0a 13 35
       5.781039e-06 6.805181e-10 1.11836625e-05 5.477752e-07
000010 1f 5b 99 36 6a b1 94 36 8d 5a 8c 39 9a a6 66 37
       4.570363e-06 4.4313974e-06 0.00026770346 1.3747858e-05
000020 06 0d e0 37 97 11 0f 35 76 94 e2 34 a8 56 8f 38
       2.6708945e-05 5.329725e-07 4.22038e-07 6.834912e-05
000030 45 7e 45 37 6b 28 75 36 bf e0 c3 2c 7e b9 31 34
       1.1771514e-05 3.6531371e-06 5.567185e-12 1.6551891e-07
000040 05 da 3f 36 f3 ec be 38 f5 85 11 32 96 0b 8c 35
       2.8588122e-06 9.104041e-05 8.470569e-09 1.0434185e-06
000050 e8 33 9e 36 54 3d 46 30 63 fa 29 37 c1 36 70 35
       4.7148096e-06 7.2119133e-10 1.0131483e-05 8.9486645e-07
000060 47 2a 9d 36 87 49 76 36 cf 63 af 39 db fe ee 36
       4.6838863e-06 3.6699655e-06 0.00033452964 7.122622e-06
000070 39 cc b3 37 c5 1d 11 35 bb 17 3e 35 7d 67 5d 38
       2.1433561e-05 5.406003e-07 7.081505e-07 5.2786887e-05
000080 f7 78 4a 37 be ed f0 35 51 4a c6 2c 67 df a9 34
       1.2068303e-05 1.7950586e-06 5.6357492e-12 3.164125e-07
000090 95 90 4b 36 cd b1 e9 38 9a 93 0c 32 bc a2 9a 35
       3.0333515e-06 0.00011143424 8.182633e-09 1.1521256e-06
0000a0 89 01 0c bb 3d c1 e0 b7 98 ae 5f bb 8c d4 41 ba
       -0.002136322 -2.6792864e-05 -0.0034131166 -0.00073940377
0000b0 4c 75 17 3b 99 3a 03 3b cb 5c 87 bc 24 99 4a bb
       0.0023110686 0.002002394 -0.01652374 -0.0030914033
0000c0 c5 b8 bd 3b 72 33 1b ba 06 40 21 ba 97 f8 09 3c
       0.0057898485 -0.0005920447 -0.0006151203 0.008421085
0000d0 4c 8e 72 3b 7c 16 f8 3a 1f a3 2f 36 4b e4 c8 39
       0.0037011085 0.0018927599 2.617198e-06 0.00038317064
0000e0 77 4f 04 bb d4 e2 0a 3c 12 5e e2 38 d7 b0 6a ba
       -0.0020188966 0.008476932 0.00010794042 -0.0008952743
0000f0 11 5a d8 36 15 c9 6c 30 d6 24 3b 37 5c e3 43 35
       6.4477867e-06 8.6142055e-10 1.1154645e-05 7.297401e-07
000100 59 16 9e 36 b5 b1 e7 36 34 32 a5 39 4e 6d 36 37
       4.7113685e-06 6.9050243e-06 0.00031508657 1.0873495e-05
000110 37 e8 ac 37 d9 10 7e 35 28 8d fd 34 66 c6 9f 38
       2.0612131e-05 9.464689e-07 4.7227627e-07 7.6186654e-05
000120 1e 44 5d 37 ca 9b 75 36 f5 85 de 2c 9b 87 4a 34
       1.3188486e-05 3.6598526e-06 6.3244917e-12 1.8862049e-07
000130 45 34 9b 36 26 ae fa 38 8f 1f 08 32 7f bc 75 35
       4.625445e-06 0.000119533666 7.9234175e-09 9.154391e-07

fc.weight f4 [360, 20]
000000 ad 40 54 b9 12 ac 81 b6 a0 89 8d b9 de 06 5a b8
       -0.00020241989 -3.864531e-06 -0.00026996154 -5.1981646e-05
000010 24 41 27 39 a9 fb 37 39 86 28 98 ba ae f1 68 b9
       0.00015950628 0.0001754599 -0.0011608757 -0.00022215277
000020 4f c6 b6 39 85 99 b0 b8 af 18 33 b8 76 bb 11 3a
       0.00034861497 -8.420929e-05 -4.2699914e-05 0.0005559245
000030 1a 76 94 39 8c d3 2f 39 2f b2 0a 34 29 fa 0d 38
       0.00028316752 0.00016768108 1.2917074e-07 3.385e-05
000040 4d e9 22 b9 7a 22 30 3a 1b 48 d5 36 42 91 95 b8
       -0.00015536435 0.00067190046 6.356289e-06 -7.13193e-05
000050 0c d2 28 b9 a9 cf fe b5 24 03 7a b9 61 bd 68 b8
       -0.00016099977 -1.8984912e-06 -0.00023843028 -5.5489483e-05
000060 80 62 44 39 a2 4c 19 39 d4 b6 a1 ba b2 08 48 b9
       0.0001872871 0.00014619765 -0.0012337812 -0.00019076726
000070 30 9f c4 39 58 8b 1a b8 2f 7a 7f b8 8c ad 07 3a
       0.00037502637 -3.6846235e-05 -6.091053e-05 0.0005175702
000080 46 4a a5 39 f4 97 37 39 d6 65 2b 34 84 35 1a 38
       0.0003152659 0.00017508847 1.5962664e-07 3.67663e-05
000090 50 6c fa b8 70 a1 58 3a 41 6e d7 36 27 67 98 b8
       -0.00011941104 0.0008263802 6.4203346e-06 -7.2671384e-05
0000a0 87 46 23 b9 df 81 f9 b5 53 84 89 b9 58 27 82 b8
       -0.00015571165 -1.8589743e-06 -0.00026229265 -6.2062114e-05
0000b0 be 96 1f 39 95 6b 0f 39 ef 37 9e ba 84 7d 4e b9
       0.00015219577 0.0001367762 -0.0012071113 -0.00019692449
0000c0 86 d1 ac 39 d3 4d 5c b8 a9 ce 29 b8 31 bd 15 3a
       0.00032962504 -5.2524567e-05 -4.0485207e-05 0.00057120906
0000d0 ab 02 93 39 fb 76 3e 39 3a 28 2a 34 c7 4b 1a 38
       0.00028040013 0.00018164136 1.5847118e-07 3.6787034e-05
0000e0 2a 83 f1 b8 66 aa 28 3a 2a 06 e3 36 e1 ed cd b8
       -0.00011516207 0.0006434083 6.765845e-06 -9.81947e-05
0000f0 81 cf 1d b9 92 44 f6 b5 5e cf 72 b9 68 87 80 b8
       -0.00015049988 -1.8348385e-06 -0.00023156169 -6.128737e-05
000100 c6 18 54 39 8f 82 1c 39 fb 13 9a ba 9f eb 82 b9
       0.00020227124 0.00014925956 -0.0011755222 -0.00024971084
000110 e4 4d cd 39 4f 2f 9b b8 8b 44 39 b8 da a7 0c 3a
       0.0003915868 -7.399788e-05 -4.4171273e-05 0.0005365588
000120 be c4 9c 39 ec 85 24 39 e7 1b 56 32 ae 19 24 38
       0.00029901223 0.00015690149 1.2462784e-08 3.9124563e-05
000130 b5 4c 06 b9 7d b0 21 3a 2a a1 eb 36 7d a1 84 b8
       -0.00012807811 0.00061679614 7.0223077e-06 -6.32433e-05
000140 80 97 46 b9 13 09 ee b5 b2 23 6f b9 fe 22 4d b8
       -0.0001893919 -1.7735023e-06 -0.00022806114 -4.8908398e-05
000150 66 d4 21 39 94 27 1a 39 aa 1d 98 ba 3e ca 5b b9
       0.00015433281 0.00014701328 -0.001160552 -0.00020960809
000160 02 85 d4 39 9b c7 6b b8 3f 93 63 b8 36 7c 10 3a
       0.0004053489 -5.6214263e-05 -5.425815e-05 0.0005511673
000170 fd a8 6f 39 01 b0 52 39 3a 03 2a 34 5f c0 dd 37
       0.00022855769 0.00020092727 1.5833658e-07 2.6434833e-05
000180 3d 67 1b b9 1a 24 55 3a 24 73 d8 36 18 20 87 b8
       -0.00014820411 0.0008130685 6.4507058e-06 -6.4432796e-05
000190 08 20 2d b9 a6 1b fa b5 0a 0f 78 b9 88 67 70 b8
       -0.00016510498 -1.8634498e-06 -0.00023656726 -5.731688e-05
0001a0 cc d4 30 39 a9 a2 13 39 45 dc 9b ba 8f b2 51 b9
       0.00016863941 0.00014079608 -0.0011891207 -0.00019998311
0001b0 a3 89 a9 39 ab 60 1a b8 aa 95 54 b8 b4 42 02 3a
       0.0003233674 -3.680649e-05 -5.0684124e-05 0.0004969046
0001c0 92 9e 85 39 c1 28 51 39 3e 85 0f 34 15 13 f0 37
       0.0002548588 0.00019946975 1.3366386e-07 2.8619115e-05
0001d0 64 5c fb b8 0c 30 50 3a 66 a7 8e 37 1a 7d 82 b8
       -0.00011985822 0.000794173 1.700567e-05 -6.222185e-05
0001e0 54 9a 36 b9 76 bf 03 b6 0a b4 76 b9 64 0d 6f b8
       -0.00017414364 -1.9631966e-06 -0.00023527458 -5.699451e-05
0001f0 d4 10 1b 39 ab fc 14 39 0d 37 94 ba 16 8c 8a b9
       0.00014788221 0.00014208506 -0.001130791 -0.00026425783
000200 c0 97 ac 39 89 5a 2b b8 2f de 4c b8 18 c3 02 3a
       0.0003291946 -4.0853894e-05 -4.8844315e-05 0.00049881777
000210 11 7a 89 39 f5 74 0f 39 2e f5 29 34 af 0e f7 37
       0.00026221623 0.00013681113 1.5828547e-07 2.9451532e-05
000220 18 c6 f8 b8 9f c1 52 3a 4c f3 64 37 42 ab 83 b8
       -0.00011862459 0.0008039716 1.3646506e-05 -6.278466e-05
000230 98 ce ef b8 51 66 f4 b5 53 b9 73 b9 a9 15 56 b8
       -0.00011434889 -1.8209195e-06 -0.00023243325 -5.104175e-05
000240 22 21 2a 39 06 b3 14 39 20 b8 8f ba c0 ab 8e b9
       0.00016224806 0.00014181071 -0.0010964908 -0.00027212314
000250 fc 4d af 39 99 56 32 b8 a9 7f 7b b8 cf fe 0c 3a
       0.00033436704 -4.2519157e-05 -5.9961956e-05 0.00053785456
000260 b3 9e 6e 39 69 36 4d 39 22 9f 2b 34 3b 74 04 38
       0.00022756569 0.00019570593 1.5983508e-07 3.15795e-05
000270 36 a3 f6 b8 b2 c3 4b 3a 6c 5c e5 36 a0 27 c9 b8
       -0.000117605945 0.00077729963 6.835491e-06 -9.5918076e-05
000280 6f 36 1e b9 a2 4d ea b5 71 ec 89 b9 fa 6d 54 b8
       -0.00015088332 -1.7456953e-06 -0.0002630684 -5.0647162e-05
000290 7f c4 22 39 e0 0d 18 39 a0 cb 8a ba 7c 9a 8b b9
       0.00015522724 0.00014501018 -0.001058925 -0.00026627246
0002a0 b0 5b b1 39 a1 01 82 b8 38 ac 2e b8 10 bf 05 3a
       0.00033828383 -6.1991865e-05 -4.1645224e-05 0.0005102018
0002b0 47 90 85 39 36 25 34 39 c8 76 25 34 29 dd f3 37
       0.00025475232 0.0001718 1.5410035e-07 2.9070843e-05
0002c0 c1 cf 02 b9 9a 29 4f 3a 37 88 d0 36 2f 10 9b b8
       -0.0001247516 0.00079026225 6.2147406e-06 -7.3939904e-05
0002d0 50 e4 21 b9 d4 e7 03 b6 01 6d 8d b9 64 9c 7e b8
       -0.0001543921 -1.9655463e-06 -0.0002697483 -6.070397e-05
0002e0 a4 c7 1d 39 aa 5b 13 39 23 8e 94 ba dc cb 46 b9
       0.00015047059 0.0001405316 -0.0011333864 -0.00018958695
0002f0 7b e8 b1 39 d9 38 30 b8 00 fd 62 b8 2b c0 1e 3a
       0.00033933282 -4.2014613e-05 -5.4118223e-05 0.0006055857
000300 6c 63 89 39 5b fe 38 39 ca 83 e2 36 b6 4e f3 37
       0.0002620475 0.00017642362 6.750667e-06 2.900451e-05
000310 df f3 01 b9 0b 29 36 3a c9 f7 51 37 4d 36 8b b8
       -0.00012393248 0.0006948865 1.2515063e-05 -6.638151e-05
000320 d8 02 51 b9 48 5f ff b5 5e 47 6e b9 34 e1 92 b8
       -0.00019932853 -1.9026711e-06 -0.00022724035 -7.00377e-05
000330 4d df 22 39 20 38 13 39 48 1b 95 ba 95 d0 46 b9
       0.0001553271 0.0001403992 -0.0011375928 -0.00018960454
000340 64 cf c4 39 88 2e 33 b8 63 8c 4c b8 95 ce fe 39
       0.0003753855 -4.272026e-05 -4.8768135e-05 0.0004860057
000350 38 16 87 39 c8 77 3f 39 c4 eb 29 34 2d a5 fe 37
       0.0002576576 0.00018259801 1.5825123e-07 3.0356076e-05
000360 50 90 0a b9 d3 4d 21 3a 67 ae 97 37 e7 c3 87 b8
       -0.00013214466 0.00061532593 1.8081815e-05 -6.473791e-05
000370 4e ba 53 b9 ed 06 fc b5 bb bd 76 b9 89 a8 86 b8
       -0.00020191932 -1.8777479e-06 -0.00023531068 -6.42101e-05
000380 5d 78 59 39 2e fd 38 39 0d ab 93 ba f5 3a 5b b9
       0.00020739571 0.00017641924 -0.0011266187 -0.00020907431
000390 0a 98 aa 39 79 9e 61 b8 6c 22 81 b8 6f 4b 12 3a
       0.00032538205 -5.379177e-05 -6.157611e-05 0.00055806985
0003a0 62 0d 98 39 a2 72 0f 39 ce 8a 2b 34 cf 9f f4 37
       0.0002900167 0.00013680247 1.5976113e-07 2.9161483e-05
0003b0 a1 2b 0b b9 0c 16 1f 3a de 2b d6 36 b3 b2 81 b8
       -0.00013272326 0.0006068654 6.382804e-06 -6.184485e-05
0003c0 4f 54 28 b9 14 8b 01 b6 94 fe 80 b9 83 71 8f b8
       -0.00016053136 -1.9303452e-06 -0.00024603738 -6.8399146e-05
0003d0 aa b8 5c 39 bc c3 12 39 23 ec 9b ba 1b 57 4d b9
       0.00021049628 0.00013996562 -0.0011895936 -0.00019582773
0003e0 8c 4d c1 39 06 a4 9b b8 68 fa 63 b8 71 39 00 3a
       0.00036869606 -7.421528e-05 -5.4354226e-05 0.0004891372
0003f0 b8 8d a6 39 91 57 35 39 30 7b 25 34 c7 3a 00 38
       0.00031767576 0.00017294126 1.5411638e-07 3.057232e-05
