model/lstm-ATHM-180-.pth (torch, 38860 bytes, 12 tensors)

conv1.weight f4 [2, 4, 3]
000000 9b 9d 47 38 b7 13 84 bb 75 9e 51 31 8e bf 7e b1
       4.759208e-05 -0.0040306705 3.0503575e-09 -3.707075e-09
000010 ff 7c a1 ba df 54 78 b1 23 b9 fe 3a 90 90 41 b1
       -0.0012320577 -3.6136993e-09 0.0019433837 -2.816737e-09
000020 97 13 62 b1 1d 49 60 b1 67 94 44 b8 1f e1 45 b8
       -3.2898464e-09 -3.263785e-09 -4.6868252e-05 -4.717812e-05
000030 f7 25 68 33 ac 8b 77 3b 12 87 34 ba 7e 03 ef 33
       5.4051238e-08 0.003777246 -0.0006886582 1.112994e-07
000040 b5 a7 b7 33 c8 1e 8c 33 51 8a 99 33 9b 6c 3a 33
       8.552107e-08 6.524857e-08 7.149777e-08 4.3405276e-08
000050 52 bc ee b5 dd ae c7 b8 34 64 7d 33 00 21 98 33
       -1.778719e-06 -9.52163e-05 5.8997287e-08 7.084054e-08

conv1.bias f4 [2]
000000 85 0e 14 b2 a1 6a eb 39
       -8.618035e-09 0.00044902138

lstm.weight_ih_l0 f4 [80, 2]
000000 66 bf ce 39 7d 69 31 2f 40 04 f0 b9 da 6c ad b5
       0.00039433985 1.6135533e-10 -0.00045779534 -1.2921184e-06
000010 e8 cd 07 ad 09 1f ad 2d 9e 89 05 32 6a 66 b0 2d
       -7.719582e-12 1.9681605e-11 7.772909e-09 2.0054364e-11
000020 2a fe 27 39 fd a7 22 33 22 48 06 37 cd fe 92 2c
       0.00016021045 3.787135e-08 8.003817e-06 4.177858e-12
000030 c6 c5 13 ae bc 71 9e 2e 16 49 0d af c0 ca 67 2f
       -3.359959e-11 7.2052114e-11 -1.284984e-10 2.1081359e-10
000040 d9 20 a5 ae 69 2c a2 2e f5 8e f6 b3 2e f2 f8 2f
       -7.509166e-11 7.374796e-11 -1.14812714e-07 4.5283016e-10
000050 2c 3e a6 ae 1e b2 f1 2e 34 ae 9d ac d7 9a b3 2f
       -7.55985e-11 1.0991051e-10 -4.481549e-12 3.266993e-10
000060 fb 69 d9 b8 82 57 af 39 83 4f 0b b6 db 06 8a 38
       -0.00010367107 0.000334438 -2.0758896e-06 6.58163e-05
000070 ea 20 81 31 a1 6f 8a 2e 46 12 58 af 3b e8 7f 2f
       3.758136e-09 6.295343e-11 -1.9651578e-10 2.327462e-10
000080 12 a7 c0 b1 47 be 72 32 f6 4a a3 b4 37 1c 47 36
       -5.606929e-09 1.4129518e-08 -3.0415657e-07 2.9669734e-06
000090 5b 49 84 ad b1 30 9d 38 55 f4 9b 39 21 d4 c6 af
       -1.5039239e-11 7.495413e-05 0.00029745945 -3.6166717e-10
0000a0 f5 db db ae 3d 4b 81 b7 7e 5a 48 ad 21 38 28 2d
       -9.998039e-11 -1.5413034e-05 -1.1388777e-11 9.5621575e-12
0000b0 74 c8 16 ad 33 91 1f 2d 68 ea 03 ad cd ac b9 2d
       -8.571022e-12 9.070344e-12 -7.4985365e-12 2.1108804e-11
0000c0 b0 7d d9 b5 45 c4 13 b5 ae 43 90 b8 1e 62 87 b4
       -1.620434e-06 -5.5047377e-07 -6.8790614e-05 -2.52171e-07
0000d0 c7 67 2e ae 52 01 e3 38 b3 53 b7 ac 16 b8 ad 2b
       -3.9655192e-11 0.000108244494 -5.2104653e-12 1.2343483e-12
0000e0 13 15 b1 36 74 35 0e 2f 7d 95 f7 b9 82 2f cd 38
       5.2774644e-06 1.2933815e-10 -0.0004722289 9.784011e-05
0000f0 f3 56 bd ae ed 1f c6 2e 4a 6d f9 b6 ff c2 4b 34
       -8.61017e-11 9.009669e-11 -7.433501e-06 1.8976787e-07
000100 fd 8f e4 b9 bf bb 42 b9 0b 5f d9 ad d1 1f b6 2d
       -0.00043594828 -0.00018571223 -2.4712251e-11 2.0705134e-11
000110 df de b4 b6 fd b4 4c 2e 8a 79 82 af d8 b1 74 2f
       -5.3903636e-06 4.654498e-11 -2.373322e-10 2.2254854e-10
000120 25 9d b4 b1 ed e4 f9 38 11 f2 dd b9 82 84 92 2e
       -5.2565547e-09 0.00011915886 -0.00042332758 6.6628494e-11
000130 c5 f6 cb b9 41 38 81 b2 41 54 06 ab ae a5 3f 2b
       -0.00038903035 -1.5043158e-08 -4.772329e-13 6.808676e-13
000140 9d 73 b3 34 ef b5 98 39 fd e4 03 34 6a f7 cd b6
       3.3425468e-07 0.0002912725 1.2283631e-07 -6.138279e-06
000150 37 83 c2 b4 a6 e2 0c b6 00 63 0d b4 c0 a1 25 34
       -3.6230787e-07 -2.0993552e-06 -1.3167664e-07 1.5425667e-07
000160 ae 32 80 34 eb 8e 4d 36 0a a1 3e b4 c1 79 9a 37
       2.3878732e-07 3.063057e-06 -1.7753715e-07 1.8414927e-05
000170 53 fe d0 b6 c0 a3 c9 37 0c 26 91 b3 c2 91 6f 33
       -6.2284903e-06 2.403732e-05 -6.759009e-08 5.577909e-08
000180 7f 56 a7 34 f7 34 9c b4 da 54 8f 35 c5 04 f4 b9
       3.1169108e-07 -2.90958e-07 1.0679025e-06 -0.0004654286
000190 41 10 3c ba dc a5 04 b5 b5 07 a2 33 80 2a ad b3
       -0.0007174053 -4.941519e-07 7.545115e-08 -8.063671e-08
0001a0 6a a9 39 35 31 80 2e b5 71 98 32 34 67 31 3c b4
       6.91644e-07 -6.5006594e-07 1.6633e-07 -1.7526837e-07
0001b0 62 e7 24 b4 3e 5a 6b b6 aa 63 c5 b9 37 d4 26 35
       -1.5357867e-07 -3.5070257e-06 -0.00037649024 6.214863e-07
0001c0 6a c8 11 b8 07 3a f4 35 e9 ee 2b 34 61 48 36 b4
       -3.4757344e-05 1.8196305e-06 1.6012531e-07 -1.6976402e-07
0001d0 c7 b5 ff b7 c5 43 cf 38 2e d2 d4 32 6a 77 7d 35
       -3.0483016e-05 9.883152e-05 2.4775627e-08 9.4423615e-07
0001e0 4a 33 33 af 3b db 19 2f f2 b6 11 b9 5a 17 02 b0
       -1.6298177e-10 1.3993155e-10 -0.0001389643 -4.732691e-10
0001f0 d6 d0 38 ad 87 c7 63 2d 37 87 86 ad a7 2f 62 33
       -1.050556e-11 1.294776e-11 -1.5294084e-11 5.2663065e-08
000200 f1 8d 6d 36 63 9a 05 2f 6e 16 8b ac b7 0c 9e 2c
       3.5398373e-06 1.2151129e-10 -3.953108e-12 4.4920417e-12
000210 60 21 30 37 d5 9f f9 2d 41 10 82 ab 6e 94 f8 2b
       1.0498188e-05 2.8379002e-11 -9.241567e-13 1.7662657e-12
000220 41 4c f7 31 8c 30 96 b5 f8 78 cb b8 af a1 de 36
       7.197315e-09 -1.119e-06 -9.7023265e-05 6.634938e-06
000230 0e d4 1d b3 c4 4a 03 3a 68 e7 a8 39 af b3 a0 2c
       -3.6747274e-08 0.00050083944 0.00032215868 4.5674224e-12
000240 52 65 a3 af 7a e7 8a 2f 28 12 1d ae df ca a1 2e
       -2.972152e-10 2.5266528e-10 -3.5713793e-11 7.3574695e-11
000250 11 ba bb ae cf d9 6f b5 5a e8 9c 34 08 95 b8 2f
       -8.5368275e-11 -8.935139e-07 2.9226322e-07 3.3575298e-10
000260 a8 6d 8a 35 30 7b ab 32 26 74 f0 ad 45 a4 63 2e
       1.0313715e-06 1.996304e-08 -2.7336421e-11 5.1759725e-11
000270 47 4a 7e ad 07 7e 6a 38 71 bf fd aa ee eb 12 2b
       -1.4454721e-11 5.590732e-05 -4.5074667e-13 5.219704e-13

lstm.weight_hh_l0 f4 [80, 20]
000000 ad b3 96 b6 95 41 02 3a 66 10 8a ad f0 3f 37 2d
       -4.4912654e-06 0.0004968879 -1.5696066e-11 1.0416543e-11
000010 66 84 fc ad b0 42 8a 2c bd 3e b6 b7 7b a9 04 3a
       -2.870788e-11 3.9295997e-12 -2.1725305e-05 0.0005060655
000020 56 40 93 ad 9c a9 f3 ae 60 40 16 36 bf a8 74 ac
       -1.6740536e-11 -1.1080489e-10 2.2389213e-06 -3.4768158e-12
000030 56 8f 12 ae b7 3d 2f b7 f0 da d2 30 e4 aa 5f 37
       -3.3323865e-11 -1.0445182e-05 1.5341737e-09 1.3331624e-05
000040 43 01 95 2f 50 11 70 b9 4e d7 06 35 f9 cf ba 39
       2.710384e-10 -0.00022894633 5.02322e-07 0.00035631636
000050 38 75 26 ac f8 99 dd ab 70 3e 06 2b 29 db 87 34
       -2.3655088e-12 -1.5745729e-12 4.7693013e-13 2.530517e-07
000060 e6 ee 28 39 88 2a c5 2a 21 1d e7 39 01 49 73 b8
       0.00016110725 3.5023742e-13 0.00044081456 -5.8003705e-05
000070 6e 6c 4b b8 da 6f c2 af 51 81 0b 39 c7 2d 51 b8
       -4.8499955e-05 -3.536787e-10 0.00013304247 -4.9872117e-05
000080 21 e3 dd ac 40 5f 87 39 da 01 16 39 be 7e 24 2c
       -6.306414e-12 0.00025820173 0.00014305805 2.3376158e-12
000090 a5 75 35 35 1d 83 90 ac 11 75 11 2f 87 e2 83 a9
       6.759895e-07 -4.1072827e-12 1.3229264e-10 -5.856865e-14
0000a0 bc 07 73 2d 87 e8 37 ab f4 18 dd 2d 01 2b 2e 2b
       1.3814668e-11 -6.5337357e-13 2.5135873e-11 6.18769e-13
0000b0 0d 78 b4 b5 04 d6 d0 af e2 f5 af 2c 29 71 21 2a
       -1.3445984e-06 -3.7987047e-10 5.0010976e-12 1.4338933e-13
0000c0 88 a9 d2 ab f0 8d fb ac 59 f1 0b 33 ce a3 a5 aa
       -1.4968452e-12 -7.1496073e-12 3.2582964e-08 -2.942355e-13
0000d0 56 0b 50 38 2b 97 79 ab 1b 28 9f 2a 7b e7 3a 2c
       4.9601622e-05 -8.867236e-13 2.8271903e-13 2.6560687e-12
0000e0 63 77 b6 2d 4c 47 f5 ab 0c 28 4e ab 0e 27 b9 28
       2.0744023e-11 -1.7428086e-12 -7.324148e-13 2.0556063e-14
0000f0 af 25 b7 b8 3e c1 1d 37 dc 42 9c 32 39 f6 ea 2b
       -8.733139e-05 9.402922e-06 1.8191194e-08 1.669504e-12
000100 57 95 9f ac 88 d5 64 ab 58 16 48 2c be c3 d4 2a
       -4.535632e-12 -8.1298206e-13 2.8434113e-12 3.7794588e-13
000110 df 50 39 2d 22 4f ea b3 95 4c 12 ae 1b dd 3f ab
       1.05339895e-11 -1.0910868e-07 -3.3264575e-11 -6.8163677e-13
000120 62 59 2b ad fa db f6 38 43 09 4d b5 53 fc ff 2c
       -9.740072e-12 0.00011771168 -7.638193e-07 7.2755495e-12
000130 9f 97 32 2e 8c 3a 29 ac f7 1d 92 b9 d7 93 da b0
       4.060718e-11 -2.4048845e-12 -0.00027869616 -1.5903606e-09
000140 ac aa ab b5 13 9e d3 ac 5d 4f 45 2d db db 19 b9
       -1.2790165e-06 -6.0145305e-12 1.1215776e-11 -0.0001467312
000150 f9 3d d4 ad 67 29 85 35 3f e7 8c 2d 88 94 01 2c
       -2.4129131e-11 9.921322e-07 1.6018851e-11 1.8414454e-12
000160 8d 9c a8 ad a9 51 80 ae 4a 8d 1b ae 7a d6 e1 ac
       -1.9168911e-11 -5.835272e-11 -3.536841e-11 -6.4186963e-12
000170 e9 4c 10 af 1c db 27 ad e0 22 82 2e e4 59 41 2e
       -1.3124048e-10 -9.541503e-12 5.9179106e-11 4.396296e-11
000180 e2 c0 84 37 75 ed a8 39 bf 99 5a ad c1 bf 05 38
       1.5825444e-05 0.00032220376 -1.2426004e-11 3.1888256e-05
000190 c9 22 a6 38 b9 0e be b8 2b 44 ac 34 ca 2c 15 39
       7.921976e-05 -9.062648e-05 3.2087095e-07 0.00014226433
0001a0 bb 5e 44 b8 6a 4d f4 b9 9f cd 00 2b 82 eb 29 36
       -4.6818266e-05 -0.00046596985 4.576009e-13 2.5320046e-06
0001b0 6f 53 9f ab 1f 7c 24 ac 8b 37 0c 2e 24 7e 63 aa
       -1.1320787e-12 -2.3374703e-12 3.1881647e-11 -2.0205414e-13
0001c0 69 f6 b5 31 88 c5 96 2d 07 8f ff af 31 c2 d6 2b
       5.295807e-09 1.7140747e-11 -4.6485857e-10 1.5259513e-12
0001d0 4a af 02 3a c0 5f af b9 1b a6 56 b9 14 52 2a b5
       0.00049852266 -0.0003344994 -0.0002047051 -6.3449374e-07
0001e0 50 9c ef ac 02 dd 87 38 ac 78 3b 37 35 00 19 32
       -6.8101427e-12 6.4784675e-05 1.1174165e-05 8.905819e-09
0001f0 d9 0e 40 ad bf 2f ee 2b 37 fb 18 b3 47 63 ea af
       -1.0917233e-11 1.6924169e-12 -3.5618736e-08 -4.2634893e-10
000200 08 47 ff 2c f3 fe d3 ad 5b 4b 07 ad 0b 6e 0f ac
       7.255422e-12 -2.4101143e-11 -7.690594e-12 -2.0382608e-12
000210 1e 90 9e 39 df d5 f5 39 32 d5 ee 2c 41 42 00 2d
       0.00030243484 0.00046889388 6.7880363e-12 7.290669e-12
000220 b6 7e 0b b9 bf 10 b3 ac 19 9f 16 b9 c0 87 1a ab
       -0.00013303277 -5.089345e-12 -0.00014364383 -5.490018e-13
000230 5a e5 32 39 d5 a4 ca ad 06 ac de ad 66 91 13 34
       0.00017060843 -2.3037941e-11 -2.5314872e-11 1.3743337e-07
000240 ec 05 ac aa f1 3d b0 2d 36 b2 08 2a 48 56 bc 28
       -3.0557447e-13 2.0036391e-11 1.2141056e-13 2.0909611e-14
000250 b5 81 66 39 d4 06 6c ab cc c0 65 aa 29 db 03 a9
       0.00021982829 -8.385352e-13 -2.0406176e-13 -2.9277934e-14
000260 59 f3 84 ab 56 cf 99 2d 05 47 aa 29 1a 3e ce 2a
       -9.446707e-13 1.7486162e-11 7.5618365e-14 3.6636043e-13
000270 04 45 5d 2c 6f e6 3d aa be 2a ea a9 24 60 56 2e
       3.14443e-12 -1.686652e-13 -1.0399102e-13 4.8743357e-11
000280 e5 c0 85 ad 75 76 bf ad 5e d8 25 b5 ca 8d 11 34
       -1.5206012e-11 -2.1766791e-11 -6.1782146e-07 1.355576e-07
000290 99 77 97 ad 1d 7a 12 30 a3 18 62 2d c3 3b 00 2c
       -1.7219825e-11 5.3288024e-10 1.2852083e-11 1.8223068e-12
0002a0 aa f5 70 ad 95 43 81 ae a0 96 41 b8 e8 03 be ad
       -1.3696969e-11 -5.878246e-11 -4.6155066e-05 -2.1602234e-11
0002b0 11 c2 72 ae dd 1b cd ac e0 e1 94 2d e6 91 19 30
       -5.5196795e-11 -5.829544e-12 1.692596e-11 5.586841e-10
0002c0 96 63 21 31 f4 ea 32 ae 3c 9e 22 ad 16 49 68 36
       2.3485192e-09 -4.0681195e-11 -9.243769e-12 3.4613236e-06
0002d0 17 29 06 af 88 4e 2f 39 d3 a3 09 b5 f7 e1 27 2e
       -1.2201827e-10 0.00016718556 -5.127487e-07 3.81721e-11
0002e0 e0 30 0b af 08 b7 e0 2d 41 57 ab 2e 44 a9 40 2d
       -1.265934e-10 2.5547134e-11 7.791679e-11 1.0951521e-11
0002f0 1b b7 4b 38 e6 40 c4 b0 12 26 ec ae 5a 50 af af
       4.85695e-05 -1.4279322e-09 -1.07388e-10 -3.1889408e-10
000300 48 54 63 af a9 bb 5f 36 85 7e d7 2f 2b bf 80 2f
       -2.0675472e-10 3.3338822e-06 3.919817e-10 2.3418897e-10
000310 0f 4a 00 31 4b 80 92 ae 3b bc 31 ae 0e db 3c ad
       1.866855e-09 -6.662101e-11 -4.0412323e-11 -1.0735203e-11
000320 f8 fe f8 b7 e1 97 b3 ac d2 d8 56 b3 08 83 2b 2d
       -2.9682633e-05 -5.104348e-12 -5.0022955e-08 9.749319e-12
000330 36 12 d1 ad fc 46 19 31 b0 c3 c4 2c 25 70 0e 2c
       -2.3768636e-11 2.230478e-09 5.5923807e-12 2.0241666e-12
000340 ea 10 63 ad c8 5e 68 ae 5d 27 3b ad 8a 4a ee 38
       -1.2907212e-11 -5.2834875e-11 -1.063846e-11 0.00011362608
000350 17 c2 fc ad 87 e2 17 ad 7e 20 09 39 da 32 c4 2d
       -2.8735276e-11 -8.633655e-12 0.00013077442 2.2305203e-11
000360 03 66 41 2f 07 99 d7 38 d0 a8 23 37 60 66 f6 2f
       1.758949e-10 0.000102805025 9.754862e-06 4.481988e-10
000370 7f c0 4d 38 fd 62 39 aa 70 61 40 b9 59 95 0a 2b
       4.9055085e-05 -1.6465644e-13 -0.00018346845 4.923471e-13
000380 f0 c2 95 2b 7a 0b ff b9 32 55 a3 2b 17 19 b1 b4
       1.0641193e-12 -0.0004864594 1.1605493e-12 -3.2987074e-07
000390 cb b4 17 37 80 35 4a 39 a2 74 a5 ab 67 0d 9c 2a
       9.0423955e-06 0.00019284151 -1.1756327e-12 2.7720466e-13
0003a0 fe 22 aa 39 81 03 67 38 f9 cc df 39 9a 7e 41 2b
       0.00032450998 5.5077955e-05 0.0004268659 6.874307e-13
0003b0 00 b9 03 2d ff 2a 1d 2c 33 a2 ba aa ee 42 fc a9
       7.487566e-12 2.233491e-12 -3.3152786e-13 -1.12026585e-13
0003c0 34 67 b7 ae 1b b7 12 ae d6 20 6b af 2e 76 22 2e
       -8.340209e-11 -3.3359187e-11 -2.1384791e-10 3.69395e-11
0003d0 cd 2a 54 af e7 74 99 38 e4 d4 a1 af 20 6a 3a 2d
       -1.9296494e-10 7.317383e-05 -2.9436997e-10 1.059644e-11
0003e0 9f 40 f4 ae 11 f6 86 af cb f1 2b af c3 6b d9 37
       -1.11073144e-10 -2.45493e-10 -1.5638262e-10 2.5918596e-05
0003f0 b0 68 33 af 56 17 05 ae cc ce 8a 39 bd 1c f9 2e
       -1.6317148e-10 -3.0261425e-11 0.00026475487 1.1328314e-10

lstm.bias_ih_l0 f4 [80]
000000 2b 39 d2 39 b0 3a 55 34 bb a1 b6 b8 3d 4c 7b 36
       0.00040096915 1.9858521e-07 -8.708561e-05 3.744629e-06
000010 71 3d 7f 34 ed 7d d0 b8 de 05 2f 33 4c c0 b5 30
       2.3771078e-07 -9.9416684e-05 4.07507e-08 1.3224137e-09
000020 5f 8e 18 38 da 39 85 b9 e9 34 d8 33 54 4a 24 39
       3.6372217e-05 -0.0002541084 1.0067908e-07 0.00015667948
000030 5c 64 26 35 db 45 e2 b9 36 8c 6f 39 0f 70 04 34
       6.198586e-07 -0.00043158125 0.00022845049 1.2334225e-07
000040 20 e2 41 37 63 79 af 32 23 de e7 31 10 6a 3d b5
       1.1556345e-05 2.0427882e-08 6.748239e-09 -7.056233e-07
000050 b9 04 c4 33 a8 9b ab 32 4c ed 0f b6 33 f2 28 32
       9.12782e-08 1.9977804e-08 -2.1446785e-06 9.833957e-09
000060 9f 3c 9e 33 78 a9 27 31 a7 6c a0 b9 f4 4a 47 30
       7.368475e-08 2.439803e-09 -0.0003059853 7.2502293e-10
000070 5f b7 50 34 62 ba 0b 35 74 83 b1 33 46 da 38 31
       1.943822e-07 5.205276e-07 8.266116e-08 2.6899598e-09
000080 3d 41 89 34 73 05 05 33 a9 ee 03 33 d9 76 bf 33
       2.5565706e-07 3.097143e-08 3.0717874e-08 8.915749e-08
000090 30 06 9d 36 4a a1 ba 38 47 c7 94 b7 b1 6c ca b7
       4.679685e-06 8.8992136e-05 -1.773577e-05 -2.413089e-05
0000a0 cf e3 a1 b9 ac 4f a4 b8 b9 d4 a3 38 42 3a e3 38
       -0.00030878044 -7.8349694e-05 7.812068e-05 0.00010835055
0000b0 49 01 27 ba e4 58 44 38 70 8f 28 39 0b 4d ed 37
       -0.0006370736 4.6812827e-05 0.00016075163 2.8288478e-05
0000c0 9b f1 a3 b9 4a a6 52 ba a0 29 8d b9 1b cb 5e b8
       -0.00031269793 -0.0008035643 -0.0002692463 -5.311808e-05
0000d0 89 37 6d ba df c6 10 b9 5f 3d ad 38 71 1b fc 39
       -0.0009049108 -0.00013806995 8.260714e-05 0.0004808563
0000e0 2c fb 94 3b 31 0c fb b8 89 df 84 b8 cd cc a6 b7
       0.0045465436 -0.000119708835 -6.335887e-05 -1.988411e-05
0000f0 5d b9 a0 33 20 3c a6 32 f5 ad c4 38 9c b9 02 b4
       7.484298e-08 1.9352285e-08 9.37841e-05 -1.2174718e-07
000100 8e 8b c4 33 7f 25 cb 31 bb 33 89 37 bd 68 04 34
       9.152346e-08 5.9123404e-09 1.6355762e-05 1.2331562e-07
000110 98 ac 96 39 03 92 93 34 71 6d b2 34 4f 6a 53 31
       0.00028738822 2.748712e-07 3.3234713e-07 3.076497e-09
000120 e7 8a 9e 36 ed 53 14 33 eb 99 25 33 d5 cf 27 34
       4.7249373e-06 3.4535265e-08 3.8557044e-08 1.5628696e-07
000130 b5 ff df 36 72 a6 93 33 15 f4 8a 32 55 f7 1b 30
       6.675686e-06 6.875497e-08 1.617631e-08 5.674015e-10

lstm.bias_hh_l0 f4 [80]
000000 81 c0 8e 33 d4 e3 c9 31 d9 73 7c 32 bd 69 13 36
       6.6474065e-08 5.875771e-09 1.4694671e-08 2.1966255e-06
000010 53 0e 06 34 e3 b3 29 b9 69 06 d9 b7 80 12 89 32
       1.2484934e-07 -0.00016184109 -2.58714e-05 1.5957312e-08
000020 35 1f 4e 33 12 6c b8 34 6f 84 91 39 46 cf 52 31
       4.7991495e-08 3.4351302e-07 0.00027755226 3.0676843e-09
000030 6f d2 8c b9 6d 2a 6f 32 cf e7 af 32 5b 03 4f 34
       -0.00026859666 1.39212775e-08 2.0478096e-08 1.9279598e-07
000040 d0 1c 04 37 1c 75 bb 32 b0 3c 4e 32 a2 ca 41 b5
       7.8745215e-06 2.182292e-08 1.2004577e-08 -7.219297e-07
000050 a7 ea 69 33 be 40 e9 31 c9 52 e1 b0 25 ec 46 b8
       5.4462955e-08 6.788553e-09 -1.6394434e-09 -4.7426805e-05
000060 c1 5c 2d b9 5a 68 c8 31 b1 dc d8 b9 2e fb 93 37
       -0.00016533119 5.8326295e-09 -0.00041363158 1.764073e-05
000070 42 6b 76 33 56 83 a7 34 70 17 af b6 74 e9 81 39
       5.737389e-08 3.1201733e-07 -5.218135e-06 0.00024778733
000080 f0 9b 02 ba 2b d2 d8 b9 a5 5e ca 32 83 eb cb 33
       -0.0004982343 -0.00041355318 2.3558934e-08 9.4957635e-08
000090 0c 98 a0 36 73 f4 35 38 60 19 63 32 bb a9 02 b9
       4.786072e-06 4.3381424e-05 1.3218909e-08 -0.00012460996
0000a0 af f8 c9 b9 32 0b b1 b8 86 e9 9b 38 f5 29 d8 38
       -0.0003852299 -8.442103e-05 7.434473e-05 0.00010307498
0000b0 95 11 26 b9 2c 8a 69 38 e2 06 1d 39 13 82 bf 37
       -0.00015837543 5.568021e-05 0.00014975251 2.2829545e-05
0000c0 5b 02 4f b9 6e 90 71 ba cf e6 a4 b9 b3 f9 63 b8
       -0.00019741936 -0.0009214942 -0.00031452483 -5.4353568e-05
0000d0 0f d0 b9 b9 5a 79 f5 b8 65 48 db 39 65 8f 85 39
       -0.00035440965 -0.00011705114 0.00041824873 0.00025474574
0000e0 af c3 c0 3a b4 43 7e b9 7e c6 4f b9 05 39 8b b7
       0.0014706756 -0.00024248549 -0.00019815002 -1.6596643e-05
0000f0 7a 94 97 33 11 4a f6 b8 56 33 78 31 47 06 41 32
       7.058493e-08 -0.0001174399 3.611793e-09 1.1235506e-08
000100 6e e4 01 38 9e d7 50 31 ca cf a1 32 73 77 7d b4
       3.096874e-05 3.0390548e-09 1.8837358e-08 -2.3605917e-07
000110 2f fa 42 33 ed 51 35 35 43 db 60 b9 a8 b2 3b 31
       4.5396686e-08 6.754697e-07 -0.00021443986 2.7313636e-09
000120 84 10 89 34 3d 9a be 39 50 88 1a b7 62 a2 16 35
       2.5530255e-07 0.0003635454 -9.210853e-06 5.611565e-07
000130 42 b5 6f 36 e3 ba 6a b7 7f 39 2e b8 a2 f5 f9 2f
       3.5719281e-06 -1.3991e-05 -4.153838e-05 4.546737e-10

lstm.weight_ih_l1 f4 [80, 20]
000000 02 b3 bc 39 e1 18 84 b6 87 1b e3 38 f5 61 93 36
       0.00035991526 -3.936803e-06 0.00010829331 4.392345e-06
000010 79 a1 4a b8 d7 fd 56 36 f3 92 76 37 14 a3 ac 35
       -4.8310936e-05 3.203624e-06 1.4696957e-05 1.2862461e-06
000020 33 6b 8e b7 39 8c 37 38 16 d1 ae b7 7d 75 2e b6
       -1.6977638e-05 4.3761193e-05 -2.083978e-05 -2.5996408e-06
000030 ff 95 f3 b7 78 bf 1d 39 ea df 83 37 31 11 a4 b7
       -2.9037705e-05 0.00015044014 1.5720685e-05 -1.9558329e-05
000040 c0 72 7e 39 e9 19 e6 b6 d5 8a 36 b7 be 27 c5 b5
       0.00024266075 -6.8575505e-06 -1.088037e-05 -1.468921e-06
000050 b4 b7 f1 b7 7b 5d 6d b9 9e 82 99 36 87 4e bb 36
       -2.8814982e-05 -0.00022636905 4.574961e-06 5.582176e-06
000060 b7 ff 7a b9 47 5c 2b 36 78 9a f1 36 47 0a 8f 35
       -0.00023937119 2.5534698e-06 7.200342e-06 1.0657321e-06
000070 70 04 97 39 bd 4a 7f b8 a8 ed 85 b7 ee ad 05 b6
       0.0002880427 -6.0866343e-05 -1.5965503e-05 -1.9919785e-06
000080 69 69 fe b7 27 24 f5 b6 85 c2 88 37 50 e0 79 38
       -3.0328245e-05 -7.3057777e-06 1.6303044e-05 5.9575133e-05
000090 09 2c 33 39 61 c3 ea b6 fe 31 50 b7 5d fd 19 b6
       0.00017087175 -6.9964885e-06 -1.2409406e-05 -2.2946253e-06
0000a0 df 7f d1 b7 0a 56 98 b6 7e 3c 8f 36 f6 0f 00 37
       -2.4974286e-05 -4.5399693e-06 4.2687743e-06 7.633111e-06
0000b0 2a 9b 29 b8 6a aa 64 36 aa 94 0f 37 c5 27 b7 38
       -4.0437248e-05 3.4073842e-06 8.558078e-06 8.733528e-05
0000c0 8d f0 a0 b7 6e a2 69 b8 ab a3 97 b9 64 eb 0e b6
       -1.9185502e-05 -5.5702803e-05 -0.00028922906 -2.1296664e-06
0000d0 74 26 18 b8 66 35 05 b7 06 48 89 37 58 88 9b 37
       -3.6275436e-05 -7.939851e-06 1.6365211e-05 1.854093e-05
0000e0 41 8f 86 39 2a b6 e0 b7 27 6b c9 b6 a4 39 83 b5
       0.00025665204 -2.6787708e-05 -6.002741e-06 -9.777036e-07
0000f0 cc ea 87 b7 9b 25 9f b6 9e 0b 07 38 f4 f2 84 39
       -1.620259e-05 -4.742947e-06 3.2197328e-05 0.00025358016
000100 2d bf b7 b7 3b 6c 66 36 64 ee 20 37 3b 83 0c 39
       -2.1904323e-05 3.433567e-06 9.592248e-06 0.00013400328
000110 bd 13 fa b7 25 cd b8 37 3b 88 ad b7 03 ad 78 39
       -2.9811514e-05 2.2030037e-05 -2.0686644e-05 0.00023715575
000120 3f 53 75 b8 47 80 ec b7 32 10 57 37 63 97 c1 37
       -5.849008e-05 -2.8193126e-05 1.2818769e-05 2.3077888e-05
000130 37 72 19 39 eb 8d 4c b7 6e e5 c4 b6 f7 3e 8c b5
       0.00014633765 -1.219239e-05 -5.8679643e-06 -1.0449138e-06
000140 b6 30 98 b7 aa e0 fd b6 ca 27 00 37 0a 3c be 36
       -1.8142495e-05 -7.566142e-06 7.638659e-06 5.6694307e-06
000150 d1 de a6 b7 71 8a 30 36 e0 a9 46 37 37 4d 0e b9
       -1.9892499e-05 2.6306627e-06 1.1841272e-05 -0.0001357094
000160 03 71 68 b7 99 72 1e b8 3c 7d 62 b7 ec de 62 b8
       -1.385459e-05 -3.7776863e-05 -1.3499808e-05 -5.409021e-05
000170 3d 2b 0d b8 cd 47 f4 b6 0e b6 3a 37 a3 fa ad 37
       -3.365729e-05 -7.2801254e-06 1.1128852e-05 2.0739919e-05
000180 8c 13 ff 39 92 48 18 b7 5c 62 d2 b6 28 d4 68 b5
       0.00048651954 -9.076803e-06 -6.2699382e-06 -8.6735463e-07
000190 a1 a5 a3 b7 6f 54 91 b6 53 7b 66 36 b9 1a e6 36
       -1.9508241e-05 -4.331166e-06 3.4344455e-06 6.857645e-06
0001a0 fc 32 97 b7 af f1 74 36 65 2b 7f 37 22 fd 0f 36
       -1.8024344e-05 3.6499512e-06 1.5209288e-05 2.1456003e-06
0001b0 8d c7 f3 38 7c e0 8b b8 3f f6 85 b7 30 e8 15 b9
       0.00011624312 -6.66985e-05 -1.5969503e-05 -0.00014296244
0001c0 8e ef f4 b7 9c 5f 3f b7 c5 dd 3a 37 87 a5 8a 37
       -2.9198618e-05 -1.1406748e-05 1.1138099e-05 1.6527962e-05
0001d0 71 a3 3f 39 bd 0d fc b6 a6 74 ca b6 0b 93 86 b5
       0.00018276066 -7.5117846e-06 -6.033649e-06 -1.0026573e-06
0001e0 02 8e 8b b7 60 5f 94 b6 05 d5 c8 36 97 78 ad 36
       -1.6636219e-05 -4.421847e-06 5.985263e-06 5.1698403e-06
0001f0 80 f3 bd b7 b1 fe 1c 36 90 4a ea 36 b9 f4 f4 35
       -2.2643944e-05 2.3394061e-06 6.9824237e-06 1.825064e-06
000200 3e 7e e4 b7 69 0e 46 b8 20 3a 28 39 8e cc 07 b7
       -2.7238504e-05 -4.72203e-05 0.00016043382 -8.094254e-06
000210 61 b7 dc 39 f3 a7 c3 38 d1 e1 aa 37 bb 5f 99 37
       0.00042098298 9.3296076e-05 2.0370733e-05 1.82836e-05
000220 b2 e2 78 39 9d 46 e3 b6 cb 1f fa b6 f7 f0 d8 b8
       0.00023735574 -6.7733476e-06 -7.454282e-06 -0.00010344566
000230 75 25 8b b7 18 b5 02 39 e5 0e 60 36 a7 66 42 37
       -1.6587534e-05 0.00012465229 3.338727e-06 1.1587202e-05
000240 8f 58 79 b8 70 bc 66 36 d0 8a 3c 37 8e 45 c9 35
       -5.9448703e-05 3.4382356e-06 1.1237993e-05 1.499591e-06
000250 93 a8 83 b7 cb 25 6e b8 da b0 80 b7 a9 98 2c b6
       -1.5694915e-05 -5.677882e-05 -1.5341142e-05 -2.5718857e-06
000260 63 f4 fa b7 88 4f dd b6 39 8a 84 b8 95 55 c3 37
       -2.9916124e-05 -6.595572e-06 -6.3199965e-05 2.3285664e-05
000270 40 34 1c 39 44 2e 86 b7 45 09 ea b6 c0 d7 f4 b5
       0.00014896784 -1.5995589e-05 -6.9748226e-06 -1.8242208e-06
000280 54 a4 2b b7 cc 40 ac b6 e7 15 2a 36 00 fe cc 36
       -1.0230655e-05 -5.133543e-06 2.5344723e-06 6.1092433e-06
000290 67 d6 a6 b7 a3 72 3d 36 b4 a4 4e 37 36 bb 14 36
       -1.9888581e-05 2.8229922e-06 1.2316905e-05 2.216269e-06
0002a0 1c 69 6c b7 8f de 29 b8 31 36 07 b8 b8 31 2d b6
       -1.4091169e-05 -4.0500014e-05 -3.2236978e-05 -2.580795e-06
0002b0 b2 d3 00 b8 cc e9 b6 b9 68 d5 47 37 17 6e 97 37
       -3.0714735e-05 -0.00034887937 1.1911012e-05 1.8051867e-05
0002c0 d6 ac 0e 39 b8 b1 2b b7 53 69 e0 b6 75 62 b4 b5
       0.00013606562 -1.0233773e-05 -6.6879816e-06 -1.34397e-06
0002d0 1d 8e a5 b7 61 2e a3 b6 df a1 3d 36 3a cf d3 37
       -1.973571e-05 -4.8631778e-06 2.8257416e-06 2.5249657e-05
0002e0 b2 47 0b b8 19 ae 40 36 9f 8f 14 37 c6 83 d9 35
       -3.3206954e-05 2.8711568e-06 8.854927e-06 1.6206111e-06
0002f0 a6 b6 ca 38 88 b7 85 b8 4f 2f 67 b7 8c 51 2b b6
       9.6661315e-05 -6.3761196e-05 -1.3779688e-05 -2.5528452e-06
000300 0f c9 5e b8 1d 97 37 b7 54 be 78 37 82 6e b8 37
       -5.3116175e-05 -1.0942834e-05 1.4826266e-05 2.1985968e-05
000310 43 c9 53 39 c3 39 41 b7 ce 5e 1b b9 67 1c a5 38
       0.00020197504 -1.1517145e-05 -0.0001481727 7.8731035e-05
000320 4b 3a 1d 39 1e 27 8e b6 94 bc f5 36 2b 03 5d 37
       0.00014994403 -4.2364836e-06 7.3235224e-06 1.3173364e-05
000330 6f fe a7 b7 5e be 32 36 3a 64 56 37 f6 48 b7 b7
       -2.0026431e-05 2.6634875e-06 1.277873e-05 -2.1849275e-05
000340 43 4e 94 b7 f8 44 99 b8 21 88 84 b7 cb c8 80 37
       -1.7679418e-05 -7.308455e-05 -1.5799016e-05 1.535229e-05
000350 63 33 fe b7 37 cc f9 b6 37 1f aa 37 17 5c b7 37
       -3.0303088e-05 -7.444552e-06 2.0280115e-05 2.1858183e-05
000360 0d 00 54 39 33 28 1b b7 b4 b9 dc b6 81 59 57 b5
       0.00020217914 -9.24808e-06 -6.5781296e-06 -8.0223987e-07
000370 4f cd 1d b8 1b 8f d1 b6 95 a5 8f 36 e4 77 0b 37
       -3.7622925e-05 -6.245345e-06 4.2810084e-06 8.31296e-06
000380 25 c2 c6 b7 f6 66 0a 3a 95 9a 4a 37 82 3e 2c 36
       -2.3693845e-05 0.00052796246 1.207613e-05 2.5666382e-06
000390 04 c1 bc b7 95 b3 25 b8 c6 d9 ad b7 b8 30 2c b6
       -2.2501226e-05 -3.9506314e-05 -2.0724616e-05 -2.5658355e-06
0003a0 fc 43 17 b8 ed 1c 88 b7 74 c0 17 38 2d af 9b 37
       -3.606452e-05 -1.6225933e-05 3.618044e-05 1.8559012e-05
0003b0 8e e7 19 39 b5 2b 14 b7 10 95 a2 38 42 d5 db b5
       0.00014677478 -8.831664e-06 7.752527e-05 -1.6378838e-06
0003c0 8f fe a1 b7 77 57 46 b6 05 31 06 3a 47 29 ce 36
       -1.9311234e-05 -2.955521e-06 0.0005118999 6.1440837e-06
0003d0 b8 b3 c4 b7 4a be 9e 36 6a 61 4b 37 34 dd c3 35
       -2.3448709e-05 4.7309195e-06 1.2122424e-05 1.4593011e-06
0003e0 1f 77 76 b7 9e 78 23 b8 50 d8 f8 b7 c1 a5 2e b6
       -1.4690478e-05 -3.8974562e-05 -2.9664632e-05 -2.6024502e-06
0003f0 6c 78 1b b8 ab c0 07 b7 f8 22 74 39 69 77 ff 37
       -3.706703e-05 -8.091486e-06 0.0002328268 3.0453974e-05

lstm.weight_hh_l1 f4 [80, 20]
000000 ef 94 eb 3c 85 90 e9 3c db c5 e8 3c 34 86 eb 3c
       0.02875754 0.028511295 0.028414657 0.028750516
000010 76 25 e8 bc 5f 61 e8 3c 4a 9f ea 3c e8 ee e5 3c
       -0.028338175 0.028366743 0.028640408 0.028068021
000020 87 40 e8 3c e5 42 ea 3c bc 69 e8 bc e1 5e eb 3c
       0.028351082 0.02859635 -0.02837073 0.028731765
000030 9a 8d e6 3c 22 b6 e8 3c 7f bd e8 3c d1 ca e8 3c
       0.028143693 0.02840716 0.028410671 0.028417023
000040 44 30 e6 3c 0d 03 e5 3c dc 7b ec bc a3 23 e1 3c
       0.028099187 0.027955556 -0.028867655 0.027482813
000050 87 8d e9 3c 9e 5c e7 3c aa 06 e3 3c 06 8b e2 3c
       0.028509868 0.028242406 0.027713139 0.027654182
000060 51 a3 e8 bc 1f 61 e0 3c a9 d6 ea 3c 3b 97 e5 3c
       -0.028398188 0.027390061 0.028666811 0.028026214
000070 8c 33 e5 3c fe 33 e1 3c 67 00 e9 bc 70 e3 e7 3c
       0.027978681 0.027490612 -0.028442575 0.028306693
000080 20 43 eb 3c 16 ba e1 3c 70 ca e8 3c e8 df e8 3c
       0.028718531 0.027554553 0.028416842 0.02842708
000090 b6 f4 e4 3c bb 76 e9 3c 00 ff eb bc 4c ac e6 3c
       0.027948719 0.028498998 -0.028808117 0.02815833
0000a0 32 60 ec 3c fe e5 e0 3c be 5c e6 3c 0c 92 eb 3c
       0.028854463 0.027453419 0.028120395 0.028756164
0000b0 9d 52 e8 bc 6f 51 e9 3c 6b 12 eb 3c 54 da e0 3c
       -0.028359706 0.028481213 0.028695306 0.027447857
0000c0 73 62 ed 3c a0 d2 ea 3c 2f c2 e2 bc aa 54 e3 3c
       0.028977608 0.028664887 -0.027680485 0.027750332
0000d0 e5 62 e9 3c cd 16 e9 3c d7 2d e8 3c 85 54 e0 3c
       0.02848954 0.028453255 0.02834217 0.027384052
0000e0 c9 01 e0 3c 42 b8 e8 3c 52 a9 e2 bc 17 39 e9 3c
       0.027344601 0.028408173 -0.027668629 0.028469605
0000f0 48 21 ec 3c 12 1e e8 3c 78 dc e9 3c c7 6c ed 3c
       0.028824463 0.028334651 0.02854751 0.028982533
000100 76 5e e7 bc c9 bd e9 3c dc 80 ef 3c 17 6c e5 3c
       -0.028243285 0.02853288 0.02923625 0.028005643
000110 2b 0b eb 3c be fe e8 3c b1 ec e7 bc c6 dc e0 3c
       0.028691849 0.028441783 -0.028311105 0.027449023
000120 e7 e5 e7 3c 44 d4 e8 3c 29 4e e5 3c 0d f5 e2 3c
       0.028307868 0.028421529 0.027991371 0.02770474
000130 1b 5c e5 3c 2e 0b eb 3c 97 bb eb bc c1 6a e7 3c
       0.02799802 0.028691854 -0.028775973 0.028249146
000140 12 30 e9 3c 85 d5 e5 3c f4 3c e8 3c fd be ea 3c
       0.028465305 0.028055916 0.028349377 0.028655523
000150 05 fe e6 bc 6c 09 e6 3c 0b df ea 3c 49 b4 e4 3c
       -0.028197298 0.028080665 0.028670808 0.027917998
000160 f6 5c eb 3c 05 97 e9 3c 86 19 e8 bc d6 d1 e7 3c
       0.02873085 0.028514395 -0.028332483 0.0282983
000170 c6 3e e9 3c 9d 10 e1 3c 35 a5 e8 3c 60 08 e4 3c
       0.028472316 0.027473742 0.02839909 0.027836025
000180 43 2f e5 3c 39 f2 e9 3c 9b 8f e9 bc b0 43 e7 3c
       0.027976638 0.028557884 -0.02851086 0.028230518
000190 a9 bb e9 3c 59 7f e9 3c 23 31 ed 3c 06 93 ec 3c
       0.028531866 0.028503107 0.028954094 0.0288787
0001a0 d3 2d e1 bc 3b 6f e8 3c b5 ed ea 3c d0 c1 dc 3c
       -0.027487671 0.028373351 0.0286778 0.026947886
0001b0 24 db ec 3c c3 b1 e5 3c 6a f2 e8 bc f6 38 e9 3c
       0.028913088 0.028038865 -0.028435905 0.028469544
0001c0 00 db e7 3c 9b b2 e4 3c d0 1d ea 3c bf d7 e8 3c
       0.02830267 0.027917197 0.028578669 0.028423188
0001d0 6a be e5 3c 72 59 eb 3c 4e 36 e3 bc a6 a9 e9 3c
       0.028044898 0.028729174 -0.027735855 0.028523277
0001e0 6a c9 eb 3c 98 36 e9 3c b3 0a ea 3c 69 1b ea 3c
       0.028782565 0.028468415 0.028569555 0.028577523
0001f0 02 42 e8 bc 2e de e9 3c 79 ff eb 3c 1e ed e5 3c
       -0.028351787 0.028548326 0.028808342 0.028067168
000200 31 ae e5 3c da 8f ea 3c df ee e9 bc 45 f2 e8 3c
       0.028037162 0.028633047 -0.028556285 0.028435836
000210 81 54 ed 3c a4 79 e8 3c 18 e9 ea 3c e6 7f e3 3c
       0.028970959 0.028378315 0.0286756 0.027770948
000220 10 08 e6 3c b7 63 e2 3c 76 f0 ec bc eb da e8 3c
       0.028080016 0.027635438 -0.028923254 0.0284247
000230 c3 3d e6 3c 50 03 e8 3c 35 92 e8 3c 42 cf e7 3c
       0.028105622 0.028321892 0.02839003 0.02829707
000240 e5 77 e6 bc e2 13 e6 3c cf b1 e2 3c 74 26 e4 3c
       -0.028133342 0.028085653 0.027672676 0.027850367
000250 5d ac e7 3c cb 41 e4 3c e7 44 df bc 57 28 e8 3c
       0.028280431 0.027863404 -0.027254535 0.028339548
000260 cb eb e8 3c 23 a1 e5 3c 19 23 e8 3c e2 e2 e6 3c
       0.028432747 0.028030938 0.028337048 0.028184358
000270 3f e0 e1 3c f9 51 e1 3c 4c 81 e8 bc f2 dc e6 3c
       0.02757275 0.027504908 -0.028381966 0.028181527
000280 df a6 e3 3c c6 83 e1 3c f8 26 eb 3c 03 89 e7 3c
       0.027789531 0.027528655 0.028705105 0.028263574
000290 38 d0 e5 bc e3 9c e9 3c 08 49 e5 3c ec e4 e5 3c
       -0.028053388 0.028517192 0.027988926 0.02806326
0002a0 4d ba ed 3c f6 fa ec 3c 7c f1 e9 bc d3 73 e9 3c
       0.0290195 0.028928261 -0.028557532 0.028497612
0002b0 17 af ea 3c 1e 1e e4 3c 5f 88 e5 3c b9 61 e2 3c
       0.028647942 0.027846392 0.028019128 0.027634488
0002c0 5b a6 e5 3c b1 81 e5 3c 16 ab eb bc 70 26 ea 3c
       0.028033426 0.028015943 -0.028768104 0.028582782
0002d0 02 05 ec 3c ac c8 eb 3c 59 f4 e1 3c 88 97 e4 3c
       0.028810982 0.028782211 0.027582334 0.027904287
0002e0 7a 4b e6 bc 18 1e e4 3c bc c1 ea 3c 0e ad e5 3c
       -0.028112162 0.027846381 0.028656833 0.02803662
0002f0 d0 6a e9 3c 2e 0a ea 3c cc fa e0 bc 25 81 e2 3c
       0.028493315 0.028569307 -0.02746334 0.027649472
000300 92 51 ea 3c c2 0a e9 3c 6c b0 ea 3c e0 b2 e0 3c
       0.028603349 0.028447513 0.028648578 0.027429044
000310 4e f5 e3 3c 36 d6 e8 3c cc b5 ec bc 3e 00 e8 3c
       0.027826931 0.028422456 -0.028895281 0.028320428
000320 db 69 e1 3c fb 28 e9 3c 32 bc e9 3c a1 e3 eb 3c
       0.027516296 0.028461924 0.028532121 0.028795065
000330 b8 49 e7 bc c8 03 e9 3c 66 c9 ea 3c a7 0c e5 3c
       -0.028233394 0.028444186 0.028660487 0.027960135
000340 b7 fd ee 3c f0 d5 ea 3c 05 f1 e5 bc ac d8 e8 3c
       0.029173715 0.028666466 -0.028069029 0.02842363
000350 90 25 ea 3c 92 20 e8 3c 37 be e8 3c 7d 6e e8 3c
       0.028582364 0.028335843 0.028411014 0.028372997
000360 75 84 e2 3c 14 93 e9 3c ba 7d eb bc ec 31 e8 3c
       0.027651051 0.028512515 -0.028746475 0.028344117
000370 21 ba ea 3c 66 0c e9 3c 96 d9 e8 3c ab 68 e2 3c
       0.028653206 0.028448295 0.028424066 0.0276378
000380 be 01 e8 bc a6 b5 e6 3c e9 41 eb 3c 51 fe e3 3c
       -0.028321143 0.028162789 0.028717952 0.027831228
000390 6e 74 eb 3c 60 a5 e8 3c 32 5c e8 bc 95 d3 e8 3c
       0.028742041 0.02839917 -0.028364275 0.028421203
0003a0 43 fb e8 3c 40 83 e3 3c 74 ca e1 3c 35 91 e7 3c
       0.028440123 0.027772546 0.027562357 0.028267482
0003b0 d5 b5 dd 3c b8 eb e8 3c 4a 80 e7 bc 79 0f e8 3c
       0.027064243 0.028432712 -0.028259415 0.02832769
0003c0 fc 50 eb 3c 53 22 e3 3c 14 4d e9 3c e9 b1 e9 3c
       0.02872514 0.027726328 0.028479137 0.028527217
0003d0 9a da e4 bc 92 84 e4 3c 37 3d e8 3c f1 d5 e3 3c
       -0.027936269 0.027895246 0.028349502 0.027811976
0003e0 9e 38 ef 3c 55 8e eb 3c a3 11 ea bc 47 46 e4 3c
       0.029201802 0.028754393 -0.028572863 0.027865542
0003f0 6a 84 e2 3c 61 84 e8 3c e0 ca e2 3c fe 90 e9 3c
       0.02765103 0.028383436 0.027684629 0.02851152

lstm.bias_ih_l1 f4 [80]
000000 d5 28 3c 3d e0 0e 3b 3d 96 86 3c 3d 72 ed 3b 3d
       0.045937378 0.045668483 0.04602679 0.045880742
000010 e3 5a 3a 3d f1 c5 3a 3d 67 4d 3b 3d d1 97 37 3d
       0.045496833 0.045598928 0.045728114 0.044822518
000020 4a c6 3b 3d 22 a0 3b 3d 08 c6 38 3d d8 a7 38 3d
       0.0458434 0.04580701 0.045110732 0.045081943
000030 8e 75 38 3d b7 bc 3a 3d 4f b1 3a 3d 79 89 38 3d
       0.045033984 0.04559013 0.04557925 0.04505298
000040 1a ba 39 3d 59 4d 38 3d 2c 99 3b 3d 64 a7 38 3d
       0.045343496 0.04499564 0.045800373 0.04508151
000050 dc ff a5 3d b8 0e a5 3d 87 08 a5 3d bb 4c a5 3d
       0.08105442 0.08059448 0.08058267 0.08071276
000060 6a 95 a3 3d 9d 44 9f 3d e0 1b a7 3d fb 16 a2 3d
       0.07987483 0.07776759 0.081596136 0.079145394
000070 62 cc a5 3d 51 64 a3 3d 49 96 a2 3d c3 77 a4 3d
       0.080956236 0.07978118 0.07938821 0.08030655
000080 14 11 a6 3d f2 49 a4 3d 57 f3 a4 3d 10 89 a3 3d
       0.08108726 0.080219164 0.08054226 0.07985127
000090 a2 83 a1 3d 9f be a4 3d 61 a7 a5 3d 30 dd a3 3d
       0.07886435 0.080441706 0.080885656 0.080011725
0000a0 2e 49 b3 3d 8f c7 b4 3d 87 d3 b2 3d 6b e0 c0 3d
       0.08754192 0.08827125 0.08731752 0.09417804
0000b0 a0 43 b5 bd f4 06 b3 3d cf 62 b3 3d 87 5d 92 3d
       -0.08850789 0.087415606 0.087590806 0.07146745
0000c0 86 33 b4 3d a9 80 b2 3d eb c0 b2 bd 47 14 b3 3d
       0.0879889 0.08715946 -0.087282024 0.08744102
0000d0 c3 38 8a 3d 11 14 b3 3d ad 34 b4 3d 5f c5 b3 3d
       0.06749108 0.08744062 0.087991096 0.0877788
0000e0 48 3e b3 3d 20 4d ba 3d 03 82 b3 bd d0 f2 b2 3d
       0.087521136 0.09096742 -0.08765032 0.08737719
0000f0 77 e7 bf 3d b7 19 bd 3d b4 2d bf 3d 27 68 c1 3d
       0.0937032 0.0923342 0.09334889 0.094436936
000100 79 f3 bb 3d 53 1e bd 3d 2c ea c0 3d e8 ca b1 3d
       0.09177298 0.092342995 0.09419665 0.086812794
000110 35 05 c1 3d 3c e3 bd 3d e2 07 be 3d 89 fe bd 3d
       0.09424821 0.09271857 0.09278847 0.09277064
000120 7c c2 bf 3d 1a 65 bd 3d f9 50 b6 3d 1b b9 bc 3d
       0.09363267 0.09247799 0.08902163 0.092149936
000130 dd 68 ba 3d 36 2c bf 3d a5 f2 be 3d 19 3a b7 3d
       0.09102032 0.093346044 0.093236245 0.08946628

lstm.bias_hh_l1 f4 [80]
000000 b5 5e 3b 3d 3a 67 3b 3d ac dd 3a 3d 06 d8 3a 3d
       0.045744617 0.04575274 0.04562156 0.045616172
000010 32 92 38 3d 99 4c 39 3d e0 74 3b 3d 40 c2 39 3d
       0.045061298 0.045239065 0.045765758 0.045351267
000020 b6 70 3c 3d 94 65 3a 3d 51 64 38 3d 91 9f 39 3d
       0.046005927 0.04550703 0.045017544 0.04531819
000030 80 76 3c 3d 1e f8 3a 3d 8d 76 3b 3d 80 c7 39 3d
       0.046011448 0.04564678 0.045767356 0.045356274
000040 79 01 39 3d 32 74 3b 3d 95 9e 36 3d f1 ca 39 3d
       0.04516742 0.04576511 0.04458483 0.045359556
000050 77 39 a5 3d 34 ce a3 3d 85 07 a1 3d bd f0 a5 3d
       0.08067601 0.079983145 0.07862762 0.08102558
000060 3c 88 a3 3d c7 fd a3 3d f3 65 a6 3d ea cf a2 3d
       0.07984969 0.080073886 0.08124914 0.07949813
000070 68 bf a4 3d ff 66 a3 3d f2 6f a4 3d 40 4f a3 3d
       0.0804432 0.07978629 0.080291644 0.079741
000080 85 38 a6 3d a6 fe a3 3d c1 78 a5 3d 4f ec a2 3d
       0.08116249 0.08007555 0.080796726 0.079552285
000090 96 60 a0 3d 89 91 a4 3d 39 a7 a6 3d 34 09 a4 3d
       0.07830922 0.08035571 0.08137364 0.08009568
0000a0 24 48 b3 3d 9d d1 b6 3d da 99 b3 3d 39 f2 b2 3d
       0.08753994 0.08926699 0.08769579 0.087376066
0000b0 08 30 b1 bd 1d fd b2 3d f5 72 b7 3d 09 80 b5 3d
       -0.08651739 0.08739684 0.08957473 0.088623114
0000c0 96 ab b4 3d 4a 58 b6 3d da 4b b2 bd d5 10 b3 3d
       0.0882179 0.089035586 -0.08705874 0.08743445
0000d0 4b aa b9 3d b9 04 b3 3d 6d 07 b3 3d fa 36 b3 3d
       0.09065684 0.08741135 0.08741651 0.0875072
0000e0 4b 99 b2 3d 29 a2 b9 3d 78 5a b3 bd f4 70 b3 3d
       0.087206446 0.09064133 -0.0875749 0.087617785
0000f0 85 d1 bf 3d 54 ac bc 3d 6c 3e bf 3d 6c cc c1 3d
       0.093661346 0.092125565 0.09338078 0.094628185
000100 de 89 bc 3d 2b 65 bd 3d a5 61 bf 3d 24 ac b2 3d
       0.092059836 0.09247812 0.09344796 0.087242395
000110 7c bc c2 3d f6 16 bf 3d e0 d5 ba 3d 43 de bd 3d
       0.09508607 0.09330551 0.09122825 0.09270909
000120 f2 78 c0 3d 4f d9 bb 3d 38 5a bf 3d 4e 1c bc 3d
       0.093980685 0.09172308 0.0934338 0.09185086
000130 a5 73 ba 3d 8a 50 bd 3d 15 17 c1 3d 7c 26 bd 3d
       0.09104089 0.09243877 0.09428231 0.09235856

fc.weight f4 [180, 20]
000000 a3 45 de 3c 47 a2 dc 3c e2 cc de 3c 5f 4c df 3c
       0.027132815 0.026932849 0.027197305 0.027258096
000010 26 48 dd bc 41 36 e0 3c 9a e5 e4 3c fa 21 d8 3c
       -0.027011942 0.02736962 0.027941514 0.026383389
000020 01 8e e5 3c 8e 8f db 3c 9c 04 dd bc 81 e7 dc 3c
       0.028021814 0.02680185 -0.026979737 0.026965858
000030 85 f5 dd 3c 95 93 db 3c 7b 65 dd 3c a6 26 dd 3c
       0.027094612 0.026803771 0.027025929 0.026995968
000040 70 92 dc 3c 6a 69 df 3c fd f5 dd bc c8 36 e3 3c
       0.026925296 0.027271945 -0.027094835 0.027736083
000050 ab 47 dd 3c 3e bd dc 3c 9a 8a dc 3c 99 25 e0 3c
       0.027011713 0.026945706 0.02692156 0.027361678
000060 f3 b4 db bc 86 32 dc 3c 22 eb de 3c 1d cb d6 3c
       -0.026819682 0.02687956 0.02721173 0.026219899
000070 27 3c df 3c 75 50 dd 3c c1 ff df bc 4e 79 df 3c
       0.027250363 0.027015904 -0.027343633 0.027279522
000080 82 ee df 3c 75 df df 3c 6e 31 df 3c c9 c4 dc 3c
       0.02733541 0.027328232 0.02724525 0.026949303
000090 67 1a d7 3c 73 28 dd 3c 58 6e de bc 8d 1e df 3c
       0.026257707 0.026996827 -0.027152225 0.027236247
0000a0 af 13 de 3c e7 c6 dc 3c 9c e3 e1 3c cf f0 de 3c
       0.027108995 0.026950313 0.027574353 0.027214436
0000b0 20 10 da bc 72 7a df 3c 1d 5b e1 3c 92 e0 d7 3c
       -0.026619017 0.027280066 0.027509267 0.0263522
0000c0 63 38 de 3c b1 0d e6 3c 41 96 dc bc b0 8e db 3c
       0.027126497 0.0280827 -0.026927115 0.026801437
0000d0 f6 3f df 3c b0 d5 db 3c b4 25 dd 3c 6a 6b d9 3c
       0.027252179 0.026835293 0.026995517 0.026540477
0000e0 2a 62 dc 3c 96 c7 dd 3c a8 d2 de bc f7 3f da 3c
       0.026902277 0.027072709 -0.027200058 0.026641829
0000f0 7b aa dd 3c cd cf dd 3c 27 f6 dc 3c e6 b1 de 3c
       0.02705883 0.027076626 0.026972843 0.027184438
000100 c9 3c df bc 34 eb df 3c fe 32 e0 3c 6c 43 d8 3c
       -0.027250664 0.027333833 0.027368065 0.026399337
000110 91 f1 df 3c e4 c4 df 3c 8f a3 db bc 85 a9 dc 3c
       0.027336868 0.027315564 -0.02681139 0.026936302
000120 8f 7c e5 3c 0b b8 dc 3c 30 c7 dc 3c 56 9a dd 3c
       0.028013496 0.026943227 0.026950449 0.027051132
000130 4e 3b d9 3c d4 05 e0 3c 2a 82 de bc e7 82 db 3c
       0.026517536 0.027346529 -0.027161676 0.026795818
000140 37 70 e4 3c 70 b2 dc 3c 1c 62 dd 3c f0 f7 de 3c
       0.02788554 0.026940554 0.027024321 0.027217835
000150 c0 6c e1 bc 91 94 dc 3c 7d e1 de 3c a9 d9 d7 3c
       -0.027517676 0.02692631 0.02720713 0.026348906
000160 1d a8 e4 3c ab 73 e1 3c 4d 55 de bc 6b 2c dc 3c
       0.027912194 0.027520975 -0.027140284 0.026876649
000170 5b 47 e0 3c 30 89 dd 3c a0 ff dc 3c 21 05 da 3c
       0.027377775 0.027042955 0.02697736 0.026613774
000180 29 8f d6 3c 1e 4c e4 3c 84 9d de bc 63 fa db 3c
       0.026191311 0.027868327 -0.027174719 0.026852792
000190 8b 81 dd 3c 10 ac cf 3c 4f 62 e3 3c 9e ab de 3c
       0.02703931 0.0253506 0.027756838 0.027181443
0001a0 2a 6a da bc e1 32 dc 3c eb 48 e3 3c 3c 46 db 3c
       -0.026661951 0.02687973 0.027744731 0.026766889
0001b0 75 c4 de 3c af a1 de 3c b1 d5 db bc a9 42 dc 3c
       0.027193287 0.027176706 -0.026835294 0.026887255
0001c0 5e ea e3 3c 4d 50 d7 3c cb cf e0 3c ed 15 dc 3c
       0.027821716 0.026283408 0.027442833 0.026865924
0001d0 56 c8 dc 3c 5c 5d de 3c 9f fd e3 bc b8 30 da 3c
       0.026950996 0.027144127 -0.027830897 0.026634559
0001e0 21 3e dd 3c 12 f1 dc 3c ae 3a dd 3c 1e ad dd 3c
       0.027007164 0.02697042 0.02700552 0.027060088
0001f0 5c f0 db bc ee 4e dc 3c 41 e7 dd 3c f8 53 d5 3c
       -0.02684801 0.026893105 0.02708781 0.026041016
000200 3e dd dd 3c 1e ad dd 3c 40 ad dc bc d1 21 dc 3c
       0.027083036 0.027060088 -0.02693808 0.026871594
000210 bf 1b dd 3c c6 35 dc 3c 56 12 dc 3c f4 41 da 3c
       0.02699077 0.02688111 0.026864212 0.026642777
000220 ad 5b da 3c a5 b0 dc 3c 02 03 de bc d1 91 db 3c
       0.026655043 0.0269397 -0.027101044 0.02680293
000230 eb 63 de 3c f4 83 e5 3c 02 b4 da 3c 30 2f da 3c
       0.027147254 0.028017022 0.026697163 0.026633829
000240 11 9a d4 bc 21 2f dd 3c 32 5d df 3c ea 7c e1 3c
       -0.02595237 0.027000012 0.027266119 0.027525384
000250 18 d0 e0 3c d7 49 de 3c 9e 5d dd bc ea d9 dc 3c
       0.027442977 0.027134819 -0.02702218 0.026959378
000260 65 70 de 3c 30 7a dc 3c fb 92 dd 3c f4 92 dd 3c
       0.027153203 0.026913732 0.027047625 0.027047612
000270 0e 1a dc 3c da 82 e3 3c a4 df de bc 2a cc db 3c
       0.026867893 0.027772356 -0.02720625 0.026830751
000280 c5 fc e2 3c 0a 3d e2 3c 11 a0 e2 3c ab 33 e0 3c
       0.02770842 0.027616996 0.027664216 0.027368387
000290 e9 7d e0 bc 41 e4 e1 3c 79 33 e4 3c 58 78 df 3c
       -0.027403789 0.02757466 0.027856575 0.027279064
0002a0 8a c3 e4 3c ad fe e4 3c 3e 5c e9 bc d1 bf df 3c
       0.027925272 0.02795347 -0.028486367 0.027313145
0002b0 fc 80 e3 3c a3 a2 e5 3c ae f8 e5 3c f2 3f e1 3c
       0.027771465 0.028031653 0.028072681 0.027496312
0002c0 8a 1b dc 3c 11 a7 e1 3c cd c5 ea bc e2 d0 e0 3c
       0.0268686 0.027545484 -0.028658772 0.027443353
0002d0 36 bb db 3c bc 84 e1 3c 7f fb e1 3c 1a f1 e2 3c
       0.026822668 0.027529113 0.027585743 0.027702857
0002e0 5b 8d d8 bc 9a d0 e2 3c 73 7e de 3c b7 59 d5 3c
       -0.026434591 0.02768736 0.027159905 0.026043756
0002f0 e9 15 df 3c 83 e5 dd 3c 68 69 dd bc 23 7a e1 3c
       0.027232127 0.027086979 -0.0270278 0.02752406
000300 e6 2b de 3c f8 97 db 3c 6b 81 dd 3c b4 f6 df 3c
       0.027120542 0.026805863 0.02703925 0.027339317
000310 75 f3 dc 3c df e9 dd 3c fe b2 da bc 1b c6 db 3c
       0.026971558 0.027089057 -0.026696678 0.026827862
000320 11 55 de 3c 2a 16 d2 3c fe 95 dd 3c 98 79 e5 3c
       0.027140172 0.025645334 0.02704906 0.028012082
000330 63 16 d9 bc f7 fd dd 3c c7 25 db 3c 11 2c d8 3c
       -0.026499933 0.027098639 0.026751412 0.0263882
000340 04 b6 e2 3c 8d 22 de 3c ca f8 e0 bc ba 97 dd 3c
       0.027674682 0.027116084 -0.027462382 0.027049888
000350 57 2c de 3c 3f be df 3c 12 3e dd 3c 7b 13 e4 3c
       0.027120752 0.027312396 0.027007136 0.02784132
000360 7e 2a e2 3c 4d 23 de 3c 89 3f df bc 7a 04 dc 3c
       0.027608152 0.027116442 -0.027251976 0.026857603
000370 81 fe dd 3c 29 27 dd 3c e3 d5 dd 3c 80 40 e0 3c
       0.027098896 0.026996212 0.027079528 0.027374506
000380 45 fa db bc bb 21 e0 3c 67 ed de 3c 35 0e db 3c
       -0.026852736 0.027359834 0.027212812 0.026740173
000390 23 71 d4 3c 86 61 de 3c 5f f2 da bc 67 9b dc 3c
       0.025932854 0.027146112 -0.0267269 0.02692957
0003a0 5b b9 dd 3c 07 42 dd 3c 56 96 e0 3c ee f5 dc 3c
       0.027065923 0.027009023 0.027415436 0.026972737
0003b0 88 ea de 3c c5 97 dd 3c be 5d de bc d6 13 df 3c
       0.027211443 0.027049908 -0.02714431 0.027231138
0003c0 af 9a da 3c eb 57 df 3c 28 e3 dc 3c 58 ec de 3c
       0.026685087 0.027263602 0.026963785 0.027212307
0003d0 ae 84 d6 bc 6a 56 dc 3c 50 56 df 3c 76 ad d8 3c
       -0.026186313 0.026896674 0.027262837 0.0264499
0003e0 53 33 de 3c 67 02 e0 3c f3 22 dc bc d3 2b dd 3c
       0.027124083 0.027344896 -0.026872134 0.026998436
0003f0 aa 58 dd 3c e8 b1 d9 3c 7b 90 dc 3c 31 06 df 3c
       0.027019817 0.02657409 0.026924362 0.027224632

fc.bias f4 [180]
000000 e0 c8 30 3d 47 55 31 3d 11 34 32 3d 51 9f 30 3d
       0.04316032 0.043294217 0.043506686 0.043120686
000010 e9 c9 30 3d 3a b0 34 3d 9d f5 2f 3d 2e db 31 3d
       0.043161307 0.044113375 0.042958844 0.043421917
000020 b4 11 0e 3d 39 ad 31 3d 5c 38 31 3d 34 bf 31 3d
       0.03468485 0.04337809 0.04326664 0.043395236
000030 b1 e2 30 3d dc 23 32 3d a0 af f1 3c cd 43 31 3d
       0.04318494 0.04349123 0.02950269 0.04327755
000040 c9 bd 32 3d 93 97 31 3d 47 60 31 3d 89 a6 14 3d
       0.043638024 0.043357443 0.043304708 0.036291633
000050 0d 8f 2e 3d d1 98 32 3d c4 77 30 3d f2 50 e9 3c
       0.042616893 0.04360277 0.043082967 0.02848098
000060 cc 96 30 3d ed 0b 31 3d f0 49 31 3d 08 8a 33 3d
       0.04311256 0.043224264 0.043283403 0.04383281
000070 8e 6a 2b 3d ad 35 31 3d 1a 63 24 3d a7 8d 30 3d
       0.041849665 0.04326408 0.040133573 0.04310384
000080 c3 55 30 3d f2 0f 30 3d c6 36 1b 3d ee ee 31 3d
       0.04305054 0.042983957 0.037894033 0.04344075
000090 ef 7d 32 3d 40 25 30 3d 09 9c 2a 3d 90 91 e9 3c
       0.04357713 0.043004274 0.041652713 0.028511792
0000a0 2a b3 31 3d 54 f0 2f 3d c9 81 30 3d fc cd 30 3d
       0.043383755 0.042953804 0.043092523 0.043165192
0000b0 fc 12 0e 3d d6 7e 09 3d 9e 76 30 3d 3c 92 2d 3d
       0.034686074 0.033568226 0.043081872 0.042375788
0000c0 37 16 31 3d 5b bb 1a 3d 62 08 31 3d 81 a7 08 3d
       0.043234076 0.037776332 0.043220885 0.03336287
0000d0 18 b2 30 3d 80 30 33 3d 28 a5 2f 3d c5 2a 32 3d
       0.043138593 0.043747425 0.042882115 0.04349782
0000e0 d9 13 30 3d f4 66 35 3d 72 cd 30 3d 33 56 2f 3d
       0.04298768 0.044287637 0.043164678 0.042806815
0000f0 3e 23 34 3d ea 7c 2b 3d 5d c1 2f 3d a5 ca 37 3d
       0.043978922 0.041867174 0.042909015 0.04487099
000100 6e eb 2f 3d b9 cd 35 3d b6 b9 30 3d ff 3e da 3c
       0.042949133 0.044385646 0.043145858 0.026641367
000110 19 b4 30 3d 26 cc ec 3c 19 7f 30 3d b6 a3 27 3d
       0.043140505 0.02890594 0.04308996 0.04092761
000120 b1 4b 08 3d 05 8b df 3c 9b c9 33 3d 2b 49 0d 3d
       0.03327531 0.02728797 0.043893438 0.034493607
000130 7b e6 30 3d ce 10 2f 3d e6 82 2f 3d d5 3c 33 3d
       0.043188553 0.042740636 0.042849444 0.043759186
000140 2b 9c 2f 3d 54 ca 33 3d 3d b9 30 3d 0f de 30 3d
       0.042873543 0.043894127 0.043145407 0.04318052
000150 88 64 2e 3d e0 bd 04 3d a1 2f 2f 3d d5 f8 2f 3d
       0.042576343 0.03240764 0.04277003 0.042961914
000160 73 eb 30 3d da 93 2e 3d 5d 74 2e 3d ad 7f 34 3d
       0.043193292 0.04262147 0.04259144 0.044067074
000170 b4 80 34 3d df 74 00 3d 15 6e 2f 3d 13 fb 2e 3d
       0.044068053 0.031361457 0.04282959 0.04271991
000180 cc 18 07 3d f8 bd 2e 3d ee f6 2e 3d 90 cf 1f 3d
       0.032982633 0.042661637 0.04271596 0.039016306
000190 eb 1d 16 3d f7 62 2e 3d ce 3d 23 3d f1 8c 2e 3d
       0.036649626 0.04257485 0.039853863 0.04261488
0001a0 a1 7c 2f 3d fc 63 2e 3d d0 e7 2f 3d 4a b8 30 3d
       0.042843465 0.04257582 0.042945683 0.0431445
0001b0 1d ec de 3c 59 4f 2f 3d 51 fd 33 3d be 77 30 3d
       0.027212197 0.04280028 0.043942753 0.043082945
0001c0 36 3e 32 3d d7 ed 35 3d 78 f4 2f 3d 97 71 22 3d
       0.04351636 0.044416275 0.042957753 0.03965911
0001d0 f1 e8 2f 3d 1a 11 2a 3d 99 f8 2f 3d 93 c7 2c 3d
       0.04294676 0.041520216 0.04296169 0.042182516
0001e0 df 91 35 3d c9 ff 2d 3d 43 e5 27 3d 5f 92 28 3d
       0.044328567 0.042480264 0.040990125 0.041155215
0001f0 34 1d 30 3d f5 18 2f 3d e4 e0 30 3d 76 42 30 3d
       0.0429966 0.04274841 0.043183222 0.043032132
000200 f6 6f 2d 3d 62 3f 31 3d 13 46 24 3d b3 bb fd 3c
       0.042343102 0.043273337 0.04010589 0.030973291
000210 0e d3 e3 3c b9 22 32 3d c9 66 32 3d ee 43 06 3d
       0.0278106 0.043490145 0.043555055 0.032779627
000220 7f 20 35 3d c1 45 2e 3d 7a 68 2d 3d 23 90 27 3d
       0.044220444 0.04254699 0.042335965 0.040908944
000230 d3 ef 2d 3d 04 68 2f 3d 20 01 31 3d 25 58 2f 3d
       0.042465042 0.042823806 0.043213964 0.04280867
000240 62 4f 2d 3d 8a e4 2f 3d f0 50 31 3d c7 9a 08 3d
       0.042312033 0.04294256 0.04329008 0.033350732
000250 c4 a2 d9 3c 29 5d 2f 3d e2 93 2f 3d 71 07 32 3d
       0.02656687 0.042813454 0.04286564 0.043464128
000260 dc 9e 2d 3d 36 de 2e 3d 16 98 2f 3d 13 ac 2d 3d
       0.04238783 0.042692386 0.04286965 0.04240043
000270 31 5f 2e 3d 85 cf 2d 3d 0e 18 2e 3d 4b 56 2e 3d
       0.04257125 0.042434234 0.04250341 0.042562764
000280 d3 43 32 3d 4e d1 1a 3d 00 dc 30 3d 1f 14 2f 3d
       0.043521713 0.037797265 0.04317856 0.0427438
000290 97 17 33 3d c4 33 2f 3d be ee 2d 3d 84 6c 25 3d
       0.04372367 0.042773977 0.04246401 0.04038669
0002a0 ef 50 11 3d 81 da f1 3c 47 f7 2d 3d c0 f2 2e 3d
       0.035477575 0.029523136 0.04247215 0.042711973
0002b0 96 cf 31 3d db 37 2e 3d 7f 1b 2d 3d 65 69 33 3d
       0.04341086 0.042533737 0.04226255 0.043801684
0002c0 ac 89 2b 3d 61 d4 f7 3c b2 5d 2c 3d ba 3a 0f 3d
       0.04187934 0.030252637 0.042081542 0.034968115
