model/lstm-META-360-.pth (torch, 53964 bytes, 12 tensors)

conv1.weight f4 [2, 4, 3]
00000000: 8f49 01b3 1095 753b c4ce ffbc dc1c bdb7
00000010: 1026 933c 9ab3 5f3a 73e3 6b3c 55b0 983c
00000020: d8c8 8a3c 04e1 e93b 635d d0bc 42f6 353d
00000030: 9ece 613d 2e22 b83c 8e13 acba 3d91 5b39
00000040: 1ded 843d 2519 6ab8 bb53 033d 2db3 1dbd
00000050: 43e6 5db8 e40e 223c 28a4 86bd 2bae 28bd
-3.0102054e-08 0.0037472881 -0.031226523 -2.2543994e-05 0.017962486 0.00085335376 0.01439749 0.01863877
0.016941473 0.0071374197 -0.025435155 0.044424303 0.055128686 0.022477236 -0.0013128386 0.00020939573
0.06490538 -5.5813365e-05 0.032062273 -0.038500953 -5.2904954e-05 0.0098912455 -0.06574279 -0.041181725

conv1.bias f4 [2]
00000000: 289e ecb9 585c 6d3d
-0.00045131263 0.057949394

lstm.weight_ih_l0 f4 [80, 2]
00000000: 0aae 9bbc 917a 3bb4 6c38 0736 8a7b 9b3b
00000010: 4720 77bc 4251 1f36 2f10 aeba 5450 eabb
00000020: 30b3 9bb4 7d9f 2e35 d084 8839 f7d9 973c
00000030: a9a0 e1bb 8023 aebc f24e 0335 c97e 9dbc
00000040: c9a7 cd37 c263 8ebc a7f8 6036 4b71 98b9
00000050: 3f33 53bc dcd5 a8b9 393c bc35 0391 c4bc
00000060: af6d 1d34 2855 bf3c e5d4 cdbc 2542 0534
00000070: 4cf7 5e3b 9739 beb5 286b 09bc 117f ea3c
00000080: 7338 813a f90d 2835 4062 d7ba 3922 0435
00000090: 2619 4a34 42e8 a0bc 3c13 8ebc 62d4 f636
000000a0: 51e2 c73c f9e8 273c 442e 2b36 8765 793c
000000b0: a92e 10bb 4670 b1bb 45e5 b8bc 187e 39bc
000000c0: e0b0 eb34 651a 43bb 6dfd 6fbc 6d4a 98bc
000000d0: b14c 37b9 de3f 6535 7cbd a2bc 8ed6 fd34
000000e0: 4c2e f8ba 0edc 953c 6093 e33b b18e a835
000000f0: e418 6e3b 981f 3135 2b32 a5bc 5cad c135
00000100: 34c1 21bc 2102 8a32 d02b 55b8 e948 5233
00000110: a0ca e6b0 0a1e 0b3b 0db0 1137 4cf3 3837
00000120: 6c9f c93c 4733 6835 1405 7cbc db4c 61b8
00000130: 98ff 213c 3aeb 573c d471 ac3b c3d6 5137
00000140: 31a9 89bb 99fd 163c 0a0d 7aba a298 863c
00000150: d6ae 8bb9 558d 72b9 681e a439 2ce8 003a
00000160: 0b06 aab9 119a 033b d46e 74b9 96c6 91b9
00000170: bca3 25b9 6450 31bc 2251 2db8 5836 bb3b
00000180: 4f51 9239 823b 143b b681 be3c 00e8 ba39
00000190: 1f7c fbbb 4bf6 6339 71bb 8839 632c 913b
000001a0: 59de 5038 dc22 6138 f2e1 38b9 c136 f1b8
000001b0: abc5 383a 1b41 59bb dedf c1bb f553 023a
000001c0: 27ce 0039 cec6 0e39 a75d 50ba 0082 7f3c
000001d0: 9787 55b8 3d48 98b8 efd9 48bc 18e1 b739
000001e0: c00b 4a3a 36c6 85ba f640 bfbb 730b da35
000001f0: 427d 1f36 7260 153c 82c9 3036 c900 b036
00000200: ab73 0f35 4684 fdb9 1a39 d1bb 71f6 2336
00000210: 13a6 3b36 dd18 cdba f66f e634 c787 253c
00000220: 3528 cbbc 9a7c 433c b5cc b9bb b246 40bb
00000230: 906a e534 988a b8bc e2c0 8035 56d6 af3c
00000240: 6b33 92ba 71fc e0bc c1fa f633 5746 81bc
00000250: a3d9 e332 0a19 55bc 26fa f5ba 2faa e63c
00000260: 1734 09b8 eb76 2f3a 6f60 0235 66dc b8bb
00000270: bf4f 6f34 f33d 35ba 3083 f436 3fd0 24b9
-0.019003887 -1.7460322e-07 2.014941e-06 0.0047449516 -0.015083379 2.3740145e-06 -0.001327997 -0.007150689
-2.9001376e-07 6.505214e-07 0.00026038894 0.01853655 -0.0068856073 -0.021257162 4.8916183e-07 -0.019225495
2.4516035e-05 -0.017381553 3.3523336e-06 -0.0002907611 -0.012890636 -0.00032202795 1.4024619e-06 -0.023994928
1.4661667e-07 0.023356035 -0.02512593 1.2410653e-07 0.0034021912 -1.4172864e-06 -0.008387364 0.028625043
0.0009858742 6.260521e-07 -0.0016432479 4.922363e-07 1.8821865e-07 -0.019642 -0.017343156 7.356096e-06
0.024399908 0.010248416 2.5507916e-06 0.01522196 -0.0022000468 -0.0054149954 -0.022570262 -0.011321567
4.3900855e-07 -0.002977037 -0.014647824 -0.018590176 -0.0001748081 8.5402087e-07 -0.019865744 4.728103e-07
-0.0018934696 0.018293407 0.0069450587 1.2558504e-06 0.0036330754 6.5983613e-07 -0.020165524 1.4430075e-06
-0.009872723 1.6066283e-08 -5.082396e-05 4.8960747e-08 -1.6792292e-09 0.0021227621 8.6836635e-06 1.1023902e-05
0.024612151 8.6501353e-07 -0.01538207 -5.3715758e-05 0.009887598 0.013178641 0.005262593 1.2507374e-05
-0.0042010774 0.009215736 -0.0009538686 0.016430203 -0.0002664241 -0.00023131569 0.00031303172 0.0004917409
-0.0003242943 0.0020080844 -0.0002331094 -0.00027804513 -0.00015796622 -0.010822389 -4.1321975e-05 0.0057132654
0.0002790787 0.0022618477 0.02325521 0.00035649538 -0.0076747085 0.00021740158 0.00026079596 0.00443034
4.9798142e-05 5.3676646e-05 -0.00017631779 -0.00011501974 0.0007048498 -0.0033150378 -0.0059165796 0.0004971617
0.00012283829 0.00013616236 -0.00079485256 0.015594959 -5.0909435e-05 -7.26138e-05 -0.012258991 0.00035072188
0.00077074394 -0.0010206166 -0.0058366014 1.6245598e-06 2.3765756e-06 0.009117233 2.6343337e-06 5.2453e-06
5.343997e-07 -0.00048354472 -0.006384981 2.443234e-06 2.796184e-06 -0.0015647669 4.29223e-07 0.010103173
-0.024799446 0.011931563 -0.005670155 -0.0029339013 4.2732108e-07 -0.022527024 9.59288e-07 0.021464508
-0.001115424 -0.027464123 1.15008795e-07 -0.015780611 2.6525248e-08 -0.013006458 -0.0018766567 0.028157322
-3.2711858e-05 0.00066934404 4.8569103e-07 -0.005641508 2.2287621e-07 -0.0006913833 7.287039e-06 -0.00015717837

lstm.weight_hh_l0 f4 [80, 20]
00000000: 91e7 fe3b ad5e a8bc 41ca 0fb6 5227 d13c
00000010: fdbf 3839 478f f732 6fbc fdb8 7f56 3733
00000020: 5151 b83c a891 2eb2 6b50 7cb1 af38 c13b
00000030: 99cf b535 519c fd3b e35d 0532 bf9c 3dbb
00000040: 2312 e03c 0958 51b4 8d6d bdb2 1b92 c739
00000050: f2a2 0abb fcf8 91b4 c284 daba 10a1 1e35
00000060: 0f93 85b4 acb9 07b5 b852 6f3b c811 dbb4
00000070: 2fb1 d7bc ef3c 8a34 1ead 2834 8037 6b34
00000080: 5af2 38bc af3d c9bc db3e 0bb2 b241 5a35
00000090: a57b 12b5 0fb4 a13b 134e 56b4 1f7a d33c
000000a0: 8c62 0734 e166 2aba 82ee 18b5 2a51 35b6
000000b0: 490d 6fb4 60c7 17ba 26e7 55b5 5425 0eb5
000000c0: 2a8f 1a34 5234 a934 4f2e 3734 b354 a234
000000d0: 0145 803c 5cdb 553b b890 a2b3 58fe 0d35
000000e0: d28b da39 8b3b d135 cabc 14b4 b53a a035
000000f0: 1591 e6b8 4dfe a0bb ff06 cdb5 0ea3 0dbb
00000100: be68 31bc 7886 73b9 eb85 a6bc 31c7 aabc
00000110: 5549 7cbc 3ac4 fd34 9db9 2dbb 6fff 8cbc
00000120: 07bf 94bc 342f bcb3 81ec db3a 200b 0736
00000130: fb47 c3ba a3a6 76b3 eda0 d6b4 99d3 4c39
00000140: 1785 62bc 1e38 0d34 540d 9139 abe9 4537
00000150: d758 1839 f9ed aa3c 9eb8 50b4 a7db 8837
00000160: 7e05 1e33 630d a533 19dc acba e125 f732
00000170: ba2d 92bc db74 69bb 2a5c 0ab1 bdd9 ae35
00000180: ada9 9f35 c647 a4bc f263 13b3 9ec9 3e39
00000190: f199 bc34 0392 09b5 6200 12bb 2bdb ac35
000001a0: 27a9 283c ff9e 8d3c 138d b8bc 84b7 c1bc
000001b0: 85b0 0835 d141 dc34 668b b534 f40a d03c
000001c0: 26ea 1abc 5b01 5abc 2632 69b4 1499 32bc
000001d0: d945 f534 a516 9fb4 39bb c5bc a201 a335
000001e0: 8c7b 493c f5c3 b6b4 05ec 4db5 fdb9 6035
000001f0: e65e 9cb4 ba72 d7b5 4488 2c3c a02e 16b5
00000200: ec81 a53c de17 6536 b0e2 6c34 fdde a934
00000210: dcc2 4d34 da11 ebbb 3b2b 6b3c 089a 503a
00000220: 057c aabb 4ae6 aabc db17 4bb4 a754 bbbb
00000230: c50f 20bb 9129 a0b3 fe1c c9b5 88b8 53bc
00000240: f657 6fb3 7766 873c 25ab 80b8 c7f8 2e3b
00000250: 09b0 fc3b 20ae 3139 d5bb 1eb7 4a02 8f3b
00000260: 297f 1d33 aad0 36ba bb40 a7b2 8062 4534
00000270: 51b4 9232 d083 47b4 0016 daba 2f72 8434
00000280: d860 f831 26dd 98b3 9821 d53c ba83 1736
00000290: 4956 b139 2ee2 7dbb 7875 d6ba b206 3eb3
000002a0: 2cc8 2633 10f4 c9b4 1d52 cbba 2a77 873a
000002b0: 08e6 0d33 10ee e037 de55 9f3a 95f7 9db8
000002c0: 7b26 a838 304b 1a35 736c 2eb3 57fa 8239
000002d0: b1d9 5133 4600 20b4 d7bd 4fba f747 093c
000002e0: 9413 6039 c287 acb8 4b63 d6b4 fe81 0cb5
000002f0: 9d67 8d33 f65a 9e3c 9301 4034 0230 f3b4
00000300: 7842 c23a 6910 c73c ed40 a1bc fdb8 d1b8
00000310: 26bd 003c 9451 a9b8 23f3 c4b4 5c52 553c
00000320: 3c7d 9fbc c1eb 28bb 3cb1 9a3c 3074 2d34
00000330: 28ea 10ba cc9a 9ebc 8658 afbc d5c7 b03c
00000340: 8f67 4d33 b79b 07ba 7882 0bb3 96cb 913b
00000350: 99eb 3a3c 215d fbb3 cd9e e8bb 33ab 6c34
00000360: 3f1c a633 d02c 093c 013f 0bb3 0360 bd37
00000370: 1745 9f3b c884 e43c 78f3 5a3b f3d2 b534
00000380: 9f3f d2bb f111 db38 6aff dcb4 bae9 13ba
00000390: 779c 75bc 622a 47b8 ac22 94bc 566c b5bc
000003a0: ee96 913b 705c 1ab9 d41e c435 a2c9 523b
000003b0: 82ad f233 c0b5 acb3 1a20 ea37 b8a6 bbbb
000003c0: 5e6d c239 2407 433c e0e6 6a39 ae68 f432
000003d0: 53b8 89b3 27d8 6fb3 9f58 763b 9195 e4bc
000003e0: 228d e33c db67 a632 d46b 2334 dbf7 c7b8
000003f0: bec4 e8bb 6bd9 9c3c 34ae 7a38 3f87 7f3c
0.0077790697 -0.020552957 -2.1426388e-06 0.025531445 0.00017619129 2.881974e-08 -0.000120990786 4.2686676e-08
0.022499712 -1.0161251e-08 -3.6716539e-09 0.00589665 1.354597e-06 0.0077395816 7.762966e-09 -0.002893254
0.027352398 -1.9496669e-07 -2.2052314e-08 0.00038065095 -0.0021154252 -2.7189515e-07 -0.0016671645 5.9093964e-07
-2.488018e-07 -5.056161e-07 0.003651781 -4.0804866e-07 -0.026329605 2.5748838e-07 1.5709199e-07 2.1906271e-07
-0.01128825 -0.024565546 -8.1051565e-09 8.130693e-07 -5.4569165e-07 0.0049347947 -1.9958706e-07 0.025815068
1.2608706e-07 -0.00065003155 -5.6971487e-07 -2.7018345e-06 -2.2263443e-07 -0.0005789902 -7.968505e-07 -5.295344e-07
1.439445e-07 3.151677e-07 1.706005e-07 3.0236478e-07 0.015657904 0.003263197 -7.570037e-08 5.289671e-07
0.00041684374 1.5589043e-06 -1.3852255e-07 1.1938015e-06 -0.00010994278 -0.0049131275 -1.5275726e-06 -0.002161208
-0.010828195 -0.0002322438 -0.020327529 -0.020846935 -0.015398343 4.7267696e-07 -0.002650834 -0.017211644
-0.018157495 -8.7630184e-08 0.0016778858 2.0123043e-06 -0.0014898771 -5.7427894e-08 -3.9977695e-07 0.00019533782
-0.013825676 1.3152064e-07 0.00027666485 1.179652e-05 0.00014528945 0.020865427 -1.9438673e-07 1.6314747e-05
3.6792237e-08 7.685846e-08 -0.0013188153 2.877181e-08 -0.01784407 -0.003562263 -2.0134032e-09 1.302738e-06
1.1895805e-06 -0.020053755 -3.4317004e-08 0.0001819492 3.5129736e-07 -5.124895e-07 -0.002227806 1.2878785e-06
0.010294235 0.01728773 -0.022528207 -0.023647077 5.092082e-07 4.102608e-07 3.3815303e-07 0.025395848
-0.009455239 -0.013305987 -2.171806e-07 -0.0109007545 4.5685627e-07 -2.9632534e-07 -0.024137126 1.2144922e-06
0.012297522 -3.404272e-07 -7.6711905e-07 8.371715e-07 -2.9126312e-07 -1.6052138e-06 0.010530535 -5.59472e-07
0.020203553 3.4137552e-06 2.2061681e-07 3.1640948e-07 1.9163002e-07 -0.007173759 0.014353569 0.0007957523
-0.0052027726 -0.020861764 -1.8914527e-07 -0.0057168785 -0.0024423462 -7.4581415e-08 -1.4984105e-06 -0.012922414
-5.5726524e-08 0.016528351 -6.135394e-05 0.0026698576 0.0077114147 0.00016944902 -9.461267e-06 0.0043642865
3.6670063e-08 -0.00069738424 -1.9470795e-08 1.8382889e-07 1.7078635e-08 -1.8581272e-07 -0.0016638637 2.4669995e-07
7.22876e-09 -7.118278e-08 0.026016995 2.2577428e-06 0.00033824358 -0.003873955 -0.0016361913 -4.424391e-08
3.8831942e-08 -3.7616746e-07 -0.0015512143 0.0010335196 3.3038333e-08 2.6813737e-05 0.0012156328 -7.532459e-05
8.018032e-05 5.747888e-07 -4.0611166e-08 0.0002498205 4.8859594e-08 -1.490126e-07 -0.00079247117 0.008378974
0.00021369598 -8.226886e-05 -3.993285e-07 -5.234323e-07 6.584671e-08 0.019330483 1.7881966e-07 -4.5297207e-07
0.0014820835 0.024299817 -0.01968428 -0.00010000353 0.0078575965 -8.073743e-05 -3.668475e-07 0.013020124
-0.019468896 -0.0025775286 0.01888334 1.615415e-07 -0.0005528056 -0.019360922 -0.021404516 0.021579662
4.7824468e-08 -0.00051730446 -3.248212e-08 0.004449318 0.01140871 -1.17050384e-07 -0.0070990087 2.2041495e-07
7.735115e-08 0.008372501 -3.242076e-08 2.2575265e-05 0.004860531 0.027895346 0.003340928 3.3867363e-07
-0.0064162756 0.000104460756 -4.1164031e-07 -0.0005642433 -0.014990917 -4.748477e-05 -0.01808294 -0.022146385
0.004443041 -0.0001472102 1.461211e-06 0.003216364 1.1300564e-07 -8.042434e-08 2.7909922e-05 -0.0057266615
0.00037084048 0.011903558 0.00022401987 2.8452941e-08 -6.413088e-08 -5.5843113e-08 0.0037589443 -0.02790335
0.027777258 1.9372171e-08 1.5219786e-07 -9.535226e-05 -0.0071035316 0.019146642 5.9766884e-05 0.01559621

lstm.bias_ih_l0 f4 [80]
00000000: 26bf 69bb 9592 143c 4e39 6b38 8d61 c838
00000010: 60e5 9339 2fba 333a 0fe3 8138 80cc 2037
00000020: defd 8537 af86 323c 9178 3f37 5491 d737
00000030: fc0b 35bc 4708 1036 0635 9b33 af39 72bc
00000040: 47da 893b e601 f8bb 53eb e7b5 f85a d7ba
00000050: 91e6 d03b 0ccf 89b9 d000 6038 f4b2 cf38
00000060: 1eda e6bc 2060 baba 53ea 3ebc cb2e 9eb7
00000070: b8c8 dabc 5cc1 0f38 acd2 6537 1f7b e237
00000080: e032 5c36 3251 1836 d3ec d7ba 99ba 1939
00000090: 4d14 1bba 55f5 363b ee5d b53a 3c28 1b39
000000a0: f29d 4eba f879 dbbb 6afc 6ebb 9c78 df3b
000000b0: a648 13bc ee16 95bb 1622 f1bc fc52 e3ba
000000c0: 4e0a 3c3b d553 873b 880a 8c3b 8b9c 8b3b
000000d0: 249a 753a 5c91 f2ba 66de 48ba 3358 213c
000000e0: 5803 613b 7474 64bb 3ce8 e0bb 522a dd3c
000000f0: 63df 593c ac8e 223a c497 5038 9d35 f638
00000100: 44d8 96b9 b878 b038 d6ae 6b38 e96c 783c
00000110: 5844 b63a 1e32 0338 ec9c a03c b8a1 dd37
00000120: 4e41 d03c 16b6 2035 d1b3 963c caa9 1d39
00000130: 16f9 8037 328b 6937 16b6 ba36 c296 2e39
-0.0035666912 0.009068151 5.6081735e-05 9.5549134e-05 0.00028208923 0.00068560516 6.193492e-05 9.584357e-06
1.5973052e-05 0.010896369 1.1412559e-05 2.5697671e-05 -0.011050221 2.146249e-06 7.227395e-08 -0.014784261
0.004206929 -0.0075685857 -1.727933e-06 -0.0016430309 0.006375142 -0.00026284938 5.340652e-05 9.903862e-05
-0.028180178 -0.0014219321 -0.011652547 -1.8856857e-05 -0.026707038 3.4273937e-05 1.36985145e-05 2.6998632e-05
3.2812168e-06 2.2697027e-06 -0.0016473777 0.0001466073 -0.0005915806 0.0027917225 0.0013837197 0.0001479694
-0.0007881812 -0.0066978894 -0.0036466368 0.0068197977 -0.008989489 -0.0045498526 -0.029435199 -0.0017343457
0.0028692666 0.0041298666 0.0042737164 0.0042606047 0.0009368977 -0.0018506455 -0.00076625345 0.0098476885
0.0034334268 -0.003485945 -0.006863622 0.026997719 0.013297888 0.00062010693 4.9732407e-05 0.0001174018
-0.0002877136 8.4148196e-05 5.6191195e-05 0.015162685 0.0013905866 3.127951e-05 0.019606076 2.642056e-05
0.025421765 5.9869615e-07 0.01839629 0.00015035938 1.5374779e-05 1.3920291e-05 5.5644296e-06 0.00016650095

lstm.bias_hh_l0 f4 [80]
00000000: 494f 19b6 9a3c 3938 9ac9 3638 8762 cc38
00000010: 026a 4437 73d1 a938 5261 7238 f305 1e37
00000020: 35ec 3037 79b2 d5b9 206a 7e37 ac3a bc37
00000030: 1bd9 873a 62a2 d635 06f0 533a 21f4 6e38
00000040: 2ca3 8137 607f 61bb 7d2f 9336 8e69 3c39
00000050: a6b0 35ba 1b2c caba f71f 473c bd4c da38
00000060: 98b2 3c37 90ce eab8 96b2 7838 3b4b b5b9
00000070: 0e44 7137 0a27 bbba 35b3 8ab9 97ba b1ba
00000080: 44cf 9bbb 5432 1c36 972c 5f34 2433 1339
00000090: fd24 8937 1b22 cc3b b11d 003c 34fd 97bb
000000a0: adbc 9e3b 2854 f1bb 2e79 babc 1fb6 a93c
000000b0: 81f7 f8ba 26c8 d8bc ddad f4bb a52c 92bc
000000c0: bc17 833b dc2d 943b 3857 613b 5fec c73b
000000d0: 2f9e cf3b 4dbf 16ba 6b4e 7d3a 09b9 d43c
000000e0: 2c89 ee3b 522f a8bb 6d22 c4b8 2456 b23c
000000f0: 36e5 abbb 5a6d b2bc be65 f03a 6fe1 f438
00000100: 2e04 2737 04fa 14ba 08a3 993b d7c5 3f3a
00000110: c3ee af37 c31c 0838 25f6 803b 1265 96b9
00000120: 04cf 8436 f490 403a 3992 6134 cd19 813a
00000130: 17a4 7c3c f363 de3c a8e2 0337 aa45 3d3c
-2.2844927e-06 4.4163877e-05 4.3579937e-05 9.74583e-05 1.1707192e-05 8.097561e-05 5.7787933e-05 9.418919e-06
1.0545414e-05 -0.00040759498 1.5164289e-05 2.2438668e-05 0.0010364385 1.5991502e-06 0.00080847775 5.6970985e-05
1.5453981e-05 -0.0034408197 4.3864698e-06 0.000179684 -0.0006930925 -0.0015424521 0.012153617 0.00010409344
1.1247255e-05 -0.00011196465 5.929413e-05 -0.0003457906 1.4380565e-05 -0.0014278602 -0.0002645493 -0.0013559636
-0.0047549326 2.3275106e-06 2.0784715e-07 0.00014038064 1.6348897e-05 0.0062296516 0.007819579 -0.0046383385
0.0048442692 -0.0073647685 -0.022762861 0.020716725 -0.001899466 -0.026462626 -0.007467015 -0.017843554
0.004000632 0.0045220684 0.0034384262 0.0061011757 0.0063359956 -0.0005750552 0.0009662869 0.025967138
0.0072795358 -0.005132594 -9.3524206e-05 0.02176959 -0.00524583 -0.021780659 0.0018340868 0.00011676817
9.954949e-06 -0.0005683007 0.0046886243 0.0007315552 2.0972808e-05 3.2451713e-05 0.0039355927 -0.00028685533
3.9580063e-06 0.00073458184 2.1007953e-07 0.0009849608 0.015419981 0.027147269 7.860981e-06 0.011552254

lstm.weight_ih_l1 f4 [80, 20]
00000000: 5bcd 193b 5d41 2eb9 0718 d53c e98a c23c
00000010: 8e1b 1fb9 7185 15ba 6ad2 93ba 4216 93b9
00000020: 3f44 d638 123f 1339 10bf a3bc b6e7 1b39
00000030: 27a3 c438 c6f2 86b7 081b dab6 6687 fd39
00000040: 4bba 043c c1a7 a0b8 e523 b2bc c49a e1bc
00000050: 6bae c4b9 084b d7b9 0563 adba 2e55 29bb
00000060: 438d bcb9 57e6 0db9 3e32 a7ba f1c6 35ba
00000070: dc59 8b39 fc85 bb39 59a7 8539 e46c 223c
00000080: 39bb 7039 3dc5 58b8 a7e1 d33a 34ca 9f3c
00000090: d6f8 953a 5ef1 73b9 2096 65b9 f4f8 cd3a
000000a0: 7fdb ccbc 21fd 83b9 96a3 823c 3b11 213a
000000b0: aed0 33bc 63ae 233b 3eda 64ba 1178 f7b9
000000c0: 16ed 3439 86e2 26bb 7a9e 16bc 6e24 6839
000000d0: f5f9 25ba 66cb 3b3a 3dd4 24b7 ebb6 123a
000000e0: 216c 0fbc 7e66 24ba 2208 18b9 be74 8b3a
000000f0: 7d16 5a38 a7ea 47bb dedf 68b9 6c1c acba
00000100: a1b1 d0b8 eed4 a6b9 998a 7cbc 7c8f 44b9
00000110: 444b 9138 b53a 963c 3d53 d1bc 14d7 d138
00000120: c593 43b9 d5be 973b e96b 14b6 ec47 9bb7
00000130: 701d d738 70e7 5e3a ccf7 7eb8 b94c fb39
00000140: 594f 23bb 940e de3b 2bd8 4eb7 89d9 923a
00000150: ec1a 29b7 53c3 f03b d0da 8cbc 9dab 98b7
00000160: 19e8 783c 019c fc39 d75b 0637 cfc0 c836
00000170: c50c 1d38 9865 db38 3b65 b23c 80de 543a
00000180: c97b 1e37 28f2 78bc 4cfe e83c 45bf 5838
00000190: fb14 4fbc a39b 373c c4ef 91b9 e778 8cbb
000001a0: d4ec fcb8 3f2d b439 65fb 2cbb ec01 88bc
000001b0: 1732 9b38 029e e138 ea2c d138 84ba 87bb
000001c0: f508 9538 c636 1e3c 2296 f6b8 a2ab 823c
000001d0: 644a df38 822b 193b 6e05 fe39 56c8 8ebc
000001e0: 661c 5039 f651 c7b9 949b 6fbc fd3a 4b3a
000001f0: 9f0a 28bb 683e debb f560 d93a 33c6 bd3c
00000200: e72e 8c39 c08e a139 815b 8abc 4184 a239
00000210: 69f2 d7ba d0ae 87b8 161d aeb7 9ec8 8a3a
00000220: 1124 8d3c 025e 6fb9 0feb 853c 2fc5 bd3a
00000230: a488 623c 7d65 9aba 1b51 81bc 9df6 083c
00000240: a80d 8fb9 d05b f83a 87c9 2abb 648f afbc
00000250: 9faf 8f39 63b8 d339 b87d 9d39 6d77 d739
00000260: f583 9d39 48e1 5fbc 5337 d6bc bb17 bb3a
00000270: 46fa 013a afc2 91b9 cf84 903a a847 f93a
00000280: 0e93 46bb e306 89b9 4789 88ba 94b1 1b3a
00000290: 5c9a 7eb9 21c6 003b 1330 89bc 54b7 e8b9
000002a0: cd89 f7bb 68ae cbbb 07c6 b2b9 fafe 083a
000002b0: 4f84 a2bb f8f8 10bb 906a 8cba cbda 483a
000002c0: 5385 68bb c254 22b9 7da2 5cbb 4a26 a0bb
000002d0: 435b c638 8734 6db9 1a1b 893c b206 f639
000002e0: 0ef1 8a3c 8f16 4a3c cfe8 2aba 2593 b4b9
000002f0: a57f 2b3b 3722 0bbb a9cf 1139 8109 a7bc
00000300: 140f ef3a 217c 0cb7 51ee 663b 3470 1b3a
00000310: ec0b 5139 0175 6bbc 1253 353a f217 6d3a
00000320: cd85 d8bc e764 4ebc 58db 7dba 7ad6 de3c
00000330: ca4a c5b9 2f50 8cba 0a40 acba cdd9 3fba
00000340: c2d4 88bc 1f20 ce39 546d cfbc 1e05 bf39
00000350: d113 793c c1be 56b6 a9b2 c63c d0b5 573b
00000360: ef8c 853c c155 afbc b62d 82b9 b1db e13a
00000370: 6416 0338 05d1 48ba 6d00 98b8 f9c1 ad3c
00000380: 0788 2939 7c31 21b9 5963 1ab9 3c97 50bc
00000390: 136f 9bbb f66a 1338 a146 9637 7790 f337
000003a0: a226 b33c 6f29 c8bb fadf 8ebc 9837 4639
000003b0: e7d9 4eb8 2d65 f53b b3ce 3d39 225e d63b
000003c0: a031 fbb9 2c1d beb8 0078 e7b8 e76b fa38
000003d0: 9745 3db8 6e92 6dbb a114 28b9 a7c8 36b9
000003e0: 54c9 17bb c119 3238 1c8c c6bc ca49 133c
000003f0: 266c e737 fc57 1eb7 f983 7bbc a1ec b939
0.0023468349 -0.00016618283 0.026012434 0.023747878 -0.00015173687 -0.0005703783 -0.0011277918 -0.00028054608
0.00010217027 0.00014042508 -0.019988567 0.00014868271 9.376398e-05 -1.6087095e-05 -6.500053e-06 0.000483568
0.008101056 -7.660641e-05 -0.021745631 -0.027539618 -0.00037513985 -0.00041063898 -0.0013228363 -0.0025838125
-0.00035963402 -0.00013532616 -0.0012756062 -0.00069342466 0.00026579096 0.00035767246 0.0002549242 0.009913657
0.0002295793 -5.1682106e-05 0.0016165272 0.019505598 0.0011441957 -0.00023264202 -0.00021895068 0.0015714453
-0.025007008 -0.00025174863 0.015947144 0.000614423 -0.010975046 0.0024975769 -0.00087300304 -0.00047200968
0.00017254459 -0.0025464608 -0.009193057 0.00022138815 -0.0006331497 0.00071637926 -9.824577e-06 0.0005596715
-0.008753807 -0.0006271376 -0.0001449888 0.001063965 5.1996194e-05 -0.0030504854 -0.00022208641 -0.0013131029
-9.951299e-05 -0.00031820632 -0.015413904 -0.00018745469 6.928158e-05 0.01833854 -0.025552386 0.00010005958
-0.00018651698 0.0046309032 -2.211653e-06 -1.8510931e-05 0.00010257482 0.0008503115 -6.0789098e-05 0.00047931614
-0.002491912 0.00677664 -1.2328887e-05 0.0011203747 -1.0079453e-05 0.007347503 -0.017194182 -1.8199726e-05
0.015192055 0.00048181418 8.0084055e-06 5.9829104e-06 3.744361e-05 0.00010461657 0.021776786 0.0008120313
9.446355e-06 -0.015194453 0.02844157 5.1676547e-05 -0.0126392795 0.01120654 -0.00027835194 -0.0042868736
-0.00012060409 0.00034365986 -0.002639496 -0.016602479 7.400306e-05 0.00010758267 9.9742625e-05 -0.0041421074
7.106542e-05 0.009656614 -0.000117581585 0.015950982 0.00010647325 0.002337188 0.000484507 -0.017429512
0.00019847005 -0.00038017303 -0.014624495 0.00077526254 -0.0025641096 -0.0067823417 0.0016584682 0.023165798
0.00026737826 0.0003081467 -0.016889336 0.00030997585 -0.0016475442 -6.469863e-05 -2.075596e-05 0.0010588353
0.017229112 -0.00022827837 0.016347436 0.0014478321 0.013826523 -0.0011779513 -0.015785744 0.008359578
-0.0002728526 0.0018948261 -0.002606006 -0.021430679 0.00027405933 0.00040382435 0.0003003904 0.00041096975
0.0003004369 -0.013664551 -0.026149428 0.001427404 0.0004958253 -0.00027801606 0.0011025908 0.0019018548
-0.0030300054 -0.00026135807 -0.0010416888 0.0005939242 -0.00024280831 0.0019649344 -0.016746556 -0.00044387078
-0.007554269 -0.006215859 -0.00034098348 0.0005225983 -0.00495962 -0.0022121053 -0.001071291 0.0007661997
-0.0035479858 -0.00015481099 -0.0033666187 -0.004887377 9.4583746e-05 -0.00022621649 0.016736556 0.00046925765
0.016960647 0.01233448 -0.00065196765 -0.00034441907 0.0026168611 -0.002123011 0.00013905637 -0.020390274
0.0018238747 -8.373551e-06 0.0035237262 0.00059295003 0.00019936234 -0.014371158 0.00069169805 0.00090444006
-0.026430989 -0.012597299 -0.0009683869 0.02720188 -0.0003763049 -0.0010705049 -0.0013141644 -0.00073185266
-0.016703013 0.00039315314 -0.025320686 0.00036434171 0.0152024785 -3.1999518e-06 0.024255114 0.0032914765
0.016302554 -0.021403195 -0.0002482959 0.0017231611 3.1253687e-05 -0.0007660541 -7.248004e-05 0.021210657
0.0001616777 -0.00015372591 -0.00014723594 -0.01273137 -0.0047434657 3.5147146e-05 1.7914283e-05 2.9035129e-05
0.021869007 -0.006108455 -0.017440785 0.00018903462 -4.9317165e-05 0.0074888677 0.00018101446 0.006541983
-0.00047911424 -9.06534e-05 -0.0001103729 0.00011941027 -4.5125922e-05 -0.003625061 -0.00016029413 -0.00017431621
-0.0023160772 4.2462492e-05 -0.024236731 0.008989761 2.7587706e-05 -9.438019e-06 -0.015351289 0.00035462252

lstm.weight_hh_l1 f4 [80, 20]
00000000: 1c43 183b a523 d83b 510f 213c 6a60 753b
00000010: 826f 723c ab98 3dbb 45ca 97bb cbae b23c
00000020: a4c3 01bc 2c43 b7bb 3721 a0bc ad17 30bb
00000030: ad6c 213b fa0a 11bb 11f3 ca39 2141 45bc
00000040: ab0a 0bbb 506d dd3b ea31 88bc d4cd 6d3b
00000050: 952e a43c 9c3d 163c 9efe 313c 21dc 88bc
00000060: 02a1 92bb ac10 17bc bec3 5cbc ab30 073c
00000070: 8837 05bd c51e 4cbc c0af 83bc a540 8dbb
00000080: 7bb6 693b d076 ac3c b540 793a e73c bdbb
00000090: 1385 63bb b554 483c e7df 03bb 031a 263c
000000a0: 13da ca3b 7dc2 023c fdb7 d23c 24cf a7bc
000000b0: 40f2 95ba 6ce3 21bc dc0b 21bc 0092 13bc
000000c0: de77 d1bb b24f 0abc 6203 2d3c 6cd6 b4bc
000000d0: 84fd 5b3b c808 73bc 2f6d 823c d6c7 5bbb
000000e0: 1699 5abb e121 13bc 403b 3dba 6472 043c
000000f0: d4c3 6339 b9e4 86bc 39f3 04b9 0b6d 0e3b
00000100: 13af 12ba 79a4 bf3c f7fb f8bb 5a06 f6bb
00000110: ab37 0eba 6f09 77bb 36de 4cbc c274 6fba
00000120: 69d9 de3a 107e 04bb 3833 a339 d2f8 66b9
00000130: 3f99 c5ba 638d 0b3b 0160 21ba e306 ea3a
00000140: 8fe5 9039 d98e e139 7300 17ba 868f 00bc
00000150: fdff bcb8 f4c4 d23c 80a3 8b3c 6e49 e3b9
00000160: 3421 e9b9 6296 bab9 6265 15ba 491e 7e39
00000170: 3349 ec38 b91a 6fb9 9f7d f937 fc7d dfb8
00000180: 0207 13b9 e242 c139 b637 32bc 3e0d df39
00000190: 3c4a 733b 7922 d8b9 0d91 8cba 59c6 093b
000001a0: 990d 42ba b060 38bb bf46 9c3c afab 993c
000001b0: 272c e03c 7fc8 8bbb c5e3 c3bb 17f8 69ba
000001c0: c59a 39bc 1f92 403c f0c7 c539 db03 a3ba
000001d0: 1f6c 103c 503a 1c3b 45b8 26ba a390 05bc
000001e0: a9c1 d93b a07a 6a3c 4587 1b3c f524 0b3c
000001f0: 25c8 16bb 02b6 0ebc 5d66 3fbc 71cd 79bc
00000200: 3fd3 4ebc a627 02bc 2e6f 2ebc ebe7 36bb
00000210: 9e40 8d3b 4021 9fbb c6ff 563a 13d2 b0bb
00000220: 6a4f 8e3c fd55 3e3c b97a 883c 9470 773c
00000230: 22f0 123c ca4e 953c 9284 573c bb14 47bb
00000240: ef8c 633c c3b1 91bc 5ca1 82bc a39f b6bc
00000250: d08b ec3b e428 24bc 7412 9ebc 3037 69bb
00000260: 37cf cd3b 5a1f 0f3c 67a7 2b3a 2d56 2bbc
00000270: e385 91bb 4866 96bc b3a8 e93b 009b ce3c
00000280: 3df8 713b a659 f03b 2d07 d33b cac3 b83b
00000290: b680 29bb 4314 a4bb 8302 1cbc f5be 06bc
000002a0: 181d e0bb 7ec6 dbbb 9faa 15bc eef2 8fbc
000002b0: 5106 c43b c9f9 08bc dd3c 433a e4ec fdba
000002c0: 9e96 32bc 79d2 0a3c 367c 9cba eac9 793c
000002d0: 94cd b53b 085e 0d3c 69e5 48bb 1d13 663b
000002e0: db38 c1ba ae3a 8cbb d6bd 88bc 2bd5 14bc
000002f0: 5915 f6bb b6a3 b2bc 11fe bdbc ddc2 beba
00000300: 52d9 8e3c 9268 6a3b 0ad1 153a 1ccd 60bb
00000310: e2d9 23bb 7d71 e23b 7ad0 b9ba f18c f63c
00000320: 63c4 2a3c 6a7c 953c 1532 1cbc edd0 f13b
00000330: 51c0 a73c dd2a d8bb debc 7bbc 218d 83bc
00000340: c8b9 63bc 615e 9cbb b7a2 453c d46c 9bbb
00000350: 836f c53b bd19 af3c f992 143c e014 373b
00000360: 1ea9 aebb 6400 583c e2d2 00bb fc3c 8d3c
00000370: 9be1 d6bc 33af d63c 1beb 513a aec0 30bc
00000380: 8389 39b9 1478 c4ba b2aa 89ba 9696 f53b
00000390: 449a 74ba b661 1a3b 1bb6 c2b9 51cb 72bc
000003a0: 6305 d139 f848 19ba 50e7 be38 b42a e7b9
000003b0: 30df 3fbb 72cc e7bc 2a17 30b8 fe23 c0bc
000003c0: 34cf 80bb 631f 653a eea8 b23a 98f1 b9bc
000003d0: 7e3e a2b9 5956 4cba 4c47 d3ba 510f d5ba
000003e0: e89b 083b 3417 bcba 866f f4ba 462d 84bb
000003f0: 1a1a 8d3c 01c8 51ba 4a50 1039 3f76 28ba
0.002323336 0.006596046 0.009830312 0.00374415 0.014797093 -0.0028930109 -0.0046322667 0.021811863
-0.0079201795 -0.0055927243 -0.019547088 -0.002686958 0.0024631426 -0.0022131787 0.0003870954 -0.012039454
-0.0021216075 0.006757416 -0.016625363 0.0036286013 0.020041743 0.009169962 0.010863928 -0.016706528
-0.00447476 -0.0092202835 -0.013474403 0.008251349 -0.03252366 -0.012458508 -0.016075015 -0.0043106847
0.0035661745 0.021052748 0.0009508238 -0.0057750824 -0.003471677 0.012227227 -0.002012247 0.010138038
0.0061905473 0.00798094 0.025722498 -0.020484515 -0.0011439994 -0.009880882 -0.009829488 -0.009006977
-0.006392463 -0.008441852 0.010559889 -0.0220749 0.0033567855 -0.014833637 0.015921203 -0.003353586
-0.0033355406 -0.008980245 -0.0007218607 0.0080839135 0.00021721359 -0.016466485 -0.00012679108 0.0021732475
-0.0005595546 0.023393856 -0.007598396 -0.0075080814 -0.0005425165 -0.0037694832 -0.012504151 -0.0009134525
0.0017002049 -0.002021674 0.00031127944 -0.00022027202 -0.0015075578 0.002129399 -0.00061559683 0.0017854836
0.00027636855 0.00043021774 -0.000576026 -0.007846719 -9.01222e-05 0.02572868 0.017045736 -0.00043351523
-0.0004446596 -0.00035588728 -0.0005699006 0.0002423461 0.00011266991 -0.00022802771 2.974161e-05 -0.00010656935
-0.00014021623 0.0003686166 -0.01087754 0.0004254374 0.0037123105 -0.00041224415 -0.0010724381 0.0021022765
-0.0007402539 -0.0028133802 0.019076703 0.018758623 0.027364803 -0.0042658444 -0.00597808 -0.0008925213
-0.011328404 0.011753588 0.00037723733 -0.0012437062 0.008814841 0.0023838468 -0.0006359856 -0.00815216
0.0066454005 0.014311463 0.0094927 0.008492698 -0.002300748 -0.008710386 -0.01168212 -0.015246735
-0.012623607 -0.007944023 -0.0106466245 -0.002790923 0.0043106815 -0.0048562586 0.00082015654 -0.0053961365
0.017371852 0.011617181 0.016660081 0.015102524 0.008968385 0.018226046 0.013154166 -0.0030377347
0.013888582 -0.017784959 -0.015946083 -0.022292918 0.0072188154 -0.010019515 -0.019295909 -0.0035585873
0.0062808054 0.008735502 0.0006548077 -0.010457558 -0.0044410094 -0.018359318 0.007130706 0.025220394
0.0036921643 0.0073349057 0.0064400644 0.0056385743 -0.0025864071 -0.005007298 -0.009522083 -0.008224239
-0.0068394057 -0.0067070117 -0.0091349175 -0.017571893 0.0059821983 -0.008360335 0.0007447729 -0.0019372967
-0.010900168 0.008473032 -0.0011938873 0.015245894 0.0055481885 0.008628376 -0.0030654317 0.0035106607
-0.0014741676 -0.004279456 -0.016692083 -0.009084026 -0.007509869 -0.02180658 -0.023192437 -0.0014553923
0.01743761 0.0035767895 0.0005715048 -0.0034301942 -0.0025001694 0.0069105015 -0.0014176511 0.030096503
0.010422799 0.018247802 -0.009533425 0.007379642 0.020477446 -0.0065969066 -0.015364854 -0.016058506
-0.013899274 -0.004771993 0.01206272 -0.004743198 0.006025256 0.021374578 0.009068244 0.0027936026
-0.005330219 0.013183687 -0.0019656946 0.017240994 -0.026230624 0.026206588 0.0008007751 -0.010788126
-0.00017694202 -0.0014989399 -0.0010503142 0.007494758 -0.00093308487 0.0023556775 -0.00037138243 -0.014818982
0.000398676 -0.000584736 9.102991e-05 -0.0004409157 -0.0029277317 -0.02829573 -4.1983243e-05 -0.023454662
-0.0039309505 0.0008740334 0.0013630667 -0.022698209 -0.00030945608 -0.0007794849 -0.0016119271 -0.0016255175
0.002084488 -0.0014350177 -0.0018648959 -0.0040337173 0.01722436 -0.000800252 0.0001376282 -0.00064263114

lstm.bias_ih_l1 f4 [80]
00000000: 35bc 98bc d373 763d c9f5 2f3d 1f83 5f3c
00000010: f5fb 943c 167c 713c 329d 6f3d f038 6b3d
00000020: a0f7 283d d0cd bf3c 98ea 123d af11 873b
00000030: 8e6c 013c e373 413c 170f 8b39 49b6 6fbc
00000040: 5f32 cbbb 0ab5 233d 2d8b ea3a cee9 813d
00000050: d18e 883c 0e1b 913d dde6 54bb eb7b a73c
00000060: 6872 2d3a 3e67 b03c 386f 8a3d c326 a33d
00000070: 5767 2f3d 7a46 1c3d 83db 813d ce0c 8f3b
00000080: 10d2 66bc 3263 623c 5c32 93ba 4317 f63b
00000090: 17c7 c83b 09cd fb3c a3bd c7bc 4f55 183d
000000a0: ab32 003e 42c7 413e ba6d 333e 5731 9e3d
000000b0: 404a 23bd 2ed2 01be 387a 63be a01f 5cbe
000000c0: 888f 27be 407d 23be 6f93 57be b718 e2bc
000000d0: c65e 8d3d 0e98 e1bd 6a89 8e3c 687a 9abd
000000e0: b406 9abd 7fae 123e 8db3 2abd 8a5a 653e
000000f0: 3db5 3e3c bb22 923d 60c0 1b3d 12be 9c3c
00000100: e6d2 a33a a793 883c 4b79 913d 5328 893d
00000110: 5441 0d3d 22b9 f33c 637e 723d eea5 c7bb
00000120: c4b2 ea3b 8594 7f3c 72e4 8c39 30a5 043c
00000130: 99b5 c13b 893a de3c ec7b 6f3c 2c60 9f3d
-0.018644432 0.060169052 0.04295901 0.013642102 0.018186549 0.014739057 0.058499523 0.057427347
0.04125178 0.023413569 0.035868257 0.004121981 0.007899417 0.011807415 0.0002652339 -0.0146308625
-0.006201073 0.039967574 0.0017894261 0.06343423 0.016669663 0.070852384 -0.0032486238 0.02044483
0.0006616474 0.021533605 0.067594945 0.079663776 0.042823162 0.03815315 0.06340697 0.00436554
-0.014088169 0.013817595 -0.0011230218 0.007510097 0.006127249 0.030737417 -0.024382418 0.03719073
0.12519328 0.18923667 0.17522326 0.077242546 -0.039865732 -0.12677833 -0.22214592 -0.21496439
-0.16363347 -0.15965748 -0.21052335 -0.027599676 0.06902842 -0.1101533 0.017399509 -0.075428784
-0.0752081 0.14324377 -0.04167514 0.22397819 0.01163989 0.071355306 0.03802526 0.019133601
0.0012498766 0.016671969 0.07103213 0.06697144 0.03448613 0.029751364 0.059202563 -0.0060927784
0.007162424 0.015599375 0.00026873086 0.008096024 0.0059115407 0.027127521 0.014616948 0.07782015

lstm.bias_hh_l1 f4 [80]
00000000: 1469 9d3c fc15 413d 821e 0f3d 7c53 f63c
00000010: 614b 42bc 1ac0 2d3c 3f4c 713d 2ba9 723d
00000020: 9ec0 063d 4994 ce3c a2e2 773d 7814 ae3b
00000030: fcee f43c 5dfb 343c 3b1e 9039 5235 96bc
00000040: 7ddb c53b 0fcc 123d 344b 87bb 7519 613d
00000050: 05d4 cc3c b0b3 653d 0b57 35bc c004 d73c
00000060: 2532 d03a 2411 feb9 a202 153d 6aa9 833d
00000070: 7427 483d fd1c 1b3d 3174 9f3d 3f25 84bc
00000080: b7d2 a83b 1f10 863c 2cb2 8b39 0258 003c
00000090: af23 d83a a3c4 e33c 8019 cf3a f29d 533d
000000a0: 7fbb 0a3e 86dd 543e 0af3 3b3e fd9c e53d
000000b0: 1033 e9bc 5fa8 07be e9f4 2cbe 68b4 6ebe
000000c0: 0c51 3bbe 1a7d 0cbe 31a5 60be ab0d 8fbd
000000d0: 801b 9f3d 8250 90bd 9303 893c 81d0 a6bd
000000e0: 3d39 70bd b25c 1b3e 8374 c3bc 13d6 4f3e
000000f0: fdff d03c 79d2 553d 53b8 14bc d5ca a83c
00000100: c485 51bc 55ae a53c a081 093d ce94 8f3d
00000110: d78a 243d c4cc ce3c f723 af3c 5cbb 2cbb
00000120: f9f2 ef3b afc4 7f3c e0c9 7839 4ea4 1f3c
00000130: 8173 5d3b 7449 013d 74e5 df3a 1b96 913c
0.019215144 0.047140107 0.034941204 0.030069105 -0.011858792 0.010604883 0.058910605 0.059243362
0.032898538 0.025217192 0.06051887 0.0053124987 0.029899113 0.011046258 0.00027488344 -0.018335972
0.006038128 0.035839137 -0.004128838 0.05495592 0.025003443 0.056079566 -0.011068116 0.026247382
0.0015884085 -0.00048459426 0.036379464 0.064287975 0.04886575 0.037869442 0.077858336 -0.016131042
0.0051520723 0.016365109 0.00026644894 0.007833483 0.0016490127 0.027803725 0.0015800446 0.0516643
0.13548087 0.2078763 0.18354431 0.11211584 -0.028466731 -0.13247822 -0.16890301 -0.23311007
-0.18292636 -0.13719597 -0.21938016 -0.06985029 0.07768917 -0.07046606 0.016725337 -0.08145238
-0.058648337 0.15172079 -0.023859268 0.20296507 0.02551269 0.052202675 -0.009077149 0.02060453
-0.01278824 0.02022473 0.033570886 0.07010804 0.04017147 0.025244124 0.021379454 -0.0026356792
0.007322666 0.015610858 0.00023726327 0.009743763 0.003379077 0.03156419 0.0017081932 0.017771771

fc.weight f4 [360, 20]
00000000: 307f c43b 645d ad3c 784b 853c a77d 523c
00000010: 5585 08bb 00f6 2dbc 21ef 863c 6e19 bbbc
00000020: 7f49 8cbc b11d 59bc ffdd 59bb 2127 fdba
00000030: 86b4 c0bc bf1a 4cbc b541 943c 7a67 d8bb
00000040: 1939 193c 394b ec3b eadc 3ebb 0c5e a93c
00000050: 3083 423c 72a1 593c 10f1 803c ecbc 8b3c
00000060: fdbf 3abb 2e02 2cbc 0fb4 00bc 0e75 90bc
00000070: 07c9 7bbc 538e 713c b215 9fbc b6e3 acbc
00000080: 60fc 533b f6f9 43bc 124c 983a 4f3a 893c
00000090: f190 aabb bc36 633c 6806 a3bb 7d24 903c
000000a0: df3c 463c 3f95 a23c d1aa a5bc c0f2 183c
000000b0: 50ea 54ba 4f6d 1ebc 954f 9fbc 4405 abbc
000000c0: 95b1 72bc c65f f53b 220c a1bc cf5c f73b
000000d0: b513 b53b 74e2 09bc bc8c f8ba 4e39 303c
000000e0: 9c15 2cbb 73a3 633c 7f8c 0abc 5ee9 a43c
000000f0: ba0f 5f3c 7539 a23c dd42 8dbb 52f6 083c
00000100: 9e8d 1ebb ea09 40bc 710f a0bc 4d7d acbc
00000110: 3467 a13c 8303 de39 dcf3 a9bc daa5 a2bb
00000120: 0801 403b a32e 1cbc c071 983a 5938 b8bc
00000130: 35bd 1b3a 4a8e 5a3c 5a7d eebb 3b3a a83c
00000140: 7496 d53b ac7e e13c 8c60 7c3c 550e 03bb
00000150: fd71 a63c 8944 76bb 2f0d d2bc 4f30 b3bc
00000160: 36b7 71bc 3df8 f13a cf42 fcbc 73c3 ecba
00000170: 5936 c03b c425 0cbc 39ad 8fbb 9dff 5f3c
00000180: 3c87 bebb 3145 673c 4775 16bc f1cb fd3c
00000190: 056c 373c 6a5c 8f3c deba 743c 82fc 0dbb
000001a0: 7367 55bb fd42 0cbc 4c45 99bc 6d73 b5bc
000001b0: 26a3 6dbc a167 53bc c053 a1bc 066f 97bb
000001c0: bb14 8f3b f6a4 19bc 05a7 993b 260f e5bc
000001d0: 055e 95bb 09bb 07bc 7c40 37bb 64d6 0d3d
000001e0: 6158 5b3c 0fa1 b03c d449 933c fc23 3c3c
000001f0: 5219 3fbb 8a51 31bc 3e5b e8bc a14e d1bc
00000200: df7a 8bbc 368b 083c 8d50 aebc a450 aebb
00000210: e7af d13b 3935 26bc 67c3 cabb a304 06bc
00000220: 48a6 c7bb 1ce6 b03c 2ee8 5ebb 40fe 863c
00000230: 5dd2 6e3c aa02 c63c b55a 7b3c 228b 0d3c
00000240: 1462 77bc 9ccf 31bc b4b9 9bbc 939a b6bc
00000250: b3de 70bc 5e04 473c 7123 4abc 18fb acbb
00000260: 5bc1 093c efe0 9ebb dfeb 943a 03ae eebb
00000270: 29bc 4fbc f1a9 35bb 41b8 43bb 3f8c 973c
00000280: 793a 763c 8adb 073d 8ae0 7c3c 5611 0e3c
00000290: c443 06ba 6b4d 79bc 5cae 7abc 4cfb 75bc
000002a0: 2904 b4bc 82e0 60bc 4777 9dbc d012 a5bb
000002b0: 3164 34bc 5a6c 0dbc fbdd 9d3a e239 cbbb
000002c0: 721b adbb 6b6e 493c 2274 36bb 4360 753c
000002d0: f691 283c d171 01b8 29ae 923c 7e06 7c3c
000002e0: 67f5 7d3c e56a 943b fed9 9abc 7581 e8bc
000002f0: c721 0cbd 429c 73bc ca0f bebc 5385 423b
00000300: 9e96 eb3b 7773 00bd 435f ac3a 4b20 bcbc
00000310: 87e1 bcbb db5c 843c 3334 423c 9029 be3c
00000320: a8b3 5e3c 300a 9a3c 8e07 80ba 9381 2c3c
00000330: 2564 2ebc 5401 19bc 8882 a3bc d179 bebc
00000340: 61df afb9 941d 7cbc 07a4 a9bc 0806 91bb
00000350: c0c2 f73c b845 1cbc b14c 9e3b 25bd 513c
00000360: 3574 b3bb bed0 763c 3eb9 47bb 84d9 a03c
00000370: 7f20 9a3b faef 953c 1fbd 6e3c fc29 573b
00000380: 6e1c 5cbb 452b 29bc 4379 8fbc 4fd1 afbc
00000390: 5d12 7fbc 6006 50bc 7d7a a3bc 4882 e3bc
000003a0: 888d d23b 061e c3bc 6162 91bc 2ccb a2bc
000003b0: ef8e 4fbc df4d 38bb 0bc0 45bb 5c6b d6bb
000003c0: f909 4e3c cb76 153d d37f b23c fa86 033c
000003d0: 1714 f5bb a92b 6ebc 36c2 9f3c dd26 d1bc
000003e0: bcf4 6ebc 1dc7 6ebc a879 91bc 9b62 cd3c
000003f0: 4ec8 7b3b 2456 05bc d665 993a cdff a33a
0.0059966072 0.021162696 0.016271338 0.012847341 -0.0020831425 -0.010617733 0.016471447 -0.022839274
-0.01712489 -0.013251708 -0.0033243892 -0.001931403 -0.02352358 -0.012457549 0.018097738 -0.0066041322
0.009351992 0.0072111157 -0.0029123374 0.020674728 0.011872098 0.0132831205 0.015739948 0.017057858
-0.0028495782 -0.010498567 -0.007855429 -0.017633941 -0.015367753 0.014743405 -0.019419525 -0.021104675
0.0032346472 -0.011961451 0.001161935 0.016751437 -0.0052052666 0.01386803 -0.004975129 0.017595524
0.012099474 0.019846557 -0.020223053 0.00933522 -0.00081220735 -0.009669616 -0.019447127 -0.020876534
-0.014812847 0.0074882237 -0.019659106 0.0075489054 0.005526031 -0.008415807 -0.001896284 0.01075585
-0.0026257997 0.01389395 -0.008456348 0.02013081 0.013614589 0.019802788 -0.0043109492 0.008359509
-0.0024193297 -0.011721114 -0.019538613 -0.021055842 0.019702531 0.00042345756 -0.020746164 -0.0049636187
0.002929749 -0.009532603 0.001163058 -0.022487806 0.0005940975 0.013339588 -0.0072781267 0.020535579
0.0065181796 0.027526222 0.015403878 -0.0019997556 0.020318026 -0.0037577471 -0.025641052 -0.021873621
-0.014753154 0.0018460822 -0.030793576 -0.001806362 0.0058658537 -0.008553926 -0.0043846634 0.013671783
-0.005814461 0.014115618 -0.009183235 0.030981036 0.011195187 0.017500121 0.014937131 -0.00216654
-0.0032562881 -0.008560893 -0.018709801 -0.022149766 -0.01450423 -0.012903125 -0.019693255 -0.0046213893
0.004366485 -0.009377709 0.0046890997 -0.027961325 -0.004558327 -0.008284339 -0.002796202 0.034628287
0.01338777 0.021561174 0.01797954 0.011483189 -0.002915938 -0.010822663 -0.02836382 -0.025550188
-0.017026363 0.008333972 -0.021278644 -0.0053196717 0.006399143 -0.010144525 -0.0061878446 -0.008179816
-0.0060928203 0.0215941 -0.0034012902 0.016478658 0.014576522 0.024171192 0.01534145 0.008639129
-0.015099067 -0.010852721 -0.019009449 -0.022290504 -0.014701533 0.012147037 -0.012337551 -0.005278956
0.008407916 -0.0048485915 0.0011361799 -0.0072839274 -0.012679138 -0.0027719701 -0.0029864463 0.018499492
0.015028589 0.033168353 0.015434394 0.008671125 -0.0005121792 -0.015216212 -0.01530036 -0.015013527
-0.02197464 -0.013725402 -0.019221915 -0.005037643 -0.011010216 -0.00863179 0.0012044305 -0.0062019685
-0.0052828128 0.012294392 -0.0027840217 0.014976564 0.010288706 -3.0861996e-05 0.017905312 0.015382407
0.015500403 0.0045293444 -0.018902775 -0.028382042 -0.0342119 -0.014868798 -0.023200888 0.0029681518
0.007189586 -0.031360116 0.0013150949 -0.022964617 -0.0057641896 0.016157558 0.011853266 0.023213178
0.013592638 0.018803686 -0.0009767876 0.01052894 -0.0106439935 -0.009338696 -0.019959703 -0.023251446
-0.0003354503 -0.015387911 -0.020708097 -0.004425768 0.030244231 -0.009538107 0.0048309197 0.012801443
-0.0054764994 0.015064416 -0.0030475403 0.01963497 0.004703581 0.018302906 0.014571457 0.003283142
-0.0033586281 -0.010325258 -0.017513877 -0.02146211 -0.015568343 -0.012696832 -0.019955868 -0.027772084
0.0064255632 -0.023818027 -0.017747106 -0.01987227 -0.012668355 -0.0028122587 -0.003017428 -0.00654356
0.01257562 0.036490243 0.021789467 0.008027786 -0.0074792015 -0.014536777 0.019501787 -0.025531227
-0.014584716 -0.0145738395 -0.017758206 0.025071433 0.0038418951 -0.008138213 0.0011703323 0.0012512148

fc.bias f4 [360]
00000000: 451d a73d bcb3 a43d a4bb a63d 271f a53d
00000010: 2d76 9a3d dae6 9e3d be3a 043d e475 a13d
00000020: 9ad8 9b3d 947c 033d b3f3 833d dae1 a23d
00000030: 7c5c 9f3d 80b2 843d ef5d 9d3d d3a5 9a3d
00000040: a1c1 a53d 86f3 9f3d d74e 2f3d 802a 9b3d
00000050: 4455 803d b99d 9f3d cf29 9b3d d8af 9d3d
00000060: 52d0 5b3c 14a9 9d3d 9216 9bba 51c4 a03d
00000070: ec5c 563d 2c7f 1d3d c9d0 a43d dfce 9a3d
00000080: 76ac 863c b87c 083c 552b 9f3d 7d91 aa3c
00000090: 5ce5 983d e7e6 a83b d588 a13d e633 ff3b
000000a0: 895f 9b3d 3f4f a33d 7c09 9c3d e0ca a03d
000000b0: aa84 9c3d f021 9d3d 85f1 9d3d cc7f 9f3d
000000c0: 9a9a 383d 2fc3 a13d ff36 a43d 1ac1 a13d
000000d0: b4d1 9f3d 4d39 a23d 58ed a43d 38e2 5b3d
000000e0: 6f72 113d 179c 9d3d e320 a23d b55a 133c
000000f0: 07fb 0c3b 7e92 a23d c0f5 813d a4e0 773d
00000100: 414c 013d e590 a53d 3180 a03d 9217 a03d
00000110: f6b7 9c3d 310f a03d 0f74 9d3d 1080 9e3d
00000120: 7fbb 843d b7ad 9b3d d5e0 9d3d 74c0 9f3d
00000130: eee9 303c 81de 9a3d a9c6 983b 2191 9e3d
00000140: ef4b 8fba 7858 983d d349 9d3d 6ac4 9d3d
00000150: 273e 643d c310 a53d cf93 703d 5cd0 9b3d
00000160: c5ba 703d 64e5 9d3d 40b9 a83d 8c1c 9d3d
00000170: 72fd 153d c507 c63c 0282 3e3c 0e45 9a3d
00000180: bce9 a03d 7ff4 1c3d ed2d 323b 1626 993d
00000190: 21ad 9c3d 2cf0 a13d de26 eb3c f578 8a3d
000001a0: 32d6 9d3d edd6 9f3a 22c7 a23d 7071 a53d
000001b0: 5642 9c3d 626e a13d ef7c 2c3c 6489 9f3d
000001c0: d2ab 9c3d 1718 9f3d 795a ab3d d488 983d
000001d0: c4de c13b ec86 a63d acab 983d d551 9f3d
000001e0: dc8c 503d c2ac a33d 47c2 663c 3a0d 813d
000001f0: 44c2 a23d 1b4a 243d 3273 9c3d 29b0 9e3d
00000200: f098 1f3d 93db a23d fc05 a03d c4a2 d33c
00000210: 0b7d 9c3d 16c2 993d 94d5 843d a285 a33d
00000220: e5b5 133c ef82 803d c785 423c a4c7 9f3d
00000230: 8c37 883d 5d41 a13d e3ae cb3c fd49 433d
00000240: 6000 9f3d 7bdf 9a3d b590 a43d 8252 9f3d
00000250: 5022 db3c 092e a23d b417 5f3d 34e1 9d3d
00000260: 116b 983d 60fb a13d fc4a 9f3d e7ae 723c
00000270: 5e40 d43c cada a53d 62d6 a33d e66f 9e3d
00000280: 4755 9e3d 1aba a23d c472 a63d 5499 a53d
00000290: 6ed2 943d ef7c 9e3d 2500 9d3d 3c11 9e3d
000002a0: 3245 9d3d e41e a03d d352 9e3d 0dc5 a23d
000002b0: f23a 9e3d ef64 743d e089 963d a4a1 9f3d
000002c0: c9c7 653d 8826 ee3c 7bed 5c3d cd5f 9f3d
000002d0: 1e6d 9d3d d446 1b3d af52 a83d 7b4c 843d
000002e0: 5f78 9c3d 1536 9b3d 2ddb 843d 225b a73d
000002f0: 62c7 9b3d 449d a43d cb7b 993d 0683 a23d
00000300: b5d1 a23d 702b 6d3d c103 9f3d 1f1f a23d
00000310: 48fa a13d e639 a23d 974e a43d 188a 693d
00000320: 64b5 c03c 81d6 a53d a149 353d 830a db3c
00000330: 64a3 9a3d 62a6 9d3d 5df3 2e3d a7d3 9e3d
00000340: 998a a43d 0e8b 963d 9585 9f3d 0ba8 a63d
00000350: d1cf 9b3d 20a7 9b3d a8d8 a53d 2940 9d3d
00000360: 38e6 993d 02c3 9f3d be72 2e3d 2a09 9c3d
00000370: 9501 693d 98cb 8b3d 75ea a43d 64e7 9e3d
00000380: 7739 a13d ecaf a53d a36d 9d3d 14df a13d
00000390: 4fee a73d 9517 9a3d 405e 9d3d 540f 753d
000003a0: 7047 a03d 52af 9f3d 6485 a13d 5b27 203d
000003b0: 5a2f 9c3d 8897 9b3d e22c 9d3d 1cde 593d
000003c0: 887e 9d3d 60b3 943d ea95 a33d f658 9e3d
000003d0: 5501 953d a628 9c3d 920e a03d 2797 a43d
000003e0: 3ea9 a03d b5f5 9f3d 6b11 993d 0423 993d
000003f0: e3b2 9d3d 1719 433c 4da8 273d 6a0f 993d
0.081598796 0.08042094 0.08141258 0.080625825 0.075420715 0.07758875 0.032282583 0.07883814
0.07609673 0.03210123 0.06442966 0.07953234 0.07781312 0.06479359 0.07683932 0.0755116
0.080935724 0.0781012 0.042799797 0.075764656 0.06266263 0.07793755 0.07576334 0.07699555
0.013416367 0.07698265 -0.0011832288 0.078499444 0.05233471 0.03845136 0.08047635 0.07558989
0.016439658 0.0083305165 0.07771937 0.020821327 0.07465622 0.005154479 0.07887427 0.007788169
0.07586581 0.07974099 0.076189965 0.07851195 0.07642491 0.07672489 0.07712082 0.07788047
0.045069315 0.078985564 0.08018302 0.07898159 0.078036696 0.079210855 0.08053082 0.053682536
0.035509523 0.076957874 0.07916429 0.008993794 0.0021511929 0.079380974 0.06345701 0.06051697
0.031566862 0.08084277 0.078369506 0.07816996 0.07652275 0.078153975 0.07688152 0.0773927
0.064810745 0.07601493 0.07708899 0.078003794 0.010797961 0.075619705 0.004662354 0.07742525
-0.0010932664 0.07438749 0.076800965 0.07703479 0.055723336 0.08059838 0.05873471 0.07608101
0.058771867 0.077097684 0.08238459 0.076714605 0.036618657 0.024173627 0.011627676 0.075327024
0.07857081 0.038319107 0.0027188018 0.074779674 0.07650209 0.07907137 0.028705057 0.06761352
0.0770687 0.001219479 0.07948138 0.08078277 0.0762984 0.07882382 0.010527833 0.07789877
0.076499596 0.07768267 0.08366866 0.07447973 0.0059164483 0.08131203 0.07454619 0.0777928
0.050915584 0.07991935 0.014084405 0.06301351 0.079472095 0.040109735 0.07639159 0.07748444
0.038964212 0.07952037 0.078136414 0.025834449 0.076410376 0.07507722 0.06486049 0.07984473
0.009015535 0.062749736 0.011872715 0.0780175 0.0665122 0.07873795 0.024863666 0.047677983
0.077637434 0.07562157 0.08035413 0.07779409 0.02674976 0.07918937 0.054465964 0.0770897
0.07442296 0.07909274 0.07777974 0.014812208 0.025909599 0.08098371 0.07999875 0.07736187
0.07731109 0.07945652 0.081273586 0.08085886 0.07266699 0.07738673 0.07666043 0.07718131
0.076792136 0.07818392 0.07730641 0.07947741 0.07726087 0.05966657 0.07350516 0.077945024
0.056098733 0.029071108 0.053937417 0.077819444 0.07686828 0.037909344 0.08218896 0.064599
0.076401465 0.07578675 0.06487117 0.08171679 0.07606389 0.080378085 0.07494315 0.07935147
0.07950155 0.057902753 0.07764388 0.07916092 0.079090655 0.079211995 0.08022802 0.057016462
0.023523994 0.08097554 0.04425967 0.02673841 0.075506955 0.07697751 0.042712558 0.07755213
0.08034248 0.07350741 0.077891506 0.081375204 0.07607997 0.07600236 0.080979645 0.07678253
0.07514614 0.07800867 0.042589895 0.076189354 0.056886274 0.06825942 0.08052532 0.07758978
0.07872289 0.08090195 0.07686927 0.07903877 0.08199751 0.07524029 0.076839924 0.05982907
0.078261256 0.077971116 0.0788677 0.039100032 0.07626219 0.07597262 0.07674576 0.053190336
0.076901495 0.072607756 0.07987578 0.07731812 0.07275645 0.076249406 0.07815279 0.080366425
0.078447804 0.07810537 0.07474025 0.07477382 0.077001356 0.011907837 0.04093199 0.07473643
