model/lstm-CNVS-360-.pth (torch, 53964 bytes, 12 tensors)

conv1.weight f4 [2, 4, 3]
000000 59 e6 dd 1c bd d1 cf 23 19 c3 0e 9e d9 f5 5d 27
       1.4684097e-21 2.2531813e-17 -7.557763e-21 3.0803185e-15
000010 16 da 14 28 2f 05 3f 27 da 06 98 39 52 b8 c2 26
       8.26294e-15 2.6509385e-15 0.00028996804 1.3511414e-15
000020 42 85 a7 26 2c 24 34 27 12 e1 25 b8 ab 87 d4 26
       1.1624072e-15 2.4999627e-15 -3.954868e-05 1.4747228e-15
000030 4f cc 54 1d ee 99 1b a2 1f 2c 7a ac d4 36 3a b9
       2.8163591e-21 -2.1087907e-18 -3.5551629e-12 -0.00017758767
000040 fc d2 bc a8 b0 fb ef 39 bb 35 b0 a8 d3 46 c3 38
       -2.0963693e-14 0.00045773154 -1.9563227e-14 9.3115166e-05
000050 a4 a8 05 b9 01 0a 54 b1 13 86 c3 2c 22 ee 51 b7
       -0.00012746692 -3.0855747e-09 5.5571186e-12 -1.2512815e-05

conv1.bias f4 [2]
000000 26 e0 d0 28 f2 dc a6 ac
       2.3189848e-14 -4.7425336e-12

lstm.weight_ih_l0 f4 [80, 2]
000000 82 bc 2c a2 26 19 b2 a1 8e fc 36 ac 2d 92 5d 1f
       -2.3410142e-18 -1.2068406e-18 -2.6003952e-12 4.6919484e-20
000010 ce 89 23 a1 26 7d a9 2e 40 fb 97 34 65 c2 ad 25
       -5.540893e-19 7.707461e-11 2.830875e-07 3.0142443e-16
000020 ff 3f 4d 34 ef 37 5f 36 92 0c 29 33 6e 09 5b 35
       1.9115394e-07 3.3262147e-06 3.935981e-08 8.159758e-07
000030 03 ee 5f 35 02 86 45 36 7f 3e 16 1e 30 a5 9b a9
       8.3420326e-07 2.943329e-06 7.953858e-21 -6.912038e-14
000040 3f 76 b9 29 79 c5 98 a3 fd 68 c6 23 08 32 ee 9d
       8.236163e-14 -1.6563506e-17 2.1511667e-17 -6.3049807e-21
000050 ab 37 c1 34 9d d2 69 b1 22 5a d3 b6 ad db 82 31
       3.5989555e-07 -3.4025682e-09 -6.298783e-06 3.808472e-09
000060 37 5c 7c 32 ef 06 4a b4 ec 3c 4d 36 23 43 63 1f
       1.4689298e-08 -1.8815238e-07 3.0582842e-06 4.8124654e-20
000070 bf 45 93 1e 63 0d 82 22 a5 c2 a2 a2 c8 09 89 a4
       1.5593077e-20 3.5250744e-18 -4.4116276e-18 -5.943085e-17
000080 4c c9 25 b4 c5 0d f1 1e 3f 18 7e b4 d3 3c c7 b3
       -1.5440054e-07 2.5522562e-20 -2.3664414e-07 -9.2777235e-08
000090 c6 27 1e 36 c4 8e 92 b3 4d 90 22 26 d4 97 c7 34
       2.3566986e-06 -6.824624e-08 5.6400605e-16 3.7177108e-07
0000a0 b2 0c 83 b6 3e 34 cb b5 cc 7e 3b a0 75 4c 01 b6
       -3.905582e-06 -1.5139883e-06 -1.588147e-19 -1.9267002e-06
0000b0 fa e0 99 1e 43 68 a1 b5 7b fd 24 a0 e5 a2 de 35
       1.6292553e-20 -1.2025779e-06 -1.397521e-19 1.6587697e-06
0000c0 9c f9 41 1c 46 20 43 36 39 d2 19 1f fe 02 c6 32
       6.4180956e-22 2.907605e-06 3.2572902e-20 2.3051594e-08
0000d0 92 93 4b 28 be 30 14 b2 93 7a 9b 9f e9 e0 ec b4
       1.1300763e-14 -8.6258165e-09 -6.5847835e-20 -4.412207e-07
0000e0 dc 99 0c 9f 5d 45 2b ab 00 3e 5f 32 4a 85 75 1d
       -2.9773423e-20 -6.0847665e-13 1.29944056e-08 3.2494389e-21
0000f0 79 bf e8 b2 e2 fa 19 9e 89 10 fc b1 95 86 1a 34
       -2.7095426e-08 -8.151634e-21 -7.336045e-09 1.4391328e-07
000100 04 04 0f 20 91 01 15 21 cd f0 ad 1e 06 e3 ee 9f
       1.21139e-19 5.0485237e-19 1.841668e-20 -1.011725e-19
000110 a8 03 86 b2 2a 8f 2b 25 d7 fa 01 a4 3f 1e 8b a2
       -1.5601316e-08 1.4880392e-16 -2.8184886e-17 -3.770805e-18
000120 51 07 0d 9f 24 3d 31 34 34 c0 24 23 a3 c0 91 a4
       -2.9863963e-20 1.6506652e-07 8.931158e-18 -6.3210065e-17
000130 b1 a2 82 2a a3 40 4d 9f 5c 63 83 22 ba f4 9b b5
       2.320553e-13 -4.3463905e-20 3.561282e-18 -1.1619625e-06
000140 0b 99 60 29 bd aa 7d 29 49 5d 72 b6 9f 3d 16 b7
       4.9870735e-14 5.6325377e-14 -3.611511e-06 -8.955044e-06
000150 54 ee 46 2a cf 22 ef b6 73 76 d4 33 ab e9 fc 2a
       1.766862e-13 -7.1268073e-06 9.893565e-08 4.4926332e-13
000160 27 ea 05 35 f6 ca 04 37 40 32 37 b2 38 44 76 ab
       4.98871e-07 7.915069e-06 -1.06634275e-08 -8.749143e-13
000170 10 ee 63 b7 f4 8c 73 28 e0 10 10 29 e7 76 7d 28
       -1.3585683e-05 1.3519774e-14 3.198906e-14 1.4070104e-14
000180 74 8a 37 b7 d1 be b2 aa 1c 3a ac 35 55 49 5d 34
       -1.0939886e-05 -3.1751557e-13 1.2831911e-06 2.0608907e-07
000190 58 eb 82 36 e1 57 94 35 5d 27 04 a6 8e 81 d6 af
       3.9016995e-06 1.1052435e-06 -4.5850047e-16 -3.9018427e-10
0001a0 d2 62 b2 a9 77 e5 d3 30 c6 03 18 2a 4e 5a 3e 2a
       -7.9219305e-14 1.5417488e-09 1.3501621e-13 1.6906721e-13
0001b0 77 2c 94 29 d3 bf 2c a8 ac e7 20 ac 51 9f 6e ab
       6.580234e-14 -9.589513e-15 -2.2865971e-12 -8.477568e-13
0001c0 c3 e9 14 27 89 a6 1e 27 07 87 00 ac bf b0 a5 aa
       2.0665848e-15 2.2017184e-15 -1.826485e-12 -2.943253e-13
0001d0 2a 11 dd a8 88 0c a9 a8 b6 5f c5 a9 a7 93 e7 a9
       -2.4543373e-14 -1.8768204e-14 -8.7651606e-14 -1.02840743e-13
0001e0 f1 a7 df 20 8f 5d eb a0 05 4c 9d 9d f9 fa 8e 33
       3.7888804e-19 -3.987246e-19 -4.1636156e-21 6.658042e-08
0001f0 86 58 bb 35 71 90 da a0 bc f0 b9 9e f1 95 1f 1e
       1.3958349e-06 -3.702622e-19 -1.9687202e-20 8.448397e-21
000200 24 90 16 b7 24 68 cc 32 5b b8 9a 1d c0 69 c2 9d
       -8.974257e-06 2.3796083e-08 4.095408e-21 -5.1460715e-21
000210 f6 f0 50 2d 7b 6d f9 a6 5c 65 9b 35 ae c4 30 34
       1.1876935e-11 -1.7307521e-15 1.1577899e-06 1.6462829e-07
000220 84 ce 9a a5 63 6d 44 36 c8 97 f6 24 d1 20 41 1f
       -2.6854682e-16 2.9269947e-06 1.0694262e-16 4.0896485e-20
000230 5e fd b7 a0 ad 68 16 a3 cd 8f ba 1d 42 d6 12 1e
       -3.116907e-19 -8.153682e-18 4.9382477e-21 7.773483e-21
000240 a0 c9 85 a2 8b 90 eb b4 4c 18 5b 9f 42 27 1b b5
       -3.62632e-18 -4.387733e-07 -4.6395152e-20 -5.779913e-07
000250 2d d0 49 b3 48 88 bd b5 ef a9 81 a6 28 01 16 37
       -4.6988294e-08 -1.412126e-06 -8.997234e-16 8.940966e-06
000260 1c 0b 30 a2 af 3e c4 1d 19 8d 39 37 a1 4b 83 36
       -2.385833e-18 5.194558e-21 1.1059711e-05 3.9129086e-06
000270 07 9b fd 9d 6a 8b d1 1c 1c 4a df a0 4c 44 75 b4
       -6.7128837e-21 1.3866498e-21 -3.782671e-19 -2.284225e-07

lstm.weight_hh_l0 f4 [80, 20]
000000 bb da 74 a2 eb fd f4 26 f5 b3 ac 1d 11 b3 0e b4
       -3.3183961e-18 1.6999726e-15 4.5714092e-21 -1.3289925e-07
000010 aa 78 d4 9d de fd 2d 22 4a af 56 b6 b7 4a f4 20
       -5.6240696e-21 2.3580268e-18 -3.1990517e-06 4.138465e-19
000020 ef 99 56 b2 50 32 44 20 bf 7f 0a b2 33 e2 2d a8
       -1.249144e-08 1.6618493e-19 -8.061703e-09 -9.652478e-15
000030 28 43 a0 aa 97 e6 7e b6 eb d5 35 37 e2 4f 4b a2
       -2.8468308e-13 -3.798317e-06 1.0838247e-05 -2.755392e-18
000040 d3 28 3d a3 0b 60 f0 9d 67 e7 94 33 f8 39 8f 34
       -1.0254355e-17 -6.3626777e-21 6.933879e-08 2.6678003e-07
000050 26 0c 82 9f a0 74 70 a2 95 ba ba 35 46 42 b6 a5
       -5.507724e-20 -3.2587806e-18 1.3912382e-06 -3.1616876e-16
000060 df 58 b9 9d 00 f5 8b 1e c0 d6 48 b0 16 97 e8 20
       -4.9060983e-21 1.4818527e-20 -7.3064754e-10 3.940231e-19
000070 aa 0a fb a2 1d 83 02 1e 64 fe 17 37 a7 a3 46 1e
       -6.8044977e-18 6.909256e-21 9.059531e-06 1.0515875e-20
000080 9d 3a b4 1d 8d 57 e6 36 db 56 bb 2c 1f 94 5f b1
       4.770621e-21 6.8647264e-06 5.3245026e-12 -3.2534968e-09
000090 d4 a5 d2 23 84 9a ec 36 7d 31 c0 2e 81 44 ab ac
       2.2838477e-17 7.051336e-06 8.73994e-11 -4.8677178e-12
0000a0 c0 ba 8a a5 74 3e b5 b2 8c db bf 2c 38 06 6d b0
       -2.406573e-16 -2.1099574e-08 5.452921e-12 -8.6228935e-10
0000b0 98 1d 9a a4 83 da 14 a2 7f de 81 1e 20 2e da 1d
       -6.683699e-17 -2.017342e-18 1.3750429e-20 5.775181e-21
0000c0 ae ef 25 28 be 55 1d 9d 30 34 80 9f f6 81 6f 9d
       9.211312e-15 -2.0823105e-21 -5.4296446e-20 -3.1698575e-21
0000d0 e7 0f 7e 34 ad e7 d3 b5 81 09 83 9e 15 3c 43 25
       2.3661379e-07 -1.5788152e-06 -1.3874095e-20 1.693391e-16
0000e0 80 a1 8a 2f 6c 2c 9b b4 73 90 31 b7 55 da ad 26
       2.5216806e-10 -2.890332e-07 -1.0583654e-05 1.2063465e-15
0000f0 cb 89 1c 20 2d 0b 8a 25 0f fd f7 9c f7 9c 09 a8
       1.3259306e-19 2.3946757e-16 -1.6410503e-21 -7.639064e-15
000100 d3 24 07 b6 38 f8 0b b1 63 7c 93 31 c5 39 15 37
       -2.0138002e-06 -2.0368258e-09 4.292404e-09 8.894543e-06
000110 65 0f 45 2a 18 e2 31 aa 61 13 b1 a5 34 f3 19 b6
       1.7502456e-13 -1.57992e-13 -3.0717737e-16 -2.294034e-06
000120 16 9d 43 2a 2b 8e 6b b5 f6 08 a5 1e 65 cd d4 26
       1.7373979e-13 -8.7751204e-07 1.747376e-20 1.4766127e-15
000130 a3 65 a9 24 d6 81 af 1c 0d 32 28 a1 6c b5 12 aa
       7.3464246e-17 1.161409e-21 -5.6986856e-19 -1.3030348e-13
000140 b4 3b a1 1c 3d ca 6d 1c 0b 3e 50 a0 98 01 59 a1
       1.0669519e-21 7.867811e-22 -1.7638814e-19 -7.352457e-19
000150 11 95 b2 a3 20 ab 1e 9d cf d8 b0 1e 61 29 c3 9b
       -1.936193e-17 -2.0999595e-21 1.8724395e-20 -3.2286784e-22
000160 34 b2 d2 23 b2 63 ab 9d 20 cb 68 ac ee ef 92 21
       2.2843718e-17 -4.5366406e-21 -3.308194e-12 9.956854e-19
000170 a4 2f 5e 9f 10 4f 22 9d 22 31 cc 1e 0f 79 4d 35
       -4.7049736e-20 -2.1481396e-21 2.1619661e-20 7.6544615e-07
000180 a7 9c e2 b0 14 b5 6b 1e bb 45 69 36 ed e2 8f 9d
       -1.6488187e-09 1.24782425e-20 3.4760294e-06 -3.808642e-21
000190 70 c4 0f 9e 98 90 de a8 d6 c1 46 a1 6b a5 8e 1d
       -7.610979e-21 -2.4709659e-14 -6.734155e-19 3.7758125e-21
0001a0 9b b4 21 35 94 06 a4 a1 5a 47 5e 36 fe 38 1f a0
       6.023999e-07 -1.1114813e-18 3.312211e-06 -1.3486681e-19
0001b0 27 52 4a 31 fb 5e b9 b4 80 69 7a 9d 7e 7e b5 9d
       2.9441567e-09 -3.4528043e-07 -3.3141767e-21 -4.804109e-21
0001c0 53 fc 06 36 27 96 d4 a9 1f cd c6 33 a4 fd c1 23
       2.0114428e-06 -9.4407385e-14 9.257405e-08 2.1032523e-17
0001d0 15 9e f1 35 0e d2 79 34 d6 1e c0 9e d1 15 f3 2f
       1.8001907e-06 2.326635e-07 -2.0341544e-20 4.4216944e-10
0001e0 a5 86 24 9c 80 47 fb a3 bf b2 94 22 7b f6 74 34
       -5.443707e-22 -2.7243756e-17 4.0304735e-18 2.281394e-07
0001f0 8b 43 6e b4 79 70 29 b7 5e 86 6e 30 8c d8 d9 9c
       -2.2190049e-07 -1.0099372e-05 8.6774843e-10 -1.4415831e-21
000200 f0 e3 be 9c de 7c 7c b5 9e 80 e4 21 f6 a8 d1 a9
       -1.2632066e-21 -9.405902e-07 1.5483926e-18 -9.3107745e-14
000210 4f a0 62 9d 8b 68 0f 9e 2d 56 dd 21 36 ec ad 1c
       -2.9993729e-21 -7.591976e-21 1.4998353e-18 1.1509239e-21
000220 89 e0 67 37 f8 cc 87 29 28 d9 0d 1d 32 3a 6b 29
       1.3820952e-05 6.030761e-14 1.8773462e-21 5.223096e-14
000230 db 82 05 37 3b 7f 13 ad 79 d3 91 36 93 4c 38 21
       7.957885e-06 -8.384233e-12 4.3459554e-06 6.244297e-19
000240 09 11 9a 23 c3 fb 49 24 71 15 ca 9e 10 5f 50 b7
       1.6703928e-17 4.3798178e-17 -2.139645e-20 -1.24199e-05
000250 ef bf 9f 30 6f b8 22 1f 3d 18 14 35 a7 99 46 2c
       1.1623323e-09 3.4457394e-20 5.516957e-07 2.8222787e-12
000260 0a 88 03 29 5e f2 b7 1e 95 27 0c b3 5e bc a9 ae
       2.920584e-14 1.947612e-20 -3.263229e-08 -7.718691e-11
000270 d1 bd 3b 9e b5 ae 4b 1e bd 37 d3 22 98 24 8e 1e
       -9.938951e-21 1.0782859e-20 5.725068e-18 1.504997e-20
000280 68 99 40 1e 27 35 97 36 9e af ef 35 e1 e3 35 b4
       1.0196119e-20 4.5063384e-06 1.7857999e-06 -1.693984e-07
000290 2a 12 a3 9d 0c 62 38 b7 b9 87 09 37 ba 50 02 9d
       -4.316452e-21 -1.0990083e-05 8.197437e-06 -1.7247091e-21
0002a0 fe 53 6e a8 4f 95 e5 21 a8 83 a9 9c c3 e2 9e 9c
       -1.3229867e-14 1.5557165e-18 -1.1217514e-21 -1.0514179e-21
0002b0 12 46 74 23 6e 1a ad 1f 80 3b 9c 33 09 11 64 9c
       1.32421045e-17 7.3312074e-20 7.275139e-08 -7.546089e-22
0002c0 cd 25 91 20 7d 79 2e 1e 09 19 a7 29 c5 b4 c3 b6
       2.458897e-19 9.2366065e-21 7.420633e-14 -5.832497e-06
0002d0 75 97 aa 25 4a 4a 00 1d 2b 63 a3 24 79 93 15 a3
       2.959293e-16 1.6979065e-21 7.085798e-17 -8.108535e-18
0002e0 4b ed d4 1e bc f9 d0 1b 25 09 75 1d c0 c2 4b a9
       2.2544515e-20 3.45721e-22 3.2430208e-21 -4.5243973e-14
0002f0 44 71 35 9d 09 19 4e 9c be 55 a0 a0 e1 18 d7 21
       -2.4013707e-21 -6.819204e-22 -2.7161794e-19 1.4575552e-18
000300 c7 d1 5e 30 b6 44 f5 1c fd a0 da 9c bd 24 46 a2
       8.106124e-10 1.6230501e-21 -1.4467644e-21 -2.6853453e-18
000310 d4 22 30 a0 c1 52 ba 35 3c c5 e8 b2 15 97 52 a8
       -1.4919304e-19 1.3882164e-06 -2.7098046e-08 -1.16901025e-14
000320 fb ee e6 9d cd 07 38 9f d9 c7 c3 1f ea f6 83 9e
       -6.1127593e-21 -3.8969968e-20 8.291633e-20 -1.3972286e-20
000330 c0 32 4d a4 64 70 91 23 50 c8 25 9e d2 82 14 b4
       -4.4495276e-17 1.576853e-17 -8.776451e-21 -1.3831166e-07
000340 9e e4 51 1e 02 fb 18 aa 97 e3 8a b4 dc 30 2c b1
       1.1111645e-20 -1.3587398e-13 -2.5870096e-07 -2.5057068e-09
000350 b5 d2 f7 b0 30 09 ab a4 b1 b2 6b af 2f 7a 57 1e
       -1.8031502e-09 -7.417499e-17 -2.143661e-10 1.1407272e-20
000360 ac e7 af 9c 59 ca 88 ae c5 3f b4 20 d5 96 53 ae
       -1.1640414e-21 -6.220508e-11 3.0535385e-19 -4.810981e-11
000370 26 2e e4 b5 15 4b ce 1e bb 58 14 ac 1a d6 ab 24
       -1.7000755e-06 2.1842152e-20 -2.108132e-12 7.452213e-17
000380 09 d5 e6 9c 6e 69 fc a0 af 9e 89 ae 98 04 c1 1c
       -1.5275192e-21 -4.2760228e-19 -6.2582266e-11 1.2772856e-21
000390 49 5c 08 1f 92 f5 88 b2 4f 9f 3c a8 5c ff b0 31
       2.8875457e-20 -1.5944156e-08 -1.0470641e-14 5.151305e-09
0003a0 80 b5 79 af 67 c0 84 2f 4d ff d0 24 15 56 11 35
       -2.27109e-10 2.414737e-10 9.063812e-17 5.4141975e-07
0003b0 31 37 15 ab fa 7e d3 31 79 da 8b 98 32 2c f1 1d
       -5.3012027e-13 6.155344e-09 -3.615126e-24 6.3837866e-21
0003c0 a9 3d 97 9f 78 78 ae a4 7d 6d 12 1e ec 31 8f a0
       -6.4052996e-20 -7.566455e-17 7.751817e-21 -2.4258178e-19
0003d0 9f 8f 6f a5 86 03 fd 1d e4 a5 2c a2 3b 03 23 af
       -2.0778606e-16 6.6972186e-21 -2.3398168e-18 -1.4825911e-10
0003e0 e7 b9 62 1e 48 10 be 1e 92 42 9d b5 97 c3 45 27
       1.2002784e-20 2.0123766e-20 -1.1716786e-06 2.7445271e-15
0003f0 1a ca d2 9f ba 50 f4 1f 31 f7 29 a1 51 58 a8 35
       -8.927281e-20 1.0347157e-19 -5.758658e-19 1.2542679e-06

lstm.bias_ih_l0 f4 [80]
000000 1f ae 90 27 29 78 86 22 8c 27 ee 9f 5b 84 0b 32
       4.015681e-15 3.6447997e-18 -1.00862346e-19 8.120959e-09
000010 2b 59 cf a1 3a a4 93 2b c1 38 8b 31 64 a3 78 33
       -1.4050468e-18 1.049056e-12 4.0518846e-09 5.7890603e-08
000020 be 1b 18 b5 c5 ab c8 29 ea 83 b5 a1 20 9c e4 a6
       -5.666478e-07 8.9115815e-14 -1.2299954e-18 -1.5862996e-15
000030 92 5c bf ac 8b 7a ce 21 bb 4a bd 30 7f d6 83 35
       -5.438824e-12 1.399154e-18 1.37728e-09 9.822687e-07
000040 aa 5e 50 b3 41 15 4f 29 95 81 11 ac fc 23 e4 a6
       -4.851487e-08 4.5981668e-14 -2.0677672e-12 -1.5830432e-15
000050 59 3d 62 27 2f 40 6a 28 71 08 25 21 6f 6b 25 35
       3.1397057e-15 1.3003527e-14 5.5915347e-19 6.1623626e-07
000060 e5 83 c6 20 59 7a 51 b2 8b 2f f7 a0 1a 6f 95 36
       3.3629785e-19 -1.219322e-08 -4.187489e-19 4.45348e-06
000070 c6 a1 81 26 a4 b0 e2 22 9a 2e b7 25 34 69 84 32
       8.995022e-16 6.144445e-18 3.1777018e-16 1.5414663e-08
000080 32 03 11 26 bc 55 94 33 91 0d 20 9d 00 67 8d b3
       5.031131e-16 6.907382e-08 -2.1182837e-21 -6.58456e-08
000090 2a ea ac 2c 68 5b 66 b6 e1 54 51 ac a7 0e 39 a7
       4.9145315e-12 -3.4325876e-06 -2.9747804e-12 -2.568185e-15
0000a0 12 30 21 b4 a9 b3 87 31 1e 93 22 30 30 15 de 30
       -1.5011781e-07 3.949442e-09 5.914432e-10 1.6158648e-09
0000b0 66 07 b0 2f 94 89 b8 2c aa 56 44 b0 bb 2b 41 33
       3.201947e-10 5.2448688e-12 -7.142754e-10 4.4976087e-08
0000c0 4a eb c2 b2 d6 b6 12 b1 f8 f1 f1 b1 4b 0b dc ac
       -2.269157e-08 -2.1349726e-09 -7.041532e-09 -6.25403e-12
0000d0 e3 58 07 af be 8e c6 b1 cf e4 dd ae fa a9 0f 37
       -1.2309757e-10 -5.7787863e-09 -1.0090561e-10 8.56304e-06
0000e0 db 30 9f b4 c0 25 a2 b5 11 8f 0f af 2b 71 d1 b3
       -2.9651605e-07 -1.2080927e-06 -1.3056602e-10 -9.752906e-08
0000f0 64 8e 0e 27 1b 28 14 23 da 5a 1d 36 c6 eb e4 27
       1.9783649e-15 8.031589e-18 2.3447706e-06 6.353834e-15
000100 7b 74 43 21 52 8a 87 a1 c1 ee 35 1f d3 f5 a5 22
       6.622273e-19 -9.184569e-19 3.8525733e-20 4.4983616e-18
000110 93 ab 0b 34 4a fe e9 36 48 d9 07 21 f3 18 25 a0
       1.3007802e-07 6.9735443e-06 4.602735e-19 -1.3984299e-19
000120 c3 0f 47 26 b5 52 9a a4 02 ec b8 a7 4e a1 86 ae
       6.9063355e-16 -6.6926965e-17 -5.132614e-15 -6.122268e-11
000130 a9 c7 14 a1 b4 e2 56 29 de 43 67 1e 49 bb 5a a7
       -5.04086e-19 4.771418e-14 1.2243073e-20 -3.0355105e-15

lstm.bias_hh_l0 f4 [80]
000000 74 3c fd 26 3a e4 cb 23 07 82 ba 34 da 4e c3 2c
       1.7571787e-15 2.2105962e-17 3.4739807e-07 5.5509876e-12
000010 0d cf c4 20 cb ab bc 36 f1 4a 41 23 0e 8a 3d aa
       3.3340706e-19 5.622836e-06 1.04784204e-17 -1.683447e-13
000020 e9 ae 77 2c 52 0f 86 26 6d fc eb 22 3a d5 a5 9d
       3.5197906e-12 9.30227e-16 6.3964144e-18 -4.3895607e-21
000030 38 88 8d 26 97 f5 4c a8 24 f8 41 9f f7 cb 4b 37
       9.820763e-16 -1.1377529e-14 -4.1074597e-20 1.2147232e-05
000040 f0 75 d0 34 a1 ec 5b 29 52 c2 b0 24 3f e6 0c a7
       3.882883e-07 4.883301e-14 7.6657024e-17 -1.955372e-15
000050 d3 3a 1f 27 ea b6 0e b0 d9 e5 48 20 4e 5a 2d 26
       2.2097571e-15 -5.1919236e-10 1.7016709e-19 6.014382e-16
000060 94 29 ba b0 39 09 4a aa 33 42 8b 20 6c 10 91 22
       -1.3545098e-09 -1.7944404e-13 2.3591323e-19 3.9319716e-18
000070 66 73 cf 23 41 84 7a 22 f9 4e bf 27 d1 9c f4 2d
       2.2491858e-17 3.3951333e-18 5.309877e-15 2.7809229e-11
000080 f8 58 5d 26 8b 78 44 a2 1d ad 78 1f 91 18 24 a9
       7.6795353e-16 -2.6626768e-18 5.265924e-20 -3.6436623e-14
000090 a7 73 c1 a4 c2 f0 84 29 e4 2d d6 21 1f 43 ad 27
       -8.389633e-17 5.9037424e-14 1.4513351e-18 4.808992e-15
0000a0 14 af 41 37 12 67 09 32 31 e1 1e 30 00 45 d6 30
       1.154446e-05 7.997885e-09 5.780008e-10 1.559016e-09
0000b0 35 a1 08 30 f7 97 5d b4 fb fe f0 2e 09 f9 08 2f
       4.97056e-10 -2.0637513e-07 1.095923e-10 1.2457603e-10
0000c0 42 75 00 b2 38 d7 1f b1 fd d1 a1 af cc f8 18 32
       -7.477242e-09 -2.3259883e-09 -2.9434935e-10 8.904134e-09
0000d0 2e 01 1b b7 27 b2 ca 30 bc 5a d7 ae 7f dc 86 b4
       -9.238995e-06 1.4748068e-09 -9.793186e-11 -2.5119877e-07
0000e0 3f ec 42 34 d2 d3 f7 b6 58 9a 08 af ac 0a 02 37
       1.8153604e-07 -7.3858328e-06 -1.2423962e-10 7.751089e-06
0000f0 bc 0a 52 27 a1 ef 89 23 8c cc ac 31 31 18 dc a5
       2.9149174e-15 1.4955057e-17 5.029113e-09 -3.818031e-16
000100 65 8b 47 b2 92 3a a0 22 03 90 fd 20 c7 84 6e a6
       -1.1615019e-08 4.34301e-18 4.2955166e-19 -8.2752784e-16
000110 26 20 39 aa 0d 5b d2 23 97 b6 37 aa 36 1a 8b 9f
       -1.6442454e-13 2.2806807e-17 -1.6317014e-13 -5.891215e-20
000120 50 0f 32 26 70 2c 6f 36 b8 11 a7 1e 95 6f 00 a9
       6.177691e-16 3.5639641e-06 1.7689141e-20 -2.851849e-14
000130 31 33 8c a1 98 99 8b 29 30 ce 62 20 4c 1c f1 b5
       -9.500319e-19 6.199484e-14 1.9211166e-19 -1.7964135e-06

lstm.weight_ih_l1 f4 [80, 20]
000000 e6 ee 22 2b a3 98 44 a8 89 6d 86 24 bc 2c 90 a7
       5.78855e-13 -1.09132835e-14 5.8298796e-17 -4.001653e-15
000010 e2 1e 88 b4 0c 23 8a a8 20 13 26 a5 a4 bf df b2
       -2.5354444e-07 -1.5336277e-14 -1.4404685e-16 -2.6047765e-08
000020 98 c5 d5 b3 dc e0 89 36 9a b2 25 a6 6e de ea 29
       -9.9545275e-08 4.1090952e-06 -5.7487925e-16 1.0430273e-13
000030 6b fd 02 33 92 12 63 b7 50 82 f9 a6 17 3b 15 35
       3.0498466e-08 -1.3534578e-05 -1.7313167e-15 5.559281e-07
000040 0f 86 3e a8 6d 37 75 ab f1 d5 37 b7 53 5b 7d b6
       -1.0576188e-14 -8.7118404e-13 -1.0957462e-05 -3.7753096e-06
000050 f4 7b c6 36 63 88 93 26 c7 e1 1d 2a 49 dd ac 25
       5.91529e-06 1.0237142e-15 1.4022733e-13 2.9987192e-16
000060 39 cc b6 b1 a7 f7 98 31 49 bf de a5 9c 61 20 28
       -5.3201146e-09 4.451937e-09 -3.864048e-16 8.90295e-15
000070 7e a1 ce b1 3a 37 98 a5 24 e4 80 a6 91 b2 5e 26
       -6.0137486e-09 -2.640522e-16 -8.943622e-16 7.7263725e-16
000080 f8 94 eb ad 55 11 d0 a5 14 1c a9 a3 55 f4 2b 2b
       -2.6782562e-11 -3.6093993e-16 -1.8334908e-17 6.1090483e-13
000090 ad 29 4a b3 e6 e8 6e ab 99 59 13 35 cc 3e b7 2b
       -4.7069694e-08 -8.4877797e-13 5.489215e-07 1.3020362e-12
0000a0 c3 ce 38 2d 66 01 33 af 32 45 f4 ac 07 58 f5 25
       1.0505099e-11 -1.6280452e-10 -6.9425793e-12 4.2560375e-16
0000b0 98 26 9c 33 07 44 c8 a8 00 f1 5f 37 fd 70 37 28
       7.271336e-08 -2.2233963e-14 1.3347948e-05 1.0183041e-14
0000c0 11 31 55 a7 26 ea 81 a8 eb 4a db a6 4e b8 23 b7
       -2.9586287e-15 -1.4423423e-14 -1.5216484e-15 -9.758469e-06
0000d0 8e 3f 97 ab 31 06 08 b6 41 32 1f b7 90 a2 c0 2b
       -1.0746835e-12 -2.0269183e-06 -9.488839e-06 1.3687541e-12
0000e0 8f 41 7e a8 fb a2 61 b7 a9 24 57 a4 44 3c f3 2b
       -1.4114048e-14 -1.3448992e-05 -4.6651746e-17 1.7282916e-12
0000f0 2e cb 23 ae b4 ab 97 25 e9 38 72 b2 41 c0 cd 25
       -3.724237e-11 2.6310675e-16 -1.4099194e-08 3.5692108e-16
000100 44 43 82 24 3e 69 6b b5 2a 43 0f a5 44 43 2a 27
       5.6492465e-17 -8.769747e-07 -1.2426029e-16 2.3628704e-15
000110 c6 93 c8 a6 a2 09 2c a5 69 23 67 a6 7f f6 ee 2d
       -1.3917842e-15 -1.4921886e-16 -8.0192214e-16 2.7166934e-11
000120 e2 1a d8 aa 3b 6b 8b a4 58 82 23 a3 a8 91 4a b5
       -3.8387961e-13 -6.0463296e-17 -8.863849e-18 -7.546282e-07
000130 c7 64 39 2e 86 78 f9 aa 8c f1 84 a3 74 35 98 2a
       4.2153638e-11 -4.4314915e-13 -1.4413768e-17 2.7037715e-13
000140 c3 0f 94 28 d5 f1 14 a3 4a 14 01 a8 32 67 17 ae
       1.6438136e-14 -8.074306e-18 -7.165338e-15 -3.442508e-11
000150 4f 8c ef 29 6c 15 58 a3 e9 fb 00 a2 58 1a 14 23
       1.0638072e-13 -1.171392e-17 -1.7480595e-18 8.0286746e-18
000160 96 96 e9 a2 93 d2 28 a1 9c 8d 11 b1 27 c4 b2 ac
       -6.3314216e-18 -5.7199307e-19 -2.1180773e-09 -5.0808416e-12
000170 f0 c6 9c a7 66 b6 d4 1f d3 f9 fc 1f 1d ae 07 27
       -4.3514386e-15 9.0087245e-20 1.0713945e-19 1.88294e-15
000180 58 82 d2 a3 b2 9c b4 ac 26 13 90 1f 9a bf 8c 29
       -2.2823448e-17 -5.1333044e-12 6.101805e-20 6.2504865e-14
000190 b5 a7 84 29 50 18 d0 b6 5c 51 aa 34 4c b3 96 32
       5.89107e-14 -6.2017134e-06 3.1724164e-07 1.7543833e-08
0001a0 09 ea 49 23 6f 13 37 aa 7b b1 86 a3 f0 27 cd 34
       1.0945791e-17 -1.6260407e-13 -1.4603475e-17 3.8213284e-07
0001b0 ee b4 77 a5 ac 69 82 a6 2a 63 22 a4 ba 3d fd b0
       -2.1485136e-16 -9.049204e-16 -3.5212146e-17 -1.8425717e-09
0001c0 5e 20 d9 28 79 cd 8c 36 8a 20 1b 28 52 db 89 ac
       2.4105877e-14 4.1962453e-06 8.611284e-15 -3.9181236e-12
0001d0 dc 06 bf 30 24 5b 2b a9 19 43 22 a2 79 4e b0 29
       1.3899029e-09 -3.804868e-14 -2.1990615e-18 7.829583e-14
0001e0 fd ca c3 33 b1 8b 58 26 87 c5 42 23 54 b6 84 25
       9.1173185e-08 7.512937e-16 1.0558589e-17 2.30219e-16
0001f0 32 26 87 25 ca 1a 6f a9 5d 64 5f a5 79 fe 8d 28
       2.344465e-16 -5.3091896e-14 -1.9376171e-16 1.5764505e-14
000200 76 ad 14 b4 39 f0 f3 36 a9 f7 35 ad 3e 0c a0 ac
       -1.3846679e-07 7.26993e-06 -1.034365e-11 -4.5488327e-12
000210 f5 d8 34 2f 36 b3 50 37 dc ec 98 a3 e0 70 23 2b
       1.6447983e-10 1.2439492e-05 -1.6580187e-17 5.806588e-13
000220 c0 3b 1e a8 25 8f fd 36 ae 45 b6 a6 44 83 c4 b3
       -8.783718e-15 7.556652e-06 -1.2647674e-15 -9.150838e-08
000230 11 ce 43 2c 30 eb 68 28 2d 8e 2f 24 90 95 bc 36
       2.7825557e-12 1.2929585e-14 3.8067504e-17 5.620248e-06
000240 e9 16 a7 25 07 c7 b8 a8 87 0d 8c a5 94 53 f1 b6
       2.8985407e-16 -2.0514418e-14 -2.4295295e-16 -7.1920895e-06
000250 7e b0 c3 a7 d5 92 61 29 0e 17 b2 a5 da a2 ee 26
       -5.4314726e-15 5.0087393e-14 -3.08937e-16 1.6558708e-15
000260 23 bb 81 ab bd 51 12 a6 ad aa a3 b1 fc 4a 85 2b
       -9.217942e-13 -5.07647e-16 -4.763328e-09 9.471031e-13
000270 6e 39 e2 b2 1e 9e d2 b6 37 6a bf a3 e5 6e 15 35
       -2.6335979e-08 -6.276895e-06 -2.0753245e-17 5.56682e-07
000280 36 8d 79 27 0b e4 af 22 ef 19 9f b5 d5 71 35 33
       3.4632242e-15 4.7675295e-18 -1.1853971e-06 4.2245876e-08
000290 ae c4 69 2c c2 d2 36 b7 51 48 ed 20 3a d1 8a 35
       3.322047e-12 -1.0897116e-05 4.0197217e-19 1.0342694e-06
0002a0 0b f4 99 30 18 b0 36 a8 3a aa b2 25 99 19 48 22
       1.1201576e-09 -1.0141214e-14 3.0993428e-16 2.7118606e-18
0002b0 cb 10 0e a7 f4 03 81 2c f3 09 58 9f 8b c7 a1 26
       -1.9715562e-15 3.6668394e-12 -4.574801e-20 1.1225705e-15
0002c0 8d fe bd a3 4b 1c 81 31 eb b5 26 aa 37 7b e3 26
       -2.0599228e-17 3.7576107e-09 -1.4806877e-13 1.5784687e-15
0002d0 66 df ab 2a 43 f2 4f b0 94 0e 73 22 8f ee 0a 24
       3.0530716e-13 -7.5650436e-10 3.2940359e-18 3.0126047e-17
0002e0 8c 93 f8 23 59 73 51 a7 c9 a2 25 a4 ca dc fe 27
       2.6950702e-17 -2.9067107e-15 -3.5916556e-17 7.073854e-15
0002f0 f8 6d b2 a5 f7 f0 7f 2f cb 41 c6 b6 fd 03 8b a9
       -3.0952596e-16 2.3277723e-10 -5.908519e-06 -6.173532e-14
000300 52 9a c9 30 82 1e e9 31 f1 ad 2e a2 05 78 ce 2b
       1.4668535e-09 6.784661e-09 -2.3673481e-18 1.4670492e-12
000310 e9 5f ab 2d 9a 32 19 36 17 cf 43 a2 ad d8 4c 2a
       1.9483042e-11 2.282823e-06 -2.653706e-18 1.8194014e-13
000320 89 11 fa b4 12 f4 4f 22 71 18 c6 2d 85 9a 99 21
       -4.6578887e-07 2.818294e-18 2.2520848e-11 1.0408584e-18
000330 5d eb 1d a5 75 7d 9d ab 4d db 64 a5 a9 1d 92 23
       -1.3697323e-16 -1.1190342e-12 -1.985015e-16 1.5841913e-17
000340 cf b3 59 a3 74 2b f7 9f bf d1 21 22 03 d2 a0 2c
       -1.18016695e-17 -1.04680456e-19 2.1930607e-18 4.5707895e-12
000350 d7 7c 4e a7 e2 78 06 ae 3d 30 2d 31 a5 ce 38 27
       -2.8655919e-15 -3.0575438e-11 2.5202234e-09 2.5647152e-15
000360 b4 84 87 a1 a2 ed 14 34 24 e5 0d 1f 2f 74 68 27
       -9.183082e-19 1.3870024e-07 3.0047452e-20 3.225945e-15
000370 99 ca d9 32 9b 81 b4 20 92 48 f8 9f b6 93 99 af
       2.5354256e-08 3.0578952e-19 -1.0515214e-19 -2.7935493e-10
000380 08 fe e6 a1 f5 dc 9f b1 3f e6 24 32 69 eb d2 36
       -1.5652648e-18 -4.652629e-09 9.598408e-09 6.285893e-06
000390 c1 ff 57 b7 e3 64 77 a0 a0 cb fe b3 f3 b5 52 21
       -1.2874546e-05 -2.0955094e-19 -1.1864836e-07 7.1391575e-19
0003a0 17 ce f2 a5 82 a4 56 b6 25 a0 de 21 f7 38 b9 25
       -4.211996e-16 -3.198424e-06 1.5085695e-18 3.2130985e-16
0003b0 42 d1 51 af 9c 57 f8 a5 35 61 29 9e 40 cc c0 25
       -1.9082783e-10 -4.3080509e-16 -8.9668874e-21 3.3445096e-16
0003c0 0d 4a e3 2a 9f 86 b5 2e 77 8c 7f 22 09 92 59 af
       4.0374683e-13 8.2548406e-11 3.4633306e-18 -1.9787917e-10
0003d0 5b 02 07 37 c6 c6 a7 a7 80 92 74 a4 ca de 56 26
       8.0471755e-06 -4.656732e-15 -5.3033156e-17 7.45481e-16
0003e0 9c 98 16 a6 2a 01 69 a4 ee 3f a9 a4 c2 b9 40 31
       -5.224853e-16 -5.0524807e-17 -7.340037e-17 2.8045268e-09
0003f0 f3 8c 27 aa bf 2b 63 a4 c0 ae 77 a2 48 ea 04 b5
       -1.4881481e-13 -4.9259833e-17 -3.3567254e-18 -4.9514756e-07

lstm.weight_hh_l1 f4 [80, 20]
000000 29 bb 34 ae 37 23 91 2e a8 c9 77 ae 42 89 03 ae
       -4.1093493e-11 6.600092e-11 -5.6340405e-11 -2.990786e-11
000010 ef e7 b9 33 87 44 80 37 45 57 42 35 f0 6a de 35
       8.656922e-08 1.52907e-05 7.2397626e-07 1.6571412e-06
000020 d5 3c 5f 33 d0 3a cf 2d 2d af 71 2c 2a 9f 5c 32
       5.197656e-08 2.3559293e-11 3.4345402e-12 1.2841875e-08
000030 bc a7 a8 33 aa 81 c9 2c 05 ae 02 35 e2 b0 81 2c
       7.85362e-08 5.727159e-12 4.8682006e-07 3.6860385e-12
000040 01 27 6c 34 3e 00 15 2c 68 c0 5d 2c 57 3a 11 2c
       2.1993402e-07 2.1174308e-12 3.1512796e-12 2.0638124e-12
000050 fa 56 8d ae 85 96 18 2f 0c 49 41 af df fa 03 36
       -6.427388e-11 1.3877795e-10 -1.7579199e-10 1.9666547e-06
000060 74 a7 6a ad 96 c6 38 b7 02 a4 0c 2f f4 61 11 2f
       -1.3338542e-11 -1.10134915e-05 1.2791193e-10 1.3222473e-10
000070 9c c2 52 ac a6 50 30 2e 9b 0d b0 2c 73 31 01 ac
       -2.9950825e-12 4.0089397e-11 5.0037314e-12 -1.8359452e-12
000080 58 bc 2a 2e a4 88 42 2d 56 24 6e 37 0c 1b 41 2d
       3.8820808e-11 1.1057964e-11 1.4194366e-05 1.09767855e-11
000090 d4 d8 27 2f cc e3 ea 32 5c 8a 00 2d f6 f3 f1 35
       1.5265594e-10 2.7344775e-08 7.30668e-12 1.8026901e-06
0000a0 f2 4a 67 af 58 d7 bc 32 77 a5 f6 ae bd ee 8f b1
       -2.1035954e-10 2.1984008e-08 -1.1216177e-10 -4.188989e-09
0000b0 b0 e9 92 ac 6a 75 ca ad 36 48 fc 2e 84 75 77 2f
       -4.175514e-12 -2.3016884e-11 1.14724605e-10 2.2506269e-10
0000c0 6c 1c 6f ac 2a cd 37 2e a0 90 76 37 66 7d 5f 37
       -3.397972e-12 4.1791605e-11 1.4696416e-05 1.3321032e-05
0000d0 67 1f c7 33 0f cd a4 2d 9d 94 7c 30 34 fd 00 2d
       9.272372e-08 1.8735706e-11 9.188826e-10 7.33218e-12
0000e0 dd 37 da 2f 21 f8 20 b7 5f 96 f2 2c 53 e8 3a 2c
       3.9693662e-10 -9.594515e-06 6.8947482e-12 2.6561156e-12
0000f0 1c 9b e2 ad b1 2b 94 2e 08 4c e4 ae aa c0 03 ae
       -2.5762108e-11 6.738022e-11 -1.03817455e-10 -2.995707e-11
000100 d7 95 a7 ab 57 cc 78 ad 13 da 28 2e 2d 74 1a 2e
       -1.1907653e-12 -1.41425404e-11 3.8392466e-11 3.511873e-11
000110 b9 87 22 35 f0 88 54 36 7b 8d 90 2c 7c c9 d3 36
       6.0547205e-07 3.167017e-06 4.1084336e-12 6.311746e-06
000120 31 b2 89 2d 73 68 cc 32 5a 4d 24 2f f3 28 76 2c
       1.565423e-11 2.3796224e-08 1.4943194e-10 3.4981434e-12
000130 f6 16 d1 35 3c 54 67 2c f9 2d 8c 31 c0 0e 3d 37
       1.5578396e-06 3.2873834e-12 4.0797627e-09 1.1268712e-05
000140 df 28 97 aa b0 f3 0c 33 e8 80 23 2f b2 1e 18 aa
       -2.6851348e-13 3.2817923e-08 1.487056e-10 -1.3510962e-13
000150 aa 3e 0d 2f 07 3f 55 2b ec 3b 63 2a c4 6c 93 2a
       1.2846138e-10 7.576027e-13 2.018244e-13 2.6187917e-13
000160 eb ea cb b3 4d 8a c3 2a e3 68 3b 2a 30 3c 82 a7
       -9.4956555e-08 3.4734924e-13 1.6645326e-13 -3.6147504e-15
000170 ed f2 41 2a 0d ca b5 b1 f5 16 16 36 7a b7 1a 29
       1.7226125e-13 -5.290764e-09 2.2365105e-06 3.435401e-14
000180 9e ae 21 35 e5 be bb 27 db 49 80 28 53 a5 7d 27
       6.0231275e-07 5.2109895e-15 1.4242884e-14 3.5200426e-15
000190 96 df 91 ac 06 78 a7 2d 4a 63 d3 b6 4b f0 05 ad
       -4.145971e-12 1.9039003e-11 -6.299849e-06 -7.6135305e-12
0001a0 11 2e 84 b5 e2 50 08 ac a2 d1 9c 2c d2 98 d8 2c
       -9.848173e-07 -1.9371661e-12 4.4570606e-12 6.1560557e-12
0001b0 ce 74 90 2e b4 c8 1b 2c da 40 b9 2a dc 37 bd a9
       6.5691105e-11 2.2138237e-12 3.29076e-13 -8.402976e-14
0001c0 8f e7 3e 2c 05 51 f4 35 38 c6 9b 34 d5 48 f6 2a
       2.7129165e-12 1.8202996e-06 2.9015223e-07 4.3748916e-13
0001d0 71 9f b9 2d a8 af b3 ac cf 41 01 30 fd 08 cd ae
       2.1102871e-11 -5.1069877e-12 4.7023446e-10 -9.323917e-11
0001e0 34 36 ab ae 65 6a a3 2e d9 be 2f af 3c 78 67 ae
       -7.785808e-11 7.431281e-11 -1.598396e-10 -5.263011e-11
0001f0 51 dc fd 27 ca d4 e1 ad fa d8 2b b6 27 eb 34 b7
       7.0460474e-15 -2.5674036e-11 -2.5607283e-06 -1.0783587e-05
000200 47 6a 70 ac 9b c8 2e 2e 93 72 58 32 6c 98 65 b7
       -3.4165047e-12 3.9741193e-11 1.2598906e-08 -1.3684952e-05
000210 7b 87 11 b7 94 35 a1 b2 5d 3d cf 32 26 5f 78 b6
       -8.6742175e-06 -1.8767231e-08 2.4125876e-08 -3.7010263e-06
000220 20 a7 02 2f 1c 4c 08 2c 52 3f 64 2d 71 10 9b b5
       1.1882806e-10 1.9369012e-12 1.29743594e-11 -1.1553185e-06
000230 e6 ab b8 b5 bc e5 38 2f df db 31 af e9 a4 6e ae
       -1.3759097e-06 1.681632e-10 -1.617617e-10 -5.4261404e-11
000240 35 05 90 ac 3c d6 01 ae fc 66 e8 b6 4a 5d 36 2f
       -4.0933043e-12 -2.9521482e-11 -6.9261278e-06 1.6585947e-10
000250 00 bf 2e 37 a6 7f 0f 2e ea f9 d4 35 0f b7 14 32
       1.0415679e-05 3.262781e-11 1.5867965e-06 8.6563565e-09
000260 ca 18 75 31 ce 6e 9e 2d d9 1c f9 2f b5 27 ca 2c
       3.5666283e-09 1.8011728e-11 4.5313334e-10 5.7455937e-12
000270 fb 9c 28 2f 64 46 68 36 5d 64 b2 35 7b 44 65 2c
       1.5335282e-10 3.4611667e-06 1.3291243e-06 3.2580872e-12
000280 77 77 40 2c 37 2e fa b4 d3 99 13 b1 b7 dd 0a aa
       2.7351157e-12 -4.6599754e-07 -2.1478754e-09 -1.2333785e-13
000290 d6 b9 05 a8 5e c5 1d a9 5e 29 38 2a 8f b2 4f 2a
       -7.42328e-15 -3.5032192e-14 1.6356835e-13 1.8447243e-13
0002a0 34 5c 57 a8 32 52 b4 ac c2 00 15 34 ec cc 3b b0
       -1.1954891e-14 -5.125033e-12 1.3876982e-07 -6.8321415e-10
0002b0 4d 7e b5 af ba bb 88 28 8a 95 bb 2d 27 9e 28 b2
       -3.301345e-10 1.5180447e-14 2.1325847e-11 -9.814847e-09
0002c0 01 50 48 2b 0a 7d 64 34 7c 00 1c 29 1b 07 37 aa
       7.11653e-13 2.1279644e-07 3.463938e-14 -1.625613e-13
0002d0 d3 92 43 37 57 09 2b 2d 91 cd f6 ad 9d ac 70 ad
       1.1657091e-05 9.7222985e-12 -2.8058252e-11 -1.3680748e-11
0002e0 e5 40 f8 aa b1 5e 17 ac 2f b6 55 2d a5 cc 5a 2d
       -4.409868e-13 -2.1510955e-12 1.2148101e-11 1.24373055e-11
0002f0 28 da c3 aa 9c cf 84 35 1c d0 fa 2a d1 58 1c b2
       -3.4790335e-13 9.895189e-07 4.4553326e-13 -9.10059e-09
000300 a2 94 2b 2d bb 15 75 2b 17 4d 49 2e 8e 31 5f 2b
       9.753228e-12 8.707164e-13 4.577058e-11 7.9294286e-13
000310 c7 b0 8e 2d 77 15 73 b0 e3 88 d4 2b a4 d9 08 af
       1.6222036e-11 -8.843339e-10 1.51015e-12 -1.244645e-10
000320 58 ae 4c aa 06 f6 d0 2a af 46 d9 aa 0d f4 47 aa
       -1.8179327e-13 3.7118935e-13 -3.859599e-13 -1.7759423e-13
000330 dd 72 33 a8 3c 0c 68 b7 74 d8 2f b6 bc 3c 94 2a
       -9.961403e-15 -1.3831126e-05 -2.6203024e-06 2.6332224e-13
000340 c0 d4 9e 33 4c ac 61 af 41 1c 3e 29 55 95 1e a8
       7.396147e-08 -2.0524843e-10 4.221298e-14 -8.803143e-15
000350 dd 74 fe 29 7d d1 83 29 b1 71 97 b5 e2 ee c8 b2
       1.13001385e-13 5.853909e-14 -1.1283465e-06 -2.3391696e-08
000360 60 44 20 30 cd b6 de 27 de e7 1d 29 f7 d0 48 31
       5.830483e-10 6.181557e-15 3.5062116e-14 2.9222613e-09
000370 9a ff c3 a9 5a 70 91 32 7b 4a aa a9 95 ae e3 a8
       -8.7040794e-14 1.6931313e-08 -7.562437e-14 -2.5277776e-14
000380 bb 1b 0f a7 09 04 27 a8 1a c7 31 29 65 44 e0 29
       -1.986027e-15 -9.271237e-15 3.9474588e-14 9.959463e-14
000390 a2 c3 ef a6 f9 cd 79 28 27 d3 80 27 c6 27 9c a6
       -1.6636983e-15 1.386694e-14 3.575607e-15 -1.0835455e-15
0003a0 b0 96 6e 32 1a f8 93 27 a0 b4 8e 2a 0f 2d 50 27
       1.3887686e-08 4.106969e-15 2.53496e-13 2.8890225e-15
0003b0 4d 6c 45 2a f5 22 12 b4 58 bb f7 36 86 b6 66 26
       1.7534689e-13 -1.3610027e-07 7.3829833e-06 8.0044645e-16
0003c0 05 95 a3 b6 24 ca 8d 2d 59 dc ea ad 1a a0 94 31
       -4.8751267e-06 1.6119613e-11 -2.6700574e-11 4.3255683e-09
0003d0 f0 10 80 ab 43 91 2c ad a1 4c eb 2d d1 8b f2 2d
       -9.099648e-13 -9.809323e-12 2.6750437e-11 2.7574306e-11
0003e0 c5 6c 25 ab 23 51 2c 2d 40 0d d2 2b 88 39 8e aa
       -5.8770724e-13 9.795084e-12 1.4925075e-12 -2.5264187e-13
0003f0 c2 b9 71 b5 36 f9 bc 2b 12 3c 96 2e af 31 4b 2c
       -9.004981e-07 1.3427373e-12 6.831881e-11 2.8875615e-12

lstm.bias_ih_l1 f4 [80]
000000 49 63 00 34 f2 0d d6 b4 0c 3b 61 35 b6 1b a8 33
       1.1957049e-07 -3.9870753e-07 8.3904956e-07 7.82815e-08
000010 a4 25 cd 2f cd bb c0 b6 0a 49 2c 34 f4 55 2f 35
       3.7316028e-10 -5.743909e-06 1.604532e-07 6.531766e-07
000020 65 2d bb b3 08 65 d7 32 01 26 17 30 53 4b ba 2e
       -8.716123e-08 2.5075238e-08 5.4987487e-10 8.471681e-11
000030 31 f2 db 33 5d 70 41 31 e8 e3 1c 36 af 26 b8 b4
       1.02420366e-07 2.8149068e-09 2.337847e-06 -3.4300817e-07
000040 7c 1b f1 34 04 ed 86 2f 00 0d 92 34 7b 09 0a 2f
       4.4909746e-07 2.4542868e-10 2.7204078e-07 1.2554395e-10
000050 3f c6 9b 34 ca 6a 4b 34 8a 9b 56 36 19 fd 93 33
       2.9015243e-07 1.8944698e-07 3.197902e-06 6.891259e-08
000060 ba fd 62 31 8a 50 0c 32 04 f6 8c 36 e1 44 7a 34
       3.3031555e-09 8.167385e-09 4.200965e-06 2.3308122e-07
000070 d2 47 1d 30 db a0 e7 32 7d 38 90 30 7b 1a 6f 35
       5.721833e-10 2.6965088e-08 1.0493434e-09 8.907297e-07
000080 e0 b1 1e b5 f0 31 c4 31 0b 89 9b 36 a9 3b bb b3
       -5.911843e-07 5.710028e-09 4.635314e-06 -8.718718e-08
000090 8a 99 f7 34 b4 a5 44 2f ce a8 31 36 e4 dc ae 2e
       4.611905e-07 1.7884966e-10 2.6473313e-06 7.951842e-11
0000a0 a0 ef 9b b9 1d fc 0f 3a fe b0 1d ba fd e6 6e b9
       -0.00029742438 0.0005492585 -0.00060154486 -0.00022783499
0000b0 17 89 b2 b7 0d 75 0a b9 75 e0 9a 39 53 6e 2f 3a
       -2.1283091e-05 -0.0001320431 0.00029540402 0.000669216
0000c0 83 94 91 b7 38 2f 5b 39 c5 3d d6 37 0f eb 15 b7
       -1.7354503e-05 0.00020903058 2.5539552e-05 -8.935821e-06
0000d0 28 d1 10 39 9a ac 2e 38 69 23 f1 3a 11 1f cf 37
       0.00013810827 4.164558e-05 0.0018397394 2.469079e-05
0000e0 6b c7 95 3a dc 5e 76 37 cc a9 0c 38 af 17 18 37
       0.0011427229 1.4684829e-05 3.3536737e-05 9.06542e-06
0000f0 34 e5 1c b6 e3 e1 1f 34 cd 32 b6 34 ac ee c4 33
       -2.3379225e-06 1.4890206e-07 3.3937104e-07 9.1703754e-08
000100 6f 04 fa 2f e7 86 46 32 69 8c 94 34 4f 0c e0 34
       4.5477885e-10 1.155579e-08 2.766931e-07 4.1732207e-07
000110 66 2a ce 30 64 1e 0e b7 31 49 16 30 4f ac c6 b4
       1.5000523e-09 -8.470935e-06 5.4673693e-10 -3.7005745e-07
000120 f2 33 22 33 f3 ac 4b 32 d4 53 cd 36 36 3e a4 30
       3.776581e-08 1.1855479e-08 6.119235e-06 1.1950252e-09
000130 7c 21 6d 35 c7 34 ec 30 9e a3 ad 30 eb 3a 09 36
       8.8338106e-07 1.718626e-09 1.263391e-09 2.0448886e-06

lstm.bias_hh_l1 f4 [80]
000000 18 22 f2 33 cf 44 1c 34 bf 89 47 34 7f 02 b4 33
       1.1275205e-07 1.4553665e-07 1.8583431e-07 8.382357e-08
000010 a2 81 d8 2f 28 63 1d 32 78 f8 a9 34 a0 18 33 34
       3.938228e-10 9.161148e-09 3.1659488e-07 1.6679633e-07
000020 b8 53 a4 2f 25 4a ea 32 30 be 5d b6 78 ab cd 2e
       2.9890912e-10 2.7274902e-08 -3.304227e-06 9.35278e-11
000030 80 5f f7 32 95 cb 1c 31 fc c6 47 36 25 e9 59 30
       2.8798013e-08 2.281671e-09 2.9769135e-06 7.927546e-10
000040 59 d4 23 35 ee ed a6 2f 03 4e d4 32 69 20 b7 2e
       6.103124e-07 3.0364283e-10 2.4715524e-08 8.327634e-11
000050 92 05 a3 b5 e6 f3 36 34 96 f4 a9 b5 ab f8 bb 33
       -1.2146068e-06 1.70388e-07 -1.2662665e-06 8.7530985e-08
000060 7d 0f d3 2f 42 db 77 b3 26 c5 7f 34 cd 38 42 34
       3.8391682e-10 -5.7708583e-08 2.3820448e-07 1.8088322e-07
000070 32 ae 19 35 16 f8 c5 32 4e 9d 86 30 b2 e6 5f 35
       5.725043e-07 2.3046635e-08 9.794492e-10 8.340968e-07
000080 11 25 2e b5 bc 0b ed b5 50 27 2a 36 79 23 a4 30
       -6.487399e-07 -1.7661291e-06 2.5354857e-06 1.1942652e-09
000090 7e 76 73 35 fe f2 ec 2f f8 fa 96 30 c5 bf 97 35
       9.0696983e-07 4.3100806e-10 1.0985266e-09 1.1306189e-06
0000a0 4a a9 f0 b9 79 04 f4 39 6f 77 f6 b9 b5 8a d5 b9
       -0.00045902497 0.0004654264 -0.0004700976 -0.0004072987
0000b0 1c 99 a8 b7 59 32 b9 b8 42 77 2e 3a 7f e1 d2 39
       -2.0098458e-05 -8.8308654e-05 0.0006655344 0.0004022233
0000c0 f6 57 9d b7 4a b1 19 39 f5 42 ae 37 e7 0c 18 b7
       -1.8756818e-05 0.00014657262 2.0773596e-05 -9.06291e-06
0000d0 8e fd 8d 39 40 4f 5d 38 ac 52 0d 3b 09 c5 40 38
       0.0002708253 5.2764313e-05 0.002156417 4.595987e-05
0000e0 39 4a 0f 3a 66 b3 54 37 a1 ee 0c 38 43 24 21 37
       0.0005466077 1.2677954e-05 3.360084e-05 9.604791e-06
0000f0 16 db f1 33 d1 2a 21 34 d2 7f 4d 34 35 af 87 35
       1.12622885e-07 1.500987e-07 1.9138614e-07 1.0109276e-06
000100 e4 24 eb 2f 79 7f b4 32 aa a2 96 b5 9e bc 3c 34
       4.2772463e-10 2.1012726e-08 -1.1223212e-06 1.7577483e-07
000110 14 8c 8f 36 1d 7d b8 32 1c 48 00 30 66 a6 c0 33
       4.2780393e-06 2.1477314e-08 4.66686e-10 8.9709644e-08
000120 0f ae 67 33 a9 d2 24 32 2a f7 7c 36 31 4e 8a b4
       5.3942184e-08 9.593955e-09 3.7694795e-06 -2.5761395e-07
000130 37 32 ec 34 c3 52 47 2f 36 7a 9b 30 eb 87 06 2f
       4.3994962e-07 1.8128347e-10 1.1312469e-09 1.2235517e-10

fc.weight f4 [360, 20]
000000 8e 63 9a b7 ec da 0d 38 29 2f 38 b8 02 13 d5 b7
       -1.840459e-05 3.3820907e-05 -4.391294e-05 -2.540043e-05
000010 60 d0 ac b5 74 ce 0b b8 d8 d4 d6 37 0b dc 19 38
       -1.2875644e-06 -3.3332457e-05 2.5609901e-05 3.6682974e-05
000020 c6 1c a0 b5 cf ce 58 37 11 d7 b1 35 7a 1f a7 b4
       -1.1929303e-06 1.2922755e-05 1.325012e-06 -3.1129076e-07
000030 27 71 38 37 dc 1c 3a 36 23 64 db 38 af 2d 92 36
       1.09936e-05 2.7732958e-06 0.00010461386 4.3564573e-06
000040 e1 80 66 38 69 4a 44 35 51 4a f2 35 ab 12 a2 35
       5.49563e-05 7.312397e-07 1.8052034e-06 1.2075374e-06
000050 88 c5 af b7 15 c0 fb 37 26 63 83 b8 76 02 aa b7
       -2.0953608e-05 3.0010977e-05 -6.2650346e-05 -2.0266725e-05
000060 d1 d6 94 b5 64 70 0b b7 c1 e6 27 38 a7 2e e7 37
       -1.1089379e-06 -8.311214e-06 4.003081e-05 2.755907e-05
000070 25 4b 98 b5 ea 9b 5e 37 f0 87 ad 35 5c 96 ff b4
       -1.1346752e-06 1.3268533e-05 1.2929067e-06 -4.7606852e-07
000080 5e 22 45 37 76 b3 a1 36 78 74 e9 38 a2 ec fd 35
       1.1750117e-05 4.819066e-06 0.00011132 1.8918838e-06
000090 9a b0 8a 38 02 6a 3b 35 2a 15 97 36 5b 6b 92 b5
       6.6132474e-05 6.981719e-07 4.5026145e-06 -1.0909092e-06
0000a0 09 4a 70 b8 99 95 fd 37 c6 2a f0 b7 3c 45 f6 b7
       -5.728941e-05 3.0229612e-05 -2.8630147e-05 -2.9357725e-05
0000b0 3b 1f 8b b5 8c a6 b5 b6 22 bc 55 38 21 fa fe 37
       -1.0365396e-06 -5.413609e-06 5.095837e-05 3.0395635e-05
0000c0 83 43 9b b5 b5 c4 05 38 4a 7c 34 36 51 c5 00 b5
       -1.1568048e-06 3.189287e-05 2.6894436e-06 -4.797085e-07
0000d0 1f 79 63 37 3a c1 58 36 78 af 11 39 69 45 18 36
       1.3558455e-05 3.229898e-06 0.00013893645 2.2690167e-06
0000e0 ee 1a 3f 38 c0 bf ba 35 a2 25 f2 35 5c 19 6b 35
       4.556303e-05 1.3913887e-06 1.8041358e-06 8.7581225e-07
0000f0 ca 90 a9 b7 c0 8a 06 38 d2 92 69 b8 cf 84 b4 b7
       -2.0213793e-05 3.207731e-05 -5.5688266e-05 -2.1519516e-05
000100 9c 4e 93 b5 a2 c4 d1 b6 2c e8 d3 37 65 ac 02 38
       -1.0975232e-06 -6.2515765e-06 2.5261274e-05 3.115497e-05
000110 24 a0 a2 b5 b5 0a 70 37 65 41 67 b6 6c bc a9 b5
       -1.2116548e-06 1.4307608e-05 -3.4459747e-06 -1.2646319e-06
000120 52 10 67 37 98 bf 23 36 35 d4 17 39 11 bb f8 35
       1.3772473e-05 2.4400415e-06 0.00014479535 1.8531883e-06
000130 9a 51 3b 38 e5 ed d3 35 bd 4b 92 36 08 8b bc 34
       4.466027e-05 1.5789961e-06 4.359956e-06 3.5118887e-07
000140 1a ed ae b7 d1 f7 e1 37 08 90 3e b8 12 a9 95 b7
       -2.0852825e-05 2.6937489e-05 -4.543367e-05 -1.7840914e-05
000150 87 6a d1 b5 c7 e7 e1 b6 4a 42 21 38 76 14 20 38
       -1.5602717e-06 -6.732505e-06 3.8447128e-05 3.816603e-05
000160 c6 4e 8b b5 50 bf 2e 37 56 8c d0 35 10 7d 40 b6
       -1.0379233e-06 1.0415752e-05 1.5538051e-06 -2.8683025e-06
000170 44 17 a4 37 c9 d6 75 36 dd c0 32 39 ec 82 31 36
       1.9561157e-05 3.6632866e-06 0.0001704725 2.6451262e-06
000180 f8 39 68 38 54 9b f6 35 c0 30 95 37 df f9 81 35
       5.5367098e-05 1.8373635e-06 1.7784885e-05 9.683971e-07
000190 f5 42 a5 b7 c2 7b da 37 4f 54 05 b8 3c 09 bd b7
       -1.9700712e-05 2.6045254e-05 -3.178819e-05 -2.2534856e-05
0001a0 56 c7 88 b5 22 55 c4 b6 31 60 1e 38 26 f8 eb 37
       -1.0190804e-06 -5.851166e-06 3.775972e-05 2.8129736e-05
0001b0 51 5f 0b b5 19 68 1e 37 a5 29 ab 35 ba d3 5d b5
       -5.192024e-07 9.441771e-06 1.2752613e-06 -8.263702e-07
0001c0 62 f6 31 37 2d f2 2a 36 94 9e db 38 3b 3b ee 35
       1.0607388e-05 2.547294e-06 0.00010472271 1.774962e-06
0001d0 b5 69 98 38 46 b6 97 35 1d aa 0e 36 03 7d 21 35
       7.267614e-05 1.1303425e-06 2.1258668e-06 6.015909e-07
0001e0 bb c0 b5 b7 6e 7e 08 38 de 1b ee b7 04 b1 cd b7
       -2.1666629e-05 3.2542674e-05 -2.8384788e-05 -2.4520334e-05
0001f0 9e 4e bd b5 39 84 b8 b6 70 6f e5 37 4d 29 66 38
       -1.4104478e-06 -5.49902e-06 2.735082e-05 5.4874738e-05
000200 a3 43 a1 b5 9e c1 11 37 2e 33 a5 35 b0 b2 0c b5
       -1.201512e-06 8.6877535e-06 1.2308353e-06 -5.241409e-07
000210 28 61 8c 37 c1 44 32 36 55 18 2f 39 3d ab f0 35
       1.6734542e-05 2.6564087e-06 0.00016698365 1.793123e-06
000220 31 9f 44 38 4d be e7 35 f7 2a b1 35 b7 bb 31 35
       4.68783e-05 1.7266226e-06 1.3200032e-06 6.62108e-07
000230 7d 9f 53 b8 c9 fb dc 37 82 5f f2 b7 7e aa c9 b7
       -5.0454855e-05 2.634329e-05 -2.8893122e-05 -2.4040459e-05
000240 db 7b 94 b5 54 34 03 b7 e2 53 f1 37 5a cd 08 38
       -1.1062906e-06 -7.820392e-06 2.87685e-05 3.2616175e-05
000250 ea a0 f2 b5 58 77 28 37 c9 52 ad 35 52 f8 06 b5
       -1.8077237e-06 1.0041367e-05 1.2913598e-06 -5.0280244e-07
000260 41 28 67 37 ff bf fe 36 33 14 25 39 31 65 0b b7
       1.3778045e-05 7.592141e-06 0.00015743151 -8.308606e-06
000270 6b 97 3a 38 ca a4 45 35 35 70 e3 35 7d a9 80 35
       4.4486875e-05 7.362802e-07 1.6945474e-06 9.586071e-07
000280 61 6a 20 b8 20 55 e5 37 51 53 53 b8 7a ae 8d b7
       -3.8246046e-05 2.7338567e-05 -5.0383915e-05 -1.6889757e-05
000290 62 10 21 b6 89 f0 d1 b6 39 a7 d9 37 57 d2 07 38
       -2.4000406e-06 -6.2566874e-06 2.5946285e-05 3.2382402e-05
0002a0 6a 70 b6 b5 f2 e1 76 37 88 d6 d2 35 1c ac 22 b6
       -1.3592773e-06 1.471535e-05 1.5708656e-06 -2.4240062e-06
0002b0 20 75 5c 37 49 0d 4a 36 4d a5 d2 38 18 79 f9 35
       1.3140292e-05 3.0108079e-06 0.0001004437 1.8587189e-06
0002c0 a6 65 2f 38 87 1e 48 35 75 a8 f0 35 18 64 09 35
       4.181792e-05 7.455023e-07 1.7930421e-06 5.118213e-07
0002d0 51 ca 05 b8 d6 02 dc 37 e0 62 fc b7 f2 88 8d b7
       -3.1898093e-05 2.6227364e-05 -3.0086783e-05 -1.687228e-05
0002e0 a2 5e 96 b5 52 0f e5 b6 ea 59 12 38 fc 03 1c 38
       -1.1203413e-06 -6.8265153e-06 3.489285e-05 3.719701e-05
0002f0 68 bf 84 b5 7d 98 41 37 ae 8b ad 35 1f 56 4c b5
       -9.890473e-07 1.15392e-05 1.2930157e-06 -7.6121245e-07
000300 d7 1d dc 37 d6 40 83 36 46 63 04 39 ff 41 fc 35
       2.6239939e-05 3.911652e-06 0.00012625483 1.879467e-06
000310 57 8a 33 38 92 ba 5a 35 a7 e0 6f 36 c6 21 41 35
       4.2805765e-05 8.1482824e-07 3.574454e-06 7.194725e-07
000320 f5 4a ac b7 18 1f 30 38 3c 46 1e b8 c1 29 04 b8
       -2.0538902e-05 4.199063e-05 -3.7735546e-05 -3.151014e-05
000330 95 e4 34 b6 9f 58 22 b7 56 5f 37 38 dc 0c 08 38
       -2.6955142e-06 -9.676586e-06 4.371939e-05 3.2436903e-05
000340 5d 56 fb b5 2c fd 21 37 68 88 b7 35 a1 c1 db b4
       -1.8726092e-06 9.655294e-06 1.3674262e-06 -4.0932812e-07
000350 bb f4 09 38 4a e8 1c 37 af f5 d4 38 27 c9 17 36
       3.289127e-05 9.352409e-06 0.0001015471 2.261784e-06
000360 6d 16 62 38 91 12 5c 35 12 7f 18 36 05 5f 6a 35
       5.3903485e-05 8.1983404e-07 2.272373e-06 8.7310065e-07
000370 49 68 b6 b7 d6 bd df 37 fa 9c e8 b7 e4 fa 94 b7
       -2.1744652e-05 2.667207e-05 -2.7729653e-05 -1.7759805e-05
000380 c1 8e a4 b5 5f 4b ee b7 42 e3 ec 37 0a 25 48 38
       -1.2260499e-06 -2.8406908e-05 2.8239217e-05 4.771821e-05
000390 0e 77 85 b5 0c f5 7b 37 a7 f1 18 36 ea f5 2d b5
       -9.943922e-07 1.501782e-05 2.2790425e-06 -6.4805374e-07
0003a0 50 0c 2c 37 5b 2e 2b 36 93 d1 2e 39 c9 0c 13 36
       1.0254866e-05 2.5507968e-06 0.00016672006 2.191215e-06
0003b0 c2 fc 73 38 ab 95 76 35 cb 27 85 36 93 0e 11 35
       5.8171114e-05 9.1859937e-07 3.9683414e-06 5.403792e-07
0003c0 98 f3 a6 b7 48 84 ea 37 42 5c e2 b7 12 2d cf b7
       -1.9902174e-05 2.7956572e-05 -2.698426e-05 -2.469731e-05
0003d0 b4 d6 1d b6 60 2e 59 b7 1f d3 d2 37 de 82 17 38
       -2.3519797e-06 -1.2945005e-05 2.5132262e-05 3.6123085e-05
0003e0 c3 af 7a b5 68 c9 27 37 d0 8f ab 35 c1 d2 20 b5
       -9.3388024e-07 1.0000869e-05 1.2782348e-06 -5.991133e-07
0003f0 5b b7 28 37 4f b9 ca 36 58 7c e1 38 80 97 27 36
       1.0056271e-05 6.041642e-06 0.00010751997 2.4973124e-06
