model/lstm-META-30-.pth (torch, 26181 bytes, 12 tensors)

conv1.weight f4 [2, 4, 3]
0	0xb3e791c5	-1.0783291e-07
1	0x36781e7b	3.6972622e-06
2	0xbce418fd	-0.027843947
3	0x3b7c5fb8	0.0038509201
4	0xb81e6103	-3.7760485e-05
5	0xbccb2d1c	-0.024801783
6	0xbc997b7e	-0.018735643
7	0x3c8d304e	0.017234948
8	0xb7cd8414	-2.4499408e-05
9	0xb815e071	-3.5733396e-05
10	0xb850760f	-4.9701015e-05
11	0xba14bea4	-0.00056741596
12	0x2b85eab7	9.515365e-13
13	0x3935e27e	0.0001734588
14	0x3ce015f1	0.027354212
15	0x3c1f4dd9	0.00972315
16	0xbb2696e8	-0.0025419537
17	0xba4215e7	-0.00074037764
18	0x3c6f0836	0.01458936
19	0x3b9361d1	0.0044977446
20	0x3cf3d1fe	0.029763218
21	0xb7531451	-1.258131e-05
22	0xb7457672	-1.1769693e-05
23	0xbb06d815	-0.0020575572

conv1.bias f4 [2]
0	0xb98bb3b3	-0.00026646032
1	0xb8606f40	-5.350937e-05

lstm.weight_ih_l0 f4 [80, 2]
0	0x3970d30b	0.00022966803
1	0xbb76f6f9	-0.0037683828
2	0xbab2f01e	-0.0013651883
3	0x33038070	3.0617628e-08
4	0xb429791b	-1.578341e-07
5	0xbb3f4abe	-0.0029188837
6	0x3a0595dd	0.0005095879
7	0x34bf5278	3.5636526e-07
8	0xb5342a58	-6.7116844e-07
9	0x3611ed45	2.1744793e-06
10	0xb2b1c78b	-2.0696254e-08
11	0x3b78a098	0.0037937518
12	0xb2906baf	-1.6812775e-08
13	0x32f50de1	2.8528065e-08
14	0xb4dc1f50	-4.1000976e-07
15	0x3a34d1c4	0.00068977126
16	0x3968ed16	0.00022213566
17	0x33630b37	5.2862756e-08
18	0xb274e6fb	-1.4255188e-08
19	0x3a1736e8	0.00057683745
20	0xb6a07658	-4.7821486e-06
21	0x36aed2bc	5.210137e-06
22	0xb42e44f3	-1.6230096e-07
23	0x3488c66f	2.5476353e-07
24	0xb3b3a500	-8.3653504e-08
25	0x3460e6df	2.0945616e-07
26	0xbb417d80	-0.0029524267
27	0x369584a6	4.4559883e-06
28	0xb29ce940	-1.826686e-08
29	0x3285b8f2	1.5567341e-08
30	0x33b1e9c6	8.284728e-08
31	0x3710b0d5	8.624241e-06
32	0x3597b989	1.1304375e-06
33	0x3607bff3	2.0228297e-06
34	0xb419e0d8	-1.4331033e-07
35	0x359b47ed	1.1569333e-06
36	0xb4879128	-2.5251325e-07
37	0x3bf281f8	0.0074007474
38	0x3b242e58	0.0025052037
39	0x3646f5e0	2.9647417e-06
40	0xb9a5d740	-0.00031631626
41	0x3be8a0ee	0.0070992624
42	0xb2b69968	-2.125735e-08
43	0xbb14f04e	-0.002272624
44	0x3669d9a0	3.484638e-06
45	0x3919c22b	0.0001466355
46	0xb813c43a	-3.523028e-05
47	0x399bd199	0.00029720066
48	0xbb6f1272	-0.00364795
49	0x35c97dc0	1.5012265e-06
50	0x3ac4db90	0.0015019048
51	0x388eb077	6.803957e-05
52	0x3b6ffdc3	0.003661976
53	0x3b04d4c2	0.0020268415
54	0xbaf68b34	-0.0018809796
55	0x35c2cfbd	1.4514586e-06
56	0xbaf5edde	-0.0018762907
57	0x33513ef7	4.871887e-08
58	0xb2909928	-1.6833454e-08
59	0x331bb708	3.6255216e-08
60	0xbb3b6a17	-0.002859717
61	0x373134df	1.0562332e-05
62	0x353cbb17	7.030771e-07
63	0x343c4f5a	1.7537732e-07
64	0xb472659c	-2.2574972e-07
65	0xb98b8389	-0.00026610147
66	0xb6593668	-3.2367188e-06
67	0xb91a5475	-0.00014718047
68	0x39a6d3a4	0.00031819672
69	0x32b9d65b	2.1634312e-08
70	0x330d1490	3.2847822e-08
71	0xb67c4f06	-3.7596924e-06
72	0xb57b303a	-9.3574965e-07
73	0x36871541	4.025788e-06
74	0xb54fbe55	-7.739048e-07
75	0x35a890ec	1.2559153e-06
76	0xb890808a	-6.890397e-05
77	0x3bcbac04	0.006215574
78	0xb58a8a3b	-1.0322032e-06
79	0x3641babb	2.8867933e-06
80	0x3725d4e7	9.884337e-06
81	0x394dd93a	0.00019631247
82	0xb78f5188	-1.7084894e-05
83	0xb9200baf	-0.00015263142
84	0x379320ba	1.7539005e-05
85	0xb9c3aa37	-0.00037320118
86	0xb81b311b	-3.7000613e-05
87	0x3925a6fb	0.00015797831
88	0xbc14bf77	-0.009078852
89	0x3b345126	0.0027514189
90	0x3adcd510	0.0016848166
91	0xba2d6f5b	-0.00066160195
92	0x37666289	1.373201e-05
93	0x3b0ae7d3	0.0021195307
94	0x383f0718	4.5544555e-05
95	0xb8c151c8	-9.21819e-05
96	0x37b2d73b	2.1319478e-05
97	0x3c3bee99	0.01147046
98	0x3796174f	1.7892247e-05
99	0xb8817b37	-6.17415e-05
100	0x392e5a30	0.0001662753
101	0x3b06248e	0.0020468566
102	0x385103b9	4.983295e-05
103	0x38027082	3.1099196e-05
104	0x382ba43c	4.0922532e-05
105	0x3c07ac1a	0.008280778
106	0x39cc1247	0.0003892353
107	0x3b89f90f	0.0042105983
108	0xb9ba0c34	-0.00035485777
109	0xbb132942	-0.0022455011
110	0xb89f9439	-7.6093194e-05
111	0xbc0bd354	-0.008534271
112	0xb9c0f12d	-0.00036800784
113	0xb922355f	-0.00015469406
114	0xb866cf82	-5.502953e-05
115	0x389c2e4b	7.4472824e-05
116	0xbba14f44	-0.0049227793
117	0x3a34d518	0.00068982085
118	0xbb6f7986	-0.003654094
119	0x394432a5	0.00018710883
120	0x33a31c89	7.5954695e-08
121	0x320e6e1d	8.290525e-09
122	0xb293ec39	-1.7220474e-08
123	0x332bed33	4.002977e-08
124	0xb47b07af	-2.3378992e-07
125	0x3c0e5633	0.008687544
126	0x398359f6	0.00025053293
127	0x3c0d3c65	0.008620356
128	0x3b33e1a4	0.0027447725
129	0x36ce0280	6.1395695e-06
130	0xb7e79434	-2.7606358e-05
131	0x33763d74	5.733223e-08
132	0xb7297d7e	-1.0102403e-05
133	0x32b68e01	2.1252164e-08
134	0x3a44e1a4	0.000751043
135	0xb7f238ac	-2.8875038e-05
136	0x3b3b4311	0.002857391
137	0x339a3325	7.180487e-08
138	0x3be707e8	0.007050503
139	0x330b6ee1	3.2464303e-08
140	0xb675ea68	-3.6644287e-06
141	0x36e68d7f	6.8710065e-06
142	0xb78a0646	-1.6453803e-05
143	0x3448119c	1.8632858e-07
144	0xb3eb4a07	-1.0956506e-07
145	0x3745fd2e	1.1801063e-05
146	0xb5d5b204	-1.5921546e-06
147	0x3bac4bca	0.005258058
148	0x3c151749	0.00909979
149	0x33062841	3.1235917e-08
150	0x3a9a417a	0.0011768781
151	0xb45eada3	-2.073853e-07
152	0x3c241233	0.010014105
153	0x38a57fc1	7.891609e-05
154	0x3b9825cb	0.004643177
155	0x38cee5c1	9.8656405e-05
156	0xbbf3d857	-0.007441561
157	0xba421890	-0.0007404173
158	0xb5bfe048	-1.4295883e-06
159	0x36148f43	2.2137108e-06

lstm.weight_hh_l0 f4 [80, 20]
0	0x3a03e784	0.0005031752
1	0xbb83fb45	-0.0040277564
2	0xb9bc55fe	-0.00035922223
3	0x309f85d0	1.1606804e-09
4	0xb7e3796f	-2.7117056e-05
5	0xaf33aa22	-1.6340398e-10
6	0xb7b3a5a7	-2.14156e-05
7	0xb0a89a17	-1.2267404e-09
8	0x3aabf74b	0.0013119964
9	0xb084c7e7	-9.66108e-10
10	0xb1c86e4e	-5.8333063e-09
11	0x37af4968	2.0895808e-05
12	0xb853f8fd	-5.053821e-05
13	0xbb8b8e21	-0.0042588864
14	0x38be26c2	9.067125e-05
15	0x3bfb4e0a	0.007669215
16	0xb1868112	-3.914587e-09
17	0xbc164764	-0.009172294
18	0xb91facf8	-0.00015227858
19	0x3175b5a1	3.5755436e-09
20	0x39435fa2	0.00018632275
21	0x3bc356e9	0.005961288
22	0x3bb2f9f4	0.0054619256
23	0x31abcfaf	5.000366e-09
24	0x3bae13c5	0.0053124153
25	0x2ff4e8c9	4.4548745e-10
26	0x394a1023	0.00019270233
27	0xb19be731	-4.537377e-09
28	0xb1e7af16	-6.74289e-09
29	0xb34eaebe	-4.812204e-08
30	0xb2dca8c3	-2.5688115e-08
31	0x324d744a	1.1959012e-08
32	0x3b4e2074	0.003145245
33	0x3c0e2615	0.008676072
34	0x33e058ec	1.04469876e-07
35	0xb14b8015	-2.9613194e-09
36	0xba59dd87	-0.0008310903
37	0x33d84370	1.00705506e-07
38	0x3bc4b648	0.006003175
39	0xbac7186b	-0.0015189772
40	0xaff573ee	-4.4647613e-10
41	0x3aae14b1	0.0013281313
42	0xb1abdc38	-5.001791e-09
43	0x32139a21	8.591571e-09
44	0x329e64fd	1.8439545e-08
45	0x33cb48b6	9.46615e-08
46	0xb16bc6d4	-3.4310021e-09
47	0xb21f69de	-9.2790895e-09
48	0xba464cb2	-0.0007564529
49	0xb804a873	-3.1628133e-05
50	0xba84c56d	-0.0010129638
51	0x32c0d072	2.2446532e-08
52	0xb20ccc5c	-8.1955385e-09
53	0x39d3960e	0.00040356856
54	0x3165c5f1	3.3436403e-09
55	0xb1d10d3b	-6.0842047e-09
56	0x3bba34eb	0.005682578
57	0xbae62808	-0.0017559538
58	0xb277df16	-1.4428016e-08
59	0x33880875	6.334532e-08
60	0xb1a9bfbf	-4.9403464e-09
61	0x3aab3b75	0.0013063984
62	0xb4d0557b	-3.8805214e-07
63	0xbbed34b0	-0.007238947
64	0x3c063d61	0.008193345
65	0xba9b847d	-0.0011865046
66	0xba24dc92	-0.0006288971
67	0x3722702f	9.682072e-06
68	0xb38c40cb	-6.531044e-08
69	0xb23604ea	-1.0594912e-08
70	0x3aecf3dd	0.0018078048
71	0x3b6b82ac	0.003593604
72	0x3b9cc531	0.0047842492
73	0x39ba03b8	0.00035479455
74	0x3210d72f	8.43083e-09
75	0xb2fd6cae	-2.9502498e-08
76	0x3bf6b05c	0.007528348
77	0xbb1b630f	-0.0023710167
78	0xb38ca9ec	-6.5501666e-08
79	0xb5d91f69	-1.6176901e-06
80	0xb2cde2fb	-2.396836e-08
81	0x3938f345	0.00017638232
82	0x3afa2c94	0.0019086772
83	0x3b5e05c5	0.003387795
84	0x358a7f2e	1.0318815e-06
85	0xbbae3566	-0.005316424
86	0xbbb15d53	-0.0054127364
87	0xb45fb8af	-2.0835681e-07
88	0xb517de5d	-5.6575465e-07
89	0xbba9be1c	-0.0051801335
90	0xbbab6d0e	-0.005231506
91	0x34fac920	4.6712466e-07
92	0x3bfa7c08	0.00764418
93	0xb946edcb	-0.00018971336
94	0x33f0e70c	1.1217898e-07
95	0xba3dfa35	-0.00072470616
96	0x3a79fb61	0.00095360546
97	0x35012a92	4.811819e-07
98	0xb51ad3a4	-5.767745e-07
99	0xbb0b9e35	-0.0021304016
100	0xba28c548	-0.00064380886
101	0x30c9a0f3	1.4670419e-09
102	0xb777dffd	-1.4774499e-05
103	0x31ae37a0	5.0703903e-09
104	0x3293587e	1.7153294e-08
105	0x311098b3	2.1041557e-09
106	0xbbe20aed	-0.006898275
107	0x39008b10	0.00012258836
108	0x3a4d165e	0.00078234624
109	0x2f75c598	2.235282e-10
110	0xb2e89695	-2.7076831e-08
111	0xbaa0a33c	-0.0012255679
112	0xb1693047	-3.3933405e-09
113	0x32b70369	2.1305555e-08
114	0x312f39c5	2.549869e-09
115	0x39115b77	0.00013862351
116	0x3b8b24c0	0.0042463243
117	0xbbe1e8d8	-0.006894212
118	0xb1235db7	-2.3772893e-09
119	0x3287e863	1.5821746e-08
120	0xafd221ff	-3.8222933e-10
121	0x30952fc7	1.0854756e-09
122	0xb10860a5	-1.984554e-09
123	0x31d4e718	6.1962844e-09
124	0xbc09d03f	-0.008411466
125	0xb00e0c2b	-5.167659e-10
126	0x3a6fec4a	0.0009152336
127	0xb1c7bb7d	-5.812977e-09
128	0xb10cfe4e	-2.0517237e-09
129	0x309da374	1.146971e-09
130	0xb2c3eec0	-2.2809559e-08
131	0x31d9eb92	6.3423125e-09
132	0x35384642	6.864758e-07
133	0x32bd602a	2.2046226e-08
134	0x3217ea73	8.842664e-09
135	0xbb7c9a37	-0.0038544068
136	0x3ba42289	0.0050089997
137	0x32267e83	9.691237e-09
138	0xb1b3f819	-5.237791e-09
139	0x330686d4	3.132193e-08
140	0xb6f931b0	-7.4265627e-06
141	0xbbfe394b	-0.0077582947
142	0xb33677ae	-4.2484025e-08
143	0x33ff0f8c	1.1877191e-07
144	0xbb18ceb1	-0.0023316557
145	0xbb947852	-0.004530945
146	0xb27e9cd6	-1.4820406e-08
147	0x3bf1ea71	0.007382684
148	0xb3ba4731	-8.6742496e-08
149	0xb28ac1fe	-1.6153532e-08
150	0x395a4fbc	0.00020819803
151	0xb7f5c3dc	-2.929748e-05
152	0x380cc65b	3.3563334e-05
153	0x3a12bf2a	0.00055979437
154	0xbb995ee8	-0.004680503
155	0xb2cb7ad2	-2.3688163e-08
156	0xb4509ced	-1.9428599e-07
157	0xbb624b1b	-0.003452963
158	0xb44bf8cf	-1.8996364e-07
159	0x3447e029	1.8614868e-07
160	0xb0092d80	-4.990497e-10
161	0x310bcc15	2.034317e-09
162	0xb5a030fd	-1.1935186e-06
163	0xbba9bd2e	-0.0051800227
164	0x3902b1cc	0.00012464
165	0x2e9f4177	7.242112e-11
166	0xb14a7a7a	-2.9464489e-09
167	0x38200a75	3.815671e-05
168	0x3bfe100c	0.007753378
169	0xb0d78f30	-1.5684005e-09
170	0x3b63b53b	0.0034745473
171	0x320f654f	8.34673e-09
172	0xbad3201f	-0.0016107595
173	0x33374760	4.2672923e-08
174	0x311576a6	2.1749798e-09
175	0xb285c6e7	-1.5573688e-08
176	0xb2ced4da	-2.407835e-08
177	0x390c430d	0.00013376419
178	0xb1adce7b	-5.058437e-09
179	0x32a81320	1.9566471e-08
180	0xb5d701f3	-1.6019316e-06
181	0x380340b8	3.1293108e-05
182	0xb5e835fc	-1.7301059e-06
183	0x3be66df6	0.0070321513
184	0x3284276e	1.5384753e-08
185	0xb1fa3387	-7.2818156e-09
186	0xba679f10	-0.0008835653
187	0xb1bc9e03	-5.489484e-09
188	0x38f2ebea	0.00011583402
189	0xb06be6e3	-8.582061e-10
190	0x3c0ba597	0.008523366
191	0x321e83a4	9.226742e-09
192	0xbb138874	-0.0022511752
193	0x3268e641	1.3556531e-08
194	0x3152d9d4	3.0682843e-09
195	0x396f0393	0.00022794148
196	0xb2826872	-1.5181488e-08
197	0xba820a71	-0.0009921325
198	0x33a4c885	7.6733194e-08
199	0xbb5785ad	-0.0032886073
200	0x3299f2dd	1.7921986e-08
201	0x34a239a1	3.0216782e-07
202	0xb7cab39c	-2.4163914e-05
203	0x355ba3d4	8.182226e-07
204	0xbb1bcc37	-0.0023772845
205	0xb41584c0	-1.3925e-07
206	0xb498c1cf	-2.845322e-07
207	0xb52a42fe	-6.342742e-07
208	0xb52028f0	-5.9664217e-07
209	0x3a76d022	0.00094151695
210	0xb6e2769e	-6.7491337e-06
211	0x3a36f2bf	0.0006978921
212	0xbc06369a	-0.008191729
213	0x365e3978	3.311403e-06
214	0x3b27b0c9	0.002558755
215	0x3973f7df	0.00023266625
216	0xb922e64b	-0.00015535315
217	0x35742ce7	9.0962425e-07
218	0xba2268ce	-0.00061954267
219	0x3c18d782	0.009328725
220	0xba64f4ab	-0.0008733968
221	0x32248990	9.5773345e-09
222	0xb2966fcb	-1.7513136e-08
223	0x330338e9	3.0552574e-08
224	0xb9b29828	-0.0003406417
225	0xb1823fc6	-3.790748e-09
226	0xb8f37078	-0.00011608092
227	0xba933942	-0.0011232274
228	0xb293194d	-1.7124558e-08
229	0xb1c558f2	-5.7435665e-09
230	0xb406eba6	-1.2565451e-07
231	0x3369ba47	5.441896e-08
232	0xb2688d33	-1.3536282e-08
233	0xbba1a7e0	-0.0049333423
234	0x325d0b73	1.2866496e-08
235	0x3bbc5317	0.00574721
236	0xb64182c5	-2.883536e-06
237	0x3a837e05	0.0010032064
238	0x38c467b5	9.365325e-05
239	0xba121deb	-0.0005573916
240	0xb14f096f	-3.0127827e-09
241	0x3ba8482f	0.005135558
242	0xb2914c82	-1.6915013e-08
243	0x32f99122	2.9053414e-08
244	0x3a9902d4	0.0011673816
245	0xb18875c9	-3.9715116e-09
246	0x3b3954b9	0.0028279258
247	0xbbe4beb7	-0.006980743
248	0xb79c00f5	-1.8597095e-05
249	0xbbe94a1c	-0.00711943
250	0xb976121d	-0.00023467136
251	0xba753912	-0.00093545124
252	0xbb218c07	-0.0024650113
253	0x3396a2df	7.0145454e-08
254	0x324b2525	1.1824601e-08
255	0x3be63c9e	0.007026269

lstm.bias_ih_l0 f4 [80]
0	0xb7d61cbd	-2.552417e-05
1	0x3998a880	0.00029117242
2	0x3639736f	2.763434e-06
3	0x386f4d4e	5.7054036e-05
4	0x38b157be	8.456361e-05
5	0x3a3bd2e5	0.00071649096
6	0x39bf85c8	0.00036530034
7	0x3abab7ff	0.0014245509
8	0x365a591d	3.2536402e-06
9	0xbc03c025	-0.008041416
10	0x3a4e65f7	0.00078734703
11	0x370e54ad	8.483575e-06
12	0x3ae96744	0.0017807265
13	0x39420a67	0.00018505157
14	0x3bbddc6b	0.005794098
15	0xb63ca5f6	-2.8110785e-06
16	0x386fc051	5.716115e-05
17	0xb9086aef	-0.00013009807
18	0x37c9d23b	2.4058963e-05
19	0xb93036c3	-0.00016805068
20	0x3c08d339	0.008351141
21	0x3590bd3f	1.0783914e-06
22	0x378c7c45	1.6747168e-05
23	0x3b041467	0.0020153762
24	0x382a041c	4.0534986e-05
25	0x3b3253d9	0.0027210622
26	0xb8807209	-6.124756e-05
27	0x37dab683	2.6072614e-05
28	0x3684cd3a	3.957798e-06
29	0x35829167	9.728072e-07
30	0x3bd37590	0.0064532235
31	0xbabf6b74	-0.0014604167
32	0x36b9f1db	5.5415853e-06
33	0x38b9f4a5	8.867056e-05
34	0x36e74e62	6.8934614e-06
35	0xb6229d25	-2.4231351e-06
36	0x3beb5f3a	0.0071829828
37	0x372e7c49	1.0400146e-05
38	0x37ce0ee9	2.4564057e-05
39	0x38cdaf9c	9.8078715e-05
40	0xba2e1c34	-0.0006641776
41	0x3a87a7ec	0.0010349727
42	0xbae2e633	-0.0017311036
43	0x3b4172d2	0.00295179
44	0x3c017454	0.00790127
45	0xbb1d9bc4	-0.0024049142
46	0xba8fe0a7	-0.0010976986
47	0xbb94479a	-0.004525137
48	0xba56eb61	-0.00081985263
49	0xbacca836	-0.0015614096
50	0xbc9a99f1	-0.018872233
51	0x3c610e5f	0.0137363365
52	0xbb18931c	-0.0023281043
53	0x3c02ccc7	0.007983393
54	0x3a4b43b2	0.0007753923
55	0xbb60bb87	-0.0034291463
56	0xbcb156e3	-0.021647876
57	0x3b81c9d1	0.003960826
58	0xbc127006	-0.008937841
59	0x3c2d8834	0.010591555
60	0x34109526	1.3465305e-07
61	0x3bad617f	0.0052911635
62	0xb841baa4	-4.618861e-05
63	0x37eef1b3	2.848436e-05
64	0xbbbe03ef	-0.0057988088
65	0x35cacbba	1.5109465e-06
66	0xba90dd3e	-0.0011052263
67	0xb8c10ffd	-9.205935e-05
68	0x3bf1d2ff	0.007379889
69	0x3592c7cb	1.0935995e-06
70	0x39aa9aeb	0.0003254035
71	0xbb831ea9	-0.0040014577
72	0x36ebefa7	7.031445e-06
73	0x38ea8a89	0.00011183794
74	0x34f30efe	4.5273185e-07
75	0xb6358657	-2.7049298e-06
76	0x388a3428	6.590068e-05
77	0x37b76435	2.1861963e-05
78	0x3ba95687	0.0051677856
79	0x38c937f6	9.5948504e-05

lstm.bias_hh_l0 f4 [80]
0	0xbae833ed	-0.001771567
1	0x35987023	1.1357519e-06
2	0xbb33c18e	-0.00274286
3	0x371560a7	8.903596e-06
4	0x381610a8	3.57783e-05
5	0x35a6f40a	1.2438989e-06
6	0x3bdbe993	0.006711194
7	0x37827392	1.5551024e-05
8	0x3806a7c9	3.210435e-05
9	0x35913d4d	1.0821183e-06
10	0xbb9d0166	-0.0047914265
11	0x36fa84f9	7.4660607e-06
12	0x36eaaf45	6.9941475e-06
13	0x38db1d1f	0.00010448158
14	0x3c13f0ff	0.009029626
15	0xb69633d6	-4.476383e-06
16	0x3884062b	6.295399e-05
17	0x3707bfb6	8.091263e-06
18	0x37a56aaa	1.9719202e-05
19	0x38cbd8ab	9.720152e-05
20	0x3c050707	0.008119351
21	0x358eb173	1.0631469e-06
22	0x3692ae61	4.3714394e-06
23	0x36fbced6	7.504462e-06
24	0x3847089b	4.745331e-05
25	0xbadfbf64	-0.0017070589
26	0x3a10ecf0	0.00055284705
27	0x374b4b77	1.2117313e-05
28	0x36ec1a19	7.0363863e-06
29	0x3581d2a1	9.67255e-07
30	0x3956522f	0.00020439246
31	0x3872acce	5.7858233e-05
32	0x370477ba	7.895689e-06
33	0x38a5cfd0	7.906521e-05
34	0x3b80a159	0.003925484
35	0xb637cd5b	-2.7388658e-06
36	0x3c29fdf5	0.0103754895
37	0xbb0dddce	-0.0021647098
38	0xba25081c	-0.0006295459
39	0xba4fecba	-0.00079316983
40	0xb990bfd3	-0.0002760874
41	0x3a8db9fb	0.0010812873
42	0xbb2fccdc	-0.0026824987
43	0x3b97ea46	0.004636082
44	0x3c7e6d6d	0.015529019
45	0x3a93365c	0.001123141
46	0xbaa71400	-0.0012747049
47	0xbb81b8dd	-0.003958805
48	0xbb96dc07	-0.004603866
49	0xb8f00acc	-0.00011446103
50	0xbc9a742a	-0.01885422
51	0x3a7e149b	0.00096924015
52	0xbb3c0eb7	-0.0028695294
53	0x3c963393	0.01833514
54	0x3ae05706	0.0017115779
55	0x398ff054	0.00027454144
56	0xbb9fae12	-0.0048730457
57	0x3b8d64a3	0.0043149753
58	0xbb874ee4	-0.0041292775
59	0x3c6e9dfe	0.014564035
60	0x347355fb	2.2662418e-07
61	0x383e9b86	4.5444373e-05
62	0xbbb23ddb	-0.0054395027
63	0x373ce5c9	1.1259174e-05
64	0x38493b44	4.797733e-05
65	0xbc12ce15	-0.008960267
66	0x357688dc	9.18413e-07
67	0x37ea7f6b	2.7954307e-05
68	0x36d54814	6.3562857e-06
69	0x3592d00f	1.0938401e-06
70	0x3a79c06d	0.000952727
71	0x386100b2	5.3644828e-05
72	0xbbc8b526	-0.00612511
73	0x38c080bb	9.179251e-05
74	0x357eb7ca	9.488982e-07
75	0xba076224	-0.00051644654
76	0xbbafaf4f	-0.0053614746
77	0x37888a2c	1.6276805e-05
78	0x3ac884c0	0.0015298352
79	0x38ce60bd	9.8408644e-05

lstm.weight_ih_l1 f4 [80, 20]
0	0xb6c69475	-5.9181425e-06
1	0x3b17ac05	0.0023143303
2	0xb85341dd	-5.036766e-05
3	0xb9bcbecf	-0.00036000318
4	0x395943da	0.0002072001
5	0x36e4f52b	6.823471e-06
6	0xba7a9a7e	-0.00095597643
7	0xb8fc3669	-0.00012026431
8	0xb86c13e7	-5.628532e-05
9	0xba0f4e5a	-0.00054666924
10	0xb968ed67	-0.00022213683
11	0x39406850	0.00018349406
12	0x3b6dcedc	0.0036286628
13	0x3972d28f	0.00023157358
14	0x37c4d2b8	2.3463144e-05
15	0xb83b60dd	-4.4674485e-05
16	0xba440079	-0.0007476877
17	0xbbf07e48	-0.0073392726
18	0xb92b22fa	-0.0001632086
19	0x396228ef	0.00021568289
20	0xb781d59b	-1.5477466e-05
21	0xbc0030f9	-0.007824176
22	0xbbe9e232	-0.0071375603
23	0xbac43e0d	-0.0014972106
24	0x3a032e43	0.0005004147
25	0x3ac75d81	0.0015210361
26	0xb84ea787	-4.927025e-05
27	0xb923e1d6	-0.00015629022
28	0xb90861f9	-0.00013006468
29	0xb7d398ae	-2.5224257e-05
30	0xb86fbec9	-5.7159723e-05
31	0x39883772	0.0002598125
32	0xb8b825e9	-8.780865e-05
33	0x3a086d53	0.0005204279
34	0xba0dc738	-0.0005408409
35	0xb85404ad	-5.0549093e-05
36	0xba359535	-0.00069268356
37	0xbb9cf6b0	-0.0047901496
38	0x38604a35	5.3474872e-05
39	0x39e773d3	0.0004414605
40	0xb799d501	-1.8338209e-05
41	0x386cae57	5.642915e-05
42	0xb96fdfe0	-0.00022876216
43	0x39882fab	0.00025975457
44	0x3a6aa652	0.0008951175
45	0x3963aa0c	0.00021711754
46	0xb8a4b83a	-7.854444e-05
47	0xb9377cf4	-0.00017498789
48	0x3b40edf4	0.0029438706
49	0xb818f7cf	-3.6470414e-05
50	0xba889b60	-0.0010422282
51	0x3a189ef5	0.0005822026
52	0xbb98e7db	-0.004666311
53	0x3a825b78	0.0009945473
54	0x393fc961	0.00018290199
55	0x3b7d10c6	0.0038614734
56	0xba52b417	-0.00080377
57	0x396edf76	0.00022780694
58	0xba008bdf	-0.0004903655
59	0x3a65cfe2	0.00087666337
60	0xb7d44752	-2.530558e-05
61	0x38817d63	6.1745544e-05
62	0xb93ed6f2	-0.00018199885
63	0x398f48df	0.0002732938
64	0x3aa0bcf0	0.0012263339
65	0xb721f0ef	-9.6524445e-06
66	0xb8847d29	-6.3175634e-05
67	0x3b95e136	0.0045739664
68	0x3bce87ad	0.006302795
69	0xb836bad6	-4.3566186e-05
70	0xbaab5de1	-0.0013074243
71	0x39cf638d	0.00039556288
72	0x3a0c4101	0.00053502625
73	0xb9ce6c47	-0.00039372055
74	0x39893fe6	0.00026178284
75	0xb94fc5c6	-0.00019814735
76	0xba30fdf0	-0.0006751707
77	0x39a1ed8c	0.000308853
78	0xb9dad544	-0.00041739095
79	0x3af279b5	0.0018499406
80	0xb79be976	-1.8586154e-05
81	0x385ad05e	5.2169307e-05
82	0xbbf7ce25	-0.007562416
83	0xba97a066	-0.0011568188
84	0x3a28c7f0	0.00064384844
85	0x39f05cb5	0.0004584544
86	0xb8926313	-6.9802765e-05
87	0xb9654237	-0.00021863809
88	0x3b337bdf	0.0027387065
89	0xb814f3dd	-3.5513065e-05
90	0x3ad3373f	0.0016114487
91	0x3bd5be1b	0.0065229065
92	0xb87f3814	-6.0848964e-05
93	0xbb564019	-0.0032692014
94	0x392c888f	0.0001645407
95	0xbb72a4fa	-0.0037024603
96	0xba5e3b0f	-0.00084774283
97	0xb8ceb0b8	-9.855762e-05
98	0xb9b13854	-0.00033802039
99	0x3a16de15	0.00057551387
100	0xb7dace76	-2.6083766e-05
101	0x3855c247	5.0964092e-05
102	0xb91f3b00	-0.00015185401
103	0x397c9109	0.00024086623
104	0x3b3a4a50	0.0028425641
105	0xb80d3fd5	-3.3676468e-05
106	0xb8e63b6d	-0.000109783236
107	0xb9ebd375	-0.0004498024
108	0xb935e9e6	-0.00017348639
109	0xbb9a7385	-0.004713478
110	0xba7d87f3	-0.0009671442
111	0x39f5796e	0.00046820514
112	0x3aa9ba8f	0.0012949276
113	0x3a60670a	0.0008560276
114	0x3b9bf56a	0.0047594802
115	0xb91e7e03	-0.00015114997
116	0xba4ee835	-0.0007892878
117	0x3b7aac34	0.0038249614
118	0xba6bda27	-0.0008997046
119	0x3a5f92f7	0.00085286744
120	0xb656aaa3	-3.1987809e-06
121	0xb934f2ff	-0.00017256661
122	0xb7ddacac	-2.642566e-05
123	0x3801324e	3.0802847e-05
124	0xb9337608	-0.0001711474
125	0xb5b63285	-1.357476e-06
126	0xb73d7936	-1.12934995e-05
127	0x39940306	0.00028231012
128	0xb7d1dfec	-2.5019013e-05
129	0xb685a2a7	-3.982644e-06
130	0xbb453a9c	-0.0030094748
131	0x38ba01dd	8.869518e-05
132	0xba019522	-0.0004943182
133	0x390c8265	0.00013400016
134	0x3b333c3e	0.002734914
135	0xb80eca4f	-3.4043853e-05
136	0xb8f2efc9	-0.00011584123
137	0x3a483d8b	0.0007638565
138	0x3929bfc6	0.00016188537
139	0x38f96d29	0.00011893578
140	0xb4568330	-1.9978029e-07
141	0x350e24e0	5.295278e-07
142	0xb930cb30	-0.00016860361
143	0xb8b265e2	-8.5066786e-05
144	0xbabd31f4	-0.0014434443
145	0xb499353d	-2.8537207e-07
146	0xb53717d2	-6.8207476e-07
147	0xbbdf1e4e	-0.0068090325
148	0xb52b7994	-6.3879384e-07
149	0x3943fc57	0.00018690653
150	0x3c1c5bd5	0.009543379
151	0x3680592c	3.8250782e-06
152	0x3b5ded5b	0.0033863399
153	0x370ceee4	8.400271e-06
154	0x35543600	7.9054735e-07
155	0xbaf9a8da	-0.0019047514
156	0xb6f8cecc	-7.4150503e-06
157	0xbbfe70db	-0.0077649183
158	0xb640a42e	-2.8705795e-06
159	0xbbcf68f3	-0.0063296496
160	0xb8756e0b	-5.8515037e-05
161	0xb9a323e4	-0.00031116523
162	0xb9290cf2	-0.00016121918
163	0x3962119b	0.00021559598
164	0x39f570b2	0.00046814006
165	0x3b49dbfb	0.0030801285
166	0xb860cb4f	-5.3595108e-05
167	0xb922ae82	-0.00015514533
168	0xb90d67c6	-0.00013485466
169	0xbbbbd28a	-0.0057318853
170	0xbb0617f6	-0.002046106
171	0x3ba25c24	0.0049548317
172	0xbac52d41	-0.0015043394
173	0x3a2a7104	0.0006501826
174	0x38cc8870	9.7528915e-05
175	0xb88202b3	-6.199386e-05
176	0xb9d2cf84	-0.00040208932
177	0x392c253a	0.00016417066
178	0xb9802d2f	-0.00024447727
179	0x39b8191d	0.00035113926
180	0xb79a8374	-1.8419443e-05
181	0x3872c199	5.7877598e-05
182	0xb8dcb386	-0.00010523856
183	0x39bd1644	0.00036065478
184	0x3a1c5597	0.00059636816
185	0x37a6c25c	1.9879248e-05
186	0xb883af56	-6.2792256e-05
187	0xb9a3efce	-0.0003126845
188	0xb917aed9	-0.00014465618
189	0xb81f2525	-3.7943148e-05
190	0xba80e61a	-0.0009834201
191	0xbbc84559	-0.0061117825
192	0x3b9cd29a	0.004785848
193	0x3a1b4ad9	0.0005923934
194	0x3948311c	0.00019091781
195	0xb7d5c494	-2.5483117e-05
196	0xbb96bb6d	-0.0045999796
197	0xbba755aa	-0.0051066475
198	0xb9c58778	-0.000376757
199	0x3ac00d0e	0.0014652328
200	0xb782e878	-1.560546e-05
201	0x381d0e92	3.7445287e-05
202	0xb8a17f2a	-7.7007644e-05
203	0x3957e5ae	0.0002058956
204	0x3c126284	0.008934621
205	0x36bfe9a0	5.719441e-06
206	0xb8465a5b	-4.729103e-05
207	0xb97b571e	-0.00023969679
208	0x3ab65d49	0.0013913299
209	0xb7b46fe4	-2.1509775e-05
210	0xba4d1057	-0.0007822564
211	0xba9fb3ba	-0.00121843
212	0xb8d082fe	-9.942612e-05
213	0x3a15846f	0.0005703633
214	0x388b5273	6.643394e-05
215	0xb9356329	-0.00017298445
216	0xbc01531f	-0.007893353
217	0x39361b6f	0.00017367092
218	0xb987a305	-0.00025870666
219	0x3c330a52	0.0109277535
220	0xbb81497f	-0.003945529
221	0x388ad5d5	6.620182e-05
222	0xb998f515	-0.000291743
223	0x39bc1054	0.0003587032
224	0x3a1e6c76	0.00060433836
225	0x37a22d2d	1.9332942e-05
226	0xb90acbd4	-0.00013236637
227	0xba36d2d2	-0.00069741637
228	0xb936acfd	-0.00017421316
229	0xbc05926e	-0.008152587
230	0xbc393171	-0.011303292
231	0x39fa4032	0.00047731545
232	0xb915b881	-0.0001427848
233	0x3a751478	0.00093490584
234	0x38bf6613	9.1266025e-05
235	0x3ae181da	0.0017204836
236	0xba722ae0	-0.0009237956
237	0x3baad6ef	0.0052136104
238	0x3bad9731	0.0052975644
239	0x3a3453de	0.0006878952
240	0xb6ce45a0	-6.147384e-06
241	0x3c0c4f0d	0.008563769
242	0xb8a3dd8a	-7.8137105e-05
243	0x3a7ffcc4	0.0009765143
244	0x39ce7cb2	0.00039384287
245	0xbbfd6de5	-0.0077340477
246	0x39917334	0.00027742388
247	0x3c1620fd	0.009163138
248	0xb8f0f0f3	-0.00011488972
249	0x3748f0dc	1.1977008e-05
250	0x3bac8ffa	0.005266187
251	0x39617548	0.00021501363
252	0x3b9b0445	0.0047307336
253	0x3a06a060	0.0005135592
254	0x38be4ec4	9.074577e-05
255	0x3ad2febb	0.0016097644

lstm.weight_hh_l1 f4 [80, 20]
0	0xb9ebe3c2	-0.00044992386
1	0xb9fd1b42	-0.0004827623
2	0xbba7d552	-0.0051218653
3	0xbb4408f6	-0.0029912568
4	0xbc092b6e	-0.008372171
5	0xbbc1fd1f	-0.005920067
6	0x3b00415d	0.001957021
7	0x39608e43	0.00021415301
8	0x3a89dee2	0.0010518695
9	0xbbb44ae0	-0.00550209
10	0x3b91267f	0.004429638
11	0x3bc5cc7f	0.0060363407
12	0xbb851fd8	-0.004062634
13	0xbb3a15ce	-0.0028394344
14	0x3b992482	0.0046735415
15	0x3b8fb047	0.0043850276
16	0xbb9ee06d	-0.004848531
17	0xbbdfcc49	-0.0068297726
18	0x3bcaaaa5	0.006184893
19	0x37cdae4e	2.4519071e-05
20	0x3ba00845	0.0048837983
21	0xbc0a860f	-0.008454814
22	0xbc465900	-0.01210618
23	0x3c42d2c6	0.011891073
24	0xbc2b50c7	-0.010456271
25	0xbc5b0377	-0.013367525
26	0x3b71eae9	0.00369137
27	0x3a3e9e26	0.0007271491
28	0x3bf5fd2b	0.0075069866
29	0xbc7799ea	-0.01511238
30	0x3c8a9273	0.016915536
31	0x3c5bdf1f	0.013419895
32	0xbc478e89	-0.012179979
33	0xbbc131d9	-0.005895835
34	0x3c25b52c	0.0101139955
35	0x3c19f6c2	0.009397211
36	0xbc283853	-0.010267335
37	0xbb8cdca7	-0.0042987647
38	0x3c461276	0.012089362
39	0x3c099106	0.008396393
40	0x3c05a863	0.008157822
41	0xbc412535	-0.011788656
42	0xbb72d2dd	-0.0037051954
43	0x3c6245e5	0.0138106095
44	0xbc6c81fd	-0.0144352885
45	0xbc93500a	-0.017982502
46	0x3bc19299	0.0059073684
47	0x3a852d56	0.0010160606
48	0x3c5c4c00	0.013445854
49	0xbc81d756	-0.01584975
50	0x3c4b338b	0.0124024255
51	0x3c876f7d	0.016532654
52	0xbc4d79e5	-0.012541269
53	0xbc096863	-0.008386704
54	0x3c570a29	0.013124981
55	0x3c546f7d	0.012966034
56	0xbc6ed685	-0.014577513
57	0xbbe1736b	-0.006880214
58	0x3c8c6ae2	0.01714081
59	0x3c9bf045	0.019035468
60	0x3c1f4c5b	0.009722794
61	0xbc692325	-0.0142295705
62	0xbc857038	-0.016288862
63	0x3cb2dd27	0.02183397
64	0xbc9f6e4e	-0.019461777
65	0xbc9c230b	-0.019059679
66	0x3be5ac31	0.007009052
67	0x39def549	0.0004252589
68	0x3c731f94	0.014839072
69	0xbc9a29d2	-0.01881877
70	0x3c7b42d1	0.0153357545
71	0x3ca07b2c	0.019589983
72	0xbc8c8e5e	-0.01715773
73	0xbc220828	-0.00988964
74	0x3c80360d	0.015650773
75	0x3c83b49c	0.016077332
76	0xbc97de50	-0.018538624
77	0xbbb2783b	-0.0054464615
78	0x3cbced7d	0.023062462
79	0x3c5af281	0.0133634815
80	0x3bf4e231	0.007473253
81	0xbc3dad5a	-0.011576975
82	0xbc688702	-0.014192345
83	0x3c867d99	0.016417312
84	0xbc65ac24	-0.014018092
85	0xbca1d377	-0.019754155
86	0xbbaca153	-0.005268255
87	0x38dd0b1a	0.00010540169
88	0x3c24c169	0.010055878
89	0xbc693235	-0.014233162
90	0x3c3cbd5e	0.011519758
91	0x3c7ee2a4	0.015556965
92	0xbc337b0b	-0.010954629
93	0xbc00d85f	-0.007864087
94	0x3c399882	0.011327865
95	0x3c9561ab	0.018235048
96	0xbc629065	-0.013828372
97	0xbc55eb84	-0.01305664
98	0x3cacdcb7	0.021101339
99	0x3c2e06b5	0.010621716
100	0x3c21ea21	0.009882481
101	0xbc4f9806	-0.012670523
102	0xbc90000b	-0.017578145
103	0x3ccfc15e	0.02536076
104	0xbc8d3228	-0.01723583
105	0xbcade0df	-0.021225391
106	0x3beb30eb	0.0071774623
107	0x3a933de6	0.0011233657
108	0x3c7996ba	0.01523369
109	0xbc9f870d	-0.019473577
110	0x3c7d3938	0.015455537
111	0x3cb4ff03	0.022094255
112	0xbc74a493	-0.014931816
113	0xbc249296	-0.010044714
114	0x3c90b85c	0.017666034
115	0x3c692648	0.014230318
116	0xbc9b8140	-0.01898253
117	0xbbf6afaf	-0.0075282673
118	0x3cc05d25	0.023481915
119	0x3c63717e	0.013882039
120	0x3aa16eec	0.0012316382
121	0xbafdbca8	-0.0019358592
122	0xbc23d65f	-0.0099998405
123	0x3b3418b7	0.0027480552
124	0xbac8ee81	-0.0015329869
125	0x3b67e43b	0.0035383839
126	0x3b25f2d8	0.0025321748
127	0xbc1a15a3	-0.009404573
128	0x3aff6965	0.0019486366
129	0x3bca793c	0.006179003
130	0x3b00958f	0.0019620394
131	0xba658dd8	-0.0008756793
132	0xba8b398b	-0.0010622008
133	0xbb246663	-0.0025085441
134	0xbb25dfb1	-0.0025310332
135	0x3b04d9c6	0.0020271405
136	0x3b6ea635	0.0036414985
137	0x3b79a05e	0.003808997
138	0x3b3925cc	0.0028251288
139	0x3b4060a0	0.0029354468
140	0x3b9f3e05	0.004859688
141	0x3be3cdc7	0.006952021
142	0xb8e32e1d	-0.00010832793
143	0x3936e071	0.00017440483
144	0xbb70268c	-0.003664407
145	0xb934c126	-0.00017238091
146	0xbb1cb119	-0.002390927
147	0x37356aca	1.08133045e-05
148	0x3a6733bd	0.000881966
149	0x3bd1da77	0.006404217
150	0x3901df19	0.00012385509
151	0x393614fb	0.00017364688
152	0xb8fa9e78	-0.00011950446
153	0xb8b24f64	-8.502489e-05
154	0x37ba355b	2.2197773e-05
155	0x39087cba	0.00013016435
156	0xbb7d82b8	-0.003868265
157	0xb86d2bbb	-5.654593e-05
158	0xb9f784b9	-0.00047210397
159	0x38e766ca	0.00011034084
160	0x3bb5c9b8	0.0055477284
161	0xbc09fb29	-0.008421698
162	0xbc1d060d	-0.009583962
163	0x3c3468e2	0.011011334
164	0xbc5de267	-0.013542748
165	0xbc510ed2	-0.012759881
166	0x3b83b3fd	0.004019259
167	0x3a39f912	0.00070943043
168	0x3bf6baf3	0.0075296103
169	0xbc387357	-0.011257968
170	0x3c131a6f	0.00897847
171	0x3c3ebe9c	0.0116421245
172	0xbc092493	-0.008370536
173	0xbbbd6840	-0.00578025
174	0x3c201233	0.009769964
175	0x3c4ddc1b	0.012564684
176	0xbc2a50d6	-0.010395249
177	0xbb8ce634	-0.0042999033
178	0x3bbd1a23	0.005770938
179	0x3bffeacc	0.0078099724
180	0x3b20571c	0.0024465984
181	0xba9e71af	-0.0012088324
182	0xbb85a4fc	-0.0040785056
183	0x3c6047a2	0.013688954
184	0xbc77d50f	-0.015126481
185	0xbc976885	-0.018482456
186	0x3c10ef9f	0.008846193
187	0x3a8606ca	0.0010225412
188	0x3c50bc3b	0.01274019
189	0xbcc5e458	-0.024156734
190	0x3c545df0	0.01296185
191	0x3c88232e	0.016618337
192	0xbc43750a	-0.01192976
193	0xbc0ec447	-0.008713788
194	0x3c5acea2	0.013354929
195	0x3c4a5895	0.012350221
196	0xbc74be14	-0.014937896
197	0xbbd1e942	-0.0064059803
198	0x3c936db8	0.017996654
199	0xba8ddfde	-0.0010824164
200	0x3bc159d8	0.005900603
201	0xbc1eae0b	-0.00968505
202	0xbc3f35f9	-0.011670583
203	0x3c8dec53	0.017324602
204	0xbc41d668	-0.011830904
205	0xbc665b30	-0.014059827
206	0x3b9260cb	0.004467105
207	0xbb82108b	-0.003969257
208	0x3c19146a	0.009343246
209	0xbc50d57e	-0.012746213
210	0x3aead27d	0.0017915514
211	0x3b9f42dc	0.004860265
212	0xbc193149	-0.009350129
213	0xbbd5a40a	-0.006519799
214	0x3c3382b9	0.01095646
215	0x3c273ed1	0.010207848
216	0xbc3bd59d	-0.011464504
217	0x3af27b93	0.0018499963
218	0x3c70c599	0.014695548
219	0x3c0b3bd7	0.008498154
220	0x3c1b0c00	0.00946331
221	0xbc8795eb	-0.016550979
222	0xbc90b906	-0.017666351
223	0x3cccf023	0.02501685
224	0xbc91ec6b	-0.017812928
225	0xbca28158	-0.019837067
226	0x3bd636fc	0.0065373164
227	0x3a9afa28	0.001182382
228	0x3c6c045b	0.014405335
229	0xbc981f09	-0.018569486
230	0x3c7802ab	0.015137355
231	0x3c80f2db	0.015740803
232	0xbc67b0e6	-0.014141297
233	0xbc1f346f	-0.009717091
234	0x3c03e223	0.008049521
235	0x3c78817e	0.015167592
236	0xbc8f6c0c	-0.017507575
237	0xbc2b4bef	-0.010455116
238	0x3c869fd2	0.01643363
239	0x3c4b5d0e	0.012412323
240	0x3bac9581	0.0052668457
241	0xbc6195b0	-0.013768598
242	0xbc29e133	-0.010368633
243	0x3c4781f0	0.012176976
244	0xbc22e632	-0.009942578
245	0xbc00bae1	-0.007857055
246	0x3b765876	0.0037589348
247	0x3a26ee54	0.0006367911
248	0x3bf5e4af	0.007504068
249	0xbb72c79f	-0.0037045253
250	0x3c0b5963	0.008505198
251	0x3c3f8aae	0.011690779
252	0xbc028b6d	-0.007967812
253	0xb9a5ae46	-0.00031601096
254	0x3c102fef	0.008800491
255	0x3c10665c	0.008813467

lstm.bias_ih_l1 f4 [80]
0	0x3c8f2740	0.01747477
1	0x3cc6cbfb	0.024267187
2	0x3c921929	0.017834263
3	0x3d7d7074	0.06187482
4	0x3d3d315a	0.046189643
5	0x3d89e333	0.06732788
6	0x3c0aece8	0.008479334
7	0x3a081be5	0.0005192145
8	0x3cfc224a	0.030778069
9	0x3d58b255	0.052904446
10	0x3d252ca2	0.04032577
11	0x3d7ab783	0.061210167
12	0x3d0a735d	0.033801425
13	0x3c5fa7c5	0.013650839
14	0x3d36d5da	0.04463754
15	0x3d1f9677	0.038961854
16	0x3d430f5e	0.047622077
17	0x3c74f00d	0.014949811
18	0x3d8797b0	0.06620729
19	0x3cefa7e8	0.029254869
20	0x3c9b7c0e	0.018980052
21	0x3d2dd5c4	0.04244019
22	0x3d8719a3	0.06596687
23	0x3daa2539	0.08307881
24	0x3d6c193c	0.057641253
25	0x3db39dd7	0.0877034
26	0x3c06624b	0.008202146
27	0xbb5a4fa7	-0.0033311637
28	0x3cb8871c	0.022525363
29	0x3d82886e	0.06373678
30	0x3d59c9cf	0.053170975
31	0x3d92ae67	0.07162171
32	0x3d1df767	0.03856602
33	0x3ca6a1f3	0.020340895
34	0x3d586571	0.052831117
35	0x3d35fefd	0.04443263
36	0x3d695c25	0.05697264
37	0x3c358780	0.011079669
38	0x3db1f733	0.08689728
39	0x3d04a293	0.032381605
40	0x3c637e7c	0.013885137
41	0xbe3f293e	-0.18668076
42	0xbe1395b6	-0.14412579
43	0x3e2551e3	0.16144519
44	0xbe25a40d	-0.16175862
45	0xbe5028a4	-0.20328003
46	0x3d85d7e7	0.06535321
47	0xbc237c67	-0.00997839
48	0x3e246cf7	0.16057192
49	0xbe3dc731	-0.18533017
50	0x3dcfc7e9	0.10145552
51	0x3e26bd17	0.1628307
52	0xbdf5c112	-0.11999716
53	0xbdbe5f64	-0.09295538
54	0x3e308da9	0.17241539
55	0x3e067edf	0.13134335
56	0xbe22893c	-0.15872663
57	0xbde5b60e	-0.11216365
58	0x3e616421	0.22010852
59	0x3e0a7440	0.13520908
60	0x3c904dbf	0.017615197
61	0x3d29d0d8	0.041458935
62	0x3d83109e	0.06399654
63	0x3da20b98	0.079123676
64	0x3d72d551	0.059285466
65	0x3d1b07c2	0.037849195
66	0x3c094c48	0.008380003
67	0x39f3548b	0.0004641156
68	0x3d288c76	0.04114958
69	0x3d890ccd	0.06691895
70	0x3d3ec905	0.046578426
71	0x3dab3c26	0.08361082
72	0x3ce4399d	0.027859503
73	0x3c8dfd21	0.017332615
74	0x3d570ab8	0.052500457
75	0x3d384ee6	0.04499712
76	0x3d6a3152	0.05717594
77	0x3c37b0ae	0.011211557
78	0x3dc00560	0.09376025
79	0x3d0736f1	0.03301138

lstm.bias_hh_l1 f4 [80]
0	0x3c90bcf8	0.017668232
1	0x3d192131	0.03738517
2	0x3d5d7cfa	0.054074265
3	0x3d79d252	0.060991593
4	0x3d4584d9	0.048222397
5	0x3d80ff83	0.06298735
6	0x3c044d6d	0.0080751
7	0xbb365a43	-0.0027824796
8	0x3d11ca5f	0.035593387
9	0x3d627304	0.05528547
10	0x3d26526e	0.040605955
11	0x3d75424d	0.059877682
12	0x3d0c1dc2	0.034208067
13	0x3c2c0ace	0.010500623
14	0x3d3525b0	0.044225395
15	0x3d202a7e	0.039103024
16	0x3d50573d	0.050864447
17	0x3c26b596	0.010175129
18	0x3d416292	0.047213145
19	0x3cf0ce87	0.029395355
20	0x3c337059	0.010952079
21	0x3d231bc3	0.039821398
22	0x3d87a89d	0.06623957
23	0x3d9f7056	0.07785098
24	0x3d6bc31e	0.057559125
25	0x3daa7810	0.08323681
26	0x3bddcfec	0.006769171
27	0x3a079658	0.0005172244
28	0x3d250db3	0.040296268
29	0x3d65a853	0.05606873
30	0x3d49a02d	0.04922502
31	0x3da4ac24	0.08040646
32	0x3d1dc180	0.038514614
33	0x3c9138d1	0.017727287
34	0x3d53db32	0.051722713
35	0x3d1b0998	0.037850946
36	0x3d6c8dab	0.057752293
37	0x3c33b773	0.010969031
38	0x3db7bb55	0.089712776
39	0x3cea2c27	0.028585507
40	0x3e191f97	0.14953457
41	0xbd9d5326	-0.07681875
42	0xbe5057c8	-0.20345986
43	0x3e51d9d3	0.2049325
44	0xbe25cb15	-0.16190751
45	0xbe46cc2f	-0.19413827
46	0x3d9936ba	0.074811414
47	0x3cb12f5b	0.021629026
48	0x3dfd077a	0.12354942
49	0xbe2f2d7b	-0.17107193
50	0x3e153ed7	0.14574753
51	0x3e64cd17	0.2234386
52	0xbe1235f5	-0.14278395
53	0xbdcef9cc	-0.10106239
54	0x3ddeb090	0.108735204
55	0x3e2cd3cc	0.16877669
56	0xbe25916e	-0.16168758
57	0xbcd49ca3	-0.025953596
58	0x3e0c1e68	0.13683474
59	0x3ddf1695	0.10892979
60	0x3c978fec	0.018501244
61	0x3cc358d6	0.023846071
62	0x3d7f716b	0.062364023
63	0x3da2fbb7	0.07958167
64	0x3d72eba4	0.059306756
65	0x3dbc743f	0.0920186
66	0x3c09c836	0.00840955
67	0x39fb197a	0.00047893432
68	0x3d27c7cd	0.04096203
69	0x3d88c1bd	0.06677578
70	0x3d3e9cdd	0.046536315
71	0x3da3d58e	0.07999717
72	0x3d219ffc	0.039459214
73	0x3c98bba8	0.018644169
74	0x3d59c5c8	0.053167135
75	0x3d3a407f	0.045471665
76	0x3d36262b	0.044469994
77	0x3c3765cb	0.011193703
78	0x3dba72c9	0.09103925
79	0x3d06178b	0.032737296

fc.weight f4 [30, 20]
0	0x3cba1443	0.02271474
1	0xbd18b440	-0.037281275
2	0xbd12f5ea	-0.035879053
3	0x3d4bae33	0.049726676
4	0xbd2c477e	-0.042060368
5	0xbd4d99eb	-0.050195616
6	0x3c8256ca	0.015910525
7	0x3c82a54c	0.01594796
8	0x3d05c37b	0.032657128
9	0xbd3a1677	-0.04543158
10	0x3d156c39	0.036480162
11	0x3d0221b8	0.031770438
12	0xbd0b15a0	-0.03395617
13	0xbcc6c418	-0.024263427
14	0x3d1c4f01	0.03816128
15	0x3d1b0f3c	0.037856326
16	0xbd2d4f3e	-0.0423119
17	0xbc948860	-0.018131435
18	0x3d51941e	0.051166646
19	0x3d011209	0.03151134
20	0x3d0630db	0.032761436
21	0xbd4de1b7	-0.050264087
22	0xbd812167	-0.06305199
23	0x3d92f16b	0.07174953
24	0xbd7ecf3c	-0.062209353
25	0xbdaa884f	-0.0832678
26	0x3cc59283	0.024117714
27	0x3b7d0fde	0.0038614194
28	0x3d4cf505	0.050038356
29	0xbd926455	-0.07148043
30	0x3d580e60	0.052748084
31	0x3d91b017	0.071136646
32	0xbd3763da	-0.04477296
33	0xbd06920e	-0.032854132
34	0x3d6832d4	0.0566891
35	0x3cffcd52	0.031225834
36	0xbd74c511	-0.05975825
37	0xbcd2f2fc	-0.02575063
38	0x3d97b4b1	0.07407511
39	0x3d3a6dd7	0.045514908
40	0x3cca0972	0.024662707
41	0xbd150780	-0.036384106
42	0xbd378905	-0.044808406
43	0x3d526bb4	0.051372245
44	0xbd355543	-0.044270765
45	0xbd59cf26	-0.053176068
46	0x3c9b177a	0.018932093
47	0x3b4f2dc7	0.0031612979
48	0x3d1452e0	0.03621185
49	0xbd1bd74d	-0.038047124
50	0x3cf1f788	0.029536977
51	0x3d55512b	0.05207936
52	0xbce030f8	-0.0273671
53	0xbcc12479	-0.023576962
54	0x3d257131	0.04039115
55	0x3d207af4	0.039179757
56	0xbd334661	-0.04376829
57	0xbc99104c	-0.018684529
58	0x3d57c578	0.052678555
59	0x3d06b0b4	0.03288336
60	0x3d0504cc	0.032475278
61	0xbd49366f	-0.049124178
62	0xbd89a15d	-0.06720231
63	0x3d963839	0.07334942
64	0xbd7a6383	-0.061130058
65	0xbdb2aacc	-0.08723983
66	0xbc06e044	-0.00823218
67	0x3b84b3f9	0.0040497747
68	0x3d402b03	0.04691602
69	0xbd6a9d58	-0.05727896
70	0x3d716eb2	0.058943458
71	0x3d9592ce	0.073033914
72	0xbd4cb16c	-0.04997389
73	0xbd08e571	-0.033421937
74	0x3d64a558	0.055821747
75	0x3d56eeec	0.052473947
76	0xbd740aae	-0.059580497
77	0xbccd7422	-0.02507979
78	0x3d7af8e7	0.061272528
79	0x3d351712	0.044211455
80	0x3d246dc6	0.04014375
81	0xbd782eab	-0.06059138
82	0xbda3844f	-0.0798422
83	0x3db40d50	0.08791602
84	0xbda1e762	-0.07905461
85	0xbd74997b	-0.059716683
86	0x3ceb6fca	0.028739829
87	0x3cad339c	0.021142773
88	0x3d7e7afe	0.062129013
89	0xbd91799e	-0.07103275
90	0x3d833047	0.064056925
91	0x3db18895	0.08668629
92	0xbd71ae1c	-0.059003934
93	0xbd023ee4	-0.03179826
94	0x3d96487a	0.073380426
95	0x3d84eb76	0.06490223
96	0xbd971cb3	-0.07378521
97	0xbcc70e0a	-0.024298687
98	0x3dcc8410	0.099861264
99	0x3d6bdfe1	0.057586554
100	0x3ce0c36b	0.027436933
101	0xbd2e5963	-0.042565715
102	0xbd50ce93	-0.050978255
103	0x3d0fa7b2	0.035072036
104	0xbd48fc80	-0.049068928
105	0xbd7a1afc	-0.06106089
106	0x3c430dec	0.011905175
107	0x3b32a7c5	0.0027260643
108	0x3d2b5be3	0.041835677
109	0xbd5ef04a	-0.054428376
110	0x3d2f8c8b	0.04285864
111	0x3d6fda2a	0.058557667
112	0xbd278346	-0.040896676
113	0xbc666002	-0.014060976
114	0x3d462948	0.048379213
115	0x3d3a3b11	0.045466486
116	0xbd4be373	-0.04977746
117	0xbcabe9c3	-0.02098549
118	0x3cdb9d2f	0.02680835
119	0x3cb23924	0.021755762
120	0x3cc62297	0.024186416
121	0xbcb2b120	-0.021812975
122	0xbd408195	-0.04699858
123	0x3d57b6e0	0.052664638
124	0xbd3ddf72	-0.046355672
125	0xbd7301f6	-0.059328042
126	0x3c2d4801	0.010576249
127	0x3b516e17	0.0031956488
128	0x3d18ba5a	0.037287094
129	0xbd47a4a4	-0.048740998
130	0x3d24e0c2	0.04025341
131	0x3d574b96	0.05256232
132	0xbd150156	-0.036378227
133	0xbcd2fea1	-0.025756182
134	0x3d2c05db	0.04199777
135	0x3d07726e	0.033068113
136	0xbd37f32d	-0.044909645
137	0xbcb12a3f	-0.02162659
138	0x3d17701b	0.036972146
139	0x3d068dc5	0.032850046
140	0x3d021612	0.03175933
141	0xbd438003	-0.047729503
142	0xbd830f73	-0.06399431
143	0x3d8c311b	0.068453036
144	0xbd70aada	-0.058756687
145	0xbda2b8a8	-0.07945377
146	0x3c722fe5	0.014781927
147	0x3c758752	0.014985876
148	0x3cf3118e	0.029671457
149	0xbd7f5f77	-0.0623469
150	0x3d4f0d5f	0.05054986
151	0x3d8b186b	0.06791767
152	0xbd4199bd	-0.047265757
153	0xbd058729	-0.032599602
154	0x3d6234d9	0.05522618
155	0x3d538fa1	0.051650647
156	0xbd71e1d6	-0.059053265
157	0xbcfbd831	-0.030742737
158	0x3d918a13	0.07106414
159	0x3d34f88f	0.044182356
160	0x3c9e6798	0.019336507
161	0xbd0b49f3	-0.03400607
162	0xbce38917	-0.02777533
163	0x3d47bef4	0.04876609
164	0xbd08ab3d	-0.03336643
165	0xbd637451	-0.05553085
166	0x3c7dcdaf	0.015490933
167	0x3b3d2df2	0.0028866497
168	0x3d0ec201	0.034852985
169	0xbceb7867	-0.028743936
170	0x3d117324	0.035510197
171	0x3d389efd	0.045073498
172	0xbd04afe9	-0.032394323
173	0xbc60da04	-0.013723854
174	0x3d1fa9ba	0.038980223
175	0x3cbe8351	0.023255976
176	0xbd10177b	-0.035178643
177	0xbc8eb14b	-0.017418524
178	0x3d50d737	0.050986495
179	0x3cfd6746	0.030933034
180	0x3d2bb8da	0.041924335
181	0xbd723418	-0.05913171
182	0xbd8e86f0	-0.06959331
183	0x3dae271c	0.08503553
184	0xbd931a3d	-0.07182739
185	0xbdba9cc4	-0.09111932
186	0x3cca44df	0.024691043
187	0x3c84dbef	0.016218154
188	0x3d73e578	0.05954501
189	0xbda4690b	-0.08027848
190	0x3d7f9afb	0.06240366
191	0x3dade72d	0.08491359
192	0xbd2e0ebe	-0.042494528
193	0xbd21a99d	-0.039468396
194	0x3d891ccb	0.06694945
195	0x3d83c336	0.06433718
196	0xbd954f4c	-0.07290515
197	0xbcf8d9c0	-0.030377269
198	0x3db9ddba	0.09075494
199	0x3d5d00b4	0.05395575
200	0x3cb3d803	0.021953588
201	0xbd12907f	-0.035782333
202	0xbd37f51b	-0.044911485
203	0x3d50fc4e	0.051021867
204	0xbd3653a7	-0.04451337
205	0xbd60d164	-0.05488719
206	0x3c8972fc	0.016778462
207	0x3c656fc6	0.0140037
208	0x3d13af78	0.036056012
209	0xbcda0296	-0.026612561
210	0x3d193c0f	0.037410792
211	0x3d510719	0.05103216
212	0xbd0fbf9c	-0.035094842
213	0xbcc0dcd4	-0.023542799
214	0x3d24f918	0.040276617
215	0x3d0636e0	0.032767177
216	0xbd2ceb29	-0.042216454
217	0xbcc4d33c	-0.024026506
218	0x3d5c2cb8	0.053753585
219	0x3d05286c	0.032509252
220	0x3cd41e7e	0.025893446
221	0xbd29238a	-0.04129366
222	0xbd5a0feb	-0.053237837
223	0x3d6d08bc	0.057869658
224	0xbd49167a	-0.0490937
225	0xbd856d7c	-0.06515023
226	0x3c9e81d2	0.019349013
227	0x3b434efe	0.0029801722
228	0x3d27fc62	0.041012175
229	0xbd586d4e	-0.052838616
230	0x3d2d476d	0.042304445
231	0x3d6b9c6a	0.057522215
232	0xbd24ab64	-0.040202513
233	0xbc8e675e	-0.017383274
234	0x3d3e221f	0.04641926
235	0x3d344c2d	0.04401796
236	0xbd4a57a5	-0.04939999
237	0xbcde1a63	-0.027112192
238	0x3d82ad1c	0.06380674
239	0x3cd96999	0.02653961
240	0x3ce223e5	0.027605006
241	0xbd32bc28	-0.04363647
242	0xbd5c9347	-0.053851392
243	0x3d8593ea	0.06522353
244	0xbd28f7e4	-0.041252032
245	0xbd802785	-0.06257538
246	0x3ca0689e	0.019581135
247	0x3a6d6d16	0.00090570876
248	0x3d31744c	0.0433238
249	0xbd5d94d9	-0.05409703
250	0x3d3b5b87	0.045741584
251	0x3d19788d	0.03746848
252	0xbd3644a1	-0.044499043
253	0xbcee0a15	-0.029057542
254	0x3d434aca	0.047678746
255	0x3cc9d7dc	0.024639063

fc.bias f4 [30]
0	0x3e27415c	0.16333526
1	0x3d5d7142	0.05406309
2	0x3e1bf333	0.15229492
3	0x3d6da0d0	0.05801469
4	0xbc4b6af6	-0.012415638
5	0x3e0e19e0	0.13877058
6	0x3e19a364	0.15003735
7	0x3d865f5c	0.06561157
8	0x3e369987	0.17832004
9	0xbc09489b	-0.008379127
10	0x3e1d9b72	0.15391329
11	0x3dea52f0	0.114416
12	0x3df026ef	0.11726176
13	0x3cebee4e	0.028800156
14	0x3de60d23	0.112329744
15	0x3e1932f7	0.14960848
16	0xbc73c47a	-0.014878387
17	0x3d6fd71e	0.05855476
18	0x3e28bcad	0.16478224
19	0x3e1c6d11	0.1527598
20	0x3dad5f02	0.08465387
21	0x3e2296e4	0.15877873
22	0x3e2590fc	0.16168588
23	0x3e19ae22	0.15007833
24	0x3e3f8923	0.18704657
25	0x3e1bbcb6	0.15208706
26	0x3e2bfb08	0.1679498
27	0xbc576604	-0.013146881
28	0x3e17202b	0.14758365
29	0x3d577c4f	0.052608784
