backend/model/lstm-ANGI-180-.pth (torch, 38860 bytes, 12 tensors)

conv1.weight f4 [2, 4, 3]
-1.1125724e-05 -7.1985986e-09 -3.0029266e-08 6.8241013e-07 3.040365e-14 -1.4480037e-12 -1.0492366e-09 7.75728e-15
2.7330395e-11 4.0872987e-06 6.1507774e-07 1.5769016e-05 -4.428747e-14 -2.4530157e-08 -9.437297e-06 -1.8780919e-06
4.8402402e-08 -1.3733224e-07 -1.9712249e-14 4.598132e-12 -3.7748132e-14 1.5389681e-06 -1.1332305e-06 -5.186925e-15
00000000: 9fa8 3ab7 8b57 f7b1 87f9 00b3 de2e 3735
00000010: 06ed 0829 d5c9 cbab bb34 90b0 24be 0b28
00000020: 9466 f02d a125 8936 d21b 2535 b447 8437
00000030: fa73 47a9 63b6 d2b2 e254 1eb7 bf12 fcb5
00000040: 01e3 4f33 9975 13b4 5a8d b1a8 4bc8 a12c
00000050: a200 2aa9 8b8e ce35 8119 98b5 f0e0 baa7

conv1.bias f4 [2]
1.31272785e-14 2.4708636e-06
00000000: e37a 6c28 1dd1 2536

lstm.weight_ih_l0 f4 [80, 2]
-9.716981e-22 4.8539324e-09 1.7185864e-07 3.6908372e-20 -4.1926493e-21 -1.5478583e-06 1.8538102e-17 8.60187e-10
3.570001e-22 -9.902699e-13 -1.3843589e-21 -1.7649926e-20 1.9247119e-19 5.8411866e-19 3.1239375e-13 -1.8039521e-13
-2.195759e-21 -4.0249233e-13 -7.361412e-21 1.6988321e-14 -8.6481566e-07 -9.332122e-19 1.1558983e-19 -3.7055557e-17
5.195311e-20 -2.5379333e-19 -1.1197607e-21 -6.360825e-21 9.745507e-08 -6.417361e-22 2.2196237e-21 3.0576093e-21
6.387234e-11 5.3291525e-19 9.2559915e-09 -1.506373e-13 -2.2574184e-11 -1.3285598e-20 -1.0965103e-21 2.5949535e-19
5.98852e-09 -5.7720994e-13 -4.7785846e-22 -4.3501587e-20 -1.9089137e-09 -3.9968438e-16 -7.224324e-22 -1.7470437e-17
-8.522834e-16 -1.1469352e-20 3.3845127e-17 -2.538026e-20 2.2108364e-09 2.6275952e-08 -1.468285e-18 -1.0814789e-06
-1.0743207e-15 -3.6229354e-20 -1.1378634e-23 5.086194e-21 4.7003743e-21 -1.1261816e-08 -9.174365e-17 2.5389148e-21
-2.644317e-10 -8.684283e-19 5.7992185e-07 -2.4803406e-18 2.9507409e-21 -8.822215e-21 1.5650215e-20 1.338664e-19
-1.1192569e-20 -1.8376399e-20 -1.0186455e-06 -4.0126887e-21 1.0423919e-13 -1.1635639e-06 2.068007e-21 3.5949605e-21
-1.9314369e-14 -5.816624e-14 1.6609951e-07 -6.020316e-13 2.6430846e-13 2.9817365e-08 2.6273173e-13 -8.940408e-12
3.1183905e-07 -3.2554048e-14 5.2416995e-13 -2.358526e-13 1.693134e-14 1.4507453e-14 1.164591e-12 5.18515e-13
-5.615709e-13 -9.613649e-10 3.845112e-14 3.3840655e-09 -3.0919906e-13 -1.2355308e-12 2.008275e-14 6.17864e-14
2.2786016e-13 7.148238e-13 -2.265035e-14 -1.3048712e-13 -2.061507e-14 -5.212774e-14 -3.8117252e-14 -4.702965e-09
-4.2709336e-14 2.7569808e-10 -6.379296e-14 2.0917295e-07 9.6240094e-14 1.1774468e-06 4.5822748e-14 1.9016204e-13
7.43714e-21 -1.8031969e-08 -7.956424e-11 9.729546e-07 -1.6730877e-20 -4.448002e-20 -2.2878801e-08 -3.4100505e-21
1.0430658e-08 1.65158e-18 8.3841515e-20 2.7067712e-19 -4.1259368e-20 -4.442785e-21 -1.8392792e-20 -2.0503946e-19
1.8662106e-19 -3.208189e-20 2.4625508e-16 4.4141404e-07 1.4487776e-17 -1.0384037e-18 -4.4716308e-20 -1.0798697e-21
-1.9658053e-18 3.878728e-18 -1.2297718e-21 1.8662739e-20 1.0290037e-08 -8.848162e-16 1.6726551e-06 1.8825513e-07
-1.3834143e-19 4.2839044e-20 -1.7044959e-16 -5.5229476e-16 8.857377e-18 -1.8239528e-20 -1.0754447e-21 -1.0154492e-21
00000000: c0d6 929c a4c7 a631 2588 3834 7c4b 2e1f
00000010: d164 9e9d 02c0 cfb5 dbfb aa23 4772 6c30
00000020: 17cb d71b 3c5e 8bab ca32 d19c e7b2 a69e
00000030: d93a 6320 c266 2c21 afdc af2a 611b 4baa
00000040: 28e8 259d 4295 e2aa 9b0d 0b9e 6704 9928
00000050: ae25 68b5 c3b7 89a1 e276 0820 7be3 2aa4
00000060: 7557 751f 2ad0 95a0 a536 a99c 204e f09d
00000070: 7e48 d133 edf3 419c c4b5 271d c406 671d
00000080: ee74 8c2e f049 1d21 4804 1f32 3f9a 29aa
00000090: 8b90 c6ad 36f5 7a9e 30b3 a59c d42d 9920
000000a0: 94c3 cd31 5c78 22ab 826c 109c 316e 4d9f
000000b0: f72d 03b1 0167 e6a5 8057 5a9c e722 a1a3
000000c0: 6aa7 75a6 62a6 589e 4615 1c24 b4b5 ef9e
000000d0: 72ed 1731 6eb5 e132 3dae d8a1 5527 91b5
000000e0: 70d3 9aa6 9a16 2b9f 4418 5c99 a626 c01d
000000f0: 3b93 b11d fe79 41b2 e48b d3a4 c1d5 3f1d
00000100: 745f 91af 4b28 80a1 edab 1b35 4f04 37a2
00000110: a1f3 5e1d 9da5 269e e6cf 931e a30a 1e20
00000120: f16b 539e 688f ad9e 65b8 88b5 5898 979d
00000130: cdb9 ea29 c02b 9cb5 1341 1c1d 53d0 871d
00000140: e7f7 ada8 8efa 82a9 1659 3234 f374 29ab
00000150: ddca 942a 8a10 0033 a2e7 932a 0548 1dad
00000160: d56a a734 439c 12a9 6d8a 132b f1c5 84aa
00000170: 0381 9828 e9ab 8228 d0e6 a32b f2f2 112b
00000180: 7311 1eab 0521 84b0 202b 2d29 1c8d 6831
00000190: 4810 aeaa b0e2 adab abe3 b428 6f21 8b29
000001a0: 1c46 802a 7c34 492b 2704 cca8 5aea 12aa
000001b0: 1daf b9a8 31c3 6aa9 33aa 2ba9 b897 a1b1
000001c0: 8358 40a9 0e91 972f 23a6 8fa9 0699 6034
000001d0: a3b6 d829 c408 9e35 085e 4e29 7a1a 562a
000001e0: cd7b 0c1e b8e4 9ab2 aff6 aeae 7796 8235
000001f0: c704 9e9e 0b0d 529f 0487 c4b2 fcd3 809d
00000200: 8532 3332 eeba f321 16f7 c51f 92c7 9f20
00000210: 84d7 429f fbd7 a79d 0bb7 ad9e 6011 72a0
00000220: c152 5c20 a080 179f d6f4 8d25 7cfb ec34
00000230: 4ba0 8523 c83d 99a1 b32a 539f 702f a39c
00000240: 030d 11a2 8d19 8f22 7ed6 b99c bc43 b01e
00000250: 10c8 3032 e907 7fa6 fe7f e035 2d23 4a34
00000260: 2253 23a0 3a4d 4a1f d783 44a5 2930 1fa6
00000270: c863 2323 7944 ac9e 4084 a29c 4a73 999c

lstm.weight_hh_l0 f4 [80, 20]
3.2800782e-16 -1.8087627e-20 -3.2203157e-10 4.7965506e-21 4.3318612e-23 -1.4176696e-17 -2.382834e-19 -9.993692e-16
3.2052656e-22 2.2804454e-22 4.3899334e-22 3.4471874e-22 -1.4357963e-19 6.7002274e-13 -1.3891236e-22 -1.04973465e-19
-6.1672434e-13 -1.8007298e-22 -1.376517e-06 1.1391422e-06 1.4575979e-18 -7.0261e-08 -1.5003107e-17 -1.0940451e-21
3.785029e-09 1.6444162e-08 2.8952372e-09 -1.1450592e-20 -1.62742e-15 2.9639685e-22 -1.05676655e-07 4.4450643e-09
-1.2318935e-20 -2.6377438e-07 -1.228102e-06 1.4344956e-23 2.0236479e-07 2.9609676e-22 1.5831761e-09 6.09832e-19
-3.3780925e-10 -4.3466436e-10 -3.666009e-07 -9.6958104e-08 -2.2966395e-21 -7.4647726e-11 9.902817e-11 -2.0039912e-21
-6.303838e-19 -1.437113e-23 9.3815634e-21 -1.2082309e-08 -5.020058e-08 1.1867804e-21 -1.8175276e-20 2.7666924e-21
1.674424e-08 1.2513651e-22 -4.1553948e-13 -3.5276173e-22 -1.5746882e-22 -1.3105055e-11 2.6832222e-08 1.7469607e-23
9.930109e-16 3.3846782e-25 1.7134678e-06 -1.6717633e-14 -1.6691806e-22 -2.2632265e-16 1.9251684e-21 -4.9628338e-23
-1.5917722e-11 -2.646963e-13 -2.0644563e-22 -3.1736392e-23 -2.002581e-21 -2.58731e-19 1.56449e-21 -1.5045394e-07
3.2261494e-18 -1.2967188e-07 2.760822e-21 -4.435331e-19 2.0070048e-07 -5.2703894e-21 9.2912403e-23 -4.0469066e-16
-3.6023606e-17 -2.3859816e-22 1.7460673e-20 3.507006e-19 5.381149e-14 4.1876642e-20 -2.0128464e-24 -2.8249985e-17
1.038839e-15 -6.9632278e-09 6.114544e-20 -6.7864284e-23 -1.5910441e-20 -1.2009206e-22 7.848192e-24 5.513134e-24
-1.229449e-21 8.583171e-21 -9.733693e-15 7.5250055e-09 -1.2855887e-07 -5.0261495e-08 1.824598e-21 8.492422e-23
-7.196991e-21 -6.8609896e-11 -7.6038366e-23 4.210344e-08 4.7240616e-15 2.0081348e-08 -1.2184043e-11 -1.2907859e-06
-2.1732057e-18 1.0333998e-19 4.0317696e-16 -1.2248249e-08 -2.352946e-24 1.7362057e-13 4.6058954e-08 -3.8110163e-22
-6.9928442e-12 9.702593e-07 2.8189436e-22 -5.020471e-23 2.0335185e-07 1.05012425e-22 -1.6862821e-17 -9.123943e-19
2.0990648e-20 -5.2492506e-16 -1.8334935e-21 -5.642827e-22 5.7445973e-21 -1.9054792e-15 1.6058191e-10 2.484467e-18
9.033526e-20 5.125914e-07 -7.726504e-17 -3.4700744e-20 6.17679e-20 -3.564818e-21 1.4487809e-19 -1.5683415e-20
-5.7623575e-15 -8.514455e-22 4.3333104e-17 9.120573e-22 1.3770058e-21 2.0049063e-21 -7.0780343e-12 -2.6068692e-21
-4.425631e-20 -3.1733922e-15 -9.169064e-19 6.8232515e-07 3.794323e-23 4.3842103e-09 -1.7016006e-14 -7.607172e-21
2.9754505e-16 -3.7184523e-21 -1.05159425e-16 1.9045734e-22 3.3525673e-08 6.715772e-22 7.8400726e-23 1.641337e-14
4.99688e-22 -7.638725e-24 1.9289483e-07 6.6307116e-23 1.08214046e-23 -1.1564125e-21 8.970037e-07 2.6277865e-18
-1.198013e-07 4.9827715e-13 2.9745002e-24 -5.1383825e-22 -1.9076195e-22 -1.7556906e-23 -7.630122e-17 4.9420862e-17
-5.4961812e-15 1.8080218e-10 -8.63376e-22 -2.1176304e-23 1.0344948e-15 1.1130577e-16 2.1199503e-07 1.5211521e-11
-1.6998281e-14 1.1469916e-10 -1.6360823e-14 8.030666e-21 6.464995e-21 -3.515427e-21 1.0293906e-07 1.6144277e-07
-6.196725e-20 -2.1319336e-21 3.774006e-19 7.834919e-21 -1.301818e-19 1.9818402e-18 -2.362259e-19 8.802776e-20
2.2783597e-08 2.3069457e-21 -1.2248373e-20 -6.8920236e-20 6.549424e-08 -4.3920897e-22 7.8053375e-23 6.4960797e-12
6.1798505e-22 5.502425e-23 -7.526808e-23 -5.9851667e-22 -6.7004214e-07 -2.9041797e-19 9.285314e-19 4.5748533e-07
1.4994981e-21 3.1257215e-07 3.2760644e-22 -4.7508845e-13 -1.7000558e-14 -1.4477863e-22 1.0599927e-14 1.2796826e-14
2.6748285e-21 2.594233e-09 -6.78385e-21 1.6767008e-13 2.8439655e-21 -3.4619786e-19 9.3137425e-07 7.076849e-20
-2.466992e-21 -3.7004854e-21 -5.4940483e-07 -6.395338e-21 -9.2636265e-10 -3.3798689e-21 1.1032336e-08 -1.06305945e-11
00000000: 6915 bd25 33d5 aa9e ea09 b1af 6435 b51d
00000010: d879 511a c7c1 82a3 5fa8 8ca0 3706 90a6
00000020: 15bf c11b 2fd8 891b 77ad 041c a45e d01b
00000030: 4882 29a0 3a98 3c2b 4bef 279b 91dc f79f
00000040: ac97 2dab e3b1 599b c4c0 b8b5 a1e4 9835
00000050: 7e1a d721 65e2 96b3 1661 8aa3 d253 a59c
00000060: 780d 8231 1841 8d32 8df5 4631 aa4b 589e
00000070: 3389 eaa6 3129 b31b 5bf0 e2b3 33bb 9831
00000080: b7b2 689e e09c 8db4 43d5 a4b5 64bc 8a19
00000090: 9c49 5934 c1fa b21b 0f97 d930 9afd 3321
000000a0: 6db6 b9af 92f5 eeaf 3ed1 c4b4 4837 d0b3
000000b0: 7887 2d9d ef26 a4ae e7c3 d92e d46a 179d
000000c0: 740e 3aa1 32fd 8a99 7536 311e 8f92 4fb2
000000d0: 1f9c 57b3 5857 b31c 1fa9 ab9e 9d0b 511d
000000e0: f9d4 8f32 e047 171b 8ded e9aa 3c3b d59b
000000f0: 3d5e 3e9b ec8b 66ad ae7c e632 a7f4 a819
00000100: a31b 8f26 5e80 d116 4efa e535 3d94 96a8
00000110: a3ca 499b 5477 82a5 2c76 111d e8fc 6f9a
00000120: 8603 8cad c202 95aa d493 799b c077 199a
00000130: 8d4f 179d 53ba 98a0 466b ec1c 778c 21b4
00000140: 3d0c 6e22 ef3b 0bb4 109a 501d 6ae8 02a1
00000150: 2180 5734 141c c79d fea5 e01a cd49 e9a5
00000160: 2b21 26a4 4739 909b 51e9 a41e 6004 cf20
00000170: 6d58 7229 c1c1 451f 88bc 1b98 b247 02a4
00000180: 65b6 9526 3341 efb1 2760 901f f515 a49a
00000190: 1645 969e b12e 119b 5dce 1719 6f47 d518
000001a0: 01ca b99c ab21 221e bc58 2fa8 5347 0132
000001b0: fe09 0ab4 19df 57b3 dcdc 091d 8c55 cd1a
000001c0: 83f2 079e f0df 96ae 78d9 b79a 39d5 3433
000001d0: c733 aa27 5a7f ac32 0d58 56ad 113f adb5
000001e0: b25a 20a2 2f01 f41f 6b6a e825 5e6c 52b2
000001f0: e60c 3698 b97a 432a 5bd2 4533 9f5c e69b
00000200: f109 f6ac db39 8235 0a65 aa1b 6cc6 729a
00000210: ee58 5a34 8be7 fd1a 3688 9ba3 48a5 86a1
00000220: 4640 c61e a24c 17a6 ec88 0a9d 428b 2a9c
00000230: 5606 d91d e34d 09a7 ca8f 302f 4152 3722
00000240: 504c d51f 0399 0935 3b29 b2a4 a0de 239f
00000250: 68d8 911f ceac 869d b70a 2b20 2c20 949e
00000260: 5e9c cfa7 b4aa 809c b3d6 4724 82d3 891c
00000270: 5516 d01c 877c 171d 4409 f9ac 2ff8 449d
00000280: 99fe 509f c1aa 64a7 bf4f 87a1 0729 3735
00000290: 727b 371a eca3 9631 3d44 99a8 07b2 0f9e
000002a0: e685 ab25 aa7a 8c9d 2b7b f2a4 b13f 661b
000002b0: defd 0f33 c5f8 4a1c b38f bd1a a8d6 9328
000002c0: 7d05 171c 22c1 1399 871e 4f34 1e52 a01a
000002d0: 0051 5119 8bc0 ae9c a0c9 7035 7ce5 4122
000002e0: bba2 00b4 a740 0c2b 0c24 6618 4f4c 1b9c
000002f0: f79d 669b cbcc a999 4af0 afa4 dbe9 6324
00000300: 5305 c6a7 4acb 462f 3e78 829c fdcd cc99
00000310: 1f16 9526 aa53 0025 c0a0 6334 4dcd 852d
00000320: 5e1b 99a8 e339 fc2e 7d5d 93a8 ebb1 171e
00000330: 983d f41d 20cf 849d 590f dd33 0d59 2d34
00000340: e750 929f 9815 219d 2bc7 de20 58ff 131e
00000350: 09b1 19a0 e73b 1222 7371 8ba0 84d9 cf1f
00000360: a9b5 c332 d24e 2e1d 7f5d 679e babb a29f
00000370: d7a5 8c33 26be 049c b3b8 bc1a 7c8f e42c
00000380: 47c6 3a1c 5c0a 851a affc b59a fce3 349c
00000390: f2dc 33b5 b96e aba0 ed06 8921 4e9c f534
000003a0: 0699 e21c 97cf a734 a406 c61b bbb9 05ab
000003b0: 9e20 99a8 d106 2f9b 89f3 3e28 f286 6628
000003c0: b51a 4a1d 3b46 3231 b024 009e 9cc7 3c2a
000003d0: 4be2 561d f15b cca0 8d03 7a35 ed18 a71f
000003e0: 9166 3a9d e6cc 8b9d d07a 13b5 ea9b f19d
000003f0: faa2 7eb0 2c60 7f9d ba88 3d32 f103 3bad

lstm.bias_ih_l0 f4 [80]
1.4820684e-16 1.36910535e-14 1.5768703e-07 1.1232826e-15 4.346714e-17 1.7110584e-06 4.4017447e-17 5.669183e-10
7.0765922e-15 6.3319456e-16 -7.506309e-09 4.188761e-16 9.450226e-14 3.752651e-13 1.3610229e-06 4.2512832e-16
9.653018e-16 -2.3898439e-08 4.363614e-15 6.4491455e-12 4.1632392e-16 1.1501833e-14 3.818882e-15 8.662478e-16
4.2451283e-17 1.2755563e-15 5.705986e-17 7.1314326e-14 9.0652075e-15 9.149943e-16 1.9296175e-13 -3.6175418e-10
2.6404004e-11 1.7426225e-16 8.4133255e-17 4.4392245e-16 -1.4255012e-08 9.736381e-08 1.3450651e-08 1.8316221e-15
7.939357e-09 6.984797e-08 -5.887525e-08 1.9681002e-08 5.198743e-09 3.1662243e-08 -5.731474e-09 -1.5069449e-07
8.839998e-08 -2.0803432e-08 5.9766427e-07 -3.129025e-08 -1.2742818e-06 1.407842e-08 8.929587e-09 2.2068194e-08
1.721089e-08 3.380135e-08 -1.5351382e-07 -3.021932e-08 1.0849441e-16 9.961164e-15 5.25215e-15 1.0921152e-15
5.954305e-17 2.23149e-15 2.329369e-17 4.2444558e-08 9.080298e-15 5.4464197e-16 7.595226e-13 4.0037514e-16
-7.1948756e-07 -1.3934664e-06 1.7408972e-16 -1.1751143e-09 8.2070806e-16 7.5670783e-07 -7.5075796e-10 -2.0188532e-08
00000000: f0de 2a25 d7a2 7628 ae50 2934 d0e1 a126
00000010: f174 4824 85a7 e535 a1fe 4a24 54d5 1b30
00000020: 0bf6 fe27 8381 3626 19f5 00b2 3477 f125
00000030: d8cc d429 6741 d32a 64ac b635 de11 f525
00000040: 5a1d 8b26 3949 cdb2 3c37 9d27 bde8 e22c
00000050: 91fe ef25 d832 4f28 f896 8927 cead 7926
00000060: a1c5 4324 b9d3 b726 3292 8324 e995 a029
00000070: e44d 2328 55dd 8326 7041 592a 60e0 c6af
00000080: 8840 e82d 23e9 4825 82ff c124 64e7 ff25
00000090: 35e6 74b2 5216 d133 9714 6732 77fb 0327
000000a0: a965 0832 54ff 9533 06de 7cb3 fb0e a932
000000b0: a1a0 b231 01fd 0733 94ee c4b1 96ce 21b4
000000c0: 67d6 bd33 3bb3 b2b2 2d6f 2035 fe63 06b3
000000d0: fd07 abb5 8cdd 7132 bd68 1932 7990 bd32
000000e0: 26d7 9332 fa2c 1133 8fd5 24b4 7eca 01b3
000000f0: cc2b fa24 c371 3328 893a bd27 f063 9d26
00000100: 034c 8924 bacb 2027 acd8 d623 494c 3633
00000110: 7c93 2328 7cfb 1c26 5fc9 552b f1cc e625
00000120: cf22 41b5 2407 bbb5 37b6 4825 a981 a1b0
00000130: 918d 6c26 9120 4b35 e55d 4eb0 0d6b adb2

lstm.bias_hh_l0 f4 [80]
-7.8387235e-16 3.6457077e-15 -4.470002e-13 8.665889e-16 4.1948348e-07 1.0238611e-15 3.3140822e-17 5.3029507e-14
-1.5360051e-06 1.5490346e-07 2.2793058e-13 2.9196798e-09 7.867973e-14 1.6791463e-16 8.5252834e-17 -2.4619855e-15
1.7092402e-14 1.4853067e-15 8.7630025e-07 3.1187135e-15 -1.1096206e-06 1.1047907e-14 -4.3039613e-08 9.193854e-16
4.4618284e-17 2.3739576e-15 2.1266908e-17 4.9846554e-14 6.803065e-15 1.9909904e-13 1.847863e-13 2.1093362e-16
7.900146e-14 1.7962508e-16 1.2572066e-14 5.8999476e-16 1.6935415e-15 -6.4155195e-08 2.5398372e-15 1.6649138e-09
1.8097792e-08 2.4641838e-07 -6.909794e-08 5.434599e-08 1.265618e-08 4.917376e-08 -8.596848e-09 -7.700988e-07
1.0387443e-07 -2.1833339e-08 2.1436194e-06 -3.0992954e-08 -1.14986015e-07 1.2208464e-08 8.939023e-09 1.7582831e-08
7.847563e-08 3.7501287e-08 -1.9097374e-08 -6.9713316e-08 1.081337e-16 1.15898e-14 -4.16732e-09 8.865642e-16
4.3780698e-17 1.3009726e-15 4.411365e-17 3.5222093e-14 4.9121787e-15 -8.0901646e-11 3.690348e-13 5.2171396e-16
2.4005906e-13 1.701192e-16 1.1231351e-16 3.4454545e-16 -2.4280512e-08 1.7171977e-15 1.9245258e-15 1.7566983e-15
00000000: 92ef 61a6 b859 8327 85a3 fbaa fac6 7926
00000010: 5f35 e134 cf8d 9326 c7d5 1824 dcd2 6e29
00000020: bc28 ceb5 8a53 2634 4250 802a 8da3 4831
00000030: c72b b129 a797 4125 6494 c424 9e67 31a7
00000040: 65f4 9928 250e d626 e53a 6b35 1cba 6027
00000050: 46ee 94b5 7a05 4728 8eda 38b3 567f 8426
00000060: f9c3 4d24 ca0f 2b27 1127 c423 2a7d 6029
00000070: 331b f527 642a 602a 060d 502a 9e30 7325
00000080: 3ee5 b129 f717 4f25 6c7a 6228 ee0d 2a26
00000090: a710 f426 b1c5 89b3 ba03 3727 f2d2 e430
000000a0: 7775 9b32 7c4b 8434 ff62 94b3 0c6a 6933
000000b0: 786e 5932 1f33 5333 56b1 13b2 c9b8 4eb5
000000c0: 9211 df33 058c bbb2 1adb 0f36 1d1d 05b3
000000d0: 3bee f6b3 64bd 5132 3d92 1932 0e09 9732
000000e0: 6f86 a833 1a11 2133 920b a4b2 4db5 95b3
000000f0: df56 f924 85c8 5028 2230 8fb1 e488 7f26
00000100: 20e7 4924 6b7d bb26 3570 4b24 4fa0 1e29
00000110: dafa b027 94e7 b1ae 85bf cf2a b25f 1626
00000120: 2824 872a 5322 4425 197d 0125 ef9d c625
00000130: 6991 d0b2 6a79 f726 3cad 0a27 ba2a fd26

lstm.weight_ih_l1 f4 [80, 20]
2.4867565e-12 4.2772733e-08 -9.34828e-12 3.5635219e-12 9.525544e-13 6.85893e-12 1.0822529e-06 -4.2683254e-08
1.0880893e-11 -3.2438642e-12 1.8351705e-10 -3.348517e-12 -5.344619e-11 1.3549442e-12 1.532024e-12 -1.0179526e-09
1.32602635e-11 3.8160998e-12 -8.636055e-12 -9.756595e-12 1.4399675e-10 2.0169184e-10 -1.4646222e-10 8.1715024e-11
1.9275652e-11 8.651241e-11 -5.410573e-11 -8.4115004e-10 1.469134e-10 -2.170099e-11 1.4605306e-09 -4.8243753e-11
-1.913198e-07 1.1398701e-11 2.0482515e-11 3.2449706e-11 5.5134845e-11 5.6372212e-11 -2.0624517e-08 1.9692544e-08
1.695072e-10 2.8509843e-09 -8.481591e-10 4.0222134e-10 1.433493e-10 -4.196988e-09 -7.479839e-11 7.7942175e-08
9.656421e-10 -2.772495e-07 1.6956603e-08 -3.2963574e-10 -3.1868513e-08 1.3927551e-10 -1.2979972e-09 2.8967259e-08
1.1759898e-09 -8.5432686e-07 -1.7785134e-09 -1.38139e-09 1.6808588e-10 8.6585844e-10 4.6243724e-09 2.1532578e-10
5.0729296e-11 2.584149e-10 -4.5008108e-10 -5.0088964e-09 -3.839223e-07 7.8814855e-07 2.3076817e-08 7.9388377e-07
-4.1069534e-09 6.432287e-11 -2.3976247e-07 1.232636e-10 5.0796195e-10 1.848779e-10 8.9521905e-07 -8.4946744e-10
2.2140652e-10 1.968245e-10 -1.8167479e-10 1.10579705e-10 5.4818376e-08 5.2737845e-11 -1.0648162e-11 -5.504073e-10
1.7325455e-10 -3.5978248e-11 2.2640119e-09 -5.4884968e-11 -8.3682666e-10 -7.857957e-08 -4.540371e-08 8.404604e-08
1.1309582e-10 1.6400856e-10 -1.1448569e-10 2.4857421e-08 1.7828887e-10 5.8859064e-09 -1.1166791e-09 5.3413013e-10
1.2760257e-08 4.6496892e-10 -3.219686e-10 -5.4301093e-09 1.2559168e-07 -2.393244e-10 2.2415989e-08 -4.7255216e-10
-8.404726e-09 -6.869252e-08 5.8304753e-08 2.0040529e-10 6.9087286e-10 -4.7893103e-08 -1.1437431e-09 -5.010524e-10
3.544041e-11 8.920915e-10 -2.2373706e-10 -9.241398e-08 1.9498481e-11 1.2543695e-10 -1.5512943e-11 -1.1075664e-09
7.133245e-07 -9.0305444e-11 3.3216647e-09 -7.113263e-11 -1.4748284e-09 3.0303985e-11 2.578239e-11 -4.7191787e-07
1.0760285e-10 7.578935e-11 -2.7350633e-10 5.2152666e-07 5.3243125e-11 3.786624e-08 -4.4274995e-10 2.7284966e-07
-1.4574024e-06 7.022953e-08 -5.5855702e-11 -2.4620779e-09 3.9214082e-10 -8.0947596e-11 1.42886245e-08 -1.4876037e-10
-3.540202e-09 7.55991e-07 1.0649911e-10 1.2581479e-10 1.822793e-10 2.0699237e-10 -2.302523e-07 -4.7802917e-10
1.8244928e-10 2.6639548e-09 -4.041477e-10 1.4093515e-06 1.1684623e-10 4.58996e-10 -5.8666155e-11 -1.0149766e-08
1.7676347e-09 1.4640646e-08 9.821602e-09 -2.752773e-10 -1.2963354e-08 7.0950693e-07 1.7807303e-10 2.654059e-10
3.4414144e-10 4.4816487e-10 -5.472303e-10 -3.8633982e-10 1.630924e-10 3.2138625e-09 -5.661974e-10 1.1663307e-09
2.1920599e-10 1.0469016e-09 -6.1350036e-11 -5.0413513e-09 3.0980294e-09 -1.971643e-10 1.4280613e-08 -3.135101e-07
-9.4378116e-08 -2.999567e-10 -1.1938592e-07 1.6316202e-06 1.6880211e-09 -4.7491304e-07 -1.3944546e-09 -5.208207e-10
1.0855309e-06 2.5174363e-10 -1.2065846e-10 8.7790684e-11 3.263402e-11 -3.987672e-07 -3.172405e-11 -1.0597795e-09
-1.5579783e-10 -3.3160186e-11 3.7057537e-09 -4.0335273e-11 -1.666348e-08 1.9153876e-11 -2.3376458e-08 3.2679057e-11
1.4729831e-10 4.8980597e-11 -1.6682317e-06 -1.6077227e-10 1.3203561e-11 1.4234809e-10 -5.3834024e-11 3.3045452e-11
7.3539376e-11 4.3536456e-11 -1.6389088e-11 -4.886606e-10 1.4629736e-10 -2.1493026e-11 1.4333092e-09 -3.1518496e-11
-6.675831e-10 1.0716683e-11 7.965256e-12 2.0462704e-11 6.862589e-11 2.9552118e-11 -6.411877e-11 -2.3905716e-07
3.3589916e-11 7.613545e-10 -1.6952477e-10 9.34724e-11 5.0216224e-11 -1.1007766e-09 -1.4684375e-11 -6.42316e-09
3.2156794e-10 -5.869318e-11 3.368701e-09 -1.4358836e-10 1.6586242e-06 2.671851e-11 1.9649775e-11 1.7545726e-10
00000000: 6cfd 2e2c 1eb5 3733 e974 24ad b4c2 7a2c
00000010: 640f 862b c053 f12c ed41 9135 bc52 37b3
00000020: 306b 3f2d 4344 64ac 75c7 492f 85a1 6bac
00000030: 0f0f 6bae 02b1 be2b fb9c d72b 06e8 8bb0
00000040: eb46 692d 5f44 862c 56ed 17ad cca3 2bad
00000050: 7b53 1e2f 35c3 5d2f 7309 21af 78b1 b32e
00000060: e98c a92d 283e be2e a3f5 6dae ac36 67b0
00000070: 7288 212f 49e2 bead dabb c830 a32d 54ae
00000080: 966d 4db4 3087 482d 862a b42d 1fb7 0e2e
00000090: 517c 722e 78ed 772e cb29 b1b2 5d28 a932
000000a0: 0960 3a2f 0ceb 4331 e423 69b0 9f1f dd2f
000000b0: 3e9d 1d2f 1935 90b1 c07b a4ae 2a61 a733
000000c0: 83b7 8430 e2d8 94b4 f7a7 9132 1b38 b5af
000000d0: cddf 08b3 9222 192f 3765 b2b0 add3 f832
000000e0: 76a0 a130 e554 65b5 e16f f4b0 57db bdb0
000000f0: f8cf 382f 5f01 6e30 69e4 9e31 d2c0 6c2f
00000100: 1c1c 5f2e aa10 8e2f 486f f7af b81a acb1
00000110: e11d ceb4 2891 5335 753a c632 471b 5535
00000120: 251d 8db1 8f72 8d2e b4b8 80b4 9e87 072f
00000130: a5a0 0b30 8146 4b2f fc4e 7035 f57f 69b0
00000140: 6570 732f 2c69 582f e8c0 47af d72a f32e
00000150: 7171 6b33 89f1 672e 0f53 3bad 784b 17b0
00000160: d27e 3e2f e83b 1eae eb94 1b31 fb62 71ae
00000170: 7106 66b0 93bf a8b3 e801 43b3 cd7c b433
00000180: 49b3 f82e 4e54 342f b7c1 fbae 0c86 d532
00000190: db07 442f fb3c ca31 a779 99b0 11d2 1230
000001a0: 3438 5b32 8f9e ff2f 0d01 b1af bf93 bab1
000001b0: 61da 0634 ea91 83af 488d c032 e7e4 01b0
000001c0: 6064 10b2 1d84 93b3 c16a 7a33 1359 5c2f
000001d0: dbe7 3d30 06b3 4db3 e231 9db0 6eba 09b0
000001e0: 5bde 1b2e 5c37 7530 6200 76af 1f75 c6b3
000001f0: ad82 ab2d 5deb 092f 0b74 88ad 0739 98b0
00000200: 497b 3f35 7295 c6ae 5843 6431 1c6c 9cae
00000210: e9b2 cab0 4147 052e c8c8 e22d e65b fdb4
00000220: 059f ec2e 9ca9 a62e 985c 96af 0aff 0b35
00000230: 6e2a 6a2e 5fa2 2233 8467 f3af 2c7c 9234
00000240: f79b c3b5 18d1 9633 eea7 75ae 5531 29b1
00000250: ea94 d72f 7201 b2ae 097a 7532 5290 23af
00000260: e447 73b1 4eef 4a35 ab31 ea2e b755 0a2f
00000270: 106b 482f 2c97 632f 453b 77b4 5066 03b0
00000280: e89a 482f ca10 3731 bb2e deaf f328 bd35
00000290: 4a79 002f f255 fc2f 1c02 81ae 255f 2eb2
000002a0: 1ef1 f230 3e86 7b32 ddbb 2832 d655 97af
000002b0: 6fb5 5eb2 f274 3e35 1acb 432f 8fe8 912f
000002c0: 9a31 bd2f 9961 f62f e96b 16b0 7f64 d4af
000002d0: 6e52 332f deda 5c31 9aa2 1bb0 9d4c a030
000002e0: 0005 712f 93e2 8f30 00e9 86ae 3238 adb1
000002f0: 1ce5 5431 d1c8 58af cd56 7532 8050 a8b4
00000300: ebac cab3 27e7 a4af 8d30 00b4 0bfe da35
00000310: f6ff e730 8df7 feb4 02a7 bfb0 8029 0fb0
00000320: 8fb2 9135 c465 8a2f 56aa 04af c30d c12e
00000330: a486 0f2e 2616 d6b4 1b86 0bae ada7 91b0
00000340: 314d 2baf 0dd7 11ae 4fa8 7e31 7b65 31ae
00000350: 6123 8fb2 b27a a82d 60cd c8b2 59b9 0f2e
00000360: caf4 212f 406b 572e 01e8 dfb5 5fc5 30af
00000370: 8d47 682d 6d83 1c2f b9c3 6cae df55 112e
00000380: fdb6 a12e b179 3f2e f228 90ad 6f52 06b0
00000390: 0cdb 202f fe0d bdad 16fe c430 ac9e 0aae
000003a0: fc80 37b0 a687 3c2d 5320 0c2d eafd b32d
000003b0: f1e8 962e baf8 012e a9ff 8cae c457 80b4
000003c0: e2ba 132e 8f47 5130 fb64 3aaf 498c cd2e
000003d0: 71da 5c2e 224a 97b0 462a 81ad b6b2 dcb1
000003e0: aac8 b02f 5311 81ae d17e 6731 88e0 1daf
000003f0: e59d de35 bc04 eb2d 5cd7 ac2d d4ea 402f

lstm.weight_hh_l1 f4 [80, 20]
1.0391303e-06 3.1464645e-06 -1.0510652e-05 7.436001e-06 -3.3688452e-06 1.1014549e-05 -4.720699e-06 6.75663e-06
-8.747357e-06 9.900794e-06 3.8506196e-06 -2.9681598e-06 4.5775855e-06 8.303125e-06 -1.2899503e-05 7.576877e-06
7.552207e-06 1.991313e-06 -4.351663e-06 1.0658642e-05 1.0187702e-05 3.1292268e-05 -0.00010343348 7.4165444e-05
-3.3638164e-05 0.00010731419 -4.7953134e-05 6.059312e-05 -8.6060645e-05 9.462759e-05 3.7747643e-05 -2.9315934e-05
4.4442415e-05 7.852501e-05 -0.00012701792 6.931761e-05 7.4191965e-05 2.0089137e-05 -4.382179e-05 0.00010517618
0.00010614332 0.0003424876 -0.0010937336 0.0007722063 -0.00036841707 0.0012025179 -0.0005034757 0.00066109945
-0.0009134232 0.0009854833 0.00039678073 -0.0003126111 0.00046748534 0.00080311135 -0.0013937581 0.0008146654
0.00080339063 0.00021158018 -0.00045789572 0.0011342677 5.413454e-05 0.00016864287 -0.0005489561 0.00040543894
-0.00017723795 0.0005638614 -0.00025981094 0.0003280293 -0.00045877133 0.0005140707 0.00020387182 -0.00015779768
0.00024501004 0.0004379322 -0.0006912206 0.00039149012 0.00039434517 0.000107271175 -0.00023194768 0.00056211936
1.1507573e-05 3.5897305e-05 -0.000118003605 8.398334e-05 -3.7968202e-05 0.00012225642 -5.2157895e-05 6.938865e-05
-9.930788e-05 0.0001100446 4.283176e-05 -3.3590128e-05 5.1537463e-05 9.298228e-05 -0.00014412502 8.299736e-05
8.425432e-05 2.2570917e-05 -4.9366135e-05 0.00011893238 0.00012056602 0.0003751923 -0.0012171085 0.00086040085
-0.00038120284 0.0012337118 -0.0005768225 0.00072666944 -0.0010463997 0.0010982835 0.0004444482 -0.00033742585
0.00048385246 0.00092701655 -0.0014560941 0.0007834945 0.00080860074 0.0002277123 -0.0004982338 0.0012790834
2.3339904e-05 7.127299e-05 -0.00023925312 0.00016702332 -7.626897e-05 0.00024686096 -0.00011118976 0.0001394789
-0.00019639252 0.0002268049 8.580256e-05 -6.6931505e-05 0.00010182956 0.00018700035 -0.00028777213 0.00016571689
0.00017151241 4.5125384e-05 -9.813878e-05 0.00023915544 3.7114805e-05 0.00011831283 -0.00037566264 0.00027500695
-0.00012566872 0.00040221837 -0.00017936161 0.00021962164 -0.00033253033 0.00036104975 0.00014252898 -0.00011124984
0.00016899685 0.0003042181 -0.00047444375 0.0002789944 0.0002695949 7.466093e-05 -0.00016362133 0.00039577865
7.498013e-05 0.00024312505 -0.00080579927 0.0005249545 -0.00024844625 0.0007911635 -0.0003619725 0.00045356472
-0.0006359739 0.00068887335 0.00028154626 -0.00022153644 0.00033938454 0.0005697677 -0.00093764917 0.00054630096
0.00055300596 0.00014809889 -0.0003317927 0.00078686513 0.00010110653 0.00028266897 -0.0010367538 0.00068825885
-0.00031470726 0.001037951 -0.00047565493 0.0005761601 -0.0008077848 0.0009158053 0.00037024383 -0.00028888375
0.0004186655 0.0007509277 -0.0012828027 0.0007230312 0.0007674028 0.00019642175 -0.00042760253 0.0009114451
1.4230966e-05 4.5688987e-05 -0.00014967688 0.00010442577 -4.7317946e-05 0.0001486061 -6.849388e-05 8.8118686e-05
-0.00012366174 0.00013297502 5.497412e-05 -4.2527157e-05 6.2403786e-05 0.00011764336 -0.00018486343 0.0001061621
0.00010649319 2.8669636e-05 -6.2204344e-05 0.00015193864 8.975744e-06 2.7801525e-05 -9.188038e-05 6.46621e-05
-2.9755316e-05 9.362161e-05 -4.2506876e-05 5.4309658e-05 -7.6497156e-05 8.541612e-05 3.257322e-05 -2.6394991e-05
3.97402e-05 7.23885e-05 -0.00011213627 6.534324e-05 6.564105e-05 1.775505e-05 -3.867251e-05 9.264814e-05
2.0525864e-05 6.372588e-05 -0.00020499804 0.00014904467 -6.798023e-05 0.00021822343 -9.5391435e-05 0.00012525811
-0.00016826957 0.00019831052 7.6622666e-05 -5.9869868e-05 9.084653e-05 0.00016525977 -0.0002617716 0.00014823113
00000000: 3f78 8b35 d927 5336 e856 30b7 c382 f936
00000010: 5214 62b6 21cb 3837 7f66 9eb6 02b7 e236
00000020: 9dc1 12b7 961b 2637 9234 8136 9930 47b6
00000030: 2999 9936 a64d 0b37 f26a 58b7 e13c fe36
00000040: f768 fd36 7fa2 0536 8004 92b6 85d2 3237
00000050: d9eb 2a37 d13f 0338 6dea d8b8 4589 9b38
00000060: b416 0db8 de0d e138 4921 49b8 5e25 7e38
00000070: 757b b4b8 cd72 c638 3953 1e38 7deb f5b7
00000080: ae67 3a38 cbad a438 1d30 05b9 9c5e 9138
00000090: 8297 9b38 1885 a837 4acd 37b8 0892 dc38
000000a0: 4399 de38 e88f b339 9c5b 8fba e36d 4a3a
000000b0: 1a28 c1b9 ce9d 9d3a affb 03ba a24d 2d3a
000000c0: cb72 6fba 552b 813a 0207 d039 f4e5 a3b9
000000d0: d218 f539 e487 523a c3ae b6ba 458f 553a
000000e0: a29a 523a 9fdb 5d39 b911 f0b9 b5ab 943a
000000f0: 850e 6338 bad5 3039 d2e7 0fba 1891 d439
00000100: f3d8 39b9 19d0 133a 3c37 88b9 59fb ab39
00000110: 3f87 f0b9 b3c2 063a 6dc6 5539 7e76 25b9
00000120: b174 8039 449a e539 0733 35ba ea40 cd39
00000130: 1dc0 ce39 c6f6 e038 fb36 73b9 315b 133a
00000140: a610 4137 7090 1638 b478 f7b8 3620 b038
00000150: 0c40 1fb8 f531 0039 1dc4 5ab8 bf84 9138
00000160: 8343 d0b8 bfc7 e638 41a6 3338 20e3 0cb8
00000170: ee29 5838 7bff c238 4420 17b9 de0e ae38
00000180: b2b1 b038 ad56 bd37 7c0e 4fb8 566b f938
00000190: 64d8 fc38 75b5 c439 6287 9fba 868c 613a
000001a0: 2edc c7b9 80b4 a13a e735 17ba f67d 3e3a
000001b0: 5927 89ba 47f4 8f3a d404 e939 88e8 b0b9
000001c0: 94ad fd39 0703 733a 69da beba 6d63 4d3a
000001d0: 47f8 533a 0ec6 6e39 e89b 02ba eba6 a73a
000001e0: 10ca c337 6578 9538 05e0 7ab9 fb22 2f39
000001f0: 97f2 9fb8 1e6d 8139 8c2e e9b8 1541 1239
00000200: b7ee 4db9 7ad2 6d39 e6f0 b338 945d 8cb8
00000210: 548d d538 8615 4439 1fe0 96b9 4ac4 2d39
00000220: 03d8 3339 0345 3d38 dbcf cdb8 cdc5 7a39
00000230: b8ab 1b38 b81e f838 96f4 c4b9 cf2e 9039
00000240: f1c5 03b9 d6e0 d239 0413 3cb9 3c4a 6639
00000250: 7757 aeb9 474b bd39 d573 1539 ce4e e9b8
00000260: bf34 3139 767f 9f39 c3be f8b9 ff45 9239
00000270: 6a58 8d39 4893 9c38 c491 2bb9 8380 cf39
00000280: a73e 9d38 62ef 7e39 463c 53ba 1a9d 093a
00000290: e441 82b9 1566 4f3a 20c7 bdb9 6dcc ed39
000002a0: 7cb7 26ba 8295 343a 809c 9339 3c4c 68b9
000002b0: 6cef b139 775c 153a 92cc 75ba a335 0f3a
000002c0: 9af7 103a fe4a 1b39 76f4 adb9 a045 4e3a
000002d0: 2809 d438 3033 9439 afe3 87ba 456c 343a
000002e0: 4bff a4b9 db0b 883a 5361 f9b9 7309 173a
000002f0: 85c1 53ba a712 703a 491d c239 5275 97b9
00000300: 5580 db39 e8d9 443a b723 a8ba cd89 3d3a
00000310: 882b 493a 90f6 4d39 d72f e0b9 0cee 6e3a
00000320: 89c1 6e37 2da2 3f38 95f2 1cb9 29ff da38
00000330: 4277 46b8 25d3 1b39 5fa4 8fb8 5ccc b838
00000340: 32ab 01b9 366f 0b39 0394 6638 305f 32b8
00000350: c7de 8238 4cb7 f638 e6d7 41b9 58a3 de38
00000360: 1955 df38 937f f037 b473 82b8 b851 1f39
00000370: 8796 1637 5237 e937 e7af c0b8 339b 8738
00000380: 0e9b f9b7 b856 c438 6949 32b8 8dca 6338
00000390: 196d a0b8 6e21 b338 3b9f 0838 d06a ddb7
000003a0: b7ae 2638 48cf 9738 b42a ebb8 e308 8938
000003b0: c5a8 8938 aef0 9437 4b34 22b8 174c c238
000003c0: f52e ac37 92a4 8538 bef4 56b9 e048 1c39
000003d0: 9c90 8eb8 e8d2 6439 e30c c8b8 b857 0339
000003e0: 8571 30b9 93f1 4f39 7bb0 a038 c81c 7bb8
000003f0: dc84 be38 9549 2d39 643e 89b9 7e6e 1b39

lstm.bias_ih_l1 f4 [80]
9.778943e-05 0.0009753082 0.010549507 0.005359546 0.0011155296 0.0118438825 0.0022467182 0.0037040773
0.0072621936 0.009154481 0.0014147852 0.0008696759 0.0019889097 0.0066291722 0.015284031 0.005347711
0.005385593 0.00038632474 0.0018567821 0.010374167 9.844784e-05 0.00097455183 0.0104853045 0.005322901
0.0011214719 0.011197788 0.0022656983 0.0037445137 0.0073813978 0.009330141 0.001367918 0.0008673457
0.0020002422 0.0068183485 0.016244294 0.0054634274 0.005203916 0.00039227333 0.0018627042 0.011058551
0.009749878 0.030524071 -0.09849786 0.0701165 -0.032615736 0.10217086 -0.04574048 0.058901284
-0.082646385 0.09178604 0.03646542 -0.028661545 0.043368287 0.0782567 -0.123337135 0.07023861
0.07111597 0.019432198 -0.041861687 0.099716365 9.990094e-05 0.0009800604 0.010696793 0.0053167474
0.001121282 0.011243481 0.0022383686 0.0037450616 0.007643042 0.009387223 0.0014192865 0.00086810195
0.0019355759 0.006590846 0.016112946 0.005500494 0.005463633 0.00039181614 0.0018843081 0.011028068
00000000: 4d14 cd38 d3ab 7f3a d7d7 2c3c 219f af3b
00000010: f636 923a d80c 423c ad3d 133b 1bc0 723b
00000020: b2f7 ed3b adfc 153c 5070 b93a f6fa 633a
00000030: 5e58 023b 8739 d93b df69 7a3c da3b af3b
00000040: a179 b03b a18b ca39 455f f33a 69f8 293c
00000050: c875 ce38 1179 7f3a 8eca 2b3c bb6b ae3b
00000060: 5afe 923a ed76 373c 1c7c 143b 8466 753b
00000070: a7df f13b 73dd 183c b64b b33a 965e 633a
00000080: 7f16 033b 746c df3b c112 853c 8d06 b33b
00000090: 9d85 aa3b 09aa cd39 fb25 f43a ed2e 353c
000000a0: f4bd 1f3c 9e0d fa3c 3fb9 c9bd 3d99 8f3d
000000b0: 1498 05bd f53e d13d 5f5a 3bbd 7942 713d
000000c0: 8242 a9bd 52fa bb3d c45c 153d 9ecb eabc
000000d0: f2a2 313d 0c45 a03d 2e98 fcbd 43d9 8f3d
000000e0: 40a5 913d 4630 9f3c 2977 2bbd 1838 cc3d
000000f0: e981 d138 5f75 803a 9a41 2f3c 1c38 ae3b
00000100: fbf7 923a 9436 383c 98b1 123b b56f 753b
00000110: 7c72 fa3b decc 193c 5a07 ba3a 5691 633a
00000120: 26b3 fd3a 06f8 d73b 4cff 833c 7d3d b43b
00000130: 4708 b33b ac6c cd39 e3fa f63a 12af 343c

lstm.bias_hh_l1 f4 [80]
9.9347744e-05 0.0009653169 0.01087539 0.005256077 0.0011261285 0.010895919 0.0022569068 0.003695284
0.0075285668 0.0093713915 0.0014252389 0.000870538 0.0019936499 0.0064707617 0.015271218 0.0053632185
0.005457965 0.00038926187 0.0018571366 0.011401008 9.709152e-05 0.0009816019 0.010902982 0.005453462
0.0011250121 0.012162576 0.0022337346 0.0037601474 0.0073790946 0.009277296 0.0014184472 0.0008677194
0.0019965142 0.0063186386 0.015371619 0.0053312923 0.0054379045 0.00040393716 0.0018707054 0.011084501
0.009800827 0.030729363 -0.09915133 0.069450915 -0.032416727 0.102492794 -0.04582347 0.058800064
-0.081135765 0.09067642 0.036794595 -0.028597137 0.043658573 0.07768709 -0.11782753 0.07030515
0.07131722 0.019327953 -0.041940916 0.09933736 9.8822005e-05 0.0009801605 0.010691585 0.0053530834
0.0011157761 0.011519431 0.002245948 0.003748549 0.007121917 0.008811665 0.0014181529 0.00087526976
0.001993519 0.006598473 0.017006231 0.005360075 0.0054597077 0.00038687838 0.0018669162 0.010715297
00000000: ea58 d038 520d 7d3a b12e 323c 2b3b ac3b
00000010: 9a9a 933a cc84 323c 9de8 133b 942c 723b
00000020: 32b2 f63b 778a 193c 15cf ba3a d134 643a
00000030: e5a7 023b af08 d43b 2134 7a3c f0bd af3b
00000040: bbd8 b23b d815 cc39 2a6b f33a 4bcb 3a3c
00000050: 9d9d cb38 18a9 803a 6ca2 323c f4b2 b23b
00000060: 2475 933a 8b45 473c d963 123b ce6c 763b
00000070: 55cc f13b cdff 173c 31eb b93a aa77 633a
00000080: f3d7 023b 950c cf3b 3ed9 7b3c 1fb2 ae3b
00000090: 7330 b23b 87c7 d339 7532 f53a c49b 353c
000000a0: a693 203c 25bc fb3c da0f cbbd 483c 8e3d
000000b0: 67c7 04bd bee7 d13d 64b1 3bbd 56d8 703d
000000c0: 822a a6bd 8fb4 b93d eeb5 163d 8b44 eabc
000000d0: 55d3 323d 691a 9f3d 8f4f f1bd 25fc 8f3d
000000e0: c30e 923d a855 9e3c 3dca 2bbd 6371 cb3d
000000f0: a93e cf38 bb78 803a c22b 2f3c eb68 af3b
00000100: 3c3f 923a ffbb 3c3c c130 133b 37aa 753b
00000110: f85e e93b cd5e 103c 51e1 b93a 5c72 653a
00000120: b3a5 023b 0138 d83b a750 8b3c 91a3 af3b
00000130: 59e7 b23b f0d5 ca39 50b3 f43a 378f 2f3c

fc.weight f4 [180, 20]
0.0010235143 0.0032422752 -0.0107481815 0.00756363 -0.0034594797 0.011090385 -0.0048838556 0.006306772
-0.008898442 0.01000124 0.003910796 -0.0030376574 0.004658343 0.008391923 -0.013078038 0.007530008
0.007652702 0.0020493176 -0.0044822423 0.01082679 0.0010343136 0.003206442 -0.010680078 0.0074821096
-0.0034523157 0.011016835 -0.004856025 0.0062737623 -0.008979296 0.009882693 0.0038671363 -0.0030410902
0.0045635644 0.008344468 -0.0131914625 0.007574563 0.007605831 0.002036505 -0.004438506 0.010877594
0.0010361283 0.0032713106 -0.0106956735 0.0076167914 -0.0034588315 0.011019978 -0.0048959074 0.0063159214
-0.008964112 0.01055305 0.003941998 -0.003049419 0.004627146 0.0083759995 -0.013209124 0.0075545004
0.007647657 0.0020622534 -0.004469295 0.010815708 0.0010296376 0.0032916453 -0.010551855 0.0076040085
-0.003449572 0.011070495 -0.0049132705 0.00628949 -0.008873892 0.0097443545 0.003931414 -0.0030249204
0.004617883 0.008420102 -0.01307794 0.007575009 0.0076177916 0.0020292187 -0.004453251 0.010937473
0.0010324188 0.003235736 -0.010711556 0.007156327 -0.0034295944 0.011179436 -0.004870023 0.0062718624
-0.008838497 0.010189435 0.0038683994 -0.0030320745 0.004630214 0.00837788 -0.013163272 0.007486373
0.007603073 0.002061846 -0.0044358284 0.010706349 0.0010430714 0.00321748 -0.010786798 0.00757468
-0.0034407345 0.01107268 -0.004873771 0.006275522 -0.008880166 0.010379342 0.0038909023 -0.0029800357
0.0045993915 0.00832081 -0.013071651 0.0075832056 0.0076609864 0.0020406283 -0.0044464376 0.010418213
0.0010392742 0.0032323129 -0.010658526 0.0075425026 -0.003450067 0.011301736 -0.0048764623 0.006242144
-0.00890333 0.00975935 0.003892206 -0.0030341565 0.0046040365 0.008373877 -0.013026086 0.007589776
0.0076016197 0.002029913 -0.004480136 0.011080042 0.0010268221 0.0032732578 -0.010675599 0.007551078
-0.0034892182 0.010591495 -0.0048737484 0.0062850905 -0.008893672 0.010022448 0.0038729475 -0.0030578014
0.0046674344 0.008365176 -0.013083809 0.0076113353 0.0076357415 0.0020428007 -0.0044904165 0.010771235
0.001017532 0.0032838022 -0.010832399 0.007547151 -0.003465167 0.011315965 -0.0050034723 0.006303704
-0.008882271 0.010013254 0.0038730693 -0.0030616615 0.004607933 0.008370673 -0.013405431 0.007612646
0.0076743406 0.0020862545 -0.0044956533 0.010975327 0.0010326639 0.0029876397 -0.010750776 0.00754327
-0.0034330594 0.010655402 -0.0049756803 0.006291152 -0.008951371 0.009952252 0.0039163125 -0.0030335842
0.0045987274 0.008394627 -0.013099456 0.0076361466 0.0076243887 0.0020609607 -0.004304379 0.010783563
0.0010357712 0.0032135278 -0.010705084 0.007527993 -0.003422825 0.01096393 -0.0048938035 0.0063607045
-0.008949494 0.00995436 0.003885761 -0.0030566948 0.00459679 0.008371009 -0.012914284 0.0074961386
0.007608389 0.002049044 -0.0044734646 0.0110829165 0.0010392437 0.0032276001 -0.010812515 0.0076089436
-0.0034439664 0.011160563 -0.004860085 0.006266409 -0.008914034 0.010058957 0.0038742074 -0.0030174607
0.0046314504 0.008426409 -0.013056986 0.0075648823 0.0076284437 0.0020307212 -0.004457103 0.011031966
0.0010420608 0.0032366402 -0.010864677 0.0075127925 -0.0033709768 0.011091222 -0.004895471 0.006288769
-0.008872868 0.009768748 0.003887964 -0.0030256093 0.004606315 0.00835472 -0.0130413985 0.0076038837
00000000: 7127 863a 5a7c 543b 2419 30bc 54d8 f73b
00000010: 70b8 62bb 72b4 353c c008 a0bb 0aa9 ce3b
00000020: c5ca 11bc 3edc 233c 2226 803b 6f13 47bb
00000030: 03a5 983b 477e 093c 4445 56bc 49be f63b
00000040: 84c3 fa3b d84d 063b c6df 92bb d962 313c
00000050: ce91 873a 2c23 523b 7efb 2ebc 7c2c f53b
00000060: 3f40 62bb f57f 343c 4a1f 9fbb 2294 cd3b
00000070: e61d 13bc 05eb 213c c86f 7d3b 074d 47bb
00000080: f489 953b 3cb7 083c 0121 58bc 0a34 f83b
00000090: 563a f93b e276 053b e370 91bb f037 323c
000000a0: b2ce 873a 7c63 563b e83c 2fbc 4796 f93b
000000b0: 90ad 62bb 238d 343c d96d a0bb caf5 ce3b
000000c0: 36de 12bc b3e6 2c3c e02b 813b c3d8 47bb
000000d0: 509f 973b 7d3b 093c 156b 58bc be8b f73b
000000e0: 3299 fa3b df26 073b 2a73 92bb 5e34 313c
000000f0: e8f4 863a a5b8 573b b0e1 2cbc 0c2b f93b
00000100: 3712 62bb 0561 353c 80ff a0bb 1118 ce3b
00000110: cd63 11bc c9a6 1f3c 17d3 803b be3d 46bb
00000120: 9c51 973b 78f4 093c db44 56bc c837 f83b
00000130: ab9e f93b a4fc 043b 94ec 91bb 1633 333c
00000140: 3a52 873a a40e 543b 867f 2fbc 9f7f ea3b
00000150: 0cc3 60bb f429 373c b794 9fbb 3284 cd3b
00000160: 58cf 10bc 97f1 263c f984 7d3b c5b5 46bb
00000170: 0db9 973b 6043 093c c4aa 57bc 4050 f53b
00000180: 3323 f93b 0920 073b 6d5a 91bb af69 2f3c
00000190: abb7 883a 5bdc 523b 1cbb 30bc 0535 f83b
000001a0: f27d 61bb 306a 353c 28b4 9fbb e5a2 cd3b
000001b0: 1e7e 11bc 1e0e 2a3c 82fe 7e3b b44c 43bb
000001c0: 7eb6 963b 0254 083c 7a2a 56bc 8a7c f83b
000001d0: 0309 fb3b 10bc 053b 6cb3 91bb 27b1 2a3c
000001e0: 4138 883a 36d5 533b 19a1 2ebc 1927 f73b
000001f0: 851a 62bb eb2a 393c bbca 9fbb e68a cc3b
00000200: 46df 11bc aee5 1f3c 6114 7f3b b3d8 46bb
00000210: 75dd 963b 9632 093c 5d6b 55bc a8b3 f83b
00000220: 0217 f93b 4a08 053b 1bce 92bb 1189 353c
00000230: 6f96 863a 2784 563b b5e8 2ebc 096f f73b
00000240: 5eab 64bb f387 2d3c f7b3 9fbb 29f3 cd3b
00000250: c4b6 11bc 3235 243c 47d1 7d3b 6565 48bb
00000260: 47f1 983b 170e 093c 795d 56bc 8268 f93b
00000270: 3e35 fa3b 82e0 053b 5824 93bb d679 303c
00000280: b55e 853a 0f35 573b 607a 31bc 174e f73b
00000290: db17 63bb 9966 393c 2bf4 a3bb 4d8f ce3b
000002a0: f286 11bc a20e 243c 52d3 7d3b 28a6 48bb
000002b0: 25fe 963b 2625 093c 74a2 5bbc 8173 f93b
000002c0: 0979 fb3b 8bb9 083b 4650 93bb dcd1 333c
000002d0: 735a 873a 47cc 433b 0624 30bc 892d f73b
000002e0: 2efd 60bb ff93 2e3c 080b a3bb 0226 ce3b
000002f0: c5a8 12bc c50e 233c 6954 803b 19cf 46bb
00000300: ecb0 963b 9e89 093c 1a9f 56bc a438 fa3b
00000310: 02d6 f93b 2f11 073b c00b 8dbb 8bad 303c
00000320: b7c2 873a 0d9a 523b 6064 2fbc 62ad f63b
00000330: 7951 60bb 0ea2 333c 335c a0bb 756d d03b
00000340: e6a0 12bc 9d17 233c 40a8 7e3b d452 48bb
00000350: aba0 963b 8e26 093c 6f96 53bc 2ba2 f53b
00000360: cb4f f93b 4149 063b 2496 92bb 1f95 353c
00000370: 3b37 883a 2586 533b fa26 31bc 7254 f93b
00000380: 2bb4 61bb cbda 363c 5941 9fbb 7356 cd3b
00000390: 2b0c 12bc 53ce 243c 6ae6 7d3b 97c0 45bb
000003a0: 6cc3 973b ec0e 0a3c f8ec 55bc d5e2 f73b
000003b0: 06f8 f93b d915 053b e40c 92bb 6bbf 343c
000003c0: c295 883a d01d 543b c201 32bc df2d f63b
000003d0: 9beb 5cbb f5b7 353c 306a a0bb 0512 ce3b
000003e0: 815f 11bc 190d 203c 36cd 7e3b 4d49 46bb
000003f0: 92f0 963b 3ce2 083c 97ab 55bc 002a f93b

fc.bias f4 [180]
0.10002134 0.10068751 0.099546865 0.10035478 0.10086769 0.100924425 0.10138282 0.100467704
0.10007604 0.100856714 0.10078603 0.10059098 0.100726545 0.10075067 0.10004185 0.10036324
0.100765504 0.10075986 0.100579694 0.10023271 0.100008406 0.10028233 0.10019536 0.10046056
0.10057842 0.09974192 0.10042196 0.100764364 0.10017565 0.10129111 0.10021316 0.1004996
0.1008825 0.10136355 0.101315096 0.1013269 0.10091145 0.10025936 0.10011465 0.10024546
0.099951945 0.10102017 0.100916736 0.10116039 0.10112256 0.10049743 0.10125843 0.10045629
0.10003693 0.10041522 0.10001749 0.10035315 0.10098919 0.10024501 0.10034721 0.100290135
0.100920245 0.10043006 0.10123626 0.10053674 0.101231895 0.10092179 0.10057077 0.10079564
0.10039026 0.10039188 0.100711234 0.09996131 0.10051158 0.10000017 0.10066387 0.100317
0.101123996 0.1004524 0.100336455 0.100679725 0.10105284 0.10005522 0.10025173 0.0996052
0.09996982 0.100642726 0.100549966 0.10064589 0.10092113 0.09989126 0.100206286 0.100286245
0.10071454 0.100430176 0.100767866 0.10100908 0.100974716 0.10035372 0.10065512 0.10054909
0.100323275 0.100381345 0.10101858 0.10025611 0.100584514 0.101013005 0.1002036 0.10098505
0.100193195 0.10035684 0.10069368 0.100246 0.09974117 0.0996882 0.100629345 0.100267045
0.10058626 0.10066042 0.100543305 0.09970857 0.10063372 0.100489885 0.10084439 0.100856096
0.10080464 0.10068896 0.10027911 0.10043789 0.10057165 0.10047748 0.10065986 0.100366086
0.10078746 0.09966416 0.10072983 0.10068954 0.099896505 0.10084802 0.10005502 0.10047326
0.10090752 0.100138016 0.10065797 0.099419676 0.10025477 0.100401275 0.09986362 0.09992269
0.10032906 0.10058659 0.10067082 0.100481085 0.100698024 0.10044773 0.10042303 0.0997168
0.10071739 0.100772366 0.100713424 0.10022044 0.099238195 0.09957528 0.100117944 0.10073298
0.099515006 0.10040797 0.10044005 0.1001659 0.10010554 0.10014902 0.10033828 0.100393355
0.10066115 0.10063625 0.10038292 0.100155845 0.100615084 0.099761546 0.10049102 0.10059922
0.100137144 0.10063125 0.100470476 0.100230046
00000000: fdd7 cc3d 4135 ce3d 3adf cb3d cf86 cd3d
00000010: b893 ce3d 77b1 ce3d cca1 cf3d 03c2 cd3d
00000020: abf4 cc3d f78d ce3d e868 ce3d a502 ce3d
00000030: b849 ce3d 5e56 ce3d bee2 cc3d 3e8b cd3d
00000040: 255e ce3d 2f5b ce3d bafc cd3d cf46 cd3d
00000050: 35d1 cc3d d260 cd3d 3a33 cd3d 44be cd3d
00000060: 0ffc cd3d 7e45 cc3d 07aa cd3d 8c5d ce3d
00000070: e428 cd3d b771 cf3d 8f3c cd3d bcd2 cd3d
00000080: 7c9b ce3d b197 cf3d 4a7e cf3d 7a84 cf3d
00000090: aaaa ce3d c854 cd3d e908 cd3d 7e4d cd3d
000000a0: 9bb3 cc3d aae3 ce3d 6fad ce3d 2e2d cf3d
000000b0: 5819 cf3d 99d1 cd3d 9460 cf3d 07bc cd3d
000000c0: 29e0 cc3d 7fa6 cd3d f8d5 cc3d f485 cd3d
000000d0: 6cd3 ce3d 414d cd3d d782 cd3d ea64 cd3d
000000e0: 46af ce3d 46ae cd3d f554 cf3d 35e6 cd3d
000000f0: ab52 cf3d 15b0 ce3d 0cf8 cd3d f26d ce3d
00000100: 6999 cd3d 429a cd3d b141 ce3d 84b8 cc3d
00000110: 04d9 cd3d e4cc cc3d dc28 ce3d 0073 cd3d
00000120: 191a cf3d fdb9 cd3d 337d cd3d 2c31 ce3d
00000130: cbf4 ce3d c0e9 cc3d c750 cd3d d0fd cb3d
00000140: fabc cc3d c61d ce3d 24ed cd3d 6f1f ce3d
00000150: bdaf ce3d ca93 cc3d f438 cd3d e062 cd3d
00000160: 6d43 ce3d 56ae cd3d 625f ce3d d9dd ce3d
00000170: d5cb ce3d 4086 cd3d 4624 ce3d aeec cd3d
00000180: 4a76 cd3d bc94 cd3d d4e2 ce3d 1353 cd3d
00000190: 41ff cd3d e8df ce3d 8c37 cd3d 40d1 ce3d
000001a0: 1732 cd3d e387 cd3d 7d38 ce3d c64d cd3d
000001b0: 1945 cc3d 5429 cc3d c216 ce3d cf58 cd3d
000001c0: 2b00 ce3d 0d27 ce3d a6e9 cd3d 0234 cc3d
000001d0: 0d19 ce3d a4cd cd3d 8187 ce3d a48d ce3d
000001e0: aa72 ce3d 0336 ce3d 225f cd3d 61b2 cd3d
000001f0: 82f8 cd3d 23c7 cd3d c226 ce3d bc8c cd3d
00000200: a869 ce3d b91c cc3d 714b ce3d 5136 ce3d
00000210: 8a96 cc3d 6889 ce3d a5e9 cc3d edc4 cd3d
00000220: 9aa8 ce3d 2915 cd3d c425 ce3d 8b9c cb3d
00000230: 5f52 cd3d 2f9f cd3d 4c85 cc3d 44a4 cc3d
00000240: 5279 cd3d 5800 ce3d 812c ce3d 07c9 cd3d
00000250: c43a ce3d 8ab7 cd3d 97aa cd3d 5238 cc3d
00000260: eb44 ce3d be61 ce3d d742 ce3d 6040 cd3d
00000270: 653d cb3d 20ee cb3d a30a cd3d 184d ce3d
00000280: 86ce cb3d b2a2 cd3d 83b3 cd3d c823 cd3d
00000290: 2204 cd3d ee1a cd3d 287e cd3d 089b cd3d
000002a0: 6f27 ce3d 611a ce3d 8f95 cd3d 821e cd3d
000002b0: 480f ce3d c84f cc3d 3cce cd3d f706 ce3d
000002c0: b414 cd3d c217 ce3d 77c3 cd3d 6945 cd3d
