backend/model/lstm-CNK-90-.pth (torch, 31230 bytes, 12 tensors)

conv1.weight f4 [2, 4, 3]
3.7202775e-15 4.2230437e-15 3.7032967e-15 4.8026726e-05 2.3418595e-15 8.0811975e-15 3.650011e-15 2.9247753e-15
5.5403455e-15 4.168577e-15 5.74192e-15 -9.025323e-15 2.2051197e-14 2.654778e-14 3.2677884e-14 3.500727e-07
3.6748192e-14 -2.8898883e-08 4.3366003e-14 5.6609492e-14 2.8285801e-14 3.2225148e-14 -1.6890463e-07 3.3997872e-05
00000000: 8109 8627 b426 9827 e26c 8527 4e70 4938
00000010: afbf 2827 f293 1128 6981 8327 95c0 5227
00000020: ab9c c727 5630 9627 dddf ce27 f595 22a8
00000030: 999e c628 031f ef28 092b 1329 a0f1 bb34
00000040: c87f 2529 513d f8b2 994d 4329 4df2 7e29
00000050: 9ec6 fe28 1121 1129 275c 35b4 f098 0e38

conv1.bias f4 [2]
4.635489e-12 1.0299504e-13
00000000: c618 a32c 99ec e729

lstm.weight_ih_l0 f4 [80, 2]
5.3358574e-15 2.0209012e-15 4.9635945e-18 2.3817662e-17 1.11318975e-11 5.805928e-18 1.0492662e-15 6.284502e-16
3.7185427e-14 1.4683105e-08 -2.7772405e-16 1.3721415e-19 5.822375e-14 6.3364695e-17 3.20616e-17 1.787768e-18
-7.061107e-09 2.0366947e-16 2.3509042e-16 9.8275535e-17 8.128069e-17 8.7616886e-10 1.7260164e-15 5.200103e-18
7.451207e-16 1.7961715e-07 2.3028169e-18 1.7354396e-09 2.2751724e-19 1.9925269e-08 1.17373e-16 -3.2448793e-17
8.0058464e-17 1.3738197e-19 1.4342509e-15 8.0487254e-17 1.2607401e-17 -4.0046303e-15 6.9369298e-18 1.5593168e-18
-9.405302e-09 -2.671846e-16 9.402318e-14 2.6474533e-17 9.503888e-18 6.6051737e-18 1.3024169e-15 -1.5452817e-15
8.004802e-18 -2.2381075e-16 -1.9595255e-17 2.0579052e-19 6.323592e-11 8.034772e-17 1.8924513e-18 9.74643e-19
7.808627e-16 2.4816453e-16 7.0351825e-16 1.2776526e-16 -3.7355974e-15 3.9928157e-17 -2.0955648e-10 7.491442e-18
8.4502056e-16 3.1043355e-16 2.2487885e-18 1.751439e-18 1.8286311e-19 -1.1282329e-08 -8.982271e-16 8.238321e-17
2.3673222e-19 -1.5879504e-19 -6.63249e-08 -1.0683575e-14 -1.9640037e-08 -1.0094132e-09 4.638546e-18 1.3844656e-18
-4.3799983e-10 -5.8016805e-09 2.4063142e-11 -7.0942074e-09 1.3841433e-11 6.670668e-12 -2.367679e-10 -1.5381049e-10
-1.3749328e-11 3.264172e-07 1.1480472e-11 1.3204818e-10 -2.1990669e-10 6.5156036e-09 2.1082925e-11 4.293686e-12
-6.36377e-11 -3.901379e-11 8.0555625e-11 3.6836145e-11 -7.259494e-11 -2.0062502e-11 -1.3665376e-11 -4.729618e-12
1.8033743e-10 4.5179794e-11 -1.2029901e-11 -4.9063533e-07 1.9186944e-12 2.0081547e-12 -5.138593e-11 1.5726953e-11
-4.761779e-12 -1.2811969e-12 -1.2913841e-10 -7.553025e-11 2.4988055e-11 1.1757616e-11 1.0318788e-11 1.18074404e-11
6.4666828e-15 2.5592654e-15 3.7145649e-09 -1.8485933e-12 8.383354e-18 2.6978012e-18 1.4443119e-15 8.3632883e-16
2.267377e-17 3.1269824e-18 2.8140509e-19 2.0292507e-07 1.7554595e-16 3.3587985e-10 1.7972297e-08 -1.7786526e-17
5.763042e-16 1.6185536e-16 1.3727053e-16 1.0348086e-16 4.546981e-16 4.2298347e-17 -2.1054157e-17 5.2415325e-18
3.1364288e-16 3.3025441e-16 8.644022e-11 5.3831926e-18 1.0594372e-19 5.1454124e-19 1.1444601e-16 6.8978585e-17
2.146303e-19 -6.096881e-13 -1.0373375e-12 2.3018547e-10 2.086356e-17 1.4394993e-07 -1.2107139e-09 7.645527e-19
00000000: 993e c027 0c9f 1127 d31f b722 ddad db23
00000010: 9cd5 432d 7133 d622 1737 9726 7123 3526
00000020: e177 2729 fb40 7c32 d618 a0a5 6ffe 2120
00000030: b51b 8329 ea1b 9224 a8db 1324 fce9 0322
00000040: 279e f2b1 9ed0 6a25 3985 8725 a39b e224
00000050: a76b bb24 e7d6 7030 c4be f826 96d9 bf22
00000060: 34c4 5626 c9dc 4034 fbea 2922 5a84 ee30
00000070: 6f4d 8620 2128 ab32 6552 0725 c6a4 15a4
00000080: 2d9a b824 2731 2220 85b2 ce26 4a97 b924
00000090: c590 6823 3248 90a7 73ed ff22 531d e621
000000a0: f594 21b2 7d05 9aa5 acb8 d329 392f f423
000000b0: d850 2f23 1ab0 f322 b4b2 bb26 d5b2 dea6
000000c0: 9ca9 1323 a304 81a5 fdbb b4a3 5ef4 7220
000000d0: a90e 8b2e ec44 b924 65a3 0b22 f9d4 8f21
000000e0: 7f11 6126 9f0e 8f25 7cc6 4a26 a64d 1325
000000f0: ce96 86a7 d922 3824 e868 66af 5631 0a23
00000100: 838f 7326 e8f3 b225 6aee 2522 bf3b 0122
00000110: fce2 5720 35d4 41b2 bb72 81a6 77f6 bd24
00000120: f6bd 8b20 db78 3ba0 806e 8eb3 4b75 40a8
00000130: e6b4 a8b2 92bb 8ab0 d421 ab22 a24f cc21
00000140: ffca f0af 1f58 c7b1 61a9 d32d 4fc1 f3b1
00000150: 4680 732d 09b4 ea2c 1f2a 82af ce1d 29af
00000160: 78e1 71ad 703e af34 73f7 492d 4230 112f
00000170: 3bca 71af dbdf df31 8772 b92d 1612 972c
00000180: d7f0 8bae 9f95 2bae c924 b12e d001 222e
00000190: 51a3 9fae bd78 b0ad 6267 70ad 9d68 a6ac
000001a0: 7948 462f edb3 462e dca1 53ad 34b4 03b5
000001b0: 2004 072c b34f 0d2c 6aff 61ae f355 8a2d
000001c0: 4b8a a7ac fc4f b4ab 3bfd 0daf c017 a6ae
000001d0: 19cc db2d 98d7 4e2d b187 352d fcb7 4f2d
000001e0: 9ffc e827 1d6a 3827 5143 7f31 4c15 02ac
000001f0: 45a5 1a23 0610 4722 b425 d026 2d0e 7126
00000200: ed20 d123 07bb 6622 bc1c a620 9ee3 5934
00000210: 0564 4a25 e3a6 b82f 8061 9a32 3f0d a4a3
00000220: bf1b 2626 459b 3a25 1c43 1e25 519c ee24
00000230: cc0e 0326 1311 4324 b930 c2a3 e060 c122
00000240: 85cd b425 f360 be25 8515 be2e d19a c622
00000250: 0d27 fa1f a3dd 1721 80f2 0325 c50d 9f24
00000260: 0764 7d20 a89c 2bab 06fe 91ab 7317 7d2f
00000270: b06e c023 a890 1a34 3566 a6b0 f8a7 6121

lstm.weight_hh_l0 f4 [80, 20]
-3.9914746e-15 9.0394364e-17 9.876131e-17 -1.659126e-15 -2.1785408e-14 2.637276e-09 -4.5451465e-16 3.5837924e-17
-9.077536e-16 4.165053e-16 -3.444472e-16 -1.6867397e-16 1.8759592e-15 -3.5212406e-16 1.2727058e-13 -3.5475484e-16
-1.1707061e-17 -1.5017943e-15 1.3403726e-16 1.0936098e-16 -1.8647985e-18 9.627533e-20 3.4690443e-20 -8.4045696e-19
-8.2951837e-20 3.045199e-20 7.829872e-18 -2.4971185e-21 -5.611568e-19 5.7661876e-19 5.8375242e-09 1.9897096e-16
2.9032429e-18 -2.6757842e-20 8.382982e-21 8.006659e-16 -9.6359505e-21 1.208448e-07 3.0923983e-10 5.150448e-20
-4.0941896e-18 1.4591809e-19 2.3391316e-19 -3.5178796e-18 1.3477212e-17 -1.31664535e-20 -1.5583764e-19 5.017813e-20
-1.2477358e-08 7.6992426e-19 -1.688228e-07 4.5807017e-14 4.0649777e-09 -3.0142845e-15 2.959817e-20 -7.101287e-19
2.206984e-18 -3.0436177e-14 6.364485e-14 1.8391506e-16 -1.1820378e-15 9.715391e-18 3.6374265e-17 -1.8236315e-12
-2.5515748e-12 6.066741e-18 -2.0423269e-11 3.385493e-17 -3.191996e-15 -5.333507e-10 -7.906617e-17 -7.2433215e-17
-1.5526357e-13 -8.248868e-18 4.543772e-18 -7.754619e-17 -4.089746e-18 -1.4892513e-13 2.3144765e-17 1.458824e-17
-6.3160786e-18 9.454579e-20 -4.0934027e-12 -2.7580193e-18 -1.9517964e-19 -1.827179e-13 -2.8282873e-08 -4.0782727e-08
-1.1820501e-18 1.1087912e-18 5.418567e-14 -1.8491244e-08 1.397615e-18 -1.05190704e-19 3.890777e-15 -7.302914e-19
-6.2137604e-12 2.319268e-09 -3.908219e-09 5.789909e-19 -1.6044726e-07 -1.3790966e-19 4.7574786e-20 -1.6792828e-20
2.5949982e-20 4.5924406e-18 -1.9749263e-17 -9.467281e-21 2.2828105e-17 -2.563247e-19 3.4339404e-08 5.000842e-09
-1.2915754e-17 -6.5022313e-21 1.0605164e-21 -3.3683812e-20 -6.248484e-22 2.464914e-12 6.455886e-21 -4.2368914e-08
3.312808e-08 1.0718927e-16 5.8543076e-10 -2.9111968e-08 -2.4409209e-18 -8.0171255e-18 -8.0361614e-14 2.102853e-18
-4.2645695e-15 1.6234743e-17 2.7479372e-17 -3.609605e-18 3.1085007e-17 5.9094614e-09 3.7074189e-19 -1.4829148e-17
5.1805345e-19 1.1522597e-13 1.0880736e-17 -4.916208e-15 -1.4318558e-18 -1.900777e-08 5.772462e-20 2.2467886e-15
-5.347498e-20 6.762312e-21 -1.1483182e-13 3.1060488e-11 -1.5721993e-08 1.9987124e-19 -3.6205936e-15 5.0347602e-20
-3.5406538e-15 -4.0197976e-20 6.0600423e-21 -2.365208e-19 3.1142168e-13 -1.0620682e-07 5.296246e-20 2.7703435e-20
1.4576302e-17 9.525223e-18 9.522231e-11 -9.28925e-17 8.609086e-09 1.0724192e-18 -1.6887693e-13 1.9867196e-13
-2.3184875e-16 7.611203e-09 -2.3406276e-17 -9.719729e-11 -2.466814e-07 -3.8721065e-18 1.0266544e-18 7.629551e-08
-1.1334568e-18 -1.2529688e-09 1.285232e-17 6.487585e-19 -3.5363848e-07 1.9534832e-18 -1.363114e-10 -3.1402853e-10
-4.718891e-12 1.3515848e-18 -2.250071e-14 1.7513502e-18 -5.182166e-17 5.2692245e-17 1.4846201e-09 -8.557922e-18
9.0909565e-17 -3.1095603e-18 6.038205e-19 -1.7193766e-17 -3.3252743e-19 -2.6771678e-16 -2.2735255e-10 2.8507016e-18
1.9177244e-17 1.0387948e-18 1.4592652e-18 -3.1631423e-17 -4.3523217e-15 1.3456458e-15 -7.6557055e-18 -2.0585288e-08
7.452776e-09 9.444992e-18 -7.154063e-18 -2.0464804e-18 3.0921586e-17 -8.512902e-19 3.4297498e-19 -7.38819e-18
-8.687144e-19 -3.801822e-17 2.9714902e-18 1.0717306e-18 -5.3396717e-18 1.2637146e-19 -2.7596512e-11 -2.5159428e-18
-2.6282794e-07 4.6563376e-20 -9.279005e-19 1.1881014e-11 -1.5582631e-18 8.917747e-19 -6.4773603e-19 -2.4223876e-19
-8.526837e-18 4.3249724e-17 4.781015e-20 -9.292345e-19 -3.000632e-20 -3.2269792e-18 2.9992664e-19 -3.5386958e-07
2.9080748e-16 9.554383e-18 1.1802271e-17 -3.3454292e-16 -1.166981e-17 -4.526376e-14 -5.6394865e-17 4.1640902e-10
-1.2420224e-16 1.3425951e-16 -7.204691e-09 -1.4229927e-17 3.0838762e-16 -1.3333204e-16 1.7878971e-18 3.4256701e-12
00000000: dbce 8fa7 6a6f d024 63ba e324 f21a efa6
00000010: bb39 c4a8 733b 3531 4301 03a6 f445 2524
00000020: 32d2 82a6 5519 f025 6f8f c6a5 c577 42a5
00000030: 572d 0727 57fc caa5 3f4b 0f2a 9380 cca5
00000040: 08f5 57a3 6e6e d8a6 d188 1a25 542b fc24
00000050: 0c99 09a2 de52 e31f 2cd2 231f 220f 78a1
00000060: 4fdd c39f 32ce 0f1f 866f 1023 4cad 3c9d
00000070: cf9f 25a1 1530 2a21 6893 c831 dd65 6525
00000080: b538 5622 7eb8 fc9e 9d59 1e1e b7c6 6626
00000090: 9904 369e 91c1 0134 a301 aa2f 1839 731f
000000a0: 870c 97a2 0945 2c20 f513 8a20 6fc9 81a2
000000b0: 569c 7823 10b5 789e 09fb 37a0 a3f5 6c1f
000000c0: 005c 56b2 d53d 6321 a845 35b4 e54b 4e29
000000d0: ecab 8b31 bc33 59a7 fec5 0b1f cf97 51a1
000000e0: c0d8 2222 8612 09a9 c250 8f29 250a 5425
000000f0: 7f59 aaa6 a337 3323 27bf 2724 a053 00ac
00000100: 168d 33ac c0d2 df22 1da5 b3ad d920 1c24
00000110: ef01 66a7 389b 12b0 6e50 b6a4 0605 a7a4
00000120: adcf 2eaa 2e2a 18a3 b7a2 a722 31cf b2a4
00000130: 8fe2 96a2 bfac 27aa 0879 d523 828d 8623
00000140: ad05 e9a2 6c3d df1f 1806 90ac 8381 4ba2
00000150: 6d6d 66a0 d9b8 4daa b2f2 f2b2 1529 2fb3
00000160: 9770 aea1 f2a0 a321 d307 7429 add6 9eb2
00000170: 6740 ce21 e15f f89f 152e 8c27 428b 57a1
00000180: 94a0 daac ff60 1f31 0f49 86b1 51e3 2a21
00000190: 6847 2cb4 a3d0 22a0 63aa 601f 919a 9e9e
000001a0: 3517 f51e 606e a922 a127 b6a3 f6d4 329e
000001b0: 578d d223 b24e 97a0 937c 1333 dfd3 ab31
000001c0: ec40 6ea3 b9a5 f59d be42 a01c 3b11 1f9f
000001d0: 4ed9 3c9c f173 2d2c 80e5 f31d 1df9 35b3
000001e0: b648 0e33 6129 f724 07ec 2030 e511 fab2
000001f0: b11b 34a2 cee3 13a3 51f5 b4a9 c529 1b22
00000200: b6a5 99a7 34bd 9523 d573 fd23 c12b 85a2
00000210: b35a 0f24 2c0c cb31 eed8 da20 56c6 88a3
00000220: 03e7 1821 a0bb 012a d3b6 4823 0420 b1a7
00000230: fc4d d3a1 8746 a3b2 644c 881f efe5 2127
00000240: 4987 7c9f 1279 ff1d 054a 01aa 009b 082e
00000250: 070d 87b2 60f7 6b20 1572 82a7 84c2 6d1f
00000260: 8921 7fa7 5fd4 3d9f 22f1 e41d 039e 8ba0
00000270: 9850 af2a d113 e4b3 af1b 7a1f 66d3 021f
00000280: 5271 8623 98b5 2f23 6565 d12e 0e32 d6a4
00000290: 29e7 1332 da42 9e21 7623 3eaa 4baf 5f2a
000002a0: d6a6 85a5 6dc2 0232 82e2 d7a3 36bd d5ae
000002b0: a26f 84b4 03db 8ea2 e881 9721 e6d7 a333
000002c0: ca44 a7a1 ec34 acb0 5d15 6d23 ce7a 3f21
000002d0: b4db bdb4 4124 1022 40e0 15af 96a3 acaf
000002e0: fe07 a6ac 6e75 c721 1bab caa8 123a 0122
000002f0: 38fc 6ea4 0600 7324 6d0b cc30 a5dd 1da3
00000300: 899f d124 ef71 65a2 6337 3221 a295 9ea3
00000310: 204a c4a0 0654 9aa5 0efa 79af 3b58 5222
00000320: fde0 b023 8f4c 9921 7b59 d721 cbdf 11a4
00000330: 15cf 9ca7 91ed c126 0c39 0da3 87d3 b0b2
00000340: a809 0032 b73a 2e23 1bf8 03a3 ec00 17a2
00000350: c499 0e24 ab41 7ba1 ea74 ca20 be49 08a3
00000360: 1a33 80a1 fe53 2fa4 dd41 5b22 d628 9e21
00000370: c6ff c4a2 6e31 1520 d2bd f2ad d1a4 39a2
00000380: cc1a 8db4 abe3 5b1f 17ef 88a1 5503 512d
00000390: 84f5 e5a1 4c9a 8321 8d2d 3fa1 16fe 8ea0
000003a0: d94a 1da3 4374 4724 edc6 611f 7d21 89a1
000003b0: 6ab3 0d9f ea1b 6ea2 a20b b120 77fb bdb4
000003c0: 9ca3 a725 4c3f 3023 a6b6 5923 d2d9 c0a5
000003d0: 1f45 57a3 90d9 4ba9 a709 82a4 5cec e42f
000003e0: 0832 0fa5 6aca 1a25 228d f7b1 773f 83a3
000003f0: fbc5 b125 acb8 19a5 6cec 0322 630f 712c

lstm.bias_ih_l0 f4 [80]
1.4899912e-10 1.3319689e-13 3.2299686e-13 3.1945658e-11 -3.3890737e-11 1.3806115e-14 2.1679384e-11 -2.479956e-07
9.629103e-12 9.860985e-12 6.014385e-12 3.4547877e-13 2.2861622e-11 -1.3936064e-12 -6.5924194e-10 5.7387415e-12
-3.6847243e-07 8.732025e-11 4.459331e-13 1.5494737e-13 1.2774107e-10 -2.328899e-09 5.965816e-13 5.1942912e-11
-1.8492415e-08 9.39085e-15 8.284034e-12 1.0391495e-13 1.0963607e-11 7.921536e-12 3.638163e-12 6.0080006e-13
2.5925278e-11 -2.1906047e-07 -3.5186623e-08 4.106455e-12 6.3857145e-15 4.719664e-11 5.835095e-13 3.5155253e-13
-2.620218e-05 2.802338e-07 7.435045e-07 -4.4589765e-06 -4.1029438e-07 8.384448e-08 -2.0115806e-06 2.9828362e-07
-2.3573773e-06 3.870864e-06 -3.1410277e-06 -4.3745032e-07 9.2982245e-06 -3.063584e-07 1.2123576e-07 -1.4517375e-06
-8.240467e-08 -9.645987e-06 8.010945e-07 3.461446e-07 7.604566e-10 6.9054186e-13 8.748235e-13 7.9546626e-11
2.9823504e-13 2.1421165e-14 7.272425e-12 8.471182e-14 2.0514044e-11 6.2973854e-12 2.690811e-12 6.4851575e-13
2.4889731e-11 9.4296736e-14 5.5510863e-15 -2.1182716e-08 5.9095714e-15 4.3114883e-11 8.669997e-13 1.0384384e-07
00000000: 86d3 232f 64f7 152a c1d4 b52a 9d7f 0c2e
00000010: 940d 15ae 78b5 7828 a2b1 be2d 4124 85b4
00000020: a065 292d ee79 2d2d c49c d32c bd7c c22a
00000030: cc17 c92d f621 c4ab 0736 35b0 fde9 c92c
00000040: 77d2 c5b4 ee04 c02e bc09 fb2a 8a74 2e2a
00000050: ea73 0c2f 6d0a 20b1 3cec 272b 8572 642e
00000060: 40d9 9eb2 a72b 2928 f9bb 112d e4fe e929
00000070: b2df 402d 6d5b 0b2d a901 802c 351c 292b
00000080: 890a e42d e236 6bb4 1a20 17b3 a97b 902c
00000090: d211 e627 b192 4f2e 4a3e 242b 0fe8 c52a
000000a0: c1cc dbb7 0a73 9634 3d95 4735 519e 95b6
000000b0: 6e46 dcb4 fe0d b433 b1fe 06b6 ca23 a034
000000c0: 6f33 1eb6 78e2 8136 72ca 52b6 b7da eab4
000000d0: 92ff 1b37 9479 a4b4 082d 0234 52d9 c2b5
000000e0: 72f6 b0b3 33d5 21b7 cb0a 5735 c0d5 b934
000000f0: 6008 5130 c95e 422b ad3d 762b c5ec ae2e
00000100: 33e4 a72a d8f1 c028 2ee0 ff2c 0ac1 be29
00000110: 8571 b42d ce91 dd2c 5759 3d2c 7c8a 362b
00000120: b1ee da2d 5e56 d429 bcff c727 49f5 b5b2
00000130: 2dea d427 0b9f 3d2e ea09 742b c100 df33

lstm.bias_hh_l0 f4 [80]
1.3707165e-10 9.71663e-14 2.4436114e-13 9.063782e-11 2.0614695e-13 3.007945e-14 1.3989496e-11 6.160908e-14
3.1106158e-08 1.0741377e-11 2.403607e-12 3.9198045e-13 3.2041952e-11 1.7138258e-13 1.3144056e-14 4.21308e-12
-2.2034749e-13 4.3700186e-11 5.489191e-08 -2.2290197e-12 7.0602255e-08 -5.3633897e-08 6.487929e-13 2.9097436e-11
7.102677e-13 1.9647744e-14 -1.04348585e-10 6.7611986e-14 1.6836547e-07 1.754548e-11 3.2004987e-12 4.7378464e-13
2.3531002e-11 1.4673571e-09 9.775508e-15 3.637307e-12 8.453853e-15 4.422971e-11 7.007174e-13 1.3773242e-13
-7.909465e-06 5.075311e-07 5.280078e-07 -1.1446566e-05 -6.204081e-07 1.4323972e-07 -3.8420744e-06 2.5018448e-07
-7.089306e-06 2.2049562e-06 -1.1447252e-06 -1.0046006e-06 3.7413477e-06 -2.9176883e-07 6.281231e-08 -3.8047406e-06
-8.188212e-08 -9.356611e-06 7.1333824e-07 5.3860293e-07 1.2620342e-10 1.7298909e-13 -1.0603489e-09 -6.742665e-10
3.916432e-13 1.5149535e-14 5.134859e-12 6.4703675e-14 1.8333815e-11 1.6514722e-11 3.7182787e-12 1.5934461e-07
2.1090001e-11 -2.6305017e-08 -5.4926797e-08 3.7168164e-12 -6.635973e-08 5.985426e-08 4.1190667e-13 1.3532921e-13
00000000: 3db6 162f 8fcc da29 2790 892a 8e50 c72e
00000010: d019 682a 3f77 0729 171b 762d 37bb 8a29
00000020: 9599 0533 ddf6 3c2d 8923 292c 56aa dc2a
00000030: 08ec 0c2e aaf5 402a 42c8 6c28 0d3c 942c
00000040: d716 78aa 0932 402e 4bc2 6b33 73da 1cac
00000050: 009e 9733 185b 66b3 759e 362b 9af1 ff2d
00000060: 2eec 472b 9df8 b028 0877 e5ae a83f 9829
00000070: f3c7 3434 e954 9a2d 0f37 612c c85b 052b
00000080: 1bfb ce2d 0aac c930 9319 3028 e6f3 7f2c
00000090: 844a 1828 3a86 422e 033c 452b ab12 1b2a
000000a0: e5b2 04b7 463d 0835 6bbc 0d35 a00a 40b7
000000b0: 1f8a 26b5 6fcd 1934 2beb 80b6 1851 8634
000000c0: ade0 edb6 dcf8 1336 75a4 99b5 d0d5 86b5
000000d0: dd13 7b36 67a4 9cb4 6fe3 8633 f254 7fb6
000000e0: 2cd7 afb3 57fa 1cb7 3b7c 3f35 8394 1035
000000f0: 1bc3 0a2f b6c4 422a b6bb 91b0 4957 39b0
00000100: bc79 dc2a 7374 8828 b3aa b42c 21b3 9129
00000110: 1544 a12d d943 912d 47d3 822c 5018 2b34
00000120: 7682 b92d 58f5 e1b2 a7e8 6bb3 1bc6 822c
00000130: a681 8eb3 3a89 8033 02e2 e72a fd5d 182a

lstm.weight_ih_l1 f4 [80, 20]
-1.1626163e-06 3.2304964e-08 7.8537326e-08 -4.7249966e-07 -3.4934963e-08 7.1500077e-09 -2.5261411e-07 1.7041238e-08
-4.872428e-07 3.2945667e-07 -1.554685e-07 -3.9980495e-08 3.850382e-07 -1.9234238e-07 5.6002114e-09 -1.767587e-07
-7.848577e-09 -5.1464554e-07 4.698537e-08 1.3525375e-08 -1.2269165e-06 2.6414156e-08 5.4931082e-08 -4.7214434e-07
-1.0713438e-07 7.758699e-09 -1.6540392e-07 1.8295742e-08 -2.6727747e-07 1.9303009e-07 -1.6993894e-07 -4.5294815e-08
3.5938479e-07 -3.168479e-08 6.991033e-09 -2.0126896e-07 -2.75566e-09 -5.695015e-07 5.4152718e-08 1.6810051e-07
-9.667316e-07 1.5207563e-09 7.312793e-08 -6.580172e-07 -2.8565442e-08 2.3257591e-08 -2.112392e-07 1.5373923e-08
-2.6685558e-07 1.8235981e-07 -4.0444337e-07 -3.895127e-08 3.495153e-07 -2.4905328e-08 6.6051067e-09 -1.423719e-07
-7.014179e-09 -7.352283e-07 5.505756e-08 6.2888255e-08 -9.3809916e-07 1.5737544e-07 4.3859348e-08 -4.2828293e-07
-2.8157059e-08 6.412231e-09 -1.6564375e-07 3.419636e-08 -3.5846233e-07 1.8699278e-07 2.6833122e-08 -5.037872e-08
3.5730355e-07 -2.7581915e-08 9.691464e-09 -1.9934458e-07 -5.24454e-09 -1.043346e-06 5.7574045e-08 3.7517847e-08
-1.7056697e-06 6.283577e-08 3.5223426e-08 -1.051093e-06 -5.316145e-08 1.2548788e-08 -2.5765362e-07 1.7987665e-08
-2.624053e-07 2.1978025e-07 -1.394976e-07 -4.6866358e-08 4.158936e-07 -6.1496465e-08 5.407017e-09 -1.4580529e-07
-1.48121355e-08 -8.61609e-07 5.0948866e-08 3.0494597e-08 -1.1795075e-06 2.3266626e-08 3.897574e-08 -7.92668e-07
-3.3736658e-08 6.2086074e-09 -9.301639e-08 1.5388384e-08 -2.720381e-07 2.8781153e-07 -3.7412423e-07 -4.1610132e-08
3.742766e-07 -6.79835e-08 7.750414e-09 -1.4935155e-07 -4.7798254e-09 -6.2372084e-07 5.709234e-08 -6.227567e-08
-1.4637179e-06 2.5273595e-08 4.952599e-07 -4.4286898e-07 -3.1926128e-08 2.5363852e-07 -2.0168403e-07 1.8139312e-08
-2.574378e-07 2.7865636e-07 -1.8582669e-07 -7.64981e-07 4.0500967e-07 -1.6848945e-08 7.3827784e-09 -1.5156866e-07
-4.4869166e-09 -6.323441e-07 4.884319e-08 2.4229191e-08 -1.1177414e-06 3.6411816e-08 9.2908515e-08 -1.0556427e-06
-3.914566e-08 6.585479e-09 -2.7814957e-07 3.3080404e-08 -3.7037233e-07 4.07112e-07 -3.4139995e-07 -5.613629e-08
5.811975e-07 -5.9890205e-08 5.839365e-09 -1.9318617e-07 -4.549093e-09 -5.2528395e-07 -7.4175968e-09 2.5498935e-07
-1.8152422e-06 2.2984041e-08 5.3957407e-08 -1.3180423e-06 -3.0932846e-08 6.387495e-09 -2.0323814e-07 -5.459069e-09
-2.5792275e-07 1.6565177e-07 -1.689945e-07 -5.8758697e-08 4.4121398e-07 -1.9100494e-08 5.7616756e-09 -1.4659949e-07
-4.9095474e-09 -5.424057e-07 6.2608784e-08 5.8053903e-08 -1.5765673e-06 1.8030072e-07 1.2245232e-07 -5.7116847e-07
-4.0788077e-08 3.2057866e-08 -2.3919688e-07 3.0254448e-08 -5.770756e-07 -8.724082e-08 -1.534201e-07 -5.3472213e-08
3.850928e-07 -1.7169674e-08 2.0394273e-09 -2.7321965e-07 -7.3018334e-09 -5.3957234e-07 5.7622596e-08 3.2623916e-08
-1.1520738e-06 2.3394199e-08 3.6927982e-08 -4.633802e-07 -1.413784e-07 2.0250646e-08 -1.9158844e-07 2.9427284e-08
-2.7477319e-07 2.1383663e-07 -1.3257693e-07 -8.4412335e-08 2.0797387e-07 -1.6734973e-08 5.4915112e-09 -3.3142015e-07
-5.317705e-09 -5.7108855e-07 4.7374453e-08 3.4724447e-08 -1.2197319e-06 2.2843295e-08 4.477478e-08 -4.861089e-07
-5.8440992e-08 6.2278978e-09 -8.22446e-07 9.247608e-09 -2.6095336e-07 1.6945839e-07 -1.326105e-07 -1.7983582e-07
3.5407024e-07 -3.7937042e-08 5.8877676e-09 -1.5024386e-07 -6.0173786e-09 -5.8700704e-07 5.255657e-08 1.12846784e-07
-9.777945e-07 2.9575478e-08 1.5507327e-07 -4.6066359e-07 -4.470807e-08 2.7791174e-08 -2.5872512e-07 3.1266595e-08
-5.587362e-07 3.0674704e-07 -1.1923333e-07 -5.3888787e-08 4.151362e-07 -2.4945832e-08 4.5178035e-09 -1.9347088e-07
00000000: 310b 9cb5 afbf 0a33 5aa8 a833 dcab fdb4
00000010: 660b 16b3 22ac f531 059f 87b4 1462 9232
00000020: 12cb 02b5 2ee0 b034 dbee 26b4 05b7 2bb3
00000030: 3fb7 ce34 ac86 4eb4 fb6b c031 10cb 3db4
00000040: 68d6 06b2 2c26 0ab5 f6cc 4933 3a5d 6832
00000050: 88ac a4b5 58e5 e232 5ded 6b33 067b fdb4
00000060: c011 e6b3 1e4b 0532 e299 31b4 c328 9d32
00000070: 567e 8fb4 b543 4f34 7678 36b4 2d8a 42b3
00000080: 78f1 c034 cc15 08b3 c735 f031 641c 58b4
00000090: 155e 3db1 d8df 18b5 8b95 6833 1e7f 3434
000000a0: a5c0 81b5 db02 d130 810a 9d33 99a2 30b5
000000b0: 1260 f5b2 fcc7 c732 fdd0 62b4 9d0f 8432
000000c0: 5a44 8fb4 afce 4334 4622 d9b4 604b 27b3
000000d0: 04a5 bb34 65ef d5b2 22f3 e231 e4de 18b4
000000e0: 5f01 f1b1 815c 45b5 6d78 6c33 2f0d 8733
000000f0: afd1 7bb5 08fb 2834 dd5f 3c33 c2ee e5b4
00000100: 07de f1b2 9552 dc31 cfdb 31b4 4cdf 1233
00000110: b072 c0b4 2fc8 4834 a97e e632 fd5f 58b3
00000120: 6dd3 bf34 46ed ecb2 827f 2632 6c0b 56b4
00000130: 7633 b4b1 1809 8cb5 5547 7733 4f23 2133
00000140: 5dee e4b5 54f0 8633 9148 1733 4813 8db5
00000150: a253 64b3 2796 5732 a553 8ab4 4b83 9a32
00000160: b6e0 8cb4 bcfc 6b34 cfc8 15b4 1b4a 49b3
00000170: fb47 df34 0a10 84b3 a0c8 b931 a78e 1cb4
00000180: 7678 7eb2 5249 67b5 dfd2 5a33 2af9 0233
00000190: 924f 9eb5 dadb c732 4866 2733 bbc7 54b5
000001a0: d9e5 10b3 7d53 d531 4dc0 c7b3 6a2f 8432
000001b0: a20c 92b4 8484 9a34 3edb c8b4 d3b6 32b3
000001c0: 2ff0 c834 53fe 91b3 ae26 0532 715d 20b4
000001d0: ca3b a4b1 c56d 27b5 b135 7533 69bc 85b3
000001e0: f774 c4b5 3919 d932 00f2 0435 73c3 edb4
000001f0: 261f 09b3 d02b 8834 7c8e 58b4 c5d0 9b32
00000200: fb35 8ab4 3d9a 9534 a787 47b4 1859 4db5
00000210: 1b70 d934 39bb 90b2 9bab fd31 e0be 22b4
00000220: 562b 9ab1 5bbe 29b5 a8c7 5133 8e20 d032
00000230: 4d05 96b5 3763 1c33 ff84 c733 9baf 8db5
00000240: 1c21 28b3 7c46 e231 9654 95b4 4a14 0e33
00000250: 96d7 c6b4 0c91 da34 a749 b7b4 811a 71b3
00000260: 9703 1c35 fd9c 80b3 99a3 c831 9c6e 4fb4
00000270: 3f4e 9cb1 3d01 0db5 dfdd feb1 78e5 8834
00000280: 3fa3 f3b5 716e c532 ccbe 6733 97e7 b0b5
00000290: 06db 04b3 0079 db31 ad39 5ab4 7b92 bbb1
000002a0: a278 8ab4 03de 3134 db74 35b4 df5d 7cb3
000002b0: fddf ec34 6e12 a4b2 3cf8 c531 f668 1db4
000002c0: d6b0 a8b1 d699 11b5 8b73 8633 f156 7933
000002d0: 719a d3b5 af98 4134 707b 0334 6652 19b5
000002e0: f72e 2fb3 ffaf 0933 f86a 80b4 1ef1 0133
000002f0: 55e8 1ab5 2659 bbb3 ccbb 24b4 52a9 65b3
00000300: c0be ce34 837c 93b2 fc25 0c31 06af 92b4
00000310: 9be3 fab1 21d7 10b5 b77c 7733 601e 0c33
00000320: f4a0 9ab5 63f4 c832 bf9a 1e33 7dc6 f8b4
00000330: cccd 17b4 a4f3 ad32 6eb7 4db4 48c7 fc32
00000340: 8a84 93b4 f79a 6534 785a 0eb4 2c46 b5b3
00000350: 6c4f 5f34 98c0 8fb2 d8af bc31 0aee b1b4
00000360: 07b7 b6b1 e84c 19b5 c378 4b33 ef23 1533
00000370: abb5 a3b5 f038 c432 644e 4033 267d 02b5
00000380: 8d00 7bb3 2bfd d531 0fc6 5cb5 69df 1e32
00000390: 2819 8cb4 5ef4 3534 b263 0eb4 e518 41b4
000003a0: 0b17 be34 38f0 22b3 5a4d ca31 b852 21b4
000003b0: 6cc1 ceb1 d192 1db5 8fba 6133 2d56 f233
000003c0: c33c 83b5 2a0d fe32 3782 2634 1f51 f7b4
000003d0: 0b05 40b3 70b9 ee32 e9e6 8ab4 fc49 0633
000003e0: 0ffc 15b5 feae a434 9c06 00b4 5973 67b3
000003f0: e3df de34 7748 d6b2 053b 9b31 dfbc 4fb4

lstm.weight_hh_l1 f4 [80, 20]
0.024139188 0.024686154 0.023874434 0.024703545 0.024379669 -0.024927797 -0.02481416 0.024751956
-0.024868445 0.02502951 0.024985034 -0.024786841 0.024766061 0.025062554 0.0247712 -0.02508451
0.024465922 0.025037419 0.024442384 -0.024764147 0.024583053 0.025281364 0.023893438 0.02522228
0.025121382 -0.025325533 -0.02532906 0.025469432 -0.025498115 0.025338499 0.025371797 -0.025330089
0.02543302 0.02546773 0.025304753 -0.02540684 0.02522485 0.025323745 0.024527391 -0.0252476
0.023570467 0.023927672 0.023374196 0.024254898 0.023495158 -0.023885459 -0.02405037 0.024349036
-0.024587123 0.02428121 0.02424591 -0.02386276 0.024270358 0.02381356 0.024433099 -0.024582315
0.02438034 0.024169324 0.023548063 -0.023761606 0.024782086 0.025358036 0.02372419 0.025156
0.025052432 -0.025263134 -0.025341725 0.025345573 -0.025503112 0.02534009 0.025332633 -0.025324197
0.025332814 0.025369832 0.025308304 -0.025364326 0.025242785 0.025249062 0.02444687 -0.02520213
0.024405314 0.02513947 0.023469295 0.025064236 0.024969384 -0.025176864 -0.025128223 0.02523622
-0.025377715 0.025233032 0.02527425 -0.02512386 0.025211578 0.02535319 0.025154438 -0.025388364
0.02522869 0.025169756 0.024746656 -0.025109937 0.024605963 0.025420843 0.023863444 0.025251118
0.025292955 -0.025441738 -0.025385194 0.025451535 -0.025543865 0.025407476 0.025408002 -0.025274957
0.025393656 0.025501925 0.02533614 -0.025427923 0.025220968 0.025338095 0.024967417 -0.025310507
0.02470173 0.02529738 0.023922924 0.0252969 0.025102723 -0.025340607 -0.025378719 0.025407463
-0.025565697 0.025395898 0.025374144 -0.02525429 0.025439315 0.025448881 0.025285782 -0.025397804
0.025185404 0.025349287 0.024545955 -0.025316661 0.024724275 0.025416007 0.024085829 0.025298715
0.02520117 -0.025502123 -0.02545803 0.025490562 -0.025585892 0.02551768 0.025451003 -0.02533098
0.025513304 0.025548216 0.025431318 -0.02555367 0.025287954 0.025418403 0.024799312 -0.025356887
0.025103034 0.025556851 0.024211748 0.025425857 0.02536886 -0.025499871 -0.025487412 0.02565909
-0.025723755 0.02554564 0.025636226 -0.025469622 0.025585098 0.02560209 0.025524797 -0.025619427
0.02540101 0.025518633 0.024829268 -0.025511788 0.024679461 0.02541601 0.024053892 0.02526468
0.025266396 -0.025367312 -0.025331445 0.025433736 -0.02558679 0.025406687 0.025449857 -0.025302036
0.025440421 0.025541695 0.025334563 -0.02545369 0.025268853 0.025432553 0.024564793 -0.02528615
0.02504152 0.025371838 0.023893315 0.025312202 0.025211684 -0.025400562 -0.02545234 0.025534356
-0.02561458 0.025506485 0.025550073 -0.025372474 0.025431585 0.025508448 0.025450848 -0.025481395
0.0252851 0.025453508 0.024635727 -0.02543089 0.02464417 0.025316559 0.024298817 0.025244689
0.02518631 -0.025326757 -0.025257967 0.025428534 -0.025458954 0.025367374 0.025336815 -0.025219902
0.02531357 0.025423503 0.025331397 -0.025350379 0.02516535 0.025360016 0.024674295 -0.025317078
0.024970816 0.025348153 0.024150696 0.025278606 0.025248112 -0.025416428 -0.025321903 0.025453025
-0.025610019 0.025485002 0.025443451 -0.025290344 0.025463793 0.025488723 0.025384046 -0.025480608
00000000: 8cbf c53c 9e3a ca3c 5194 c33c 175f ca3c
00000010: dfb7 c73c 6135 ccbc 1147 cbbc 9dc4 ca3c
00000020: e9b8 cbbc b00a cd3c 6aad cc3c c60d cbbc
00000030: 32e2 ca3c fc4f cd3c f9ec ca3c 087e cdbc
00000040: c26c c83c 461b cd3c 653b c83c 2ede cabc
00000050: 6662 c93c dd1a cf3c 2cbc c33c f49e ce3c
00000060: 5bcb cd3c 7e77 cfbc e47e cfbc 45a5 d03c
00000070: 6ce1 d0bc af92 cf3c 84d8 cf3c 0c81 cfbc
00000080: e958 d03c b3a1 d03c ea4b cf3c 0122 d0bc
00000090: 58a4 ce3c be73 cf3c abed c83c 0ed4 cebc
000000a0: da16 c13c f703 c43c 3e7b bf3c 35b2 c63c
000000b0: eb78 c03c 70ab c3bc 4805 c5bc a177 c73c
000000c0: ef6a c9bc 63e9 c63c 5c9f c63c d67b c3bc
000000d0: a1d2 c63c a814 c33c ec27 c83c da60 c9bc
000000e0: 47b9 c73c bffe c53c dee7 c03c b3a7 c2bc
000000f0: cd03 cb3c a8bb cf3c 3c59 c23c f513 ce3c
00000100: c23a cd3c a2f4 cebc 7399 cfbc 85a1 cf3c
00000110: e7eb d0bc 0596 cf3c 6286 cf3c b174 cfbc
00000120: c386 cf3c 65d4 cf3c 5c53 cf3c d9c8 cfbc
00000130: f5c9 ce3c 1fd7 ce3c cd44 c83c b374 cebc
00000140: a7ed c73c 4af1 cd3c ae42 c03c 8353 cd3c
00000150: 988c cc3c b63f cebc b4d9 cdbc 30bc ce3c
00000160: ede4 cfbc 81b5 ce3c f20b cf3c 8ed0 cdbc
00000170: 8388 ce3c 7eb1 cf3c ae10 ce3c 42fb cfbc
00000180: 66ac ce3c ce30 ce3c 80b9 ca3c 5bb3 cdbc
00000190: 7292 c93c 5f3f d03c 457d c33c 6fdb ce3c
000001a0: 2c33 cf3c 316b d0bc 9cf4 cfbc bd7f d03c
000001b0: 5e41 d1bc 5723 d03c 7124 d03c 6d0d cfbc
000001c0: 5b06 d03c 6ae9 d03c bd8d cf3c 384e d0bc
000001d0: 349c ce3c d691 cf3c 7888 cc3c fb57 cfbc
000001e0: 485b ca3c 733c cf3c 02fa c33c 723b cf3c
000001f0: 3aa4 cd3c 1b97 cfbc 08e7 cfbc 5023 d03c
00000200: 276f d1bc 0f0b d03c 70dd cf3c 16e2 cebc
00000210: 1c66 d03c 2c7a d03c 2124 cf3c 0e0f d0bc
00000220: 9f51 ce3c 4fa9 cf3c 9914 c93c e364 cfbc
00000230: 908a ca3c 3b35 d03c a54f c53c 403f cf3c
00000240: af72 ce3c d4e9 d0bc 5c8d d0bc 95d1 d03c
00000250: 8199 d1bc 740a d13c 9f7e d03c ea82 cfbc
00000260: 4701 d13c 7e4a d13c 5755 d03c ee55 d1bc
00000270: af28 cf3c 413a d03c ed27 cb3c 3fb9 cfbc
00000280: e1a4 cd3c 9a5c d13c b757 c63c e349 d03c
00000290: 5bd2 cf3c 1be5 d0bc faca d0bc 0333 d23c
000002a0: a0ba d2bc 1745 d13c 1003 d23c aba5 d0bc
000002b0: d797 d13c 79bb d13c 6119 d13c d5df d1bc
000002c0: c715 d03c 740c d13c c066 cb3c 19fe d0bc
000002d0: 952c ca3c 3c35 d03c ab0c c53c e0f7 ce3c
000002e0: 79fb ce3c 1ccf cfbc e483 cfbc 695a d03c
000002f0: 639b d1bc af21 d03c 387c d03c 3746 cfbc
00000300: 6e68 d03c d13c d13c 6e8a cf3c 4284 d0bc
00000310: a000 cf3c ee57 d03c 1b3c c93c e624 cfbc
00000320: e023 cd3c 9ad8 cf3c eabb c33c 895b cf3c
00000330: bc88 ce3c d714 d0bc 6d81 d0bc 6d2d d13c
00000340: abd5 d1bc faf2 d03c 634e d13c efd9 cfbc
00000350: e655 d03c 18f7 d03c 4c7e d03c 5cbe d0bc
00000360: b322 cf3c e083 d03c ddd0 c93c 7154 d0bc
00000370: 92e2 c93c ac64 cf3c 500e c73c f3cd ce3c
00000380: 8553 ce3c 0f7a cfbc cce9 cebc 804f d03c
00000390: 4c8f d0bc 3dcf cf3c 278f cf3c f899 cebc
000003a0: 675e cf3c f344 d03c ca83 cf3c 99ab cfbc
000003b0: 9027 ce3c cfbf cf3c bf21 ca3c c365 cfbc
000003c0: 998f cc3c eea6 cf3c aed7 c53c 1415 cf3c
000003d0: 21d5 ce3c 1d36 d0bc e16f cfbc dd82 d03c
000003e0: 1acc d1bc ecc5 d03c c96e d03c b22d cfbc
000003f0: 7299 d03c bacd d03c 34f2 cf3c b5bc d0bc

lstm.bias_ih_l1 f4 [80]
0.050648935 0.051523067 0.049452707 0.051393535 0.051243443 0.051614407 0.051556773 0.051683694
0.05190235 0.05159248 0.05168437 0.0515107 0.05161816 0.051909305 0.051507995 0.05171558
0.051432293 0.05160589 0.050553624 0.051462002 0.07593252 0.07839929 0.07264103 0.07809963
0.077541 0.07859659 0.078346625 0.078806594 0.079383455 0.078954786 0.078821845 0.07823635
0.07874127 0.079619735 0.078846425 0.07941116 0.07791152 0.07847858 0.07560131 0.07821742
0.111866534 0.11315067 0.10974444 0.11295555 0.11214369 -0.11314936 -0.11309492 0.11343257
-0.114430554 0.11316152 0.11320205 -0.11316849 0.11341112 0.113352634 0.113129 -0.11182557
0.11290746 0.113094226 0.11219811 -0.11294229 0.0805727 0.08353257 0.07706719 0.08318178
0.08257584 0.08370095 0.08345902 0.084211044 0.084844165 0.08381968 0.083906755 0.0832653
0.083916575 0.08454806 0.08358597 0.084067635 0.082984515 0.083598286 0.0799809 0.08335974
00000000: 4275 4f3d da09 533d ec8e 4a3d 0782 523d
00000010: a5e4 513d a169 533d 322d 533d 48b2 533d
00000020: 8f97 543d a352 533d fdb2 533d e2fc 523d
00000030: 906d 533d da9e 543d 0cfa 523d b7d3 533d
00000040: abaa 523d b360 533d 5111 4f3d d2c9 523d
00000050: 8282 9b3d cf8f a03d d2c4 943d b3f2 9f3d
00000060: d1cd 9e3d 40f7 a03d 3274 a03d 5a65 a13d
00000070: cb93 a23d 0cb3 a13d 596d a13d 613a a03d
00000080: 1a43 a13d ac0f a33d 3c7a a13d 51a2 a23d
00000090: 1390 9f3d 61b9 a03d dcd4 9a3d 7430 a03d
000000a0: 481a e53d 8abb e73d b1c1 e03d 3d55 e73d
000000b0: 97ab e53d daba e7bd 4f9e e7bd 564f e83d
000000c0: 915a eabd 3ac1 e73d 7ad6 e73d e2c4 e7bd
000000d0: 1744 e83d 6d25 e83d 2db0 e73d ce04 e5bd
000000e0: 073c e73d f29d e73d 1fc8 e53d 4a4e e7bd
000000f0: 4d03 a53d 2013 ab3d 67d5 9d3d 365b aa3d
00000100: 861d a93d 676b ab3d 90ec aa3d d776 ac3d
00000110: c7c2 ad3d a7a9 ab3d 4ed7 ab3d ff86 aa3d
00000120: 74dc ab3d 8927 ad3d 1f2f ab3d a72b ac3d
00000130: c9f3 a93d 9435 ab3d 07cd a33d 83b8 aa3d

lstm.bias_hh_l1 f4 [80]
0.05041882 0.051532686 0.04905088 0.0514521 0.051128615 0.05159217 0.051549334 0.05171642
0.051893365 0.051593572 0.051726583 0.05150278 0.051762577 0.051721007 0.051524993 0.05174104
0.051309478 0.051545467 0.050614223 0.051473636 0.07586766 0.078400895 0.07092608 0.07807986
0.07742178 0.07856198 0.07838123 0.07881062 0.079375125 0.07861371 0.078894146 0.07819612
0.07882566 0.078997076 0.07886123 0.078874975 0.07795868 0.07847113 0.07516627 0.078216866
0.11210755 0.1131045 0.11114689 0.11294833 0.112935625 -0.11314983 -0.11316172 0.1133703
-0.11448376 0.11318146 0.113444366 -0.11306014 0.11321582 0.11333028 0.11315828 -0.11484693
0.11299491 0.11320717 0.111809336 -0.11294215 0.0805798 0.08353256 0.07614311 0.08317526
0.082629316 0.083782375 0.08361175 0.0846652 0.08556893 0.08379745 0.084076665 0.08331175
0.08398383 0.08424779 0.08359322 0.08479021 0.083012305 0.08366422 0.08051537 0.08335839
00000000: f783 4e3d f013 533d 93e9 483d 70bf 523d
00000010: 3d6c 513d 5052 533d 6525 533d 99d4 533d
00000020: 238e 543d c853 533d 41df 533d 94f4 523d
00000030: ff04 543d 68d9 533d df0b 533d 6aee 533d
00000040: e329 523d 5721 533d dc50 4f3d 05d6 523d
00000050: 8160 9b3d a690 a03d b141 913d 55e8 9f3d
00000060: 4f8f 9e3d 1ae5 a03d 5786 a03d 7667 a13d
00000070: 6d8f a23d 3a00 a13d 4193 a13d 4a25 a03d
00000080: 596f a13d 38c9 a13d ff81 a13d 3489 a13d
00000090: cda8 9f3d 79b5 a03d c6f0 993d 2a30 a03d
000000a0: a598 e53d 55a3 e73d fba0 e33d 7451 e73d
000000b0: cb4a e73d 19bb e7bd 55c1 e7bd b02e e83d
000000c0: 7676 eabd aecb e73d 8555 e83d 138c e7bd
000000d0: b2dd e73d b519 e83d 87bf e73d de34 ebbd
000000e0: e069 e73d 29d9 e73d 4bfc e43d 374e e7bd
000000f0: 0607 a53d 1e13 ab3d ebf0 9b3d ca57 aa3d
00000100: 8f39 a93d 1896 ab3d a33c ab3d f364 ad3d
00000110: c33e af3d ff9d ab3d 6330 ac3d 5a9f aa3d
00000120: b7ff ab3d 1b8a ac3d ec32 ab3d 7da6 ad3d
00000130: 5b02 aa3d 2658 ab3d 3ee5 a43d ceb7 aa3d

fc.weight f4 [90, 20]
0.031587683 0.03238094 0.030466346 0.03231698 0.032197513 -0.032501746 -0.032448072 0.03254934
-0.032694783 0.032495476 0.03254761 -0.032345396 0.032469068 0.032603577 0.03245371 -0.03257329
0.032228988 0.032477513 0.03140834 -0.032396395 0.03136392 0.03240656 0.031276792 0.032304693
0.03210507 -0.032447726 -0.032394957 0.03252525 -0.032716107 0.032554142 0.032527838 -0.032361794
0.03258914 0.032580618 0.03242204 -0.03254344 0.03225078 0.032441758 0.0313874 -0.032353275
0.03164529 0.032431994 0.03110799 0.032303035 0.032108292 -0.032442108 -0.03234844 0.032566994
-0.03265105 0.03243883 0.03250348 -0.032383583 0.032451175 0.032537192 0.032388415 -0.03249846
0.03226149 0.03238726 0.031601835 -0.032313067 0.031748462 0.03241098 0.030248508 0.0323149
0.032171242 -0.032560997 -0.03254903 0.032542583 -0.032753706 0.03251184 0.032529626 -0.032374952
0.03251354 0.032595757 0.032452382 -0.032596294 0.03227982 0.03244475 0.031628866 -0.032459114
0.032173093 0.032951716 0.030585967 0.03279736 0.03268535 -0.032925386 -0.032863595 0.033094294
-0.033194833 0.033081695 0.033165336 -0.03282231 0.033097837 0.03309878 0.03294801 -0.033022948
0.032775514 0.03314235 0.03203226 -0.032971118 0.032015007 0.032451052 0.030537969 0.03236596
0.032388356 -0.032531224 -0.03256431 0.03266397 -0.032796912 0.03262143 0.03258977 -0.032468632
0.03258859 0.03272271 0.03258001 -0.032663494 0.03246676 0.032463633 0.03141584 -0.032520495
0.032070655 0.0325652 0.030895194 0.032315236 0.032220855 -0.032597214 -0.032398995 0.03257538
-0.03278586 0.032599844 0.032532666 -0.032367226 0.032508407 0.032595836 0.03244275 -0.032676194
0.03225696 0.032600824 0.03136415 -0.032475844 0.0316535 0.0325223 0.03108095 0.032346647
0.032142654 -0.032491624 -0.032426484 0.03256996 -0.032813035 0.032706246 0.032735415 -0.03241976
0.03271572 0.032634955 0.032464344 -0.032634933 0.032463994 0.032463 0.031518567 -0.032392427
0.031474736 0.032419864 0.031352274 0.032505106 0.03246862 -0.03252806 -0.032399695 0.032628216
-0.03271414 0.032645613 0.032612905 -0.0323892 0.03250317 0.03271227 0.032477148 -0.032636777
0.032307126 0.032433968 0.031451665 -0.032439023 0.031724446 0.03258714 0.031187424 0.032303464
0.03244704 -0.032472275 -0.03244153 0.03259492 -0.032767575 0.0324921 0.032522522 -0.032368757
0.032662526 0.032588582 0.032449868 -0.032687716 0.032247476 0.032425113 0.031504154 -0.032538205
0.03149078 0.03243149 0.030223856 0.03232699 0.032293674 -0.03249044 -0.032424234 0.032585762
-0.032766957 0.032503936 0.032641515 -0.032469835 0.032508705 0.032607026 0.03244101 -0.032603987
0.03251151 0.03243761 0.031987816 -0.032438878 0.031605527 0.032355618 0.03045401 0.032382425
0.03211732 -0.03241962 -0.032327417 0.03259039 -0.03266273 0.03250862 0.03245385 -0.032414615
0.03242595 0.032518987 0.03241036 -0.032522116 0.032236487 0.03236105 0.031698536 -0.032330994
0.031649172 0.032383893 0.031035677 0.032316472 0.03214883 -0.032420322 -0.032408237 0.032497842
-0.03266042 0.032531746 0.032561954 -0.032322012 0.03246916 0.032573137 0.03240873 -0.032547668
00000000: 1662 013d e0a1 043d 8f94 f93c cf5e 043d
00000010: 8ae1 033d 8d20 05bd 45e8 04bd 7552 053d
00000020: f7ea 05bd fa19 053d a550 053d 9b7c 04bd
00000030: 49fe 043d 548b 053d 2eee 043d 926b 05bd
00000040: 8b02 043d 2407 053d 08a6 003d 15b2 04bd
00000050: 7477 003d bebc 043d 181c 003d ed51 043d
00000060: 9b80 033d e8e7 04bd 93b0 04bd 3239 053d
00000070: 5301 06bd 7e57 053d e93b 053d cd8d 04bd
00000080: 317c 053d 4173 053d f9cc 043d 454c 05bd
00000090: 6519 043d a6e1 043d 1390 003d de84 04bd
000000a0: 7e9e 013d 69d7 043d 2fd6 fe3c 3050 043d
000000b0: fc83 033d 04e2 04bd cc7f 04bd f864 053d
000000c0: 1bbd 05bd 94de 043d 5e22 053d a6a4 04bd
000000d0: 86eb 043d b845 053d b7a9 043d 1b1d 05bd
000000e0: a024 043d 81a8 043d ed70 013d b55a 04bd
000000f0: ad0a 023d 60c1 043d b8cb f73c a15c 043d
00000100: fec5 033d ae5e 05bd 2252 05bd 5f4b 053d
00000110: c028 06bd 232b 053d c93d 053d 999b 04bd
00000120: eb2c 053d 2183 053d caec 043d b183 05bd
00000130: d837 043d c9e4 043d 458d 013d d9f3 04bd
00000140: efc7 033d 61f8 063d 6c8f fa3c 8656 063d
00000150: 13e1 053d c5dc 06bd fa9b 06bd e28d 073d
00000160: 4ef7 07bd ac80 073d 60d8 073d b070 06bd
00000170: 9991 073d 9692 073d 7ef4 063d 1243 07bd
00000180: 9e3f 063d 46c0 073d 4234 033d b90c 07bd
00000190: 2b22 033d 65eb 043d c32a fa3c 2b92 043d
000001a0: a7a9 043d 763f 05bd 2762 05bd a8ca 053d
000001b0: 0e56 06bd 0c9e 053d da7c 053d d4fd 04bd
000001c0: 9d7b 053d 4008 063d 9e72 053d 28ca 05bd
000001d0: defb 043d 96f8 043d e5ad 003d 3634 05bd
000001e0: 855c 033d 1663 053d eb17 fd3c fb5c 043d
000001f0: 04fa 033d a884 05bd cfb4 04bd c36d 053d
00000200: 774a 06bd 6a87 053d f940 053d 7f93 04bd
00000210: 8927 053d 3683 053d b0e2 043d 79d7 05bd
00000220: e01f 043d 7188 053d b277 003d 6405 05bd
00000230: 1aa7 013d 1a36 053d 7a9d fe3c eb7d 043d
00000240: 04a8 033d f015 05bd a2d1 04bd 1468 053d
00000250: f666 06bd fcf6 053d 9215 063d 95ca 04bd
00000260: eb00 063d 3bac 053d 55f9 043d 35ac 05bd
00000270: f7f8 043d ecf7 043d 9d19 013d ecad 04bd
00000280: a7eb 003d b1ca 043d 3e6b 003d 1324 053d
00000290: d1fd 043d 253c 05bd 8bb5 04bd 2aa5 053d
000002a0: 43ff 05bd 68b7 053d 1c95 053d 8aaa 04bd
000002b0: 0b22 053d 4dfd 053d c206 053d 24ae 05bd
000002c0: 7a54 043d 7bd9 043d 76d3 003d c8de 04bd
000002d0: 7ef1 013d 187a 053d c57c ff3c a350 043d
000002e0: 30e7 043d a601 05bd 69e1 04bd 4082 053d
000002f0: 4b37 06bd 7016 053d 5636 053d 1a95 04bd
00000300: 24c9 053d 9b7b 053d 27ea 043d 8ee3 05bd
00000310: ee15 043d 32d0 043d 800a 013d c846 05bd
00000320: 7afc 003d e2d6 043d 0598 f73c 4e69 043d
00000330: 5f46 043d b214 05bd 46cf 04bd a678 053d
00000340: a536 06bd d922 053d 1cb3 053d 17ff 04bd
00000350: d927 053d f28e 053d dde0 043d c28b 05bd
00000360: ca2a 053d 4ddd 043d a805 033d a1de 04bd
00000370: cc74 013d 5387 043d b07a f93c 6fa3 043d
00000380: 738d 033d 6fca 04bd c169 04bd 807d 053d
00000390: 5bc9 05bd c227 053d 54ee 043d 30c5 04bd
000003a0: 13d1 043d a132 053d bac0 043d e935 05bd
000003b0: 680a 043d 058d 043d 53d6 013d 816d 04bd
000003c0: 90a2 013d f9a4 043d 883e fe3c 475e 043d
000003d0: 7eae 033d 2ccb 04bd 80be 04bd 751c 053d
000003e0: efc6 05bd 0240 053d af5f 053d 1664 04bd
000003f0: 62fe 043d 696b 053d 04bf 043d b450 05bd

fc.bias f4 [90]
0.06588497 0.06585865 0.06578465 0.06600355 0.061047956 0.065948166 0.065893926 0.06570096
0.06589727 0.06584283 0.06590614 0.0661426 0.06583828 0.06615844 0.06607554 0.06592244
0.06437706 0.065797165 0.06585042 0.06584751 0.05715417 0.06591731 0.06604401 0.066068895
0.06598199 0.065951884 0.065335885 0.06589814 0.0658604 0.06585601 0.058789928 0.065770015
0.065857075 0.06588026 0.06589677 0.06597233 0.06596012 0.0660239 0.05660808 0.063440196
0.0658097 0.059498526 0.05918414 0.06600016 0.06586216 0.06236602 0.06427759 0.06572606
0.06580957 0.063038416 0.06595076 0.0661557 0.06559075 0.065974355 0.06582641 0.06382332
0.06604194 0.065266915 0.06574347 0.065833166 0.065769434 0.06572174 0.065714404 0.065749876
0.06579059 0.065732524 0.06570167 0.0644678 0.06573683 0.065919325 0.06420899 0.06570881
0.06573133 0.06011553 0.06575639 0.06570114 0.06564889 0.06568559 0.06590676 0.065699585
0.06590099 0.060623787 0.06569134 0.062171675 0.06565575 0.063038 0.065688506 0.06561852
0.06565138 0.065592214
00000000: b3ee 863d e6e0 863d 1aba 863d df2c 873d
00000010: 6c0d 7a3d d50f 873d 65f3 863d 3a8e 863d
00000020: 26f5 863d 9bd8 863d ccf9 863d c575 873d
00000030: 38d6 863d 147e 873d 9d52 873d 5802 873d
00000040: 1fd8 833d aac0 863d 96dc 863d 0fdb 863d
00000050: 7e1a 6a3d a8ff 863d 1542 873d 214f 873d
00000060: 9121 873d c811 873d d2ce 853d 9bf5 863d
00000070: d1e1 863d 84df 863d b5cd 703d 6eb2 863d
00000080: 13e0 863d 3bec 863d e3f4 863d 801c 873d
00000090: 1916 873d 8a37 873d e0dd 673d efec 813d
000000a0: 3cc7 863d bab4 733d 126b 723d 182b 873d
000000b0: bde2 863d 8373 7f3d f8a3 833d 629b 863d
000000c0: 2bc7 863d 491a 813d 3111 873d a47c 873d
000000d0: 7154 863d 901d 873d ffcf 863d cdb5 823d
000000e0: ff40 873d a9aa 853d 83a4 863d 8ad3 863d
000000f0: 20b2 863d 1f99 863d 4695 863d dfa7 863d
00000100: 38bd 863d c69e 863d 998e 863d b207 843d
00000110: 08a1 863d b600 873d 0180 833d 5792 863d
00000120: 269e 863d b43b 763d 49ab 863d 528e 863d
00000130: ed72 863d 2b86 863d 20fa 863d 818d 863d
00000140: 19f7 863d a650 783d 2e89 863d baa7 7e3d
00000150: 8676 863d 111a 813d b287 863d 0163 863d
00000160: 3b74 863d 3655 863d
