backend/model/lstm-ANGI-90-.pth (torch, 31237 bytes, 12 tensors)

conv1.weight f4 [2, 4, 3]
-5.631101e-16 -5.067328e-14 -1.1425988e-13 -5.024611e-16 -9.3868575e-17 4.6019854e-06 8.11834e-09 -4.299138e-16
-2.3307403e-09 -2.8889872e-16 -1.9623952e-16 -2.1527929e-16 2.8166342e-16 -3.0261033e-16 -3.9212136e-16 3.932861e-08
-2.1997141e-16 -2.5374832e-17 7.1525597e-14 -3.447917e-16 1.6944374e-15 -2.0562151e-16 -1.300489e-16 -1.09860504e-16
00000000: 314e 22a6 5036 64a9 2ba5 00aa 16d3 10a6
00000010: 3a72 d8a4 c16a 9a36 d678 0b32 14d4 f7a5
00000020: d12a 20b1 ed89 a6a5 af3f 62a5 3b33 78a5
00000030: 2f5e a225 6771 aea5 e60a e2a5 44ea 2833
00000040: 1a9c 7da5 a10a eaa3 b30f a129 46c2 c6a5
00000050: b531 f426 c210 6da5 a9ef 15a5 3252 fda4

conv1.bias f4 [2]
-7.518313e-16 1.696563e-07
00000000: 5cb3 58a6 c52a 3634

lstm.weight_ih_l0 f4 [80, 2]
7.054425e-20 -6.487582e-23 7.428928e-24 3.052398e-23 1.3265142e-20 -2.157733e-18 1.0408657e-18 4.2315252e-11
-3.778581e-21 -2.6097983e-22 -2.4905277e-21 -1.2724031e-13 2.4493705e-19 -2.0217812e-14 -1.0661257e-22 -1.0355932e-24
1.7083115e-20 -1.19456995e-08 1.683207e-19 -8.082672e-19 1.963471e-15 2.948012e-18 -2.2954747e-11 -2.0475761e-10
5.3828675e-19 1.178193e-19 -1.2257105e-19 2.1350986e-17 -7.889557e-11 3.3838937e-21 2.5525632e-10 -1.8453641e-16
4.4957043e-18 4.2666439e-19 4.2389297e-20 -5.758327e-10 -5.213151e-09 -4.766568e-08 -1.0122326e-21 6.123332e-22
-2.7748952e-17 -6.5248244e-08 -1.1830695e-21 6.0782828e-09 -5.596867e-11 -8.960325e-22 3.2527368e-19 6.5641506e-11
1.1180927e-19 3.8940396e-11 -1.7646409e-20 6.8149913e-22 5.5888696e-19 -1.7536419e-15 3.65416e-12 -2.4989312e-23
-1.9167161e-17 2.4131167e-21 7.5225955e-08 -2.1896836e-20 3.2432478e-17 2.439098e-18 1.2311495e-10 -4.8763413e-22
-3.0713369e-19 2.4835342e-16 1.2411375e-21 3.426311e-22 -5.5754946e-11 1.8522416e-21 1.1371618e-22 2.0217888e-23
6.377293e-18 3.646132e-19 -2.7810872e-08 -1.2943535e-19 -9.021119e-20 1.5447102e-21 -4.3128214e-08 2.430973e-09
9.5630975e-14 2.3960667e-15 6.934392e-15 -1.057488e-10 -7.009891e-15 -2.9796584e-07 1.3809586e-12 1.0588907e-13
2.4426433e-14 -3.8209446e-14 -9.624461e-14 -1.1457189e-14 -6.0527635e-13 -5.1890794e-14 1.8501689e-12 4.6639212e-07
1.5786238e-13 1.1784476e-09 -2.437817e-14 -1.1635078e-14 3.7336007e-12 1.1202617e-12 -1.2035572e-14 -2.4815541e-15
7.9856087e-13 6.311173e-14 -8.8251845e-10 -1.5867809e-15 9.435177e-09 -1.3073871e-14 3.1007417e-16 5.151271e-15
4.9115326e-12 2.4571637e-13 9.598078e-14 1.0714881e-14 1.5455391e-13 1.1478096e-14 2.861512e-14 1.5734128e-13
1.9814647e-13 -9.173681e-23 3.637728e-22 -1.4891919e-22 7.702239e-23 8.443246e-11 1.6418989e-18 3.9064266e-15
-2.926955e-18 4.038028e-18 5.2545138e-21 5.529835e-14 5.6467857e-09 6.603275e-20 -2.7814477e-07 8.759642e-22
1.739021e-20 1.0676922e-20 1.434972e-16 9.421911e-08 3.3179104e-17 7.2806933e-19 -4.1994013e-15 3.741536e-11
-2.1954444e-08 -9.171647e-09 -1.0408441e-10 -1.1471682e-22 5.3787694e-21 -1.0635114e-19 8.9995833e-23 8.83359e-14
2.831828e-17 -1.4735336e-07 8.929497e-22 2.3677633e-16 -1.5927509e-21 2.7097067e-22 1.098217e-09 2.467939e-16
00000000: 6291 a61f 30dc 9c9a 45b2 0f19 db9a 131a
00000010: 4a92 7a1e 6d36 1fa2 cb9a 9921 bd1a 3a2e
00000020: 31c0 8e9d acc0 9d9b d02d 3c9d 8642 0faa
00000030: d795 9020 1a1b b6a8 fee2 009b 1340 a097
00000040: 7058 a11e be39 4db2 cfb7 4620 f18e 6ea1
00000050: a67b 0d27 5f86 5922 7fe9 c9ad 2522 61af
00000060: ccdf 1e21 b318 0b20 d4b4 10a0 97ed c423
00000070: 427e adae 06ae 7f1d 2254 8c2f 89c1 54a5
00000080: badc a522 b3db fb20 842d 481f a048 1eb0
00000090: 5c1f b3b1 f8b8 4cb3 daf6 989c fd10 391c
000000a0: 5cf0 ffa3 9a1e 8cb3 c9c7 b29c 24d9 d031
000000b0: 1f27 76ae 9467 879c f801 c020 e258 902e
000000c0: 4700 0420 fd42 2b2e 66aa a69e 71f8 4d1c
000000d0: 4ef4 2421 f7b9 fca6 bf91 802c 8aae f199
000000e0: 2ec9 b0a3 7754 361d e88b a133 4dcf ce9e
000000f0: 8391 1524 42f9 3322 c75d 072f dd60 139c
00000100: bb4c b5a0 7f2a 8f25 2e8e bb1c 981b cf1b
00000110: 7d36 75ae 90f3 0b1d 7479 091b 1189 c319
00000120: d447 eb22 ca3a d720 c1e4 eeb2 6fcf 18a0
00000130: 5201 d59f 156e e91c f93b 39b3 210e 2731
00000140: 8157 d729 a1a7 2c27 7ad6 f927 488b e8ae
00000150: d58e fca7 1df8 9fb4 475a c22b e570 ee29
00000160: 8503 dc28 7e14 2ca9 3eb9 d8a9 f564 4ea8
00000170: c25e 2aab 03b2 69a9 ae31 022c 7264 fa34
00000180: bcbc 312a f0f6 a130 3c94 dba8 5499 51a8
00000190: 495d 832c aea9 9d2b 47d0 58a8 98d0 32a7
000001a0: 60c6 602b 6f1d 8e29 b795 72b0 e2ad e4a6
000001b0: 5918 2232 9784 6ba8 dfbe b225 1798 b927
000001c0: 27cf ac2c 7653 8a2a 2721 d829 ab05 4128
000001d0: 2203 2e2a 60c5 4e28 fdde 0029 8926 312a
000001e0: d517 5f2a 56ce dd9a 1de3 db1b 4208 349b
000001f0: 8d3a ba1a 40ab b92e 304d f221 6dbe 8c27
00000200: 9ef8 57a2 19fa 9422 8a82 c61d a80a 7929
00000210: a705 c231 59ea 9b1f ed53 95b4 395f 841c
00000220: f33e a41e 6dae 491e e670 2525 8155 ca33
00000230: f902 1924 5de3 5621 a44c 97a7 f38d 242e
00000240: 5596 bcb2 5591 1db2 50e2 e4ae 23af 0a9b
00000250: 4434 cb1d 521d fb9f b998 d91a 2eea c629
00000260: 5398 0224 2f38 1eb4 51f0 861c 057e 8825
00000270: 91b0 f09c aeca a31b 13f0 9630 5a44 8e25

lstm.weight_hh_l0 f4 [80, 20]
-5.9475705e-22 3.595359e-24 1.2264426e-09 -1.30953136e-20 1.8706446e-13 -9.192543e-22 -1.4793625e-09 9.577474e-08
-1.4142508e-22 -8.868703e-17 6.4490284e-21 2.5463687e-12 1.642791e-10 3.0924818e-11 1.8177657e-08 4.9820976e-22
9.395147e-22 -1.1119376e-22 1.585593e-10 1.0153384e-11 -1.0394221e-23 6.452052e-23 9.116348e-23 -6.989388e-22
-2.906681e-08 2.1103185e-24 -4.0943863e-23 -2.6194218e-22 -2.444665e-07 7.8714024e-17 7.749229e-22 5.6078615e-24
3.4680742e-16 -2.8331715e-23 -9.933681e-24 3.632045e-08 3.1431303e-22 -9.61777e-25 -6.3667465e-12 1.1283699e-13
1.884932e-17 2.0160973e-20 6.699066e-24 -1.6809622e-16 -1.4243161e-10 3.20293e-08 5.870696e-08 4.2474804e-07
-2.155233e-16 -9.80885e-23 3.002599e-11 4.5488547e-22 -3.2805152e-13 2.528746e-23 -3.0927487e-23 4.7616906e-12
-2.2123778e-07 -3.23355e-18 4.135591e-23 -2.6166168e-07 1.1510419e-10 -1.2491223e-20 -2.7922764e-21 -1.4595646e-11
9.466962e-13 -7.88051e-21 -3.7580994e-19 -6.5871114e-18 2.6208106e-20 -1.869976e-19 -7.8985993e-19 1.9043696e-20
3.477975e-19 -3.450881e-20 -1.3621779e-19 3.805259e-07 3.932244e-18 2.8028537e-20 9.685024e-10 7.6227174e-08
1.7964188e-19 -1.3687597e-08 1.7566112e-09 -2.6364467e-18 -5.533168e-20 -2.128226e-21 -1.779636e-08 -1.6782053e-08
4.437309e-22 1.3007051e-19 4.4401773e-19 -2.3220693e-20 3.270781e-20 -8.1367567e-22 -8.752709e-21 4.137371e-20
-2.2832681e-17 3.9674543e-21 1.4704119e-21 -3.0236077e-07 -1.0971908e-13 3.5909574e-07 -1.03635914e-22 1.0856689e-15
1.2288018e-09 7.61454e-23 -2.0850935e-22 1.00166765e-23 -3.2791704e-18 1.35146e-22 -5.1905062e-21 -4.5784256e-19
-3.2309955e-21 3.1810715e-23 -7.994099e-18 9.2068716e-17 -8.992784e-22 1.4364557e-19 6.351918e-22 -9.881829e-22
8.497377e-12 -3.6753997e-21 6.4234317e-13 1.2524648e-19 6.2677574e-19 -5.1518832e-21 -1.3871555e-19 -1.1925967e-20
-7.7388763e-13 -2.5690273e-20 -4.7117116e-08 -4.392205e-21 3.2204715e-11 -9.453092e-24 1.5868668e-18 -5.915749e-19
3.6668914e-19 1.4276044e-15 1.832724e-20 -4.9346056e-14 -2.5022052e-15 -3.3128033e-18 8.507597e-22 3.6680694e-22
-1.32725e-23 2.4615011e-23 5.871484e-11 1.1039379e-08 -1.2995765e-20 3.1671766e-19 2.9391125e-21 2.7293381e-11
3.3311881e-16 1.5018486e-19 6.8251765e-08 1.0986921e-14 3.2085415e-23 -8.918282e-25 -4.56066e-23 1.6293697e-08
-2.162306e-07 7.127251e-14 1.9291725e-12 1.0514448e-13 -2.9144883e-21 -2.1506365e-21 1.8833461e-09 -2.7266853e-07
-1.3416304e-20 2.1914257e-20 -1.1433245e-07 9.1296305e-20 -4.048358e-21 -2.9563972e-22 1.9229833e-13 -1.1973638e-19
4.587912e-21 3.8961797e-08 3.0928674e-22 -8.643848e-22 2.1843068e-15 -4.8993023e-21 3.223839e-20 7.582696e-21
-1.4190762e-20 -1.3160069e-07 -1.854343e-21 2.9062304e-18 6.334191e-21 1.4508373e-09 -1.7177221e-20 2.5148804e-20
5.1368744e-22 -2.2627491e-21 8.509091e-21 7.939059e-22 -1.8440054e-19 -1.3592701e-15 -7.192637e-18 -1.1824627e-21
2.2656578e-19 -2.2373152e-08 9.970892e-16 -1.3301156e-16 -4.953556e-18 1.4728196e-09 -2.377293e-18 -8.168513e-20
6.1459075e-19 -2.1350098e-19 9.117785e-17 -3.0165726e-19 8.250927e-18 -1.0648179e-19 -1.3592804e-16 -2.6183682e-20
3.5641492e-17 4.7107114e-19 2.0735324e-19 2.3897172e-07 -1.037209e-22 4.0981443e-22 5.161991e-24 3.0646345e-22
-1.3965524e-22 -1.696163e-17 4.1890385e-23 -3.683632e-10 -2.1851697e-19 -1.4303377e-07 -1.9808105e-13 -1.8784196e-07
-1.8194205e-21 4.4927228e-23 -4.718669e-22 -6.0513942e-24 4.5740094e-22 -8.4222995e-24 3.9378104e-08 1.9626212e-23
5.0940024e-21 1.5590108e-22 -1.6495101e-16 4.62682e-15 -5.9056515e-20 -2.0713283e-21 4.5795715e-16 3.3191492e-09
9.806497e-21 -2.582873e-07 1.5663854e-17 -2.9953878e-21 1.2535759e-19 2.962851e-20 3.4380355e-07 3.5155801e-07
00000000: 19c1 339c b616 8b18 9d8f a830 0d5d 779e
00000010: a99d 522a eee9 8a9c 7152 cbb0 b8ac cd33
00000020: f1f8 2a9b 957f cca4 2da3 f31d 4d2f 332c
00000030: 75a0 342f 4002 082e 1725 9c32 1d93 161c
00000040: b7f9 8d1c cd6c 069b 7a56 2e2f c79e 322d
00000050: b00d 4999 4400 9c1a 766b dc1a c53d 539c
00000060: 97ae f9b2 2a47 2318 0cfe 459a 9755 9e9b
00000070: 383f 83b4 8f80 b524 c134 6a1c 92f1 d818
00000080: beeb c725 f700 099a 3525 4099 c2fe 1b33
00000090: 96fd bd1b ead3 9497 8e02 e0ac 1916 fe29
000000a0: b3da ad23 3e6a be1e 2b94 0119 3fcd 41a5
000000b0: ef9a 1caf 9690 0933 fc24 7c33 ed08 e434
000000c0: 407b 78a5 d729 ed9a 420e 042e 0f7b 091c
000000d0: 35ad b8aa b890 f419 608e 159a 7f89 a72c
000000e0: 618d 6db4 0898 6ea2 23fc 471a 827a 8cb4
000000f0: e61d fd2e d9f3 6b9e 7bfa 529d 7962 80ad
00000100: 533c 852b cfdb 149e cbd6 dda0 8205 f3a2
00000110: 5087 f71e 8fc4 5ca0 2120 69a1 d5dc b31e
00000120: ac4d cd20 97f6 229f 4dd1 20a0 154b cc34
00000130: ff12 9122 6c5c 041f 261c 8530 55b2 a333
00000140: 6d15 5420 b026 6bb2 436d f130 1289 42a2
00000150: f3a5 829f e1cd 209d 9cde 98b2 2028 90b2
00000160: 041c 061c 668f 1920 080d 0321 3150 db9e
00000170: 5175 1a1f 1beb 759c 8155 259e bf61 431f
00000180: 2598 d2a3 dde2 951d ce33 de1c 2654 a2b4
00000190: be10 f7a9 bec9 c034 8693 fa9a 1d76 9c26
000001a0: 9fe2 a830 b81b b81a 8512 7c9b 2ec0 4119
000001b0: c7f5 71a2 a961 231b 7f17 c49d 9b21 07a1
000001c0: 8b20 749d c2d3 191a 1177 13a3 c74b d424
000001d0: 26e5 879c 3696 2920 96f9 3f1c 7954 959c
000001e0: c97c 152d 49da 8a9d b4cd 342b 6ddd 1320
000001f0: d6fd 3821 f5a1 c29d 34c4 23a0 7046 619e
00000200: 7bd4 59ab 45a3 f29e d15d 4ab3 cdee a59d
00000210: 49a3 0d2e 72d9 3699 222e ea21 239a 2ea1
00000220: 7f74 d820 4ebd cd26 8c18 ad1e 213c 5ea9
00000230: 8a4d 34a7 1671 74a2 2c90 801c a0b8 dd1b
00000240: 1e5d 8099 d10f ee19 841d 812e b4a7 3d32
00000250: aa7b 759e 05f5 ba20 b412 5e1d 3b13 f02d
00000260: a907 c025 974e 3120 ce91 9233 3bec 4528
00000270: d227 1b1a f400 8a97 3c8a 5c9a 38f6 8b32
00000280: 042d 68b4 ce7d a029 e2c0 072c abc3 ec29
00000290: 6736 5c9d 5c7f 229d 2d6c 0131 4763 92b4
000002a0: 446d 7d9e 6cf9 ce1e ee86 f5b3 3b91 d71f
000002b0: 51f1 989d 08b4 b29b 3882 582a 1a5c 0da0
000002c0: 9053 ad1d f356 2733 cef3 ba1b 449f 829c
000002d0: 5965 1d27 2517 b99d d23d 181f ab3b 0f1e
000002e0: 2807 869e 1f4e 0db4 361c 0c9d 2471 5622
000002f0: 894c ef1d cd66 c730 f93b a29e 1486 ed1e
00000300: a440 1b1c eff7 2a9d 70bb 201e 7ef1 6f1c
00000310: a5b3 59a0 37e4 c3a6 45ae 04a3 4fb0 b29c
00000320: a7bd 8520 152f c0b2 19b2 8f26 155a 19a5
00000330: 03c1 b6a2 3c6c ca30 cc69 2fa2 a2df c09f
00000340: 2a65 3521 b60e 7ca0 e73d d224 2811 b2a0
00000350: e733 1823 4b6c fb9f e0b6 1ca5 424c f79e
00000360: 0c5e 2424 2109 0b21 accc 7420 064c 8034
00000370: 21c8 fa9a b6b7 f71b e2b1 c718 ec3e b91b
00000380: 34d5 289b 8471 9ca3 c991 4a1a 8382 caaf
00000390: 5afd 80a0 d394 19b4 fa04 5faa 9bb1 49b4
000003a0: b678 099d 3741 591a ef9c 0e9c 1b1a ea98
000003b0: af3d 0a1c 35e9 2299 af20 2933 26d0 bd19
000003c0: 2b72 c01d 0c79 3c1b f22c 3ea5 e2b2 a627
000003d0: 7971 8b9f 5181 1c9d 46ff 0326 1717 6431
000003e0: 4f3d 391e bcaa 8ab4 3b79 9023 3a53 629d
000003f0: 02ff 1320 acea 0b1f 0094 b834 c4bd bc34

lstm.bias_ih_l0 f4 [80]
1.6482125e-15 1.3205004e-17 1.34164315e-08 -1.4661557e-08 -7.5348217e-10 1.6745816e-15 2.0368245e-09 1.0141477e-17
7.63556e-15 2.1750597e-09 3.89657e-11 3.6331872e-16 1.5992378e-13 -7.699807e-17 1.4412457e-14 1.4300584e-16
-1.9096527e-08 2.8264388e-15 3.741734e-15 1.679411e-16 -1.3397417e-12 1.7584199e-17 -2.4276094e-09 1.0454632e-12
4.423538e-14 -1.6482584e-12 1.851458e-07 1.2518491e-17 5.6957155e-15 7.1629307e-09 -1.088537e-08 3.4543025e-16
5.1394197e-13 -1.6524011e-16 7.27616e-15 2.7592657e-18 3.552234e-12 7.868155e-09 8.4131005e-15 1.5466467e-16
1.957322e-08 5.40715e-09 -4.6844675e-09 2.316947e-06 -4.8939046e-07 -3.320418e-08 -5.9811765e-07 -3.6944154e-09
5.527835e-08 -3.888097e-08 5.2107644e-06 -1.30755415e-08 9.1334834e-07 -9.010636e-09 -5.7404236e-08 -1.7140278e-09
4.3349387e-06 6.1687246e-08 5.2369124e-08 1.430052e-08 9.904331e-16 2.5171212e-18 1.409198e-17 1.0153705e-12
-5.9910665e-10 1.2287433e-15 -1.7639176e-09 4.0702394e-15 3.965246e-15 1.3533605e-14 -3.2866147e-11 -1.6698348e-07
5.1220805e-11 1.3743677e-16 -1.2471557e-10 3.5587523e-19 2.555092e-07 4.0535604e-15 1.13625895e-14 7.7318676e-17
00000000: 4f88 ed26 de96 7323 177e 6632 36e2 7bb2
00000010: 981d 4fb0 2855 f126 32f8 0b31 c513 3b23
00000020: ce8c 0928 0e78 1531 7a5f 2b2e 6170 d125
00000030: e40e 342a a38b b1a4 ddd0 8128 e0df 2425
00000040: b509 a4b2 98aa 4b27 68cf 8627 779f 4125
00000050: 488d bcab 842f a223 f5d2 26b1 c822 932b
00000060: ec37 4729 c4f8 e7ab 7dcc 4634 e7ec 6623
00000070: b435 cd27 ce1d f631 5d02 3bb2 8220 c725
00000080: 6ca9 102b 4682 3ea5 5e13 0328 0e99 4b22
00000090: 5cf7 792c 832c 0732 948e 1728 f450 3225
000000a0: f721 a832 cbc9 b931 03f5 a0b1 d97c 1b36
000000b0: a85e 03b5 629c 0eb3 558e 20b5 d8e0 7db1
000000c0: 306b 6d33 14fe 26b3 20d8 ae36 d7a2 60b2
000000d0: d22c 7535 32cd 1ab2 a08c 76b3 fe92 ebb0
000000e0: d774 9136 ec78 8433 76ec 6033 5aae 7532
000000f0: 88bc 8e26 13bb 3922 bff9 8123 94e6 8e2b
00000100: 62ae 24b0 a014 b126 556e f2b0 55a5 9227
00000110: f0dc 8e27 bdcc 7328 fe8b 10ae 124c 33b4
00000120: 8045 612e 2d74 1e25 5020 09af 5812 d220
00000130: eb2c 8934 7f0b 9227 b2b0 4c28 e448 b224

lstm.bias_hh_l0 f4 [80]
4.1480233e-16 1.9419868e-17 3.11524e-17 1.0551344e-12 1.0084408e-13 -3.4211094e-08 1.991662e-13 2.934392e-17
-1.7035353e-13 5.7401263e-15 7.549818e-12 6.2736136e-16 2.0529135e-13 3.0544648e-08 5.4739966e-15 -1.6148444e-14
2.4196764e-12 2.1488567e-15 4.4023415e-15 2.0943624e-16 8.262943e-16 2.5089261e-17 -1.2689475e-15 8.201503e-13
5.9280304e-13 -8.4059475e-11 1.1486736e-13 9.541095e-18 4.986338e-15 7.347393e-15 3.4447514e-11 6.729817e-09
3.5512194e-13 5.671211e-17 1.18859475e-14 3.0251794e-19 -8.712884e-09 1.5583875e-15 4.227702e-15 1.611438e-16
3.663619e-08 3.1031053e-09 -3.6114036e-09 7.3099665e-07 -2.04321e-07 -2.2250894e-08 -4.205761e-07 -4.91068e-09
7.233477e-08 -2.3639814e-07 6.2558697e-06 -3.031384e-08 3.4501605e-07 -5.708332e-09 -1.4582231e-07 -9.3044467e-10
1.1307426e-06 3.197428e-08 5.320298e-08 1.1577471e-08 -1.9211884e-08 2.0812179e-17 1.8098862e-17 3.4739163e-12
1.8252499e-13 1.3607206e-15 1.3130358e-13 1.0094872e-17 3.7010978e-15 5.7086264e-15 1.2030568e-11 -1.132729e-09
1.1776875e-13 -1.5307169e-09 7.583935e-15 -5.805341e-10 2.6276338e-12 -1.952459e-08 -5.4319893e-10 1.4743364e-16
00000000: 051e ef25 de1d b323 43aa 0f24 397f 942b
00000010: a714 e329 7fef 12b3 c03d 602a 3053 0724
00000020: 10cd 3faa 52cf ce27 5cd1 042d 19d3 3426
00000030: 3423 672a 3230 0333 b538 c527 c773 91a8
00000040: 0445 2a2c 69d7 1a27 6f9c 9e27 ab76 7125
00000050: c229 6e26 5868 e723 e6df b6a6 0fda 662b
00000060: f6db 262b 47d9 b8ae 4354 012a 8c00 3023
00000070: daa6 b327 df5b 0428 7480 172e 193c e731
00000080: 77ea c72a ecc4 8224 421e 5628 3893 b220
00000090: abaf 15b2 5a96 e026 ab51 9827 41c9 3925
000000a0: eb59 1d33 683e 5531 7c2c 78b1 b539 4435
000000b0: 5463 5bb4 3c22 bfb2 8acb e1b4 ccba a8b1
000000c0: 7656 9b33 a0d4 7db4 83e9 d136 6b32 02b3
000000d0: a53a b934 0523 c4b1 5593 1cb4 39c2 7fb0
000000e0: 05c4 9735 1854 0933 4c81 6433 42e6 4632
000000f0: 6107 a5b2 5ef5 bf23 bbee a623 8374 742c
00000100: 3f81 4d2a bb19 c426 aed5 132a af37 3a23
00000110: 9a58 8527 c9ac cd27 dda4 532d 5cae 9bb0
00000120: 8898 042a 5061 d2b0 ba9e 0828 7593 1fb0
00000130: 3ee7 382c 07b7 a7b2 3a50 15b0 bbfa 2925

lstm.weight_ih_l1 f4 [80, 20]
1.3913681e-10 2.3071885e-11 -4.2419318e-11 1.4860056e-08 1.190645e-08 -8.2067875e-10 -3.2739005e-09 -2.1536464e-11
2.8766306e-10 7.204732e-09 4.19743e-08 -2.4128544e-10 4.246592e-09 4.6078671e-10 -5.013617e-10 -8.864025e-11
2.0953394e-08 1.9422525e-07 2.8242803e-10 1.090396e-10 7.791691e-10 1.16380634e-10 -2.533899e-10 2.80317e-08
-9.78089e-09 -6.409479e-10 -8.722644e-09 9.290646e-10 4.1185833e-09 -1.4422494e-08 1.6037349e-07 -7.8055634e-10
3.8773814e-07 -2.803584e-10 -1.9061575e-09 1.9350185e-11 1.5275593e-07 8.0177487e-10 1.3919631e-09 3.3457534e-10
-1.2657912e-07 8.224342e-11 -3.0693198e-10 7.2209865e-08 -1.4709445e-08 -1.5547705e-09 -7.87213e-09 -7.3202916e-11
1.2727375e-09 -2.9805574e-09 1.1078003e-07 -4.6850573e-10 1.0976892e-08 -3.9289247e-10 -2.057313e-09 -8.9957236e-11
9.6194555e-08 2.2736986e-09 2.1812296e-09 -9.87326e-09 2.3609473e-10 3.2708617e-11 3.131851e-08 1.7501234e-08
-6.081675e-09 -6.3200717e-10 -3.9778074e-09 -7.920752e-11 5.956154e-10 -1.8839388e-09 1.01382454e-07 -2.843591e-10
2.3576975e-07 -5.898032e-11 5.5242225e-08 -7.620689e-11 2.200176e-08 7.127212e-10 1.0348381e-09 2.3849403e-10
2.8331342e-11 -4.2683446e-10 7.903931e-09 1.0448967e-09 -2.2035136e-10 -1.549938e-11 -2.7350766e-10 -3.5600804e-12
7.2969096e-11 -6.269683e-09 3.0876215e-09 -4.2929243e-11 3.8568833e-09 -1.4284181e-11 -5.871218e-11 -1.7790902e-12
2.5630105e-09 3.73268e-11 3.1997516e-11 1.7590656e-11 7.6970674e-10 2.564108e-07 1.1157127e-08 7.7250505e-08
-6.5127708e-09 -5.71105e-10 -9.101394e-08 3.8105227e-08 1.6466664e-09 -3.5990277e-09 1.311333e-07 -7.4771456e-10
1.47478625e-08 -1.9227046e-10 3.7776573e-08 -5.917973e-11 7.657354e-08 1.0595689e-09 5.813126e-09 3.4163009e-10
5.2909865e-10 5.0343996e-11 -4.86575e-11 1.2238511e-08 -3.1257096e-07 -5.248623e-10 -1.068626e-08 -4.4184652e-11
2.9769154e-09 -2.3811662e-09 1.2979525e-07 -6.43037e-10 6.1192464e-09 -1.1215461e-10 -1.1941061e-09 -2.4425238e-11
4.6334673e-08 1.035658e-09 1.2781725e-09 5.331972e-10 -8.621942e-12 1.5645474e-13 1.0323167e-07 5.8295875e-11
-7.159628e-12 -1.954714e-12 -4.480395e-08 -1.6563786e-13 7.304204e-12 -5.981229e-12 1.7715274e-10 -1.7104847e-12
2.270196e-09 2.6762423e-10 -4.0084663e-12 -4.876898e-14 1.0365267e-10 1.8862076e-12 4.4066292e-07 -1.1140539e-10
2.3635476e-09 1.1724571e-10 -9.3500485e-11 1.1613781e-07 -6.2867804e-09 -1.7094208e-09 -1.5813795e-08 -1.8525563e-10
1.4820986e-09 -3.6719317e-08 3.1219727e-07 -1.4288619e-10 2.4690332e-08 -1.8368682e-10 -3.6690473e-09 -2.350181e-11
6.8633526e-08 1.183471e-09 3.0091216e-09 2.8516967e-10 7.4312756e-10 8.004142e-11 -6.047417e-11 2.6854046e-08
-1.047752e-08 -6.8398387e-10 -1.0564953e-08 -9.7029274e-11 -5.7224443e-09 -2.018495e-08 5.24083e-07 -5.7293126e-10
2.0341908e-08 -1.6161969e-10 -1.8481296e-09 -1.3769846e-10 7.0524166e-08 1.5634869e-09 1.4453138e-09 2.1843448e-10
6.466853e-10 1.3460996e-10 -8.85623e-11 8.927234e-08 -7.784415e-09 -1.052712e-09 -3.028546e-08 1.5381024e-08
1.265191e-09 -1.1446226e-08 5.7109355e-07 -4.2196116e-10 4.9308437e-07 -2.2900713e-10 -4.341988e-09 -3.8222783e-11
5.219309e-08 1.0675375e-09 4.6608597e-09 5.536045e-10 2.7553393e-10 1.2524811e-08 -4.834563e-11 1.8503396e-08
-1.0745439e-08 4.3211172e-09 -7.281594e-09 -5.3038598e-11 3.0205772e-08 -1.4724711e-09 1.6361027e-07 1.2160962e-09
7.2860216e-09 -9.2029176e-11 -1.4632553e-09 -2.2992854e-11 2.8233652e-08 7.262887e-10 7.236768e-10 2.920363e-10
7.315167e-11 5.3975774e-12 -1.1413435e-11 2.0048652e-09 -5.2248167e-10 -3.697931e-11 -6.697485e-10 -4.5512188e-12
9.770317e-11 -2.4644564e-10 9.3648165e-09 -3.3025926e-11 8.4323004e-10 -5.81793e-08 -2.049293e-10 -1.8134927e-12
00000000: 88fb 182f 44f1 ca2d e88f 3aae 384b 7f32
00000010: 1f8d 4c32 2296 61b0 11fb 60b1 ce6f bdad
00000020: fa24 9e2f 7e8d f731 3b47 3433 e8a5 84af
00000030: 6be9 9131 f751 fd2f 31d0 09b0 06ec c2ae
00000040: 00fd b332 3b8c 5034 3644 9b2f d6c7 ef2e
00000050: 272d 5630 79ec ff2e 754d 8baf 5cca f032
00000060: cf08 28b2 b32e 30b0 98da 15b2 1c61 7f30
00000070: 7183 8d31 cdc6 77b2 2133 2c34 c58e 56b0
00000080: 532a d034 f020 9aaf 7afd 02b1 be34 aa2d
00000090: 3b05 2434 e463 5c30 594f bf30 4bef b72f
000000a0: cee9 07b4 eeda b42e d6bc a8af cb11 9b33
000000b0: d3b4 7cb2 a0af d5b0 fe3d 07b2 94f9 a0ae
000000c0: 78ec ae30 85d2 4cb1 f7e5 ed33 29c8 00b0
000000d0: e294 3c32 b3fe d7af a260 0db1 6cd1 c5ae
000000e0: 8493 ce33 543f 1c31 99e4 1531 0f9f 29b2
000000f0: 61cb 812f a1da 0f2e 1183 0633 9f55 9632
00000100: fbf6 d0b1 8db9 2db0 2aad 88b1 df2d aeae
00000110: b5b8 2330 9a76 01b1 98b7 d933 fc53 9caf
00000120: e527 7d34 f8b2 81ae 7843 6d33 aa94 a7ae
00000130: 62fe bc32 4ce9 4330 213a 8e30 0d1d 832f
00000140: 8334 f92d 9ca7 eaaf dbc9 0732 099c 8f30
00000150: 6547 72af 8055 88ad c85c 96af b584 7aac
00000160: f375 a02e b76c d7b1 032e 5431 08ce 3cae
00000170: 8185 8431 3b4a 7bad 051c 81ae 7b62 faab
00000180: f520 3031 3e2a 242e 00ba 0c2e a3ba 9a2d
00000190: 4c93 5330 d5a8 8934 90ad 3f32 eae4 a533
000001a0: f0c6 dfb1 f1fb 1cb0 7173 c3b3 24a9 2333
000001b0: ec50 e230 c452 77b1 a6cd 0c34 bc87 4db0
000001c0: c95d 7d32 5367 53af c83f 2233 3a23 82ae
000001d0: c070 a433 44a0 9130 ccbc c731 29d0 bb2f
000001e0: 0270 1130 4d6a 5d2e 7aff 55ae 8a41 5232
000001f0: 6dcf a7b4 e745 10b0 ab96 37b2 7f53 42ae
00000200: 7392 4c31 eba1 23b1 d95d 0b34 b5c1 30b0
00000210: 7641 d231 6fa1 f6ae e01d a4b0 bfd8 d6ad
00000220: 8301 4733 fa56 8e30 b2ab af30 6b90 1230
00000230: c6ad 17ad 0227 302a 36b0 dd33 a931 802e
00000240: 32e8 fbac ff8c 09ac 776e 40b3 dd7d 3aaa
00000250: 367f 002d 1f72 d2ac 10c8 422f b5ba f0ab
00000260: b601 1c31 c320 932f 0e09 8dac cea2 5ba9
00000270: 44ef e32e e5ba 042c 4094 ec34 a9fb f4ae
00000280: f86b 2231 bce9 002f 189c cdae 7067 f933
00000290: 1b03 d8b1 e6f0 eab0 e7d6 87b2 d3b0 4baf
000002a0: b5b2 cb30 51b5 1db3 119c a734 e31a 1daf
000002b0: 9d16 d432 3ef7 49af 9022 7cb1 5fb9 cead
000002c0: ae63 9333 afa7 a230 07c9 4e31 10c6 9c2f
000002d0: f444 4c30 5003 b02e eefb 84ae acac e632
000002e0: 9f00 34b2 1603 3cb0 2881 35b2 a05e d5ae
000002f0: 279f c4b1 2d63 adb2 b6ae 0c35 747c 1db0
00000300: 54bc ae32 e6b3 31af 4801 feb0 ac66 17af
00000310: 1273 9733 4ee2 d630 75a4 c630 d72b 702f
00000320: 6fc2 3130 5601 142f 25c0 c2ae fdb5 bf33
00000330: 38bc 05b2 03af 90b0 3713 02b3 3b1f 8432
00000340: f3e2 ad30 09a5 44b2 404d 1935 c1f9 e7af
00000350: 805c 0435 c7cb 7baf 8830 95b1 071b 28ae
00000360: e92a 6033 a3b8 9230 5b25 a031 742c 1830
00000370: f479 972f b42c 5732 57a0 54ae 66f1 9e32
00000380: f19a 38b2 f378 9431 9431 fab1 2744 69ae
00000390: 99bb 0133 f95f cab0 d9ac 2f34 9523 a730
000003a0: 8658 fa31 d25f caae b81b c9b0 4e3f caad
000003b0: 7586 f232 06a4 4730 3aec 4630 758c a02f
000003c0: bbdc a02e 0ee9 bd2c 8bc9 48ad f6c5 0931
000003d0: 619e 0fb0 00a3 22ae 5c19 38b0 bc21 a0ac
000003e0: ffd9 d62e 247c 87af e6e2 2032 e33f 11ae
000003f0: 0ac9 6730 d1e0 79b3 7852 61af f639 ffab

lstm.weight_hh_l1 f4 [80, 20]
0.00027085718 0.0006021446 0.0005592783 0.00037605673 0.00010455025 0.0006254919 -0.00042179346 -2.2517192e-05
-0.00060181564 -0.0005119638 -0.0006270215 -0.00044065982 0.00014686519 0.0006417347 -0.0005340884 -0.00016912313
0.0006405952 -0.00050969236 0.0006312875 0.0005762008 0.0014262518 0.0032118985 0.002797441 0.0019593497
0.00054284564 0.0028373937 -0.002115651 -0.00010903714 -0.0029919758 -0.0029883336 -0.0028551659 -0.0022556945
0.00067229674 0.0034671223 -0.0026457214 -0.00087439915 0.0031328334 -0.0024784214 0.0031147045 0.0029365607
0.001121107 0.0026258018 0.0021350447 0.0015469795 0.00042744965 0.0025340617 -0.0017019308 -8.337508e-05
-0.0024972376 -0.0024355822 -0.0026958461 -0.0017248266 0.00054081006 0.0025790937 -0.002136012 -0.0007052791
0.0024702286 -0.0020208308 0.0025553794 0.0023914482 0.0005300386 0.0012052231 0.00092752493 0.0007079167
0.00020374132 0.0011429549 -0.0007862478 -4.1309704e-05 -0.0011500196 -0.0010990362 -0.0012214332 -0.0008382873
0.00028037294 0.0012168484 -0.0009907916 -0.00033330105 0.0012206084 -0.00096094044 0.0011905001 0.001106505
4.0424155e-05 9.545852e-05 8.2856845e-05 5.9447008e-05 1.5939768e-05 9.418276e-05 -6.55383e-05 -3.2721107e-06
-8.977736e-05 -8.702657e-05 -9.338685e-05 -6.67645e-05 2.1899896e-05 9.5506715e-05 -8.217689e-05 -2.6495545e-05
9.8978366e-05 -7.720095e-05 9.622112e-05 8.579419e-05 0.0013752236 0.0033262298 0.002781672 0.0016592416
0.00052800233 0.003064724 -0.0020637205 -0.00011000802 -0.003162636 -0.0028491137 -0.0031855535 -0.0021387136
0.0007154885 0.0031615286 -0.002736477 -0.0008662098 0.0031411897 -0.0024810259 0.0032066752 0.0027398036
0.0005782966 0.0013126371 0.0013033918 0.00086904573 0.00024213127 0.0014640262 -0.0009313337 -5.1449664e-05
-0.0012905423 -0.0012405321 -0.0014966936 -0.0010003021 0.0003316101 0.0013835696 -0.0012408087 -0.0004007459
0.0014914357 -0.0011654451 0.0014639916 0.0013447508 1.6452142e-06 4.243235e-06 3.6887543e-06 2.3980842e-06
6.8942165e-07 4.014899e-06 -2.646778e-06 -1.3887193e-07 -4.042826e-06 -3.9076417e-06 -4.371119e-06 -2.800978e-06
9.833783e-07 4.132927e-06 -3.4137674e-06 -1.0890881e-06 4.299069e-06 -3.200261e-06 4.2057823e-06 3.660338e-06
0.0012391477 0.002776697 0.0027417843 0.0018013895 0.0004944588 0.0029893469 -0.0019462986 -0.00010279905
-0.0028434084 -0.0026453668 -0.0029488346 -0.0020887982 0.0006704234 0.003085702 -0.002515661 -0.0008255193
0.0030558892 -0.0024082358 0.003155869 0.0027793145 0.0011976528 0.0027507853 0.0023226982 0.0015001091
0.00045400384 0.0026546048 -0.001797555 -9.52264e-05 -0.00244202 -0.0025262525 -0.0024904886 -0.001857139
0.0006153844 0.0027174617 -0.00225489 -0.00074302603 0.0028664765 -0.0020962164 0.0027794356 0.0025149477
0.0014656003 0.0032515794 0.002899245 0.0018116877 0.00055326545 0.0029310165 -0.0022263923 -0.00011751229
-0.002872973 -0.0028605682 -0.00331779 -0.0022524407 0.0007157767 0.003590643 -0.0027453718 -0.0009066856
0.003004483 -0.0022750634 0.002973229 0.003108109 0.0006558799 0.0015437432 0.0013670865 0.0009267093
0.0002565207 0.0015361314 -0.0010410955 -4.9169317e-05 -0.0014715098 -0.0014122842 -0.0015705035 -0.0010440138
0.000349661 0.0015601357 -0.0013074401 -0.00042363777 0.0014341183 -0.0012183733 0.0015379894 0.0013173133
7.556651e-05 0.00017353553 0.00015481342 0.000106650434 3.0296085e-05 0.00017180845 -0.00011275877 -5.8953847e-06
-0.00017075743 -0.00015869245 -0.00017217039 -0.00011771329 3.7612994e-05 0.00017598632 -0.00014682698 -4.598764e-05
00000000: d601 8e39 3dd9 1d3a 889c 123a 7b29 c539
00000010: fd41 db38 0df8 233a 2924 ddb9 4de3 bcb7
00000020: 2ac3 1dba 4f35 06ba b35e 24ba 5c08 e7b9
00000030: d3ff 1939 163a 283a 1102 0cba a556 31b9
00000040: 9eed 273a e09c 05ba fd7c 253a 2e0c 173a
00000050: 12f1 ba3a b77e 523b 4655 373b 6f68 003b
00000060: c14d 0e3a 91f3 393b bca6 0abb deaa e4b8
00000070: 0615 44bb ebd7 43bb bc1d 3bbb 46d4 13bb
00000080: 123d 303a a938 633b d763 2dbb ef37 65ba
00000090: 3950 4d3b 036d 22bb 1220 4c3b 5073 403b
000000a0: 1cf2 923a a515 2c3b 1bec 0b3b 05c4 ca3a
000000b0: 521b e039 8012 263b 5213 dfba a8d9 aeb8
000000c0: b2a8 23bb 4a9e 1fbb cbac 30bb 9413 e2ba
000000d0: 26c5 0d3a 0306 293b 56fc 0bbb 7be2 38ba
000000e0: 8fe3 213b ea6f 04bb 2778 273b d8b9 1c3b
000000f0: 4af2 0a3a 94f8 9d3a 2525 733a 7c93 393a
00000100: 65a3 5539 34cf 953a 321c 4eba f543 2db8
00000110: 41bc 96ba 890d 90ba 7f18 a0ba 82c0 5bba
00000120: 05ff 9239 a87e 9f3a 73dd 81ba e9be aeb9
00000130: d2fc 9f3a 9fe7 7bba 8e0a 9c3a 2608 913a
00000140: 1b8d 2938 e730 c838 6ec3 ad38 bd56 7938
00000150: 64b6 8537 fc83 c538 9b71 89b8 6f96 5bb6
00000160: da46 bcb8 0982 b6b8 afd8 c3b8 eb03 8cb8
00000170: abb5 b737 c74a c838 6256 acb8 c042 deb7
00000180: 9b92 cf38 f2e6 a1b8 52ca c938 68ec b338
00000190: d940 b43a e0fc 593b b64c 363b e97a d93a
000001a0: a369 0a3a 89d9 483b 7c3f 07bb 1bb4 e6b8
000001b0: 3a44 4fbb 32b8 3abb b8c4 50bb a929 0cbb
000001c0: 9f8f 3b3a a631 4f3b 7756 33bb 5b12 63ba
000001d0: 6bdc 4d3b b598 22bb 1527 523b 478e 333b
000001e0: d498 173a cb0c ac3a 92d6 aa3a acd0 633a
000001f0: 9ee4 7d39 91e4 bf3a bf24 74ba a8cb 57b8
00000200: 6a27 a9ba 5a99 a2ba b42c c4ba 921c 83ba
00000210: f4db ad39 e458 b53a a2a2 a2ba 341b d2b9
00000220: 477c c33a d9c1 98ba 68e3 bf3a 5942 b03a
00000230: 21d1 dc35 1c61 8e36 518c 7736 c6ee 2036
00000240: b210 3935 b8b7 8636 4d9f 31b6 d31c 15b4
00000250: 9ca7 87b6 631e 83b6 a0ab 92b6 70f8 3bb6
00000260: 9ffc 8335 93ad 8a36 1418 65b6 c82c 92b5
00000270: b940 9036 11c4 56b6 651f 8d36 21a4 7536
00000280: e66a a23a 3ff9 353b 82af 333b 9a1c ec3a
00000290: 929e 013a ebe8 433b f21a ffba d295 d7b8
000002a0: 7a58 3abb e45d 2dbb 3c41 41bb 38e4 08bb
000002b0: 5abf 2f3a 7d39 4a3b cadd 24bb aa67 58ba
000002c0: 5045 483b 7ed3 1dbb b2d2 4e3b 2925 363b
000002d0: 8ffa 9c3a 8546 343b 6938 183b 4f9f c43a
000002e0: 5d07 ee39 e1f8 2d3b f09b ebba 49b4 c7b8
000002f0: 4c0a 20bb 7c8f 25bb 7737 23bb 3f6b f3ba
00000300: bf51 213a 7117 323b c7c6 13bb a2c7 42ba
00000310: 7fdb 3b3b ad60 09bb 3127 363b d2d1 243b
00000320: 6319 c03a 7318 553b 4201 3e3b 2776 ed3a
00000330: 0409 113a 4c16 403b aae8 11bb ee70 f6b8
00000340: 7d48 3cbb 5f78 3bbb 486f 59bb af9d 13bb
00000350: f6a2 3b3a fe50 6b3b b2eb 33bb a4ae 6dba
00000360: dce6 443b 3b19 15bb 81da 423b 6bb1 4b3b
00000370: 5bef 2b3a 6d57 ca3a d02f b33a 69ee 723a
00000380: a07d 8639 0458 c93a 5e75 88ba 273b 4eb8
00000390: addf c0ba 651c b9ba 5ad9 cdba 4ad7 88ba
000003a0: b452 b739 787d cc3a 695e abba b31b deb9
000003b0: 06f9 bb3a d3b1 9fba 5c96 c93a b3a9 ac3a
000003c0: 7679 9e38 17f7 3539 6955 2239 84a9 df38
000003d0: 5924 fe37 7b27 3439 e778 ecb8 f8d0 c5b6
000003e0: 590d 33b9 ae66 26b9 a388 34b9 d7dc f6b8
000003f0: a5c2 1d38 f888 3839 91f5 19b9 dae2 40b8

lstm.bias_ih_l1 f4 [80]
0.0040968726 0.021803375 0.014998688 0.007195877 0.0006046291 0.020518469 0.009604125 2.7117136e-05
0.018844197 0.017564345 0.02121477 0.0100856 0.0011310411 0.021201557 0.0146599095 0.0016733656
0.021781592 0.013314912 0.020340135 0.01783027 0.0040999623 0.021802636 0.017276077 0.007877645
0.00060405367 0.020246694 0.009636076 2.696055e-05 0.01853506 0.018172905 0.02133954 0.010141589
0.0011034559 0.021745956 0.014823791 0.001628944 0.022983009 0.0133192735 0.021507967 0.017969092
0.059578434 0.13119455 0.117932364 0.081382655 0.02351611 0.12984955 -0.08974863 -0.0049590096
-0.1258259 -0.121298954 -0.13279977 -0.091652274 0.030218493 0.13211258 -0.11157884 -0.037124857
0.13299982 -0.10616896 0.1303965 0.120724246 0.0040959595 0.02185598 0.017252121 0.0077910298
0.00061327586 0.021430878 0.00988823 2.5441625e-05 0.019907052 0.017690873 0.022162778 0.0101513555
0.00114622 0.024414815 0.015336367 0.0015945605 0.022358336 0.012946595 0.02201096 0.018198695
00000000: 0f3f 863b fe9c b23c 0fbd 753c 64cb eb3b
00000010: f97f 1e3a 5916 a83c 9f5a 1d3c 9b79 e337
00000020: 255f 9a3c 1ae3 8f3c 99ca ad3c 133e 253c
00000030: 713f 943a e3ae ad3c 1e30 703c d554 db3a
00000040: 4f6f b23c ca26 5a3c 5ba0 a63c c910 923c
00000050: fa58 863b 719b b23c 8f86 8d3c 3d11 013c
00000060: 5b59 1e3a 65dc a53c a2e0 1d3c 5729 e237
00000070: d7d6 973c 58df 943c 42d0 ae3c e828 263c
00000080: d6a1 903a 9324 b23c 7cdf 723c 4a82 d53a
00000090: dd46 bc3c 1539 5a3c 7a31 b03c eb33 933c
000000a0: 8408 743d dd57 063e 8686 f13d f3ab a63d
000000b0: dba4 c03c 48f7 043e 21ce b7bd 307f a2bb
000000c0: 81d8 00be 966b f8bd aafc 07be 30b4 bbbd
000000d0: c68c f73c 8548 073e 7283 e4bd 3c10 18bd
000000e0: 1b31 083e 1d6f d9bd a986 053e 463e f73d
000000f0: 6637 863b 500b b33c 5254 8d3c e54b ff3b
00000100: 3fc4 203a cf8f af3c 3e02 223c 796b d537
00000110: 1d14 a33c 73ec 903c b78e b53c df51 263c
00000120: c33c 963a 9401 c83c 6345 7b3c 9200 d13a
00000130: d428 b73c f51d 543c 5450 b43c 6e15 953c

lstm.bias_hh_l1 f4 [80]
0.004145444 0.02202098 0.016560366 0.0076490846 0.00061439787 0.02124758 0.009269975 2.5691032e-05
0.01931193 0.017404534 0.022895623 0.010017323 0.0011354478 0.021220077 0.014636491 0.0016795025
0.020904442 0.013278457 0.019884031 0.017417004 0.004138824 0.021373976 0.017241206 0.007543282
0.0005963099 0.021173256 0.009716875 2.7008726e-05 0.020050943 0.018314296 0.022572208 0.010324108
0.0011665884 0.021939693 0.015038513 0.0016290895 0.024282008 0.013776588 0.021325918 0.01796435
0.05717286 0.13119595 0.117963254 0.08143776 0.022333302 0.1302509 -0.08989844 -0.004687069
-0.12582369 -0.121283405 -0.13517022 -0.09292261 0.031856384 0.13375543 -0.11186014 -0.03764559
0.13313694 -0.10672871 0.13040335 0.12080369 0.0041696737 0.022418773 0.017611815 0.008070909
0.00059450674 0.022172682 0.009762417 2.5969233e-05 0.019909814 0.018428188 0.023320658 0.010086365
0.001162204 0.02260173 0.015410775 0.0016343126 0.023297628 0.01387836 0.022368256 0.018328695
00000000: 81d6 873b 5865 b43c 9ba9 873c 2ca5 fa3b
00000010: 8b0f 213a 680f ae3c 18e1 173c 1283 d737
00000020: 0d34 9e3c f493 8e3c 9a8f bb3c b31f 243c
00000030: 4ed3 943a bad5 ad3c e5cd 6f3c c122 dc3a
00000040: cb3f ab3c e38d 593c d6e3 a23c 1bae 8e3c
00000050: f99e 873b 7a18 af3c 6e3d 8d3c a32d f73b
00000060: ae51 1c3a 8973 ad3c 8733 1f3c cc90 e237
00000070: e041 a43c dd07 963c 5ae9 b83c 7326 293c
00000080: 36e8 983a dfba b33c 1864 763c 2c87 d53a
00000090: 10eb c63c 33b7 613c b1b3 ae3c f929 933c
000000a0: 172e 6a3d 3b58 063e b896 f13d d7c8 a63d
000000b0: 54f4 b63c 7e60 053e ac1c b8bd fc95 99bb
000000c0: edd7 00be 6f63 f8bd 106a 0abe 364e bebd
000000d0: d77b 023d 2ff7 083e ee16 e5bd 4332 1abd
000000e0: 0d55 083e 9594 dabd 7588 053e ed67 f73d
000000f0: c2a1 883b 93a7 b73c a746 903c d93b 043c
00000100: acd8 1b3a 7ca3 b53c 8bf2 1f3c 81d8 d937
00000110: e819 a33c b6f6 963c f70a bf3c 4841 253c
00000120: 1855 983a 4327 b93c 7a7d 7c3c 6e36 d63a
00000130: abda be3c 1062 633c a23d b73c 0f26 963c

fc.weight f4 [90, 20]
0.008956816 0.020923281 0.018611722 0.0124844 0.003519918 0.020807274 -0.014058067 -0.0007325903
-0.020235125 -0.019267557 -0.022030331 -0.014282273 0.004802662 0.021822514 -0.017199969 -0.0057655736
0.02066647 -0.016668005 0.020821359 0.01910256 0.008994292 0.021294903 0.018554712 0.012383812
0.0035802287 0.020773789 -0.013696405 -0.00070898776 -0.019955747 -0.019205855 -0.020704614 -0.01433384
0.0047364607 0.021206884 -0.017429909 -0.0057106605 0.021255579 -0.016316155 0.021142056 0.01905281
0.009098053 0.02077605 0.017845646 0.012404665 0.003435155 0.020303847 -0.013685672 -0.0007156314
-0.01977488 -0.019075988 -0.021399168 -0.014208019 0.0046117213 0.021200817 -0.017302284 -0.0057780715
0.02038533 -0.016418321 0.020562343 0.0184199 0.008916327 0.020618673 0.018398546 0.01242365
0.0034894499 0.01981675 -0.013625409 -0.0007019914 -0.019163359 -0.019034265 -0.02121376 -0.013913397
0.0045955633 0.020558633 -0.016926935 -0.005618541 0.020889862 -0.016378134 0.01978963 0.018316142
0.008893942 0.020438576 0.018362366 0.012270175 0.0034655351 0.020631192 -0.013692216 -0.0006969023
-0.019085135 -0.01888357 -0.020767054 -0.013894279 0.0046193697 0.02027971 -0.01722215 -0.0056022024
0.02090673 -0.015891781 0.020168368 0.01835042 0.009315012 0.02132703 0.018952714 0.012941568
0.0035830112 0.021145854 -0.014394324 -0.00072219863 -0.02036165 -0.019647766 -0.02170014 -0.014553826
0.0046568187 0.021550147 -0.017792886 -0.005723976 0.02206625 -0.016923115 0.02118312 0.019397601
0.008908765 0.02070987 0.017671214 0.012389012 0.0034610536 0.020741997 -0.013774452 -0.00070802344
-0.019490864 -0.018642705 -0.0209161 -0.014083774 0.0046189087 0.020106772 -0.017189227 -0.005654559
0.021228483 -0.016321182 0.02029803 0.01871066 0.009016359 0.0207944 0.01849013 0.0124136545
0.00346284 0.02066404 -0.013780134 -0.0007056892 -0.019930229 -0.019061135 -0.020611813 -0.014125264
0.004637885 0.021265462 -0.01736485 -0.0056876484 0.021118078 -0.01655326 0.021237247 0.018968878
0.008923964 0.020672623 0.018372206 0.012219342 0.0033030366 0.02045959 -0.013608414 -0.00072979555
-0.019724285 -0.018946396 -0.021293536 -0.014137214 0.0047909613 0.020296628 -0.01691685 -0.0057319463
0.020979716 -0.016571721 0.01988942 0.018969223 0.008838806 0.020225503 0.018213585 0.012443259
0.0033887732 0.01969509 -0.013305676 -0.00072795496 -0.019941056 -0.018919444 -0.020546641 -0.013964248
0.004722653 0.020135563 -0.017227476 -0.0056023127 0.021272833 -0.0156257 0.02057268 0.018729476
0.008336638 0.02086336 0.018382905 0.012263074 0.0034153056 0.019955648 -0.013961581 -0.00071727985
-0.019259412 -0.018491367 -0.021068424 -0.014117702 0.004752207 0.0210545 -0.016574634 -0.005672884
0.02040902 -0.016470436 0.021182245 0.01891208 0.008959097 0.020776933 0.018496249 0.012673362
0.0035596483 0.020955097 -0.013756904 -0.000737489 -0.019908085 -0.019107763 -0.020957882 -0.014279532
0.0047287135 0.021148434 -0.017522963 -0.0056334473 0.02114277 -0.016515952 0.02065611 0.019073768
0.00887105 0.020955928 0.018381761 0.0123451045 0.0034396232 0.019690247 -0.013739953 -0.0007045359
-0.019931395 -0.018940555 -0.020986347 -0.014033736 0.0045741987 0.020997154 -0.017183999 -0.0055412296
00000000: 9cbf 123c 4d67 ab3c 9c77 983c 5e8b 4c3c
00000010: 6dae 663b 0474 aa3c cf53 66bc 4e0b 40ba
00000020: 22c4 a5bc ffd6 9dbc f478 b4bc 3200 6abc
00000030: a65f 9d3b 21c5 b23c f3e6 8cbc 23ed bcbb
00000040: bb4c a93c 578b 88bc 8e91 aa3c f97c 9c3c
00000050: cb5c 133c a672 ae3c 0d00 983c 79e5 4a3c
00000060: 45a2 6a3b cb2d aa3c e366 60bc 5ddb 39ba
00000070: 3c7a a3bc 9955 9dbc b99c a9bc 7cd8 6abc
00000080: 5034 9b3b 0fba ad3c 2bc9 8ebc 7e20 bbbb
00000090: 2e20 ae3c 75a9 85bc 1b32 ad3c a314 9c3c
000000a0: 0010 153c 8932 aa3c 0831 923c f03c 4b3c
000000b0: 5620 613b 4154 a63c de39 60bc 3699 3bba
000000c0: eefe a1bc 3f45 9cbc 4f4d afbc c0c8 68bc
000000d0: ec1d 973b 56ad ad3c 85bd 8dbc fa55 bdbb
000000e0: 23ff a63c b77f 86bc 5c72 a83c 55e5 963c
000000f0: c915 123c 7ee8 a83c 8cb8 963c 918c 4b3c
00000100: 41af 643b bd56 a23c 1c3d 5fbc d805 38ba
00000110: 7afc 9cbc bfed 9bbc 7bc8 adbc 04f5 63bc
00000120: 6196 963b 946a a83c 5baa 8abc bd1b b8bb
00000130: 3721 ab3c 702b 86bc dd1d a23c bc0b 963c
00000140: e6b7 113c cd6e a73c ac6c 963c d808 493c
00000150: 081e 633b bf02 a93c 5155 60bc 52b0 36ba
00000160: 6e58 9cbc b7b1 9abc ab1f aabc d4a4 63bc
00000170: 155e 973b a221 a63c 7715 8dbc ae92 b7bb
00000180: 9744 ab3c 7b2f 82bc 2238 a53c 9f53 963c
00000190: fe9d 183c 06b6 ae3c b942 9b3c df08 543c
000001a0: f4d0 6a3b 123a ad3c 2cd6 6bbc ee51 3dba
000001b0: 7acd a6bc 5af4 a0bc 7ec4 b1bc 2c73 6ebc
000001c0: 3a98 983b ef89 b03c 63c2 91bc 3190 bbbb
000001d0: 48c4 b43c 58a2 8abc 3988 ad3c b8e7 9e3c
000001e0: 12f6 113c bfa7 a93c 39c3 903c 48fb 4a3c
000001f0: d8d2 623b 1feb a93c 3dae 61bc a69a 39ba
00000200: 4eab 9fbc 96b8 98bc 3e58 abbc a1bf 66bc
00000210: 375a 973b f5b6 a43c 6cd0 8cbc e149 b9bb
00000220: 5be7 ad3c 00b4 85bc 0e48 a63c 1947 993c
00000230: 5ab9 133c 0459 aa3c 9d78 973c a462 4b3c
00000240: d1f0 623b a247 a93c 12c6 61bc 00fe 38ba
00000250: b844 a3bc 1926 9cbc 1bda a8bc a76d 67bc
00000260: 66f9 973b e834 ae3c bb40 8ebc 745f babb
00000270: d2ff ac3c b49a 87bc bcf9 ad3c 9f64 9b3c
00000280: d135 123c a259 a93c 4f81 963c a333 483c
00000290: c277 583b df9a a73c d3f5 5ebc c04f 3fba
000002a0: d394 a1bc 7935 9bbc c86f aebc c69f 67bc
000002b0: 7ffd 9c3b 1d45 a63c 3595 8abc 0dd3 bbbb
000002c0: a7dd ab3c 6bc1 87bc 23ef a23c 5865 9b3c
000002d0: a4d0 103c f4af a53c a834 953c d0de 4b3c
000002e0: 2e16 5e3b 9957 a13c 0d00 5abc 3bd4 3eba
000002f0: 6d5b a3bc f3fc 9abc 6e51 a8bc 4dca 64bc
00000300: 7cc0 9a3b 56f3 a43c a320 8dbc 9b93 b7bb
00000310: 5d44 ae3c 7801 80bc 0988 a83c 8f6e 993c
00000320: 6596 083c a3e9 aa3c bf97 963c 0feb 483c
00000330: 52d3 5f3b 077a a33c 1dbf 64bc d607 3cba
00000340: eac5 9dbc 357b 97bc b097 acbc ef4d 67bc
00000350: 67b8 9b3b 7d7a ac3c 87c7 87bc 9ae3 b9bb
00000360: d130 a73c 02ed 86bc 6386 ad3c 82ed 9a3c
00000370: 2dc9 123c 6334 aa3c 7285 973c efa3 4f3c
00000380: fd48 693b 06aa ab3c a364 61bc 0d54 41ba
00000390: 4816 a3bc e287 9cbc ddaf abbc b3f4 69bc
000003a0: 53f3 9a3b 7b3f ad3c 518c 8fbc c898 b8bb
000003b0: 9a33 ad3c 764c 87bc 0137 a93c 9740 9c3c
000003c0: e157 113c c4ab ab3c 5995 963c 1f43 4a3c
000003d0: 4d6b 613b 714d a13c 8a1d 61bc 9bb0 38ba
000003e0: 2a47 a3bc 3929 9bbc 8feb abbc c1ed 65bc
000003f0: 29e3 953b 3902 ac3c 75c5 8cbc 3493 b5bb

fc.bias f4 [90]
0.13086225 0.13150878 0.1328872 0.13358842 0.13370849 0.1285827 0.13344473 0.1322519
0.13337271 0.133701 0.1330883 0.13221847 0.1334736 0.13376397 0.13177405 0.13277076
0.12942076 0.13087359 0.13027975 0.12845203 0.13206588 0.1321846 0.13249244 0.1332149
0.12885594 0.13248236 0.13296022 0.13171479 0.13241152 0.13292606 0.13255465 0.13300292
0.12934595 0.13139072 0.1332209 0.13082473 0.13310193 0.13360623 0.13328154 0.12757133
0.13176738 0.13323838 0.13362785 0.13043985 0.13138416 0.13212939 0.13275851 0.13269979
0.1335111 0.12856114 0.12996379 0.13196266 0.12752593 0.13288373 0.13332757 0.13345453
0.12957312 0.133369 0.13220088 0.13257387 0.12873772 0.13079436 0.13083275 0.13259888
0.13315323 0.13333268 0.13147181 0.13140495 0.13349834 0.12809306 0.13313003 0.1334277
0.13061243 0.1310096 0.13026206 0.13238074 0.13235357 0.13173188 0.1321127 0.1330704
0.13290636 0.13077076 0.13190998 0.13200209 0.13222635 0.13328093 0.1301048 0.12891787
0.13319217 0.12997158
00000000: c100 063e 3daa 063e 9513 083e 67cb 083e
00000010: e1ea 083e 2fab 033e bca5 083e 0b6d 073e
00000020: db92 083e eae8 083e 4d48 083e 4764 073e
00000030: 4ead 083e 6cf9 083e c7ef 063e 0ff5 073e
00000040: e086 043e ba03 063e 0e68 053e ee88 033e
00000050: 473c 073e 665b 073e 19ac 073e 7d69 083e
00000060: d0f2 033e 75a9 073e b926 083e 3ee0 063e
00000070: e396 073e c51d 083e 68bc 073e eb31 083e
00000080: 4473 043e 4a8b 063e 0f6b 083e ebf6 053e
00000090: df4b 083e 12d0 083e f57a 083e 0fa2 023e
000000a0: 07ee 063e a46f 083e bdd5 083e 0692 053e
000000b0: 9289 063e ed4c 073e d9f1 073e 74e2 073e
000000c0: 22b7 083e 88a5 033e 3a15 053e 3821 073e
000000d0: 2896 023e ac12 083e 0687 083e 4ea8 083e
000000e0: d1ae 043e e291 083e ab5f 073e 72c1 073e
000000f0: d2d3 033e f5ee 053e 05f9 053e 00c8 073e
00000100: 5259 083e 5d88 083e 8ca0 063e 058f 063e
00000110: cab3 083e d42a 033e 3d53 083e 45a1 083e
00000120: 44bf 053e 6127 063e 6b63 053e d18e 073e
00000130: b287 073e b9e4 063e 8d48 073e 9b43 083e
00000140: 9b18 083e c5e8 053e 6913 073e 8e2b 073e
00000150: 5866 073e cc7a 083e 313a 053e 0c03 043e
00000160: 8763 083e 4517 053e
