backend/model/lstm-microsoft-10-.pth (torch, 819162 bytes, 14 tensors)

lstm.weight_ih_l0 f4 [400, 2]
-0.06556344 -0.047597375 -0.016886726 -0.024459556 -0.06384188 -0.09786002 0.03749957 -0.12379619
0.050321415 0.021162014 -0.059697587 -0.09924997 -0.078516506 -0.053367976 0.03603386 -0.0059087123
-0.023599092 -0.0830484 -0.13553052 -0.0379848 0.030555781 -0.096778765 -0.03299122 0.014572597
0.030901391 0.024797745 -0.046979968 -0.1335828 -0.08277285 0.0010969758 -0.037422627 0.018595919
0.01577278 -0.09521468 -0.019753037 -0.010272 -0.047460705 0.011109473 -0.014928384 -0.073092446
-0.07363924 -0.023618111 -0.031073622 -0.08799177 0.032769278 0.0035630302 -0.1351642 -0.128856
0.056604005 -0.08596641 -0.04271694 -0.004380459 0.054835003 0.0016372214 -0.09492657 -0.08260933
-0.10924925 -0.101552345 0.06600715 -0.06864128 -0.06998133 -0.09263393 -0.08646587 -0.13802727
-0.058172025 0.04258081 -0.05578398 -0.0816433 -0.055490255 -0.0911453 -0.10291234 -0.079115964
0.025552012 -0.09712855 0.036327455 -0.0048699835 0.05297826 -0.097660124 -0.0554185 -0.04522555
-0.021858266 -0.120004565 -0.0758114 -0.029406492 0.100108385 0.095399074 -0.045512736 -0.042188983
-0.06762465 -0.060770147 0.007924634 -0.045147795 -0.03471093 -0.102377065 -0.09586994 0.024352886
0.011914628 0.037028354 0.0589232 0.0059224777 -0.07018107 0.059897523 -0.0867857 -0.03165944
0.052041862 -0.031300087 0.018378071 -0.05939684 0.061184525 0.027954755 -0.0039617256 -0.14069362
0.020906622 0.069313094 -0.015320626 0.03348288 0.0021306728 0.031743683 -0.114479095 0.058306042
-0.058782883 -0.12244213 -0.1008088 -0.1137802 -0.038932614 0.047089998 0.034294315 0.09463061
0.005128297 0.01689662 0.03692127 0.101753555 0.029770892 0.054120965 -0.034074046 -0.0798953
-0.048133947 -0.040629152 -0.08784135 -0.033428673 -0.10234854 0.064306274 -0.10884735 -0.06723409
-0.10302672 -0.043027855 0.01410275 -0.09400381 -0.039157305 -0.011877291 -0.0817477 -0.032816302
-0.012390868 -0.024337778 0.034672603 0.042060833 -0.007936558 0.0109493565 -0.09562191 -0.0892966
0.044171043 -0.064916246 -0.102341734 -0.0025281524 -0.08528763 0.048844058 0.07568165 -0.013145784
-0.11440263 -0.07248182 -0.04531118 -0.05396746 0.032216772 -0.041654337 -0.034594964 -0.035731323
0.009732118 -0.042426214 0.023897158 -0.110573344 -0.025210967 0.103453025 -0.09770049 -0.064138904
0.011593495 -0.06841459 0.02789048 -0.09820313 -0.07285526 -0.1276207 0.060038928 -0.103209935
-0.09632224 -0.00892158 -0.14038567 -0.09391992 0.054843128 -0.024695834 -0.079493806 0.032015182
-0.014203157 0.060841892 -0.09201641 0.029338248 0.050743748 0.008868592 0.10430795 0.054718025
-0.039735768 -0.04546506 -0.11433461 -0.0011260821 -0.016520234 -0.011715996 0.07624924 -0.025658585
-0.06535225 0.080051586 -0.014707992 -0.049941637 0.0111974245 -0.034513947 -0.070786975 0.10332169
0.032201733 -0.010751549 -0.04048839 -0.047844518 -0.055514485 -0.021415692 0.04846869 0.044204246
-0.114378855 -0.01869708 -0.021806667 -0.0539229 -0.022208957 -0.07766453 0.06959758 0.035863694
0.02275187 0.013576075 -0.11851319 -0.0006276979 -0.02434126 -0.06898391 -0.020830281 -0.10168796
-0.04333483 -0.08465953 0.06624636 0.012112249 -0.02022808 -0.09409385 0.020027118 -0.0703547
00000000: 2046 86bd 77f5 42bd 0856 8abc 685f c8bc
00000010: 88bf 82bd d66a c8bd 2699 193d db88 fdbd
00000020: d41d 4e3d f65b ad3c 7585 74bd 9143 cbbd
00000030: 43cd a0bd 6198 5abd 3e98 133d df9d c1bb
00000040: e252 c1bc 4815 aabd 83c8 0abe f395 1bbd
00000050: 1e50 fa3c f233 c6bd cd21 07bd e7c1 6e3c
00000060: ea24 fd3c a424 cb3c 116e 40bd eec9 08be
00000070: d084 a9bd 66c8 8f3a 7848 19bd 7856 983c
00000080: eb35 813c eaff c2bd 1fd1 a1bc e44b 28bc
00000090: 2866 42bd 8204 363c 2e96 74bc 7eb1 95bd
000000a0: 2bd0 96bd c57a c1bc 1c8e febc 0735 b4bd
000000b0: 1439 063d ba81 693b 7c68 0abe d4f2 03be
000000c0: 9ad9 673d 280f b0bd f5f7 2ebd f489 8fbb
000000d0: ab9a 603d 0998 d63a dd68 c2bd 152f a9bd
000000e0: 12be dfbd adfa cfbd c22e 873d cd93 8cbd
000000f0: 5f52 8fbd dcb6 bdbd 0515 b1bd 0557 0dbe
00000100: ca45 6ebd 3769 2e3d be7d 64bd 9a34 a7bd
00000110: c049 63bd 63aa babd b4c3 d2bd 8d07 a2bd
00000120: 7452 d13c 55eb c6bd 19cc 143d 6294 9fbb
00000130: bbff 583d 0802 c8bd 82fe 62bd 6d3e 39bd
00000140: 1b10 b3bc f4c4 f5bd 0243 9bbd e2e5 f0bc
00000150: a005 cd3d 9760 c33d 906b 3abd 5bce 2cbd
00000160: cb7e 8abd 1eea 78bd 53d6 013c e5ec 38bd
00000170: 0c2d 0ebd 11ab d1bd 7657 c4bd b47f c73c
00000180: 9235 433c 0bab 173d 7459 713d 5811 c23b
00000190: 18bb 8fbd 1b57 753d b3bc b1bd 54ad 01bd
000001a0: d929 553d 8534 00bd 9c8d 963c 1a4a 73bd
000001b0: a09c 7a3d 5f01 e53c 5dd1 81bb fd11 10be
000001c0: 5d44 ab3c 06f4 8d3d 5d03 7bbc 5825 093d
000001d0: c2a2 0b3b aa05 023d 0474 eabd 51d2 6e3d
000001e0: 52c6 70bd f1c2 fabd d874 cebd 9805 e9bd
000001f0: ce77 1fbd 71e1 403d 3278 0c3d b1cd c13d
00000200: 460b a83b c86a 8a3c c23a 173d 2b64 d03d
00000210: 16e2 f33c f2ad 5d3d 3a91 0bbd 26a0 a3bd
00000220: 1a28 45bd c16a 26bd 2ae6 b3bd 81ec 08bd
00000230: 1d9c d1bd 02b3 833d 5ceb debd 07b2 89bd
00000240: acff d2bd fa3d 30bd 390f 673c 1285 c0bd
00000250: 6963 20bd f898 42bc 576b a7bd 636a 06bd
00000260: 1103 4bbc 0560 c7bc dc04 0e3d fb47 2c3d
00000270: 5608 02bc ee64 333c 6cd5 c3bd 23e1 b6bd
00000280: b2ec 343d cff2 84bd 8b98 d1bd 5caf 25bb
00000290: 48ab aebd b510 483d fbfe 9a3d 6a61 57bc
000002a0: ed4b eabd 5971 94bd 3798 39bd fc0c 5dbd
000002b0: bcf5 033d bd9d 2abd 73b3 0dbd 025b 12bd
000002c0: 7673 1f3c 1cc7 2dbd f9c3 c33c 4774 e2bd
000002d0: 3b87 cebc 2edf d33d 3217 c8bd 425b 83bd
000002e0: a4f2 3d3c f31c 8cbd 937a e43c b91e c9bd
000002f0: 2335 95bd 00af 02be 61eb 753d bb5f d3bd
00000300: 9844 c5bd d22b 12bc 43c1 0fbe 1659 c0bd
00000310: 30a3 603d eb4e cabc a6cd a2bd 5a22 033d
00000320: 5cb4 68bc 5935 793d 1973 bcbd c456 f03c
00000330: add8 4f3d 924d 113c 689f d53d 0220 603d
00000340: f9c1 22bd 9239 3abd 4428 eabd 0c99 93ba
00000350: 7155 87bc 73f4 3fbc 9028 9c3d f431 d2bc
00000360: 67d7 85bd 16f2 a33d caf9 70bc 9a8f 4cbd
00000370: 6775 373c 7f5e 0dbd c3f8 90bd 529a d33d
00000380: f7e5 033d 4427 30bc 27d7 25bd 9df8 43bd
00000390: 2863 63bd f66f afbc 1b87 463d 830f 353d
000003a0: 763f eabd 9e2a 99bc e5a3 b2bc 42de 5cbd
000003b0: 8fef b5bc 950e 9fbd 2d89 8e3d cfe5 123d
000003c0: 2162 ba3c 306e 5e3c 0bb7 f2bd 188c 24ba
000003d0: 5267 c7bc 7047 8dbd 44a4 aabc c741 d0bd
000003e0: dd7f 31bd fa61 adbd 2cac 873d 7472 463c
000003f0: 5cb5 a5bc 47b4 c0bd e90f a43c 2016 90bd

lstm.weight_hh_l0 f4 [400, 100]
-0.01859126 0.10155038 -0.021273328 0.010157984 -0.053140208 -0.11362594 0.07087123 -0.061844196
0.06117098 0.09809757 -0.046397924 -0.003816797 0.05192744 0.0021398754 0.0632124 -0.115846954
0.034048382 -0.112619795 0.052968834 0.025911 -0.099426806 0.013016323 0.07601979 0.11064508
0.06746367 -0.014841937 -0.058446642 0.07849782 -0.07624485 -0.013374204 -0.097160935 -0.080546275
0.044890143 -0.03175589 -0.04168249 -0.020202883 -0.13240553 0.033712402 -0.06903597 0.08487068
-0.07565534 0.04405469 0.10488614 0.018078642 -0.08739491 -0.0041968506 0.06972292 0.08482769
-0.0436603 0.026849493 -0.048543457 -0.039920397 -0.059673265 -0.0926735 0.042210296 -0.055179935
-0.061378557 0.045065876 0.010915902 0.062171325 -0.013015625 0.10099903 0.055000547 0.018491779
0.012644348 -0.061104003 0.08844073 -0.035927795 -0.08191973 -0.02307299 -0.06571357 -0.050041974
0.007756951 -0.041019015 -0.077768624 0.06822869 0.03849955 -0.03675106 0.028066436 -0.09429905
-0.037012808 0.1524649 0.028663445 0.028864944 -0.078779876 -0.10807861 0.03031492 -0.06790975
0.07074138 -0.021747256 0.13093013 -0.04570264 -0.058751777 0.10939382 0.06790126 -0.061300516
-0.049842056 -0.07627888 -0.07178484 -0.045713335 0.028144907 -0.0238989 -0.08118055 -0.0040757046
0.062242188 0.025869837 0.019633772 0.0638052 -0.082241654 0.055624995 0.010088348 0.065285996
0.058333907 0.032922335 -0.06854498 0.05063374 0.06195644 0.060126632 -0.050535873 0.014015187
-0.026227593 0.014923298 0.016733332 0.10126176 -0.025303122 -0.046584833 -0.02875072 0.09167982
-0.012683436 -0.05324392 0.038506676 0.044029362 0.09358369 0.09971892 -0.053635824 0.088161215
-0.042224027 -0.04032978 -0.037885416 -0.07358698 0.068148576 -0.06761346 0.038658626 -0.06311111
-0.086221546 0.10097958 -0.0088948645 -0.016652137 0.0022111908 -0.0652943 0.031521857 -0.03741767
-0.08687398 -0.0064708493 0.07699346 -0.033466123 -0.0014726988 0.028609283 0.016433943 -0.024530264
-0.085319586 0.0009779028 -0.020673027 0.028378315 -0.061528925 -0.09664784 -0.029129783 -0.042048458
-0.0058543347 -0.015573812 -0.05375359 0.056653984 -0.06261552 -0.061225023 0.0026965507 -0.040870976
-0.0032702675 -0.091669224 -0.09667688 0.070986375 -0.08914707 -0.06659244 0.041427508 0.00025112246
-0.081275165 -0.030826816 0.029355407 -0.025452211 0.048629563 0.0696002 0.064871624 0.05084665
-0.0050186017 -0.0822383 0.03525364 -0.03225161 0.060416173 -0.07411066 0.06677665 -0.060160793
-0.0046373433 0.02131083 0.052796364 0.063698776 -0.050190452 -0.03484715 0.054947015 0.10351351
-0.049534045 0.010218031 0.09657564 0.09799871 0.054213274 0.004099955 0.05264653 -0.009861103
-0.052969392 -0.040833537 -0.08895985 -0.13262779 -0.09738662 -0.10992469 0.10036274 0.06181282
-0.09891149 -0.0046117627 -0.083530575 0.11887025 0.017575452 0.08658041 0.0705147 -0.05001745
-0.06888761 0.06858759 0.0026202006 0.03141779 0.029298378 0.03558767 0.012871012 -0.12649877
0.04627264 0.06495645 0.058095004 0.04537178 -0.02557153 0.08843742 0.037691914 0.015677558
-0.04349416 0.06319225 0.09146487 0.10454191 0.11800448 -0.0789621 -0.057869866 0.02864919
00000000: b34c 98bc a5f9 cf3d 6745 aebc ac6d 263c
00000010: 8ca9 59bd b8b4 e8bd ef24 913d 5750 7dbd
00000020: 6c8e 7a3d 61e7 c83d c00b 3ebd 3a23 7abb
00000030: deb1 543d 273d 0c3b 8175 813d 2b41 edbd
00000040: 5176 0b3d 35a5 e6bd d9f5 583d 4e43 d43c
00000050: 48a0 cbbd 6a42 553c 43b0 9b3d e399 e23d
00000060: 652a 8a3d 992b 73bc bf65 6fbd 77c3 a03d
00000070: 4326 9cbd 7a1f 5bbc 50fc c6bd 72f5 a4bd
00000080: bade 373d 7712 02bd 42bb 2abd 8480 a5bc
00000090: 5195 07be 0416 0a3d bb62 8dbd aed0 ad3d
000000a0: 30f1 9abd b172 343d 8bce d63d a919 943c
000000b0: 1afc b2bd bc85 89bb e4ca 8e3d 24ba ad3d
000000c0: 25d5 32bd 78f3 db3c 81d5 46bd 9283 23bd
000000d0: f46b 74bd 9bcb bdbd b4e4 2c3d 5b04 62bd
000000e0: 1568 7bbd ff96 383d 9dd8 323c 5ca7 7e3d
000000f0: 7d3f 55bc 94d8 ce3d 4148 613d 127c 973c
00000100: 3d2a 4f3c 3148 7abd 6a20 b53d 0629 13bd
00000110: 88c5 a7bd 9103 bdbc d694 86bd d0f8 4cbd
00000120: 052e fe3b 8e03 28bd 2845 9fbd 7cbb 8b3d
00000130: b4b1 1d3d 4888 16bd 95eb e53c dc1f c1bd
00000140: be9a 17bd c21f 1c3e 9acf ea3c 2d76 ec3c
00000150: 5857 a1bd 5158 ddbd ff56 f83c 4414 8bbd
00000160: dbe0 903d 4d27 b2bc 8c12 063e b132 3bbd
00000170: b4a5 70bd de09 e03d d10f 8b3d 4016 7bbd
00000180: 2f27 4cbd 1a38 9cbd ee03 93bd e83d 3bbd
00000190: 2690 e63c a0c7 c3bc fd41 a6bd 7d8d 85bb
000001a0: aaf1 7e3d fbec d33c 01d7 a03c 4dac 823d
000001b0: 506e a8bd 09d7 633d 9949 253c aab4 853d
000001c0: 89ef 6e3d 92d9 063d 4f61 8cbd 5365 4f3d
000001d0: 09c6 7d3d 5847 763d b4fe 4ebd f49f 653c
000001e0: 40db d6bc d980 743c 5714 893c 5362 cf3d
000001f0: 7e48 cfbc bdcf 3ebd a186 ebbc a1c2 bb3d
00000200: 30ce 4fbc 4c16 5abd 2db9 1d3d 2258 343d
00000210: cea8 bf3d 6f39 cc3d 3db1 5bbd de8d b43d
00000220: 1af3 2cbd d730 25bd bd2d 1bbd c5b4 96bd
00000230: 7b91 8b3d ed78 8abd 8258 1e3d 6640 81bd
00000240: ec94 b0bd 62ce ce3d c4bb 11bc 106a 88bc
00000250: a0e9 103b 05b9 85bd 101d 013d 4543 19bd
00000260: fcea b1bd 6b09 d4bb bfae 9d3d c613 09bd
00000270: 9207 c1ba 045e ea3c 7aa0 863c b1f3 c8bc
00000280: 09bc aebd f92c 803a 7b5a a9bc a479 e83c
00000290: c105 7cbd 4eef c5bd 95a1 eebc 013b 2cbd
000002a0: b8d5 bfbb 4d29 7fbc b92c 5cbd 020e 683d
000002b0: 913c 80bd 17c7 7abd 9db8 303b 5368 27bd
000002c0: fc51 56bb 13bd bbbd 87fe c5bd 4e61 913d
000002d0: bd92 b6bd 9e61 88bd e4af 293d 16a9 8339
000002e0: 9873 a6bd 8588 fcbc c07a f03c 2881 d0bc
000002f0: cb2f 473d 8d8a 8e3d 6adb 843d 9444 503d
00000300: 1573 a4bb 8e6c a8bd 1f66 103d 441a 04bd
00000310: f376 773d 54c7 97bd 32c2 883d 2a6b 76bd
00000320: dbf4 97bb 0d94 ae3c 0041 583d 8174 823d
00000330: 8194 4dbd e3bb 0ebd 1f10 613d e4fe d33d
00000340: 36e4 4abd 8769 273c 73c9 c53d 8cb3 c83d
00000350: bd0e 5e3d ea58 863b e3a3 573d 7790 21bc
00000360: 6ff6 58bd 1141 27bd 9530 b6bd 94cf 07be
00000370: a372 c7bd 3220 e1bd fb8a cd3d 712f 7d3d
00000380: 1b92 cabd 451e 97bb 1412 abbd 3f72 f33d
00000390: 65fa 8f3c 1251 b13d 036a 903d 19df 4cbd
000003a0: f314 8dbd a677 8c3d acb7 2b3b f1af 003d
000003b0: 2703 f03c 60c4 113d f0e0 523c e588 01be
000003c0: 6188 3d3d e307 853d 07f5 6d3d c2d7 393d
000003d0: 637b d1bc ae1e b53d d662 1a3d 396e 803c
000003e0: ef26 32bd f06a 813d ef51 bb3d 121a d63d
000003f0: 55ac f13d e2b6 a1bd f408 6dbd b5b1 ea3c

lstm.bias_ih_l0 f4 [400]
0.06347027 0.00443988 -0.07062164 0.08827056 -0.054481976 -0.010346861 0.07885059 0.056504685
0.011452122 0.023340754 -0.09087808 -0.11056375 -0.08763997 0.06603754 0.08188204 0.033991773
-0.075807124 -0.0042731483 0.0016441464 -0.010129764 -0.06451786 -0.020864636 0.03888121 -0.08983292
-0.07455534 0.08037547 -0.06934461 -0.04018497 0.042655855 0.035820726 0.035197817 0.040096443
-0.018410612 0.06195106 -0.030631509 -0.017411646 0.07971948 0.016595164 -0.045640305 -0.045054205
-0.0055761123 0.014039758 -0.08409978 -0.10895159 -0.123708256 0.03399309 -0.08173976 0.02737159
-0.074195996 -0.051598106 -0.010493982 -0.031866312 -0.08642835 -0.04308581 0.030351598 0.00059741654
0.035964806 -0.037212104 0.05842588 -0.02596172 0.08668348 -0.12294542 0.058760073 0.014015336
0.0375037 -0.038382772 0.0042100186 -0.06857151 -0.049901545 -0.04056038 0.06694365 0.0048168045
-0.055755094 -0.020300832 -0.0072215446 -0.08671032 -0.0013070238 -0.10461791 -0.045822263 0.0075099086
0.06529004 -0.048654906 -0.1243243 -0.09661118 0.047847502 -0.05258595 -0.019116687 -0.061781764
0.0015962042 -0.09944886 0.0288612 -0.12509556 -0.041617814 -0.051806197 -0.053856127 0.04071001
-0.09277765 -0.0017476694 -0.015396445 -0.07998136 0.06988738 0.004587103 0.001782804 -0.0026378601
0.09478009 -0.01889235 0.03557483 0.0464777 -0.025899738 0.032598898 0.04193528 -0.08097685
-0.06311709 -0.10548687 -0.09553131 0.02478248 -0.08771932 0.012918912 -0.108027965 -0.0139023485
0.028133696 -0.015370909 0.019484714 -0.069628455 -0.07867553 0.054175436 0.048574835 0.06114691
-0.05465314 -0.099890895 -0.05590344 -0.058424216 -0.030069346 0.071271926 0.013122977 -0.09357757
0.019819796 -0.08088294 0.043538902 0.059011083 0.02499794 -0.08405721 -0.017369384 0.050728936
-0.103589505 0.054740336 0.033864263 -0.026161436 0.07162543 0.07808038 -0.001658601 -0.08082106
0.008760345 0.034533933 -0.05715516 0.049318217 0.025757806 -0.04598943 0.06990086 -0.024617856
-0.016786616 0.06419241 0.012235374 0.011946486 -0.034507338 0.027770948 -0.08402349 0.030055445
-0.074937284 7.986947e-05 0.06557866 -0.070819676 0.018369947 -0.052201286 -0.08579707 -0.061817594
-0.01924427 0.03922485 -0.010543274 -0.08691344 -0.065527156 0.03964015 -0.04390321 -0.003002254
0.05656816 0.096846305 0.014098421 0.029187465 -0.06307582 0.016713299 -0.027493097 0.023463417
0.039187092 0.021467818 -0.0982893 -0.05419765 0.0247291 0.01790414 -0.047265716 -0.015320106
0.09694366 0.07669482 -0.013525265 -0.048222538 -0.007972062 -0.056076802 0.055087175 -0.07959632
-0.0743224 -0.004457241 -0.056354746 0.0077939616 -0.02901367 -0.08230215 -0.058288153 -0.035929494
-0.04824691 0.06907291 0.06685481 0.07784135 0.029991716 0.060926672 -0.03169783 -0.035852563
0.015625976 0.05739186 0.00056689355 -0.07090348 0.052453548 0.043831397 0.08240521 0.07066555
0.09173088 0.04007604 -0.024503622 0.030351773 -0.052839413 -0.007356678 0.075041726 0.053109862
-0.036699694 -0.021005837 -0.043073833 -0.023119764 -0.016101113 -0.022545846 0.02712266 -0.049984906
0.01310263 0.02078317 0.007437729 0.0470453 0.04851092 -0.041005004 0.005966945 0.0007623243
00000000: b3fc 813d 6a7c 913b 14a2 90bd 32c7 b43d
00000010: 7e28 5fbd e185 29bc 6b7c a13d 7571 673d
00000020: aea1 3b3c 1c35 bf3c 491e babd 3f6f e2bd
00000030: 967c b3bd b13e 873d c5b1 a73d f53a 0b3d
00000040: c440 9bbd c405 8cbb 6680 d73a 4ff7 25bc
00000050: f121 84bd 50ec aabc e741 1f3d 52fa b7bd
00000060: 78b0 98bd e59b a43d 8c04 8ebd ff98 24bd
00000070: e8b7 2e3d c1b8 123d 962b 103d 2b3c 243d
00000080: dad1 96bc 65c0 7d3d eeee fabc dea2 8ebc
00000090: f743 a33d 95f2 873c 54f1 3abd c28a 38bd
000000a0: d2b7 b6bb 0307 663c 813c acbd 0322 dfbd
000000b0: c15a fdbd 573c 0b3d 2d67 a7bd 623a e03c
000000c0: 12f4 97bd 8958 53bd f3ee 2bbc 4086 02bd
000000d0: 5901 b1bd bf7a 30bd eaa3 f83c f29b 1c3a
000000e0: d54f 133d b86b 18bd fa4f 6f3d acad d4bc
000000f0: 1c87 b13d cfca fbbd 67ae 703d 94a0 653c
00000100: 7b9d 193d 4137 1dbd 32f4 893b 386f 8cbd
00000110: 9065 4cbd a422 26bd c119 893d 49d6 9d3b
00000120: 745f 64bd ee4d a6bc b5a2 ecbb 2e95 b1bd
00000130: 7150 abba ea41 d6bd 20b0 3bbd ae15 f63b
00000140: c9b6 853d 5e4a 47bd bd9d febd 15dc c5bd
00000150: befb 433d 5d64 57bd 999a 9cbc e00e 7dbd
00000160: ba37 d13a d8ab cbbd 536e ec3c 0d19 00be
00000170: 7177 2abd bc32 54bd 3e98 5cbd 8abf 263d
00000180: 3502 bebd 0e12 e5ba 5f41 7cbc 44cd a3bd
00000190: 1d21 8f3d 694f 963b faac e93a f3df 2cbb
000001a0: 101c c23d 21c4 9abc eab6 113d 675f 3e3d
000001b0: b02b d4bc 6c86 053d 54c4 2b3d 31d7 a5bd
000001c0: 8843 81bd 8009 d8bd eba5 c3bd a104 cb3c
000001d0: 30a6 b3bd d8a9 533c c43d ddbd adc6 63bc
000001e0: a378 e63c 44d6 7bbc 689e 9f3c 5d99 8ebd
000001f0: a320 a1bd 10e7 5d3d 68f6 463d 2f75 7a3d
00000200: f9db 5fbd 9993 ccbd 01fb 64bd 3b4e 6fbd
00000210: fd53 f6bc 04f7 913d c101 573c 99a5 bfbd
00000220: 205d a23c f4a5 a5bd d955 323d 9bb5 713d
00000230: 7bc8 cc3c 3026 acbd 3d4a 8ebc 25c9 4f3d
00000240: bc26 d4bd 6737 603d 41b5 0a3d 8250 d6bc
00000250: 5ab0 923d 9be8 9f3d 6a65 d9ba 8385 a5bd
00000260: 8d87 0f3c 7473 0d3d 871b 6abd e601 4a3d
00000270: 0902 d33c 6a5f 3cbd 2f28 8f3d 63ab c9bc
00000280: 1684 89bc 4f77 833d e176 483c 32bb 433c
00000290: 9157 0dbd e67f e33c 8214 acbd d636 f63c
000002a0: b878 99bd 987f a738 1b4e 863d e809 91bd
000002b0: 927c 963c 04d1 55bd 60b6 afbd 7234 7dbd
000002c0: 29a6 9dbc 3caa 203d b2bd 2cbc acff b1bd
000002d0: 1a33 86bd b65d 223d dad3 33bd 77c1 44bb
000002e0: 04b4 673d 5b57 c63d 10fd 663c 8d1a ef3c
000002f0: e52d 81bd 54ea 883c 3439 e1bc 5a36 c03c
00000300: a582 203d 47dd af3c e74b c9bd 5bfe 5dbd
00000310: ae94 ca3c b4ab 923c b299 41bd 2f01 7bbc
00000320: 668a c63d 2c12 9d3d 1399 5dbc ff84 45bd
00000330: 409d 02bc cab0 65bd 17a3 613d 6503 a3bd
00000340: 5836 98bd 0c0e 92bb 3cd4 66bd 7d64 ff3b
00000350: 13ae edbc 088e a8bd 8fbf 6ebd ce2a 13bd
00000360: 8d9e 45bd 1976 8d3d 2deb 883d 496b 9f3d
00000370: 30b1 f53c 3f8e 793d 95d5 01bd 23da 12bd
00000380: 0c02 803c ba13 6b3d 959b 143a d835 91bd
00000390: 88d9 563d 8d88 333d 10c4 a83d 1ab9 903d
000003a0: 66dd bb3d c626 243d d2bb c8bc 48a4 f83c
000003b0: 246e 58bd 4a10 f1bb 7aaf 993d ba89 593d
000003c0: 6b52 16bd 6f14 acbc 306e 30bd a965 bdbc
000003d0: 7be6 83bc 11b2 b8bc 5730 de3c f9bc 4cbd
000003e0: 6aac 563c 7741 aa3c 31b8 f33b 93b2 403d
000003f0: 63b3 463d ddf4 27bd 5d86 c33b b8d6 473a

lstm.bias_hh_l0 f4 [400]
0.055305354 0.075971566 0.010822781 -0.0042665433 -0.09016722 -0.019778589 -0.0061418647 0.0009937811
-0.021970548 0.006945686 -0.032519456 0.062329773 0.06716871 0.059272885 0.08510258 -0.094816
-0.044212893 -0.044228528 -0.08577775 0.04354873 -0.028455727 0.042343464 -0.05891582 -0.077866435
-0.06721713 -0.10108923 0.07581816 0.022186423 -0.03005684 -0.030374525 -0.035355054 -0.024183637
-0.068120256 -0.07031609 0.010979946 -0.029228782 -0.06745554 -0.023056556 -0.070068605 -0.0477289
0.10517421 -0.08187209 0.04580878 0.0016811752 0.009407008 -0.09874814 -0.038579445 -0.024372207
-0.07956692 -0.039786357 -0.091447584 -0.08923624 0.043479603 0.007551996 -0.03878659 0.023480691
-0.07539562 -0.011992956 0.02302606 0.029223202 0.0579475 -0.105064325 -0.0059096604 -0.017026693
0.049279887 -0.04840013 -0.04416119 0.06093251 -0.10933574 -0.07160713 0.009556666 -0.020549513
-0.019113308 -0.12977608 -0.0062976857 -0.060526583 0.060889557 0.044609573 0.08253951 0.014952009
-0.082102954 0.008408136 0.056077883 0.009469309 -0.046090823 0.059177514 -0.018537069 -0.08729996
0.02220893 -0.023586761 -0.14164886 -0.094100825 -0.044194352 0.062310774 -0.06576777 -0.016914336
-0.06191436 -0.10019017 0.003201062 -0.05248227 0.06933842 0.0043093953 -0.12033961 0.068373114
-0.079344384 0.0071043563 -0.052497465 0.046838637 -0.0705263 -0.10482041 0.053243726 -0.016464077
-0.014770722 0.01441985 0.025876956 0.024039771 -0.02000111 -0.107066356 0.067913875 -0.08721847
-0.063815124 0.01702068 -0.10569646 0.07864405 -0.043964107 -0.026138917 -0.07026485 -0.08728715
-0.017009437 0.034067642 0.017710026 0.023587689 -0.009104231 0.08985986 0.06935014 0.07419474
0.003205888 -0.077520244 -0.05213579 0.020550478 0.026790554 -0.12264952 -0.036555577 0.057040334
0.06453771 -0.10770911 -0.037295695 -0.09688609 0.049938135 -0.09213271 0.07070608 -0.057861783
-0.023590602 0.000456832 0.01917368 -0.09633536 0.07463431 -0.08670039 0.02107276 0.045778975
-0.035748336 0.013781434 0.017861625 -0.05324075 0.028459506 0.022950541 -0.029894073 0.023023412
0.062079772 -0.08441248 -0.10301717 -0.052185938 -0.08458052 -0.08385294 0.08851319 -0.1178759
-0.111452065 0.010661684 -0.05120683 5.604679e-05 0.0419769 0.04911661 -0.09288912 0.0608199
-0.080690876 -0.00030593234 0.059263807 -0.08864599 0.07495859 0.01700069 -0.12652607 -0.12732631
-0.06907923 0.050067782 -0.081518024 -0.13121523 0.038445443 -0.119090445 -0.033519115 0.05339636
-0.006479714 -0.06884012 -0.018293437 -0.057229962 -0.031728454 0.0053915586 0.03754239 0.0042076516
0.09819715 0.06787788 0.040594123 -0.029712148 0.095121026 0.011386884 0.010658289 0.018617477
0.006347857 0.08988983 1.3710643e-05 0.050881334 0.038706273 -0.011186101 -0.041043565 -0.048511595
-0.1065539 0.03886588 0.03232176 0.022259824 0.02653764 0.036448017 -0.008112982 -0.013439999
0.008543537 0.029243248 0.060773104 0.05624992 0.075577855 -0.0040833578 0.05576105 -0.00249516
0.06500029 0.06000639 -0.051724724 -0.014035378 -0.0308511 0.027066827 -0.0027200973 -0.056139935
0.05817643 0.06874722 0.02384056 0.114398904 -0.030797923 0.06890564 -0.012415114 -0.045426827
00000000: de87 623d fb96 9b3d 0952 313c 5cce 8bbb
00000010: 97a9 b8bd b506 a2bc b241 c9bb c341 823a
00000020: 94fb b3bc a398 e33b 1f33 05bd 814d 7f3d
00000030: c08f 893d 20c8 723d 434a ae3d e42e c2bd
00000040: 9418 35bd f928 35bd 3fac afbd 2760 323d
00000050: fc1b e9bc 5770 2d3d b751 71bd 7078 9fbd
00000060: 22a9 89bd df07 cfbd 8d46 9b3d 4dc0 b53c
00000070: c339 f6bc ffd3 f8bc 76d0 10bd c31c c6bc
00000080: a282 8bbd e201 90bd 3be5 333c 3371 efbc
00000090: 2126 8abd 1ae1 bcbc 2180 8fbd 617f 43bd
000000a0: 9465 d73d 8eac a7bd fda1 3b3d e15a dc3a
000000b0: da1f 1a3c 773c cabd 7b05 1ebd 39a8 c7bc
000000c0: fbf3 a2bd 05f7 22bd df48 bbbd 7dc1 b6bd
000000d0: ab17 323d bc76 f73b b0de 1ebd 945a c03c
000000e0: 0569 9abd 1a7e 44bc 26a1 bc3c 7f65 ef3c
000000f0: 5c5a 6d3d f72b d7bd d3a5 c1bb 907b 8bbc
00000100: b5d9 493d 373f 46bd 5de2 34bd 5e94 793d
00000110: 6beb dfbd c2a6 92bd 9093 1c3c 7457 a8bc
00000120: 8393 9cbc 05e4 04be d15c cebb b9ea 77bd
00000130: 5467 793d 87b8 363d 7a0a a93d 45f9 743c
00000140: 9825 a8bd 47c2 093c ecb1 653d 2925 1b3c
00000150: bbc9 3cbd 1f64 723d 0ddb 97bc 52ca b2bd
00000160: 81ef b53c 0639 c1bc 660c 11be efb7 c0bd
00000170: 2305 35bd 9539 7f3d 41b1 86bd ef8f 8abc
00000180: e999 7dbd 8130 cdbd e9c8 513b a6f7 56bd
00000190: 4d01 8e3d d435 8d3b 9d74 f6bd 3407 8c3d
000001a0: 4f7f a2bd a9cb e83b 9507 57bd dfd9 3f3d
000001b0: 1870 90bd 15ac d6bd 1816 5a3d acdf 86bc
000001c0: e600 72bc 3c41 6c3c e9fb d33c 0eef c43c
000001d0: 5ed9 a3bc 9b45 dbbd 6e16 8b3d 999f b2bd
000001e0: 81b1 82bd f46e 8b3c 6377 d8bd 2210 a13d
000001f0: b513 34bd 4821 d6bc 05e7 8fbd 9bc3 b2bd
00000200: 6057 8bbc 838a 0b3d 9e14 913c f83a c13c
00000210: ea29 15bc 7208 b83d 7207 8e3d 69f3 973d
00000220: e019 523b efc2 9ebd 578c 55bd 7a59 a83c
00000230: dd77 db3c ac2f fbbd 4dbb 15bd 20a3 693d
00000240: 592c 843d 9896 dcbd 5fc3 18bd 376c c6bd
00000250: ee8b 4c3d 13b0 bcbd 59ce 903d 7a00 6dbd
00000260: 1441 c1bc f482 ef39 1f12 9d3c 794b c5bd
00000270: e0d9 983d f98f b1bd c8a0 ac3c bc82 3b3d
00000280: d96c 12bd 86cb 613c 8b52 923c f912 5abd
00000290: e923 e93c c602 bc3c 6ae4 f4bc 989b bc3c
000002a0: 5c47 7e3d 73e0 acbd abfa d2bd ecc0 55bd
000002b0: 8d38 adbd 17bb abbd 6746 b53d eb68 f1bd
000002c0: fb40 e4bd 58ae 2e3c 41be 51bd c813 6b38
000002d0: f8ef 2b3d 802e 493d a73c bebd 4a1e 793d
000002e0: 4241 a5bd 8b65 a0b9 9bbe 723d 078c b5bd
000002f0: e483 993d 0845 8b3c 0d90 01be d461 02be
00000300: 6979 8dbd e013 4d3d ecf2 a6bd 495d 06be
00000310: f878 1d3d b1e5 f3bd 574b 09bd 24b6 5a3d
00000320: c853 d4bb 0dfc 8cbd 1edc 95bc f769 6abd
00000330: b2f5 01bd acab b03b 0dc6 193d 57e0 893b
00000340: 961b c93d 8f03 8b3d 0646 263d e466 f3bc
00000350: d0ce c23d 0e90 3a3c 1ba0 2e3c ae83 983c
00000360: af01 d03b 2918 b83d c306 6637 f268 503d
00000370: 788a 1e3d e845 37bc 4c1d 28bd 18b4 46bd
00000380: ee38 dabd d431 1f3d d263 043d 3c5a b63c
00000390: 7765 d93c 844a 153d 50ec 04bc 7133 5cbc
000003a0: 31fa 0b3c 898f ef3c 38ed 783d 5166 663d
000003b0: 90c8 9a3d b0cd 85bb b365 643d d785 23bb
000003c0: df1e 853d 43c9 753d 4edd 53bd a4f4 65bc
000003d0: 72bb fcbc 40bb dd3c a943 32bb fdf2 65bd
000003e0: 694a 6e3d 58cb 8c3d 474d c33c f949 ea3d
000003f0: ed4b fcbc 661e 8d3d c368 4bbc 7b11 3abd

lstm.weight_ih_l1 f4 [400, 100]
-0.0005132607 0.00060250936 0.017355055 -0.017151577 -0.08633692 -0.09002775 0.08381796 -0.03859004
0.0892324 -0.054747898 0.052852858 0.04725521 -0.073482476 0.05522066 0.0036706587 -0.06928041
-0.059464533 0.03622486 0.049369674 -0.0077225044 -0.008687586 0.034202207 -0.083824255 0.015516098
-0.023947075 0.048250426 -0.025090052 -0.04303163 -0.013992923 -0.0127266515 0.022789383 -0.022762122
0.059683826 -0.025996638 0.043637525 0.07256718 -0.103129044 0.063992895 -0.10583961 0.03898427
-0.011569761 0.057542488 0.062350754 -0.008309053 -0.02571449 0.083627194 -0.096682765 0.07200618
-0.02849243 0.12489633 0.01869541 -5.0890176e-05 0.08261023 -0.042021357 0.004710357 0.045054585
0.027587522 0.076849155 -0.067744866 0.09339509 -0.033561613 0.087897785 -0.019319668 -0.06397236
0.08628857 0.09910398 0.022227095 0.058508277 0.115116976 0.001823622 0.100912504 -0.061705004
0.049226146 -0.05892626 0.05788091 -0.025482807 -0.051192854 -0.0998426 0.055137645 -0.022227233
-0.06223116 0.065002844 0.079953894 0.09636891 -0.041461177 0.08946048 0.0055402243 0.039009362
-0.007549762 -0.088790074 -0.012408093 -0.11679715 -0.08741463 0.027715754 -0.08726207 0.018121295
0.029191177 0.008936805 0.042650346 0.0811306 -0.0014612233 -0.02201566 -0.007954937 -0.07246001
0.09623751 -0.0730756 0.038236093 0.010957918 0.063461855 0.048838723 0.019565899 -0.07173956
-0.040789783 0.06802675 0.044639345 -0.004103389 0.0007072204 -0.067521185 0.12953074 0.004729458
-0.057923276 -0.014769789 -0.103618145 0.018075172 -0.049415965 0.038169246 0.11834873 0.09144264
-0.03848501 -0.022266375 0.07139894 0.0731969 0.07056745 -0.05633436 -0.057784762 0.050274458
-0.01563336 0.097503945 -0.07327375 -0.04330107 0.0021180776 0.01945991 0.09340226 0.028571526
0.018986834 -0.0014211094 -0.036183327 -0.09000679 -0.041109346 -0.10633794 -0.049393445 0.034522902
-0.028229434 0.03705479 0.00962159 -0.0258485 -0.0087837605 -0.082189515 -0.06037864 0.12275111
0.00445471 0.10919472 0.021393927 0.058038324 0.07953503 0.033731643 0.056263674 0.01589031
0.024288021 -0.08018978 0.038759157 -0.090104766 -0.050588083 0.030293148 -0.08094422 -0.028381873
0.04238777 0.057255313 0.1092083 -0.016903203 -0.0627917 -0.0052418597 -0.12415697 0.06311623
0.066748254 0.08723958 -0.027917245 0.0030678865 0.10420322 -0.031093296 0.03464881 -0.089861065
-0.105387464 0.008606298 -0.06056367 0.066802435 0.122705184 0.029721526 -0.015146982 -0.05930288
-0.03841039 -0.05952706 0.020910101 0.051128063 0.027614256 -0.0635981 -0.027325219 -0.06106078
0.044139195 0.12894817 0.032378003 0.073306665 0.098407045 -0.009159724 0.027536003 -0.09721695
-0.024153115 0.06364186 0.067080416 0.08805776 0.107412964 0.050043795 0.052500702 -0.046087652
-0.027379625 -0.07958817 -0.026095012 -0.005147554 -0.016530816 0.0883587 -0.017181931 -0.102133475
-0.0072490335 0.0073356507 -0.08604927 -0.09706292 -0.03808312 -0.04510125 0.023176484 -0.0052705533
0.022826707 -0.019810123 0.008935713 -0.08626777 -0.017094279 0.04680092 0.13474895 0.049131464
0.0044132983 -0.07416115 0.021316143 -0.07412289 0.03779447 0.08019409 -0.08649311 0.011570452
00000000: 588c 06ba b8f1 1d3a 302c 8e3c 7781 8cbc
00000010: 69d1 b0bd 7860 b8bd c0a8 ab3d 9710 1ebd
00000020: 7abf b63d 553f 60bd 3d7c 583d ae8e 413d
00000030: fb7d 96bd 0f2f 623d 6f8f 703b e3e2 8dbd
00000040: 1591 73bd 8560 143d db37 4a3d 100d fdbb
00000050: 6056 0ebc 9d17 0c3d 0dac abbd 3b37 7e3c
00000060: a82c c4bc 3da2 453d a789 cdbc ef41 30bd
00000070: 9342 65bc 7283 50bc cdb0 ba3c a177 babc
00000080: 0777 743d e7f6 d4bc 43bd 323d 1a9e 943d
00000090: 5235 d3bd b50e 833d 70c2 d8bd f8ad 1f3d
000000a0: 188f 3dbc acb1 6b3d 8163 7f3d b222 08bc
000000b0: 32a7 d2bc bc44 ab3d 9d01 c6bd fa77 933d
000000c0: f568 e9bc a6c9 ff3d 1e27 993c e972 55b8
000000d0: 8d2f a93d 961e 2cbd 5759 9a3b 288b 383d
000000e0: 3aff e13c 1763 9d3d d2bd 8abd ed45 bf3d
000000f0: e777 09bd c103 b43d 4844 9ebc f103 83bd
00000100: 10b8 b03d 07f7 ca3d 9915 b63c 60a6 6f3d
00000110: 73c2 eb3d 9a06 ef3a 37ab ce3d 63be 7cbd
00000120: 5ba1 493d a95c 71bd 8814 6d3d 52c1 d0bc
00000130: 99af 51bd 477a ccbd 03d8 613d e315 b6bc
00000140: 1ae6 7ebd 3620 853d debe a33d 105d c53d
00000150: 32d3 29bd 0e37 b73d c58a b53b 48c8 1f3d
00000160: fe63 f7bb 92d7 b5bd 504b 4bbc 5833 efbd
00000170: 7106 b3bd 260c e33c 75b6 b2bd 1c73 943c
00000180: 5622 ef3c ad6b 123c 21b2 2e3d cd27 a63d
00000190: 8586 bfba 2f5a b4bc 6d55 02bc ea65 94bd
000001a0: 2c18 c53d a9a8 95bd 739d 1c3d d788 333c
000001b0: 4af8 813d 1d0b 483d aa48 a03c 31ec 92bd
000001c0: 3013 27bd 9c51 8b3d bfd7 363d b975 86bb
000001d0: c264 393a 8c48 8abd b5a3 043e 92f9 9a3b
000001e0: f540 6dbd fcfc 71bc c035 d4bd 6212 943c
000001f0: 6568 4abd 5b57 1c3d d260 f23d 4746 bb3d
00000200: 75a2 1dbd f967 b6bc 9c39 923d 42e8 953d
00000210: ab85 903d dcbe 66bd b7af 6cbd 97ec 4d3d
00000220: 8811 80bc 26b0 c73d 8c10 96bd 765c 31bd
00000230: 72cf 0a3b 646a 9f3c af49 bf3d d50e ea3c
00000240: 478a 9b3c 8544 baba f834 14bd 7b55 b8bd
00000250: 4662 28bd b5c7 d9bd c850 4abd e367 0d3d
00000260: 6a41 e7bc c3c6 173d e0a3 1d3c 3cc0 d3bc
00000270: c3e9 0fbc fa52 a8bd 984f 77bd ef64 fb3d
00000280: d1f8 913b 7ba1 df3d 5142 af3c 98b9 6d3d
00000290: 43e3 a23d 312a 0a3d bd74 663d 652c 823c
000002a0: acf7 c63c 8a3a a4bd ecc1 1e3d d988 b8bd
000002b0: 7335 4fbd 5629 f83c 15c6 a5bd 1a81 e8bc
000002c0: cc9e 2d3d 8c84 6a3d 9aa8 df3d 9678 8abc
000002d0: ef98 80bd e8c3 abbb 0246 febd 1543 813d
000002e0: 4fb3 883d aaaa b23d b5b2 e4bc 980e 493b
000002f0: 7f68 d53d 5eb7 febc e9eb 0d3d 1409 b8bd
00000300: 62d5 d7bd 6e01 0d3c 9c11 78bd b7cf 883d
00000310: db4c fb3d 8f7a f33c 0c2b 78bc 94e7 72bd
00000320: 3754 1dbd a5d2 73bd a94b ab3c a96b 513d
00000330: 4b37 e23c b83f 82bd 23d9 dfbc de1a 7abd
00000340: 4dcb 343d fd0a 043e cc9e 043d ce21 963d
00000350: a289 c93d ab12 16bc 2f93 e13c ae19 c7bd
00000360: c1dc c5bc aa56 823d 7561 893d a057 b43d
00000370: 54fb db3d b9fa 4c3d fa0a 573d 68c6 3cbd
00000380: 3c4b e0bc 1fff a2bd 35c5 d5bc d0ac a8bb
00000390: a26b 87bc 68f5 b43d 1fc1 8cbc 5b2b d1bd
000003a0: 4d89 edbb e65f f03b 9a3a b0bd edc8 c6bd
000003b0: 0cfd 1bbd 17bc 38bd 9cdc bd3c 9bb4 acbb
000003c0: 13ff ba3c d748 a2bc 1967 123c 28ad b0bd
000003d0: 4d09 8cbc 52b2 3f3d a1fb 093e 133e 493d
000003e0: 6e9d 903b cde1 97bd 319f ae3c becd 97bd
000003f0: 60ce 1a3d cd3c a43d 4d23 b1bd fe91 3d3c

lstm.weight_hh_l1 f4 [400, 100]
-0.06487707 -0.01794745 0.06848803 -0.0246059 -0.08485149 -0.011209884 -0.020537037 -0.06534611
-0.086008504 -0.013584934 0.09483767 -0.08580408 -0.041714966 -0.056275252 0.033530563 -0.042937413
0.07461528 0.09489739 0.010450801 0.0021442093 0.09826165 -0.062747866 0.06046219 0.079240814
-0.08813099 0.10481638 0.09282425 -0.076692216 -0.0072497446 -0.061380494 0.05450588 -0.0357243
0.10514105 -0.057404563 -0.0449871 -0.097951606 -0.029042523 0.014710892 -0.039769027 0.02694008
-0.008768137 -0.003304616 -0.01164892 0.048636727 -0.062613964 0.03855163 0.0034879218 -0.02433932
-0.018332174 0.052157827 0.16251983 -0.0020109941 0.0812866 -0.026980096 0.031148843 0.024225095
0.023050271 -0.08317083 0.105645865 0.005711555 0.104493946 0.08569891 -0.061433826 -0.004257109
0.08725414 0.11912376 0.076127075 0.023082947 0.03653504 -0.05687234 0.0062722643 -0.10533836
-0.09470557 0.0006403542 0.007267021 0.04074195 -0.017272964 -0.06278106 0.07009789 -0.09294258
0.095928915 -0.031933345 -0.004121989 -0.028352657 -0.04998034 -0.050537165 0.05699851 -0.06032174
0.04014595 -0.015664505 0.05228987 -0.057132002 -0.008626371 -0.024322355 -0.0048099603 0.08901916
-0.05720719 0.07324875 0.06423578 0.060981262 0.09168685 -0.038231183 0.057293717 0.04734329
0.026625114 -0.006919519 -0.0053206785 -0.021852506 -0.041390754 0.05739599 -0.003447946 -0.019113502
0.00067292014 -0.013825528 0.01880925 -0.12488748 -0.060450632 -0.05811069 -0.06743635 -0.0030986608
-0.03174305 0.033265915 0.047055732 0.12330143 0.033182044 0.07720315 -0.08223606 0.043358658
-0.014171573 -0.059728507 -0.05250974 0.04060103 0.01581326 -0.038506526 -0.04312638 0.0013266464
-0.12269397 -0.07713071 0.102590084 -0.01647877 0.02904103 -0.038130865 -0.13292082 -0.07529401
-0.12567851 -0.065851174 -0.016283786 0.06625225 0.06243776 -0.029340796 0.079172716 0.07936197
0.09002382 0.0016642843 0.025775833 0.034448788 -0.07497793 0.028229855 0.091438875 -0.10469968
0.11238729 0.005326039 0.08880525 -0.04875608 0.08572721 0.01983091 0.008878008 -0.095011346
0.12686248 -0.058192153 -0.049356908 -0.104488194 0.024509342 -0.06909983 0.0015779401 -0.08346655
0.08782636 0.060674947 -0.04203471 -0.006681592 0.03741695 0.035813283 0.061976038 -0.03612713
-0.08492411 0.05686554 0.019429771 -0.10922014 0.026901094 0.07534851 0.054416146 0.05954737
0.0073840683 -0.056921266 0.064437 0.12947741 0.0020109538 -0.011380309 -0.046371795 0.0006306828
0.021182796 0.06527751 -0.09891851 0.008521853 -0.07435143 0.031200232 -0.023648685 -0.03664209
-0.10276255 -0.08461551 0.048386134 0.13077152 0.007225355 -0.00813158 -0.0077563403 -0.119189195
-0.0756315 -0.035777733 0.03924497 0.04899359 -0.040466364 -0.09672007 -0.030683309 0.14157756
-0.07267777 -0.0024419215 -0.008110451 0.040092766 -0.06275455 -0.04634433 -0.06172871 0.07454506
0.042010445 0.04413814 0.059286486 -0.05761347 -0.054054536 -0.0996693 0.033627577 0.031184256
-0.034692746 0.011381401 -0.033225823 -0.05281573 0.018371692 -0.039142203 0.0045462344 0.027502036
0.14125577 -0.057735518 0.08323148 -0.06296875 -0.1095419 -0.03292302 0.03789897 -0.011088016
00000000: 45de 84bd 8806 93bc 7443 8c3d 5092 c9bc
00000010: 9ec6 adbd a9a9 37bc 4a3d a8bc 2ed4 85bd
00000020: 3a25 b0bd 5893 5ebc 413a c23d 0dba afbd
00000030: 50dd 2abd e180 66bd 5857 093d 24df 2fbd
00000040: e5cf 983d 9059 c23d d639 2b3c dd85 0c3b
00000050: 673d c93d f481 80bd 34a7 773d 0249 a23d
00000060: 057e b4bd f8a9 d63d a41a be3d cf10 9dbd
00000070: 448f edbb 1d6a 7bbd 8f41 5f3d a553 12bd
00000080: 3154 d73d 0c21 6bbd 6544 38bd da9a c8bd
00000090: 96ea edbc f405 713c d9e4 22bd 71b1 dc3c
000000a0: 3ba8 0fbc 4292 58bb 1ddb 3ebc 4e37 473d
000000b0: c03b 80bd 50e8 1d3d 9e95 643b 4163 c7bc
000000c0: 5b2d 96bc 72a3 553d 996b 263e e2ca 03bb
000000d0: 9779 a63d 5d05 ddbc dc2b ff3c b573 c63c
000000e0: ecd3 bc3c 7855 aabd dc5c d83d ff27 bb3b
000000f0: ec00 d63d e982 af3d 09a2 7bbd 387f 8bbb
00000100: 4cb2 b23d 28f7 f33d 83e8 9b3d 7318 bd3c
00000110: c4a5 153d f9f2 68bd 9187 cd3b a3bb d7bd
00000120: fef4 c1bd 71dd 273a 3120 ee3b 08e1 263d
00000130: 0880 8dbc 5b93 80bd 7c8f 8f3d ae58 bebd
00000140: 6176 c43d 8acc 02bd c011 87bb d543 e8bc
00000150: 2fb8 4cbd 0f00 4fbd 4577 693d ee13 77bd
00000160: 1470 243d d952 80bc e72d 563d 3f03 6abd
00000170: 9f55 0dbc ad3f c7bc df9c 9dbb ad4f b63d
00000180: 1652 6abd 7103 963d 0c8e 833d 7dc7 793d
00000190: 51c6 bb3d 4d98 1cbd d1ac 6a3d 0aeb 413d
000001a0: e91c da3c 22bd e2bb 1659 aebb 0704 b3bc
000001b0: 5a89 29bd 0f18 6b3d eff6 61bb eb93 9cbc
000001c0: e866 303a 7884 62bc db15 9a3c 02c5 ffbd
000001d0: 159b 77bd 7a05 6ebd 121c 8abd e712 4bbb
000001e0: 0005 02bd d741 083d 83bd 403d 7685 fc3d
000001f0: e5e9 073d af1c 9e3d 616b a8bd d998 313d
00000200: e32f 68bc e1a5 74bd 7414 57bd 444d 263d
00000210: cf8a 813c 05b9 1dbd 49a5 30bd dee2 ad3a
00000220: fa46 fbbd b5f6 9dbd c01a d23d 7cfe 86bc
00000230: 74e7 ed3c 1c2f 1cbd 651c 08be bf33 9abd
00000240: deb1 00be fbdc 86bd 9365 85bc 42af 873d
00000250: bdbe 7f3d 1c5c f0bc 4e25 a23d 8788 a23d
00000260: 695e b83d 1d24 da3a d727 d33c 2c1a 0d3d
00000270: 078e 99bd 4c42 e73c 4e44 bb3d c96c d6bd
00000280: 4f2b e63d 0e86 ae3b 87df b53d 75b4 47bd
00000290: bf91 af3d 6f74 a23c 1175 113c 4f95 c2bd
000002a0: 3de8 013e e55a 6ebd 782a 4abd e8fd d5bd
000002b0: d1c7 c83c 3684 8dbd e2d2 ce3a 83f0 aabd
000002c0: 4ede b33d 4b86 783d 972c 2cbd 42f1 dabb
000002d0: 8442 193d f3b0 123d 96da 7d3d 0bfa 13bd
000002e0: b1ec adbd d7eb 683d 2f2b 9f3c cfae dfbd
000002f0: af5f dc3c 5250 9a3d 77e3 5e3d f1e7 733d
00000300: 0ef6 f13b 4626 69bd 8cf7 833d ba95 043e
00000310: 35ca 033b 7a74 3abc 5af0 3dbd 6854 253a
00000320: 8b87 ad3c 37b0 853d ca95 cabd 3e9f 0b3c
00000330: 9045 98bd a197 ff3c e3ba c1bc 0416 16bd
00000340: 2c75 d2bd e64a adbd 8a30 463d f8e8 053e
00000350: acc2 ec3b 523a 05bc e628 febb 7719 f4bd
00000360: b0e4 9abd ac8b 12bd 55bf 203d 81ad 483d
00000370: 0fc0 25bd 2c15 c6bd 905b fbbc b5f9 103e
00000380: 15d8 94bd a508 20bb b2e1 04bc 5038 243d
00000390: 7585 80bd 8dd3 3dbd 3ed7 7cbd 15ab 983d
000003a0: 2513 2c3d 32ca 343d 63d6 723d 1afc 6bbd
000003b0: 4a68 5dbd 6b1f ccbd 12bd 093d 2076 ff3c
000003c0: fb19 0ebd 0e79 3a3c cd17 08bd 4f55 58bd
000003d0: 3b80 963c 9353 20bd 94f8 943b f34b e13c
000003e0: 5aa5 103e 147c 6cbd 4475 aa3d c3f5 80bd
000003f0: 8157 e0bd 4ada 06bd f33b 1b3d 83aa 35bc

lstm.bias_ih_l1 f4 [400]
-0.06652918 0.03094432 -0.042209513 0.0545034 0.03656749 -0.045878813 -0.008887473 -0.118883975
-0.09548622 -0.10659382 -0.05261209 -0.045860786 -0.106529966 -0.1109144 0.03251292 -0.0046172948
-0.112700276 -0.03863151 0.0056652036 -0.05691394 -0.07041894 -0.14139529 -0.00022382352 0.028149715
-0.085075885 0.02812442 0.042849805 0.034467913 -0.074935496 -0.054823432 0.048165526 -0.0928218
0.07889578 0.063998014 0.05869149 -0.048670407 0.07202505 -0.018753882 -0.112127006 -0.044842113
-0.052559264 0.056187645 -0.008670561 -0.12983364 0.08160529 0.051871225 0.04897721 -0.094096206
0.024601243 -0.13336654 0.07469371 -0.061625898 -0.07913188 -0.064139284 -0.10761352 0.009500517
0.05511206 0.029990258 0.028162945 -0.0023637577 0.040792108 -0.14511207 -0.096021645 -0.05211717
-0.12503064 -0.0719696 0.08453666 0.043555383 -0.07481923 0.046364192 -0.0436424 -0.057796415
-0.016476626 0.013104075 -0.11085088 0.08240713 0.00064126955 -0.038205747 -0.07611352 0.0012575187
0.010883754 -0.08799507 0.04023763 0.05716138 0.064639874 0.08128316 0.045467515 0.062225636
0.04273107 -0.06783014 -0.11475557 0.07009813 -0.029237194 -0.056752812 0.016998926 -0.12501687
-0.0081507815 -0.07228526 -0.0076925075 -0.05064696 0.081820406 0.042991742 0.07953984 0.050992586
-0.047198392 -0.010485969 0.034295782 -0.15803044 -0.05829242 0.062271956 -0.002239724 0.01707674
-0.006184613 0.026645212 -0.039663117 0.047490183 -0.07643671 -0.013410106 -0.09887451 0.06272342
-0.116938345 -0.0343353 0.0668082 -0.10916254 -0.015724353 -0.097537726 -0.11553779 -0.0038936373
-0.09042447 0.054566912 -0.003582342 -0.06713095 -0.0694241 -0.08703933 0.00092464127 -0.005531825
-0.089891694 -0.09637555 -0.051218987 0.0757317 -0.04906026 0.009707224 -0.00531676 -0.048493605
-0.04007545 -0.0800875 -0.050458115 -0.0054450613 -0.040745784 -0.020378506 -0.07533992 -0.11295017
-0.041835435 -0.025300995 0.04337995 -0.044991653 -0.08980651 -0.1224388 -0.053836796 -0.08875278
0.0076195234 -0.034567494 -0.07007259 -0.013807793 0.0112583125 -0.06643968 -0.054950085 -0.1195316
-0.035033274 -0.06598009 -0.023254246 -0.041924775 -0.011381381 0.025321862 -0.0036446527 -0.07564024
-0.048633426 0.008388923 0.070418924 0.020839011 -0.0771303 -0.033435993 0.0760986 -0.077697694
-0.055468556 -0.069983356 0.050812095 -0.07860699 0.0306695 0.052353643 0.05785855 0.11936538
0.022450814 -0.009300043 -0.077657126 -0.09615847 -0.06787534 0.0052427747 0.017032154 -0.08682157
-0.0362471 -0.026358275 -0.0009549758 0.03023938 0.015791228 -0.07872815 0.042689115 -0.001432703
-0.035442553 0.06746011 0.06077046 0.037013594 -0.02593209 -0.06640305 -0.04416552 -0.07528904
-0.09507048 0.009752036 -0.079751395 -0.03953808 -0.08067887 0.06378485 -0.046779677 0.006981765
0.0017149186 -0.09325153 -0.040729776 -0.073734276 -0.09478542 0.033477534 -0.0030747084 0.003828548
-0.02885587 -0.064415425 -0.027544387 -0.002122059 0.022716241 -0.024830095 0.027156655 -0.053832974
0.045030743 -0.033526782 0.012894799 -0.048559017 -0.043728307 -0.01888032 -0.030403012 0.045409456
0.037415642 0.059584994 0.032086145 0.02768652 -0.057151366 -0.017077854 0.005324432 -0.07987623
00000000: 7340 88bd f17e fd3c e2e3 2cbd f53e 5f3d
00000010: cbc7 153d 6ceb 3bbd c39c 11bc 7179 f3bd
00000020: 488e c3bd dc4d dabd c67f 57bd 85d8 3bbd
00000030: 622c dabd 1727 e3bd 452c 053d ad4c 97bb
00000040: 67cf e6bd 133c 1ebd 2ca3 b93b 971e 69bd
00000050: ce37 90bd edc9 10be 2bb2 6ab9 3b9a e63c
00000060: 443c aebd 2f65 e63c 4783 2f3d 3a2e 0d3d
00000070: c877 99bd 898e 60bd 3749 453d 5b19 bebd
00000080: 1c94 a13d 6411 833d 7d66 703d 9f5a 47bd
00000090: df81 933d bea1 99bc d8a2 e5bd 5dac 37bd
000000a0: 6248 57bd 0425 663d f80e 0ebc 1cf3 04be
000000b0: ad20 a73d ec76 543d 549c 483d 83b5 c0bd
000000c0: 8c88 c93c 3d91 08be 04f9 983d 706b 7cbd
000000d0: e50f a2bd 755b 83bd 7a64 dcbd 0ea8 1b3c
000000e0: 2fbd 613d 21ae f53c fab5 e63c 46e9 1abb
000000f0: a015 273d 4298 14be ffa6 c4bd d078 55bd
00000100: 0808 00be cc64 93bd 8e21 ad3d 2167 323d
00000110: d33a 99bd 61e8 3d3d 60c2 32bd efbb 6cbd
00000120: fdf9 86bc 79b2 563c c905 e3bd 12c5 a83d
00000130: df1a 283a a17d 1cbd 68e1 9bbd 53d3 a43a
00000140: c651 323c c236 b4bd 37d0 243d 0d22 6a3d
00000150: e961 843d c977 a63d 253c 3a3d 4fe0 7e3d
00000160: c606 2f3d 87ea 8abd f804 ebbd 9c8f 8f3d
00000170: d782 efbc a375 68bd 5541 8b3c 6c04 00be
00000180: db8a 05bc 4b0a 94bd 6e11 fcbb 3073 4fbd
00000190: 7591 a73d 1c18 303d c9e5 a23d 9add 503d
000001a0: 1a53 41bd 57cd 2bbc bc79 0c3d bbd2 21be
000001b0: 08c4 6ebd e110 7f3d 55c8 12bb 85e4 8b3c
000001c0: 4ba8 cabb 0f47 da3c cb75 22bd 1185 423d
000001d0: da8a 9cbd 10b6 5bbc b87e cabd 2375 803d
000001e0: 5f7d efbd 2ca3 0cbd bdd2 883d 9c90 dfbd
000001f0: 5cd0 80bc dcc1 c7bd 149f ecbd 652c 7fbb
00000200: 7730 b9bd 8e81 5f3d bac5 6abb f47b 89bd
00000210: 392e 8ebd ad41 b2bd a063 723a 5044 b5bb
00000220: 2319 b8bd 8b60 c5bd 00cb 51bd 3919 9b3d
00000230: 69f3 48bd 0c0b 1f3c 3738 aebb 3ba1 46bd
00000240: 2826 24bd ea04 a4bd 2bad 4ebd 7c6c b2bb
00000250: 0de5 26bd d3f0 a6bc d14b 9abd 6b52 e7bd
00000260: a25b 2bbd 0844 cfbc 2daf 313d 2b49 38bd
00000270: 7aec b7bd 32c1 fabd f983 5cbd 04c4 b5bd
00000280: 32ad f93b a596 0dbd 3882 8fbd 153a 62bc
00000290: c974 383c 8711 88bd 5713 61bd fccc f4bd
000002a0: 0d7f 0fbd 9220 87bd b07f bebc 50b9 2bbd
000002b0: f978 3abc cb6f cf3c 20db 6ebb 45e9 9abd
000002c0: d833 47bd b171 093c cc37 903d 93b6 aa3c
000002d0: 7ef6 9dbd 2ef4 08bd 95d9 9b3d f81f 9fbd
000002e0: ff32 63bd 6f53 8fbd 5820 503d b4fc a0bd
000002f0: 9a3e fb3c c670 563d 16fd 6c3d d675 f43d
00000300: c5ea b73c 355f 18bc b30a 9fbd bbee c4bd
00000310: 3a02 8bbd 95cb ab3b 0487 8b3c 82cf b1bd
00000320: d777 14bd 4fed d7bc 5757 7aba 94b8 f73c
00000330: 9b5c 813c 393c a1bd c8da 2e3d 89c9 bbba
00000340: 362c 11bd 8728 8a3d 72ea 783d 919b 173d
00000350: 896f d4bc 53fe 87bd e8e6 34bd 2431 9abd
00000360: 50b4 c2bd 01c7 1f3c b354 a3bd aff2 21bd
00000370: f73a a5bd a2a1 823d 0c9c 3fbd 4ac7 e43b
00000380: 1fc7 e03a a8fa bebd 44d4 26bd ff01 97bd
00000390: dc1e c2bd bd1f 093d 0c81 49bb 60e8 7a3b
000003a0: 2563 ecbc 3cec 83bd c4a4 e1bc 3e12 0bbb
000003b0: 6917 ba3c 7c68 cbbc a277 de3c f77f 5cbd
000003c0: 2872 383d 6153 09bd b544 533c d2e5 46bd
000003d0: 741c 33bd e7aa 9abc bd0f f9bc 44ff 393d
000003e0: 2541 193d 650f 743d c36c 033d d7ce e23c
000003f0: 8d17 6abd dbe6 8bbc 9378 ae3b 2696 a3bd
