backend/model/lstm-META-90-.pth (torch, 31237 bytes, 12 tensors)

conv1.weight f4 [2, 4, 3]
0	0xae2518da	-3.753873e-11
1	0xb876f6f2	-5.8880956e-05
2	0xb4598236	-2.025707e-07
3	0x388267ac	6.2181934e-05
4	0x3b9e7c44	0.004836591
5	0x39149393	0.00014169356
6	0x38c8f4b4	9.582323e-05
7	0x3cf6f9e8	0.030148461
8	0xbc7913d6	-0.015202483
9	0x3d1fed58	0.039044708
10	0xbc84c829	-0.016208725
11	0x3ab16cba	0.0013536431
12	0x2887c5a0	1.5073717e-14
13	0x3a867131	0.0010257122
14	0x308ade47	1.0103997e-09
15	0xb82e24bc	-4.1519044e-05
16	0xbc3e19ef	-0.011602863
17	0xbb795f8f	-0.0038051342
18	0xb8b46a35	-8.6028514e-05
19	0xb850ddac	-4.9797512e-05
20	0xbae0bf58	-0.0017146869
21	0x3cd63995	0.026150504
22	0xb93276b5	-0.00017019625
23	0xb8331de4	-4.2704763e-05

conv1.bias f4 [2]
0	0x3a0a206e	0.00052691146
1	0xb91f4cc4	-0.00015192019

lstm.weight_ih_l0 f4 [80, 2]
0	0x35fb98b9	1.8745405e-06
1	0x3a327681	0.00068078196
2	0x3b939f9a	0.00450511
3	0xbb8f32c4	-0.0043700654
4	0xb25bd5fc	-1.2796132e-08
5	0xb86b7ec6	-5.6146433e-05
6	0x3574f11a	9.124793e-07
7	0x3bc982ed	0.006149641
8	0x375be683	1.3107087e-05
9	0x316b1aa7	3.421215e-09
10	0x34b9231d	3.4484484e-07
11	0xb2dc159c	-2.5621198e-08
12	0x35233e05	6.081248e-07
13	0x3200080a	7.4524085e-09
14	0x3506bf97	5.019769e-07
15	0x3a8dc500	0.0010816157
16	0x370e8f8b	8.497281e-06
17	0x3ba549d1	0.0050442
18	0xbc48fdde	-0.012267558
19	0x3ade9caf	0.0016983951
20	0xbb35f121	-0.0027762132
21	0xb1bb2779	-5.446904e-09
22	0x360a72af	2.0630357e-06
23	0xb3b5280f	-8.435756e-08
24	0x364be810	3.0384435e-06
25	0xb7422c9b	-1.1573687e-05
26	0xbbe1adab	-0.006887158
27	0xbb565b47	-0.0032708214
28	0x36934080	4.38845e-06
29	0x3b20bf24	0.0024527991
30	0x34058c24	1.2437573e-07
31	0x32bbc6af	2.1860016e-08
32	0x3410d2f6	1.3487792e-07
33	0xba338f65	-0.00068496756
34	0x3c12fdc9	0.00897164
35	0xb32796c2	-3.901983e-08
36	0x36563bd5	3.1923312e-06
37	0x344baa08	1.8967705e-07
38	0x34d17da8	3.902071e-07
39	0x3be774dd	0.0070634917
40	0x35acb4f7	1.2867666e-06
41	0xbc0cb93c	-0.008589085
42	0x3887a036	6.467143e-05
43	0xb2d3a0d2	-2.4636766e-08
44	0xb4ef4757	-4.4569126e-07
45	0x39dbdc97	0.00041935287
46	0x3c12299a	0.008921051
47	0xbae7b0e7	-0.0017676622
48	0xbc043250	-0.008068636
49	0xb6c637fa	-5.9073764e-06
50	0x34757dd3	2.2863178e-07
51	0xb48fffb3	-2.682187e-07
52	0x35206075	5.974501e-07
53	0x37f20a13	2.885334e-05
54	0x3a136b29	0.0005623573
55	0x3ba0d54c	0.0049082395
56	0x3686c1ff	4.0160953e-06
57	0xb47f40c8	-2.3772293e-07
58	0xb230e34a	-1.0296228e-08
59	0xb226d5c0	-9.711073e-09
60	0x3460f7a4	2.0951717e-07
61	0x319268ae	4.26106e-09
62	0x3538a00b	6.8778235e-07
63	0x322788cb	9.7517825e-09
64	0x3b049d3f	0.0020235328
65	0x39e5778c	0.00043767353
66	0xbbab545f	-0.0052285637
67	0x3814425d	3.5347755e-05
68	0xb7470d60	-1.1864438e-05
69	0x3bc167fe	0.0059022894
70	0x3bf70b3d	0.0075391815
71	0xb0fdf042	-1.8476458e-09
72	0xbc2821d6	-0.010261973
73	0xb8110042	-3.4570934e-05
74	0xbb9945f4	-0.0046775285
75	0xb9b9a926	-0.00035411975
76	0x35c97997	1.5011054e-06
77	0xb56c8e40	-8.812385e-07
78	0x34dba6f4	4.0913403e-07
79	0x317793ab	3.602717e-09
80	0xbb5c903f	-0.0033655313
81	0xbb8abd5e	-0.004234
82	0x391618ca	0.0001431435
83	0x372513b3	9.839353e-06
84	0x3bc5ca3f	0.0060360725
85	0xb4d623fe	-3.9886794e-07
86	0xb8d731f0	-0.000102613005
87	0x3c21a1e8	0.009865262
88	0xba4c5c45	-0.00077957317
89	0x36a15b38	4.808793e-06
90	0xb895df33	-7.146448e-05
91	0xb906f46b	-0.00012870289
92	0xb8d97de9	-0.00010370819
93	0x3b81158d	0.0039393366
94	0xbb3799d9	-0.0028015284
95	0xbc0427cd	-0.00806613
96	0xbb8b91e9	-0.004259337
97	0x3a9e952b	0.0012098899
98	0x36de9e6f	6.6345597e-06
99	0x3895ed96	7.1491275e-05
100	0xb7ab693b	-2.043379e-05
101	0xbb8f68d9	-0.0043765125
102	0x3c1afb1e	0.009459285
103	0xb50b85f5	-5.197647e-07
104	0xba9364bf	-0.0011245235
105	0xb7420b0d	-1.1565874e-05
106	0x3bb0ab5a	0.0053915204
107	0xbbec4f4f	-0.0072116028
108	0x39293746	0.00016137687
109	0xb545ee9b	-7.3735436e-07
110	0xbb47ab46	-0.0030467077
111	0xb6cc5d3b	-6.090527e-06
112	0x384ea62f	4.9268998e-05
113	0x36874435	4.031254e-06
114	0xbc21252b	-0.009835522
115	0x39ee25bf	0.0004542302
116	0xb90f9ef2	-0.00013696754
117	0x36fc91cd	7.5271587e-06
118	0x38463ed3	4.726539e-05
119	0x35bdb66d	1.413469e-06
120	0x39bb91ef	0.00035776148
121	0x34032c29	1.2216391e-07
122	0x3616ccdd	2.2470988e-06
123	0xb8802a9b	-6.1114515e-05
124	0xb23db857	-1.1043162e-08
125	0x3bb45b56	0.005504052
126	0x3ba7c1ba	0.0051195296
127	0xb9485dd0	-0.00019108434
128	0x34aace1d	3.1814935e-07
129	0x3b9bc264	0.004753398
130	0x3541bad3	7.216997e-07
131	0xb831ebd7	-4.241973e-05
132	0x3520c24c	5.9887384e-07
133	0xb26a36ac	-1.3633024e-08
134	0x35894e27	1.0230041e-06
135	0x3ac994ef	0.0015379469
136	0x3b228deb	0.0024803828
137	0x3506991b	5.014169e-07
138	0x3c29b2a7	0.010357535
139	0x2f116317	1.3222877e-10
140	0xbbe8990b	-0.0070983223
141	0xbabec6c9	-0.0014555092
142	0x3542a8e7	7.2516417e-07
143	0xb72d8c56	-1.0344278e-05
144	0x3894e073	7.098997e-05
145	0x339a0959	7.172884e-08
146	0x3c3da3a4	0.0115746595
147	0x33f16d3c	1.12423066e-07
148	0x369c4101	4.6567297e-06
149	0x3a467e69	0.0007571937
150	0xbb971fa4	-0.004611926
151	0x36636cc4	3.3888946e-06
152	0xb8b9f9de	-8.868029e-05
153	0x3a435954	0.00074519706
154	0xbc0b52b6	-0.008503607
155	0x3a14893d	0.0005666202
156	0xbc37de63	-0.011222455
157	0x330cbf87	3.2770483e-08
158	0x342d850f	1.6160287e-07
159	0x32d51522	2.4806074e-08

lstm.weight_hh_l0 f4 [80, 20]
0	0xb4dc0854	-4.0984253e-07
1	0x3990142e	0.00027480855
2	0x3c500cea	0.012698391
3	0xb60abedf	-2.0674704e-06
4	0xb48ed247	-2.6602558e-07
5	0xb4f8e4b0	-4.6359992e-07
6	0xb4f1258a	-4.491706e-07
7	0xbae8d532	-0.0017763732
8	0x35d9254a	1.6178612e-06
9	0x372568d0	9.85917e-06
10	0xb4e3bd48	-4.2419765e-07
11	0x35b9ea14	1.38517e-06
12	0xb533264a	-6.6738414e-07
13	0x3694881e	4.42659e-06
14	0x35ceae0e	1.5398853e-06
15	0xb48d4094	-2.6310283e-07
16	0x3b44671a	0.002996868
17	0xb4ab1aff	-3.1870874e-07
18	0xbc1e5bba	-0.009665424
19	0x3b00377f	0.0019564328
20	0x3a4416e1	0.0007480216
21	0x3684d75d	3.958978e-06
22	0xb4e90f66	-4.3410836e-07
23	0x382ca6bb	4.1163275e-05
24	0xb91a30a5	-0.00014704706
25	0x3a1d7440	0.00060063973
26	0x37eff8b3	2.860683e-05
27	0x343e7005	1.7735881e-07
28	0x3badd0fb	0.0053044534
29	0x3b764fac	0.003758411
30	0x3723fb1f	9.774026e-06
31	0x3a233601	0.0006226004
32	0xb4d48a1e	-3.958857e-07
33	0x3adca3a7	0.001683344
34	0x3583e484	9.826767e-07
35	0xb91393fe	-0.00014074144
36	0x33b9a836	8.645331e-08
37	0xbb381071	-0.0028085972
38	0x3c16478a	0.00917233
39	0x3544fbc1	7.338204e-07
40	0x317ce2b8	3.67997e-09
41	0xb5c12315	-1.4389831e-06
42	0xb8fc323c	-0.00012025653
43	0x31b08142	5.136969e-09
44	0x30fbc811	1.8319516e-09
45	0x3145626b	2.8723217e-09
46	0x311d423c	2.2884157e-09
47	0xb1310001	-2.5756892e-09
48	0x31856c9e	3.883158e-09
49	0xb79cc36f	-1.8687655e-05
50	0xbbe7b1eb	-0.00707077
51	0x3b0bb24a	0.0021315985
52	0xb41aee53	-1.442907e-07
53	0xb411c161	-1.3574528e-07
54	0x3b81243e	0.003941088
55	0xbaaa604f	-0.0012998673
56	0x306681e0	8.3858076e-10
57	0x3a93a17f	0.001126334
58	0xbaebbb58	-0.001798491
59	0x3c124422	0.008927377
60	0xb51b9803	-5.7963206e-07
61	0x34a0567b	2.9865245e-07
62	0xbbaf6ac9	-0.005353306
63	0x3c3eeb8f	0.011652841
64	0x3adb02a1	0.0016709157
65	0xb6707c6c	-3.583521e-06
66	0xb48b424d	-2.5939008e-07
67	0x34846ec4	2.4667509e-07
68	0x3ad79d43	0.0016450066
69	0x33323dd0	4.1500073e-08
70	0xb931807d	-0.00016927901
71	0x3b9b804e	0.0047455197
72	0xba4ac2e3	-0.0007734729
73	0x350c37ac	5.223508e-07
74	0xba6e1984	-0.00090827816
75	0xb40df9ce	-1.3222527e-07
76	0x341a62f6	1.437837e-07
77	0xb49e8a20	-2.9530293e-07
78	0xba4cfb2c	-0.000781941
79	0xb7706c2a	-1.4330299e-05
80	0xb4036a6f	-1.2239046e-07
81	0xba5e6320	-0.00084833987
82	0x3c46ca4d	0.012133193
83	0xbb59035a	-0.003311357
84	0xb38c5e25	-6.536383e-08
85	0xb37343c5	-5.6639482e-08
86	0xb3abead4	-8.005523e-08
87	0x33b5fd7b	8.474577e-08
88	0xbbfa9974	-0.0076476876
89	0x3286cc5d	1.5692587e-08
90	0xbb8d7d03	-0.004317881
91	0xbbec1edf	-0.0072058286
92	0x33634475	5.2914817e-08
93	0x342c8748	1.6067963e-07
94	0x3ae15dab	0.0017194053
95	0xb33b91fb	-4.36721e-08
96	0xbb4910ca	-0.0030680173
97	0xb384e472	-6.188283e-08
98	0xb46590e3	-2.1379996e-07
99	0x3b8dd4d5	0.00432835
100	0xb4367495	-1.6992483e-07
101	0x340cbe21	1.3107685e-07
102	0xb21cfb28	-9.137501e-09
103	0xbbc41a02	-0.0059845457
104	0x3a3b722d	0.00071504974
105	0xba25c3ff	-0.0006323456
106	0xb3ad1ee5	-8.06156e-08
107	0x34274b98	1.5580588e-07
108	0xb835243d	-4.3187512e-05
109	0xbba8058f	-0.0051276158
110	0xb3d0b138	-9.717991e-08
111	0xb97677d5	-0.00023505029
112	0xb556b8df	-7.9990235e-07
113	0x3a1213ea	0.00055724254
114	0x39916abb	0.00027736076
115	0x3b32db2f	0.0027291288
116	0x3368a2c6	5.416475e-08
117	0xb1a8c435	-4.9117497e-09
118	0xb9ebaeb4	-0.00044952857
119	0xb9cd519f	-0.0003916146
120	0xbb479383	-0.0030452914
121	0xbab5dd9e	-0.0013875251
122	0xb2eae947	-2.7347268e-08
123	0xb4d71364	-4.006098e-07
124	0xbaa4f555	-0.0012585322
125	0xb40305d7	-1.220245e-07
126	0x39b56aef	0.00034602682
127	0x3c4839e6	0.012220835
128	0xb837dcda	-4.3836284e-05
129	0xbb57136b	-0.003281797
130	0xb9176f27	-0.0001444189
131	0x34b56054	3.3783965e-07
132	0xb4accd73	-3.218698e-07
133	0xba9a3fd5	-0.0011768291
134	0x34f01dbd	4.472512e-07
135	0x3c3b582a	0.011434594
136	0x34094dad	1.2787378e-07
137	0xb49fc33f	-2.9758118e-07
138	0x3af488a3	0.0018656444
139	0x34023346	1.2125847e-07
140	0xb4d107e8	-3.8935036e-07
141	0x3a3ac144	0.0007124136
142	0xb2609618	-1.3072643e-08
143	0xb4a1c74d	-3.0133597e-07
144	0xb425c441	-1.5438219e-07
145	0xbadbfe60	-0.0016784184
146	0xb8a16086	-7.695057e-05
147	0x33c00b47	8.942748e-08
148	0xb85fb707	-5.33378e-05
149	0x3aa5d005	0.0012650496
150	0xb44c4c23	-1.9026679e-07
151	0x341e6d9c	1.4754772e-07
152	0x3788d29c	1.6310536e-05
153	0x3440810f	1.7928345e-07
154	0x35176ab9	5.6407185e-07
155	0xbbd99deb	-0.0066411397
156	0x3c09061e	0.008363275
157	0xbc1fea09	-0.009760388
158	0x3afa16bc	0.0019080262
159	0x34abb63a	3.198382e-07
160	0xb5c2a3dc	-1.4501816e-06
161	0xbacaecf5	-0.0015481996
162	0xb3a25d99	-7.560738e-08
163	0xb60bcd0f	-2.0831974e-06
164	0xbc41485e	-0.011797039
165	0x3788afde	1.6294358e-05
166	0xbb54ad28	-0.0032451842
167	0x35d33d92	1.5738644e-06
168	0x361866c5	2.2709585e-06
169	0x339b7147	7.238355e-08
170	0xb6ca3d45	-6.027202e-06
171	0xb7863b76	-1.6001733e-05
172	0x3b1bed49	0.0023792556
173	0x364cad6d	3.0499316e-06
174	0xb7373ab5	-1.0921319e-05
175	0xba87ebb0	-0.0010369923
176	0x3c47f65b	0.012204732
177	0xb54ccb90	-7.6292145e-07
178	0xb5b3c0e4	-1.3392678e-06
179	0x3546b70a	7.4027105e-07
180	0xb834684c	-4.301248e-05
181	0xbbc8ddda	-0.0061299624
182	0x3182a326	3.802046e-09
183	0xb0950db2	-1.0845069e-09
184	0xbb315c0f	-0.0027062928
185	0xaff96765	-4.5366302e-10
186	0x35d353db	1.574513e-06
187	0x3b904777	0.0044030505
188	0xb8cd23f8	-9.7818614e-05
189	0xbbc77d46	-0.006087932
190	0xb08b8e7c	-1.0154078e-09
191	0xb00b86ca	-5.075945e-10
192	0xb0bfc5b3	-1.3953269e-09
193	0x3bd55a2a	0.0065109925
194	0xbc497364	-0.012295578
195	0xb16acde3	-3.4168515e-09
196	0xbbc3e274	-0.005977923
197	0xb883830f	-6.270978e-05
198	0xb985f64d	-0.00025551245
199	0xbb756e2f	-0.0037449708
200	0x3c4a75b9	0.012357169
201	0xb7c53f4f	-2.351371e-05
202	0xb1b57233	-5.2807763e-09
203	0xbc17c5a7	-0.009263433
204	0x38e7a1dc	0.00011045087
205	0xbc2c8b13	-0.010531205
206	0xb308997c	-3.180456e-08
207	0x3bb28ed0	0.0054491535
208	0x39ae0025	0.00033187974
209	0xbbc5d20d	-0.006037003
210	0xb299fe3a	-1.7927153e-08
211	0x33ab6105	7.980456e-08
212	0xb39d2196	-7.3169915e-08
213	0x34056ef3	1.2426953e-07
214	0xbc328d51	-0.01089795
215	0xbbd244a6	-0.006416875
216	0xbbe62ed6	-0.0070246262
217	0x3abd7374	0.0014453963
218	0xb3e20363	-1.0524561e-07
219	0x397463d3	0.00023306841
220	0xbac66b46	-0.0015138171
221	0xbbaa6136	-0.0051995767
222	0xb322c5cb	-3.7898456e-08
223	0xb8e4942f	-0.000108994886
224	0x39c564d9	0.00037649905
225	0x3bad9cce	0.0052982336
226	0xb493df0f	-2.754318e-07
227	0x3ba22792	0.004948565
228	0x3b837695	0.004011939
229	0x38da72dc	0.00010416444
230	0xb7e8db74	-2.7758746e-05
231	0x3ba073de	0.004896625
232	0xb57e836b	-9.481361e-07
233	0x3be3e6bd	0.0069549964
234	0x3b83ebd8	0.0040259175
235	0xb497641d	-2.8198784e-07
236	0x370cde0d	8.3963505e-06
237	0xb4888893	-2.5431345e-07
238	0x39d2800b	0.0004014972
239	0x3982b07f	0.00024927032
240	0xb5985863	-1.1350606e-06
241	0x3c179255	0.009251197
242	0xb36b77b7	-5.482408e-08
243	0x3b42e634	0.0029739263
244	0xb51c8ccb	-5.831941e-07
245	0x385333f7	5.0354716e-05
246	0xb5366228	-6.794312e-07
247	0x34ebd4e9	4.3927074e-07
248	0x35e555a1	1.7086751e-06
249	0xba4d722c	-0.00078371423
250	0xb76d02e3	-1.4126973e-05
251	0x3c1b12e7	0.009464956
252	0xb57d2092	-9.429724e-07
253	0x35635177	8.4682637e-07
254	0x35f6b6fb	1.8381683e-06
255	0xb4819546	-2.4136733e-07

lstm.bias_ih_l0 f4 [80]
0	0x38a1d9a9	7.7176206e-05
1	0x38147c43	3.5401677e-05
2	0xb7b727ce	-2.1833835e-05
3	0x38563611	5.107193e-05
4	0x37644e6f	1.3608121e-05
5	0xbc19d6ac	-0.009389561
6	0x3c35256d	0.011056286
7	0x385dbd2f	5.2866697e-05
8	0x3955c5e6	0.00020386986
9	0xbb3dbc97	-0.002895152
10	0x3be07c26	0.006850737
11	0x3c12b85d	0.008955088
12	0xbbcc029c	-0.006225897
13	0x3936c209	0.00017429156
14	0x39878399	0.00025847254
15	0x3a457861	0.00075328915
16	0x370743c5	8.062406e-06
17	0x37fcf762	3.0155938e-05
18	0x3928747c	0.00016065122
19	0x3ab27da0	0.0013617761
20	0x3a845767	0.0010096849
21	0x3b4859bd	0.0030571066
22	0xbc2db879	-0.010603064
23	0x3839a585	4.426159e-05
24	0xbbd28526	-0.006424564
25	0x378a0d00	1.6456936e-05
26	0x3aa56f9f	0.0012621767
27	0x3b6cfb5a	0.003616056
28	0x39468b8b	0.00018934735
29	0x3309c4a9	3.207666e-08
30	0x373900b8	1.1027027e-05
31	0x388c0e54	6.678389e-05
32	0x39110956	0.00013831755
33	0xbab8470a	-0.0014059257
34	0x39c52a1d	0.00037606145
35	0x372c8604	1.0283202e-05
36	0x37663b7c	1.3722918e-05
37	0x37babc11	2.2260503e-05
38	0xbacbdb09	-0.0015552948
39	0x36f4d672	7.2967314e-06
40	0xbc2c3525	-0.0105107175
41	0x3bbe186a	0.00580125
42	0x3a21c9c4	0.0006171728
43	0xbb464072	-0.0030250815
44	0xbb5c0e5a	-0.003357789
45	0xbbc72451	-0.0060773273
46	0xbbb09eec	-0.0053900387
47	0x3b9539ab	0.0045539937
48	0x3c737c8d	0.014861238
49	0x39d42b4f	0.00040468058
50	0xbbafc1a0	-0.005363658
51	0x3be0aaaf	0.0068562846
52	0xbc3927ee	-0.011301024
53	0x3c03277c	0.008005019
54	0x3c49e4fe	0.012322662
55	0xbb274ca8	-0.0025527868
56	0x3b62a700	0.0034584403
57	0xbbc19312	-0.0059074247
58	0xbbff0025	-0.0077819997
59	0x3af6daef	0.0018833558
60	0xb8876bef	-6.457406e-05
61	0x3821ebf8	3.8605154e-05
62	0xbb98be58	-0.0046613626
63	0x38168c74	3.5893594e-05
64	0x37877471	1.6147476e-05
65	0xbb92f6c9	-0.0044849855
66	0x37f79000	2.951175e-05
67	0x37b90567	2.2056234e-05
68	0x39a4c6f9	0.00031428764
69	0x3a903320	0.0011001565
70	0x37d20658	2.5036905e-05
71	0x3898ca74	7.285635e-05
72	0xbc336c35	-0.010951092
73	0xbc2f178f	-0.010686769
74	0x397533f2	0.00023384372
75	0xbc2d7900	-0.010587931
76	0x3c10194b	0.008795093
77	0xb99df836	-0.00030130305
78	0x38394703	4.4173572e-05
79	0x36de260f	6.620546e-06

lstm.bias_hh_l0 f4 [80]
0	0x3862a2b2	5.403412e-05
1	0x38749eeb	5.8322137e-05
2	0xb52b1511	-6.373312e-07
3	0x384ce29d	4.884844e-05
4	0xbac99839	-0.0015380449
5	0x3a5b6b79	0.00083702017
6	0x3a77afa7	0.00094484765
7	0x3809feb7	3.2900567e-05
8	0x394339ae	0.00018618137
9	0x33a2d5e8	7.582622e-08
10	0xb89ac22c	-7.3794596e-05
11	0xba7ed82a	-0.0009721542
12	0x39350333	0.00017262697
13	0x3ac2d193	0.0014863483
14	0x396d1413	0.0002260956
15	0x3b9c3b47	0.0047678086
16	0x3b5ba4ba	0.0033514933
17	0xbb41528b	-0.0029498662
18	0xb89169e1	-6.93386e-05
19	0x39cf73f4	0.00039568509
20	0x392c2ddc	0.00016420282
21	0xbc1f5c5a	-0.009726608
22	0xb56a18ed	-8.7208065e-07
23	0x38405bcc	4.586186e-05
24	0x3752a9e3	1.255653e-05
25	0x376937a7	1.390084e-05
26	0xbb818321	-0.0039523994
27	0x3a9479d5	0.0011327813
28	0xbc1d53b0	-0.009602472
29	0x34090a7f	1.2762938e-07
30	0xb88a32fb	-6.5898486e-05
31	0x3866f2fa	5.5062563e-05
32	0x393bf5f2	0.00017925331
33	0x3bca8d13	0.006181368
34	0xb9ba83fe	-0.00035575026
35	0x36d3cf02	6.312389e-06
36	0x36c4ab22	5.8611777e-06
37	0xba800bd3	-0.0009769149
38	0x38b87676	8.795869e-05
39	0xbc2244aa	-0.009904066
40	0xbc0bcdac	-0.008532923
41	0x3bc595df	0.006029829
42	0xbaf278ad	-0.0018499099
43	0xbcb04c06	-0.021520626
44	0xbbdb213e	-0.0066873124
45	0xbb50231e	-0.0031759213
46	0xbbaccd96	-0.005273531
47	0x3bc1d913	0.00591577
48	0x3c64eb9e	0.013972191
49	0x39bf869b	0.00036530648
50	0xbbeff00f	-0.0073223184
51	0x3c1da946	0.009622877
52	0xbc2a6c2a	-0.010401765
53	0x3c410552	0.011781054
54	0x3cde4467	0.027132226
55	0xbb273e22	-0.0025519212
56	0x3b18673d	0.0023254894
57	0xbbb32286	-0.005466762
58	0xbc320f86	-0.010867959
59	0x3c24e84a	0.010065148
60	0x38a01995	7.6341596e-05
61	0x38478328	4.7567446e-05
62	0xb55d8656	-8.25244e-07
63	0x3856a666	5.1176547e-05
64	0x3b91e784	0.0044526476
65	0xbb8a9157	-0.0042287516
66	0x3a441c23	0.00074809993
67	0x37b69763	2.1766586e-05
68	0x39330aba	0.00017074766
69	0x3452c9fb	1.9631254e-07
70	0x36fd597e	7.550406e-06
71	0xb8fb4c97	-0.00011982879
72	0x38ebfef1	0.0001125316
73	0x392b31ce	0.00016326385
74	0x393c22de	0.00017942066
75	0xbc1c8b95	-0.009554763
76	0xba58e758	-0.0008274219
77	0x3ab2f98b	0.0013654692
78	0x38b44ba0	8.597155e-05
79	0x371f5d8e	9.498921e-06

lstm.weight_ih_l1 f4 [80, 20]
0	0xba144a32	-0.0005656808
1	0x3a067213	0.0005128693
2	0xb9a1d286	-0.00030865165
3	0xba3c9890	-0.00071943644
4	0xba057e13	-0.0005092334
5	0xb9bc47ee	-0.00035911746
6	0xb9b54acf	-0.00034578747
7	0xbc402e64	-0.01172981
8	0x3a725fa4	0.0009245819
9	0x38a10874	7.678653e-05
10	0xb9ee906d	-0.00045502503
11	0x3a3aef0c	0.00071309577
12	0xba3e106e	-0.0007250373
13	0x3a540ca7	0.00080890435
14	0x3ad7408c	0.0016422435
15	0xb94fd9ac	-0.00019822147
16	0x398a7a6f	0.0002641263
17	0x3b8adbb0	0.0042376146
18	0xba24a452	-0.0006280589
19	0xbb7ec4a6	-0.0038874536
20	0xb9ecd17d	-0.0004516951
21	0x395d6b6c	0.0002111622
22	0xb8533a05	-5.0360355e-05
23	0xba161776	-0.0005725542
24	0xb94dfd3a	-0.00019644658
25	0xb97cd353	-0.00024111317
26	0xb98dd84b	-0.00027054767
27	0xba410eee	-0.00073645904
28	0x3a1a80ff	0.00058938557
29	0xbba76889	-0.005108897
30	0xb997c475	-0.00028947336
31	0xbc358e95	-0.0110813575
32	0xbb0ef359	-0.0021812527
33	0xbb65a093	-0.0035038337
34	0xbc053fab	-0.008132855
35	0xb99cd220	-0.00029911194
36	0x391973ef	0.00014634406
37	0x3c00f52b	0.007870953
38	0x3ad7c8e2	0.0016463066
39	0x39c7db54	0.0003811965
40	0xb9f96ac1	-0.0004757252
41	0xbb971e62	-0.004611776
42	0xba8d940f	-0.0010801571
43	0xba142a65	-0.0005652069
44	0xbb1d74d2	-0.002402593
45	0x3ba09385	0.004900398
46	0xba37db65	-0.00070135883
47	0x39e01eac	0.00042747462
48	0x3a435708	0.00074516283
49	0x3bf1dea2	0.007381276
50	0xb9868167	-0.00025654884
51	0x39ddb5f3	0.00042287968
52	0xba39e38b	-0.00070910965
53	0x397d1e12	0.00024139162
54	0x3a871f96	0.0010309096
55	0xb8eea74e	-0.00011379887
56	0x390a0c2c	0.0001316524
57	0xb9cd88f2	-0.0003920268
58	0xbba0f76f	-0.004912309
59	0x398feb4f	0.00027450404
60	0xb9a8f270	-0.00032224087
61	0x39731b72	0.0002318451
62	0xb78c6684	-1.6737038e-05
63	0xb9cab2a4	-0.0003866154
64	0xb930ca7b	-0.00016860098
65	0x394fd654	0.00019820902
66	0xb93cb24a	-0.00017995495
67	0x392a596b	0.00016245774
68	0x39d9882a	0.00041490915
69	0x38162b92	3.5803365e-05
70	0xbb969382	-0.004595221
71	0x3991aa81	0.0002778359
72	0xb9c5abd3	-0.00037702787
73	0x3a972063	0.0011530038
74	0x3b828f9c	0.0039844047
75	0x3bcb30e9	0.006200899
76	0x38e87a6c	0.00011085425
77	0xb977235f	-0.00023568932
78	0x3ba021a7	0.004886824
79	0x395b2d3f	0.00020902323
80	0xba9eba4f	-0.0012109968
81	0x39f48246	0.00046636368
82	0xbc1bb309	-0.0095031345
83	0xba82e9da	-0.0009987906
84	0xbb427181	-0.0029669704
85	0xbb1b13be	-0.002366289
86	0xb9c8e1fe	-0.0003831535
87	0x39c07e35	0.00036715125
88	0x3aa1c173	0.0012340978
89	0x37d74fd5	2.5667172e-05
90	0xbb97d5be	-0.0046336344
91	0x3b1c9d3d	0.0023897432
92	0xba87ecd7	-0.0010370266
93	0xbab0c644	-0.0013486822
94	0x3b152d03	0.0022762425
95	0x3b98e078	0.0046654306
96	0x394f558a	0.00019772924
97	0x3b233c69	0.0024907833
98	0xba3015cb	-0.00067171146
99	0x3a5ee951	0.0008503395
100	0xba88a8a7	-0.0010426239
101	0x3b267cf5	0.002540407
102	0xb8169802	-3.5904355e-05
103	0xba40a206	-0.0007348362
104	0xb990a8e5	-0.00027591657
105	0x3a0463ef	0.00050502917
106	0xb990c715	-0.00027614148
107	0xbc23aa4b	-0.0099893315
108	0x3bacc123	0.005272047
109	0x3ba8119e	0.0051290533
110	0xba65d425	-0.0008767269
111	0x3c2ed942	0.0106719155
112	0x37e27fbb	2.7000779e-05
113	0x3c445730	0.011983678
114	0x3bdc4ff4	0.0067233983
115	0xb929f186	-0.0001620707
116	0x396752a5	0.00022060664
117	0xb9e85f6b	-0.0004432158
118	0xbb023f2b	-0.0019874077
119	0x3b7affdb	0.0038299474
120	0xbba25c17	-0.0049548256
121	0x3bec175c	0.007204933
122	0xb87e5195	-6.06343e-05
123	0xba7d1b7f	-0.00096552813
124	0xb9de9b06	-0.0004245864
125	0xb9c3acf4	-0.00037322158
126	0xb985be62	-0.00025509583
127	0xbc42aa63	-0.011881444
128	0x3a8c19d3	0.0010688849
129	0x383b0013	4.4584343e-05
130	0xbc185c76	-0.009299388
131	0xbbe8cae1	-0.007104263
132	0xba3f1c68	-0.00072903046
133	0x3bfc0b90	0.007691808
134	0x3c1de96b	0.009638171
135	0x3c1014a3	0.008793983
136	0x3c44bc1b	0.012007738
137	0xbb3b11b9	-0.00285445
138	0xba9baea8	-0.0011877613
139	0x3ab91af8	0.0014122417
140	0xb9f1f09a	-0.00046146364
141	0x3c2ed0db	0.010669912
142	0xb896f50f	-7.198203e-05
143	0xba090bcc	-0.0005227893
144	0xb9d3fcc9	-0.00040433396
145	0xb9706a94	-0.00022927887
146	0xb98891ea	-0.00026048656
147	0xbbf87873	-0.007582718
148	0x3a376c21	0.00069970085
149	0xbc34d976	-0.011038175
150	0xb9c70811	-0.00037962248
151	0x39d7eecc	0.00041185913
152	0xba5614fe	-0.000816658
153	0x39fc8822	0.00048166612
154	0x3a58744e	0.0008257077
155	0xbadf9ff4	-0.001706122
156	0xbb44bfd2	-0.003002156
157	0xbb6aae92	-0.0035809618
158	0xb9ad579f	-0.00033062414
159	0x398ecf67	0.00027238877
160	0xba3ef02d	-0.0007283714
161	0x3a5c9132	0.000841397
162	0x3b054d5f	0.0020340306
163	0xba8768c2	-0.0010330903
164	0xba0b0273	-0.0005302794
165	0x3b64e344	0.00349255
166	0xbc2c82ca	-0.010529229
167	0x3c372787	0.011178858
168	0x3c1fa88f	0.009744777
169	0x38fd27b5	0.00012071376
170	0xba093a83	-0.0005234854
171	0xb89d4ea8	-7.500994e-05
172	0xba9a8c66	-0.001179111
173	0x3a70671c	0.0009170638
174	0x3afa5b0d	0.0019100622
175	0xb94c5019	-0.00019484795
176	0x39851c81	0.00025388974
177	0xbad3f948	-0.0016172314
178	0xbb657e5b	-0.003501794
179	0x3a21d956	0.0006174048
180	0xba4e5e88	-0.00078723626
181	0x3c210ba8	0.009829439
182	0xb88c4389	-6.6882996e-05
183	0xba623111	-0.0008628527
184	0x3abf876f	0.0014612506
185	0xb98013cf	-0.0002442882
186	0x3be4c35c	0.0069812965
187	0x3c474791	0.012163059
188	0x3a84864b	0.0010110823
189	0x3bc21b44	0.0059236605
190	0xb9b6168b	-0.0003473054
191	0xb8f59d41	-0.00011711801
192	0xbac7b80f	-0.0015237349
193	0x3a473808	0.0007599597
194	0x3aa4092b	0.0012514939
195	0x3bd83fd7	0.006599407
196	0x399240a8	0.00027895463
197	0xba26bdc0	-0.00063606724
198	0x3b52e422	0.0032179435
199	0x39b66d4d	0.0003479518
200	0xbaafe28b	-0.0013418955
201	0xb8c716e6	-9.4933246e-05
202	0xbaacdeec	-0.0013188994
203	0x3b8c7ba8	0.004287202
204	0x3c18a00d	0.009315503
205	0xba18db28	-0.00058309967
206	0xb9c24b3a	-0.00037058612
207	0x3b2282c9	0.0024797192
208	0xbb992ba9	-0.004674394
209	0x37b33762	2.1364252e-05
210	0xba392b47	-0.0007063639
211	0x3a4b3e98	0.00077531626
212	0xbb6efd91	-0.0036467055
213	0x3ab8ff07	0.001411409
214	0x3b8215b1	0.003969871
215	0xb9770447	-0.00023557349
216	0x3950aa94	0.00019899971
217	0xbc24df3a	-0.010062987
218	0xbb55bc8a	-0.0032613599
219	0x3a3ce3a7	0.00072055537
220	0xba56cf2e	-0.00081943243
221	0x39edd6fc	0.00045364338
222	0xb81c17ec	-3.7215577e-05
223	0xba3f070f	-0.00072871236
224	0xb9e43501	-0.0004352704
225	0x3990b115	0.00027597757
226	0xbc161865	-0.00916109
227	0x399bc6d1	0.00029712034
228	0x3a715887	0.0009206612
229	0xbbb86dba	-0.005628315
230	0xba60ca67	-0.0008575082
231	0x3a1ead6e	0.0006053065
232	0x3a1d8f29	0.0006010407
233	0x3a146b92	0.0005661781
234	0x3a9a2613	0.0011760615
235	0xb91648d4	-0.00014332245
236	0x38498e12	4.8054448e-05
237	0xb9f3ca49	-0.00046499286
238	0xba35ed71	-0.00069399836
239	0x39a91042	0.00032246305
240	0xb9840007	-0.00025177022
241	0x394c6364	0.00019491982
242	0xba811893	-0.0009849243
243	0xb995642b	-0.00028494126
244	0xb8f66b6d	-0.00011750204
245	0xbc22f893	-0.00994696
246	0xb8caa974	-9.663674e-05
247	0x3b030df1	0.0019997323
248	0x39b6186b	0.00034731938
249	0x37c8799f	2.3898492e-05
250	0xb94aab35	-0.00019328001
251	0x39aa253f	0.00032452677
252	0xb98e3a8e	-0.00027127977
253	0x39871643	0.00025765793
254	0x39e91cde	0.0004446273
255	0xb8882c6a	-6.493258e-05

lstm.weight_hh_l1 f4 [80, 20]
0	0xbcdbd5d7	-0.026835365
1	0xbcd88589	-0.026430862
2	0x3ca85cca	0.020552058
3	0x3c6dc037	0.01451116
4	0xbd001f6b	-0.031279963
5	0xbccdfc6e	-0.025144782
6	0x3ce361cc	0.027756594
7	0xbb902f24	-0.004400151
8	0x3d09c606	0.033636115
9	0x3ce1e75d	0.027576143
10	0x3ce5db60	0.028058708
11	0x3ccef035	0.025261024
12	0xbc180a86	-0.009279853
13	0xbc276b99	-0.010218524
14	0x3c71b1b7	0.014751843
15	0xbceaa395	-0.028642455
16	0xbca6557d	-0.020304436
17	0x3c884c33	0.016637897
18	0x3cdb3059	0.026756452
19	0xbd1b3ecc	-0.037901685
20	0xbc9d9c95	-0.019239703
21	0xbc684d54	-0.014178593
22	0x3c6031eb	0.013683776
23	0x3c376b9c	0.01119509
24	0xbcb00d97	-0.021490855
25	0xbc98e54e	-0.018664028
26	0x3b717657	0.0036844218
27	0x3b3c041f	0.002868898
28	0x3ca8be73	0.020598626
29	0x3c9f2355	0.019426027
30	0x3cad9b90	0.021192342
31	0x3c89a3cb	0.016801735
32	0xbc0da55b	-0.008645381
33	0xbbb789ad	-0.005601129
34	0x3c289d8a	0.0102914665
35	0xbc9db64a	-0.019251961
36	0xbc632181	-0.013862968
37	0x3c478881	0.012178541
38	0x3c9819e0	0.018567026
39	0xbca6da7b	-0.020367851
40	0xbcbbbdcb	-0.022917649
41	0xbc3703fa	-0.011170382
42	0x3c729ba8	0.014807619
43	0x3c29af91	0.0103568
44	0xbcc05adf	-0.02348083
45	0xbc9ff19c	-0.019524388
46	0x3cb1050c	0.021608852
47	0xbc991ac6	-0.018689524
48	0x3cc8e4d6	0.02452318
49	0x3ca730ff	0.020409105
50	0x3ca6255c	0.020281486
51	0x3c9456d1	0.018107804
52	0xbc1ec9ff	-0.009691714
53	0xbc7efb4a	-0.015562842
54	0xbba7acc6	-0.0051170317
55	0xbca7b4d5	-0.02047197
56	0xbc663ced	-0.014052612
57	0x3c45f387	0.012081987
58	0x3c9e6819	0.019336747
59	0xbcafe3de	-0.02147096
60	0x3a9a58e4	0.0011775759
61	0xbc0ae35f	-0.008477061
62	0x3c29852e	0.010346694
63	0x3bc86e19	0.0061166403
64	0xbc49fdc2	-0.012328567
65	0xbc3fa9ad	-0.011698169
66	0x3c61eaf8	0.013788931
67	0xbc108be3	-0.008822414
68	0x3c727574	0.014798511
69	0x3c105f9b	0.008811857
70	0x3c5c08ee	0.013429863
71	0x3c4e5913	0.012594479
72	0xbc353ab9	-0.011061364
73	0x3bc756c3	0.006083341
74	0x3bdd7e77	0.0067594605
75	0xbc57bd01	-0.013167621
76	0xbc1a17e5	-0.009405111
77	0x3c0c2a3c	0.008554991
78	0x3c56ec45	0.0131178545
79	0xbc6784cd	-0.014130783
80	0xbccad485	-0.02475954
81	0xbcbeb015	-0.023277322
82	0x3ce1b5ca	0.027552504
83	0x3c92553f	0.017862914
84	0xbd142bfd	-0.036174763
85	0xbc63d964	-0.01390681
86	0x3d12ea38	0.0358679
87	0xbcb9c0d8	-0.022674963
88	0x3d25adec	0.040449068
89	0x3cbead7e	0.023276087
90	0x3d026fb0	0.031844795
91	0x3cf47e23	0.029845303
92	0xbcbfa661	-0.023394765
93	0xbc2e9a8d	-0.010656965
94	0x3c63fe62	0.01391563
95	0xbd040ec2	-0.032240637
96	0xbcd7184f	-0.026256708
97	0x3ca1e6a9	0.019763308
98	0x3d03f376	0.032214604
99	0xbd1e55de	-0.038656108
100	0xbcdefa32	-0.027218912
101	0xbca35ccb	-0.019941708
102	0x3ca69bdb	0.02033799
103	0x3c7cca30	0.015429065
104	0xbd01e00f	-0.03170782
105	0xbca4c2c5	-0.020112405
106	0x3cf2c40e	0.029634502
107	0xbc9dc2bd	-0.019257898
108	0x3d070198	0.032960504
109	0x3c8aa8e7	0.016926242
110	0x3caf764c	0.021418713
111	0x3cc5973a	0.024119962
112	0xbc590560	-0.01324591
113	0xbbff1a25	-0.007785099
114	0x3c6e22cf	0.014534666
115	0xbcce081b	-0.02515035
116	0xbca44d82	-0.02005649
117	0x3cd2aecd	0.025718117
118	0x3cd7a2b2	0.026322696
119	0xbcf288ca	-0.029606242
120	0xbd03ba1c	-0.03215991
121	0xbcb3b46e	-0.021936622
122	0x3cb68899	0.022281932
123	0x3c8a0fc6	0.016853224
124	0xbd16944c	-0.03676252
125	0xbcefda22	-0.029278819
126	0x3cfc89cb	0.030827424
127	0xbcacb808	-0.021083847
128	0x3d1a8a4b	0.037729543
129	0x3d1b00e1	0.037842635
130	0x3cf85873	0.030315613
131	0x3cd8a7d9	0.026447223
132	0xbc6c1bb6	-0.014410904
133	0x3b81dc16	0.003963004
134	0x3c77ea01	0.0151314745
135	0xbcfe2911	-0.031025441
136	0xbcb3bc89	-0.021940487
137	0x3c183aaf	0.009291335
138	0x3c93e9e7	0.01805587
139	0xbd026afe	-0.031840317
140	0xbc96d6a1	-0.01841289
141	0xbc88353c	-0.016626947
142	0x3c64edeb	0.01397274
143	0x3bb3bad1	0.0054849167
144	0xbcad4abc	-0.0211538
145	0xbc8c7d09	-0.017149465
146	0x3c84e14c	0.016220711
147	0xbc8c2528	-0.017107561
148	0x3cba8f5e	0.02277344
149	0x3c95d308	0.018289104
150	0x3c9c20fc	0.019058697
151	0x3c8d32c7	0.017236127
152	0xbc117118	-0.008877061
153	0xbbf021ce	-0.0073282486
154	0x3c18cda7	0.009326375
155	0xbb900d6c	-0.0043961313
156	0xbc626ff0	-0.013820633
157	0x3c3f1c4a	0.0116644595
158	0x3c8d5ac7	0.0172552
159	0xbca07db2	-0.019591186
160	0xbd054fb2	-0.032546706
161	0xbcc2eb2e	-0.023793783
162	0x3cd0e9d1	0.025502117
163	0x3c96aec3	0.01839388
164	0xbd2293e0	-0.039691806
165	0xbd058fd5	-0.032607872
166	0x3d1d9f0f	0.03848177
167	0xbcb946bc	-0.022616737
168	0x3d1c916a	0.038224615
169	0x3d0c67b8	0.0342786
170	0x3d0a6097	0.03378352
171	0x3cf87e59	0.030333685
172	0xbc829978	-0.01594232
173	0xbc4633d0	-0.012097314
174	0x3c21978a	0.00986279
175	0xbd12d1f9	-0.035844777
176	0xbcad37fd	-0.021144861
177	0x3ca0234f	0.019548086
178	0x3cff02fa	0.031129349
179	0xbd15693c	-0.036477312
180	0xbcdf5455	-0.027261892
181	0xbcbdbcd8	-0.023161337
182	0x3caf3cc7	0.021391286
183	0x3c84c3df	0.01620668
184	0xbd09e92d	-0.03366964
185	0xbce5effd	-0.028068537
186	0x3d05a558	0.032628387
187	0xbca40df4	-0.020026185
188	0x3d34e088	0.044159442
189	0x3cd17f42	0.025573377
190	0x3cf174b5	0.029474596
191	0x3cdd90ab	0.027046522
192	0xbc66fd4b	-0.014098476
193	0xbc407565	-0.011746739
194	0x3c92fc66	0.017942619
195	0xbcfa8276	-0.030579787
196	0xbc9107db	-0.017703941
197	0x3c90ef15	0.017692128
198	0x3c9b0020	0.018920958
199	0xbd06e4de	-0.03293311
200	0xbce96229	-0.02848919
201	0xbcd0040d	-0.025392557
202	0x3cab638b	0.02092149
203	0x3bdd557e	0.006754576
204	0xbce97117	-0.028496308
205	0xbcc2d26c	-0.023781978
206	0x3d00b782	0.031425007
207	0xbca583f0	-0.020204514
208	0x3d0eaec8	0.034834653
209	0x3cecf726	0.028926443
210	0x3c90482b	0.017612537
211	0x3cd81d7e	0.02638125
212	0xbc62e3d5	-0.013848265
213	0xbc30a8ee	-0.0107824635
214	0x3c79bd36	0.015242865
215	0xbcf20ae2	-0.029546205
216	0xbca8e5ae	-0.020617332
217	0x3c2def24	0.010616098
218	0x3cd6e339	0.026231395
219	0xbcd3a5ea	-0.02583595
220	0xbcce83b9	-0.025209295
221	0xbc939447	-0.01801504
222	0x3bd7727a	0.006574926
223	0x3c662f4a	0.0140493605
224	0xbceef7e8	-0.029170945
225	0xbcc2f532	-0.023798559
226	0x3ceb456a	0.028719623
227	0xbc92ebba	-0.017934669
228	0x3cf7c8c3	0.030247098
229	0x3cc6ba9a	0.0242589
230	0x3cca3665	0.02468414
231	0x3cbdbe29	0.023161964
232	0xbc3afd4c	-0.01141293
233	0xbc0d5fd6	-0.008628806
234	0x3c4dbb16	0.012556812
235	0xbcd733f5	-0.026269892
236	0xbcc200f0	-0.023682088
237	0x3c78135d	0.015141335
238	0x3cc8ddee	0.024519887
239	0xbce73294	-0.02822236
240	0xbc244186	-0.010025388
241	0xbbd9b8e0	-0.0066443533
242	0x3bf940cf	0.0076066027
243	0x3bb71407	0.0055871042
244	0xbc2ce39b	-0.010552312
245	0xba33a847	-0.00068533834
246	0x3c28895b	0.010286654
247	0xbbe6d4ff	-0.007044434
248	0x3c43faec	0.01196168
249	0x3c1e46c0	0.009660423
250	0x3c21ff14	0.0098874755
251	0x3c0cdc70	0.008597478
252	0x3b861cf8	0.004092809
253	0xbb71d9a1	-0.0036903399
254	0x3b9aba6e	0.004721931
255	0xbc256b46	-0.010096377

lstm.bias_ih_l1 f4 [80]
0	0x3d7fea66	0.0624794
1	0x3d2f7ca4	0.042843476
2	0x3d35c5c1	0.044378046
3	0x3ce611b1	0.028084608
4	0x3d95561d	0.072918154
5	0x3d79cce8	0.06098643
6	0x3d8694bf	0.0657134
7	0x3d29b0c7	0.041428354
8	0x3da4f5fb	0.080547296
9	0x3d833bc8	0.06407887
10	0x3d804259	0.06262655
11	0x3d66dd31	0.05636329
12	0x3b28ecf4	0.0025776
13	0x3c9d3cca	0.019194026
14	0x3cc263be	0.023729201
15	0x3d888b2e	0.066671714
16	0x3d2bfba1	0.04198802
17	0x3d09ad3e	0.033612482
18	0x3d7c9622	0.061666615
19	0x3d6df4d1	0.058094803
20	0x3dbb9edc	0.091611594
21	0x3d4ff12b	0.050767105
22	0x3d58319f	0.052781697
23	0x3d10fe9e	0.035399072
24	0x3dfafbec	0.122550815
25	0x3db26acf	0.08711778
26	0x3dd605a1	0.104502924
27	0x3d3c7d83	0.046018135
28	0x3e03d063	0.12872462
29	0x3dc533a2	0.09628989
30	0x3dc14ca9	0.0943845
31	0x3d9ed14f	0.07754766
32	0x3bfbaeb3	0.007680738
33	0x3b9fb2f5	0.0048736283
34	0x3cccd875	0.025005559
35	0x3dc35102	0.095369354
36	0x3d59e3aa	0.053195633
37	0x3d1753a5	0.036945004
38	0x3da405d1	0.08008922
39	0x3dd8f9b1	0.105945
40	0xbe14677c	-0.14492601
41	0xbdf31ad2	-0.1187035
42	0x3dff9d8f	0.12481224
43	0x3ddbdabc	0.1073508
44	0xbe401f73	-0.18761997
45	0xbe1b684e	-0.15176508
46	0x3e2d274b	0.1690952
47	0xbdd8cdbe	-0.10586117
48	0x3e122175	0.14270575
49	0x3d27832e	0.040896587
50	0x3e0ba9ae	0.13638946
51	0x3e0ca5f0	0.13735175
52	0xbdb1426e	-0.086552486
53	0xbd6dfbe5	-0.058101553
54	0x3d85a66b	0.06525882
55	0xbe1b73cc	-0.15180892
56	0xbdf96244	-0.12176946
57	0x3d8a5091	0.06753648
58	0x3e139e48	0.14415848
59	0xbe1be9bf	-0.15225886
60	0x3dbfb206	0.09360127
61	0x3d1d6265	0.038423914
62	0x3d6733ec	0.056446
63	0x3cefeb88	0.029287115
64	0x3e0894f6	0.13338074
65	0x3db94adc	0.090474814
66	0x3de96e9f	0.113980524
67	0x3d57bc94	0.052670076
68	0x3e10ffd7	0.14160095
69	0x3d89550c	0.067056745
70	0x3dcad31f	0.099035494
71	0x3da7e7de	0.08198522
72	0x3ccd196d	0.025036538
73	0x3c546164	0.012962673
74	0x3cc7fd91	0.024412902
75	0x3dcf8e06	0.10134511
76	0x3d64c9a6	0.05585637
77	0x3d1fb3c1	0.038989786
78	0x3db78af2	0.089620486
79	0x3dea3613	0.11436095

lstm.bias_hh_l1 f4 [80]
0	0x3d5fca71	0.054636423
1	0x3d26cc7c	0.040722355
2	0x3ce4d4df	0.027933536
3	0x3cd68fe4	0.02619166
4	0x3d7ed646	0.062216066
5	0x3d818827	0.06324797
6	0x3d8b7f7e	0.068114266
7	0x3d1d574b	0.038413327
8	0x3d9c2918	0.076250255
9	0x3d6e5987	0.05819085
10	0x3d8310b6	0.06399672
11	0x3d411cc5	0.047146577
12	0x3b7cdc03	0.0038583286
13	0x3c5003fd	0.012696263
14	0x3cd51727	0.026012016
15	0x3d81c17c	0.06335732
16	0x3d2fdffe	0.042938225
17	0x3d0db59b	0.03459702
18	0x3d759512	0.059956618
19	0x3d97aba9	0.074057885
20	0x3da3b29a	0.0799305
21	0x3d5824ed	0.05276959
22	0x3ccf06e6	0.025271844
23	0x3d03589e	0.032066934
24	0x3df3915b	0.11892959
25	0x3d9a884b	0.07545527
26	0x3dce155e	0.10062669
27	0x3d4e98a2	0.05043853
28	0x3e03ad4b	0.12859075
29	0x3dc9fcbd	0.09862659
30	0x3dbf316e	0.093356
31	0x3d9d8f56	0.07693355
32	0x3ca7c7f2	0.020481084
33	0x3c4bcb9a	0.012438679
34	0x3cc8158b	0.024424335
35	0x3dc49310	0.095983624
36	0x3cd57587	0.026057018
37	0x3d23149f	0.039814588
38	0x3d9cddff	0.0765953
39	0x3d63a9ea	0.055581965
40	0xbe14cd39	-0.14531411
41	0xbdf6caf1	-0.12050427
42	0x3dfa64cc	0.12226257
43	0x3d4cc674	0.049993947
44	0xbe2304bb	-0.15919773
45	0xbe1bf03e	-0.15228364
46	0x3df777ab	0.12083372
47	0xbd95b44b	-0.07309779
48	0x3e3786c0	0.17922497
49	0x3e478054	0.19482547
50	0x3e24c485	0.16090591
51	0x3e0c81cc	0.13721389
52	0xbdbaf3aa	-0.091285065
53	0xbd8b92ef	-0.06815135
54	0x3dc58a10	0.09645474
55	0xbe1b4476	-0.15162835
56	0xbdf14276	-0.117802545
57	0x3df011e0	0.117221594
58	0x3e1111fc	0.14167017
59	0xbe3990b4	-0.18121606
60	0x3dbef5eb	0.09324249
61	0x3d5d2dfb	0.05399893
62	0x3d55ca3b	0.052194815
63	0x3d0e8226	0.034792088
64	0x3e07d17e	0.13263509
65	0x3dbc603a	0.09198041
66	0x3dd8b36d	0.10581098
67	0x3d40a6b4	0.04703398
68	0x3e136502	0.14394
69	0x3dcc64cb	0.09980162
70	0x3dc955d4	0.098308235
71	0x3d5f3974	0.05449815
72	0x3b9b4fba	0.0047397288
73	0x3c51861f	0.012788325
74	0x3cd9b1c7	0.026574029
75	0x3dcf6391	0.10126413
76	0x3d5e6e24	0.054304257
77	0x3ca40e5d	0.02002638
78	0x3db47011	0.088104375
79	0x3df46c41	0.1193471

fc.weight f4 [90, 20]
0	0xbd0ddfe1	-0.034637336
1	0xbcd3b6aa	-0.025843937
2	0x3cd2fef7	0.025756342
3	0x3c8271c3	0.015923386
4	0xbd263447	-0.0405772
5	0xbd0b2a6e	-0.03397601
6	0x3d0b74fd	0.034047116
7	0xbcbfc44b	-0.02340903
8	0x3d43de90	0.047819674
9	0x3d17941b	0.03700648
10	0x3d10c775	0.035346467
11	0x3d077b77	0.03307673
12	0xbc139684	-0.009008054
13	0xbc7eb808	-0.015546806
14	0x3c3690c6	0.011142915
15	0xbd14689c	-0.036232576
16	0xbcd2ddb2	-0.025740478
17	0x3caf1800	0.021373749
18	0x3d09c83a	0.033638217
19	0xbd2e29ea	-0.04252044
20	0xbd0ec9a3	-0.034860265
21	0xbcd1888b	-0.025577804
22	0x3cd529eb	0.026020965
23	0x3c614994	0.013750453
24	0xbd273668	-0.04082337
25	0xbd07c85f	-0.033150073
26	0x3d1a8f2c	0.037734196
27	0xbcc4ac12	-0.02400783
28	0x3d2f9188	0.0428634
29	0x3d129e62	0.035795577
30	0x3d10b02c	0.03532426
31	0x3d08ff7e	0.03344678
32	0xbc8baab3	-0.01704917
33	0xbc4e44ac	-0.012589615
34	0x3c9b31d4	0.018944658
35	0xbd16109d	-0.036636937
36	0xbccc1a5d	-0.024914915
37	0x3cb28fbf	0.02179706
38	0x3d0a83f9	0.033817265
39	0xbd1f5b8c	-0.038905665
40	0xbd32612f	-0.043549713
41	0xbd03922c	-0.032121822
42	0x3d1af0c4	0.03782727
43	0x3ccf940e	0.025339153
44	0xbd71bec6	-0.059019826
45	0xbd3afc0e	-0.045650534
46	0x3d42b04b	0.047531407
47	0xbcff8c6f	-0.031194894
48	0x3d7ab62a	0.06120888
49	0x3d41850b	0.04724602
50	0x3d3bd0da	0.045853473
51	0x3cd397f0	0.025829285
52	0xbb766915	-0.0037599255
53	0xbc89c90b	-0.016819498
54	0x3cbd51b9	0.023110257
55	0xbd44f109	-0.04808143
56	0xbd062b94	-0.032756403
57	0x3cd44af7	0.025914652
58	0x3d2ea49a	0.042637445
59	0xbd489854	-0.048973396
60	0xbd0e447a	-0.034733273
61	0xbccd2002	-0.025039677
62	0x3cd294b4	0.025705673
63	0x3ca2928b	0.019845268
64	0xbd294a01	-0.04133034
65	0xbd097526	-0.033558987
66	0x3d1a3a25	0.037653107
67	0xbcc59b79	-0.024121987
68	0x3d2ed9ae	0.042688064
69	0x3d117381	0.035510544
70	0x3d0fb5f3	0.03508563
71	0x3d018327	0.031619217
72	0xbc891e82	-0.01673818
73	0xbc9a6512	-0.018847022
74	0x3cb02dce	0.021506216
75	0xbd1267e0	-0.035743594
76	0xbcd6f98a	-0.026242036
77	0x3cad140e	0.021127727
78	0x3cf78655	0.030215422
79	0xbd1fc652	-0.039007492
80	0xbd23e322	-0.040011533
81	0xbd051bae	-0.0324971
82	0x3d05ea19	0.032693956
83	0x3ccb2875	0.024799565
84	0xbd73edb2	-0.059552856
85	0xbd1ab146	-0.037766717
86	0x3d175510	0.036946356
87	0xbcf8e402	-0.03038216
88	0x3d58baf9	0.052912686
89	0x3d38a9dc	0.045083866
90	0x3d48be70	0.04900974
91	0x3d22ffbd	0.039794672
92	0xbcac6c77	-0.021047814
93	0xbc87c4d6	-0.01657335
94	0x3cbf16fe	0.023326393
95	0xbd4a9eab	-0.049467724
96	0xbd07eb51	-0.0331834
97	0x3cde0ad7	0.027104778
98	0x3d2d4c4c	0.04230909
99	0xbd3f04a9	-0.046635304
100	0xbd0f6170	-0.035005033
101	0xbcd5cb1d	-0.026097829
102	0x3cd7d79b	0.026347926
103	0x3cde4a55	0.027135054
104	0xbd2a2c2e	-0.04154604
105	0xbd0e898d	-0.034799147
106	0x3d22b960	0.03972757
107	0xbc818eb4	-0.015815116
108	0x3d317224	0.043321744
109	0x3d14890f	0.03626352
110	0x3d114e4a	0.035475053
111	0x3d040947	0.03223541
112	0xbc77c4c6	-0.015122598
113	0xbc885edf	-0.0166468
114	0x38695ebd	5.563976e-05
115	0xbd2cdb7a	-0.042201497
116	0xbceee45b	-0.029161623
117	0x3caea4f0	0.021318883
118	0x3d0cc027	0.03436294
119	0xbd13474a	-0.03595666
120	0xbcf1d818	-0.029521987
121	0xbcc6b0eb	-0.024254283
122	0x3cd2b90d	0.025723005
123	0x3c94fba9	0.018186407
124	0xbcf98be0	-0.030462205
125	0xbd061a51	-0.03273994
126	0x3d2971da	0.041368343
127	0xbcc3f59c	-0.023920827
128	0x3d244e56	0.04011377
129	0x3d272380	0.04080534
130	0x3d02ecec	0.031964228
131	0x3c95a42d	0.018266762
132	0xbc7d5487	-0.015462047
133	0xbc34a90b	-0.011026631
134	0x3c84bee7	0.01620431
135	0xbd0dda6e	-0.03463214
136	0xbcc41057	-0.023933573
137	0x3afb0dd0	0.0019153897
138	0x3d042f9e	0.032271974
139	0xbd223ef5	-0.03961082
140	0xbd11256d	-0.035436083
141	0xbcd1439f	-0.02554494
142	0x3cda608c	0.026657365
143	0x3ca6fd13	0.020384347
144	0xbd308937	-0.04309961
145	0xbd0cf5f3	-0.034414243
146	0x3d317c09	0.04333118
147	0xbccaeaea	-0.024770219
148	0x3d2f68ab	0.04282443
149	0x3ce2b344	0.027673371
150	0x3d139811	0.036033694
151	0x3d061764	0.03273715
152	0xbb413f7f	-0.002948731
153	0xbc3c58e3	-0.011495802
154	0x3c1eec69	0.009699919
155	0xbd194427	-0.03741851
156	0xbce895b1	-0.02839169
157	0x3c33203f	0.010932981
158	0x3d0d0ef0	0.034438074
159	0xbd270b07	-0.040782
160	0xbcf5d35b	-0.030008009
161	0xbcefb849	-0.029262679
162	0x3cf13eba	0.029448856
163	0x3cc07120	0.023491442
164	0xbd4ed3a9	-0.050494824
165	0xbd1f90a7	-0.03895631
166	0x3d361318	0.044451803
167	0xbce1fd46	-0.02758659
168	0x3d585a36	0.052820407
169	0x3d23c741	0.039984945
170	0x3d29b06e	0.041428022
171	0x3d22cd34	0.03974648
172	0xbc991f54	-0.018691696
173	0xbc11dc85	-0.008902674
174	0x3caec520	0.02133423
175	0xbd41cc69	-0.04731408
176	0xbc74b9bf	-0.014936863
177	0x3cc9fc7d	0.024656529
178	0x3d262f0d	0.040572215
179	0xbd3c16d8	-0.045920223
180	0xbd0b89c2	-0.034066923
181	0xbce470e1	-0.027885856
182	0x3cd0b330	0.025476068
183	0x3c964f05	0.018348226
184	0xbd3668af	-0.044533428
185	0xbd07f24a	-0.03319005
186	0x3d168468	0.036747366
187	0xbcc4111c	-0.02393394
188	0x3d2a3cd1	0.041561905
189	0x3d0d85ce	0.034551434
190	0x3d0bd0de	0.03413474
191	0x3cfff9b2	0.031246994
192	0xbc8577d2	-0.016292486
193	0xbc4fbbf9	-0.0126790935
194	0x3c947dc0	0.018126369
195	0xbd1026d1	-0.03519327
196	0xbccd55ce	-0.025065329
197	0x3ca86bfe	0.020559307
198	0x3d06c6db	0.032904487
199	0xbd289ece	-0.041167073
200	0xbd0de4bf	-0.034641977
201	0xbcd07e90	-0.025450975
202	0x3cd16521	0.025560917
203	0x3c9f8c31	0.019476028
204	0xbd2d5d6e	-0.04232543
205	0xbd07d95a	-0.033166267
206	0x3d13a6ec	0.03604786
207	0xbcc85544	-0.02445472
208	0x3d45e84a	0.04831723
209	0x3d12b25f	0.03581464
210	0x3d0f5fc6	0.035003446
211	0x3ce3d587	0.027811779
212	0xbc55084d	-0.013002467
213	0xbc4366a4	-0.011926327
214	0x3c914a1c	0.017735533
215	0xbd1bb6b7	-0.038016047
216	0xbccbe13e	-0.024887677
217	0x3cb1d651	0.02170864
218	0x3d093996	0.033502184
219	0xbd1b5a79	-0.03792808
220	0xbd243879	-0.04009292
221	0xbcedb489	-0.02901675
222	0x3cf2426c	0.029572688
223	0x3cb4e6de	0.022082742
224	0xbd3c765a	-0.046011306
225	0xbd1b921a	-0.03798113
226	0x3d2eab2a	0.042643704
227	0xbce44be6	-0.027868222
228	0x3d49f432	0.04930515
229	0x3d21788f	0.039421614
230	0x3d2785e1	0.04089916
231	0x3d1991ee	0.037492685
232	0xbc99911a	-0.018745948
233	0xbc66f0ce	-0.014095498
234	0x3ca207bc	0.019779079
235	0xbd2424e7	-0.040074255
236	0xbceecbaa	-0.029149849
237	0x3ccf2e20	0.025290549
238	0x3d20cc06	0.039257072
239	0xbce30f59	-0.02771728
240	0xbd224600	-0.03961754
241	0xbcea2c72	-0.028585646
242	0x3ced2687	0.028949035
243	0x3cb4a2d3	0.022050297
244	0xbd46acb3	-0.048504543
245	0xbd1f1ff4	-0.038848832
246	0x3d40346d	0.046924997
247	0xbcde3b16	-0.027127784
248	0x3d4eb6f9	0.050467465
249	0x3d268453	0.040653538
250	0x3d1d819c	0.038453683
251	0x3d13ec51	0.03611404
252	0xbc8941b1	-0.016754957
253	0xbc5eac56	-0.013590893
254	0x3ca713fc	0.020395271
255	0xbd231f40	-0.039824724

fc.bias f4 [90]
0	0x3d9d96d0	0.07694781
1	0x3d9dfd4b	0.077143274
2	0xbc21423a	-0.00984245
3	0x3d9e5e0d	0.077327825
4	0xba43d25f	-0.00074700074
5	0x3d998132	0.07495345
6	0x3dd002b8	0.101567686
7	0x3da1c78a	0.07899387
8	0x3cfef0f5	0.031120757
9	0x3da005d8	0.078136146
10	0x3d9c26ee	0.07624613
11	0x3d2bfdbc	0.041990027
12	0x3d0b0f9d	0.033950437
13	0x3dc13dd1	0.09435619
14	0x3d1fcc41	0.03901315
15	0x3ca95d6f	0.020674435
16	0x3da22423	0.07917049
17	0x3da1cb03	0.079000495
18	0x3da8f585	0.08249954
19	0x3dc0c7ba	0.09413095
20	0x3d9f272e	0.07771145
21	0x3da04fae	0.07827698
22	0x3d9a91aa	0.075473145
23	0x3d438ca5	0.04774155
24	0x3da25111	0.079256184
25	0x3d9f5cc3	0.07781365
26	0x3d275a14	0.04085739
27	0x3d9fb106	0.077974364
28	0x3bff259f	0.007786467
29	0x3da1e04d	0.0790411
30	0x3da063fe	0.07831572
31	0x3da263cb	0.0792919
32	0x3da5ea3f	0.081013195
33	0x3dc25889	0.09489543
34	0x3d843149	0.06454713
35	0x3d5306a3	0.05152
36	0x3d9f28af	0.07771432
37	0x3d55f25a	0.052233078
38	0x3d8513d2	0.06497921
39	0xbc08745c	-0.0083285235
40	0x3d84fca0	0.06493497
41	0x3d91b27f	0.071141236
42	0x3db0fa47	0.086414866
43	0x3d9b2a6c	0.07576451
44	0x3c041351	0.008061246
45	0x3da5d995	0.08098141
46	0x3db3aae5	0.0877283
47	0x3da5c078	0.08093351
48	0x3da10a09	0.07863242
49	0x3cedfdd6	0.029051702
50	0x3da07f11	0.07836736
51	0x3c781b63	0.015143248
52	0x3b44d3e0	0.0030033514
53	0x3dc5077f	0.096205704
54	0x3d80bddf	0.06286215
55	0x3db15743	0.08659222
56	0x3db1f2f8	0.08688921
57	0x3da2e856	0.07954471
58	0x3da20973	0.079119585
59	0x3da608d5	0.08107153
60	0x3db2b7c2	0.08726455
61	0x3d9cecc9	0.07662351
62	0xbb59605e	-0.0033169012
63	0x3dc40da3	0.095729135
64	0x3da51850	0.08061278
65	0x3bcfc9aa	0.006341179
66	0x3db494b8	0.08817428
67	0x3c703744	0.014661614
68	0x3da54edb	0.08071681
69	0x3c29197e	0.010321019
70	0x3db9d293	0.09073367
71	0x3dc37f3e	0.09545754
72	0x3d9b9f44	0.07598737
73	0x3d3211c5	0.043473978
74	0x3dc467c4	0.09590104
75	0x3da6d6b9	0.08146424
76	0x3da59dd2	0.080867425
77	0x3dadafb2	0.08480777
78	0x3d9013ab	0.07035001
79	0x3da3e6cd	0.08003006
80	0x3da9b7b0	0.08286989
81	0x3da16ec0	0.07882452
82	0x3dc79edf	0.09747099
83	0x3daffe95	0.085934795
84	0x3d99e257	0.07513874
85	0x3d760f56	0.06007322
86	0x3d65168b	0.0559297
87	0x3dbed62a	0.09318192
88	0x3da16666	0.07880859
89	0x3dacfcb3	0.08446636
