backend/model/lstm-CMCM-360-.pth (torch, 53964 bytes, 12 tensors)

conv1.weight f4 [2, 4, 3]
000000 e4 fe fd b6 4b 92 7b b6 3e 9b 28 b7 2a bd a0 b6
       -7.5696607e-06 -3.7487068e-06 -1.00497255e-05 -4.790393e-06
000010 a0 7e c0 bc 8a e7 c7 b6 75 71 b4 3b c6 94 e1 b6
       -0.02349788 -5.957617e-06 0.005506689 -6.722842e-06
000020 d4 a9 52 3b db 52 d4 b6 17 55 a5 b6 c6 4f e0 b6
       0.0032144682 -6.327738e-06 -4.927289e-06 -6.685007e-06
000030 f2 0c 56 3c 31 41 c6 3c 83 45 0a 3b 3a 5b 2d b6
       0.01306461 0.024201008 0.002109856 -2.583211e-06
000040 6c 02 e9 36 1d cf ec b6 ff 5a 8c b6 ac cc 5f bc
       6.944223e-06 -7.0574592e-06 -4.1829185e-06 -0.013659637
000050 39 1f 76 b6 b1 0c dc bb f6 75 2d b6 f2 f9 55 b6
       -3.667503e-06 -0.00671538 -2.5847671e-06 -3.188496e-06

conv1.bias f4 [2]
000000 ff 06 46 b7 fe fa f5 bb
       -1.1803349e-05 -0.0075067272

lstm.weight_ih_l0 f4 [80, 2]
000000 2c 61 3b ba fd 6b 2d 3b 87 52 83 3a a0 36 0b 3b
       -0.00071479636 0.002646207 0.0010019102 0.0021242276
000010 7f b1 23 ba b6 e3 96 3b a9 20 09 b3 c5 94 39 bb
       -0.00062444055 0.004604782 -3.1927502e-08 -0.0028317433
000020 22 79 93 b4 8e eb 63 3b 46 42 cd b5 43 17 38 33
       -2.746902e-07 0.0034777853 -1.5292978e-06 4.2861995e-08
000030 b1 f2 1d 3b f1 b6 96 b6 b8 96 f6 b2 53 23 ad 31
       0.0024100954 -4.4916455e-06 -2.8706708e-08 5.0389786e-09
000040 74 d7 6b b4 f8 95 9e 3b bb 60 e8 b2 54 b8 18 31
       -2.1964462e-07 0.004839655 -2.7052343e-08 2.222369e-09
000050 fd aa 4d b0 50 c8 f8 ad 91 cd b0 38 55 c3 7f 39
       -7.4821555e-10 -2.8283292e-11 8.430624e-05 0.00024391462
000060 0b c2 8c bb f0 3c ba b9 fc 28 cf 35 ff 62 24 33
       -0.0042955927 -0.00035522087 1.543463e-06 3.8274262e-08
000070 41 3b bd b2 f3 9e 60 31 f1 ef 8f bb 5b 4a e8 ba
       -2.2029441e-08 3.2686642e-09 -0.004392617 -0.0017722355
000080 9d f6 95 b7 cf 5a f8 37 1e 35 99 b2 90 97 2c 31
       -1.7877022e-05 2.960619e-05 -1.78357e-08 2.5115447e-09
000090 a5 a4 f8 34 88 82 c9 3a 66 d3 9e b2 74 31 3a bb
       4.6313394e-07 0.0015373984 -1.8489754e-08 -0.0028410824
0000a0 e7 4a 3a bb bb 81 8d b3 24 ca ad b0 00 6f 53 b1
       -0.0028425993 -6.589422e-08 -1.2644858e-09 -3.0767637e-09
0000b0 0b 9b c4 3b 38 e0 92 b4 02 de c8 b2 cf 68 62 31
       0.005999928 -2.735776e-07 -2.3384022e-08 3.2946905e-09
0000c0 fe 8f 5e b4 b5 10 a5 3b b5 89 cd 3b b0 98 a1 b9
       -2.0727745e-07 0.005037392 0.0062725195 -0.00030822074
0000d0 47 02 2b bb f1 5d c5 3a 63 db 66 b3 a7 49 d0 b2
       -0.0026093887 0.0015057904 -5.375058e-08 -2.424788e-08
0000e0 e7 78 56 3a 02 cc b7 32 d9 37 8c bb 8b e4 cb bb
       0.0008181468 2.1396776e-08 -0.0042791185 -0.006222313
0000f0 8d 51 9a ae 16 87 fb b0 9d cc 8a bb d7 12 f2 35
       -7.0175955e-11 -1.8301047e-09 -0.0042358176 1.8035888e-06
000100 9c 3e 25 b1 62 33 df b8 b5 80 e6 b4 42 55 0e 33
       -2.404625e-09 -0.000106430394 -4.2934485e-07 3.3139493e-08
000110 30 b2 b5 38 a1 27 44 b9 05 cf aa 38 e0 28 0b 31
       8.6639426e-05 -0.0001870678 8.144792e-05 2.0250397e-09
000120 e2 b2 06 39 c5 f3 58 30 03 03 16 3a 72 6c 12 3a
       0.00012845875 7.892676e-10 0.00057224947 0.00055856176
000130 1b e1 97 b3 91 ed 8e b2 ca b6 a5 b2 0e 6c 82 b6
       -7.072432e-08 -1.6639008e-08 -1.9291651e-08 -3.886881e-06
000140 d4 a3 ad b7 46 84 68 39 72 cf 63 3a 1b 79 82 b6
       -2.0699496e-05 0.0002217452 0.00086902746 -3.8884004e-06
000150 f9 fb eb b7 8c 8d 28 b9 a1 3e c4 ba c4 07 06 bb
       -2.8131517e-05 -0.00016074459 -0.0014972278 -0.0020451406
000160 37 6c 25 38 67 fb 76 b6 8f 30 2a 39 4e 21 00 3a
       3.943985e-05 -3.6803192e-06 0.00016230553 0.0004887775
000170 00 60 8e bb fe 09 7a bb ff 25 26 b7 5c 97 07 b7
       -0.00434494 -0.0038152928 -9.903218e-06 -8.081868e-06
000180 c2 68 6e 39 f5 61 4e 35 ba 9e 69 b7 e5 8c bc 35
       0.00022736474 7.6883526e-07 -1.3924839e-05 1.4048097e-06
000190 5a ea c5 37 63 72 2d 3b b2 8a 24 b8 28 c7 9d 38
       2.3593358e-05 0.0026465885 -3.9229817e-05 7.523439e-05
0001a0 b2 56 ba b9 0f bf 2b b5 0b 0c 63 3a a5 37 8c 37
       -0.00035541278 -6.398049e-07 0.00086611573 1.6715212e-05
0001b0 66 91 f4 37 f3 20 01 39 5e b7 5b 3a 10 29 66 bb
       2.9154773e-05 0.00012314673 0.0008381511 -0.003511969
0001c0 59 25 dc 36 0d af c8 b4 a8 9d 93 b7 fb 42 6b 36
       6.5608588e-06 -3.738027e-07 -1.759718e-05 3.5056717e-06
0001d0 b5 5f 98 37 a3 2f 61 b6 58 b0 0e 38 b9 23 98 b5
       1.8164379e-05 -3.355534e-06 3.401967e-05 -1.1335279e-06
0001e0 5d 83 28 2f 90 53 2b b1 b8 38 aa b0 5c 59 27 30
       1.532618e-10 -2.4931275e-09 -1.2385248e-09 6.0881233e-10
0001f0 20 b3 a0 3b 2f 6b c9 32 4f cd ca 37 1c 83 60 31
       0.004904166 2.3448221e-08 2.417588e-05 3.2670817e-09
000200 a3 27 36 37 7d ce 9c 32 5b bd 18 b8 eb 7c b4 bb
       1.0857274e-05 1.825469e-08 -3.6415975e-05 -0.0055080554
000210 24 19 1b 3a 87 e4 e4 b9 66 93 f7 b2 db 1c 9f 3a
       0.0005916527 -0.00043657815 -2.8821614e-08 0.0012139337
000220 2a 31 c1 bb 2e 49 0e 34 e5 f2 c3 ba 16 c3 07 39
       -0.0058957534 1.3251403e-07 -0.0014949708 0.00012947278
000230 8e 4a ce af 89 37 c6 3a 01 97 4a b4 2b 40 09 bb
       -3.7524156e-10 0.0015122752 -1.8867651e-07 -0.0020942788
000240 ae fc a2 2f 41 a4 45 39 d0 9d 5f bb e1 0a 2d ba
       2.9647168e-10 0.00018848573 -0.0034121163 -0.00066010474
000250 45 30 66 b3 14 21 80 3a dc 1c 41 b2 e9 84 1b 31
       -5.359495e-08 0.0009775483 -1.124064e-08 2.263102e-09
000260 12 6f 0c b2 75 07 5d bb 9a 78 de b2 0f a2 a6 b7
       -8.174327e-09 -0.0033726369 -2.5899045e-08 -1.9864206e-05
000270 12 dd a7 bb 7b ea c0 32 6f af a9 b3 94 c4 11 b6
       -0.005122789 2.2458371e-08 -7.901587e-08 -2.1721107e-06

lstm.weight_hh_l0 f4 [80, 20]
000000 03 6b a6 2d e4 e5 12 2d 82 ab 86 b6 65 7e 4c bb
       1.8919538e-11 8.350185e-12 -4.0134773e-06 -0.0031203267
000010 bc 81 e0 37 df c7 89 32 59 04 2a 3b fe 50 87 ba
       2.6763293e-05 1.603979e-08 0.0025942533 -0.001032382
000020 c2 fd 7a b0 78 9b e8 a9 b2 98 ca 2b fb f2 c1 32
       -9.131008e-10 -1.0329839e-13 1.4395345e-12 2.2578652e-08
000030 16 73 88 2f 96 0a 4f 3b cd 63 07 ae 51 cc 6b 38
       2.482003e-10 0.0031592003 -3.0784087e-11 5.621865e-05
000040 d1 7c b0 3b ab e5 9a ad 21 ba bd 2e 5e 04 dc b8
       0.005385973 -1.7609766e-11 8.627788e-11 -0.00010491231
000050 0a bc e0 36 fc e5 1f ba dc 8b 88 30 c3 5f 94 ba
       6.697611e-06 -0.0006099639 9.935053e-10 -0.0011320043
000060 a1 f9 9b 3a db cf d4 b0 be 00 02 38 28 24 be 3a
       0.0011899957 -1.5484106e-09 3.0995106e-05 0.0014506625
000070 04 7d b1 b7 e2 9f 8a 2f 35 7c c1 ad 7a 81 80 30
       -2.115826e-05 2.5215657e-10 -2.1996719e-11 9.350025e-10
000080 78 a2 45 b6 e7 b5 73 b1 93 d9 15 b3 24 e0 5f af
       -2.9449857e-06 -3.5464554e-09 -3.488965e-08 -2.0361363e-10
000090 de 73 24 37 b2 0b 57 2f 5f 4a 27 b6 68 c4 72 af
       9.802139e-06 1.9558291e-10 -2.492823e-06 -2.2079549e-10
0000a0 b1 1e 47 38 91 6b 29 3b b6 19 2e b8 f1 35 aa b4
       4.747388e-05 0.0025851468 -4.1508778e-05 -3.1704215e-07
0000b0 0a 0e 72 ba d0 d0 9c b9 1a a7 45 3a 63 50 fe 33
       -0.00092336594 -0.00029910216 0.00075398537 1.1842419e-07
0000c0 a1 6d 40 3b 5b 08 b2 bb 4f 43 36 3a 78 d4 6a 34
       0.002936222 -0.005433125 0.0006952779 2.1870244e-07
0000d0 3e e1 84 3a ff 6a d9 b3 92 eb 43 33 12 76 7f b3
       0.0010137928 -1.01243124e-07 4.5616225e-08 -5.94792e-08
0000e0 60 82 81 ba 18 2c 0a 33 12 11 7a b4 ec d5 fc b2
       -0.0009880774 3.2170732e-08 -2.3289275e-07 -2.9433942e-08
0000f0 2e 68 3d b0 ea 92 2e b8 44 13 c7 32 14 2a b5 39
       -6.890585e-10 -4.1621657e-05 2.317541e-08 0.0003455436
000100 e0 5c 60 b2 6b 34 ac 3b cc 5b 80 39 1f 7f b4 39
       -1.3059633e-08 0.005255272 0.00024482457 0.00034426988
000110 96 73 99 32 b7 b0 70 36 e0 6f 0c b0 0f 10 25 33
       1.7864107e-08 3.5865648e-06 -5.109069e-10 3.843166e-08
000120 58 ca 87 b0 14 fd 14 38 4a e1 b0 31 75 6f 62 b1
       -9.880052e-10 3.5521647e-05 5.1478866e-09 -3.2950684e-09
000130 b1 46 3f b1 65 b2 49 31 fd 01 ca b8 19 88 d5 31
       -2.7834341e-09 2.9350755e-09 -9.632481e-05 6.2145884e-09
000140 a4 b8 44 b2 8b 62 65 b2 2a 57 a5 b6 ff 50 0e 33
       -1.1450684e-08 -1.335196e-08 -4.9275304e-06 3.3135617e-08
000150 44 1b bd b3 fd 9e 4e b4 58 f9 25 3b 19 f3 ea 33
       -8.805958e-08 -1.9243085e-07 0.0025325622 1.0940693e-07
000160 b1 fe 5a 34 23 37 37 34 c4 34 9f b1 43 15 51 34
       2.0395488e-07 1.7063262e-07 -4.633508e-09 1.9472377e-07
000170 76 a7 29 39 69 3a d6 b3 22 d7 56 33 a3 b6 fb b2
       0.0001617948 -9.975776e-08 5.002142e-08 -2.93033e-08
000180 db ac bd b2 bf 36 14 33 58 c7 be b3 ff 9a be b2
       -2.2081101e-08 3.4508727e-08 -8.883825e-08 -2.2189395e-08
000190 1c f6 1f b3 e1 cd 3a b3 67 61 01 35 ee c0 de 39
       -3.7243908e-08 -4.3493745e-08 4.8197984e-07 0.00042486883
0001a0 d9 9c a4 b4 23 9c bd bb 00 db 7b 33 1a fa 16 34
       -3.0661502e-07 -0.005786435 5.863967e-08 1.4060825e-07
0001b0 2d 6c 27 35 84 2e 0f 3b 5d 5b 62 b9 a8 ee 06 35
       6.2369764e-07 0.0021847794 -0.00021587075 5.026618e-07
0001c0 08 84 41 b3 60 9b 6c b4 04 3f c8 b5 f1 97 ba b3
       -4.5056396e-08 -2.2035738e-07 -1.4919501e-06 -8.688938e-08
0001d0 e6 1b cf 3a 4d 56 8d 34 ef c3 55 ba 69 cf 79 39
       0.0015801161 2.632609e-07 -0.00081545016 0.00023823757
0001e0 29 30 4b ba cb 33 9e b7 82 28 6d 31 97 e9 ad 30
       -0.0007751012 -1.8859186e-05 3.4511065e-09 1.2653797e-09
0001f0 c7 2e 2a b1 58 3f db b1 d5 90 0d 2f 8f f3 77 b8
       -2.4764846e-09 -6.38094e-09 1.287533e-10 -5.911622e-05
000200 c7 90 c3 bb 3a 7a dd 30 e9 a5 d5 ae 6f f0 90 31
       -0.0059681865 1.6114605e-09 -9.71559e-11 4.2182857e-09
000210 e4 de 76 af c1 8b 4c b1 21 02 83 30 06 e9 01 bb
       -2.2452756e-10 -2.9765348e-09 9.53211e-10 -0.001982273
000220 06 b6 f3 af 03 c8 fa b6 39 2f ad 3b a7 ea 9b ba
       -4.4330778e-10 -7.473865e-06 0.0052851704 -0.0011895493
000230 87 de 94 b0 08 19 dd b1 f8 d8 0a 33 db 1c bb 31
       -1.0831663e-09 -6.4347923e-09 3.232796e-08 5.445697e-09
000240 fe 24 a9 bb c1 b7 fa b2 c4 6b 2f 33 1c 0c ab 31
       -0.0051618805 -2.9187392e-08 4.0843375e-08 4.9781317e-09
000250 29 e9 10 bb 7b c2 b2 31 0c 38 24 b0 e8 d4 c7 33
       -0.002211163 5.2025917e-09 -5.97425e-10 9.305387e-08
000260 4e ea 3e 3b 27 a3 47 3a 69 90 81 3a a8 4e e5 3a
       0.0029131356 0.0007615559 0.0009884957 0.0017494755
000270 bc a2 8f b1 87 78 80 31 76 18 33 3a fb 8e 3a 38
       -4.1803485e-09 3.7389927e-09 0.0006831953 4.4479017e-05
000280 88 bd af bb f5 42 bb b2 9f ab 43 34 a3 0b 59 bb
       -0.00536317 -2.1800114e-08 1.8223226e-07 -0.0033118508
000290 f1 3a 60 39 f0 63 94 37 c5 d6 f1 ba b7 3c 8c 3a
       0.00021384262 1.7689512e-05 -0.0018450847 0.0010699247
0002a0 1e 68 4f ba df 7b 61 33 5b 3d a9 b1 af 2a 1a b8
       -0.0007911938 5.2499555e-08 -4.9255227e-09 -3.6756213e-05
0002b0 7b 7f 68 b2 a2 88 80 37 97 51 1c ba 8f 3d 14 b3
       -1.3533163e-08 1.5322414e-05 -0.00059630856 -3.4514922e-08
0002c0 c0 1f 3c bb 66 6c 4f 33 a0 78 24 3b 20 66 e2 b8
       -0.0028705448 4.829453e-08 0.0025096312 -0.00010795542
0002d0 0f 4b 75 b0 9c 88 4a 37 96 3c ac 32 1a 5b f6 3a
       -8.9237145e-10 1.2071945e-05 2.0050987e-08 0.0018795461
0002e0 76 7e 94 b2 e8 8b 1a 3a bd 5a 46 b2 c0 44 d7 31
       -1.7286975e-08 0.00058954814 -1.1545748e-08 6.2651395e-09
0002f0 81 67 1b 36 1c 36 73 31 76 0c 5d 38 12 22 03 b4
       2.3157047e-06 3.5391912e-09 5.270211e-05 -1.221272e-07
000300 f2 7b c6 bb e0 5b a0 ba f3 12 ca 31 d9 8f c7 b1
       -0.006057256 -0.0012234412 5.881128e-09 -5.808016e-09
000310 21 d2 8c b1 1f 86 89 3a 24 d8 21 b2 56 af e1 b9
       -4.098425e-09 0.0010492242 -9.420578e-09 -0.0004304598
000320 ef 4a 5a ad 89 3c 73 38 aa 32 8f bb d3 bf b9 37
       -1.2408504e-11 5.7992092e-05 -0.0043700533 2.2143044e-05
000330 ef 61 97 af c1 e0 c7 3a bc 22 45 39 b4 3c 0a 2f
       -2.7536326e-10 0.0015249477 0.00018800324 1.2572593e-10
000340 8b 9b 0a ba 4e 05 83 3b 86 72 27 ad dc 33 43 2f
       -0.000528746 0.003998435 -9.51828e-12 1.7753571e-10
000350 65 79 af ad a2 aa 8e 35 a9 73 fb b9 7d 0c c1 3b
       -1.9949107e-11 1.0629485e-06 -0.00047960624 0.0058913813
000360 7f 43 41 b1 77 ca a2 2e 47 fa 33 3b 37 d5 fc b0
       -2.8123563e-09 7.402872e-11 0.002746241 -1.8396012e-09
000370 cd f9 18 39 7b e6 37 38 ca 91 42 34 c7 8f 47 ba
       0.00014588908 4.384525e-05 1.8120696e-07 -0.0007612672
000380 05 8d ff b3 79 c2 9e b4 42 fb 25 35 20 b6 dc 33
       -1.1900014e-07 -2.957129e-07 6.183292e-07 1.0277677e-07
000390 27 25 2d 35 90 4a 68 34 d6 1e b6 b6 f8 24 ac 34
       6.4501586e-07 2.163381e-07 -5.4276125e-06 3.2064395e-07
0003a0 a1 88 34 3b 5d 69 48 b4 e2 02 10 3a c8 a3 12 b8
       0.0027547257 -1.8664782e-07 0.00054935936 -3.4961646e-05
0003b0 f8 51 fa b9 99 38 cf bb 90 32 b2 b3 d8 af 72 b3
       -0.00047744787 -0.0063238856 -8.297968e-08 -5.6504945e-08
0003c0 99 bc f2 3a 19 05 16 af c0 89 ab ba 60 b2 04 30
       0.0018519341 -1.3644232e-10 -0.0013087317 4.8274806e-10
0003d0 10 55 cf b0 aa 17 e9 b1 80 f3 02 3b 5c c2 a7 bb
       -1.5085408e-09 -6.783883e-09 0.0019981563 -0.005119605
0003e0 c2 19 5c 3b d7 09 15 b8 c5 9b ed b9 91 08 06 33
       0.0033584689 -3.5533532e-05 -0.0004532022 3.1207097e-08
0003f0 f7 d5 9a 30 a9 c1 a9 b8 6c 74 e7 b9 b0 f4 14 b7
       1.1265787e-09 -8.09462e-05 -0.00044146494 -8.878458e-06

lstm.bias_ih_l0 f4 [80]
000000 46 68 2f bb 17 f7 1d 34 af 67 d7 37 10 cc 9f 36
       -0.0026765033 1.4711655e-07 2.5678279e-05 4.7623253e-06
000010 ee 9c 0b 38 54 ba 3d 39 63 8e 0c 35 d0 22 93 36
       3.3286335e-05 0.00018093857 5.2361264e-07 4.384994e-06
000020 f4 ae d9 39 ee bd a9 b8 ec 6c 44 ba 16 b5 34 39
       0.00041519816 -8.093925e-05 -0.0007493037 0.00017233597
000030 a9 5c 92 34 1a 94 aa 3a d4 d2 18 36 13 0b a9 b9
       2.7262038e-07 0.0013014108 2.2772483e-06 -0.00032242443
000040 9e 95 3f 35 80 3f a0 b8 5c 14 27 39 8e c4 2a 3b
       7.1370766e-07 -7.641222e-05 0.00015933946 0.0026057097
000050 3b 84 ba b2 82 77 ff b8 3d 26 12 38 8d 39 44 ba
       -2.1713381e-08 -0.000121816076 3.4844725e-05 -0.00074853824
000060 69 5c 7b 37 14 65 a4 38 b2 1b 6b bb 14 6a a7 36
       1.4982282e-05 7.838957e-05 -0.0035874662 4.989337e-06
000070 c9 25 b3 37 e1 5b 8a 3a 88 90 07 3b 6c cc 46 b9
       2.1356058e-05 0.0010555947 0.0020685513 -0.00018958905
000080 08 bc 66 ba 01 6a ab 37 70 29 83 36 9a 54 e4 3a
       -0.00088018226 2.043415e-05 3.908928e-06 0.0017420233
000090 81 67 59 35 51 4d cb 36 0c 90 67 37 2b bb b5 35
       8.098942e-07 6.0588723e-06 1.38022115e-05 1.3540024e-06
0000a0 f5 b1 02 39 1b a2 c3 b9 47 91 e0 3b 68 40 28 3b
       0.0001246406 -0.00037314076 0.006853256 0.0025673155
0000b0 34 62 a2 bb 29 be 5c bc b1 1e 31 3a 6f bc f8 3a
       -0.0049555544 -0.013473072 0.00067565875 0.0018977056
0000c0 9c 21 07 3c e0 af 17 3b 68 78 61 b9 5c 12 73 3b
       0.008247759 0.00231456 -0.00021502527 0.00370898
0000d0 91 32 c6 b9 2c 5f 80 bb 9d 82 f4 3a c2 b2 5f ba
       -0.00037803178 -0.0039175954 0.0018654648 -0.0008533412
0000e0 94 d7 2a bb f5 a9 94 3a de f8 8d bb 7d 21 8a ba
       -0.0026068436 0.0011342155 -0.004332646 -0.0010538545
0000f0 6f 78 8e 34 2b 83 33 b7 18 3b b7 3a 66 74 11 bb
       2.6537188e-07 -1.0699771e-05 0.0013979403 -0.0022194623
000100 c0 ec 67 bb 3b 08 54 3a c5 99 00 35 62 8a ec 3a
       -0.0035388917 0.00080883846 4.790748e-07 0.0018046612
000110 9a 8d b8 37 7f aa 32 36 5f 21 34 3a cc e5 05 38
       2.2000448e-05 2.6623309e-06 0.0006871428 3.1923686e-05
000120 a6 51 d7 b9 f4 0c 8f 37 e2 9a ad 3b 56 8c b0 35
       -0.00041068828 1.705296e-05 0.0052980045 1.3153865e-06
000130 4c 82 06 3b 6a 91 87 bb 48 c6 09 37 a0 3a b9 35
       0.002052444 -0.0041372078 8.212002e-06 1.3800636e-06

lstm.bias_hh_l0 f4 [80]
000000 7c 73 84 bb d9 54 b0 39 59 b6 10 bb e6 c7 0b 36
       -0.004042087 0.00033632552 -0.0022081344 2.082897e-06
000010 d3 8c de 37 a8 b8 8e 38 00 89 ac b5 2b fb a9 36
       2.6530039e-05 6.8054826e-05 -1.2854871e-06 5.0658323e-06
000020 46 50 c6 37 7e e1 4e 36 3d 86 9c 39 dd c0 26 38
       2.364082e-05 3.0827646e-06 0.00029854654 3.9757102e-05
000030 34 1a 84 b8 59 2d 8d 37 e5 6a 46 b8 7a 4e 96 bb
       -6.299131e-05 1.6829626e-05 -4.7306432e-05 -0.004586992
000040 f6 36 51 35 ff f9 b1 36 7b 9a 60 3b 50 e8 c5 38
       7.7938546e-07 5.3041144e-06 0.0034271765 9.4369636e-05
000050 40 9e df b2 f8 1f 25 34 df 38 a9 37 12 02 ff 3a
       -2.603258e-08 1.5378453e-07 2.0172853e-05 0.0019455573
000060 4c 83 e3 37 4a 17 19 39 72 60 d6 37 76 8f 77 37
       2.7121649e-05 0.00014599893 2.5555699e-05 1.4755749e-05
000070 d6 3c b5 37 9a d8 9b 36 8b 5a 5f bb 1e f0 36 38
       2.160521e-05 4.6445757e-06 -0.0034081067 4.3615808e-05
000080 7e 13 45 3b e7 e3 8d 37 47 84 b7 3a 23 2b 81 36
       0.0030071433 1.6914635e-05 0.0014001214 3.8495214e-06
000090 31 16 6e bb 8f ae 10 39 9e 84 2c 37 5b ba 14 36
       -0.0036329145 0.00013797938 1.0282876e-05 2.2162192e-06
0000a0 22 7c 4f ba ab c0 2c ba 0d 25 c0 3b 8a 1a 95 3a
       -0.00079149206 -0.0006589989 0.005863792 0.0011375707
0000b0 46 6e b6 bb e2 5e 04 bc 83 3e 37 3a 85 df 39 3b
       -0.005567345 -0.008079262 0.0006990211 0.0028361988
0000c0 5c b9 b6 3b 5b cf c2 3a 97 c3 66 b9 f2 12 25 3c
       0.005576296 0.0014862822 -0.00022007372 0.010075318
0000d0 25 17 19 ba b4 50 7a bb 8b ac e3 3a 5e 90 0d bb
       -0.00058399356 -0.0038195075 0.0017370147 -0.0021600942
0000e0 9d 1b 18 3a 58 aa e1 3a 96 0e 57 bb 7e ce ef ba
       0.00058024545 0.0017216904 -0.003281509 -0.0018295792
0000f0 13 b1 50 b3 44 d9 a0 34 93 8b 07 38 bc cd 25 36
       -4.8589822e-08 2.9960404e-07 3.2316497e-05 2.470667e-06
000100 27 88 84 37 fd c6 61 39 aa 58 fd 34 fb 5e 29 36
       1.5799027e-05 0.00021531801 4.7189434e-07 2.5238248e-06
000110 c0 9d cd b9 2e f7 43 37 34 e3 84 33 c9 29 a4 b8
       -0.0003921818 1.1680457e-05 6.188057e-08 -7.8279125e-05
000120 2a 12 a0 34 c6 f3 43 38 a5 f0 63 36 b7 de 5d 36
       2.9815538e-07 4.6718655e-05 3.396571e-06 3.3061203e-06
000130 9f 55 3a 35 83 14 fc 37 bc a7 d7 37 1c ec d7 35
       6.9414995e-07 3.0050292e-05 2.5708105e-05 1.6087465e-06

lstm.weight_ih_l1 f4 [80, 20]
000000 1c c9 08 b8 6e 70 46 bb 5e a7 7f 3a 1a 62 b0 38
       -3.2612224e-05 -0.0030279416 0.00097524177 8.410607e-05
000010 da 62 79 ba 42 90 0f ba f8 74 11 38 b2 f0 ea 38
       -0.0009513326 -0.0005476513 3.467963e-05 0.000112028225
000020 de 78 0a 3a 67 9b c3 bb d5 da 44 b7 80 bf e0 39
       0.0005282293 -0.005969453 -1.1733461e-05 0.00042867288
000030 3f c3 1b 3a 3e f7 87 b9 be 46 0b b9 2c 3e a3 b9
       0.00059418747 -0.00025933416 -0.00013282427 -0.00031136104
000040 84 11 4a b8 2d 13 8a 38 36 eb a8 b9 da 7e 92 b8
       -4.8176866e-05 6.5839246e-05 -0.00032218703 -6.9854505e-05
000050 0c 9c a7 b7 00 62 fe b7 33 34 c2 39 0e 5a 83 b6
       -1.9980616e-05 -3.0324794e-05 0.00037041455 -3.914588e-06
000060 b8 29 b0 b9 02 86 1d ba 29 5e 7e b8 82 d4 4b bb
       -0.0003360042 -0.00060090434 -6.0646013e-05 -0.0031102006
000070 6d e0 dd 39 25 71 fc 38 1b e4 37 b7 11 06 b5 39
       0.00042319615 0.00012037371 -1.096076e-05 0.0003452753
000080 7f cc bb b7 6c 22 b5 b9 86 30 a8 38 4a 8f b1 b8
       -2.2387363e-05 -0.00034548657 8.0199025e-05 -8.4667074e-05
000090 46 1a be 39 5e a5 ff 38 68 44 e7 b9 77 79 53 3b
       0.000362592 0.000121901496 -0.0004411072 0.0032268444
0000a0 e2 04 16 3b ea 46 cc b7 47 ff 90 39 1b 24 16 bb
       0.0022891094 -2.4351717e-05 0.00027656017 -0.0022909704
0000b0 0b d0 7d b9 5a 6a 0f ba 54 33 09 38 35 d4 da 38
       -0.00024205462 -0.00054708647 3.271115e-05 0.00010434577
0000c0 0e 69 1f 3a 7e 64 63 38 c8 83 1f b7 45 2b 16 3a
       0.0006081023 5.4214608e-05 -9.507821e-06 0.00057284936
0000d0 29 9c 9e b7 98 44 a9 bb 6d 3f c5 38 6d 5c f7 b8
       -1.8907785e-05 -0.0051656477 9.405506e-05 -0.000117950935
0000e0 ab d2 44 b8 2c 2f 99 ba 43 b7 62 b9 81 81 3a 3b
       -4.692624e-05 -0.0011687032 -0.0002162131 0.0028458538
0000f0 d1 6b 23 b8 f9 1f 23 b8 05 2c ba 39 6c eb dd 38
       -3.896264e-05 -3.8892005e-05 0.00035509482 0.00010581952
000100 25 49 b1 b9 99 d3 8a 3a d1 f3 c4 37 e6 67 37 39
       -0.00033814568 0.0010591625 2.3478557e-05 0.00017490945
000110 5e ed bb 39 a6 de bd 38 8b 39 1b b7 12 ac 4f 39
       0.00035844272 9.053694e-05 -9.252118e-06 0.0001980516
000120 f1 3a ad b7 e0 2a e4 b9 7b b3 c6 38 45 f0 93 b8
       -2.0650654e-05 -0.00043519493 9.4748066e-05 -7.05426e-05
000130 d5 f5 44 b8 7b c2 e0 38 e1 dc b8 b9 fc 55 90 b8
       -4.695899e-05 0.00010717377 -0.00035259782 -6.882471e-05
000140 cb 6b 4e b9 8d 4b 04 3b b5 01 88 39 69 c4 4c bb
       -0.00019685847 0.0020186633 0.00025941213 -0.0031245
000150 93 15 8c 39 91 59 07 ba 32 2f ef 37 d1 ca fe 3a
       0.00026718955 -0.0005163188 2.8512997e-05 0.0019439106
000160 f1 5a 79 39 32 c9 3b 3b 1d 56 1a 3b c5 54 96 39
       0.00023780369 0.0028653857 0.0023549863 0.00028673388
000170 2f fc 2d 3b b6 8e 2e b9 5f 54 9b 38 6f 60 cb 3a
       0.0026548018 -0.00016647097 7.406691e-05 0.001551641
000180 c7 6b 22 b8 8f 95 80 38 33 80 3c b9 9b c6 b4 b8
       -3.8724185e-05 6.131373e-05 -0.00017976835 -8.620062e-05
000190 3c 1f 8a b7 ca fc 18 b8 9c 59 bf 39 0d 14 d6 3a
       -1.6465427e-05 -3.6475052e-05 0.00036497123 0.001633288
0001a0 5f eb de b9 c4 fe 25 3a 3d 1d 05 38 c4 4a 22 39
       -0.00042518505 0.00063322135 3.17369e-05 0.00015477376
0001b0 85 be b0 39 6e e1 bf 38 89 99 57 b7 80 2b 00 3a
       0.00033711284 9.149579e-05 -1.2850746e-05 0.00048892945
0001c0 3a c6 e2 b9 2a 5e 3d b9 25 55 ae 38 a8 de e0 3a
       -0.0004325377 -0.00018059523 8.312826e-05 0.00171562
0001d0 e4 06 45 b8 e3 52 a0 38 6b 81 75 b9 57 ce b4 b8
       -4.6974877e-05 7.6448334e-05 -0.00023413233 -8.621503e-05
0001e0 e1 fe b7 b7 25 f9 b1 ba 8a f6 a6 39 a4 35 11 39
       -2.1933987e-05 -0.0013578279 0.00031845673 0.0001384826
0001f0 be e6 b5 b9 6a 17 16 ba e6 c7 01 38 53 61 d0 38
       -0.00034694927 -0.0005725535 3.0942167e-05 9.936341e-05
000200 ef 38 a5 39 39 46 c6 38 bb 36 ab bb 61 0f a7 39
       0.0003151367 9.454456e-05 -0.0052250302 0.0003186418
000210 b1 13 b3 b7 0f 57 d8 39 7c e7 c7 38 8e 8b ff b8
       -2.1347632e-05 0.00041263594 9.532177e-05 -0.000121853416
000220 33 bc 83 b8 f8 f5 ab 38 d6 af c0 ba 50 17 00 b9
       -6.2816216e-05 8.199731e-05 -0.0014700841 -0.00012215716
000230 d8 50 e6 b7 a5 19 89 39 33 b4 cb 39 d9 5e c3 38
       -2.7455782e-05 0.00026149783 0.00038853436 9.315991e-05
000240 d1 d1 af b9 5c cf 09 ba 61 64 06 38 4d 62 cf ba
       -0.00033534926 -0.0005257034 3.2041575e-05 -0.0015822143
000250 cf 8c 0c bb c7 47 de 39 e6 e1 1c b7 67 6e f0 3b
       -0.0021446233 0.00042396618 -9.350921e-06 0.0073373797
000260 0c 80 ba b7 48 d9 d3 bb 76 65 c6 38 0c 5b 03 bb
       -2.2232554e-05 -0.006465111 9.460274e-05 -0.0020043282
000270 aa a5 49 b8 36 6a e6 38 bc 7a 32 b9 8e 74 e0 b8
       -4.807642e-05 0.00010987038 -0.00017021125 -0.00010702862
000280 23 20 47 3b ba 89 c3 3a de 81 82 3a f5 98 91 3b
       0.0030384145 0.0014918365 0.0009956916 0.0044432827
000290 d1 e8 9e b9 00 34 36 ba 3c f4 11 38 cb 00 0a 39
       -0.0003030957 -0.00069504976 3.4798155e-05 0.00013161001
0002a0 10 98 b9 39 21 8b 91 ba f1 46 20 b7 41 13 1d 3a
       0.00035399245 -0.0011104086 -9.5532605e-06 0.0005991944
0002b0 b5 df b7 b7 63 d9 ad b9 a8 6a ac bb 8b a4 c6 b8
       -2.1919472e-05 -0.00033159097 -0.005261738 -9.472024e-05
0002c0 4b ef 51 b8 95 c3 52 3b f0 92 44 b9 e3 35 fa ba
       -5.0052342e-05 0.0032160033 -0.00018746755 -0.0019089546
0002d0 9f 67 0f ba f2 3e 1c b8 8f 52 3b bb 74 49 9b 39
       -0.0005470458 -3.725192e-05 -0.0028583144 0.0002961863
0002e0 56 30 bd b9 ef 01 88 bb 52 4e 16 bb 7d fc a7 b9
       -0.00036084902 -0.004150621 -0.0022934866 -0.0003204084
0002f0 b5 08 df 39 45 3b 49 3a 6a 6c 30 b7 c0 94 d3 39
       0.00042540362 0.00076763734 -1.051566e-05 0.00040355884
000300 22 64 b9 b7 31 a1 97 ba 63 2f c9 38 58 ff ef b8
       -2.2100347e-05 -0.0011568425 9.593253e-05 -0.000114439696
000310 51 c8 11 b9 21 cb 71 3b 62 b8 b0 b9 86 8e 97 b8
       -0.00013902901 0.0036894756 -0.00033706712 -7.226788e-05
000320 df ed 83 3b 44 0a cb b7 62 e3 9b 3b 1e ed da b8
       0.004026159 -2.4204266e-05 0.0047573308 -0.000104392166
000330 7e 89 b6 3b 47 43 83 bb 34 85 bb 37 28 42 78 ba
       0.0055705896 -0.004005823 2.2354165e-05 -0.0009470307
000340 6c d5 9b 39 3c 79 9e 38 15 7d ca b7 88 77 a7 39
       0.00029722915 7.556609e-05 -2.4138522e-05 0.0003194178
000350 96 81 a2 b8 51 f2 2a b9 c9 f1 ab 38 09 60 81 b8
       -7.748899e-05 -0.00016302733 8.1989514e-05 -6.169087e-05
000360 5d 05 19 b8 a6 84 99 38 8d 39 62 b9 da 68 a2 b8
       -3.6483038e-05 7.320316e-05 -0.00021574479 -7.744292e-05
000370 9b 0f f0 b7 9a 6a 06 39 ad 0c 94 39 94 64 e3 38
       -2.8617496e-05 0.00012818948 0.00028238204 0.000108429376
000380 c1 4b a8 b9 7d 63 2a ba b8 3b 11 38 61 cc ee 38
       -0.00032099898 -0.000649981 3.462631e-05 0.00011386793
000390 2b b3 a6 3b f3 84 0d 39 be c0 72 bb d6 0d af 39
       0.0050872765 0.00013496335 -0.0037041153 0.0003338891
0003a0 d2 a7 b8 b7 73 1b eb 3a 83 00 d3 38 b0 9a 88 b8
       -2.2012657e-05 0.0017937258 0.00010061359 -6.513798e-05
0003b0 ad b3 45 b8 4c 6e 2e 3a 12 f9 a8 bb 1c a2 d2 b8
       -4.7135796e-05 0.0006654009 -0.0051566446 -0.000100437755
0003c0 b6 b2 c8 b7 f6 75 cc b7 99 bb b1 3b 18 d5 a1 38
       -2.3925077e-05 -2.4373625e-05 0.0054239747 7.71677e-05
0003d0 ca 5e 68 ba a0 62 06 ba 8b d7 b4 bb 2c 73 c1 38
       -0.00088642223 -0.00051263906 -0.005518859 9.2244096e-05
0003e0 39 07 9c 39 23 5e c8 38 07 37 15 b7 0e 38 a5 39
       0.0002976002 9.5542775e-05 -8.893904e-06 0.00031513016
0003f0 44 4f 13 3a 38 a3 cb b9 eb f2 b9 38 12 69 96 b8
       0.00056194165 -0.00038840785 8.8667344e-05 -7.172128e-05

lstm.weight_hh_l1 f4 [80, 20]
000000 0c 11 0f 3d 23 b2 1c bd 40 ff 0d bd a2 59 dc 3c
       0.034928367 -0.038255822 -0.034667253 0.026898209
000010 f7 e7 ab bc f9 b7 f3 3c 53 07 f3 3c c3 60 14 3d
       -0.020984633 0.029750811 0.029666578 0.03622509
000020 78 e4 03 bd a7 66 0a 3d 4b 10 b6 3c 01 0f 14 bd
       -0.032200307 0.033789303 0.022224566 -0.03614712
000030 48 0c 98 3c a5 f2 f3 bc b8 41 07 3d 80 db 0b 3d
       0.018560544 -0.029778788 0.03302166 0.03414488
000040 9a 95 1c bd e2 bf fc 3c 43 66 08 bd cc 79 cd bc
       -0.03822861 0.030853216 -0.03330065 -0.025082491
000050 c3 ff 04 3d 25 6b 19 bd 2a ae 0f bd fc 35 a2 3c
       0.032470476 -0.037455697 -0.035078205 0.019801132
000060 5a 93 99 bc ba 09 f4 3c c7 69 ce 3c a2 77 0b 3d
       -0.01874702 0.029789794 0.025196923 0.034049638
000070 d1 7e 08 bd 6d 28 21 3d b1 81 89 3c eb 8f 03 bd
       -0.033324067 0.039345194 0.016785474 -0.032119673
000080 76 f2 be 3c 91 1a f6 bc 20 e4 03 3d 25 97 06 3d
       0.023308974 -0.030041965 0.03219998 0.032858986
000090 67 1f 18 bd c1 ba f9 3c 5b 00 06 bd 2b b3 b8 bc
       -0.037139323 0.030484559 -0.032715183 -0.022546371
0000a0 82 63 07 3d 2a c0 08 bd ac e6 18 bd a3 ca ed 3c
       0.033053882 -0.033386387 -0.03732936 0.029027289
0000b0 0f bc 9f bc aa 2e f0 3c 2d 05 d1 3c 2c d7 0a 3d
       -0.019498853 0.029319126 0.025515163 0.03389661
0000c0 cc 6d 07 bd b9 4e 11 3d ae 10 ab 3c 73 00 0d bd
       -0.033063695 0.035475466 0.020881977 -0.034424257
0000d0 62 4e c2 3c bb 92 f0 bc 70 df 05 3d 3a d5 05 3d
       0.023719016 -0.029366842 0.03268379 0.03267405
0000e0 21 21 fd bc c3 b4 fa 3c 7b 57 1a bd 47 90 ba bc
       -0.030899586 0.030603772 -0.037681084 -0.022773875
0000f0 e2 1d 02 3d 4f cb ce bc 12 9e 0d bd 3f e6 eb 3c
       0.03176678 -0.02524343 -0.034574576 0.028796313
000100 ea 3c 87 bc a0 3e c3 3c f1 e0 d7 3c e9 c5 05 3d
       -0.016508538 0.023833573 0.026352378 0.032659445
000110 ca 05 01 bd 06 35 0a 3d bd 13 b4 3c 73 65 06 bd
       -0.03149966 0.033741973 0.021982068 -0.032811593
000120 12 fb c1 3c c4 67 ef bc dc 1b f5 3c 09 8d 01 3d
       0.02367929 -0.029224284 0.029920511 0.031628642
000130 62 8d 04 bd e6 c3 f5 3c a8 28 03 bd 86 7b c8 bc
       -0.032361396 0.030000638 -0.032021195 -0.024472963
000140 6e 64 4e 3c a7 da e7 bc cc 1c e1 bc df 24 94 3c
       0.0125971865 -0.028302504 -0.027479552 0.018083988
000150 47 40 0d bc 2e 93 b3 3c eb 22 d1 3c 63 8c e9 3c
       -0.008621282 0.021920767 0.025529345 0.028509324
000160 8c fc 9b bc f8 3d 6a 3c 15 ab e9 3b 31 ff b3 bc
       -0.019041322 0.014297001 0.0071309903 -0.02197227
000170 73 93 84 3c dd 35 d5 bc db 9c d9 3c ec d2 66 3c
       0.01618359 -0.02602666 0.026564052 0.014088374
000180 3a 9f ea bc b0 d4 98 3c 65 29 e4 bc 56 e0 b1 bc
       -0.028640378 0.018656105 -0.02785177 -0.021713417
000190 b6 ac ef 3c 9b 54 0a bd ff 96 13 bd 09 08 e7 3c
       0.02925716 -0.033772092 -0.036032673 0.028202074
0001a0 b3 e9 9a bc c1 f5 d9 3c ea af b8 3c 16 38 08 3d
       -0.018910265 0.026606442 0.02254482 0.033256613
0001b0 88 ea 00 bd 75 dd 11 3d a9 9b a0 3c f0 cc 06 bd
       -0.031473666 0.03561159 0.019605475 -0.032910287
0001c0 30 aa c6 3c b3 7c f5 bc 00 e8 03 3d 73 10 06 3d
       0.024251074 -0.029966688 0.032203674 0.03273053
0001d0 d2 d7 01 bd f2 ff f9 3c 2a 3c df bc 6a 22 d1 bc
       -0.031699963 0.030517552 -0.027250368 -0.025529105
0001e0 30 f9 0f 3d 67 f0 12 bd 41 a7 13 bd 02 55 f4 3c
       0.035149753 -0.035873797 -0.036048178 0.029825691
0001f0 7c 9d 99 bc 0e 10 f5 3c 01 82 93 3c f0 31 18 3d
       -0.018751852 0.029914882 0.018006327 0.037157
000200 bb 99 03 bd 52 cc f9 3c 3d 67 a3 3c 3e 3e 0d bd
       -0.03212903 0.030492935 0.019946689 -0.034483187
000210 75 92 9d 3c 4e fd f8 bc 3f 93 06 3d 96 ec 0b 3d
       0.019234875 -0.030394223 0.03285527 0.034161173
000220 6d 8f 16 bd 2f dd fb 3c 0c 36 0a bd 00 11 9f bc
       -0.036757875 0.030745117 -0.03374295 -0.019417286
000230 0a 6d 0c 3d bc 66 18 bd 10 72 16 bd cd 42 d0 3c
       0.034283675 -0.03720735 -0.036729872 0.025422478
000240 d0 9f a5 bc e9 62 ea 3c b8 85 fb 3c 6e b0 16 3d
       -0.020217806 0.028611617 0.03070341 0.03678935
000250 30 7a 03 bd 75 1c 2c 3d cc 1a 97 3c 1b 31 0c bd
       -0.03209895 0.042019326 0.018445395 -0.034226518
000260 ab 48 c8 3c a3 0f f5 bc 7f 8c 08 3d e2 64 08 3d
       0.024448713 -0.029914683 0.033337113 0.033299334
000270 eb a9 1a bd 91 bf f4 3c 9e b9 02 bd db 10 b4 bc
       -0.037759703 0.029876502 -0.0319153 -0.021980694
000280 aa c3 0b 3d e0 d7 0b bd e0 b8 0c bd 13 49 dd 3c
       0.034122147 -0.03414142 -0.034355998 0.027012384
000290 7f f8 85 bc cc a8 f3 3c 91 d8 f3 3c 26 1c 15 3d
       -0.016353844 0.029743575 0.029766353 0.036403798
0002a0 71 89 08 bd 49 8b fb 3c 0f 3d b0 3c 60 dd 04 bd
       -0.0333342 0.030706065 0.02151349 -0.032437682
0002b0 41 ac 24 3c 0b 87 a6 bc ff 55 05 3d 03 9b 0d 3d
       0.010050834 -0.020328065 0.032552715 0.03457166
0002c0 ba 03 16 bd c8 6b f9 3c 18 4c 00 bd db fd b8 bc
       -0.036624648 0.030446902 -0.03132257 -0.022581985
0002d0 b7 93 0e 3d a8 13 1f bd 4d ce 2a bd da 8b ea 3c
       0.03480884 -0.038837105 -0.04170065 0.02863114
0002e0 e8 cf a9 bc e6 d1 f6 3c a1 e6 f7 3c 8b 90 04 3d
       -0.02072902 0.030129384 0.03026134 0.03236441
0002f0 f9 54 08 bd 1e 71 05 3d 05 09 b8 3c 7d e7 0e bd
       -0.03328416 0.03257858 0.022465238 -0.034888733
000300 95 a0 c0 3c b6 ec 9c bc cc 7f 06 3d 1e 21 0a 3d
       0.023514071 -0.019155841 0.03283672 0.03372299
000310 40 f9 06 bd b7 14 fd 3c de bf e9 bc fd 30 c5 bc
       -0.032952547 0.030893667 -0.028533872 -0.024071211
000320 b7 e9 e5 3c 72 13 e6 bc 4f 60 f0 bc 5c f7 a4 3c
       0.028065545 -0.028085444 -0.029342799 0.020137481
000330 74 7d 0f bc 43 3f 74 3c da c3 d8 3c 9c d7 d0 3c
       -0.008757938 0.014907661 0.026460577 0.025493436
000340 7f 29 d2 bc ba 22 ee 3c c4 ca a1 3c bc 48 e7 bc
       -0.025654553 0.029069293 0.019750006 -0.028232925
000350 d9 da 84 3c e9 41 9d bc 9e 94 ca 3c 6a 4f e7 3c
       0.016217636 -0.019196467 0.02472907 0.02823611
000360 bd b0 ed bc 97 ba d8 3c 3b 84 dd bc 35 bc 64 bc
       -0.02901494 0.02645616 -0.027040591 -0.013960888
000370 c6 77 0e 3d c1 9b 01 bd f3 6a 17 bd a6 d8 ef 3c
       0.034782194 -0.03164268 -0.03696723 0.02927811
000380 e7 53 a3 bc 61 66 f1 3c 70 67 dd 3c bc c1 0b 3d
       -0.019937469 0.029467763 0.027026862 0.034120306
000390 35 15 d6 bc 1a 74 20 3d 7f 8e b6 3c 93 29 0e bd
       -0.02613316 0.039173223 0.022284744 -0.034707617
0003a0 58 af a4 3c 7c 63 ee bc 0e 77 08 3d 9a 3a 10 3d
       0.020103142 -0.029100172 0.033316664 0.035212137
0003b0 14 7d 26 bd f1 34 f6 3c 5c 5e f1 bc c4 87 bc bc
       -0.040646628 0.030054541 -0.02946394 -0.023013957
0003c0 db 2d f1 3c c0 3a bf bc ba 8a bc bc 81 9c bd 3c
       0.02944081 -0.023343444 -0.023015369 0.023145916
0003d0 9d 0f a1 bc a4 e7 69 3c 3b 15 a0 3c 18 8f c3 3c
       -0.019660765 0.014276419 0.019541373 0.023871943
0003e0 5d 5f a4 bc 1b 87 fe 3c 93 3d aa 3c 05 6c f2 bc
       -0.020065004 0.031070283 0.020781314 -0.029592523
0003f0 56 37 23 3c 85 51 b2 bc da f7 cd 3c ca c5 b7 3c
       0.009961924 -0.021767387 0.025142599 0.02243318

lstm.bias_ih_l1 f4 [80]
000000 f5 5d 3f 3d 97 0e 3c 3d 8c 76 6b 3d 3c 48 3e 3d
       0.046720464 0.04591235 0.057486102 0.046455607
000010 1b a6 20 3d 8c 9d 46 3d a1 1b 49 3d fa 8a 7c 3d
       0.03922091 0.048490092 0.049098615 0.061655976
000020 0a 42 4f 3d e5 b3 48 3d 32 7c 1e 3d 3b 5b 58 3d
       0.05060009 0.048999686 0.03869266 0.05282138
000030 5c 07 f8 3c 17 87 47 3d 06 e4 53 3d 06 87 6d 3d
       0.030276947 0.048712816 0.051731132 0.057990097
000040 a6 d3 4f 3d c0 d5 33 3d 14 9a 3e 3d 69 2c 14 3d
       0.050738953 0.04390502 0.04653366 0.036175165
000050 1b c8 b6 3d 49 7a dc 3d d1 b3 b8 3d ba 37 9f 3d
       0.08924886 0.107655115 0.09018672 0.07774301
000060 36 e9 70 3d 52 e5 a1 3d 8e 1e af 3d de 36 bc 3d
       0.058816157 0.079050675 0.0855075 0.091901526
000070 f4 0c b9 3d 38 fd d6 3d 23 c3 49 3d dc 47 b7 3d
       0.09035674 0.104975164 0.049258363 0.08949253
000080 fd ec 31 3d 01 3f ae 3d 65 d1 bf 3d 65 33 c0 3d
       0.0434389 0.08508111 0.09366111 0.09384803
000090 37 c8 cc 3d 40 33 af 3d 82 64 b6 3d 1f aa 3e 3d
       0.099991255 0.08554697 0.08905889 0.04654896
0000a0 c7 18 c2 3d dc 54 ea bd f7 a9 d8 bd fc 82 c3 3d
       0.09477382 -0.11441967 -0.10579293 0.09546468
0000b0 2b 1a 5a bd 0f 0c 84 3d 71 c0 a9 3d 23 9b f4 3d
       -0.053247612 0.064476125 0.082886584 0.119436525
0000c0 5e e0 dc bd f5 37 c0 3d 96 73 ab 3d e3 e9 a9 bd
       -0.10784982 0.09385673 0.08371656 -0.082965635
0000d0 d2 fa a7 3d 28 5f be bd 1c 37 cd 3d e5 ad cc 3d
       0.08202137 -0.09295493 0.10020277 0.09994105
0000e0 7a bd b0 bd 9e f3 be 3d 26 15 b5 bd 8a a3 9a bd
       -0.0862989 0.0932381 -0.08841924 -0.07550724
0000f0 5b b5 fa 3d 06 ef e9 3d db e7 09 3e 19 ed ad 3d
       0.12241622 0.11422543 0.13467352 0.084924884
000100 8a 0a 0d 3d 1a 5b ad 3d b7 75 da 3d ca ac 03 3e
       0.03443388 0.08464642 0.106669836 0.12858883
000110 48 87 e3 3d 71 a7 f8 3d cf 96 33 3d a8 f4 f8 3d
       0.11109787 0.12141312 0.043844994 0.121560395
000120 71 85 38 3d 9e eb ac 3d ef ae eb 3d cd ec e6 3d
       0.045049135 0.08443378 0.11507975 0.11275635
000130 3d 57 0c 3e d3 94 ac 3d 64 a5 f1 3d 44 94 4c 3d
       0.13705154 0.084268235 0.11799124 0.049946085

lstm.bias_hh_l1 f4 [80]
000000 6b 32 3c 3d 09 6e 3b 3d 87 29 3d 3d c9 41 39 3d
       0.04594652 0.045759235 0.04618218 0.045228753
000010 80 5b ec 3c 4f 5e 35 3d 31 dd 41 3d 94 35 36 3d
       0.028852224 0.044279393 0.047330085 0.04448469
000020 0d 51 51 3d 29 2d 73 3d 42 d8 05 3d 06 fe 43 3d
       0.051102687 0.05936924 0.032676943 0.047849678
000030 d2 32 27 3d 02 ce 3e 3d 66 41 56 3d b8 38 5d 3d
       0.04081995 0.046583183 0.052308463 0.05400917
000040 bf 56 4f 3d ac 6c 46 3d c4 fd 5f 3d af ec 31 3d
       0.050619837 0.04844348 0.05468537 0.04343861
000050 96 33 b7 3d 1c fb cd 3d d6 d4 d0 3d 90 25 a7 3d
       0.08945386 0.10057661 0.10196845 0.08161461
000060 b9 03 41 3d fb 9e ab 3d 08 5e 8b 3d 08 2d bb 3d
       0.04712269 0.083799325 0.068050444 0.091394484
000070 cd a8 b1 3d 57 c3 d9 3d e2 95 19 3d 75 78 b6 3d
       0.08674774 0.10632961 0.037496455 0.08909694
000080 ec 27 68 3d 3b 2a ae 3d b1 c7 b9 3d b0 49 ca 3d
       0.056678697 0.085041486 0.09071291 0.09877336
000090 42 17 cb 3d cf 61 ae 3d 40 fd b0 3d 80 7e 49 3d
       0.099165455 0.08514749 0.086420536 0.049192905
0000a0 e0 e3 b2 3d f0 fc b3 bd b8 06 04 be bd 90 a8 3d
       0.0873487 -0.087884784 -0.12893188 0.08230732
0000b0 c0 52 9f bd 66 6d ca 3d 90 b0 cb 3d 67 e5 d1 3d
       -0.07779455 0.09884147 0.09945786 0.10248833
0000c0 b5 a4 d3 bd 82 af af 3d ec 27 5d 3d 50 24 d8 bd
       -0.1033415 0.08578397 0.05399315 -0.10553801
0000d0 6a 22 9f 3d b3 7e be bd ef d8 d6 3d 16 5f df 3d
       0.07770236 -0.0930151 0.104905955 0.10906808
0000e0 7d dd c3 bd f6 b5 c1 3d a3 b2 cb bd 3a aa ad bd
       -0.0956373 0.094585344 -0.099461816 -0.08479734
0000f0 68 e6 fc 3d d7 5c e9 3d 47 ec 15 3e 0a 47 b5 3d
       0.12348634 0.11394661 0.14640914 0.0885144
000100 7a c3 87 3d 9e c3 9f 3d 1a 93 da 3d 4a 16 f6 3d
       0.06629081 0.07800983 0.10672589 0.1201597
000110 3d 0c e9 3d 13 57 12 3e c2 c8 39 3d fd 20 e6 3d
       0.113792874 0.14291029 0.045357473 0.11236761
000120 51 60 37 3d d3 d6 b1 3d 96 17 e5 3d ad b9 f5 3d
       0.04476959 0.086835526 0.11186139 0.119983055
000130 52 ff f8 3d 9f 82 da 3d 77 d8 f2 3d 5c 53 9c 3d
       0.121580735 0.10669445 0.11857694 0.07633087

fc.weight f4 [360, 20]
000000 a9 75 cb 3c 3b f0 d9 bc 84 27 01 bd fb 6b ad 3c
       0.024836378 -0.026603809 -0.031531826 0.021169653
000010 56 1f 68 bc 5e 48 b1 3c fc 14 c4 3c 7c fe f3 3c
       -0.014167627 0.021640953 0.023935787 0.029784434
000020 8e 9d c6 bc ba a0 06 3d 63 a0 6c 3c 2f 77 d5 bc
       -0.02424505 0.032868125 0.014442536 -0.026057808
000030 3e 01 08 3c 89 2d a1 bc a5 29 be 3c 6e db cb 3c
       0.008301077 -0.019675033 0.023213217 0.024884906
000040 5e ce d8 bc df 73 bc 3c df 42 c7 bc d8 cf 98 bc
       -0.026465591 0.02300447 -0.024323879 -0.018653795
000050 56 64 d2 3c 1c 3a f4 bc 35 fc d9 bc 1e b1 ba 3c
       0.02568261 -0.029812865 -0.02660952 0.022789534
000060 98 23 84 bc d7 6a a8 3c 59 8c bf 3c 65 6a d6 3c
       -0.016130254 0.020558758 0.023382353 0.02617378
000070 b1 2e ce bc 91 7f af 3c 7e a1 04 3c 3c b4 f2 bc
       -0.025168749 0.021423133 0.008095143 -0.029626958
000080 e7 f9 7c 3c d1 d0 bb bc 39 c6 cc 3c 68 9b dd 3c
       0.015440441 -0.02292672 0.024996864 0.027051643
000090 4f 27 d6 bc 0c 39 be 3c cd b7 cc bc 3b 71 82 bc
       -0.02614179 0.023220561 -0.024989987 -0.015923133
0000a0 25 01 d4 3c 83 cb cb bc 7b bb f6 bc a6 a8 b8 3c
       0.025879452 -0.024877315 -0.030118695 0.022541355
0000b0 e2 b7 68 bc 05 9d ad 3c 50 9f ba 3c a2 8c c8 3c
       -0.014203997 0.021193037 0.022781044 0.024481121
0000c0 67 53 91 bc ca 7d e6 3c 7b 5f 83 3c af 43 c7 bc
       -0.017739965 0.028136153 0.01603674 -0.024324266
0000d0 66 2a 5c 3c b0 b5 af bc 2e ed c5 3c 20 05 cb 3c
       0.013437843 -0.02144894 0.024160948 0.024782717
0000e0 0c 05 d2 bc 12 1e b2 3c 60 89 db bc d8 08 90 bc
       -0.025637172 0.021742854 -0.026798904 -0.017582342
0000f0 50 22 d3 3c e5 df d3 bc 25 fe df bc 8f ed b4 3c
       0.025773197 -0.025863597 -0.027342865 0.022085933
000100 66 6c 7f bc 19 37 b7 3c 94 56 c0 3c dd 7b d3 3c
       -0.015589809 0.02236514 0.023478784 0.025815899
000110 1a 35 c8 bc 91 4e d3 3c e0 1f 93 3c bd 45 d0 bc
       -0.024439383 0.0257943 0.017959535 -0.025423879
000120 e5 a0 98 3c da fd ba bc 07 17 c8 3c 5e 45 ce 3c
       0.018631408 -0.022826124 0.024425043 0.025179561
000130 af 3c e2 bc 64 02 b4 3c 45 a6 ce bc 9b 18 82 bc
       -0.027616827 0.021973796 -0.025225768 -0.015880873
000140 9e f4 c3 3c f2 56 db bc d6 97 d2 bc 3a b7 b6 3c
       0.023920354 -0.026774857 -0.025707167 0.022304166
000150 e3 8d 75 bc 8a fc b6 3c 2a f4 a6 3c 29 7e cf 3c
       -0.014987442 0.022337217 0.020380098 0.025328713
000160 b2 d7 c2 bc a8 af d2 3c 34 55 8b 3c a2 94 cb bc
       -0.023784492 0.025718525 0.017008401 -0.024851147
000170 f1 a3 5d 3c 26 6c b1 bc 84 67 c8 3c 3d e5 d2 3c
       0.013527856 -0.021658015 0.024463423 0.025744075
000180 25 b0 d0 bc 8d 10 bb 3c 88 29 c2 bc c9 69 9b bc
       -0.025474617 0.02283504 -0.023701444 -0.01897134
000190 24 9c f2 3c 20 6b e1 bc 6a e2 f1 bc c5 66 b0 3c
       0.02961547 -0.027516901 -0.029526908 0.02153338
0001a0 48 f9 85 bc 08 d8 bc 3c 68 28 c5 3c 86 c2 d7 3c
       -0.016354218 0.02305223 0.024067119 0.026337873
0001b0 54 19 86 bc 87 16 ed 3c 94 b6 66 3c 1b 81 be bc
       -0.0163695 0.028941406 0.014081616 -0.023254922
0001c0 f5 2b 99 3c 54 f6 bb bc 4f ab 8a 3c e6 72 dc 3c
       0.018697718 -0.022944607 0.01692739 0.026910257
0001d0 e8 44 e4 bc ab 8e 6a 3c 72 0b ce bc 76 86 81 bc
       -0.027864888 0.014316241 -0.025151942 -0.015811186
0001e0 7f 78 d5 3c 42 b1 d5 bc 55 50 da bc 90 8c c2 3c
       0.026058434 -0.0260855 -0.026649633 0.023748666
0001f0 2c f1 8a bc 64 ef 8f 3c 3e 0c c5 3c 2d 98 ef 3c
       -0.016960703 0.017570205 0.02405369 0.029247368
000200 0f ab cd bc c9 50 db 3c 02 f4 8a 3c e7 14 cd bc
       -0.025105981 0.02677192 0.016962055 -0.025034381
000210 41 00 47 3c 36 c4 6c bc a9 3e cc 3c 09 9a df 3c
       0.012146057 -0.014451077 0.024932222 0.02729513
000220 1d 1d e4 bc e9 02 8e 3c 83 ae d9 bc 78 4c a1 bc
       -0.027845914 0.017335372 -0.026572471 -0.019689783
000230 69 74 d2 3c 2d 53 df bc ac 79 da bc 78 6d ba 3c
       0.025690274 -0.027261341 -0.026669346 0.022757277
000240 bc a3 59 bc 5e 94 b9 3c 22 60 c4 3c 22 89 ed 3c
       -0.013283666 0.022653755 0.023971621 0.028996054
000250 35 25 cd bc ec 0e d3 3c 88 1c 80 3c e8 eb d8 bc
       -0.025042156 0.025763951 0.015638605 -0.026479676
000260 86 58 77 3c 7a 32 ba bc 4e da cc 3c 14 90 d3 3c
       0.015096789 -0.022729147 0.02500644 0.025825538
000270 c4 54 eb bc eb d0 bf 3c 01 c7 85 bc d7 6a 91 bc
       -0.028726943 0.02341505 -0.016330244 -0.01775114
000280 9c f1 e8 3c 3f 64 ce bc 3a df d4 bc 0f ae b6 3c
       0.02843552 -0.025194285 -0.025985349 0.022299794
000290 70 78 79 bc da ef 8d 3c 0c 45 bd 3c 18 91 d3 3c
       -0.015226468 0.017326284 0.023104213 0.025826022
0002a0 18 2e c7 bc 53 47 e6 3c b3 7e ec 3b 91 6b c3 bc
       -0.024313971 0.028110182 0.007217252 -0.023855003
0002b0 bf 36 91 3c f3 da b9 bc 3d 44 c6 3c 4d a2 d2 3c
       0.0177263 -0.022687411 0.02420246 0.025712157
0002c0 51 a1 dd bc 04 a2 bc 3c aa 33 d0 bc fb fe 53 bc
       -0.02705446 0.023026474 -0.02541526 -0.01293921
0002d0 bb 78 d1 3c 8b 3e d0 bc 99 9d d5 bc 82 2b b5 3c
       0.025570264 -0.025420448 -0.026076125 0.022115473
0002e0 6e ea 27 bc 3d e4 b8 3c de d4 b6 3c d2 ff f8 3c
       -0.0102487635 0.02256977 0.0223183 0.030395422
0002f0 9c 31 c9 bc 49 70 d9 3c f9 ad 70 3c ab a3 d6 bc
       -0.024559788 0.0265428 0.014689916 -0.02620109
000300 0e c6 92 3c b3 33 bb bc 89 2b c9 3c 83 03 d2 3c
       0.017916705 -0.0228518 0.024556892 0.02563644
000310 73 10 c4 bc 1b 5a bc 3c 66 73 aa bc a1 64 a5 bc
       -0.023933625 0.022992184 -0.02080698 -0.020189585
000320 f6 12 d1 3c 5f 76 d2 bc c4 ee ec bc 16 45 bc 3c
       0.025521737 -0.02569121 -0.028922446 0.022982161
000330 52 54 71 bc 9b fe bf 3c 72 a9 bd 3c 57 b1 d2 3c
       -0.014729576 0.023436835 0.023152087 0.025719328
000340 e9 fc ca bc 81 c8 df 3c c0 58 02 3c 09 30 d4 bc
       -0.0247788 0.027317287 0.00795573 -0.025901811
000350 a8 0d 7a 3c 54 9c bb bc 90 20 d2 3c 87 e3 d1 3c
       0.015262045 -0.022901691 0.025650293 0.025621189
000360 59 fa d3 bc 8d 98 b7 3c f6 8e d0 bc 94 29 7f bc
       -0.025876211 0.022411609 -0.025458794 -0.015573878
000370 4b 2d bb 3c 6a d0 cd bc 8b 4b d5 bc 97 ec ac 3c
       0.022848746 -0.025123794 -0.026036998 0.021108909
000380 32 70 75 bc f7 2d a8 3c 1c ee bd 3c 0e ce ec 3c
       -0.014980363 0.02052973 0.023184828 0.028906848
000390 35 4f ca bc f8 09 d2 3c f8 9e 76 3c 97 7d cd bc
       -0.024695972 0.02563952 0.01505255 -0.0250843
0003a0 99 6f 85 3c c8 14 b6 bc 6a 9a cd 3c ea 90 cc 3c
       0.016288565 -0.022226706 0.025098044 0.024971444
0003b0 ec 19 d0 bc 97 d3 bd 3c 91 d6 c7 bc 0e 43 99 bc
       -0.025402986 0.023172183 -0.024394305 -0.018708732
0003c0 2c 52 cc 3c 3d 27 d0 bc ab 3a df bc e8 85 b3 3c
       0.024941526 -0.025409335 -0.027249655 0.021914437
0003d0 d0 5c 5d bc a0 f6 a9 3c 37 20 bd 3c 44 77 d2 3c
       -0.013510898 0.020747483 0.02308665 0.025691636
0003e0 51 9b c4 bc 6a f8 e1 3c 46 19 6d 3c 43 26 e5 bc
       -0.023999842 0.027584273 0.014471358 -0.027972346
0003f0 4c f5 8b 3c da 76 ae bc 42 d4 9a 3c 54 cc cc 3c
       0.01708474 -0.021296907 0.01890004 0.024999775
