backend/model/lstm-BIDU-30-.pth (torch, 26181 bytes, 12 tensors)

conv1.weight f4 [2, 4, 3]
0.006700182 0.006424758 0.003478071 0.0151485065 0.0072698207 0.0024457388 0.0023767457 0.0024504066
0.008183528 0.002014127 0.0024579063 0.022682056 -7.983129e-05 -0.008054107 -0.00044531122 -7.0935515e-05
0.0004240123 -9.0616886e-05 0.0024045084 -0.00010883316 -5.2958083e-05 7.559517e-05 -9.035839e-05 -0.0031223656
00000000: 338d db3b c786 d23b 59f0 633b 7131 783c
00000010: ad37 ee3b b048 203b 2dc3 1b3b 0097 203b
00000020: 3414 063c 72ff 033b d314 213b b8cf b93c
00000030: 196b a7b8 60f5 03bc a978 e9b9 37c3 94b8
00000040: f84d de39 9209 beb8 f594 1d3b 5c3d e4b8
00000050: 4f1f 5eb8 d988 9e38 cb7e bdb8 9aa0 4cbb

conv1.bias f4 [2]
0.031922597 0.0037519082
00000000: 45c1 023d 93e2 753b

lstm.weight_ih_l0 f4 [80, 2]
8.3611434e-05 -3.7122723e-07 0.00060546334 -1.3217311e-06 3.9771607e-05 -0.00392701 1.0628339e-06 -4.7698522e-05
-0.0032066084 -3.5743592e-06 9.067988e-05 1.6922686e-06 -0.003551976 -3.2360779e-09 1.0096381e-07 -3.812995e-09
1.2677689e-06 -0.0007711946 0.0013737876 3.506499e-05 0.0009708545 0.0068106367 7.135309e-05 -9.957722e-07
1.28438905e-05 -0.00057394913 0.0064987023 -6.834877e-10 8.759282e-06 3.53903e-05 5.9709078e-06 -0.0006786876
5.1735874e-06 0.0015830188 0.006164947 0.0060287993 1.5201152e-06 -0.004797192 0.0021696151 -7.797523e-09
1.6682736e-05 0.00014280945 0.00021540787 2.42703e-06 0.00010764014 -7.526904e-07 -0.006284879 0.00022860742
0.00057716493 -1.9211625e-06 0.0001271244 2.1610138e-05 4.044706e-08 3.0889286e-08 1.9123857e-07 -0.0021596383
5.0494095e-06 -0.0002605165 0.0024128528 -1.8437539e-06 5.294633e-05 -1.7831512e-07 7.471722e-05 -0.0063644596
7.629517e-06 -0.0019216328 -0.001141058 -2.9775546e-09 -0.0010524367 -0.0005766814 8.011323e-05 -0.0015402631
1.4292393e-05 -6.377372e-08 7.6460395e-07 0.0006364734 1.781009e-06 -0.00018042025 -0.0005897185 -0.0055767847
-0.0022965318 -0.0036649203 0.020204995 0.00048622105 -0.009102321 1.4066044e-05 0.000856786 -3.7059303e-06
-0.009636677 0.009112634 0.011904336 -2.7256874e-05 -0.0008574885 -0.0009664245 -0.0037289734 1.142167e-06
0.0010652946 2.5036801e-05 -0.008275056 3.5939578e-05 0.0005698653 1.8478006e-05 0.0064532384 -3.1012896e-05
-0.00063629955 2.1730659e-05 -0.014839554 -6.911259e-07 0.0051488774 -5.8623305e-06 0.002721531 -5.144332e-06
0.0011264861 1.6471264e-05 -0.0003156947 -0.0024936097 -0.00053822674 -2.6290827e-06 -8.1903076e-05 -0.002071878
-0.0073915743 -4.7082142e-07 0.00012793188 -1.9293175e-06 3.528432e-05 -3.2519145e-07 -0.0023487667 0.002192282
9.700914e-05 -2.9525906e-06 0.00054966385 -3.9411893e-06 0.0011075325 0.00044200083 7.2829135e-07 -1.3237736e-09
3.2106018e-06 -3.096263e-08 0.00011908775 -9.259295e-07 -6.426671e-05 -0.0034669356 7.209746e-05 -2.1909196e-05
1.1294869e-05 -0.0023834165 9.2738034e-08 -6.7757004e-09 1.7800823e-05 -2.1765665e-07 1.8103436e-05 1.3054463e-08
0.00028013132 -1.3880414e-07 0.0039134547 -2.068402e-08 -2.2068781e-07 -8.327359e-08 2.6232482e-07 -0.00056013867
00000000: 8c58 af38 154d c7b4 f5b7 1e3a 5666 b1b5
00000010: 70d0 2638 26ae 80bb b2a6 8e35 e60f 48b8
00000020: f625 52bb 06df 6fb6 642b be38 e821 e335
00000030: 45c8 68bb af61 5eb1 71d1 d833 7503 83b1
00000040: 3528 aa35 fe29 4aba aa10 b43a bf12 1338
00000050: f180 7e3a c32b df3b 66a3 9538 79a6 85b5
00000060: 177c 5737 1375 16ba 11f3 d43b 2ce0 3bb0
00000070: d4f4 1237 0c70 1438 b559 c836 f4e9 31ba
00000080: c798 ad36 4c7d cf3a 5303 ca3b 3c8d c53b
00000090: c306 cc35 c331 9dbb 1a30 0e3b def5 05b2
000000a0: e7f1 8b37 1fbf 1539 1cdf 6139 0fe0 2236
000000b0: dcbc e138 7e0c 4ab5 63f1 cdbb 56b6 6f39
000000c0: e24c 173a 52ed 00b6 b24c 0539 6b47 b537
000000d0: 03b8 2d33 21ab 0433 4257 4d34 b888 0dbb
000000e0: 196e a936 ef95 88b9 f420 1e3b e776 f7b5
000000f0: b012 5e38 e376 3fb4 81b1 9c38 f58c d0bb
00000100: 8700 0037 4cdf fbba 8e8f 95ba b29d 4cb1
00000110: eaf1 89ba 6f2c 17ba 7602 a838 a7e2 c9ba
00000120: 5cc9 6f37 f9f3 88b3 2f3f 4d35 02d9 263a
00000130: 010b ef35 312f 3db9 5797 1aba 76bd b6bb
00000140: 6981 16bb 292f 70bb f284 a53c 7ceb fe39
00000150: e721 15bc 33fd 6b37 ef99 603a 66b3 78b6
00000160: 27e3 1dbc 284d 153c 670a 433c b1a5 e4b7
00000170: 14c9 60ba a657 7dba cb61 74bb 8f4c 9935
00000180: 5ba1 8b3a 1f06 d237 1a94 07bc d4bd 1638
00000190: 0363 153a 3701 9b37 b075 d33b d813 02b8
000001a0: 57cd 26ba 3c4a b637 9a21 73bc cf85 39b5
000001b0: eab7 a83b 09b5 c4b6 b75b 323b 7a9d acb6
000001c0: 9aa6 933a c52b 8a37 d383 a5b9 d46b 23bb
000001d0: c917 0dba 4c6f 30b6 61c3 abb8 58c8 07bb
000001e0: 0535 f2bb 34c5 fcb4 7425 0639 6c79 01b6
000001f0: 40fe 1338 f995 aeb4 c4ed 19bb 63ac 0f3b
00000200: 6371 cb38 1f25 46b6 5117 103a 8f3e 84b6
00000210: a02a 913a 59bc e739 cd7f 4335 25f0 b5b0
00000220: b875 5736 c6fb 04b3 c0be f938 648d 78b5
00000230: edc6 86b8 8735 63bb 0733 9738 a4c9 b7b7
00000240: 187f 3d37 1833 1cbb 4627 c733 b1cf e8b1
00000250: fa52 9537 01b5 69b4 d5dc 9737 2346 6032
00000260: 97de 9239 310a 15b4 703c 803b a4ac b1b2
00000270: 34f6 6cb4 24d4 b2b3 a6d5 8c34 45d6 12ba

lstm.weight_hh_l0 f4 [80, 20]
0.0069834515 0.00015296743 0.0017373454 2.280097e-05 -1.303872e-05 4.915757e-06 0.0050383084 0.00069060974
1.1172287e-06 -1.5516813e-05 -0.00029583432 2.5992003e-05 -2.3935438e-06 0.0040940223 0.001876797 -0.0053542713
-0.0001450041 -1.0538419e-06 -0.0042436724 0.0020109785 -1.4432303e-05 0.00021593318 -8.781151e-05 0.006527667
-5.675645e-05 0.00010783925 -4.826214e-06 -0.00014037693 4.5810215e-05 -6.0960105e-05 1.28250695e-05 0.00019519281
0.006059666 1.427683e-06 1.7526536e-05 0.0009873348 1.5911724e-05 -8.634236e-06 -4.8239194e-06 -2.8387908e-06
-1.3725161e-05 -2.9122243e-06 -1.3143509e-05 1.7475843e-06 -0.00024637085 -0.00079341716 -0.005829278 -1.1916727e-06
2.1699398e-06 -3.3153057e-05 7.901769e-06 2.1550175e-05 -0.0052308445 0.0068412307 5.668174e-06 9.704489e-06
0.0025601177 -1.4535973e-06 -3.1924326e-06 -8.4363e-07 6.011179e-08 -0.0023373947 -2.4966323e-07 -1.164533e-09
1.0313469e-07 -0.00012728463 -1.114561e-08 -1.579739e-08 0.00075062487 -0.006661943 9.424387e-08 -0.00037074112
-1.7643613e-07 5.867092e-09 0.00034017666 0.0072065396 -0.0051335027 -4.356041e-08 -5.0387165e-08 -1.4134059e-08
0.0022726331 0.00047140394 -2.4763689e-05 -0.003112468 -0.00045931124 -0.0006275714 -2.6832954e-06 -1.5063318e-06
-0.003963846 0.006825326 8.267766e-06 5.5366232e-05 -1.1484233e-05 -0.0047309957 0.0032312071 -0.0003735577
-0.0017343259 -4.2977885e-05 -0.00037132928 -1.4362829e-06 -3.8865197e-05 4.0027993e-05 -0.005106561 2.9507185e-06
0.0017019651 -0.0037333146 -6.496431e-06 -3.2128087e-06 6.0320513e-06 -8.40193e-05 1.2791267e-05 1.8681023e-05
-1.5467624e-05 0.00021575695 0.00010640535 9.698953e-06 -0.0034008888 -5.548138e-06 -0.00014487612 -1.8025603e-06
-0.00088734535 3.576342e-08 0.0009882239 0.00018916553 -8.8213534e-07 8.998613e-08 5.3166525e-09 0.0031043673
6.5354113e-09 -0.00018683533 -0.0057702 3.2503007e-08 -9.581776e-09 1.7989298e-05 1.2611196e-08 1.6631093e-07
-0.00075232255 -1.0543734e-08 -6.757695e-09 5.588067e-10 -2.733771e-08 1.0500199e-07 -5.6467332e-08 4.74678e-06
-1.17079814e-07 1.08095094e-07 5.385362e-06 -3.7224914e-09 0.0032805447 -0.0029049306 1.2912318e-08 5.096621e-08
-0.005419362 2.8845952e-09 -0.0024561514 -0.006650662 1.3169691e-06 -1.4074297e-05 -7.4730675e-09 -6.8692924e-10
-8.44803e-07 -1.7600665e-05 -0.0006053712 1.5501249e-07 -6.72208e-06 -0.00022346487 -0.00010064327 -3.2622216e-09
1.1141124e-07 0.0016404971 2.2063729e-07 1.3014483e-06 -6.805167e-07 4.138694e-08 -0.00032304693 4.3597566e-08
1.927577e-07 0.006540109 -1.2971336e-07 -8.4428893e-07 0.0010284082 -0.00016218533 -1.0558417e-05 6.456263e-06
-0.0060959975 1.611216e-05 -9.389081e-06 -4.2381716e-06 -0.0023742546 -8.047092e-05 2.2640772e-05 4.0289422e-05
0.0026921092 3.424206e-06 0.00022572144 1.0031561e-05 1.1103071e-05 0.001018286 -0.000101165504 0.0061690267
-1.249309e-06 4.7566855e-06 -0.0025943913 0.0020948232 -6.567935e-06 8.571374e-07 -2.453383e-07 -2.168259e-07
0.0006483699 0.0019382439 -0.0016279595 -0.0005309021 -8.8348474e-07 9.132817e-08 -0.003776897 6.657411e-07
9.148166e-07 -1.337496e-05 0.0015007176 2.411545e-06 -2.5644491e-05 0.000344181 -1.9683606e-05 3.7198042e-06
0.0072587505 0.00032431443 -2.1986482e-06 -1.0465837e-06 3.1112047e-06 -0.00029323224 1.45493195e-05 -0.0043756613
-1.8140241e-05 1.2443342e-06 9.28396e-06 5.9704043e-06 0.0023824084 -2.4273152e-06 0.00053720956 -1.4299279e-06
-3.3631354e-06 -0.0009220326 0.0001075691 -0.00096653856 -0.00304462 3.7004647e-06 -2.4331928e-07 -1.4382054e-07
1.0153884e-06 0.006991789 9.2984783e-07 -0.0047126706 3.3478238e-05 -0.003965916 8.026615e-07 1.0801916e-06
00000000: 70d5 e43b e265 2039 a3b7 e33a b644 bf37
00000010: e0c0 5ab7 08f2 a436 6518 a53b 090a 353a
00000020: b0f3 9535 1a2a 82b7 361a 9bb9 6709 da37
00000030: c5a0 20b6 2627 863b dbfe f53a e272 afbb
00000040: 3e0c 18b9 bb71 8db5 810e 8bbb 9fca 033b
00000050: 4522 72b7 1f6c 6239 7227 b8b8 0ae6 d53b
00000060: c60d 6eb8 c227 e238 ddf0 a1b6 2532 13b9
00000070: 5824 4038 6aaf 7fb8 412b 5737 acac 4c39
00000080: 2a90 c63b d09e bf35 f305 9337 7569 813a
00000090: 2b7a 8537 c3db 10b7 27dd a1b6 0e82 3eb6
000000a0: 1e45 66b7 a26f 43b6 f182 5cb7 8a8e ea35
000000b0: 562b 81b9 53fd 4fba 8703 bfbb 90f1 9fb5
000000c0: 489f 1136 d30d 0bb8 d791 0437 a6c6 b437
000000d0: 8167 abbb 672c e03b 3e31 be36 76d0 2237
000000e0: a6c7 273b 3919 c3b5 933d 56b6 d075 62b5
000000f0: ce16 8133 fa2e 19bb 7409 86b4 5d0d a0b0
00000100: e57a dd33 b577 05b9 e97a 3fb2 d4b2 87b2
00000110: 95c5 443a 6e4c dabb 1e63 ca33 0860 c2b9
00000120: 6572 3db4 7d97 c931 bd59 b239 d624 ec3b
00000130: f136 a8bb 2d17 3bb3 4669 58b3 40d2 72b2
00000140: 75f0 143b c426 f739 9ebb cfb7 8cfa 4bbb
00000150: b6cf f0b9 9b83 24ba aa12 34b6 2b2d cab5
00000160: 26e3 81bb fca6 df3b c9b5 0a37 0a39 6838
00000170: 68ac 40b7 7806 9bbb a9c2 533b 11da c3b9
00000180: 5252 e3ba 2743 34b8 f9ae c2b9 4ec6 c0b5
00000190: 3003 23b8 bbe3 2738 f054 a7bb f504 4636
000001a0: 7914 df3a a0aa 74bb ebfb d9b6 a29b 57b6
000001b0: ed66 ca36 8533 b0b8 139a 5637 31b5 9c37
000001c0: 78c0 81b7 d13c 6239 f025 df38 b0b8 2237
000001d0: 72e1 5ebb 242a bab6 e3e9 17b9 80ef f1b5
000001e0: bd9c 68ba 4c9a 1933 4b87 813a bc5a 4639
000001f0: e1cb 6cb5 663e c133 c5ad b631 a472 4b3b
00000200: 168e e031 3ae9 43b9 f213 bdbb 6f99 0b33
00000210: 199d 24b2 b9e7 9637 a0a8 5832 3393 3234
00000220: 8337 45ba d523 35b2 5031 e8b1 879a 1930
00000230: 43d4 eab2 747d e133 7d86 72b3 8846 9f36
00000240: 4f6d fbb3 e821 e833 e8b3 b436 c3ce 7fb1
00000250: 68fe 563b a660 3ebb fad4 5d32 f1e5 5a33
00000260: e794 b1bb 563a 4631 62f7 20bb cced d9bb
00000270: b7c2 b035 a520 6cb7 e662 00b2 59d2 3cb0
00000280: 6cc6 62b5 24a5 93b7 c6b1 1eba 8271 2634
00000290: 3a8e e1b6 e551 6ab9 7210 d3b8 9c2d 60b1
000002a0: fa40 ef33 f305 d73a 51e8 6c34 6cad ae35
000002b0: c0ac 36b5 6cc1 3133 a05e a9b9 0840 3b33
000002c0: d5f8 4e34 694e d63b 5647 0bb4 18a3 62b5
000002d0: a7cb 863a 4b10 2ab9 0e24 31b7 e0a2 d836
000002e0: efc0 c7bb 9a28 8737 cc85 1db7 9e35 8eb6
000002f0: 6299 1bbb 7fc2 a8b8 b0ec bd37 70fc 2838
00000300: 196e 303b 69cb 6536 a3af 6c39 3a4d 2837
00000310: 5447 3a37 0278 853a d128 d4b8 8c25 ca3b
00000320: eead a7b5 9e9b 9f36 aa06 2abb 4d49 093b
00000330: 2262 dcb6 0916 6635 0ab7 83b4 a6d0 68b4
00000340: 5ef7 293a ac0c fe3a 4261 d5ba 3d2c 0bba
00000350: 9c28 6db5 3120 c433 d185 77bb 61b5 3235
00000360: b891 7535 0465 60b7 bab3 c43a 07d6 2136
00000370: 201f d7b7 3173 b439 391e a5b7 c0a1 7936
00000380: d0da ed3b bf08 aa39 7d8c 13b6 5878 8cb5
00000390: 17ca 5036 f7bc 99b9 da18 7437 b561 8fbb
000003a0: df2b 98b7 ff02 a735 4ec2 1b37 6255 c836
000003b0: 2e22 1c3b f5e4 22b6 86d3 0c3a f3eb bfb5
000003c0: 3ab2 61b6 8fb4 71ba b996 e138 4e5f 7dba
000003d0: 3f88 47bb 8055 7836 8ca1 82b4 176d 1ab4
000003e0: 7b48 8835 611b e53b a89a 7935 bf6c 9abb
000003f0: fc6a 0c38 84f4 81bb 7a76 5735 1afb 9035

lstm.bias_ih_l0 f4 [80]
0.00021584862 -0.0062176115 0.00044466762 -0.0037859585 0.0016587316 0.0013731946 2.241383e-06 0.0017714621
-1.20345e-05 0.0026775335 6.784318e-05 -0.008034323 0.00012142938 1.7035863e-06 9.604379e-05 3.3237076e-05
0.0050694128 8.791451e-06 0.00023318826 2.1534906e-06 0.00025056975 0.0019409539 0.00047328288 5.893586e-06
0.005687035 0.0015527834 1.9864015e-06 -0.00073625054 1.9786405e-05 0.0013232579 -0.00010564504 0.001981644
8.5720254e-05 0.0054012267 0.00021142661 0.0047252188 7.416449e-05 1.31040115e-05 0.00043231001 2.543801e-06
-0.017408613 0.052914783 -0.027655605 0.0071022944 -0.046483833 0.057919104 -0.00095578644 -0.0014891229
0.004875964 -0.040865235 0.014731279 0.036330357 -0.014977663 0.0023593286 0.011811394 0.0037248232
0.008262925 -0.0039973436 -0.0044790693 -0.0015744524 0.0019934545 0.0024832222 0.0005026024 -0.0017029642
0.0018802774 0.0019348989 6.808589e-07 2.8982447e-06 1.2201128e-05 0.001352621 0.004310311 0.0043605566
-0.001099224 1.4840116e-06 -0.0018107176 -0.00017110062 0.006448838 -0.006086365 8.254535e-05 -0.003453274
00000000: 6c55 6239 1bbd cbbb 4722 e939 d81d 78bb
00000010: cc69 d93a c4fc b33a ab6a 1636 6830 e83a
00000020: c9e7 49b7 8f79 2f3b 0847 8e38 65a2 03bc
00000030: e7a7 fe38 c8a6 e435 1e6b c938 0a68 0b38
00000040: 511d a63b ff7e 1337 ff83 7439 b084 1036
00000050: e75e 8339 9b67 fe3a f422 f839 85c1 c536
00000060: 4f5a ba3b c486 cb3a 1e4e 0536 f000 41ba
00000070: fbfa a537 2b71 ad3a c08d ddb8 78de 013b
00000080: b6c4 b338 c6fc b03b 66b2 5d39 02d6 9a3b
00000090: c288 9b38 4dd9 5b37 aba7 e239 2bb6 2a36
000000a0: 829c 8ebc 2cbd 583d 028e e2bc 5dba e83b
000000b0: d565 3ebd 953c 6d3d be8d 7aba ac2e c3ba
000000c0: 8dc6 9f3b 4e62 27bd 765b 713c 24cf 143d
000000d0: df64 75bc f79e 1a3b 9484 413c 2a1c 743b
000000e0: 3861 073c 26fc 82bb 28c5 92bb db5d ceba
000000f0: 9ea4 023b 8ebd 223b 13c1 033a ff35 dfba
00000100: a473 f63a 6f9c fd3a 44c4 3635 777f 4236
00000110: 72b3 4c37 6e4a b13a 823d 8d3b 00e3 8e3b
00000120: d613 90ba 402e c735 9a55 edba 7969 33b9
00000130: c650 d33b 2170 c7bb 331c ad38 5350 62bb

lstm.bias_hh_l0 f4 [80]
0.00063902483 0.0038008653 0.0005158521 1.002454e-05 0.0013507224 0.0025813263 8.758365e-05 2.672746e-06
2.0348085e-05 0.0019688348 0.0010950661 0.002526821 0.00010566434 0.00029948732 0.00013372839 -5.072578e-05
7.411297e-05 -0.0029360242 -0.00061892637 3.915014e-07 0.00024097825 0.001620962 0.0004458666 0.0027552268
0.0015016147 0.0016605527 6.59753e-07 -0.0051137134 -0.0038348255 0.003069412 -0.0034893574 0.0023631149
-0.00036902976 1.2668506e-06 0.00016693279 3.2730954e-05 6.949832e-05 1.1189667e-05 2.0881505e-05 0.000105605126
-0.022956543 0.05304125 -0.028113656 -0.0024756002 -0.042838257 0.052347057 -0.0035034588 -0.00089370745
0.005154827 -0.041920513 0.0075583467 0.042694103 -0.011630605 0.002478137 0.018117711 0.015144926
0.015787672 -0.0039175795 -0.0051302826 -0.0015388284 -0.00039283306 0.003172055 0.000634571 9.166478e-06
0.003804637 -0.0066176825 6.8207913e-07 1.9567476e-06 0.0028821724 0.0017326674 0.0036181994 0.0061395997
0.00012315184 0.0011309581 0.00010418706 -4.8003334e-05 0.00011683515 -0.0002782651 0.0039403923 0.002150928
00000000: 3b84 273a f017 793b 403a 073a 122f 2837
00000010: b90a b13a 782b 293b 1dad b738 6d5d 3336
00000020: 2eb1 aa37 9107 013b 5288 8f3a 0699 253b
00000030: 1c98 dd38 8204 9d39 7139 0c39 64c2 54b8
00000040: 196d 9b38 506a 40bb 723f 22ba 8b2f d234
00000050: 1baf 7c39 7676 d43a 34c3 e939 0991 343b
00000060: d4d1 c43a e7a6 d93a e219 3135 f090 a7bb
00000070: b251 7bbb 3028 493b b4ad 64bb 7dde 1a3b
00000080: 567a c1b9 a808 aa35 ae0a 2f39 9848 0938
00000090: a0bf 9138 41bb 3b37 b12a af37 5278 dd38
000000a0: 5c0f bcbc c841 593d 9c4e e6bc ae3d 22bb
000000b0: 2b77 2fbd de69 563d 499a 65bb b147 6aba
000000c0: d3e9 a83b d8b4 2bbd 02ac f73b 03e0 2e3d
000000d0: 4b8e 3ebc 3d68 223b 986b 943c 6c22 783c
000000e0: 2655 813c 0a5f 80bb ee1b a8bb 83b2 c9ba
000000f0: 29f5 cdb9 40e2 4f3b 5759 263a b9c9 1937
00000100: 3757 793b 25d9 d8bb 1f18 3735 ab50 0336
00000110: d4e2 3c3b ac1a e33a 501f 6d3b b22e c93b
00000120: 5222 0139 a83c 943a 007f da38 3057 49b8
00000130: 6505 f538 1ce4 91b9 681e 813b 95f6 0c3b

lstm.weight_ih_l1 f4 [80, 20]
0.005311369 0.0032859254 -0.0014914607 0.0010554391 -0.002056682 0.0056746695 -0.00010562454 0.00043281124
0.00032788812 -0.0024379941 0.0004909463 0.0020208552 -0.00042982097 0.00010536369 0.00083473354 0.00047308157
0.0007337688 0.00014590846 -0.00041179886 -5.7165595e-05 -0.0012476991 0.0057771867 -0.0014888092 0.00012893532
-0.0031101112 0.0062167 -0.00015487548 -0.00482286 4.231006e-05 -0.00603233 0.0005201024 0.0019443332
0.0004377957 6.92964e-05 0.00028522144 0.0004053469 0.00061922503 -8.593937e-05 -0.00027634687 -0.0008981243
-0.0012594784 0.011093274 -0.002571675 0.00018448623 -0.003179838 0.0048901676 -0.0002452453 -0.00012429082
0.00036802585 -0.004547236 0.0008868961 0.0035071385 -0.0008629173 0.0020309328 0.0009329021 -0.000692766
0.00061188894 -0.0002683334 -5.231505e-05 -0.001688914 -5.965858e-06 0.001910256 -8.107102e-06 5.4085234e-07
-0.006941723 0.0006769893 -7.8938615e-07 -5.3796764e-05 1.4540287e-06 -0.00048769778 3.1644615e-06 8.858279e-06
-3.7853279e-06 1.336333e-05 -3.3234828e-05 -9.822777e-05 3.1224724e-06 0.0036160997 -0.0013242132 0.0022344303
-0.0003449189 0.0009545399 -0.0005289037 -0.0007764033 -0.0007873238 0.0010537605 -5.6671222e-05 0.0034987114
0.00013698076 -0.0006786869 0.0010753467 -0.00039242906 -0.0046969005 0.0009316237 0.00024719568 0.00016179714
0.00020186664 -7.039195e-05 -0.0014884777 -0.0002040489 -0.0030649668 0.0030206721 -0.0014117259 0.0001352498
-0.0033740595 0.0030894373 -0.00014280604 -9.673996e-05 0.00038997008 -0.0057263123 0.000639424 0.0026215664
-0.0006639267 8.674736e-05 0.0009843499 -0.0037321334 0.00043118093 -0.00024484948 -0.000307487 -2.6199403e-05
-0.0068114074 0.0035529328 -0.0067048375 0.00016698976 -0.003320096 0.005047199 -0.00019335393 -0.0058213547
0.00040714574 -0.008072822 0.0006244353 0.0029232672 -0.0012196883 0.0065004677 0.001159596 -0.0029236386
0.0007884262 -0.00030523204 -0.0003297332 -5.5505883e-05 -0.0012070027 0.0036805633 -0.0018435103 0.00021200776
-0.0023990115 0.0033204244 -0.002995655 -0.0020765006 0.00030642864 -0.0022722085 0.00020548527 0.002206591
-0.0008802889 9.9747784e-05 0.0010221141 0.0006632795 -0.00022872796 -0.00033172988 -0.00036390364 -5.68035e-05
-0.001562278 0.0041295653 -0.0024193744 0.00033343618 -0.003806438 0.0041449624 -0.00021854573 -0.00015500205
0.0008470607 -0.0036586726 0.00014043947 0.0032106722 -0.00086681114 0.0043446408 0.0023767455 0.00022508009
0.0023337896 -0.00035719582 -0.00037150516 -0.0009962654 -0.0010626186 0.0032297196 -0.006576129 4.745851e-05
-0.0027091866 -0.004309031 -7.777198e-05 -0.00010250695 0.0001979298 -0.0025967055 0.000548597 0.001900092
-0.0073517943 8.517613e-05 -2.692784e-05 5.478231e-05 0.00030138585 -4.427089e-05 -0.00030442444 -7.6456025e-05
-0.0016786226 0.0048945146 -0.0018938994 0.00014205006 -0.0024252941 -0.0014020621 -0.0001755997 -6.1482824e-05
0.00040435244 -0.003453778 0.00077849475 0.0020155755 -0.0007597156 8.642494e-05 0.00085869076 0.0005287151
0.0006415748 -0.00026720032 -0.0008901475 -7.884599e-05 -0.0032917056 0.0046718605 -0.0022541524 0.0028752808
-0.0033605117 0.0047205943 -0.00024756158 -0.00021144203 0.00067942904 -0.0033103828 0.00083414384 0.002503244
-0.0007207617 0.005459096 0.00078890414 0.0005696053 0.00093189307 -0.003817512 0.0010460936 -8.5549036e-05
-0.0015696416 0.0033503298 -0.0012077497 1.4758516e-05 -0.0006553312 0.0029094005 -0.0021603464 -0.00012298021
0.00017238906 -0.0013270875 0.006516151 0.0018447359 -0.00053853355 7.1008384e-05 0.0002326205 -0.00012372929
00000000: fe0a ae3b ae58 573b 1e7d c3ba a956 8a3a
00000010: 66c9 06bb 94f2 b93b be82 ddb8 f1ea e239
00000020: 66e8 ab39 c1c6 1fbb d9b2 003a 5370 043b
00000030: 9859 e1b9 b3f6 dc38 05d2 5a3a ef07 f839
00000040: 645a 403a 01ff 1839 b5e6 d7b9 17c5 6fb8
00000050: d689 a3ba 8e4e bd3b 2624 c3ba d032 0739
00000060: 02d3 4bbb 76b5 cb3b 1266 22b9 1509 9ebb
00000070: 1576 3138 daaa c5bb 7b57 083a ffd8 fe3a
00000080: f287 e539 3953 9138 c689 9539 bd84 d439
00000090: 7d53 223a 593a b4b8 a6e2 90b9 1a70 6bba
000000a0: 1515 a5ba 90c0 353c 8c89 28bb a572 4139
000000b0: d464 50bb b33d a03b 4494 80b9 1054 02b9
000000c0: 98f3 c039 fb00 95bb 977e 683a 05d8 653b
000000d0: 6635 62ba 6619 053b 008e 743a bd9a 35ba
000000e0: 2c67 203a 19af 8cb9 db6c 5bb8 8d5e ddba
000000f0: 542e c8b6 8e61 fa3a bd03 08b7 172f 1135
00000100: 6577 e3bb fc77 313a 34e6 53b5 d6a3 61b8
00000110: 0c28 c335 b0b1 ffb9 095d 5436 059e 1437
00000120: 7007 7eb6 1133 6037 a065 0bb8 a2ff cdb8
00000130: ab8b 5136 16fc 6c3b 3991 adba 856f 123b
00000140: 3bd6 b4b9 173a 7a3a 20a6 0aba 8b87 4bba
00000150: 6864 4eba 561e 8a3a 43b2 6db8 a34a 653b
00000160: 7ea2 0f39 e8e9 31ba a6f2 8c3a f0be cdb9
00000170: 75e8 99bb 3538 743a 0b9a 8139 17a8 2939
00000180: 2aac 5339 649f 93b8 0619 c3ba f6f5 55b9
00000190: 9cdd 48bb 78f6 453b a909 b9ba d7d1 0d39
000001a0: 531f 5dbb 2878 4a3b 34be 15b9 dfe0 cab8
000001b0: e674 cc39 caa3 bbbb 059f 273a 96ce 2b3b
000001c0: 5e0b 2eba 22ec b538 4d05 813a cf96 74bb
000001d0: 2010 e239 245f 80b9 3536 a1b9 cac6 dbb7
000001e0: 3a32 dfbb 52d8 683b 41b4 dbbb f919 2f39
000001f0: f895 59bb f962 a53b 0dbf 4ab9 10c1 bebb
00000200: 2d76 d539 df43 04bc 25b1 233a 4994 3f3b
00000210: f3dd 9fba e001 d53b 96fd 973a 849a 3fbb
00000220: 63ae 4e3a 8d07 a0b9 0ae0 acb9 fdce 68b8
00000230: 4a34 9eba 9b35 713b f1a1 f1ba 664e 5e39
00000240: bc38 1dbb 7a9b 593b c052 44bb e615 08bb
00000250: 28a8 a039 55e9 14bb 8877 5739 749c 103b
00000260: 30c3 66ba af2f d138 75f8 853a efdf 2d3a
00000270: b2d6 6fb9 08ec adb9 52ca beb9 4b40 6eb8
00000280: 5ac5 ccba 4e51 873b 5e8e 1ebb 0cd1 ae39
00000290: 6f75 79bb 77d2 873b 6c29 65b9 0c88 22b9
000002a0: 480d 5e3a 57c6 6fbb ef42 1339 246a 523b
000002b0: b63a 63ba 7d5d 8e3b 2cc3 1b3b 7a03 6c39
000002c0: 7ef2 183b 0346 bbb9 94c6 c2b9 1f95 82ba
000002d0: 9047 8bba b4a9 533b 917c d7bb 300e 4738
000002e0: 9c8c 31bb c632 8dbb 8419 a3b8 00f9 d6b8
000002f0: 608b 4f39 7d2d 2abb b9cf 0f3a 820c f93a
00000300: 52e7 f0bb 96a0 b238 19e3 e1b7 0fc6 6538
00000310: 5303 9e39 82af 39b8 289b 9fb9 0457 a0b8
00000320: 3a05 dcba 2a62 a03b b83c f8ba 46f3 1439
00000330: aff1 1ebb 66c5 b7ba 2f21 38b9 57f0 80b8
00000340: 44ff d339 c858 62bb e613 4c3a bf17 043b
00000350: a727 47ba 093f b538 c319 613a 7899 0a3a
00000360: 5b2f 283a 0517 8cb9 ca58 69ba 1e5a a5b8
00000370: a8b9 57bb 6816 993b 67ba 13bb 356f 3c3b
00000380: 083c 5cbb 37af 9a3b 27cb 81b9 8ab6 5db9
00000390: b61b 323a 02f3 58bb 72aa 5a3a 770d 243b
000003a0: 80f1 3cba 37e2 b23b 76ce 4e3a 9151 153a
000003b0: 494a 743a 392f 7abb 141d 893a ca68 b3b8
000003c0: 6fbc cdba 3591 5b3b 5b4d 9eba 589b 7737
000003d0: 88ca 2bba a4ab 3e3b 9994 0dbb 40f4 00b9
000003e0: 56c3 3439 abf1 adba 7085 d53b 11cb f13a
000003f0: 602c 0dba 56ea 9438 97eb 7339 54bd 01b9

lstm.weight_hh_l1 f4 [80, 20]
0.016165787 0.015920604 0.024383008 -0.0010155016 0.008361779 0.019255728 0.023661371 0.021387568
0.027780421 -0.016272966 -0.019595819 -0.023155399 0.014667384 0.022002986 -0.016368046 -0.02183314
-0.01695347 -0.011768261 0.014290852 0.014513672 0.014287687 0.015488848 0.021998627 -0.00094091764
0.005929015 0.017912334 0.022167515 0.018733447 0.024976078 -0.01270805 -0.018668054 -0.020015322
0.00536185 0.022907196 -0.010734036 -0.01777686 -0.014820687 -0.0067149773 0.01821713 0.024010614
0.023968834 0.02407488 0.03581885 -0.0008317722 0.012160987 0.026495107 0.03285816 0.027854957
0.03541101 -0.02342387 -0.030280622 -0.031269785 0.02135162 0.034286827 -0.031004908 -0.029027145
-0.023271589 -0.013818183 0.029399423 0.035986688 9.972959e-05 9.4298855e-05 0.0001269115 -4.2329007e-06
1.2413391e-05 0.0006056231 0.00012673222 0.00011407381 -0.0008639254 0.00043253807 0.0015259469 -0.00013149352
-0.004225141 0.00013192504 -0.00011435884 -0.00011829665 -0.00022905972 -8.1160644e-05 -0.003564348 0.00013224683
0.0056066993 0.0049320217 0.007951093 -0.0008346239 0.0047382987 0.0062197833 0.007176603 0.0066616763
0.013909278 -0.0048869518 -0.006376335 -0.007033836 0.0048612608 0.00619224 -0.0070184167 -0.00043285647
-0.005029543 -0.004027156 0.006135277 0.00806751 0.021837907 0.016767506 0.026917685 -0.002149178
0.009609731 0.022303024 0.02487828 0.021710694 0.029445441 -0.017508302 -0.02106868 -0.023492962
0.016220383 0.02689068 -0.02351678 -0.024310851 -0.01833605 -0.01421085 0.021924939 0.03092869
0.022971036 0.024155201 0.03340383 -0.0012648868 0.012330204 0.02556646 0.033518285 0.02851577
0.028510025 -0.022596532 -0.026904954 -0.033406418 0.020914342 0.033671375 -0.03165527 -0.02909637
-0.022981087 -0.010393929 0.019615725 0.039745495 0.013169007 0.014885145 0.028468667 -0.0009748842
0.010556078 0.020032655 0.02732656 0.023202008 0.030647755 -0.019181913 -0.022606373 -0.026063455
0.01617981 0.031979546 -0.025197899 -0.02419134 -0.01954083 -0.015421408 0.023563227 0.029819546
0.018701088 0.024926562 0.036489908 -0.0011651226 0.013287413 0.027103012 0.02447877 0.030762095
0.043325726 -0.024866974 -0.027572406 -0.033717483 0.020924786 0.037161645 -0.035730265 -0.031355582
-0.02524958 -0.020022102 0.029796388 0.03935973 0.015658205 0.01588835 0.023197992 -0.0072623757
0.007884621 0.014427004 0.022078997 0.018742213 0.025310619 -0.015332516 -0.01840657 -0.021110693
0.01425374 0.02367403 -0.020639757 -0.01899679 -0.01553126 -0.011951188 0.021745719 0.023960099
0.018504791 0.017348759 0.028199064 -0.0010928859 0.009059225 0.022177408 0.02625125 0.018620236
0.035459418 -0.01655682 -0.022818226 -0.03039192 0.017521752 0.028372718 -0.02463273 -0.017736945
-0.019018332 -0.01489182 0.023195596 0.029320283 0.02600328 0.021468267 0.0329641 -0.0013678042
0.011707119 0.024145655 0.022604719 0.026169747 0.034532834 -0.022715002 -0.026280278 -0.02893301
0.013266086 0.030854177 -0.028459394 -0.027151661 -0.021910898 -0.016683983 0.026140798 0.034108978
0.012555678 0.013494888 0.019549368 -0.0039585535 0.0074605457 0.0151565885 0.022788132 0.016014474
0.021471655 -0.012788427 -0.011526437 -0.016134111 0.01187466 0.019832673 -0.017438952 -0.016593283
00000000: 1d6e 843c ed6b 823c e0be c73c 941a 85ba
00000010: d8ff 083c 30be 9d3c 7ed5 c13c fb34 af3c
00000020: c493 e33c e24e 85bc 6987 a0bc 64b0 bdbc
00000030: 784f 703c 9b3f b43c 4816 86bc 6adb b2bc
00000040: 01e2 8abc aacf 40bc 2d24 6a3c c1ca 6d3c
00000050: e716 6a3c f0c4 7d3c 7736 b43c eaa7 76ba
00000060: 2f48 c23b e3bc 923c a698 b53c e376 993c
00000070: a29a cc3c 6d35 50bc bfed 98bc 2cf7 a3bc
00000080: 75b2 af3b dfa7 bb3c cfdd 2fbc c7a0 91bc
00000090: 77d2 72bc 5009 dcbb 173c 953c e8b1 c43c
000000a0: 4a5a c43c af38 c53c c9b6 123d 4a0b 5aba
000000b0: e03e 473c 440c d93c 4796 063d 1430 e43c
000000c0: 230b 113d 6ae3 bfbc 110f f8bc bf14 00bd
000000d0: 98e9 ae3c 5870 0c3d 01fe fdbc 56ca edbc
000000e0: 0fa4 bebc a965 62bc 0fd7 f03c c766 133d
000000f0: ea25 d138 50c2 c538 8c13 0539 5708 8eb6
00000100: 1c43 5037 aec2 1e3a 6ce3 0439 e93a ef38
00000110: 0d79 62ba 47c6 e239 4802 c83a 86e1 09b9
00000120: 0d73 8abb 5c55 0a39 efd3 efb8 0816 f8b8
00000130: c02f 70b9 ca34 aab8 d697 69bb bdab 0a39
00000140: 67b8 b73b cc9c a13b 4d45 023c a9ca 5aba
00000150: bb43 9b3b 53cf cb3b b629 eb3b 314a da3b
00000160: bee3 633c b922 a0bb 93f0 d0bb 187c e6bb
00000170: 364b 9f3b 46e8 ca3b bffa e5bb 03f1 e2b9
00000180: ddce a4bb 3cf6 83bb 6f0a c93b 972d 043c
00000190: 69e5 b23c 025c 893c 7a82 dc3c 39d9 0cbb
000001a0: 2272 1d3c d5b4 b63c 89cd cb3c a0da b13c
000001b0: 9137 f13c 926d 8fbc 3998 acbc 5074 c0bc
000001c0: 9ce0 843c d849 dc3c 43a6 c0bc 8d27 c7bc
000001d0: 7c35 96bc a0d4 68bc ee9b b33c 2a5e fd3c
000001e0: c12d bc3c 21e1 c53c 74d2 083d 8fca a5ba
000001f0: a004 4a3c c170 d13c 784a 093d e799 e93c
00000200: db8d e93c 5d1c b9bc c767 dcbc 2bd5 08bd
00000210: 8e54 ab3c ffea 093d f5a8 01bd 835b eebc
00000220: d542 bcbc 4c4b 2abc 28b1 a03c 2ccc 223d
00000230: d2c2 573c d3e0 733c 1f37 e93c 5f8f 7fba
00000240: 66f3 2c3c 861b a43c f3db df3c 2312 be3c
00000250: 0011 fb3c 6323 9dbc 0031 b9bc 0783 d5bc
00000260: 858b 843c fcfc 023d d36b cebc eb2c c6bc
00000270: 1714 a0bc 13aa 7cbc ab07 c13c 1f48 f43c
00000280: 0633 993c ca32 cc3c 7176 153d 07b7 98ba
00000290: 73b3 593c 2307 de3c b487 c83c ca00 fc3c
000002a0: 5176 313d d3b5 cbbc 87df e1bc 581b 0abd
000002b0: 756a ab3c cf36 183d e659 12bd b66e 00bd
000002c0: 35d8 cebc 6405 a4bc 8e17 f43c ab37 213d
000002d0: a345 803c 4928 823c b709 be3c 39f9 edbb
000002e0: 7f2e 013c 3e5f 6c3c 03df b43c 4589 993c
000002f0: 3758 cf3c 3c35 7bbc 60c9 96bc 55f0 acbc
00000300: 8588 693c 0af0 c13c b514 a9bc 289f 9bbc
00000310: d376 7ebc eace 43bc 1424 b23c f847 c43c
00000320: 5c97 973c fc1e 8e3c b901 e73c 2a3f 8fba
00000330: 256d 143c 65ad b53c dd0c d73c 7789 983c
00000340: e53d 113d 2ba2 87bc 4aed babc 7af8 f8bc
00000350: c789 8f3c e76d e83c 94ca c9bc 124d 91bc
00000360: 55cc 9bbc d2fc 73bc b104 be3c 1731 f03c
00000370: d504 d53c 38de af3c 5d05 073d e547 b3ba
00000380: 37cf 3f3c 1ccd c53c 882d b93c f061 d63c
00000390: 4d72 0d3d d014 babc bd49 d7bc eb04 edbc
000003a0: ff59 593c e6c1 fc3c ad23 e9bc 296d debc
000003b0: 7c7e b3bc d9ac 88bc 3a25 d63c dbb5 0b3d
000003c0: 55b6 4d3c aa19 5d3c ff25 a03c c1b6 81bb
000003d0: 9877 f43b 5753 783c 2dae ba3c c930 833c
000003e0: 53e5 af3c 8d86 51bc 61d9 3cbc af2b 84bc
000003f0: ef8d 423c 2178 a23c 22dc 8ebc a3ee 87bc

lstm.bias_ih_l1 f4 [80]
0.023059584 0.043123942 0.06478243 0.00027192204 0.010077597 0.0500959 0.052643348 0.05404007
0.083298445 0.043416474 0.053257536 0.061490968 0.036534794 0.07523414 0.055439506 0.04703276
0.04427923 0.026629461 0.05384791 0.07097862 0.05917515 0.05479341 0.10915378 6.5180924e-05
0.020704534 0.07030142 0.09311883 0.076237164 0.09402253 0.052763276 0.07485958 0.09251075
0.035641342 0.10234905 0.08569793 0.08593237 0.056741696 0.034190524 0.06988118 0.12132286
0.13951705 0.10340191 0.1548493 -0.006658176 0.08099018 0.12754759 0.1826629 0.13528657
0.21935986 -0.06268323 -0.13976921 -0.159408 0.10731908 0.04625253 -0.13838643 -0.050725706
-0.12448534 -0.095639415 0.13381279 0.23248725 0.06030142 0.048431724 0.11760328 0.00025453922
0.015022172 0.069565706 0.11137135 0.08100314 0.15197296 0.05915585 0.07941958 0.09846545
0.0465875 0.13199851 0.09330338 0.08031373 0.06086309 0.023207692 0.07817164 0.10683287
00000000: 74e7 bc3c bba2 303d a7ac 843d c290 8e39
00000010: 811c 253c 5c31 4d3d 8da0 573d 1f59 5d3d
00000020: 6098 aa3d 79d5 313d 9324 5a3d f4dd 7b3d
00000030: 82a5 153d 5b14 9a3d 8914 633d 6ca5 403d
00000040: 235e 353d 0726 da3c a08f 5c3d 3d5d 913d
00000050: a461 723d 0e6f 603d 048c df3d beb1 8838
00000060: 8e9c a93c 31fa 8f3d 16b5 be3d 3b22 9c3d
00000070: e28e c03d 4e1e 583d fb4f 993d 4776 bd3d
00000080: a8fc 113d 619c d13d 6582 af3d 4ffd af3d
00000090: fb69 683d 5d0b 0c3d dd1d 8f3d 1f78 f83d
000000a0: 8fdd 0e3e 61c4 d33d d190 1e3e d42c dabb
000000b0: 2ede a53d d69b 023e fc0b 3b3e 9088 0a3e
000000c0: df9f 603e 1160 80bd a91f 0fbe da3b 23be
000000d0: 1bca db3d 4b73 3d3d 2cb5 0dbe c2c5 4fbd
000000e0: 2cf2 febd 99de c3bd 3806 093e 2311 6e3e
000000f0: 9ffe 763d 5860 463d fdd9 f03d ad73 8539
00000100: 8e1f 763c 7778 8e3d aa16 e43d f9e4 a53d
00000110: cd9e 1b3e 684d 723d bca6 a23d 41a8 c93d
00000120: 89d2 3e3d 9e2a 073e d815 bf3d 867b a43d
00000130: 934b 793d 0f1e be3c 7418 a03d 31cb da3d

lstm.bias_hh_l1 f4 [80]
0.024664294 0.043159604 0.06722169 0.0001289434 0.016796304 0.050246686 0.0694047 0.054009598
0.07023031 0.04289535 0.050224844 0.061537158 0.037320122 0.07639352 0.05969185 0.0578351
0.044071015 0.031115478 0.053769488 0.07095639 0.044233985 0.054049566 0.109756485 0.0002724921
0.015814036 0.07015227 0.10315836 0.07020744 0.14242423 0.053954475 0.07595651 0.09270751
0.045034867 0.056367513 0.08834266 0.058535144 0.057195313 0.025976423 0.079494774 0.12314096
0.08500106 0.12500297 0.15150973 -0.00822448 0.06145369 0.11593894 0.097152695 0.12254402
0.13723601 -0.1294638 -0.12979262 -0.11357199 0.10948521 0.1725844 -0.13421234 -0.15375441
-0.105423376 -0.09742379 0.11852216 0.004127374 0.057529785 0.05717121 0.119152024 0.003252817
0.015666185 0.06451746 0.11240357 0.081218444 0.16588143 0.058453552 0.078492 0.098542646
0.045857318 0.13224885 0.09526353 0.08624821 0.041475184 0.036883224 0.0813007 0.14406094
00000000: c60c ca3c 20c8 303d 87ab 893d fb34 0739
00000010: 6798 893c 78cf 4d3d 0d24 8e3d 2b39 5d3d
00000020: e9d4 8f3d 09b3 2f3d 91b8 4d3d 630e 7c3d
00000030: fcdc 183d 3574 9c3d 717f 743d 7fe4 6c3d
00000040: cf83 343d e3e5 fe3c 653d 5c3d 9551 913d
00000050: b22e 353d 1463 5d3d 02c8 e03d 45dd 8e39
00000060: 708c 813c feab 8f3d b144 d33d ebc8 8f3d
00000070: a8d7 113e 5eff 5c3d 168f 9b3d 6fdd bd3d
00000080: 7b76 383d 9fe1 663d ffec b43d 8cc2 6f3d
00000090: a245 6a3d 82cc d43c 28ce a23d 5431 fc3d
000000a0: 0915 ae3d c700 003e 5e25 1b3e f8bf 06bc
000000b0: ddb6 7b3d 6571 ed3d fef7 c63d 5cf8 fa3d
000000c0: 9987 0c3e 2992 04be 5be8 04be 6e98 e8bd
000000d0: c839 e03d f7b9 303e f66e 09be cc71 1dbe
000000e0: 36e8 d7bd 2086 c7bd bfbb f23d ec3e 873b
000000f0: 5aa4 6b3d 5c2c 6a3d fa05 f43d 372d 553b
00000100: 5f56 803c bb21 843d d833 e63d db55 a63d
00000110: d2dc 293e fe6c 6f3d 6ac0 a03d bad0 c93d
00000120: e2d4 3b3d 3e6c 073e 8719 c33d e7a2 b03d
00000130: e2e1 293d dd12 173d fb80 a63d b684 133e

fc.weight f4 [30, 20]
0.029024405 0.039835356 0.060262095 -0.0020091569 0.021563215 0.025225762 0.057402883 0.048359938
0.06976837 -0.039008237 -0.048939202 -0.03806484 0.036465105 0.037062876 -0.057082046 -0.05014339
-0.040542517 -0.031066403 0.039945986 0.06322871 0.048301186 0.058729023 0.09330429 -0.00828402
0.032292992 0.06815475 0.10888074 0.071588054 0.017768826 -0.056555375 -0.042569656 -0.086224005
0.013590004 0.12191023 -0.074829005 -0.07399875 -0.058607597 -0.04552827 0.06822739 0.10730959
0.040482093 0.038319346 0.060366783 -0.0025003033 0.01765072 0.04646287 0.058516756 0.04842697
0.0724046 -0.039396167 -0.04880751 -0.05514214 0.025443424 0.062253825 -0.059707083 -0.050612856
-0.040845737 -0.032174464 0.024603337 0.042117376 0.04766155 0.047046445 0.06918836 -0.0039318614
0.025286427 0.054296587 0.071728334 0.057028316 0.082477525 -0.045941815 -0.03781318 -0.06414109
0.04303769 0.07310736 -0.07416191 -0.060394034 -0.04780553 -0.030957654 0.05752723 0.07582123
0.042369362 0.041851874 0.06582471 -0.0025702838 -0.0016245099 0.049337577 0.03136136 0.05090855
0.08029311 -0.041234046 -0.021032333 -0.02301687 0.038256574 0.06441301 -0.077483356 -0.052987233
-0.033128787 -0.027917406 0.0513085 0.07128014 0.03983006 0.039396938 0.05867993 -0.0023455408
0.021543568 0.045313995 0.05564217 0.047407653 0.064503446 -0.03433404 -0.04739753 -0.052856036
0.035873868 0.056730732 -0.05223051 -0.05087589 -0.040030234 -0.03147918 0.038887694 0.061888374
0.05435361 0.053396374 0.08230435 -0.003023331 0.028954232 0.031689357 0.08948993 0.050039735
0.1199832 -0.05249759 -0.06990427 -0.07413888 0.028078975 0.08795546 -0.038088135 -0.06789792
-0.05360817 -0.042504203 0.06702624 0.08836517 0.0695317 0.060533006 0.11574702 -0.0023592561
0.004936489 0.02254849 0.14835249 0.011493923 0.08834415 -0.04543312 -0.03232846 -0.017251398
0.03719418 0.025375305 -0.02875893 -0.06796789 -0.042993803 -0.042230077 0.05616197 0.1531873
0.049406264 0.021421887 0.073496275 -0.0022983705 0.0069580935 0.056680027 0.029611262 0.059560746
0.100997366 -0.04815249 -0.06034296 -0.06666071 0.044466224 0.07710912 -0.07555706 -0.061579965
-0.049683984 -0.038088743 0.059697356 0.07950077 0.03837825 0.032159187 0.05401831 -0.0044637625
0.0131896855 0.04588678 0.034317326 0.04922815 0.07946016 -0.039274268 -0.04001152 -0.03513927
0.006092695 0.06817116 -0.07683266 -0.049909845 -0.025036246 -0.030769188 0.020938562 0.06812011
0.036779165 0.036102816 0.05465711 -0.001993278 0.019574394 0.042094722 0.022677148 0.044088393
0.058687504 -0.036318853 -0.02524603 -0.046639934 0.032353923 0.056825142 -0.058393065 -0.045887362
-0.02064994 -0.02893013 0.04450144 0.05568913 0.03981089 0.039122887 0.059636462 -0.0023094013
0.020699201 0.04542925 0.056920417 0.047330298 0.06663543 -0.039112583 -0.046510812 -0.0434696
0.036072724 0.058905758 -0.054185763 -0.032942224 -0.03959722 -0.02603603 0.047767952 0.061002992
0.037776046 0.037931453 0.05648478 -0.0075724777 0.02033543 0.028458077 0.05452322 0.045702826
0.06672222 -0.030792536 -0.04404436 -0.051687866 0.033096395 0.057739332 -0.05372188 -0.047387432
00000000: 97c4 ed3c 662a 233d 63d5 763d 0fac 03bb
00000010: 57a5 b03c 42a6 ce3c 491f 6b3d 1215 463d
00000020: b8e2 8e3d 1ac7 1fbd 7974 48bd e1e9 1bbd
00000030: 6f5c 153d 3ecf 173d ddce 69bd 2863 4dbd
00000040: e90f 26bd f87e febc 679e 233d 0e7e 813d
00000050: 77d7 453d d88d 703d 5216 bf3d b3b9 07bc
00000060: a845 043d b894 8b3d defc de3d c29c 923d
00000070: ee8f 913c 9ca6 67bd 855d 2ebd 3696 b0bd
00000080: 9ca8 5e3c 12ac f93d f33f 99bd a88c 97bd
00000090: 850e 70bd da7b 3abd cdba 8b3d 21c5 db3d
000000a0: 8dd0 253d bff4 1c3d 2943 773d 21dc 23bb
000000b0: 3e98 903c da4f 3e3d 44af 6f3d 5c5b 463d
000000c0: dd48 943d e05d 21bd 62ea 47bd b9dc 61bd
000000d0: ba6e d03c defd 7e3d 6a8f 74bd 6d4f 4fbd
000000e0: dc4d 27bd 5fc9 03bd f08c c93c 4583 2c3d
000000f0: c238 433d c6b3 403d a0b2 8d3d d8d6 80bb
00000100: 7b25 cf3c 1966 5e3d 4ee6 923d 8696 693d
00000110: fae9 a83d 7c2d 3cbd fee1 1abd 675c 83bd
00000120: 4a48 303d 50b9 953d 33e2 97bd bc5f 77bd
00000130: bbcf 43bd e89a fdbc aca1 6b3d 2948 9b3d
00000140: 7f8b 2d3d df6c 2b3d 1bcf 863d 3572 28bb
00000150: 82ed d4ba 3316 4a3d c574 003d 7c85 503d
00000160: b770 a43d 08e5 28bd 004c acbc e08d bcbc
00000170: edb2 1c3d f8ea 833d 98af 9ebd 2409 59bd
00000180: 0db2 07bd 0bb3 e4bc dd28 523d 52fb 913d
00000190: d824 233d af5e 213d 5e5a 703d a5b7 19bb
000001a0: 237c b03c 2b9b 393d 0be9 633d 872e 423d
000001b0: 621a 843d daa1 0cbd ea23 42bd 927f 58bd
000001c0: 7af0 123d 7c5e 683d a9ef 55bd 3d63 50bd
000001d0: bef6 23bd 50f0 00bd b448 1f3d aa7e 7d3d
000001e0: e4a1 5e3d 28b6 5a3d 2f8f a83d 1423 46bb
000001f0: 6d31 ed3c b3cc 013d 7f46 b73d 77f6 4c3d
00000200: c1b9 f53d b707 57bd f829 8fbd 20d6 97bd
00000210: e105 e63c fe21 b43d 4e02 1cbd 110e 8bbd
00000220: 3e94 5bbd e318 2ebd 0e45 893d ccf8 b43d
00000230: a366 8e3d 75f1 773d c60c ed3d c09d 1abb
00000240: 45c2 a13b 9cb7 b83c b7e9 173e 0251 3c3c
00000250: c7ed b43d 1418 3abd d96a 04bd ce52 8dbc
00000260: ed58 183d dfdf cf3c d997 ebbc c032 8bbd
00000270: 451a 30bd 72f9 2cbd 180a 663d 22dd 1c3e
00000280: 395e 4a3d f47c af3c 3785 963d 42a0 16bb
00000290: b800 e43b 5129 683d 5193 f23c f8f5 733d
000002a0: b5d7 ce3d 8c3b 45bd 2e2a 77bd 6985 88bd
000002b0: 3722 363d 63eb 9d3d a9bd 9abd 463b 7cbd
000002c0: 6f81 4bbd f102 1cbd 3785 743d 4dd1 a23d
000002d0: 8332 1d3d 5ab9 033d 4e42 5d3d c144 92bb
000002e0: 8d19 583c c7f3 3b3d 5390 0c3d 75a3 493d
000002f0: 02bc a23d 0ede 20bd 1fe3 23bd 32ee 0fbd
00000300: 3ba5 c73b 529d 8b3d 715a 9dbd 446e 4cbd
00000310: d018 cdbc aa0f fcbc 5987 ab3c 8e82 8b3d
00000320: c0a5 163d 8ce0 133d 22e0 5f3d a8a1 02bb
00000330: 7b5a a03c 846b 2c3d 6dc5 b93c 0896 343d
00000340: 4f62 703d 14c3 14bd c3d0 cebc 8409 3fbd
00000350: 8c85 043d 7bc1 683d 912d 6fbd 63f4 3bbd
00000360: 102a a9bc e1fe ecbc 2447 363d 491a 643d
00000370: be10 233d 523f 203d 5d45 743d 5359 17bb
00000380: 5f91 a93c 0514 3a3d 6225 693d 6add 413d
00000390: 2878 883d 8434 20bd 1f82 3ebd 2e0d 32bd
000003a0: fec0 133d 2a47 713d e4f1 5dbd 6dee 06bd
000003b0: b230 22bd 8349 d5bc 54a8 433d 46de 793d
000003c0: 0ebb 1a3d 035e 1b3d 965c 673d 8c22 f8bb
000003d0: 7d96 a63c ea20 e93c bd53 5f3d e332 3b3d
000003e0: a9a5 883d a140 fcbc dc67 34bd a8b6 53bd
000003f0: 1690 073d 1480 6c3d 790b 5cbd 5319 42bd

fc.bias f4 [30]
0.16856377 -0.034278624 0.15256591 0.05413431 0.14599738 0.14648665 -0.0075234133 0.03723197
0.051080815 0.17187482 0.20180042 0.15496854 0.18138283 0.02372473 -0.04444266 0.14563586
0.15432794 0.06432318 -0.04534202 0.011605758 0.14194855 -0.020942016 -0.014673553 0.1024052
0.049634192 -0.060310166 0.12280465 -0.0481495 -0.0008731349 0.1647523
00000000: fb9b 2c3e be67 0cbd 3d3a 1c3e f0bb 5d3d
00000010: 5680 153e 9900 163e f786 f6bb 8d80 183d
00000020: 1e3a 513d f4ff 2f3e c5a4 4e3e 13b0 1e3e
00000030: 6cbc 393e 5d5a c23c 8209 36bd 9121 153e
00000040: 2508 1e3e dfbb 833d 8eb8 39bd 1426 3e3c
00000050: f65a 113e 978e abbc 5869 70bc d1b9 d13d
00000060: 394d 4b3d cb07 77bd 0181 fb3d 6938 45bd
00000070: 17e3 64ba d4b4 283e
