backend/model/lstm-DIS-30-.pth (torch, 26174 bytes, 12 tensors)

conv1.weight f4 [2, 4, 3]
7.2825355e-07 -7.7430636e-14 -1.8925038e-13 -1.7826964e-13 8.9212614e-07 -1.0208082e-13 -1.4599639e-13 -6.6635865e-14
-3.537612e-13 2.1427986e-09 -9.840448e-06 -1.594271e-13 -2.6736073e-13 5.9933675e-10 -7.122713e-14 -1.6096611e-06
-5.88908e-14 -1.153779e-13 -2.1945226e-13 -6.814966e-05 -1.9137456e-13 -2.5961212e-08 2.280519e-08 1.0549841e-05
00000000: 347d 4335 b95b aea9 b513 55aa bab6 48aa
00000010: 717a 6f35 96dd e5a9 9860 24aa f60c 96a9
00000020: 5d26 c7aa 8340 1331 6718 25b7 bc7f 33aa
00000030: be82 96aa 93be 2430 a563 a0a9 890b d8b5
00000040: 3c9c 84a9 6ae7 01aa cf14 77aa 92eb 8eb8
00000050: f677 57aa 4f01 dfb2 25e5 c332 39ff 3037

conv1.bias f4 [2]
-1.4839116e-13 -4.4710134e-13
00000000: d712 27aa 18b2 fbaa

lstm.weight_ih_l0 f4 [80, 2]
-3.5427813e-20 1.44406584e-08 -9.739728e-16 3.7665023e-12 -5.3272225e-17 -9.023691e-16 -1.818339e-24 -5.518662e-21
-1.8517466e-13 -2.1070704e-13 -6.293978e-17 -9.172681e-16 -1.1444163e-19 -2.4268736e-08 -4.0907812e-14 -2.1164067e-19
-3.3125166e-19 -3.732535e-18 -1.0897244e-17 -1.8947109e-16 -1.76091e-15 -5.1606227e-18 -2.4931418e-21 -4.1943883e-20
-4.2606842e-20 -1.6984816e-10 -3.7203832e-14 1.0837342e-10 2.7124634e-09 -1.5294126e-12 -7.518488e-10 -8.5023124e-16
3.2958202e-11 -1.832597e-16 1.269705e-08 1.6491092e-07 -2.808581e-11 -1.0127068e-15 -2.2463985e-20 -2.1683855e-19
-1.2619188e-07 3.617064e-14 -2.742046e-09 -2.663528e-19 -5.5665205e-17 -3.2907124e-16 8.5349033e-10 -4.5154113e-14
1.4928968e-08 -9.4318416e-08 -5.3727548e-17 -6.296753e-16 -6.843577e-17 7.430945e-12 1.5136959e-18 6.225466e-14
-4.8398286e-19 1.682598e-15 -2.1013734e-17 1.7291115e-15 -7.85252e-15 -2.1327384e-18 -1.7699403e-21 -3.5797643e-20
2.0529223e-19 -6.9912556e-19 -8.52411e-20 -1.1390666e-18 -3.154653e-14 -1.7674195e-13 3.1885631e-12 -1.2331439e-15
-2.396741e-17 -2.3778147e-16 -3.7810622e-16 -7.2345304e-15 -1.0361659e-17 -1.1740918e-16 2.6686214e-08 -1.5426444e-19
3.8758793e-10 2.457697e-07 -4.566011e-13 -3.1099387e-12 2.4090147e-11 2.3779123e-10 -8.3860395e-14 1.2732304e-13
1.5826773e-10 1.683101e-09 -1.0750169e-11 -8.386191e-11 1.3129656e-12 4.1299363e-11 2.5516213e-13 3.9915046e-12
1.7029686e-08 4.3178818e-11 -7.1752387e-12 -5.7029135e-11 -3.728117e-07 -3.5421145e-11 5.743009e-13 1.2909741e-12
-4.3231879e-13 -6.1360977e-12 -2.3070117e-10 -1.9338913e-09 2.2457872e-10 1.980202e-09 -1.2242729e-11 -3.771894e-10
1.0429308e-11 2.922131e-10 4.8448155e-11 2.9387467e-10 -5.1498202e-12 -9.8162575e-11 -1.8472027e-13 -2.342978e-12
-5.8705635e-20 -5.5206334e-19 4.891338e-10 -2.6596455e-19 -6.895637e-17 -7.014142e-16 -2.2451633e-22 -2.410198e-20
-2.3621084e-14 -1.2138452e-13 -4.7119027e-17 -1.0392917e-15 5.110862e-14 -1.6615341e-18 -3.5088198e-14 -6.5267605e-09
2.7374728e-19 -9.027023e-18 -1.04271195e-17 3.9744905e-11 -3.3170677e-19 -3.6426408e-18 1.2764473e-10 -3.4054328e-20
-3.445669e-17 -3.2046987e-10 -1.649522e-09 -8.184122e-10 -4.0661044e-14 3.637064e-14 -8.5053947e-17 -1.3992367e-15
-6.521752e-09 -1.4767584e-16 -5.5499463e-08 -1.3369356e-14 -7.717302e-12 -1.2718654e-16 1.6544846e-15 -1.9142408e-09
00000000: 994d 279f b016 7832 415d 8ca6 a385 842c
00000010: beac 75a4 8b0b 82a6 eaaf 0c98 397d d09d
00000020: f67c 50aa 2b3c 6daa 1721 91a4 3831 84a6
00000030: dc1b 07a0 8477 d0b2 7f3b 38a9 78dc 79a0
00000040: 5689 c3a0 ccb4 89a2 c804 49a3 ff71 5aa5
00000050: 1dc6 fda6 b464 bea2 6060 3c9d 0b13 469f
00000060: 8334 499f 02c0 3aaf 198d 27a9 d050 ee2e
00000070: 2966 3a31 e53e d7ab a8aa 4eb0 fe0f 75a6
00000080: a3f3 102e b748 53a5 3722 5a32 5e12 3134
00000090: 9f0b f7ad 49f2 91a6 952a d49e 6eff 7fa0
000000a0: 5c7f 07b4 e9e5 2229 956e 3cb1 193a 9da0
000000b0: f05a 80a4 58b2 bda5 0b9b 6a30 265b 4ba9
000000c0: 263d 8032 198c cab3 4bc6 77a4 d67d 35a6
000000d0: 59cd 9da4 00ba 022d d061 df21 5e2f 8c29
000000e0: b6d8 0ea1 e97c f226 47d1 c1a3 f430 f926
000000f0: 5b75 0da8 4a5e 1da2 a0bb 059d b20c 299f
00000100: c55d 7220 6f58 4ea1 1545 c99f b818 a8a1
00000110: ac12 0ea9 66fe 46aa 0c60 602c fbb6 b1a6
00000120: 720f dda3 5a12 89a5 a1f6 d9a5 6253 02a8
00000130: 8d23 3fa3 135d 07a5 9b3b e532 911f 36a0
00000140: 2714 d52f 55f2 8334 9485 00ab add7 5aac
00000150: 30e6 d32d 24ba 822f 3ad6 bca9 5e5a 0f2a
00000160: 6804 2e2f da52 e730 751e 3dad 0f6a b8ae
00000170: 92c8 b82b f3a2 352e bda4 8f2a 4770 8c2c
00000180: ad48 9232 07e7 3d2e ce74 fcac 19d1 7aae
00000190: da26 c8b4 aac8 1bae bea6 212b 3eb0 b52b
000001a0: b45f f3aa 0ee5 d7ac 9ba8 7daf 60e5 04b1
000001b0: 4aed 762f 1514 0831 5a60 57ad b05c cfaf
000001c0: 6d79 372d 56a5 a02f c613 552e 2f8f a12f
000001d0: 7531 b5ac 9edc d7ae fef9 4faa 57df 24ac
000001e0: 619d 8a9f baf0 22a1 bb73 0630 6dff 9ca0
000001f0: a800 9fa4 3c2b 4aa6 38b6 879b 03a3 e39e
00000200: 83c2 d4a8 b5aa 08aa 544c 59a4 19c7 95a6
00000210: 3a2c 6629 fc32 f5a1 f005 1ea9 fe41 e0b1
00000220: 8597 a120 e984 26a3 ae58 40a3 c9cc 2e2e
00000230: 1cce c3a0 c563 86a2 cc58 0c2f 28d1 209f
00000240: 48e7 1ea4 202e b0af 65b5 e2b0 a4f6 60b0
00000250: fe1e 37a9 7ecc 2329 fd1e c4a4 b9a6 c9a6
00000260: f015 e0b1 3742 2aa5 4e5e 6eb3 46d7 70a8
00000270: a3c3 07ad d7a2 12a5 b56f ee26 ae8b 03b1

lstm.weight_hh_l0 f4 [80, 20]
1.8661288e-09 9.302922e-22 -3.0925793e-08 -9.766633e-15 -1.5540765e-18 -3.7933424e-12 -1.4658526e-22 5.1669513e-17
-5.344549e-21 -2.20458e-09 6.255142e-21 -2.8261875e-22 5.32649e-10 -1.033157e-14 8.866235e-17 8.902518e-20
-2.5514189e-20 -2.3269612e-19 2.1239064e-20 1.1083345e-19 9.566784e-22 1.7491627e-21 -4.5384373e-17 6.646542e-14
-9.155513e-19 3.3794874e-20 2.0702384e-09 4.5165862e-08 -1.7863153e-19 9.656889e-13 1.163631e-20 -3.9024596e-21
1.6694646e-21 -3.5388128e-20 -4.5502694e-19 2.3260263e-08 -1.7726353e-14 3.8531595e-16 7.267116e-21 6.8371233e-09
1.5137286e-18 1.7554555e-18 -2.960066e-16 1.6194562e-16 -2.9327512e-15 6.67983e-11 -6.9423304e-19 1.5618014e-14
-4.1259136e-18 -1.04064995e-07 -9.610181e-09 -4.4727015e-19 1.8738207e-18 -4.7221636e-18 -1.6188446e-15 8.4564156e-17
-4.950669e-17 3.852143e-09 2.7647873e-17 9.339697e-19 2.3099804e-23 3.4163764e-23 -1.5420332e-08 -5.4693935e-22
1.5880918e-19 -9.474441e-17 -1.8421624e-20 6.403243e-19 1.372996e-22 -3.6164677e-24 2.2828386e-09 -8.170028e-24
-8.1241566e-22 3.9407458e-23 3.7703956e-09 -8.510578e-21 9.2039097e-23 4.0555922e-20 5.484573e-22 1.271857e-22
4.2908693e-16 1.9902263e-16 -1.3875124e-14 2.3575329e-17 6.7953962e-09 1.5735665e-14 -5.0772023e-16 -4.592514e-16
-1.1512562e-15 2.1494667e-14 8.5880496e-16 -9.2609924e-17 -9.1356426e-08 1.3667141e-13 -2.420398e-09 4.3115126e-14
-5.014609e-09 1.6023712e-09 1.11974e-10 2.240316e-16 3.51373e-18 1.0486422e-18 -5.908883e-17 1.2051477e-19
-2.4775479e-15 7.1964435e-17 -4.1109007e-18 -1.6904184e-15 -1.5904867e-08 2.9928503e-17 2.1144153e-10 -3.9972058e-19
-5.595674e-09 -7.967683e-17 -1.4322984e-07 -1.7410018e-13 -4.49279e-17 -3.4759435e-12 2.2259912e-17 1.1857916e-18
4.090219e-21 -5.195389e-22 -3.7152827e-20 -1.433612e-07 -4.4093363e-18 2.499701e-19 7.665328e-15 -3.6866526e-14
2.859503e-18 7.7485045e-20 9.967591e-21 1.4320797e-20 6.4305166e-21 -2.2121054e-20 -6.4328418e-18 1.0946159e-19
1.5928949e-08 -6.312352e-19 -2.8649245e-20 2.6729816e-10 1.5128516e-12 6.662974e-09 1.8330799e-20 -2.2554311e-21
3.8059257e-14 2.8016714e-20 -8.621016e-19 -3.7271747e-20 -5.537234e-22 4.8014406e-20 2.3614201e-21 -5.6404883e-22
1.7656493e-20 -1.2034231e-20 -5.885224e-19 -1.217547e-21 4.6347513e-11 -5.362007e-20 1.09146635e-20 -4.3338098e-09
2.1088591e-11 -3.551142e-21 7.557755e-17 -1.7915033e-15 -1.8667043e-17 6.510363e-19 -1.0591338e-20 -6.0055456e-14
7.879634e-12 4.694238e-19 4.1269537e-08 -2.3098803e-21 2.193603e-09 1.7311034e-20 1.8310069e-10 9.392505e-19
-4.462466e-19 -8.2361505e-19 -1.6916435e-15 1.08446836e-20 1.3086775e-18 6.2103593e-09 -3.186151e-17 3.7460693e-20
-5.6823496e-16 3.638392e-17 -8.938676e-14 3.3165054e-11 1.8009124e-18 1.2370384e-17 9.075539e-19 -1.3407127e-19
1.1312635e-09 -1.3210593e-18 -4.0681568e-16 -1.0269587e-11 -3.4536046e-10 -7.920264e-17 1.8558958e-15 4.751903e-13
1.12962176e-20 -1.9505358e-20 5.294136e-20 -2.0248121e-10 -2.4590655e-17 -2.8711641e-10 -2.01559e-20 -4.877581e-20
-3.0445588e-20 2.173231e-19 -6.238306e-09 -1.5566715e-21 7.677899e-12 -1.2882788e-20 -2.0960977e-17 1.3424766e-09
-2.5300198e-19 -1.2934024e-18 1.8784323e-19 2.4820804e-21 -6.3513128e-18 -2.572213e-23 -5.889745e-11 2.824336e-10
-2.8607472e-21 5.0244295e-21 -1.9804217e-23 6.981148e-11 3.0111957e-09 3.267057e-09 -5.0106955e-08 -2.5076025e-22
-8.370567e-14 7.938545e-11 2.2868682e-10 6.3755097e-22 9.561704e-21 -1.4383512e-20 -1.1597767e-15 -6.0060886e-21
1.7428467e-21 6.8485365e-22 5.000506e-19 -4.9787378e-08 1.4479551e-09 -3.1076083e-10 3.384061e-08 1.7280328e-21
-2.640857e-21 8.4916307e-20 5.704705e-21 3.2477392e-18 8.702736e-21 2.9766313e-17 -4.609769e-19 3.5183093e-19
00000000: 493d 0031 f094 8c1c 45d3 04b3 a5f0 2fa8
00000010: 5a57 e5a1 6477 85ac f135 319b 9848 6e24
00000020: 4ee9 c99d 627f 17b1 0550 ec1d 22d5 aa9b
00000030: d769 1230 f51d 3aa8 0471 cc24 6b34 d21f
00000040: 86f9 f09e 0b5c 89a0 e898 c81e 5bd9 0220
00000050: b491 901c ba29 041d 694c 51a4 b5aa 9529
00000060: 8d1c 87a1 7f97 1f1f 0544 0e31 64fc 4133
00000070: 11e4 52a0 9ce8 872b becd 5b1e 466e 939d
00000080: 4948 fc1c 9f1d 279f dd4c 06a1 dccd c732
00000090: 30aa 9fa8 991e de25 9e45 091e f9eb ea31
000000a0: 0d63 df21 9e87 0122 dda2 aaa5 e9b5 3a25
000000b0: b653 53a7 1ae4 922e c4e6 4ca1 b0ac 8c28
000000c0: 2738 98a2 567a dfb3 061a 25b2 c702 04a1
000000d0: 7943 0a22 9337 aea2 d34c e9a6 defd c224
000000e0: 2f4f 64a4 cf5b 8431 b201 ff23 61d4 8921
000000f0: 5868 df19 b134 251a ab75 84b2 624d 259c
00000100: 217d 3b20 3a77 daa4 c1fc ad9e 89fd 3c21
00000110: 2bfc 251b c3e7 8b98 1fe0 1c31 0508 1e99
00000120: 9e89 759c 1290 3e1a c08c 8131 a1c2 209e
00000130: 7189 de1a 1a85 3f1f d4c2 251c 11c2 191b
00000140: 0e5a f725 1d75 6525 b7f3 79a8 ac71 d923
00000150: f07c e931 f9bb 8d28 2457 12a6 c65e 04a6
00000160: dbe9 a5a6 549b c128 9f88 7726 408b d5a4
00000170: ba2f c4b3 dae0 192a 1854 26b1 5b2c 4229
00000180: f84c acb1 6d3a dc30 c23b f62e 3b25 8125
00000190: 3ea2 8122 95c0 9a21 e43f 88a4 5b47 0e20
000001a0: b186 32a7 4ef0 a524 5caa 97a2 6e9d f3a6
000001b0: 2c9f 88b2 5705 0a24 807b 682f 11f4 eba0
000001c0: 1244 c0b1 e6b8 b7a4 b8ca 19b4 f604 44aa
000001d0: 8131 4fa4 0899 74ac bb4f cd23 f1fd ae21
000001e0: 2c86 9a1d 6005 1d9c 0373 2f9f d4ee 19b4
000001f0: 01ad a2a2 6a8e 9320 1616 0a28 3608 26a9
00000200: 7cfe 5222 d6f4 b61f 5048 3c1e 9041 871e
00000210: 24f0 f21d 6ded d09e 7954 eda2 bc3a 0120
00000220: 21d4 8832 c94e 3aa1 d04a 079f dff2 922f
00000230: 39ea d42b 24f0 e431 2721 ad1e 626a 2a9d
00000240: 5667 2b29 214e 041f 8e72 7ea1 c702 309f
00000250: 465a 279c dbbd 621f 826c 321d 2a79 2a9c
00000260: c8c2 a61e f851 639e 7fb3 2da1 91fd b79c
00000270: a9d6 4b2e b036 7d9f 132c 4e1e 98e8 94b1
00000280: 497f b92d 8a28 869d 1c45 ae24 6717 01a7
00000290: 4f2c aca3 e926 4021 9110 489e 9d3b 87a9
000002a0: b79e 0a2d a98c 0a21 5640 3133 9587 2e9d
000002b0: 46be 1631 837f a31e 4352 492f e19b 8a21
000002c0: 71b5 03a1 9816 73a1 a1ca f3a6 acd9 4c1e
000002d0: 7020 c121 e662 d531 6fef 12a4 33e7 301f
000002e0: 57c8 23a6 8dca 2724 f547 c9a9 88dc 112e
000002f0: 46e2 0422 7d31 6423 6bee 8521 8e48 1ea0
00000300: cc7a 9b30 36f4 c2a1 6683 eaa5 1caa 34ad
00000310: 2add bdaf fda0 b6a4 3cbb 0527 12c1 052b
00000320: 2861 551e 1039 b89e 2d02 7a1f 65a1 5eaf
00000330: 0bcf e2a3 0bd8 9daf fa5d be9e 5656 669f
00000340: 75c6 0f9f f048 8020 b858 d6b1 d03c eb9c
00000350: 2f12 072d 5759 739e b554 c1a3 3282 b830
00000360: 9458 95a0 5cdf bea1 22c4 5d20 6b8a 3b1d
00000370: 7452 eaa2 e9c4 f899 5184 81ae ff44 9b2f
00000380: e626 589d 4dd1 bd1d de88 bf99 5f84 992e
00000390: 84ed 4e31 ad82 6031 2e35 57b3 4593 979b
000003a0: 097d bca9 0992 ae2e 9e71 7b2f 1eb0 401c
000003b0: 909d 341e 33d9 879e 3524 a7a6 53e7 e29d
000003c0: 8faf 031d fcfb 4e1c c196 1321 cdd5 55b3
000003d0: 6401 c730 b3d7 aaaf 2558 1133 0491 021d
000003e0: 9a89 479d c280 c81f 8584 d71d 0fa4 6f22
000003f0: d963 241e dc45 0924 6e0e 08a1 30af cf20

lstm.bias_ih_l0 f4 [80]
1.2160478e-14 5.5125624e-15 1.5102228e-11 5.6803003e-08 -9.5198125e-09 1.2668961e-11 4.114186e-14 5.064165e-15
1.2480168e-08 -3.852589e-06 8.709536e-14 6.2331513e-16 2.5429235e-14 3.7893164e-14 6.761917e-09 4.2109816e-11
3.4217377e-12 2.8435954e-10 3.4701207e-12 4.6190545e-15 1.5506574e-08 3.9071254e-15 1.3467943e-11 -8.4154556e-10
6.6594037e-09 1.6688777e-11 4.813194e-14 -5.0095416e-08 1.4826579e-13 4.617748e-12 2.2965404e-11 6.865299e-16
2.806323e-14 3.0731626e-14 9.632407e-09 1.7492813e-11 1.6302059e-11 2.9622005e-10 2.0028185e-12 4.55004e-15
1.3704926e-07 7.336536e-08 -7.4525406e-06 6.7329546e-09 -0.00012138352 7.0554033e-06 -1.986346e-07 -6.630052e-08
-5.5013777e-07 2.434283e-06 3.7154362e-07 -2.6378759e-08 1.4000317e-07 -2.0341366e-07 -9.976033e-05 4.8823977e-06
-1.4306252e-06 -6.3059992e-06 2.5911575e-06 6.258315e-08 2.2073717e-12 6.8727377e-15 1.8550958e-11 4.1309972e-17
7.589359e-09 -2.509089e-09 -1.7853754e-12 -5.1819e-10 1.8361114e-08 4.6930645e-12 2.0746916e-13 4.0641602e-15
-1.02390865e-11 2.6870541e-14 1.0769328e-08 4.2790042e-11 3.5017135e-12 1.0359901e-10 1.8228008e-12 -4.8691643e-08
00000000: 4e10 5b28 6a9c c627 32d7 842d 90f7 7333
00000010: 948c 23b2 eedf 5e2d 5649 3929 ae74 b627
00000020: 5c68 5632 7d45 81b6 0f1f c429 8aa8 3326
00000030: d30b e528 d8a7 2a29 7356 e831 7033 392e
00000040: 8cc8 702c 0c54 9c2f 2330 742c 426b a627
00000050: 5133 8532 dfc4 8c27 39ee 6c2d 8152 67b0
00000060: bcd0 e431 c9cb 922d 59c4 5829 7e28 57b3
00000070: b4ee 262a fa78 a22c 7e01 ca2d f7e0 4526
00000080: 67c5 fc28 2767 0a29 c67b 2532 50de 992d
00000090: f964 8f2d 44d9 a22f 92ef 0c2c b6ee a327
000000a0: d027 1334 088d 9d33 d610 fab6 b257 e731
000000b0: 488f feb8 74bd ec36 4348 55b4 1961 8eb3
000000c0: 2ead 13b5 aa5c 2336 9178 c734 8197 e2b2
000000d0: c753 1634 ec69 5ab4 6b36 d1b8 7ad3 a336
000000e0: e803 c0b5 1f98 d3b6 bfe3 2d36 7365 8633
000000f0: 7954 1b2c d19d f727 0b2d a32d 3582 3e24
00000100: 5b62 0232 5c6c 2cb1 ee44 fbab 6170 0eb0
00000110: 84b8 9d32 5e1f a52c ea96 692a 436d 9227
00000120: bf20 34ad 4007 f228 0104 3932 4e31 3c2e
00000130: 4369 762c 0fd1 e32e a944 002c 0721 51b3

lstm.bias_hh_l0 f4 [80]
1.584667e-14 1.0428907e-14 -1.8055211e-10 4.079137e-17 3.0340612e-09 2.6223674e-11 8.841238e-13 5.7206064e-15
3.1217132e-13 9.054839e-12 1.0862281e-13 -8.8111545e-14 -1.7001415e-13 3.172872e-14 8.668372e-09 1.442782e-11
3.9058015e-12 7.990226e-10 6.9367665e-08 5.080577e-15 1.608361e-14 -8.052497e-08 1.4757844e-11 -1.4740365e-07
8.143771e-09 1.1294806e-11 -2.0833724e-08 2.42661e-14 3.158085e-13 6.296876e-12 4.574167e-13 7.4212075e-08
-3.0775254e-08 2.7863333e-14 7.475065e-09 -1.5802211e-08 7.008414e-08 -1.9513793e-09 1.6909512e-12 5.2575996e-15
1.0345762e-07 6.677172e-08 -3.1715651e-06 6.890548e-09 -4.662655e-05 4.0099867e-06 -1.8678317e-07 -5.793161e-08
-3.3628692e-07 2.3946436e-06 2.6116527e-07 -2.6410726e-08 1.2810911e-07 -1.4679148e-07 -0.00011807485 4.4186127e-06
-3.3862423e-06 -2.4521429e-05 1.0350898e-06 7.916358e-08 1.3709018e-14 4.8216012e-15 3.2083457e-07 9.404323e-17
3.2740755e-09 1.1193865e-11 3.1026278e-14 5.9532665e-15 1.0194685e-13 5.580047e-12 9.169043e-14 1.2799752e-15
3.2326033e-14 5.958688e-14 1.0598767e-08 2.2512011e-11 5.027148e-10 3.541807e-10 2.0607398e-12 3.6597113e-15
00000000: efbb 8e28 d8de 3b28 e784 46af f31d 3c24
00000010: c57f 5031 77aa e62d d5db 782b 481b ce27
00000020: a1bc af2a 5f4b 1f2d c998 f429 d968 c6a9
00000030: 3e6b 3faa b9e4 0e29 e7eb 1432 20d1 7d2d
00000040: 556c 892c 38a2 5b30 47f7 9433 0d0c b727
00000050: 48de 9028 12ed acb3 b6cf 812d 0246 1eb4
00000060: afe8 0b32 49b3 462d d8f5 b2b2 d191 da28
00000070: cdc8 b12a 388d dd2c 59c0 002b 855e 9f33
00000080: c02d 04b3 79f8 fa28 af6b 0032 6ebd 87b2
00000090: 2a81 9633 0719 06b1 f0fa ed2b cc6c bd27
000000a0: 6e2c de33 2464 8f33 13d7 54b6 e7c1 ec31
000000b0: e090 43b8 868d 8636 918e 48b4 7bd0 78b3
000000c0: ec8a b4b4 aab3 2036 4836 8c34 cddd e2b2
000000d0: 5d8e 0934 bc9d 1db4 f49e f7b8 9843 9436
000000e0: 333f 63b6 5eb3 cdb7 6aed 8a35 a300 aa33
000000f0: b0f5 7628 6cb7 ad27 2b3f ac34 53d9 d824
00000100: 25fe 6031 b0ec 442d ddba 0b29 317d d627
00000110: 5c90 e529 9854 c42c ef77 ce29 c076 b826
00000120: 6195 1129 7f2d 8629 df15 3632 8b04 c62d
00000130: 692f 0a30 81b6 c22f fd02 112c e1da 8327

lstm.weight_ih_l1 f4 [80, 20]
7.987451e-09 2.7769955e-09 -2.607991e-07 3.9690906e-10 -6.3773964e-06 2.2104649e-07 -3.7218438e-08 -1.7216317e-08
-1.1353701e-07 2.3329996e-07 1.886223e-08 -1.3889228e-09 6.2725225e-09 -7.9115905e-09 -4.563275e-06 2.11071e-07
-1.2991529e-07 -6.662461e-07 2.0694803e-07 2.8667861e-09 1.0777684e-08 4.0296544e-09 -2.3794009e-07 3.1311997e-10
-4.6899854e-06 2.7814704e-07 -6.8466823e-09 -3.5183623e-09 -2.7050968e-08 1.3936634e-07 1.6016802e-08 -1.2380602e-09
1.5736124e-08 -1.6271432e-08 -4.823344e-06 2.9449225e-07 -9.903723e-08 -1.6584677e-06 8.871854e-08 5.2055564e-09
9.1915755e-09 4.6645243e-09 -2.6370307e-07 3.4367006e-10 -4.0905684e-06 4.8513226e-07 -2.3600207e-07 -3.2566203e-09
-3.4449382e-08 5.0208257e-07 2.2671269e-07 -1.3650537e-09 5.712657e-09 -8.004118e-09 -6.063123e-06 2.1947454e-07
-2.3550437e-07 -1.2243903e-06 2.265124e-07 -1.322346e-07 2.7724695e-13 3.1941743e-13 -1.7460706e-11 6.262513e-14
-2.5795002e-10 1.638016e-11 2.9167013e-10 -2.4050922e-13 -1.3879064e-12 7.429391e-12 1.532905e-12 -9.208087e-14
4.804722e-13 -8.502233e-12 -3.1978753e-10 1.3707928e-11 -7.234402e-12 8.122279e-08 9.1963034e-12 2.0730207e-13
4.794716e-09 2.2640738e-09 -3.3581324e-07 2.4044453e-10 -3.6173344e-06 2.9882975e-07 -6.4313364e-09 -2.2276105e-09
-2.4318206e-08 8.1580886e-08 4.0444636e-08 -1.4888775e-09 6.060094e-09 -8.571413e-09 -4.031581e-06 1.8495999e-07
-8.7917094e-08 -5.704092e-07 1.004924e-07 3.4004648e-09 1.19863515e-08 3.2426206e-09 -3.6296044e-07 2.3479176e-08
-4.826622e-06 2.397914e-07 -1.576549e-08 -4.618856e-09 -1.918448e-08 1.4398967e-07 1.42997685e-08 -1.2457307e-09
6.8041137e-09 -8.1000335e-09 -4.9213522e-06 1.6872634e-07 -1.1899484e-07 -7.149372e-07 1.2464726e-07 2.945464e-09
5.3847677e-09 5.614297e-09 -2.3609304e-07 7.459129e-09 -5.06594e-06 1.9398063e-07 -8.894952e-09 -3.7666146e-09
-5.7671446e-08 8.1079236e-08 2.3204546e-08 6.20423e-09 8.635578e-09 -3.2534956e-08 -6.9603684e-06 1.9867305e-07
-1.110317e-07 -7.5202337e-07 3.3326245e-07 3.960019e-09 6.073695e-09 1.497382e-08 -2.1061739e-07 1.0622121e-07
-7.4148693e-06 2.9320438e-07 -4.916347e-08 -3.1871135e-09 -2.4491925e-08 1.13279306e-07 1.5764634e-08 -3.4306944e-09
7.4042523e-09 -1.0898438e-08 -7.95583e-06 2.5483416e-07 -1.8432743e-07 -1.1890913e-06 7.871837e-08 5.16895e-09
5.9619434e-09 2.2178273e-09 -1.7407233e-07 1.6553448e-10 -3.361695e-06 4.1396896e-07 -3.938916e-08 -1.8391152e-09
-1.7681396e-08 7.754434e-08 1.9432484e-08 -8.0283336e-10 5.5204605e-09 -5.6767078e-08 -3.3723531e-06 1.473375e-07
-2.427656e-07 -4.6239225e-07 8.526435e-08 1.982258e-09 5.399928e-09 3.1828673e-09 -3.1230297e-07 1.2808551e-10
-4.557899e-06 2.6858794e-07 -1.3291591e-08 -1.08119265e-08 -1.8432956e-08 1.05969924e-07 2.7683484e-08 -9.699188e-09
6.678482e-09 -4.1231345e-08 -4.5887314e-06 4.1398275e-07 -1.0535068e-07 -6.289441e-07 8.90188e-08 1.1258498e-08
7.470806e-08 3.9210875e-09 -2.8245412e-07 7.245962e-08 -4.602343e-06 3.2062027e-07 -3.6526185e-07 -4.420706e-09
-1.1971018e-07 1.2906922e-07 1.6008615e-08 -3.9101464e-09 1.0026509e-08 -9.851777e-09 -8.513723e-06 2.592164e-07
-1.3464125e-07 -1.926006e-06 1.0226336e-07 8.1085805e-09 5.144387e-09 3.5293501e-09 -2.282138e-07 6.9524314e-10
-6.1952514e-06 2.7952947e-07 -7.999719e-09 -2.939408e-09 -1.9084416e-08 1.4321785e-07 8.5574676e-08 -3.9206864e-09
3.3639243e-09 -1.4701099e-08 -4.8858915e-06 2.6071356e-07 -2.191921e-07 -1.3229285e-06 7.783099e-08 4.060516e-09
4.898168e-09 5.1335114e-09 -2.6108677e-07 3.085903e-10 -4.1824783e-06 2.6413326e-07 -9.582061e-09 -2.9326899e-09
-2.987336e-08 1.0606293e-07 2.0806496e-08 -1.1681723e-09 6.361842e-09 -7.891281e-09 -4.690982e-06 2.0646007e-07
00000000: 2e39 0932 6cd5 3e31 f503 8cb4 fc33 da2f
00000010: 6bfd d5b6 cc58 6d34 1bda 1fb3 15e3 93b2
00000020: a2d1 f3b3 0181 7a34 7b06 a232 60e4 beb0
00000030: b185 d731 8beb 07b2 3c1e 99b6 c1a2 6234
00000040: d87e 0bb4 15d8 32b5 7135 5e34 0901 4531
00000050: c128 3932 3775 8a31 797c 7fb4 b823 ac2f
00000060: ab5e 9db6 3d54 9534 0e40 ebb1 afc7 71b1
00000070: b55d e8b2 baa4 1534 5295 8932 5f28 aab0
00000080: 1a2c 8732 42c5 8bb2 36d8 a1b6 b51a 9e34
00000090: 4bae d4b3 8498 deb5 8885 be33 8fdc b231
000000a0: fae8 1d32 9745 a031 1393 8db4 43ef bc2f
000000b0: b741 89b6 093a 0235 c167 7db4 12cb 5fb1
000000c0: 7ff5 13b3 dac6 0635 4f6e 7334 8f9c bbb0
000000d0: 1049 c431 7c82 09b2 d471 cbb6 b4a8 6b34
000000e0: f3de 7cb4 bb55 a4b5 4137 7334 5ffc 0db4
000000f0: 7f13 9c2a e7d0 b32a 0496 99ad ee04 8d29
00000100: 3dcf 8daf d714 902d ec58 a02f 0865 87aa
00000110: 9954 c3ab 01b3 022d b9bc d72b 0259 cfa9
00000120: ac3d 072b a792 15ad 18ce afaf 0527 712d
00000130: b389 feac b36c ae33 78c8 212d c166 692a
00000140: c5be a431 0296 1b31 d249 b4b4 8f2f 842f
00000150: 55c1 72b6 d96e a034 a2fa dcb1 8a14 19b1
00000160: 4de4 d0b2 9131 af33 59b5 2d33 38a1 ccb0
00000170: 2739 d031 7941 13b2 0447 87b6 6a99 4634
00000180: efcc bcb3 391e 19b5 48ce d733 9cad 6931
00000190: 88ec 4d32 c9d4 5e31 e7dc c2b4 41af c932
000001a0: 5ef4 a1b6 aebc 8034 ae6c 87b2 e3b3 9eb1
000001b0: 1ecb a4b2 949b 1a34 0cab 7532 4136 abb0
000001c0: 9ec9 e931 5328 0bb2 1822 a5b6 252b 3534
000001d0: 1b8a ffb3 1cea 3fb5 c7d6 0534 2769 4a31
000001e0: eb04 b931 e1e7 c031 c380 7db4 9925 0032
000001f0: 18fc a9b6 fd48 5034 6ad0 18b2 7e6b 81b1
00000200: 6db2 77b3 c81d ae33 5653 c732 fc2c d531
00000210: ac5b 1432 90bc 0bb3 1c8d e9b6 d552 5534
00000220: 5370 eeb3 a7de 49b5 3eeb b234 b210 8831
00000230: c9b0 d031 c79f 8032 1126 62b4 ba1b e433
00000240: 3ecd f8b6 b469 9d34 cf27 53b3 4b04 5bb1
00000250: 5062 d2b2 f543 f333 cc6a 8732 6ac1 6bb1
00000260: 7e68 fe31 d63b 3bb2 087a 05b7 24d0 8834
00000270: 8aeb 45b4 de98 9fb5 e20b a933 919a b131
00000280: cfd9 cc31 6e68 1831 a3e8 3ab4 d001 362f
00000290: 7b99 61b6 763f de34 d72c 29b3 1dc4 fcb0
000002a0: cde1 97b2 7486 a633 7cec a632 60ae 5cb0
000002b0: 7cae bd31 10d0 73b3 9650 62b6 d333 1e34
000002c0: 7355 82b4 b53e f8b4 921a b733 4038 0831
000002d0: 458a b931 98b9 5a31 98aa a7b4 ded4 0c2f
000002e0: 0ef0 98b6 7232 9034 0959 64b2 5bbf 39b2
000002f0: 8056 9eb2 9591 e333 a0cc ed32 7ba1 26b2
00000300: 8d78 e531 5816 31b3 e7f8 99b6 5b41 de34
00000310: 263d e2b3 b6d4 28b5 9a2a bf33 666b 4132
00000320: 316f a033 40ba 8631 33a4 97b4 199b 9b33
00000330: d36d 9ab6 b721 ac34 3519 c4b4 f1e4 97b1
00000340: af89 00b4 4796 0a34 5183 8932 035a 86b1
00000350: 0e41 2c32 9340 29b2 29d6 0eb7 6e2a 8b34
00000360: e891 10b4 8840 01b6 e09b db33 ea4d 0b32
00000370: 82c2 b031 fc88 7231 ef0a 75b4 631b 3f30
00000380: cee0 cfb6 3d12 9634 236f 09b2 9dfe 49b1
00000390: 13ef a3b2 6cc7 1934 2dc5 b733 b9b6 86b1
000003a0: c82a 6731 1e90 7cb2 7df1 a3b6 33f8 8b34
000003b0: 115b 6bb4 7a8f b1b5 0a24 a733 ad84 8b31
000003c0: be4c a831 d862 b031 7e2b 8cb4 39a6 a92f
000003d0: 3757 8cb6 33ce 8d34 5a9e 24b2 6d88 49b1
000003e0: 1b4e 00b3 b6c4 e333 f8b9 b232 698d a0b0
000003f0: 5b97 da31 3992 07b2 3b67 9db6 50af 5d34

lstm.weight_hh_l1 f4 [80, 20]
0.010131336 0.010318751 -0.010985841 6.926121e-05 0.008961181 -0.010225255 0.010506186 0.011711167
-0.008324112 0.010249416 0.011596484 -0.01037644 -0.010098149 -0.011574875 -0.0094273975 -0.0094687
0.010316439 -0.0105859935 -0.010437694 0.011280017 0.010570237 0.010650111 -0.011064993 7.130007e-05
0.009516088 -0.010535022 0.010757078 0.011981655 -0.008363481 0.0103615215 0.0118404925 -0.010421349
-0.010611315 -0.011845533 -0.009655998 -0.009766229 0.010575676 -0.010688397 -0.010555259 0.011389477
0.011209826 0.011398118 -0.011969542 7.783059e-05 0.0094723785 -0.011466067 0.011905631 0.012698383
-0.009014849 0.011165044 0.01275198 -0.011228711 -0.0112794805 -0.01267555 -0.010546639 -0.010520784
0.011405235 -0.01144999 -0.011463912 0.012269043 6.079511e-07 6.163153e-07 -6.4839355e-07 5.268148e-09
5.953761e-07 -5.933082e-07 6.882283e-07 7.745925e-07 -5.2349725e-07 5.9991265e-07 7.72757e-07 -5.9190006e-07
-6.22844e-07 -6.522256e-07 -5.712951e-07 -5.9055617e-07 6.4151766e-07 -6.4325616e-07 -6.4218847e-07 6.7108783e-07
0.0074491035 0.008198825 -0.009260591 5.19292e-05 0.0062272744 -0.008561656 0.0077368505 0.0089980215
-0.0061486242 0.0079123005 0.008600345 -0.007606497 -0.008754017 -0.008390993 -0.0069302237 -0.007476024
0.007859936 -0.0077986526 -0.007676619 0.008757807 0.010469183 0.0105914455 -0.011184488 7.418065e-05
0.009027822 -0.010426939 0.010718713 0.011695708 -0.008235841 0.010202176 0.011693088 -0.010444533
-0.0105075445 -0.01162216 -0.00961901 -0.009673596 0.010537689 -0.010662199 -0.0105409175 0.011235417
0.01067826 0.011043926 -0.0114013925 7.5134165e-05 0.009425343 -0.010801365 0.011002281 0.012207684
-0.009190379 0.010586318 0.012327953 -0.010843557 -0.010726829 -0.011912617 -0.009944159 -0.010256908
0.011093187 -0.011126672 -0.010811556 0.011627299 0.01252259 0.012846943 -0.013127022 8.7867695e-05
0.010730952 -0.012466069 0.012708019 0.013994677 -0.0100639295 0.012388298 0.0139808785 -0.012368247
-0.012341172 -0.013784276 -0.011405173 -0.0116363745 0.012552005 -0.012816354 -0.012477062 0.013552814
0.0076562236 0.006936205 -0.0072891884 5.0250692e-05 0.006147067 -0.007964245 0.0072875526 0.007694104
-0.005779926 0.006915007 0.0077488977 -0.0069429707 -0.0068157706 -0.0075662322 -0.006213284 -0.006572523
0.0072296066 -0.00708152 -0.0070017483 0.0074380157 0.010085345 0.010356986 -0.01063532 6.911792e-05
0.008436958 -0.010050525 0.010254107 0.011275648 -0.007941326 0.009837537 0.01136725 -0.010215024
-0.009895223 -0.011212457 -0.009221393 -0.009370354 0.010165869 -0.010173523 -0.0101687675 0.010905767
0.012377168 0.012640798 -0.013218071 8.544111e-05 0.010545192 -0.012743564 0.012839597 0.014179017
-0.0100747375 0.012537887 0.014109661 -0.0123735005 -0.012339575 -0.014026286 -0.011475546 -0.011666829
0.012781473 -0.012665879 -0.01276921 0.013444017 0.010239649 0.010325554 -0.0109191835 7.568486e-05
0.008739601 -0.0102487225 0.010458457 0.011444335 -0.008879037 0.010117333 0.011567009 -0.010179865
-0.010322034 -0.01141278 -0.0095838355 -0.0094975 0.010292327 -0.0105049675 -0.01033803 0.011019816
0.0101581365 0.01023498 -0.010923543 7.3230905e-05 0.008663746 -0.01020912 0.010375113 0.011474147
-0.008003758 0.01010951 0.011454081 -0.010164555 -0.009974589 -0.011273186 -0.009314525 -0.009402494
00000000: e7fd 253c fb0f 293c f5fd 33bc 5440 9138
00000010: ebd1 123c d487 27bc 2322 2c3c 32e0 3f3c
00000020: db61 08bc 2bed 273c 2eff 3d3c f201 2abc
00000030: b572 25bc 8ba4 3dbc 5f75 1abc 9b22 1bbc
00000040: 4806 293c e070 2dbc dd02 2bbc d2cf 383c
00000050: ca2e 2d3c ce7d 2e3c f249 35bc ef86 9538
00000060: 5ee9 1b3c 169b 2cbc 753e 303c b44e 443c
00000070: fb06 09bc 5fc3 293c a0fe 413c 4ebe 2abc
00000080: 15db 2dbc c413 42bc 3134 1ebc 8902 20bc
00000090: 9a45 2d3c 631e 2fbc f7ef 2cbc ee9a 3a3c
000000a0: 6ba9 373c 2cbf 3a3c e61b 44bc fb38 a338
000000b0: 0932 1b3c 2cdc 3bbc d60f 433c e10c 503c
000000c0: 04b3 13bc 97ed 363c aeed 503c a1f8 37bc
000000d0: 92cd 38bc 1cad 4fbc cfcb 2cbc 5e5f 2cbc
000000e0: 06dd 3a3c bd98 3bbc 22d3 3bbc 1904 493c
000000f0: 1532 2335 dd70 2535 440d 2eb5 1f03 b531
00000100: efd1 1f35 d443 1fb5 b0be 3835 97ed 4f35
00000110: 7586 0cb5 af09 2135 756f 4f35 10e3 1eb5
00000120: 8431 27b5 9a14 2fb5 1a5b 19b5 b686 1eb5
00000130: c234 2c35 3aac 2cb5 db62 2cb5 ce24 3435
00000140: 9c17 f43b 5d54 063c bcb9 17bc 8ece 5938
00000150: 2a0e cc3b 3046 0cbc 6885 fd3b 706c 133c
00000160: 667a c9bb 98a2 013c 76e8 0c3c ec3f f9bb
00000170: 026d 0fbc 607a 09bc ee16 e3bb 6ff9 f4bb
00000180: f6c6 003c d78b ffbb 268c fbbb e87c 0f3c
00000190: f086 2b3c be87 2d3c 253f 37bc 6f91 9b38
000001a0: 6ee9 133c c1d5 2abc 8a9d 2f3c 5b9f 3f3c
000001b0: 9fef 06bc 0727 273c 5e94 3f3c 8c1f 2bbc
000001c0: d627 2cbc df6a 3ebc 0d99 1dbc 017e 1ebc
000001d0: 45a6 2c3c 81b0 2ebc d0b3 2cbc c114 383c
000001e0: def3 2e3c 95f1 343c e8cc 3abc 5991 9d38
000001f0: c16c 1a3c 35f8 30bc e942 343c bd02 483c
00000200: 3e93 16bc 3c72 2d3c 2ffb 493c 2da9 31bc
00000210: 95bf 2fbc 232d 43bc d3ec 22bc 970c 28bc
00000220: 33c0 353c a54c 36bc f422 31bc 6d80 3e3c
00000230: 8d2b 4d3c fc7b 523c b912 57bc 9c45 b838
00000240: e0d0 2f3c 7c3e 4cbc 4c35 503c ee49 653c
00000250: 2ee3 24bc 4af8 4a3c 0e10 653c 30a4 4abc
00000260: a132 4abc 72d7 61bc c3dc 3abc 7ea6 3ebc
00000270: eda6 4d3c affb 51bc 976c 4cbc 9f0c 5e3c
00000280: 0fe1 fa3b 1b49 e33b 25da eebb 45c4 5238
00000290: 566d c93b 777c 02bc 6ccc ee3b d31e fc3b
000002a0: 8965 bdbb 4897 e23b 77ea fd3b dc81 e3bb
000002b0: d456 dfbb 28ee f7bb ce98 cbbb 525e d7bb
000002c0: 56e6 ec3b 180c e8bb ec6e e5bb 99ba f33b
000002d0: 013d 253c 59b0 293c c43f 2ebc 67f3 9038
000002e0: 2b3b 0a3c f5aa 24bc d800 283c 7fbd 383c
000002f0: 561c 02bc 9f2d 213c b43d 3a3c eb5c 27bc
00000300: 931f 22bc 74b4 37bc 5315 17bc 1d86 19bc
00000310: bf8e 263c d9ae 26bc e79a 26bc 1aae 323c
00000320: 9bc9 4a3c 5a1b 4f3c 9c90 58bc d92e b338
00000330: bec5 2c3c 62ca 50bc 2c5d 523c 1c4f 683c
00000340: 8310 25bc b66b 4d3c 352c 673c 39ba 4abc
00000350: ee2b 4abc 82ce 65bc ee03 3cbc 3a26 3fbc
00000360: 6269 513c 8c84 4fbc f335 51bc 4b44 5c3c
00000370: 33c4 273c 832c 293c 60e6 32bc 00b9 9e38
00000380: 8b30 0f3c 42ea 27bc f359 2b3c 0581 3b3c
00000390: 6179 11bc 2cc3 253c 8d83 3d3c 73c9 26bc
000003a0: c01d 29bc abfc 3abc 8505 1dbc 679b 1bbc
000003b0: 26a1 283c 071d 2cbc d760 29bc 758c 343c
000003c0: 506e 263c 9eb0 273c a9f8 32bc 8b93 9938
000003d0: 62f2 0d3c 2744 27bc 61fc 293c 10fe 3b3c
000003e0: 3222 03bc 5ca2 253c e6a9 3b3c 3c89 26bc
000003f0: 756c 23bc 2bb3 38bc f39b 18bc eb0c 1abc

lstm.bias_ih_l1 f4 [80]
0.039933644 0.040857464 0.044007543 2.569974e-06 0.031291205 0.041092742 0.04213744 0.049123738
0.027139725 0.038781226 0.04882664 0.039532013 0.039122563 0.04864761 0.034587912 0.034998834
0.040557735 0.041376095 0.04040806 0.045327306 0.04536511 0.047085505 0.051243354 2.242829e-06
0.032535587 0.046388764 0.04825558 0.059604853 0.028733509 0.0444876 0.059227005 0.04576849
0.04536997 0.057546437 0.03888249 0.039621837 0.046782285 0.048102636 0.04677397 0.05339683
0.14868222 0.15053722 -0.16730203 0.0012741488 0.13065587 -0.14969626 0.15232526 0.16640185
-0.12243497 0.14806713 0.16649096 -0.14833188 -0.1480655 -0.16190042 -0.13770409 -0.140746
0.15030117 -0.15129617 -0.14990145 0.15970755 0.046576075 0.048510615 0.0523764 2.494288e-06
0.03423169 0.047449328 0.049454648 0.058939766 0.029597381 0.045410648 0.062850095 0.04644445
0.045937493 0.05728778 0.03992563 0.041644208 0.048253294 0.048563045 0.048036665 0.055143863
00000000: 7691 233d 285a 273d 4141 343d d177 2c36
00000010: 352b 003d dd50 283d 4f98 2c3d f935 493d
00000020: 2154 de3c 10d9 1e3d 71fe 473d 52ec 213d
00000030: fb3e 203d b742 473d 0eac 0d3d f05a 0f3d
00000040: de1f 263d fb79 293d ec82 253d 20a9 393d
00000050: c4d0 393d bbdc 403d 8de4 513d 8283 1636
00000060: 0944 053d 2502 3e3d a5a7 453d 3824 743d
00000070: 8962 eb3c a138 363d 0498 723d bd77 3b3d
00000080: ddd5 393d d0b5 6b3d 3f43 1f3d 824a 223d
00000090: c89e 3f3d 4507 453d 1096 3f3d a2b6 5a3d
000000a0: 2740 183e 6e26 1a3e 3951 2bbe 5701 a73a
000000b0: a7ca 053e fa49 19be 27fb 1b3e 3f65 2a3e
000000c0: 30bf fabd e99e 173e 9b7c 2a3e 50e4 17be
000000d0: 7c9e 17be 39c9 25be 4d02 0dbe b81f 10be
000000e0: 8de8 193e 62ed 1abe c47f 19be 608a 233e
000000f0: 8ec6 3e3d 11b3 463d a388 563d 8b63 2736
00000100: 8736 0c3d 3a5a 423d f590 4a3d d36a 713d
00000110: 3576 f23c 8400 3a3d 8db7 803d 893c 3e3d
00000120: f428 3c3d 97a6 6a3d 0f89 233d 1e93 2a3d
00000130: 3fa5 453d 0bea 463d 18c2 443d 88de 613d

lstm.bias_hh_l1 f4 [80]
0.039863665 0.041449454 0.045423932 2.38444e-06 0.029200668 0.040600587 0.04173241 0.04807245
0.026735954 0.038784776 0.048556954 0.039540686 0.03936974 0.048158493 0.034468155 0.035568308
0.04055898 0.04128076 0.04034627 0.04657761 0.04546179 0.04692605 0.051188126 2.4249623e-06
0.033677764 0.04656316 0.04828354 0.05742794 0.028258845 0.045354027 0.06197778 0.045437023
0.044946887 0.05983795 0.03913917 0.04058801 0.046892162 0.04749617 0.046714842 0.055914067
0.14714889 0.15051843 -0.14308074 0.00087546627 0.13047354 -0.14921452 0.15213385 0.1655696
-0.119462654 0.14800875 0.16461821 -0.1485277 -0.14526625 -0.16218746 -0.13826147 -0.14073543
0.15033424 -0.15146278 -0.14987496 0.15869884 0.04656799 0.04803504 0.053866427 2.6783835e-06
0.035395734 0.04744989 0.049501006 0.059650283 0.029698862 0.045441195 0.059699405 0.046652753
0.046098944 0.05727929 0.039789405 0.041621555 0.04800541 0.048789307 0.04783756 0.054679245
00000000: 1548 233d e7c6 293d 720e 3a3d 5e04 2036
00000010: 3d36 ef3c cd4c 263d 9bef 2a3d 9ee7 443d
00000020: 5c05 db3c c9dc 1e3d a8e3 463d 6af5 213d
00000030: 2a42 213d d741 453d 7b2e 0d3d 13b0 113d
00000040: 2c21 263d 0416 293d 2142 253d 2ac8 3e3d
00000050: 2436 3a3d 8835 403d a4aa 513d 89bc 2236
00000060: b2f1 093d 03b9 3e3d f6c4 453d 8f39 6b3d
00000070: 187f e73c 25c5 393d 6adc 7d3d 2c1c 3a3d
00000080: 3a1a 383d a318 753d 6550 203d 9d3f 263d
00000090: ff11 403d 588b 423d 1058 3f3d 2606 653d
000000a0: 33ae 163e 8121 1a3e c283 12be 8c7f 653a
000000b0: db9a 053e b1cb 18be fac8 1b3e 148b 293e
000000c0: d6a8 f4bd 9b8f 173e ad91 283e a517 18be
000000d0: adc0 14be 7814 26be 6a94 0dbe f31c 10be
000000e0: 38f1 193e 0f19 1bbe d278 19be f381 223e
000000f0: 14be 3e3d 64c0 443d 0ba3 5c3d 47be 3336
00000100: 1efb 103d d15a 423d 91c1 4a3d db53 743d
00000110: 074b f33c 8c20 3a3d 5d87 743d f516 3f3d
00000120: 3fd2 3c3d b09d 6a3d 37fa 223d 5d7b 2a3d
00000130: 52a1 443d 4cd7 473d 51f1 433d 58f7 5f3d

fc.weight f4 [30, 20]
0.048810747 0.04993512 -0.052076254 0.0003371565 0.041056044 -0.049156997 0.05013901 0.057168853
-0.037148368 0.047956247 0.055204626 -0.048564497 -0.048437066 -0.054720387 -0.043968104 -0.045338165
0.049338564 -0.050543875 -0.04922182 0.052933604 0.04565546 0.046433065 -0.04877243 0.00034193587
0.03906356 -0.046102103 0.047186267 0.052007485 -0.036216475 0.04527196 0.052257996 -0.04542112
-0.046414476 -0.05100236 -0.041608304 -0.043142933 0.046873998 -0.046821997 -0.04655714 0.050142184
0.04537485 0.045975547 -0.04828284 0.00030885878 0.038778786 -0.046279848 0.04659488 0.05136556
-0.036010318 0.045207795 0.05144208 -0.045188412 -0.045070723 -0.050731204 -0.04218467 -0.042727638
0.04591404 -0.04626118 -0.045899566 0.04947464 0.05099933 0.052534435 -0.054959763 0.00036603387
0.043453958 -0.051359683 0.053813092 0.057681113 -0.040661752 0.050161585 0.057950795 -0.051023416
-0.050581753 -0.05802394 -0.04674614 -0.047413766 0.05162217 -0.052344937 -0.05164145 0.057932805
0.04540955 0.04585017 -0.04785441 0.00032287918 0.03903497 -0.045386788 0.046408333 0.051284373
-0.035602883 0.044381123 0.051209465 -0.04492589 -0.045209497 -0.050648276 -0.04157353 -0.042324062
0.045662455 -0.046039924 -0.046176985 0.049337793 0.04499095 0.045883015 -0.048015088 0.00034074165
0.03819631 -0.045496833 0.046458203 0.0511141 -0.036111917 0.04496849 0.051499978 -0.04501312
-0.04495658 -0.05071179 -0.042186 -0.04305489 0.046098836 -0.046109386 -0.045645725 0.04934114
0.045907564 0.045942657 -0.04812672 0.00033684736 0.037084155 -0.045617454 0.04666775 0.051434025
-0.03706304 0.044550426 0.051693626 -0.04493296 -0.044843566 -0.050647482 -0.041005753 -0.04256645
0.045857288 -0.0462307 -0.045644365 0.049279258 0.04556712 0.046402335 -0.04808062 0.00030249663
0.03966766 -0.04587782 0.046644863 0.051266048 -0.03675333 0.04534162 0.05155067 -0.04510693
-0.044746593 -0.050411772 -0.042122807 -0.04121485 0.04631419 -0.046280924 -0.04597531 0.04935639
0.04518285 0.045753986 -0.047906075 0.00030259544 0.03902424 -0.045713447 0.046312626 0.050908964
-0.036506068 0.044461604 0.050998013 -0.044829648 -0.04454588 -0.049990192 -0.041475903 -0.042479858
0.04586001 -0.04604884 -0.04537258 0.04886598 0.04567654 0.046566397 -0.048388004 0.0003092836
0.038673736 -0.046348568 0.046791073 0.051475853 -0.03700039 0.04494494 0.051654764 -0.04534369
-0.045529522 -0.050711107 -0.041859936 -0.04243541 0.04606595 -0.046554532 -0.045822486 0.049415637
0.04790353 0.04903354 -0.050791807 0.00033253184 0.040996704 -0.048281625 0.049370855 0.054147284
-0.038128324 0.04812 0.05463267 -0.047793653 -0.04766269 -0.05329162 -0.04371889 -0.04386696
0.048691552 -0.04942196 -0.048528936 0.052940197 0.045031324 0.04608618 -0.048105925 0.00030969176
0.039289713 -0.045439437 0.046769828 0.051226504 -0.03572328 0.04427241 0.05127824 -0.044812832
-0.044618055 -0.050190806 -0.041797202 -0.041908953 0.046280537 -0.046115126 -0.045569863 0.04904514
0.0452993 0.046248753 -0.048337325 0.00034113403 0.037988562 -0.04615132 0.046824217 0.0515479
-0.036500353 0.044665273 0.05177039 -0.04598074 -0.045483053 -0.05121056 -0.040818267 -0.042740606
00000000: c7ed 473d c588 4c3d e94d 55bd 61c4 b039
00000010: 622a 283d d958 49bd 905e 4d3d e329 6a3d
00000020: e328 18bd c56d 443d 3f1e 623d 91eb 46bd
00000030: f265 46bd 7c22 60bd e617 34bd 83b4 39bd
00000040: 3c17 4a3d 1807 4fbd d29c 49bd e8d0 583d
00000050: 3801 3b3d 9930 3e3d 99c5 47bd db45 b339
00000060: 1d01 203d 8fd5 3cbd 6346 413d cd05 553d
00000070: ba57 14bd 176f 393d 7b0c 563d 7f0b 3abd
00000080: 1b1d 3ebd dae7 50bd 786d 2abd a5b6 30bd
00000090: f3fe 3f3d 6cc8 3fbd b3b2 3ebd e461 4d3d
000000a0: fbda 393d db50 3c3d 3ac4 45bd 53ee a139
000000b0: 81d6 1e3d f08f 3dbd 46da 3e3d b264 523d
000000c0: 8e7f 13bd cf2b 393d eeb4 523d 7c17 39bd
000000d0: 149c 38bd 86cb 4fbd d5c9 2cbd 2d03 2fbd
000000e0: 5c10 3c3d 5d7c 3dbd 2f01 3cbd eca5 4a3d
000000f0: ace4 503d 592e 573d 7d1d 61bd 3ce8 bf39
00000100: c7fc 313d 885e 52bd 1e6b 5c3d 0843 6c3d
00000110: f08c 26bd 3c76 4d3d d05d 6d3d eefd 50bd
00000120: d02e 4fbd 83aa 6dbd e178 3fbd f034 42bd
00000130: c571 533d a567 56bd fc85 53bd f34a 6d3d
00000140: 5dff 393d 63cd 3b3d fc02 44bd 1c48 a939
00000150: 22e3 1f3d 7fe7 39bd aa16 3e3d 900f 523d
00000160: 54d4 11bd fbc8 353d 04c1 513d 3604 38bd
00000170: 982d 39bd 9174 4fbd 0149 2abd ff5b 2dbd
00000180: 8e08 3b3d 5c94 3cbd 1424 3dbd 6d16 4a3d
00000190: 6e48 383d d4ef 3b3d 78ab 44bd 92a5 b239
000001a0: bc73 1c3d e35a 3abd f54a 3e3d 055d 513d
000001b0: 17ea 13bd e130 383d a4f1 523d ad5f 38bd
000001c0: 6424 38bd 2ab7 4fbd 3acb 2cbd 535a 30bd
000001d0: 22d2 3c3d 32dd 3cbd 03f7 3abd ef19 4a3d
000001e0: 9209 3c3d 5e2e 3c3d 8620 45bd e39a b039
000001f0: 8ee5 173d 5ed9 3abd af26 3f3d 7cac 523d
00000200: 6acf 17bd 827a 363d b2bc 533d a00b 38bd
00000210: e3ad 37bd bc73 4fbd a6f5 27bd 285a 2ebd
00000220: dad4 3b3d 675c 3dbd 96f5 3abd 0cd9 493d
00000230: 97a4 3a3d 6010 3e3d 2ff0 44bd 6998 9e39
00000240: 8e7a 223d 62ea 3bbd af0e 3f3d 59fc 513d
00000250: a98a 16bd 22b8 393d cc26 533d 0bc2 38bd
00000260: 3448 37bd 937c 4ebd f788 2cbd e7d0 28bd
00000270: f3b3 3d3d 1191 3dbd 9b50 3cbd ed29 4a3d
00000280: a711 393d 8868 3b3d 2939 44bd aca5 9e39
00000290: e2d7 1f3d 063e 3bbd 4fb2 3d3d eb85 503d
000002a0: 6387 15bd 5f1d 363d 4be3 503d 4b9f 37bd
000002b0: be75 36bd 84c2 4cbd a3e2 29bd 5cff 2dbd
000002c0: b5d7 3b3d b59d 3cbd 99d8 39bd b227 483d
000002d0: 5317 3b3d 68bc 3e3d 8032 46bd 5827 a239
000002e0: 5a68 1e3d ffd7 3dbd ffa7 3f3d 58d8 523d
000002f0: b98d 17bd 2f18 383d f293 533d 4eba 39bd
00000300: 2a7d 3abd 73b6 4fbd 5375 2bbd c1d0 2dbd
00000310: a6af 3c3d f7af 3ebd 5cb0 3bbd 0d68 4a3d
00000320: 7e36 443d 65d7 483d 120b 50bd ab57 ae39
00000330: 29ec 273d f4c2 45bd 1839 4a3d 8bc9 5d3d
00000340: 722c 1cbd 7a19 453d 82c6 5f3d 47c3 43bd
00000350: f439 43bd 5048 5abd 9412 33bd d7ad 33bd
00000360: cb70 473d ae6e 4abd 47c6 46bd d2d7 583d
00000370: c472 383d ddc4 3c3d b80a 45bd 205e a239
00000380: 40ee 203d b41e 3abd b891 3f3d e2d2 513d
00000390: 9352 12bd fd56 353d 2209 523d a98d 37bd
000003a0: 6cc1 36bd e094 4dbd 8b33 2bbd b9a8 2bbd
000003b0: a990 3d3d 37e3 3cbd 77a7 3abd 8fe3 483d
000003c0: c28b 393d 556f 3d3d 5cfd 45bd 3cda b239
000003d0: e599 1b3d 2b09 3dbd c0ca 3f3d e423 533d
000003e0: 6581 15bd eff2 363d 300d 543d 4d56 3cbd
000003f0: 704c 3abd 2ac2 51bd 0e31 27bd c610 2fbd

fc.bias f4 [30]
0.14867043 0.16657858 0.16934422 0.13395439 0.17095958 0.17050418 0.17051496 0.1692545
0.17123368 0.16877502 0.15370269 0.17081548 0.16827768 0.16703628 0.17028175 0.14555047
0.16849531 0.17009683 0.16157423 0.17239127 0.16858222 0.17145191 0.13874806 0.16562828
0.16280165 0.14967845 0.15667419 0.14597592 0.1559764 0.12509093
00000000: 103d 183e 9393 2a3e 9268 2d3e 572b 093e
00000010: 0710 2f3e a698 2e3e 799b 2e3e 0d51 2d3e
00000020: e257 2f3e 5cd3 2c3e 3d64 1d3e 41ea 2e3e
00000030: fc50 2c3e 8f0b 2b3e 575e 2e3e 2f0b 153e
00000040: 098a 2c3e dd2d 2e3e b773 253e 5687 303e
00000050: d1a0 2c3e 1791 2f3e f913 0e3e 769a 293e
00000060: 7ab5 263e 4f45 193e 336f 203e b67a 153e
00000070: 47b8 1f3e d617 003e
