backend/model/lstm-CCL-30-.pth (torch, 26174 bytes, 12 tensors)

conv1.weight f4 [2, 4, 3]
000000 a5 d7 44 b9 92 bd bc 34 23 4f 63 b7 4b 52 ac 33
       -0.0001877235 3.515566e-07 -1.354868e-05 8.024343e-08
000010 f5 b1 f4 b3 65 71 04 b4 f8 7a e5 b3 48 36 59 b9
       -1.13945056e-07 -1.233471e-07 -1.06860114e-07 -0.00020714954
000020 ed fa eb b3 a9 06 12 35 38 61 22 b4 14 12 1f b4
       -1.09886834e-07 5.439893e-07 -1.5122794e-07 -1.4814606e-07
000030 57 9e 18 b1 cd 8f 73 ae 88 37 71 ae f0 1c 91 ae
       -2.2208917e-09 -5.5379524e-11 -5.4846377e-11 -6.598977e-11
000040 bb 20 85 ae cd df 51 b6 d4 be 1d ae 6b e2 84 32
       -6.053954e-11 -3.1273696e-06 -3.5867156e-11 1.5469785e-08
000050 e1 0a e4 b0 b0 a3 51 ae 23 d9 52 ae 9b 5e 79 ae
       -1.6592275e-09 -4.7666482e-11 -4.7941328e-11 -5.670007e-11

conv1.bias f4 [2]
000000 f1 d3 5e 37 de 03 a2 ae
       1.3281578e-05 -7.367594e-11

lstm.weight_ih_l0 f4 [80, 2]
000000 e0 49 63 aa ce 7f 74 b2 b0 fa 69 aa 9a 5c 83 a6
       -2.018728e-13 -1.4231729e-08 -2.0781532e-13 -9.115051e-16
000010 72 4f ab b4 87 a9 33 b0 56 7d 05 ad af 1b 85 aa
       -3.1909036e-07 -6.5360733e-10 -7.588005e-12 -2.3644755e-13
000020 c1 83 0e 32 ec 90 83 33 a1 e3 39 b2 18 11 c3 24
       8.295445e-09 6.126524e-08 -1.0820174e-08 8.459673e-17
000030 e8 a1 d1 ad 5f 28 a6 aa 9b 69 0e ac 01 c5 eb a8
       -2.383245e-11 -2.9515537e-13 -2.0238037e-12 -2.6175678e-14
000040 9d c0 91 a7 82 18 a8 a3 eb b4 89 b1 4a 3c e6 ad
       -4.0454416e-15 -1.8224976e-17 -4.0077928e-09 -2.6174746e-11
000050 69 10 e8 af cb c8 b2 b2 57 d0 da ae d6 fc 40 ab
       -4.2212214e-10 -2.0813237e-08 -9.950501e-11 -6.8562983e-13
000060 bf 76 13 33 f5 99 c2 a9 4e 3d 34 ad 1d ee 14 aa
       3.4334104e-08 -8.642038e-14 -1.0245428e-11 -1.3227653e-13
000070 9a ed 70 a3 a2 14 53 9f c3 00 16 ae 9b b8 94 ac
       -1.306074e-17 -4.4698055e-20 -3.4106728e-11 -4.2269083e-12
000080 9d 2c 17 b0 d2 10 80 a7 3b c7 68 b2 17 1c 1c b3
       -5.499688e-10 -3.5545373e-15 -1.3549477e-08 -3.6347128e-08
000090 a5 f0 91 a6 7e 9b 0f a3 a1 ac 82 ae d1 2c 97 ab
       -1.0126623e-15 -7.784972e-18 -5.9423806e-11 -1.0741634e-12
0000a0 f5 98 d1 b2 08 09 8e a8 08 76 70 aa 55 c5 8e a6
       -2.4400359e-08 -1.5769084e-14 -2.1357232e-13 -9.906716e-16
0000b0 98 06 9c ac e1 15 4d af 08 74 f5 ac ca 29 11 2f
       -4.4345187e-12 -1.8652414e-10 -6.976201e-12 1.320252e-10
0000c0 a6 6a 7e ae a4 fa f5 aa 9d 30 8d b2 ba fc 84 29
       -5.7847636e-11 -4.369466e-13 -1.6436667e-08 5.9058186e-14
0000d0 79 b2 07 31 41 81 ae aa 03 fc 89 ac c1 82 e2 a8
       1.9746536e-09 -3.0998297e-13 -3.921753e-12 -2.5147746e-14
0000e0 fe df f1 a7 36 c3 1b a4 b1 d1 ad b1 dd 70 57 af
       -6.713379e-15 -3.3775617e-17 -5.058802e-09 -1.9594233e-10
0000f0 36 8e 9a af a2 35 23 ac 7d c7 d1 ae 52 25 b8 ab
       -2.8113484e-10 -2.3193465e-12 -9.539656e-11 -1.3084345e-12
000100 5f ca a6 ab be 43 a0 ab 8c 97 2d ad a0 2f 9d a9
       -1.1851179e-12 -1.1387486e-12 -9.867562e-12 -6.980462e-14
000110 e4 63 63 a3 82 b5 2a 9f 7a b3 93 af 2e c4 6d a9
       -1.2326847e-17 -3.614904e-20 -2.686667e-10 -5.279473e-14
000120 fb 70 22 ab 68 30 a2 a7 a4 00 8c ab e2 c3 35 a8
       -5.7710753e-13 -4.5016515e-15 -9.947776e-13 -1.0089994e-14
000130 62 7b 74 a6 f4 85 1e ad b6 2a 22 ae 47 f3 27 33
       -8.482172e-16 -9.011004e-12 -3.687247e-11 3.9103977e-08
000140 af 62 a2 b6 e3 dc bd ae 39 a9 a2 b1 16 cc bd 32
       -4.8394645e-06 -8.633962e-11 -4.734059e-09 2.2095303e-08
000150 9a 11 1f 33 fb 9f 00 b1 6b d5 b8 33 1f 66 19 30
       3.703608e-08 -1.871739e-09 8.606988e-08 5.58062e-10
000160 e4 1b d1 b3 91 c4 4f b4 3b bc 95 31 da 62 02 31
       -9.737394e-08 -1.9349888e-07 4.35787e-09 1.897368e-09
000170 fb 87 b4 b3 7c 41 0e b0 db 71 f7 32 af 4b 1b 2f
       -8.406638e-08 -5.175236e-10 2.880636e-08 1.4124056e-10
000180 42 2e ba 30 43 a4 b5 2c 72 38 17 b7 2e c2 9f 31
       1.3546428e-09 5.162566e-12 -9.013444e-06 4.6495847e-09
000190 20 86 cb b5 b9 56 5b 31 59 84 38 b4 55 6d 34 b0
       -1.5163714e-06 3.191799e-09 -1.7184483e-07 -6.563899e-10
0001a0 16 7d 80 32 f2 ea 22 2f cd a0 56 33 ec 63 0f 30
       1.4958044e-08 1.4817284e-10 4.9972005e-08 5.2165094e-10
0001b0 cd 07 76 33 c5 5b a9 2a c0 74 5c 33 0f 02 78 2f
       5.7283433e-08 3.0084108e-13 5.1328925e-08 2.25562e-10
0001c0 bc a8 39 33 70 34 ec 2e f6 9c bb b2 cb 22 d1 ae
       4.3227132e-08 1.0741352e-10 -2.1841043e-08 -9.5104e-11
0001d0 d1 98 6e 32 cc cc 2f ac 14 1d c8 b9 0d 05 52 b0
       1.388817e-08 -2.498268e-12 -0.00038168638 -7.640473e-10
0001e0 49 ae 28 ab 7b da ab a6 46 fd 2e a9 00 ab 1a 32
       -5.992746e-13 -1.1924728e-15 -3.885544e-14 9.002861e-09
0001f0 ee 65 9a ab d0 fd 7e 30 6a 14 ff ad 98 de 13 aa
       -1.0970649e-12 9.276535e-10 -2.899921e-11 -1.313345e-13
000200 a3 e8 82 ae 68 29 e2 aa 9f 55 94 2e 68 01 89 a3
       -5.95304e-11 -4.0174396e-13 6.74547e-11 -1.4854165e-17
000210 df 06 78 ae 41 40 75 ab 4c fa 06 ac f6 82 22 a9
       -5.6394774e-11 -8.7130655e-13 -1.9181488e-12 -3.6084817e-14
000220 10 e8 ed 33 6d 7e e2 31 57 97 a3 b1 d0 4f 93 ae
       1.10783844e-07 6.5918386e-09 -4.7611297e-09 -6.6989636e-11
000230 78 76 c5 af af 4b 41 2e 19 24 f6 b1 cb fc 85 33
       -3.5918268e-10 4.395034e-11 -7.163646e-09 6.239278e-08
000240 be 2a 2e ac 3f e0 01 a8 60 97 b1 b3 ad 21 92 a9
       -2.4750614e-12 -7.209564e-15 -8.26974e-08 -6.489544e-14
000250 48 07 2e b3 7c 9c a3 ae 80 c9 49 ad 2c c6 b7 a9
       -4.0519154e-08 -7.440179e-11 -1.1470269e-11 -8.16121e-14
000260 ba 39 b2 ab 4a 9e 44 a8 91 70 25 ab 8c 36 5f a8
       -1.2663683e-12 -1.0914509e-14 -5.8775993e-13 -1.2390815e-14
000270 e1 66 11 2d 36 e8 eb a1 bb b5 d2 b0 f3 a7 11 b2
       8.2651394e-12 -1.5985685e-18 -1.5331162e-09 -8.478298e-09

lstm.weight_hh_l0 f4 [80, 20]
000000 ce 9c d8 2a 5b 71 25 2a ed d8 8a ab dd e1 c7 2f
       3.8478113e-13 1.4694272e-13 -9.865699e-13 3.6358375e-10
000010 57 27 b8 2c 00 c3 6f 28 33 e0 6a 32 4d 36 4e ab
       5.233962e-12 1.3309449e-14 1.367157e-08 -7.326126e-13
000020 4b e2 d3 a8 4a 2f d9 ad 21 29 0b ad c6 ca b3 30
       -2.3523845e-14 -2.4691044e-11 -7.910368e-12 1.3081596e-09
000030 6b 36 d1 aa 18 a7 0d ac f3 35 51 a6 eb 70 0b b4
       -3.7163618e-13 -2.013006e-12 -7.2584556e-16 -1.2986463e-07
000040 50 8c e9 b1 c2 0b f9 2a ff 60 f6 27 e1 2f 9b 2c
       -6.797144e-09 4.4239444e-13 6.838388e-15 4.4106806e-12
000050 5a 79 46 b2 22 32 ac 28 e6 bd 08 b1 0b 2e cd aa
       -1.1552709e-08 1.9117578e-14 -1.989855e-09 -3.6447264e-13
000060 38 76 3a 2b 71 85 6a 26 a5 b7 6f 33 51 ef 3b 2d
       6.6244536e-13 8.1365906e-16 5.5813548e-08 1.0682858e-11
000070 e5 87 5e a7 16 c4 e9 2b 79 e6 7a ab 5a 68 11 2b
       -3.0882358e-15 1.661007e-12 -8.9137687e-13 5.1659165e-13
000080 7a 2c 97 33 db 1f 1c 34 7d dc cf a4 b9 a9 3a aa
       7.039576e-08 1.4540221e-07 -9.014546e-17 -1.6579003e-13
000090 da 65 0d a9 08 d9 ed 29 c0 cc 83 27 01 d3 16 2b
       -3.139663e-14 1.0562563e-13 3.6581794e-15 5.358353e-13
0000a0 17 9b 0c 2c 93 69 9f b0 af 14 ab ac bb 0d 45 b1
       1.9981289e-12 -1.1598779e-09 -4.8624087e-12 -2.8675078e-09
0000b0 94 0d fc ac c9 36 02 b1 82 6e 61 2d f1 ac 9e ac
       -7.1637783e-12 -1.8948632e-09 1.2814307e-11 -4.5098304e-12
0000c0 4c ba 2b aa 68 1b d7 ae 35 dd 09 32 7d 69 40 2d
       -1.5252486e-13 -9.7819364e-11 8.024746e-09 1.09373595e-11
0000d0 dc 71 ff ab f6 d9 a7 ac da 19 02 2e 06 73 8b ac
       -1.8150442e-12 -4.770624e-12 2.958154e-11 -3.9633878e-12
0000e0 fc c9 91 ab 26 4d 61 2c 1e 28 34 29 94 ea 93 2d
       -1.0358932e-12 3.201725e-12 4.0002825e-14 1.6816139e-11
0000f0 c3 0f 87 2c c8 df 3f 33 30 da c1 ad 08 1c 14 ae
       3.8386807e-12 4.467418e-08 -2.2038454e-11 -3.36762e-11
000100 c5 6c 7f 2e 3d b2 52 31 27 5f 98 2e ad 08 07 b2
       5.8076894e-11 3.0660339e-09 6.929062e-11 -7.860007e-09
000110 40 31 d7 aa 9a ab 01 b0 51 87 6e af 31 43 be 2e
       -3.8225846e-13 -4.7173787e-10 -2.1694048e-10 8.652135e-11
000120 96 aa fd ac 37 b3 94 b1 06 72 ce a8 b7 67 c8 ad
       -7.2096313e-12 -4.3277413e-09 -2.2920044e-14 -2.2783426e-11
000130 cc 53 6b b1 36 98 18 b4 7f 0b da 2a 70 ed 09 2f
       -3.4244634e-09 -1.4211477e-07 3.8732556e-13 1.2544432e-10
000140 e4 d9 35 33 f7 e8 0c 2d c8 19 3b ae d7 1e f5 ae
       4.2340517e-08 8.009807e-12 -4.2541776e-11 -1.11467884e-10
000150 6f ed 91 2f 6c ce d1 2a 63 3b 1c b2 ad b6 74 ae
       2.6544053e-10 3.7269092e-13 -9.093898e-09 -5.5641425e-11
000160 7b 20 9b 30 47 e8 d0 b0 95 8d da af 25 a8 fc 2f
       1.1286966e-09 -1.5200009e-09 -3.975457e-10 4.5958007e-10
000170 29 e2 a8 ad 12 a1 97 ae 3e cb 71 a9 a3 ed 9d ae
       -1.9199824e-11 -6.895297e-11 -5.3689034e-14 -7.181746e-11
000180 b6 5c 00 ae 7b 6d ff 2d df f8 0c 2b 92 da 7a 2f
       -2.9186174e-11 2.9038763e-11 5.008337e-13 2.281502e-10
000190 3c 72 4b 25 44 b5 d7 24 ad 24 d1 a6 04 1d a0 a7
       1.7646147e-16 9.354846e-17 -1.4512229e-15 -4.444038e-15
0001a0 ea e9 81 29 5d bc dc 22 b3 eb d6 26 e6 ab db a5
       5.7693284e-14 5.9830557e-18 1.4913119e-15 -3.8106927e-16
0001b0 14 e5 70 a3 37 29 79 a8 2a ac d2 a7 ea 7d b2 a8
       -1.3058935e-17 -1.3831214e-14 -5.847337e-15 -1.9816576e-14
0001c0 d3 3d e6 a5 d7 c8 bb a6 6f 57 7c af 14 fd 8e a7
       -3.9940534e-16 -1.3030169e-15 -2.2950329e-10 -3.9687305e-15
0001d0 4c 10 1e a5 e2 ad 82 25 da 57 2f 22 d2 15 ce 27
       -1.3709837e-16 2.2669233e-16 2.376343e-18 5.7200143e-15
0001e0 00 68 36 af d3 32 cc 2c 27 4f e9 ad 75 93 cc ae
       -1.6589752e-10 5.8036713e-12 -2.6524184e-11 -9.3030396e-11
0001f0 88 77 0c 2f 09 a8 ad 2a ad e3 d7 af dd ec 1e ae
       1.2775392e-10 3.084757e-13 -3.9270046e-10 -3.6135418e-11
000200 e7 20 57 ab ab 5f 83 b0 b5 69 88 b2 16 0f 50 2f
       -7.6429005e-13 -9.558695e-10 -1.5880554e-08 1.892285e-10
000210 d6 68 83 ad 24 e0 aa ae 7b a0 01 a9 70 8d 68 ae
       -1.4939532e-11 -7.77052e-11 -2.878295e-14 -5.2876314e-11
000220 2a 75 d3 31 fa 28 b1 2d 93 5b ad 2a 6e 20 3a 2f
       6.1542282e-09 2.0140768e-11 3.0794516e-13 1.6928123e-10
000230 a2 6c 99 33 89 ce 2b 2b 90 52 96 ac 65 b2 e0 2b
       7.144378e-08 6.103803e-13 -4.2724227e-12 1.5965672e-12
000240 b3 dc fb 2d 3f 96 c8 28 18 1d 88 2d 1f b0 b4 ac
       2.8633406e-11 2.226962e-14 1.547433e-11 -5.135461e-12
000250 e9 45 c5 b3 15 5e c9 ae aa 46 f9 ad d6 73 6e 2d
       -9.186244e-08 -9.157134e-11 -2.8339404e-11 1.35544544e-11
000260 b7 f7 8d ab 9c 78 b4 ac fc cd 32 a7 83 d4 8e ac
       -1.0087407e-12 -5.129298e-12 -2.4814127e-15 -4.0594763e-12
000270 19 d0 1f ac bc ff af 2c 94 d7 80 29 02 cb a3 2d
       -2.2710776e-12 5.0021914e-12 5.721739e-14 1.8621108e-11
000280 75 71 06 27 63 bc 31 26 41 cb 37 a7 52 a8 08 a8
       1.865774e-15 6.1664523e-16 -2.5506536e-15 -7.586015e-15
000290 cb e8 6c 28 65 df 64 24 5e fc 23 28 ca 4c 28 a7
       1.3151111e-14 4.962884e-17 9.103041e-15 -2.335631e-15
0002a0 5b 89 d6 a6 e5 24 15 ab 7b d8 24 a9 55 4c d9 2e
       -1.4886463e-15 -5.2986635e-13 -3.6603082e-14 9.881577e-11
0002b0 7a 17 9d a6 08 31 8a a7 0d fb 0b a2 0b 7d 02 a8
       -1.0900427e-15 -3.8355854e-15 -1.8970918e-18 -7.243564e-15
0002c0 2a 85 9e a6 da 47 54 b1 b6 ba db 23 53 58 06 29
       -1.0999547e-15 -3.0890903e-09 2.3823103e-17 2.9830586e-14
0002d0 b9 c5 ae 30 b8 23 2f 30 df 56 45 b1 74 a5 c9 b2
       1.2716362e-09 6.371539e-10 -2.8716653e-09 -2.3474719e-08
0002e0 91 d7 80 32 01 84 28 ad 34 4a 23 32 60 d2 aa b2
       1.499919e-08 -9.579005e-12 9.504721e-09 -1.9886272e-08
0002f0 2f 85 b0 ae a5 02 c5 b3 2a c6 2d b3 83 37 0e 33
       -8.0272115e-11 -9.1740084e-08 -4.045993e-08 3.311244e-08
000300 78 a0 bf b0 02 82 9e b1 d8 98 41 ad 47 53 06 b2
       -1.3942687e-09 -4.6131854e-09 -1.1004718e-11 -7.818762e-09
000310 63 b8 86 b0 3c 7a 02 31 fd 53 01 2e 98 1a a1 32
       -9.802189e-10 1.8986972e-09 2.94058e-11 1.875496e-08
000320 46 a8 e2 b0 19 66 45 2e 5c 36 95 af d3 b4 37 b0
       -1.649149e-09 4.4883295e-11 -2.7141567e-10 -6.683198e-10
000330 43 aa 6f 30 9f be 2c 2c 9b 47 8d 30 f9 33 1c b1
       8.718965e-10 2.4548486e-12 1.0279452e-09 -2.273053e-09
000340 7b 76 bb ac 65 62 f7 b1 f2 87 22 b1 3c ef 94 30
       -5.3280136e-12 -7.1998323e-09 -2.3651379e-09 1.0836412e-09
000350 82 e9 d2 ae 7f 13 d5 af c6 5d d3 2e 60 5f d0 af
       -9.591174e-11 -3.8758327e-10 9.6118266e-11 -3.7902748e-10
000360 de be af ae 27 79 06 2f 39 99 3f 2c 55 96 c4 30
       -7.9919835e-11 1.2230271e-10 2.7227788e-12 1.4303604e-09
000370 3f 5b 0b 2e 00 ae 64 2d 0d fb e4 ae f7 da e3 b1
       3.1685984e-11 1.2998935e-11 -1.0412835e-10 -6.631463e-09
000380 22 8a 45 30 88 a3 37 2b 5a 94 72 32 53 80 9e ae
       7.186448e-10 6.5241606e-13 1.4119985e-08 -7.207803e-11
000390 cf 52 f4 ab 4d d6 36 b1 4e 07 4f b0 33 45 43 30
       -1.7360227e-12 -2.6606302e-09 -7.531654e-10 7.1038925e-10
0003a0 d9 98 4a ae 0f 2a 3d b4 53 a9 46 31 a5 b9 e0 33
       -4.606524e-11 -1.7617297e-07 2.8909042e-09 1.04645814e-07
0003b0 1b 95 15 ae 32 4c 41 2e 14 79 97 2b fc dd b1 2f
       -3.401111e-11 4.3950794e-11 1.0762801e-12 3.2353842e-10
0003c0 98 83 76 2d 44 c8 0f ab 37 82 cd ab 0b b6 08 ac
       1.4012701e-11 -5.108173e-13 -1.4602268e-12 -1.9427817e-12
0003d0 e6 15 59 2c e0 60 35 30 98 25 7a 2c 76 8b 63 ab
       3.084971e-12 6.5985084e-10 3.5548006e-12 -8.084014e-13
0003e0 ff 6f 24 a9 e4 39 18 ae e5 a0 29 ad 5b ed 8b 2d
       -3.6512456e-14 -3.4612216e-11 -9.6422636e-12 1.5907877e-11
0003f0 a1 d6 b7 ab 66 07 75 ac 6c 4b 95 a6 46 44 92 ac
       -1.3062504e-12 -3.48207e-12 -1.0359395e-15 -4.1571495e-12

lstm.bias_ih_l0 f4 [80]
000000 18 80 07 35 68 ba 36 30 18 5b e9 32 7a f7 29 34
       5.047782e-07 6.6476114e-10 2.7166195e-08 1.5829383e-07
000010 08 b3 87 34 23 8b 25 2c ad 6b 2e 34 c8 29 f4 32
       2.5275972e-07 2.3525147e-12 1.6244185e-07 2.8424338e-08
000020 c1 aa a8 2d fb a1 8e 37 27 03 cd 35 9f ae 07 35
       1.9175219e-11 1.7003147e-05 1.5274608e-06 5.0545526e-07
000030 32 30 96 31 52 2b 97 33 45 a7 63 29 63 5b 44 33
       4.3710537e-09 7.0393654e-08 5.054921e-14 4.5717922e-08
000040 67 10 6d 31 9d 70 c3 31 f2 bd e0 2a 29 d1 81 35
       3.4497363e-09 5.6880496e-09 3.9922194e-13 9.672123e-07
000050 e7 cb c8 31 df 3e c5 b1 53 e6 ff 32 29 17 e1 33
       5.843947e-09 -5.740602e-09 2.9790646e-08 1.0481592e-07
000060 e7 20 6a 34 18 d3 36 2c 91 25 cd 34 e0 3a a4 32
       2.1804918e-07 2.5980936e-12 3.821156e-07 1.9118886e-08
000070 a5 5c 8c 2d 46 4a 29 38 4e a3 cc 35 eb 45 c9 34
       1.59573e-11 4.0361912e-05 1.5246712e-06 3.749004e-07
000080 e5 92 6e 33 b2 7e 19 33 67 b9 40 29 99 91 34 33
       5.5547293e-08 3.5738317e-08 4.2793375e-14 4.2041936e-08
000090 84 66 2c 32 4e fd 9e 32 24 77 44 b1 1d 4d f9 34
       1.0035027e-08 1.850881e-08 -2.8589477e-09 4.6435972e-07
0000a0 68 68 ae 38 97 d6 4a 38 ec a2 66 b9 14 c4 63 b9
       8.316414e-05 4.8360405e-05 -0.00021995202 -0.00021721452
0000b0 d0 f4 88 3a 25 46 df 35 a0 51 7c 3a 27 1b 17 b9
       0.0010448936 1.663521e-06 0.00096252 -0.00014410597
0000c0 5d 45 8e b6 56 2e c7 bb ea 16 ec ba 15 34 09 3a
       -4.2400047e-06 -0.0060785217 -0.00180122 0.0005233896
0000d0 b5 f5 b4 b8 80 cd 64 b9 55 64 2d b4 03 15 66 b9
       -8.628835e-05 -0.00021820329 -1.6148381e-07 -0.00021942337
0000e0 51 77 a2 b8 4a d5 e2 38 5b b5 0d 36 f8 9d 8c 3a
       -7.7469864e-05 0.00010816248 2.11162e-06 0.0010728231
0000f0 55 7e 95 31 f2 55 08 30 5c d8 87 32 5c e1 15 34
       4.350833e-09 4.959865e-10 1.5814457e-08 1.3958692e-07
000100 14 a7 6b 34 d1 88 2f 2c d9 fe 96 34 e6 0e 99 32
       2.1946863e-07 2.4944944e-12 2.8125103e-07 1.781832e-08
000110 a4 6e 9e 31 88 fc 92 37 5b ae ae 35 d4 34 c0 34
       4.6109836e-09 1.752215e-05 1.3014754e-06 3.5801224e-07
000120 42 34 9e 31 9a 56 48 33 eb d2 03 b1 29 28 15 34
       4.6043462e-09 4.6644892e-08 -1.9182902e-09 1.3891317e-07
000130 23 cf 09 31 1c 43 bf 31 79 19 a6 33 40 cf e7 34
       2.0053867e-09 5.566461e-09 7.734611e-08 4.3177897e-07

lstm.bias_hh_l0 f4 [80]
000000 77 f7 a5 31 32 73 44 30 e1 b7 04 b5 2e b8 a0 33
       4.8302655e-09 7.1468087e-10 -4.944141e-07 7.484083e-08
000010 ab a8 6a 34 09 13 0d 2c a4 e5 30 34 12 5f 96 32
       2.185431e-07 2.0047872e-12 1.647482e-07 1.7505531e-08
000020 40 cf 67 2d e3 6f 9e 37 e6 3e 94 35 5e ba 43 35
       1.31768485e-11 1.8887169e-05 1.1045165e-06 7.291436e-07
000030 4d a1 5a 32 cd 8c 47 33 fa 4c 89 29 1e 4e 97 33
       1.2725946e-08 4.6461356e-08 6.0973755e-14 7.045695e-08
000040 39 e8 11 31 f1 66 ba 31 33 2e 2e 2c ef 3d de 34
       2.123228e-09 5.4250155e-09 2.4752533e-12 4.1395785e-07
000050 0c 0f 9a 31 87 18 32 30 f9 78 93 32 b3 bf c6 33
       4.4837005e-09 6.479088e-10 1.7168064e-08 9.2549634e-08
000060 1e c4 ca 34 f8 68 42 2c ab 55 47 34 e9 65 96 32
       3.7768126e-07 2.7627328e-12 1.8564485e-07 1.7508642e-08
000070 e9 82 c9 2d 97 bc 95 37 f9 69 e7 35 81 0a a9 35
       2.290919e-11 1.7850003e-05 1.7241683e-06 1.2594538e-06
000080 25 c5 a5 31 d3 6f 87 33 9c 6e 52 29 c2 43 52 33
       4.8245448e-09 6.306768e-08 4.6725305e-14 4.895606e-08
000090 e2 29 1d 31 70 d4 ff 31 cc ca 33 2c 38 ce d2 34
       2.2870315e-09 7.445628e-09 2.5550005e-12 3.9265592e-07
0000a0 7d 31 aa 38 8e cf be 37 88 aa 28 b9 c2 70 29 ba
       8.1154496e-05 2.2746415e-05 -0.00016085256 -0.00064636406
0000b0 1b 77 ec 39 07 13 d3 35 cc 87 ab 39 b1 47 5d b9
       0.00045102168 1.5726263e-06 0.00032716838 -0.0002110291
0000c0 91 b3 ab b6 68 97 c5 bb fd 9b de ba d3 6a be 3a
       -5.1171014e-06 -0.006030012 -0.0016983744 0.0014527686
0000d0 3e 85 b1 b8 7b 80 c9 b9 b3 66 52 b4 1c 0c 92 b9
       -8.464836e-05 -0.00038433433 -1.9595136e-07 -0.00027856312
0000e0 81 a4 4b b8 5a a6 e7 38 43 ff e0 35 25 64 80 3a
       -4.8552178e-05 0.00011045924 1.6763591e-06 0.000979547
0000f0 8e 70 05 32 ad e3 82 30 66 38 d6 32 f7 a3 a2 33
       7.767211e-09 9.523454e-10 2.4938526e-08 7.573538e-08
000100 98 92 9b 34 d5 bd 11 2c 3b b0 8b 34 27 9b 81 32
       2.897766e-07 2.0711117e-12 2.6018992e-07 1.5088132e-08
000110 84 57 12 2e 33 f2 9b 37 46 c1 eb 35 c2 25 c0 34
       3.3274286e-11 1.8590223e-05 1.7565114e-06 3.579026e-07
000120 f6 da bf 31 0d 27 29 33 5a 70 63 29 05 3e cc 33
       5.5837246e-09 3.9383895e-08 5.0501575e-14 9.5107715e-08
000130 12 8e 1b 31 ca e7 c2 31 0b 9e d1 ae 44 76 34 35
       2.2636226e-09 5.6724945e-09 -9.532294e-11 6.7227325e-07

lstm.weight_ih_l1 f4 [80, 20]
000000 9a 6c b6 36 db d2 04 36 a3 ef 43 b7 68 45 f1 b7
       5.4366656e-06 1.9792267e-06 -1.16787005e-05 -2.8761759e-05
000010 b3 5a 41 38 4e 06 e7 33 1f e4 15 38 30 3c 91 b7
       4.6099256e-05 1.07579226e-07 3.5736823e-05 -1.7313374e-05
000020 6e 66 99 b4 40 d7 b4 b9 31 a7 eb b8 05 2a 83 38
       -2.8572998e-07 -0.0003449265 -0.00011236815 6.2543935e-05
000030 0e 27 a0 b6 b7 4a 91 b7 96 1d cd b3 a0 c3 8f b7
       -4.772918e-06 -1.7320139e-05 -9.551438e-08 -1.7138023e-05
000040 18 65 f0 b6 f2 78 39 37 e9 ab ef 33 3c 30 6e 38
       -7.1643262e-06 1.1055019e-05 1.1160575e-07 5.6788544e-05
000050 9d 81 a2 36 6c f1 1a 36 45 a4 41 b7 38 1c 00 b8
       4.843065e-06 2.3088314e-06 -1.1541943e-05 -3.054386e-05
000060 51 9e 52 38 d5 89 f6 33 5a 62 08 38 95 8a 42 b7
       5.0215345e-05 1.1480339e-07 3.2516524e-05 -1.1595567e-05
000070 2a 2c e4 b4 2d eb c4 b9 73 81 f7 b8 a1 31 72 38
       -4.2500443e-07 -0.00037559253 -0.000118019896 5.7743517e-05
000080 88 72 a3 b6 8c 03 a2 b7 ce 39 74 b2 83 a5 6e b7
       -4.8711117e-06 -1.9313557e-05 -1.42158125e-08 -1.4224442e-05
000090 ce 28 ee b6 80 b9 cf 36 04 6b f2 33 8c 69 7b 38
       -7.097703e-06 6.190676e-06 1.1288469e-07 5.994136e-05
0000a0 25 75 82 36 7f ea e0 35 47 80 25 b7 2e 47 a2 b7
       3.8879393e-06 1.6757548e-06 -9.864633e-06 -1.934505e-05
0000b0 e9 71 11 38 83 fb cd 33 e7 0d f5 37 1c 6d 25 b7
       3.467678e-05 9.591806e-08 2.921275e-05 -9.86017e-06
0000c0 6b 43 94 b4 2b d0 8e b9 4d b1 bc b8 38 71 3a 38
       -2.76162e-07 -0.00027239448 -8.9975634e-05 4.44513e-05
0000d0 ae 8a dc b6 c2 9f 64 b7 73 95 27 b2 1e 8b 3d b7
       -6.5726554e-06 -1.36270555e-05 -9.75466e-09 -1.1297669e-05
0000e0 84 33 57 b6 3a 4f b3 36 21 4b 13 34 43 d0 69 38
       -3.2067483e-06 5.343839e-06 1.3717774e-07 5.5745488e-05
0000f0 d5 c1 9b 36 4c cb 14 36 89 6f 63 b7 64 90 02 b8
       4.641925e-06 2.2172053e-06 -1.3556223e-05 -3.112889e-05
000100 f4 c8 6e 38 7c 55 dd 34 6d 79 3a 38 b0 21 3a b7
       5.6930774e-05 4.1226656e-07 4.4458942e-05 -1.1094307e-05
000110 4d 1f 00 b5 e0 56 d1 b9 97 2c f0 b8 1d 3d 6b 38
       -4.7729264e-07 -0.00039928313 -0.00011452397 5.6085282e-05
000120 54 0c d3 b6 1c 3a 8e b7 43 99 3b b2 fc e9 8c b7
       -6.289725e-06 -1.6954778e-05 -1.091968e-08 -1.6798258e-05
000130 39 a1 fc b6 6b b9 0b 37 92 8c ee 33 49 b4 9d 38
       -7.528954e-06 8.328217e-06 1.1108308e-07 7.519924e-05
000140 2b 0f b1 36 ef fb 06 36 0f e1 60 b7 d8 b7 da b7
       5.276777e-06 2.01142e-06 -1.3403841e-05 -2.6073234e-05
000150 d1 3d 59 38 84 68 b6 34 73 3f 27 38 b6 2f 2e b7
       5.1794403e-05 3.3976187e-07 3.9874994e-05 -1.0382317e-05
000160 f5 ac 28 b5 db 54 c5 b9 7f 2b cf b8 38 57 86 38
       -6.283656e-07 -0.0003763799 -9.878631e-05 6.405864e-05
000170 88 f9 fb b6 4f a2 b5 b7 36 ea 51 b2 8b ec df b7
       -7.509432e-06 -2.1652462e-05 -1.22186545e-08 -2.669382e-05
000180 ed 4b 9e b6 d9 dc e9 36 f7 d1 08 34 bb bd 86 38
       -4.717606e-06 6.969651e-06 1.2742372e-07 6.424958e-05
000190 0d 7a 9d 36 1f 8b 10 36 2c d9 8f b7 e0 08 c9 b7
       4.693173e-06 2.1538651e-06 -1.7148057e-05 -2.39652e-05
0001a0 57 3a 33 38 5a 9d c8 33 39 3e 1e 38 11 3e 83 b7
       4.273126e-05 9.341848e-08 3.7728085e-05 -1.5645319e-05
0001b0 67 0d 9d b4 66 07 ad b9 ab 30 02 b9 f7 1c 8b 38
       -2.925328e-07 -0.00033002644 -0.00012415896 6.6334316e-05
0001c0 13 da ef b6 b1 b3 a6 b7 80 a4 39 b2 90 bf ae b7
       -7.1481422e-06 -1.9872417e-05 -1.080582e-08 -2.083162e-05
0001d0 d3 6c 70 b6 d0 59 24 37 3e 4e 11 34 43 66 78 38
       -3.582613e-06 9.796073e-06 1.3532642e-07 5.9223046e-05
0001e0 bf ac a8 36 d9 37 0e 36 6f 3d 81 b7 f5 be d2 b7
       5.0269005e-06 2.1192157e-06 -1.5406606e-05 -2.5122872e-05
0001f0 3f c3 36 38 bf 26 00 34 7e 41 1e 38 09 89 3a b7
       4.357402e-05 1.1935025e-07 3.773113e-05 -1.111837e-05
000200 30 57 c5 b4 95 25 ba b9 c1 56 01 b9 62 52 83 38
       -3.6757547e-07 -0.00035504685 -0.00012334717 6.261912e-05
000210 e1 bb fa b6 33 9e 95 b7 73 eb 19 b3 05 e0 87 b7
       -7.4724526e-06 -1.7835851e-05 -3.583723e-08 -1.6197571e-05
000220 27 ce 03 b7 c4 42 f9 36 1c f2 15 34 c9 fd 90 38
       -7.856207e-06 7.428551e-06 1.3964785e-07 6.913726e-05
000230 5a 36 b0 36 cd cd 20 36 89 ad 49 b7 c5 df d6 b7
       5.251536e-06 2.396165e-06 -1.2020938e-05 -2.5614989e-05
000240 4d 98 4f 38 e3 6c ce 33 1e 89 33 38 81 c4 40 b7
       4.9494487e-05 9.612429e-08 4.2804626e-05 -1.1489844e-05
000250 87 7a 98 b4 9c 0d bf b9 53 fc cc b8 22 f4 6f 38
       -2.8401357e-07 -0.000364405 -9.774477e-05 5.7209407e-05
000260 79 f9 b1 b6 49 94 9d b7 d4 51 32 b3 c5 ac 7d b7
       -5.3040535e-06 -1.878491e-05 -4.1518277e-08 -1.5120201e-05
000270 0d 3b ff b6 fa b7 fc 36 63 9d 02 34 21 65 73 38
       -7.6064666e-06 7.531603e-06 1.216445e-07 5.80299e-05
000280 42 37 a5 36 7d d6 02 36 82 71 77 b7 1c c4 c5 b7
       4.923816e-06 1.9496358e-06 -1.4748775e-05 -2.357555e-05
000290 80 87 4a 38 74 c0 2f 34 de 5d 38 38 f7 48 37 b7
       4.8286747e-05 1.6368159e-07 4.395644e-05 -1.0924638e-05
0002a0 5c 49 17 b5 17 ce ab b9 9f 4d ed b8 dc ab 83 38
       -5.6358635e-07 -0.0003276921 -0.00011315499 6.278578e-05
0002b0 dc 30 09 b7 c0 f7 8a b7 71 92 36 b2 a0 ce 47 b7
       -8.177212e-06 -1.656625e-05 -1.0627091e-08 -1.1909433e-05
0002c0 92 e7 a7 b6 b4 e5 d7 36 18 e1 0e 34 89 85 ce 37
       -5.003946e-06 6.4342403e-06 1.3306669e-07 2.4619296e-05
0002d0 3a 7a ab 36 62 64 0b 36 ec 8b 75 b7 0e 15 df b7
       5.110426e-06 2.0771045e-06 -1.4635716e-05 -2.6593476e-05
0002e0 f5 e5 dc 36 2e f4 f6 33 71 c8 20 38 8e cd 71 b7
       6.5832814e-06 1.1499684e-07 3.833365e-05 -1.4412579e-05
0002f0 93 61 c9 b4 2e b2 cc b9 cb b9 ef b8 fd 9b 91 38
       -3.7510162e-07 -0.00039042666 -0.00011431015 6.943194e-05
000300 60 54 c9 b6 17 bd e2 b7 47 71 6b b2 f7 5c 6f b7
       -6.0000893e-06 -2.7029351e-05 -1.3704557e-08 -1.4267155e-05
000310 a8 1b b9 b6 34 62 0e 37 9a e7 32 34 8e 80 93 38
       -5.5166493e-06 8.486724e-06 1.6661798e-07 7.0334514e-05
000320 d1 df 93 36 ce 83 34 36 cd 9a 34 b7 14 35 be b7
       4.406997e-06 2.689881e-06 -1.0764878e-05 -2.2674481e-05
000330 33 6f 2d 38 dd 57 f1 33 46 77 16 38 e4 35 1e b7
       4.1349977e-05 1.1238419e-07 3.587387e-05 -9.430081e-06
000340 28 16 17 b5 51 91 c8 b9 22 e4 cc b8 ca da 58 38
       -5.6284125e-07 -0.00038255242 -9.769971e-05 5.1702176e-05
000350 3c f0 99 b6 07 f7 85 b7 01 71 5d b2 2b 03 8f b7
       -4.5877223e-06 -1.5969867e-05 -1.2889587e-08 -1.7048404e-05
000360 72 f2 7c b6 9d 42 1b 37 54 29 e0 33 8d bd 83 38
       -3.7692048e-06 9.25423e-06 1.04383304e-07 6.281873e-05
000370 3f a8 04 37 8a 8c 52 36 60 e3 7c b7 ed b7 c8 b7
       7.906986e-06 3.1374243e-06 -1.507331e-05 -2.3927505e-05
000380 57 5d 96 b6 cc 75 52 34 1f ef 31 38 96 6d 81 b7
       -4.4812145e-06 1.9600628e-07 4.2422787e-05 -1.5429028e-05
000390 5e 17 5d b5 73 2b ae b9 a0 06 e0 b8 90 f3 88 38
       -8.236292e-07 -0.00033220238 -0.00010682386 6.5303524e-05
0003a0 c2 7e ce b6 4f ea 9d b7 58 4a ee b2 35 fe 7d b7
       -6.154035e-06 -1.8824967e-05 -2.7740654e-08 -1.5139162e-05
0003b0 52 fe be b6 92 da d4 36 6f eb 05 34 41 85 8e 38
       -5.692048e-06 6.3435373e-06 1.247224e-07 6.795908e-05
0003c0 39 63 bb 36 92 de 58 36 5c 14 3a b7 97 82 eb b7
       5.5845853e-06 3.2316061e-06 -1.1091204e-05 -2.8074994e-05
0003d0 9d ec 73 38 c7 45 d0 33 9e f0 3c 38 e6 ed 8f b7
       5.8156078e-05 9.698447e-08 4.5046785e-05 -1.7157708e-05
0003e0 e1 02 e1 b4 dc 78 b2 b9 12 51 ce b8 20 79 6f 38
       -4.191161e-07 -0.00034040853 -9.837946e-05 5.7094847e-05
0003f0 cd f6 a1 b6 b9 06 be b7 b6 b0 30 b2 b8 63 83 b7
       -4.8269053e-06 -2.2652895e-05 -1.0284728e-08 -1.5662852e-05

lstm.weight_hh_l1 f4 [80, 20]
000000 41 d3 c2 3c de 50 c6 3c ec f6 9b bc 92 92 c4 3c
       0.023782374 0.024208482 -0.01903864 0.023995671
000010 91 ef c4 bc 41 42 c1 bc 8e 6d cd 3c 4f c5 c6 3c
       -0.024040015 -0.023591163 0.025076654 0.024264006
000020 b9 22 c1 bc c4 a4 c6 bc 28 b0 b8 3c 17 0a c3 bc
       -0.023576127 -0.024248488 0.022544935 -0.023808522
000030 a3 f1 c3 3c ef 01 c6 bc 6a 72 c8 bc 94 a2 c0 bc
       0.023918932 -0.024170844 -0.02446862 -0.023515023
000040 49 17 c4 3c 9f 70 c2 bc c7 99 c2 3c 5d 1f cb 3c
       0.023936884 -0.023735343 0.023754967 0.024795229
000050 3e db c6 3c b6 b1 c9 3c 89 52 a3 bc 89 1a c8 3c
       0.024274465 0.024620872 -0.019936817 0.024426715
000060 85 17 c9 bc fc e3 c4 bc c1 cb d3 3c 73 35 ca 3c
       -0.024547348 -0.024034493 0.025853993 0.02468369
000070 e9 bd c2 bc 01 a8 ca bc 0e e1 b9 3c fe 74 c6 bc
       -0.023772197 -0.024738314 0.022690322 -0.024225708
000080 c9 59 c8 3c e4 cd c9 bc 83 10 cd bc ea 93 c3 bc
       0.024456875 -0.02463431 -0.025032287 -0.023874242
000090 8f 61 c7 3c 6d 12 c6 bc af 48 c6 3c a7 4e ce 3c
       0.024338512 -0.024178708 0.02420458 0.025183989
0000a0 a3 9f 99 3c ec 02 9d 3c a6 d0 89 bc 42 6b a2 3c
       0.018752879 0.019166432 -0.016823124 0.019826535
0000b0 a2 f8 9c bc 3c a0 9c bc 0a 6f a6 3c ed 89 a1 3c
       -0.019161526 -0.019119374 0.02031662 0.019719088
0000c0 4c a1 a1 bc 67 84 9f bc 95 20 8f 3c b3 d1 9c bc
       -0.019730233 -0.019472314 0.017471591 -0.019142961
0000d0 14 31 9c 3c 9e e8 9b bc f0 36 a3 bc c2 38 a2 bc
       0.019066371 -0.019031819 -0.019923657 -0.019802455
0000e0 aa df 9d 3c 76 03 99 bc e9 df 9a 3c 03 85 9e 3c
       0.01927169 -0.018678408 0.018905597 0.019350534
0000f0 ab 36 c4 3c 5b 0d c8 3c 14 16 9d bc ee a2 c6 3c
       0.023951849 0.02442043 -0.019175567 0.024247613
000100 b0 4d c8 bc 0f a2 c3 bc c8 dd d0 3c 6c b7 c8 3c
       -0.024451107 -0.023880986 0.025496379 0.024501525
000110 dc ed c1 bc ad 23 c9 bc 90 da bb 3c c9 ff c5 bc
       -0.02367299 -0.024553144 0.022931367 -0.02416982
000120 55 2b c7 3c 9b 67 c8 bc 08 7d cc bc 4b dc c3 bc
       0.024312655 -0.024463465 -0.024961963 -0.023908755
000130 db 3b c6 3c 63 9f c4 bc 67 11 c6 3c e3 5f cc 3c
       0.024198463 -0.024001783 0.02417822 0.024948066
000140 bb b6 c4 3c fb ea c8 3c bb 21 a0 bc 8c 51 c8 3c
       0.024012914 0.02452611 -0.019547334 0.024452947
000150 34 b3 c7 bc c6 20 c4 bc 7e 76 d2 3c 01 f5 c8 3c
       -0.024377443 -0.023941409 0.025691267 0.02453089
000160 1d e2 c1 bc 54 be ca bc e8 e1 be 3c 24 f4 c5 bc
       -0.02366739 -0.024748959 0.02330108 -0.024164267
000170 ce 0b c7 3c ee ea c8 bc a1 3e cd bc 30 76 c3 bc
       0.024297621 -0.024526086 -0.025054278 -0.023860067
000180 c7 a3 c6 3c 09 98 c5 bc 90 db c5 3c 66 db cc 3c
       0.024248017 -0.024120348 0.024152547 0.025006961
000190 2e 1e c3 3c 09 2e c5 3c a1 ce 9e bc 58 e6 c3 3c
       0.023818102 0.024069803 -0.019385638 0.023913547
0001a0 bc 84 c5 bc 0d 81 c0 bc 94 aa cc 3c 34 3a c5 3c
       -0.024111144 -0.023499036 0.024983682 0.024075605
0001b0 6a a8 be bc ef b5 c6 bc 08 36 b6 3c f6 4c c2 bc
       -0.023273665 -0.024256675 0.022242561 -0.023718338
0001c0 c0 74 c3 3c 09 4c c5 bc 7b 2d c8 bc 8a f9 be bc
       0.023859382 -0.024084108 -0.02443575 -0.023312349
0001d0 25 c3 c3 3c 1e d0 c1 bc 27 54 c2 3c bf e7 ca 3c
       0.023896763 -0.023658808 0.023721768 0.024768708
0001e0 47 51 cd 3c 00 a8 d2 3c c7 b1 a6 bc 4e 5c d0 3c
       0.02506317 0.025714874 -0.020348443 0.02543464
0001f0 40 b6 cf bc 24 e5 cb bc 48 5a d8 3c d0 bf d0 3c
       -0.025355458 -0.024889536 0.026410237 0.025482088
000200 7c 47 cb bc 2b 79 d1 bc c5 ea c5 3c 96 5b cd bc
       -0.02481436 -0.025570473 0.024159798 -0.025068086
000210 92 4e cf 3c 82 93 d0 bc d1 e0 d5 bc 60 6e ca bc
       0.02530602 -0.025460962 -0.026108177 -0.024710834
000220 8b aa ce 3c 20 26 cd bc 7f 3e cd 3c a5 f9 d4 3c
       0.025227806 -0.025042593 0.025054215 0.025997946
000230 ce 9b c5 3c d1 c2 c9 3c 94 9c a4 bc fe 5d c8 3c
       0.024122145 0.024629029 -0.020094194 0.024458881
000240 b6 fd c8 bc 66 f4 c4 bc 35 87 d3 3c 11 b2 c9 3c
       -0.024535041 -0.02404232 0.025821308 0.024621041
000250 b0 a5 c4 bc 49 2a cb bc 03 25 bc 3c 07 cb c6 bc
       -0.024004787 -0.024800437 0.022966867 -0.024266733
000260 be d4 c7 3c 8a b3 c9 bc ef b8 cc bc de b0 c3 bc
       0.024393436 -0.024621744 -0.024990527 -0.023888048
000270 64 e7 c7 3c 65 01 c6 bc db 14 c7 3c 8c 89 cf 3c
       0.024402328 -0.024170587 0.024301937 0.025334142
000280 7a bb c0 3c 2f ed c2 3c cb a9 a0 bc 16 5a c3 3c
       0.023526896 0.023794739 -0.019612214 0.023846667
000290 bf 0d c2 bc 63 b9 be bc 58 bd ca 3c d1 07 c3 3c
       -0.023688195 -0.023281759 0.02474849 0.023807438
0002a0 d5 0f bc bc b1 d8 c3 bc f9 c3 b4 3c f0 8e bf bc
       -0.022956768 -0.023907037 0.022066103 -0.023383588
0002b0 55 3e c1 3c c2 e1 c2 bc 62 33 c7 bc 51 40 bc bc
       0.023589293 -0.02378929 -0.024316493 -0.022979887
0002c0 73 eb c0 3c fd 79 bf bc cb c7 bf 3c 45 6a c8 3c
       0.023549771 -0.023373598 0.023410698 0.024464736
0002d0 f1 eb c6 3c 30 af ca 3c 8f 43 a4 bc c4 e0 c9 3c
       0.024282428 0.024741739 -0.020051746 0.02464331
0002e0 69 fd c9 bc c3 0a c7 bc f8 d5 d3 3c 9f d3 ca 3c
       -0.024656968 -0.024297124 0.025858864 0.024759112
0002f0 3f e8 c3 bc f6 da cb bc 2e 7d bc 3c 37 f7 c7 bc
       -0.023914455 -0.024884682 0.02300891 -0.024409873
000300 e1 ba ca 3c 05 36 cb bc 7f 71 cd bc d2 b9 c4 bc
       0.024747314 -0.024806032 -0.025078533 -0.024014387
000310 be c8 c8 3c 78 22 c7 bc 38 6c c7 3c 1d 07 cf 3c
       0.024509784 -0.024308428 0.024343595 0.025271947
000320 90 0f b6 3c 1b b3 bb 3c 83 03 97 bc a9 1c ba 3c
       0.022224218 0.022912553 -0.018434292 0.022718744
000330 5d 32 be bc be 2c b6 bc 1b bf c6 3c 3b dc bf 3c
       -0.023217374 -0.022238132 0.024261048 0.023420444
000340 95 48 b4 bc b5 b3 bd bc 86 7c ac 3c bc 8e b8 bc
       -0.022007266 -0.02315698 0.021055471 -0.022528999
000350 02 9e bb 3c 6f bf ba bc a0 78 be bc 44 cd b4 bc
       0.022902492 -0.02279636 -0.023250878 -0.022070535
000360 76 c3 b8 3c 0e c0 b6 bc 38 a7 b6 3c 6f 45 c0 3c
       0.02255414 -0.022308376 0.022296533 0.023470609
000370 8e a9 c2 3c ab 9a c6 3c cf 5f 9c bc 8c 13 c6 3c
       0.02376249 0.024243673 -0.019088654 0.024179243
000380 ce c6 c5 bc 6f 57 c3 bc 8b fe ce 3c 4c 42 c7 3c
       -0.024142649 -0.023845403 0.02526786 0.024323605
000390 e0 7d c0 bc 10 99 c7 bc 9e 72 b9 3c e0 ee c3 bc
       -0.023497522 -0.024364978 0.022637662 -0.023917615
0003a0 2d ff c5 3c a0 d4 c6 bc 32 51 c9 bc bc b6 c0 bc
       0.024169529 -0.02427131 -0.02457485 -0.023524635
0003b0 71 8a c5 3c 2e 46 c3 bc 3f b4 c3 3c 02 0f cb 3c
       0.024113866 -0.023837175 0.023889659 0.02478743
0003c0 d2 a0 c4 3c 2f df c7 3c d9 96 9e bc ba 7d c6 3c
       0.024002466 0.024398414 -0.01935904 0.024229873
0003d0 c1 04 c8 bc 6f 99 c3 bc 5c 20 d0 3c c0 f0 c7 3c
       -0.02441633 -0.023876874 0.025406055 0.02440679
0003e0 b2 61 c3 bc ac 40 c9 bc f6 e5 ba 3c 5a 51 c5 bc
       -0.023850296 -0.02456697 0.022814732 -0.024086643
0003f0 af 22 c7 3c c1 fe c7 bc 33 4a cb bc 69 98 c2 bc
       0.02430853 -0.024413468 -0.024815654 -0.023754315

lstm.bias_ih_l1 f4 [80]
000000 01 9f 53 3d 70 7e 58 3d 6d ff 28 3d 2d 80 56 3d
       0.05166531 0.052854955 0.041259218 0.05236833
000010 5e 01 57 3d 26 3b 53 3d 70 0c 60 3d 8f 09 58 3d
       0.05249154 0.05157008 0.05469936 0.05274349
000020 d8 85 50 3d 14 76 58 3d e9 e8 4a 3d b9 cc 54 3d
       0.050908893 0.052846983 0.049538527 0.05195305
000030 80 70 56 3d ec 40 58 3d 2f fb 5b 3d 8b 25 50 3d
       0.052353382 0.05279629 0.053706344 0.050817054
000040 4a 34 56 3d 55 65 54 3d b4 de 54 3d a0 6b 5d 3d
       0.05229596 0.05185445 0.0519702 0.054057717
000050 82 d2 9a 3d f9 d1 9f 3d 40 bc 5f 3d ac e9 9d 3d
       0.075596824 0.07803721 0.05462289 0.07710585
000060 33 a7 9e 3d 5e 21 9a 3d 49 81 ac 3d 71 cf 9f 3d
       0.077467345 0.075258955 0.08423097 0.07803238
000070 49 8e 97 3d 23 7e a1 3d b9 c9 8e 3d 03 0d 9c 3d
       0.074001856 0.07885387 0.06972069 0.07619669
000080 8f ac 9d 3d 2d 7d a0 3d c0 22 a6 3d bf cf 96 3d
       0.076989286 0.078363754 0.08112097 0.07363843
000090 9a 66 9d 3d ae a9 9b 3d 47 fa 9b 3d 69 e2 a6 3d
       0.07685585 0.07600723 0.07616096 0.08148653
0000a0 bb ba f5 3d fb ba e7 3d 33 78 be bd 9a d6 f5 3d
       0.11998507 0.113149606 -0.0930027 0.120038226
0000b0 8a 94 e8 bd 0a 89 f2 bd 2b 82 04 3e c2 1a f9 3d
       -0.113564566 -0.118425444 0.1294028 0.12163307
0000c0 e2 da f1 bd 68 38 fd bd 91 bb ed 3d 09 1e f0 bd
       -0.11809327 -0.12364274 0.11608041 -0.11724479
0000d0 1a 81 f4 3d 27 b1 f5 bd 0d cf 0e be 75 93 ea bd
       0.11938687 -0.1199668 -0.13946171 -0.114539064
0000e0 2e 30 f1 3d e4 d3 ea bd 3d fd f3 3d 1b d9 f9 3d
       0.11776768 -0.11466196 0.11913536 0.12199613
0000f0 d8 e2 a2 3d f2 22 ab 3d ea 6b 68 3d a1 4f a7 3d
       0.07953423 0.08356275 0.05674354 0.08169485
000100 55 35 a9 3d 3a 0f a1 3d 29 3a bb 3d 1a c7 a8 3d
       0.082621254 0.07864232 0.091419525 0.082411006
000110 75 38 9f 3d b8 8b aa 3d 80 51 95 3d fe 54 a4 3d
       0.0777444 0.083274305 0.072909355 0.080240235
000120 ac 04 a6 3d d0 0b a9 3d 68 85 b0 3d dc ff 9e 3d
       0.0810636 0.08254206 0.08619195 0.07763645
000130 57 bc a5 3d ef be a3 3d 22 1c a4 3d b4 56 b1 3d
       0.080925636 0.07995402 0.080131784 0.086591154

lstm.bias_hh_l1 f4 [80]
000000 38 1b 54 3d e1 f8 57 3d 62 5f 28 3d a9 87 56 3d
       0.05178377 0.052727584 0.04110659 0.05237547
000010 e9 cd 57 3d 52 30 53 3d 6d 08 60 3d a7 e3 58 3d
       0.052686606 0.051559754 0.054695535 0.05295148
000020 5e 43 50 3d b9 a2 59 3d bb 20 4b 3d 0e ec 54 3d
       0.050845496 0.0531337 0.04959176 0.05198293
000030 16 77 56 3d 37 46 58 3d fc f9 5d 3d 5a 3f 50 3d
       0.052359663 0.052801337 0.05419348 0.050841667
000040 32 39 56 3d 8d d0 54 3d 6c cd 54 3d 64 df 5e 3d
       0.05230064 0.051956702 0.051953718 0.05441226
000050 29 cb 9a 3d 10 2e a1 3d 92 a7 5b 3d 84 80 9e 3d
       0.07558281 0.07870114 0.053626604 0.07739356
000060 10 6a 9f 3d a2 22 9a 3d 8c 6a aa 3d c6 e3 9f 3d
       0.07783902 0.07526137 0.083211035 0.07807116
000070 db 9b 97 3d f1 95 a1 3d 2e 6f 8f 3d bf 13 9c 3d
       0.07402774 0.07889927 0.07003628 0.07620954
000080 43 e7 9d 3d 66 3d a1 3d e6 a6 a6 3d 14 7e 98 3d
       0.07710125 0.07873039 0.08137302 0.074459225
000090 b7 a9 9e 3d cc 9f 9b 3d 43 fb 9b 3d d1 d8 a6 3d
       0.07747214 0.07598838 0.07616284 0.08146823
0000a0 b4 bc ea 3d 55 e1 02 3e b9 22 c4 bd 07 22 f3 3d
       0.114617735 0.1278127 -0.09576935 0.118717246
0000b0 9c d2 00 be 90 88 f2 bd b7 b8 03 3e b8 00 f6 3d
       -0.12580341 -0.118424535 0.12863432 0.12011856
0000c0 1d 5a f1 bd fb ee f4 bd 00 e0 ec 3d bc 52 f4 bd
       -0.11784766 -0.119596444 0.11566162 -0.11929843
0000d0 1a 31 f4 3d 50 80 f5 bd 2f 5a b6 bd f5 63 f5 bd
       0.11923428 -0.11987364 -0.0890392 -0.11981956
0000e0 f3 2e f4 3d f1 95 f5 bd 5d 1c f3 3d 1e 80 fa 3d
       0.11923017 -0.1199149 0.11870644 0.12231468
0000f0 c5 d4 a2 3d 52 2c a9 3d 03 8e 67 3d 40 5d a6 3d
       0.07950739 0.082604066 0.056531917 0.08123255
000100 77 68 a7 3d 58 10 a2 3d 04 db b8 3d 93 e9 a8 3d
       0.08174222 0.079132736 0.09026149 0.08247676
000110 92 85 9e 3d 60 c0 ac 3d c3 0d 96 3d 37 33 a4 3d
       0.0774032 0.0843513 0.073268436 0.08017581
000120 6b 05 a6 3d b6 45 aa 3d aa 8e ae 3d fb 3a a0 3d
       0.08106502 0.083140776 0.08523305 0.0782375
000130 63 bc a5 3d 44 9b a3 3d 53 17 a4 3d 67 28 b2 3d
       0.080925725 0.07988599 0.08012261 0.086991124

fc.weight f4 [30, 20]
000000 c7 ce 5c 3d 25 5a 62 3d 58 fb 2a bd 86 be 5f 3d
       0.053908136 0.05526175 -0.041743606 0.054625057
000010 c5 e3 61 bd 88 51 5c bd ec cc 6b 3d 5d c2 61 3d
       -0.05514886 -0.05378869 0.057568476 0.055117
000020 db 33 58 bd 9e 50 63 bd d9 67 52 3d 4d f2 5d bd
       -0.05278383 -0.055496804 0.051368568 -0.054186154
000030 57 98 5f 3d c7 d9 61 bd c8 aa 65 bd bd 96 5a bd
       0.054588642 -0.05513933 -0.056071073 -0.05336641
000040 13 1e 5f 3d b4 71 5d bd 78 1c 5e 3d 2d 14 68 3d
       0.05447204 -0.054063514 0.05422637 0.056659866
000050 0a ce 5b 3d 1d 7f 60 3d da b6 33 bd 69 b6 5e 3d
       0.05366329 0.054808725 -0.043875553 0.05437318
000060 cc 9a 5f bd df fc 5a bd b5 9d 6c 3d 01 97 60 3d
       -0.054590985 -0.053463813 0.05776759 0.05483151
000070 a1 d4 58 bd 18 05 62 bd 8e b2 4d 3d 8b e7 5c bd
       -0.052937154 -0.05518064 0.05021911 -0.053931754
000080 35 5f 5e 3d 75 a5 60 bd 9c d0 65 bd dc 9f 59 bd
       0.054290015 -0.054845292 -0.05610715 -0.05313097
000090 a9 2c 5e 3d df 7b 5c bd 2d c0 5c 3d 6f ad 66 3d
       0.05424181 -0.05382907 0.05389421 0.056317743
0000a0 f4 ce 5b 3d f6 89 60 3d 7a 76 33 bd 57 ab 5e 3d
       0.053664163 0.05481907 -0.04381416 0.05436262
0000b0 23 7f 5f bd e2 7c 5a bd 06 7d 6b 3d 36 a7 60 3d
       -0.054564606 -0.053341754 0.05749228 0.054846965
0000c0 9f 65 57 bd 1d 83 62 bd a4 b3 51 3d ed 46 5d bd
       -0.052587148 -0.05530082 0.05119671 -0.05402272
0000d0 e7 8b 5f 3d 5f e2 61 bd 7d c3 64 bd 78 9a 59 bd
       0.05457678 -0.055147525 -0.055850495 -0.05312583
0000e0 5b 5a 5e 3d 21 89 5c bd 66 b3 5c 3d 61 35 69 3d
       0.05428539 -0.053841714 0.053882025 0.05693567
0000f0 4d 49 5a 3d 4b a5 5e 3d f5 ef 2a bd a8 10 5d 3d
       0.05329256 0.054356854 -0.041732747 0.053970963
000100 ed e4 5d bd 0c 0b 59 bd 3a f8 68 3d 10 bb 5e 3d
       -0.0541734 -0.05298905 0.056877352 0.054377615
000110 d1 04 57 bd ca d7 5f bd c4 4b 50 3d 91 3b 5b bd
       -0.052494828 -0.05464915 0.050853506 -0.053523604
000120 5c ad 5c 3d 7b a6 5e bd fb 6d 62 bd 87 d9 57 bd
       0.053876266 -0.054357987 -0.055280667 -0.052697685
000130 c7 5f 5c 3d 67 4d 5a bd 01 01 5b 3d 9d 6b 64 3d
       0.053802278 -0.053296473 0.053467754 0.05576669
000140 cf 87 5b 3d ae 09 60 3d b0 30 34 bd a0 6d 5e 3d
       0.053596314 0.05469673 -0.043991745 0.054303765
000150 e3 25 5f bd 1a a8 5a bd b4 9a 69 3d be 5d 60 3d
       -0.05447949 -0.05338297 0.057032302 0.0547769
000160 87 5a 58 bd 96 4a 61 bd 2e b2 4f 3d c7 78 5c bd
       -0.05282071 -0.05500277 0.050707035 -0.05382612
000170 8c 16 5e 3d 27 08 60 bd 29 67 63 bd aa 7d 59 bd
       0.05422072 -0.054695275 -0.055518303 -0.05309836
000180 f4 2c 5e 3d e8 3d 5c bd 83 63 5c 3d d3 74 65 3d
       0.05424209 -0.053769976 0.05380584 0.056019615
000190 df 06 66 3d 4b 87 6b 3d 15 cd 39 bd 5d b2 69 3d
       0.056158897 0.057502072 -0.045361597 0.057054866
0001a0 ea 3d 6a bd 7a 40 66 bd b9 48 78 3d e2 dc 6d 3d
       -0.057187952 -0.056213833 0.06061623 0.05807198
0001b0 80 98 62 bd 88 d8 6f bd 61 1c 5b 3d 61 46 69 bd
       -0.055321217 -0.05855611 0.05349386 -0.056951884
0001c0 0e c6 68 3d ad b3 6e bd 37 dd 71 bd 04 be 63 bd
       0.056829505 -0.05827682 -0.059048858 -0.055601135
0001d0 fb ad 68 3d 2d 17 68 bd 70 d6 66 3d 3c 37 77 3d
       0.056806546 -0.056662727 0.056356847 0.06035541
0001e0 4b 9e 5a 3d fe 66 5f 3d 29 0a 2e bd c6 d1 5d 3d
       0.053373616 0.05454158 -0.04249016 0.054155134
0001f0 78 79 5e bd c4 1e 5a bd 2e 47 68 3d 7d 7d 5f 3d
       -0.05431506 -0.053251997 0.056708507 0.054563034
000200 39 bb 57 bd 5d 89 60 bd 46 d3 4d 3d 50 b8 5b bd
       -0.052668784 -0.0548185 0.050250314 -0.05364257
000210 8e 7d 5d 3d 83 75 5f bd 53 a2 62 bd 91 58 58 bd
       0.054074816 -0.054555427 -0.055330586 -0.05281884
000220 a1 2f 5d 3d 0c 97 5b bd 37 fc 5b 3d 08 8f 64 3d
       0.0540005 -0.053610846 0.053707328 0.055800468
000230 d0 b1 5a 3d 50 ee 5e 3d cd 3d 30 bd 95 31 5d 3d
       0.05339223 0.05442649 -0.043027688 0.054002363
000240 fe f0 5d bd 53 9a 59 bd 6a 8e 67 3d 74 f5 5e 3d
       -0.054184906 -0.05312569 0.0565323 0.0544333
000250 c7 dd 57 bd 15 f3 5f bd ce c0 4d 3d a0 9e 5b bd
       -0.052701738 -0.05467518 0.0502327 -0.053618073
000260 f8 a5 5c 3d d2 d0 5e bd 36 b4 62 bd a3 57 58 bd
       0.053869218 -0.054398365 -0.055347644 -0.052817952
000270 dd bd 5c 3d 79 5d 5a bd 1e 1c 5b 3d 4e 9d 64 3d
       0.053892005 -0.0533118 0.05349361 0.05581408
000280 ca 69 61 3d c4 60 65 3d 71 f2 35 bd 5a 83 63 3d
       0.05503253 0.056000486 -0.044420663 0.05554519
000290 96 db 64 bd d3 28 60 bd b4 ed 70 3d fb 93 65 3d
       -0.055873476 -0.054726433 0.05882044 0.05604933
0002a0 fa 20 5d bd 7a 9a 67 bd e0 1d 51 3d 55 27 63 bd
       -0.053986527 -0.056543805 0.05105388 -0.05545743
0002b0 cb bd 63 3d 72 e5 65 bd 01 b1 69 bd e8 7e 5e bd
       0.055600923 -0.05612702 -0.05705357 -0.054320246
0002c0 dd 05 63 3d d6 07 61 bd fb 59 62 3d b6 d9 6e 3d
       0.055425514 -0.054939114 0.055261593 0.058313094
0002d0 af 4f 6b 3d cb 2e 72 3d 35 f3 35 bd 3c de 71 3d
       0.05744904 0.059126657 -0.044421393 0.05904983
0002e0 a3 4c 70 bd f2 9f 6e bd 82 2b 83 3d 02 b4 72 3d
       -0.058666836 -0.058258004 0.06404783 0.0592537
0002f0 7b de 67 bd 51 86 78 bd 8f 7e 5f 3d b1 ce 6d bd
       -0.05660866 -0.06067497 0.054564055 -0.058058444
000300 32 60 71 3d 90 e9 73 bd 32 2e 79 bd 62 c2 69 bd
       0.05892963 -0.059548914 -0.06083507 -0.057070144
000310 8a 13 70 3d 02 94 6e bd a6 c2 6c 3d 1a ce 80 3d
       0.058612384 -0.05824662 0.05780282 0.06289311
000320 92 c3 5a 3d 39 8a 5f 3d d0 19 31 bd 72 b3 5d 3d
       0.053409167 0.05457518 -0.043237507 0.05412621
000330 15 b9 5e bd f9 43 5a bd c8 44 6b 3d b8 f1 60 3d
       -0.054375727 -0.05328748 0.05743864 0.05491802
000340 6f 1b 56 bd 85 8d 62 bd 3f fb 4f 3d 15 cf 5b bd
       -0.052272256 -0.055310745 0.050776716 -0.053664286
000350 2d 1e 5e 3d b0 e4 5f bd d9 5f 63 bd ac 9d 58 bd
       0.054227997 -0.054661453 -0.05551133 -0.052884743
000360 b5 1e 5d 3d a7 61 5b bd 11 c4 5b 3d bb db 66 3d
       0.053984363 -0.053559925 0.05365378 0.056361895
000370 d3 5f 58 3d 50 b3 5d 3d b3 0d 2e bd 34 08 5c 3d
       0.05282576 0.054126084 -0.042493533 0.05371876
000380 0c 85 5c bd cc 8c 56 bd 06 cf 69 3d 9c 9e 5e 3d
       -0.05383782 -0.052380368 0.0570822 0.05435048
000390 ff 84 53 bd 21 3d 60 bd e4 87 49 3d 37 bc 59 bd
       -0.051640507 -0.054745797 0.04920186 -0.05315801
0003a0 07 2f 5c 3d 7d a0 5e bd d2 20 63 bd 79 4a 56 bd
       0.053755786 -0.054352272 -0.05545122 -0.052317116
0003b0 f3 c8 5b 3d 37 76 59 bd 09 f1 59 3d 20 b2 64 3d
       0.053658437 -0.053091254 0.053208385 0.055833936
0003c0 34 b9 57 3d aa c2 5c 3d da e3 30 bd 29 b3 5a 3d
       0.052666858 0.053896584 -0.043186046 0.053393517
0003d0 8e 7e 5b bd 9d 15 57 bd 12 09 66 3d 4b 50 5c 3d
       -0.05358749 -0.052510846 0.056160994 0.05378751
0003e0 64 c6 54 bd 18 23 5e bd 4e c8 4d 3d 1b f6 58 bd
       -0.051947013 -0.054232687 0.050239854 -0.05296908
0003f0 1a 64 5a 3d 2e 9f 5c bd 72 fa 60 bd 9b b8 55 bd
       0.05331812 -0.053862743 -0.054926343 -0.052178007

fc.bias f4 [30]
000000 93 38 e1 3d 4e 39 e5 3d dc 63 e3 3d 65 0a f0 3d
       0.10997119 0.111925706 0.11103031 0.117207326
000010 0b 5e e9 3d c2 dc ac 3d 73 9c ee 3d 2e 8f f0 3d
       0.113948904 0.08440544 0.11650934 0.11746059
000020 46 a5 cb 3d 80 71 8b 3d b1 2c e7 3d 58 82 f0 3d
       0.09943633 0.06808758 0.11287821 0.11743611
000030 cc 57 f6 3d c0 57 e4 3d e9 90 cf 3d 6c 5d b1 3d
       0.12028465 0.111495495 0.10135061 0.08660397
000040 ee 71 e7 3d 36 15 f0 3d 93 b3 f8 3d 23 cd e9 3d
       0.11301027 0.11722796 0.12143626 0.1141608
000050 9a cf eb 3d e7 58 d6 3d 51 02 a0 3d 82 2c ab 3d
       0.11514206 0.104661755 0.07812942 0.083580986
000060 7f 25 db 3d a2 85 8c 3d 4f a0 ef 3d a7 2a 6c 3d
       0.10700511 0.06861426 0.11700498 0.057657864
000070 9a a6 fc 3d 5c 65 f0 3d
       0.12336464 0.11738083
