backend/model/lstm-CMCM-180-.pth (torch, 38860 bytes, 12 tensors)

conv1.weight f4 [2, 4, 3]
000000 30 ab 11 35 27 e5 95 b9 c4 88 86 35 8e 33 3b 3c
       5.426582e-07 -0.00028590226 1.0023582e-06 0.011425866
000010 f2 4b 0b 36 b0 8a 8d 3a e4 e1 4c 3a 12 2b bb b8
       2.075682e-06 0.0010798778 0.0007815643 -8.924877e-05
000020 fe d5 09 36 2c 4b 60 35 be d4 86 35 1c e3 07 3b
       2.053915e-06 8.355589e-07 1.0045694e-06 0.0020734733
000030 73 34 33 b5 db 97 17 bc b4 c3 19 3a 89 bf 25 b6
       -6.675902e-07 -0.009252514 0.0005865649 -2.4698404e-06
000040 91 1d 66 ba 44 6c 89 3b e5 17 10 39 ba 09 b8 b5
       -0.00087782094 0.0041938145 0.00013741812 -1.3711899e-06
000050 4c d3 0f 3b 1a 33 0d 3b 58 2f de 3a 99 58 08 39
       0.002194601 0.0021545351 0.0016951365 0.00013002976

conv1.bias f4 [2]
000000 cb a4 bc 35 70 bb d4 b5
       1.4055053e-06 -1.5849782e-06

lstm.weight_ih_l0 f4 [80, 2]
000000 d9 7e dc 32 7f a3 c0 31 48 01 6d 32 d7 0c 91 39
       2.5669054e-08 5.606523e-09 1.3795507e-08 0.00027666122
000010 e8 bb cc 32 16 b6 57 3a a6 ca fd 30 ef f1 23 2f
       2.3834176e-08 0.0008228732 1.8465769e-09 1.4910716e-10
000020 d9 08 9a 32 71 e8 3f 31 57 7b ae 32 19 b0 27 31
       1.7931983e-08 2.7926286e-09 2.0312354e-08 2.4401798e-09
000030 8f 93 17 30 83 32 84 2e e5 86 15 33 71 c6 af 33
       5.5143173e-10 6.011638e-11 3.481445e-08 8.185169e-08
000040 e5 0f d9 32 5e b6 08 31 c8 00 b9 34 78 14 01 32
       2.5269353e-08 1.9894268e-09 3.4459504e-07 7.513442e-09
000050 54 ec 52 3a 16 94 33 2f 74 9d 67 2d bc dc 98 b6
       0.000804608 1.6332566e-10 1.3165791e-11 -4.55565e-06
000060 47 69 8d 3a e2 67 96 b7 de ee f7 2e a8 52 8b b9
       0.0010788821 -1.7929768e-05 1.1274691e-10 -0.0002657373
000070 9d 7c 9c b5 23 82 1b 32 18 1e 78 b8 ea bd f7 30
       -1.1659173e-06 9.051777e-09 -5.9155835e-05 1.8025592e-09
000080 a9 a2 70 3a 28 05 b8 37 07 65 89 ad 12 75 a7 28
       0.00091795117 2.193691e-05 -1.5619962e-11 1.8591496e-14
000090 9f 9d 2b b6 53 d0 86 30 91 6b 94 31 ee 84 7e 30
       -2.5572733e-06 9.808993e-10 4.319596e-09 9.2593566e-10
0000a0 d9 b0 5f 33 76 cd b4 31 1f 0b b4 b7 70 92 cf 30
       5.2082076e-08 5.2620477e-09 -2.146285e-05 1.5102852e-09
0000b0 32 d3 08 33 4c 4e 78 31 18 76 99 39 8c 53 61 2f
       3.185705e-08 3.6133256e-09 0.0002927042 2.0493313e-10
0000c0 48 a9 05 33 46 80 32 31 64 ae 5c 32 30 37 98 30
       3.1120436e-08 2.5975324e-09 1.2845337e-08 1.1075141e-09
0000d0 ab b5 27 30 8a d2 9c 36 93 e9 2a 32 b0 51 03 3a
       6.101241e-10 4.6736723e-06 9.948411e-09 0.0005009426
0000e0 c5 2b 81 32 d6 6a d9 b9 d4 41 fd 32 5c 27 3f b6
       1.503748e-08 -0.00041469064 2.9483012e-08 -2.8484128e-06
0000f0 fb b7 74 38 b8 ef 62 3a 71 ea 77 b7 89 d1 3a 2c
       5.834548e-05 0.00086569367 -1.4776932e-05 2.6548505e-12
000100 78 af 19 31 ff fc ca b6 38 a9 35 2f d3 37 6c 2d
       2.2364173e-09 -6.0495217e-06 1.6521973e-10 1.3427442e-11
000110 f3 3d 14 33 3c 45 64 31 69 68 54 ba e6 f0 bd 36
       3.4515278e-08 3.3217722e-09 -0.00081027165 5.660683e-06
000120 cc b0 e9 b8 94 5b 0f 31 05 15 3b 2a 7a 13 c2 29
       -0.00011143237 2.0861295e-09 1.6616229e-13 8.618709e-14
000130 5f f4 b8 38 2e ad 12 31 75 aa 98 31 dc 8f c7 30
       8.8193214e-05 2.1344237e-09 4.443161e-09 1.4520043e-09
000140 8f 71 38 b7 c2 c1 19 b6 a9 d6 a6 b7 f9 2a 8c 39
       -1.0993695e-05 -2.2911559e-06 -1.9888701e-05 0.00026734898
000150 74 12 2f b7 4b a8 ab b5 39 c2 aa b9 4a 9b 34 b5
       -1.0435109e-05 -1.2789473e-06 -0.00032569634 -6.72812e-07
000160 96 7e 61 b7 b0 e3 db b5 07 dc 00 ba 99 3e 4b 35
       -1.3440518e-05 -1.6383037e-06 -0.0004915599 7.5714485e-07
000170 dc 7d 05 b6 56 84 6b b4 45 82 d1 36 5e 77 1a 35
       -1.9891804e-06 -2.1934224e-07 6.2438507e-06 5.754317e-07
000180 9f 34 7d 37 97 a4 bc b7 7f 49 cd b9 a3 87 03 b6
       1.5092227e-05 -2.248799e-05 -0.00039155406 -1.9599472e-06
000190 e7 f7 52 ba 78 43 f2 34 9c bd 4b 39 a3 58 ce b3
       -0.00080478046 4.5125103e-07 0.00019430224 -9.6087454e-08
0001a0 66 79 db b8 51 a8 c7 b4 8c dc 42 38 6a 48 f0 33
       -0.00010465346 -3.7189105e-07 4.6458605e-05 1.1189043e-07
0001b0 e8 b6 65 ba 24 59 8b b5 c6 84 d2 b6 3b af 64 38
       -0.0008762912 -1.038225e-06 -6.2739446e-06 5.4522632e-05
0001c0 52 9a d9 3a a6 05 e6 b7 c6 1a ac b3 e3 28 41 3a
       0.0016601777 -2.7420767e-05 -8.014244e-08 0.00073684583
0001d0 03 1d 4e 3a f4 45 f9 b5 2f b9 de b6 5d de cd 3a
       0.00078625995 -1.8572305e-06 -6.637674e-06 0.0015706528
0001e0 2e 27 14 ba 3b a0 43 b4 d5 ad 48 33 20 47 cf b7
       -0.000565159 -1.8219082e-07 4.6724228e-08 -2.4709443e-05
0001f0 d9 98 93 38 14 9e 24 ba ac cf ab 33 cf 7f 99 2f
       7.037976e-05 -0.0006279659 8.000583e-08 2.792135e-10
000200 a8 b6 cf 36 c5 11 b4 39 da de 0e b9 51 7e bf 30
       6.1903447e-06 0.00034345515 -0.00013625194 1.393298e-09
000210 2a 6e 9d b8 d0 28 00 2f c0 42 74 b8 a7 0f 25 39
       -7.506863e-05 1.1656032e-10 -5.82363e-05 0.00015741457
000220 a1 af ae 32 18 d0 32 b9 3d 1c f5 32 91 a1 70 31
       2.0336133e-08 -0.00017052924 2.8534595e-08 3.5016436e-09
000230 da 54 45 35 1f 85 c6 2e 03 0a b0 2e 8b b0 02 33
       7.3511694e-07 9.0276446e-11 8.005332e-11 3.042855e-08
000240 73 1f 6e 3a 64 98 93 b5 a4 9c 8a ae f7 2d 5c 2d
       0.0009083666 -1.0996705e-06 -6.3033384e-11 1.2515758e-11
000250 a7 9b d5 32 c8 7f 6b 31 cf b6 08 b7 60 1a ca 30
       2.4867246e-08 3.4269636e-09 -8.148795e-06 1.4704931e-09
000260 1d 42 20 37 76 74 70 2e 0b c6 a2 2d 93 c1 d4 a7
       9.552136e-06 5.467312e-11 1.8505216e-11 -5.9051694e-15
000270 bd 89 04 32 6a 37 e2 30 b7 2a 3f 32 97 b4 31 30
       7.714729e-09 1.6459414e-09 1.11273755e-08 6.464886e-10

lstm.weight_hh_l0 f4 [80, 20]
000000 af 31 9b ba ab 3e e0 b8 9a ee 0e b2 2d bc 2f 36
       -0.0011840368 -0.00010692825 -8.31974e-09 2.6186565e-06
000010 8c e5 3c b2 79 20 dd 31 e2 ef 91 b0 fc b8 6b 31
       -1.0995233e-08 6.4356382e-09 -1.0618317e-09 3.4302152e-09
000020 41 c2 5d 3a 59 76 8c b8 4f 4b 8e 3a bd cd f7 ae
       0.0008459427 -6.697764e-05 0.0010856184 -1.1268806e-10
000030 b3 b8 20 b5 d6 62 22 b7 61 f3 85 b8 5c 3d 3f 39
       -5.987342e-07 -9.6789645e-06 -6.387267e-05 0.00018238038
000040 1e 84 30 33 e1 e6 3d 3a 90 ad f9 b7 a0 17 e2 35
       4.1098353e-08 0.00072441815 -2.9763934e-05 1.6845188e-06
000050 f0 04 dc b1 63 f1 51 b1 f5 b8 31 b1 14 b4 6a 36
       -6.403404e-09 -3.0550715e-09 -2.5862026e-09 3.4973536e-06
000060 e6 ef 97 b1 3e 1d 8f 3a 52 98 38 b9 08 40 8c 31
       -4.4219517e-09 0.0010918749 -0.00017604351 4.0818158e-09
000070 ce 58 17 35 d3 16 88 b9 1b 24 21 35 78 be 90 39
       5.638111e-07 -0.00025956947 6.0029714e-07 0.0002760773
000080 29 0f 36 b1 40 a2 8e b0 3c 2f 0b 37 53 e0 8e b1
       -2.6493103e-09 -1.0377974e-09 8.296043e-06 -4.1582466e-09
000090 d3 4e fc 30 e1 5c f2 b5 a5 d2 41 36 d6 30 0d 38
       1.8357816e-09 -1.8057436e-06 2.8881852e-06 3.36625e-05
0000a0 a9 db ff b1 4f 28 1e 3a e3 ba 90 b8 69 dc d4 b0
       -7.4464492e-09 0.0006033228 -6.9012654e-05 -1.5487674e-09
0000b0 79 03 90 b1 64 24 a0 31 2d b1 7f b9 e1 c8 9f b9
       -4.1913464e-09 4.66075e-09 -0.00024384698 -0.0003047651
0000c0 2e 47 3e 3a 7a 31 05 b2 1f b7 95 ba e0 40 b1 ae
       0.00072585314 -7.752869e-09 -0.0011422372 -8.060552e-11
0000d0 1c 60 7b b6 17 3d dd 2f e0 21 70 ba d0 8b a2 b1
       -3.7457858e-06 4.0243073e-10 -0.0009160321 -4.7307154e-09
0000e0 7f 1c 42 31 f1 10 b3 b6 db 91 6a b1 d4 01 7d b7
       2.8246914e-09 -5.336588e-06 -3.413439e-09 -1.5080401e-05
0000f0 fa 32 c6 af a6 67 bf af 66 00 fe 36 37 06 5b b3
       -3.605221e-10 -3.4816344e-10 7.5698363e-06 -5.0995563e-08
000100 3b 17 00 b0 a6 90 1d 30 7f ea 05 b1 50 aa 09 2f
       -4.659914e-10 5.7321825e-10 -1.9487343e-09 1.2520585e-10
000110 cb 5f d2 38 92 13 f5 af f5 5b a9 b8 52 78 26 ad
       0.00010031423 -4.4579146e-10 -8.075676e-05 -9.462724e-12
000120 c4 92 98 38 bb 43 3f b6 f9 8c 10 b0 17 e1 73 36
       7.275262e-05 -2.8500642e-06 -5.258723e-10 3.6340841e-06
000130 4a ae 7b 2e 4a e2 a9 36 74 68 49 3a b5 a4 f2 ae
       5.7225592e-11 5.062936e-06 0.0007683106 -1.1034144e-10
000140 81 20 c5 b1 b0 dc bd b1 f7 f0 95 39 f1 a1 8e b0
       -5.73715e-09 -5.525713e-09 0.00028599027 -1.0377886e-09
000150 fc 42 03 37 f4 0e 82 3a d1 18 cb b0 90 0d 40 31
       7.8238045e-06 0.0009922669 -1.4777247e-09 2.7947387e-09
000160 45 fd e5 31 be b1 1c b9 26 72 27 b0 c3 7a 15 ae
       6.6935706e-09 -0.00014943533 -6.091646e-10 -3.3987712e-11
000170 96 c2 d1 b0 39 32 b3 2f 4a 45 1c 32 4f 43 5b b2
       -1.5262056e-09 3.2595596e-10 9.09615e-09 -1.2762782e-08
000180 fe be cf 30 cc 1c 76 ad 7a 18 0c b8 cc 7f a5 ba
       1.5115516e-09 -1.3989875e-11 -3.3401397e-05 -0.0012626587
000190 d2 1c 6c b1 d0 be be b1 32 2d 25 b2 4a df 21 b0
       -3.4358902e-09 -5.5514207e-09 -9.61454e-09 -5.888877e-10
0001a0 04 c4 09 b1 6d 46 a2 3a 75 4f 02 b1 f5 70 36 3a
       -2.0047546e-09 0.0012380608 -1.8962656e-09 0.0006959581
0001b0 8e 39 94 b6 c4 0e 83 b3 65 4e 3b b8 a2 97 db ad
       -4.417444e-06 -6.102849e-08 -4.4657285e-05 -2.4964756e-11
0001c0 15 31 29 39 cc c7 a1 2f 89 78 a6 b1 aa 60 9f b1
       0.0001613538 2.9427694e-10 -4.844939e-09 -4.6384985e-09
0001d0 9a 0b 99 30 e7 a5 25 ad 08 6e fe 36 9a d0 6f b6
       1.1135513e-09 -9.416002e-12 7.582599e-06 -3.5735197e-06
0001e0 c8 87 f9 b8 c5 75 e8 39 21 34 bb af 28 57 82 b5
       -0.000118985365 0.00044338233 -3.4052142e-10 -9.711121e-07
0001f0 8f dc 7e af 2d 38 83 b9 50 9c 94 38 19 ee 3a b8
       -2.3179524e-10 -0.0002502812 7.0863054e-05 -4.45676e-05
000200 6e 87 27 2f 55 a1 58 af 23 60 97 38 9f 42 be 33
       1.5236676e-10 -1.9702402e-10 7.218148e-05 8.859683e-08
000210 d9 e1 c4 af 3d 69 41 b9 c7 44 bb 37 0a 0e e8 b5
       -3.5812667e-10 -0.00018445119 2.2324164e-05 -1.7289433e-06
000220 32 5c 81 2e 13 95 ee aa 6d 18 07 b7 64 0c 87 36
       5.882618e-11 -4.2380734e-13 -8.052314e-06 4.024756e-06
000230 c5 0a 1c b1 50 46 81 b8 40 5a fc b9 bc ed 17 b9
       -2.270711e-09 -6.164296e-05 -0.00048132427 -0.00014489045
000240 00 b9 9e 39 d9 60 0c b8 23 b9 0d b0 06 dd 29 3a
       0.00030273944 -3.3468797e-05 -5.1558596e-10 0.00064797734
000250 16 b7 34 39 6c 01 5f 38 ef a8 40 af e8 3b 51 b9
       0.00017234343 5.3168667e-05 -1.7522316e-10 -0.0001995411
000260 2d c3 e5 b9 ac cd cb 2e 82 fa a8 ba b7 1b 55 b4
       -0.000438237 9.267906e-11 -0.001289204 -1.9847253e-07
000270 67 72 2d 30 a6 34 79 b0 44 59 c3 b0 b5 9e c3 b0
       6.309961e-10 -9.066049e-10 -1.4213488e-09 -1.4233225e-09
000280 0e b6 0f b2 c2 af 97 34 d7 2a 85 b1 8e 58 ac b0
       -8.36509e-09 2.8253822e-07 -3.8756798e-09 -1.2539816e-09
000290 08 f2 69 b7 dd c2 f2 b8 59 50 a5 3a c2 44 03 b5
       -1.39442345e-05 -0.00011575755 0.0012612446 -4.890136e-07
0002a0 03 e3 41 b9 10 1c a4 b5 da 6e 57 b0 2d 90 99 ba
       -0.00018490483 -1.222712e-06 -7.8374074e-10 -0.0011715941
0002b0 1b 47 b4 b8 50 3c 84 b6 63 e3 e1 b1 82 3a 46 39
       -8.596313e-05 -3.940928e-06 -6.5742127e-09 0.00018904547
0002c0 7b c7 c4 30 0f ee 96 32 9f 2c dd 38 42 4c 46 36
       1.4317573e-09 1.7570555e-08 0.000105464125 2.9548687e-06
0002d0 43 4f f9 b8 87 bc 65 b3 85 5c 21 b2 94 9b 41 b1
       -0.00011888009 -5.3489682e-08 -9.39247e-09 -2.8173632e-09
0002e0 9d 03 db b1 a2 1a 39 b9 aa 75 95 b0 41 c9 72 31
       -6.3741497e-09 -0.00017652896 -1.0874619e-09 3.5330034e-09
0002f0 a0 df 9b b9 f1 e4 27 b2 79 57 a9 b0 ea 8c bb ae
       -0.00029730517 -9.772735e-09 -1.232123e-09 -8.528807e-11
000300 a1 76 6d b1 de 25 8f 3a fb da 40 b2 e2 ec 46 b2
       -3.4555472e-09 0.001092132 -1.1225661e-08 -1.1578978e-08
000310 8e 2c 81 b5 6a fd b1 ad f3 db d0 b8 6d 66 80 b1
       -9.624216e-07 -2.0235109e-11 -9.9591816e-05 -3.7369348e-09
000320 b8 16 c1 af 9b 77 63 38 5b b3 70 39 39 ad b8 b7
       -3.5122638e-10 5.423241e-05 0.00022954999 -2.2015172e-05
000330 7d 23 37 af 92 20 8f 37 54 cf c0 38 18 fa 3b ba
       -1.6656361e-10 1.7062095e-05 9.193891e-05 -0.0007170751
000340 74 e6 2b 31 80 fe bf af 95 17 c4 ad b9 af 04 ac
       2.5014772e-09 -3.492353e-10 -2.2293093e-11 -1.8855874e-12
000350 39 51 a8 ae 71 4d c9 b8 5c d9 38 af dd 7f a4 af
       -7.6541835e-11 -9.5988515e-05 -1.6811924e-10 -2.9922279e-10
000360 21 4b 9f ba 34 7d 0a af 76 43 a7 b9 e1 5a 77 39
       -0.0012153127 -1.2595508e-10 -0.00031902984 0.0002358961
000370 c4 dc 95 38 cd f4 1b 35 16 da 05 3a dc 43 cf 2d
       7.1459945e-05 5.809823e-07 0.00051060447 2.3563311e-11
000380 4c ce 90 ac e7 57 4b 2c 10 e4 41 b5 01 4d f6 2b
       -4.1156297e-12 2.889683e-12 -7.222998e-07 1.7500724e-12
000390 4b 1e 82 2c a8 1e bb ac 3a 9f 8e b8 7e 0f 4d b9
       3.6981854e-12 -5.318263e-12 -6.800746e-05 -0.00019556095
0003a0 05 47 fe b3 65 59 83 2a 39 ff c2 36 76 f3 2b b1
       -1.1840715e-07 2.3332305e-13 5.8113624e-06 -2.5022167e-09
0003b0 2e 30 0e 2c 72 98 59 29 c7 0a 24 b8 b3 d5 03 ac
       2.0206159e-12 4.8315904e-14 -3.9110684e-05 -1.8734847e-12
0003c0 f8 95 68 b0 44 3b 01 b0 92 96 89 b0 f6 20 ff ae
       -8.4614227e-10 -4.701415e-10 -1.0010857e-09 -1.16019125e-10
0003d0 bf b3 89 b1 e3 f6 17 2f 21 c2 fc ae 06 fa 97 33
       -4.0076595e-09 1.3821082e-10 -1.14941175e-10 7.0769644e-08
0003e0 da 0a 22 30 d6 71 8d b0 e7 f1 8c 39 e2 59 06 ba
       5.895068e-10 -1.0291454e-09 0.00026883112 -0.0005125088
0003f0 68 82 a9 3a a0 ba 63 2e d5 b7 a8 b3 c8 25 0e b0
       0.0012932541 5.177958e-11 -7.8565485e-08 -5.171299e-10

lstm.bias_ih_l0 f4 [80]
000000 14 9f 45 39 25 79 69 39 67 6f 08 37 a9 1f 16 34
       0.00018846645 0.00022265741 8.13217e-06 1.3981357e-07
000010 76 d1 a9 37 ba d5 dc 35 29 f7 5b 34 2d ba 41 b5
       2.0243908e-05 1.645348e-06 2.0485881e-07 -7.2169024e-07
000020 10 4c 53 36 57 23 bf 36 db 49 9d 33 18 4a c1 b0
       3.1485724e-06 5.6963577e-06 7.3243164e-08 -1.4063657e-09
000030 0f 9b 88 34 7b 2a 6b ba 42 d3 6b 36 01 da c3 35
       2.5444794e-07 -0.00089708687 3.5140697e-06 1.459208e-06
000040 e2 d0 3d b8 b9 81 1b b9 24 a4 76 35 98 17 da 35
       -4.525565e-05 -0.00014830277 9.1881e-07 1.6249132e-06
000050 29 7b e9 36 ea 7c 0f 36 c3 5c 90 36 5a 6d 40 34
       6.958279e-06 2.138137e-06 4.3023333e-06 1.7921175e-07
000060 2d ac 4c 36 02 e4 a8 35 30 ef cd 39 01 e4 16 35
       3.0498588e-06 1.2583334e-06 0.00039278856 5.6211144e-07
000070 26 74 f2 35 1e ca ac 36 b6 c1 96 37 e8 1c bb b1
       1.8064209e-06 5.149529e-06 1.7971597e-05 -5.4457026e-09
000080 4a 06 13 35 df 2c 9b 32 0b 27 bf 36 75 78 c3 35
       5.477092e-07 1.806478e-08 5.696789e-06 1.456369e-06
000090 ad 85 43 33 aa 56 3f b9 54 fd 92 35 71 23 67 ba
       4.5523553e-08 -0.00018247464 1.0951576e-06 -0.0008817232
0000a0 ef 1e 3f bb 66 02 fa ba e0 a5 49 bb 45 7c da b9
       -0.0029162725 -0.0019074201 -0.0030769035 -0.00041672788
0000b0 28 29 6c ba 60 24 7c 3a 6b ec 79 b9 b5 03 b7 3a
       -0.00090088183 0.00096184574 -0.00023834563 0.0013962897
0000c0 c9 2d 53 3b 19 2e b5 ba bb ce 80 b9 2a 8b a5 b8
       0.0032223335 -0.0013822942 -0.0002456809 -7.8937344e-05
0000d0 cc 1f 50 ba 43 4a 0a 39 fc a1 88 bb 66 97 50 ba
       -0.00079393084 0.0001318837 -0.0041697007 -0.00079571304
0000e0 5a 2f 02 3b ae e0 06 b7 0a c3 a7 ba 7e 75 8f ba
       0.001986465 -8.039335e-06 -0.0012799215 -0.001094505
0000f0 a2 a5 0b b7 ff 09 36 36 2c 29 9e 36 6e 35 f9 38
       -8.32361e-06 2.7125932e-06 4.71356e-06 0.00011883197
000100 48 20 e3 b7 a2 82 43 3a d6 56 8a 39 a9 e3 a9 b8
       -2.707554e-05 0.00074581255 0.0002638611 -8.100953e-05
000110 57 c8 27 ba 81 ad 05 37 46 7b 2f 38 39 04 c5 b9
       -0.00064003974 7.967815e-06 4.183806e-05 -0.00037577914
000120 de 79 a3 34 2b fc a0 32 09 da 83 36 8e 47 25 3a
       3.0449786e-07 1.8741124e-08 3.929487e-06 0.0006304913
000130 d3 30 48 38 a6 81 2a ba f3 b8 0e ba 68 6e 22 36
       4.7729187e-05 -0.00065043045 -0.00054444297 2.4204146e-06

lstm.bias_hh_l0 f4 [80]
000000 6e d8 81 36 20 2f 9f ba 2c 02 8e 37 62 49 08 34
       3.8696953e-06 -0.0012144782 1.692873e-05 1.2692684e-07
000010 25 86 2f 3a 5a c3 e6 35 b4 b4 37 39 b8 4c a0 b6
       0.00066957093 1.719319e-06 0.00017519557 -4.777303e-06
000020 6e 4e 21 36 bd 98 1e b7 21 7f 64 38 be f5 57 ba
       2.4036522e-06 -9.453096e-06 5.4477834e-05 -0.00082382176
000030 1a 94 25 ba c1 b3 b3 b4 93 f9 51 36 cc 90 c4 35
       -0.00063163193 -3.3472136e-07 3.1288698e-06 1.4645279e-06
000040 b6 c9 b9 31 ed 8d 2c 2f 4b 7c c6 35 da db 5a 35
       5.4071405e-09 1.5693731e-10 1.4788324e-06 8.1531255e-07
000050 b8 0a 40 38 a8 f3 e7 35 79 42 34 36 c8 fb 15 34
       4.578635e-05 1.7281754e-06 2.6860782e-06 1.3968304e-07
000060 9b 65 56 36 08 4b 0b 37 fe ff d0 33 65 dd bb 39
       3.1947627e-06 8.302515e-06 9.7323195e-08 0.0003583237
000070 38 94 0f b6 5d 6d 88 b8 18 eb c0 33 72 05 3d b9
       -2.1394935e-06 -6.505356e-05 8.98346e-08 -0.00018026473
000080 2e c5 4d b6 ce e7 ea 39 aa 24 c5 36 92 cc 1c b8
       -3.0662154e-06 0.00044804666 5.8753258e-06 -3.738382e-05
000090 ea f9 b1 b6 18 16 61 2e 32 ca a7 35 10 05 23 38
       -5.304105e-06 5.11787e-11 1.2501316e-06 3.8866943e-05
0000a0 b0 9e 0f bb ec b5 b9 ba 1e da ba ba ac b6 c5 b9
       -0.0021914653 -0.0014168597 -0.0014255678 -0.0003771087
0000b0 55 a4 46 bb a9 24 e8 3a f3 41 b1 b9 e5 eb 0f 3a
       -0.0030310352 0.0017711121 -0.00033809207 0.0005490168
0000c0 24 42 77 3a 42 38 86 bb 03 b7 ae b9 a5 a0 d1 37
       0.0009432158 -0.004096062 -0.0003332422 2.4989547e-05
0000d0 0c 66 1d ba 49 0a 07 39 9e 2f 9f ba 03 07 55 bb
       -0.0006004281 0.00012878435 -0.0012144928 -0.00325054
0000e0 f6 c3 b3 b9 48 a9 c1 b5 9c e8 88 ba 3d d2 54 ba
       -0.00034287543 -1.4428888e-06 -0.00104453 -0.0008118486
0000f0 a9 e5 9e 36 8c ba 89 36 44 2e 49 36 47 b6 1b 34
       4.735503e-06 4.104635e-06 2.9978264e-06 1.4501812e-07
000100 c1 89 3e 36 40 6c c5 ba 03 48 20 b7 5e 54 51 3a
       2.839239e-06 -0.0015062168 -9.55351e-06 0.0007985289
000110 eb 8d 9d ba af bf ee 36 13 a6 33 34 15 74 0e 30
       -0.0012020444 7.1152676e-06 1.6731092e-07 5.182426e-10
000120 68 ec 90 34 c0 f8 50 3a bc 09 2f 38 6d bc 12 3a
       2.6994098e-07 0.0007971637 4.1732317e-05 0.00055975356
000130 aa 65 70 3a 82 47 f2 b5 91 4b 69 39 57 96 48 35
       0.00091704226 -1.8051217e-06 0.00022248762 7.472458e-07

lstm.weight_ih_l1 f4 [80, 20]
000000 aa d7 52 b9 22 5b ae b8 24 01 f3 b8 b6 6d 07 b8
       -0.00020107502 -8.313941e-05 -0.000115873554 -3.2288684e-05
000010 05 c8 d2 b8 3c 0a af 38 aa e4 21 b7 ac 66 71 b9
       -0.00010050837 8.3465566e-05 -9.649588e-06 -0.000230218
000020 f5 7d 9b 3a f1 df 42 b9 64 df 7d b7 fd 01 24 b5
       0.00118631 -0.00018584706 -1.5131987e-05 -6.1097654e-07
000030 e6 65 46 b8 a6 72 0d 39 cf 0f 40 b9 b9 8a 22 b9
       -4.730178e-05 0.00013489518 -0.00018316436 -0.00015501202
000040 c6 c0 1e 38 a5 90 e5 39 22 8b 9b b8 d7 72 37 b8
       3.784967e-05 0.00043786052 -7.4168915e-05 -4.3737553e-05
000050 c5 37 78 b9 d8 8a ec b8 fa 13 34 b9 6f 15 4c b8
       -0.00023671899 -0.000112792186 -0.0001717358 -4.865735e-05
000060 cc d1 d7 b8 ce ff 22 b8 fe 72 92 b7 53 c1 55 39
       -0.000102910766 -3.8862046e-05 -1.7458104e-05 0.00020385282
000070 17 8d 4d 39 aa ee bb ba 0f e4 a2 b7 5e d4 68 b5
       0.00019602884 -0.0014338095 -1.9418103e-05 -8.673577e-07
000080 9e 38 1d b8 b4 d3 ed 39 66 e0 04 b9 68 ae e2 b8
       -3.7484446e-05 0.00045361894 -0.00012672096 -0.000108090055
000090 7d 59 2f 3a 3f b5 b9 b4 ca ee 9c b8 9d a8 a2 b8
       0.0006689055 -3.459081e-07 -7.4831376e-05 -7.7561686e-05
0000a0 8a 13 76 b9 a4 73 23 b9 7f 06 75 b9 97 2c 55 b8
       -0.00023467667 -0.00015587971 -0.00023367441 -5.0824685e-05
0000b0 81 f0 0a b9 bd 29 13 39 e9 2b ab b7 5c f2 3d 38
       -0.000132503 0.00014034561 -2.0405236e-05 4.5286826e-05
0000c0 3d db 95 3a 57 80 06 b9 bb b4 56 36 df 34 aa b5
       0.0011433136 -0.00012827046 3.1993684e-06 -1.2681375e-06
0000d0 7d 24 24 b8 9c 12 dd 36 6b 6f 2a b9 ba 6b 15 39
       -3.913463e-05 6.5884797e-06 -0.0001625397 0.00014249879
0000e0 19 5a a7 b9 22 06 79 3a 0d ce b9 39 6f 6c 69 b8
       -0.0003191985 0.000949951 0.0003543947 -5.5652516e-05
0000f0 a8 20 00 b9 8d e3 aa b8 c3 b8 06 b9 69 8d 17 3a
       -0.00012219197 -8.148616e-05 -0.00012848065 0.00057812646
000100 d0 7e cc b8 2c b3 85 38 03 69 2a b8 19 0a 86 b9
       -9.751099e-05 6.3753076e-05 -4.062896e-05 -0.00025565995
000110 0d 4c 41 39 fc ee 54 b9 ee 70 a5 b8 b7 6d 6c 33
       0.00018434245 -0.00020306924 -7.888848e-05 5.5047817e-08
000120 8e 88 08 b8 9d ad c9 36 06 55 56 b9 11 fc de b8
       -3.2552103e-05 6.010478e-06 -0.00020440304 -0.00010632736
000130 9f 4b 3b 38 fc 7a ae b4 b7 fc 70 b8 dc 1e 41 b8
       4.4654702e-05 -3.2499509e-07 -5.7455818e-05 -4.6043526e-05
000140 b8 47 37 b9 d0 76 e5 b8 c7 6e 34 b9 b6 8b cd 36
       -0.00017478957 -0.000109417015 -0.00017207405 6.1257406e-06
000150 db 9b b3 b8 d8 70 ed 38 9d ce 09 39 44 c8 2e 38
       -8.5644155e-05 0.000113220594 0.00013142308 4.1671345e-05
000160 97 dd dd 38 f3 c9 f4 b8 07 46 b2 b7 ed 30 8d b5
       0.000105793755 -0.000116724426 -2.1251863e-05 -1.0519558e-06
000170 99 79 76 b8 48 48 37 3a 8a 8e 03 b9 b7 5d 0b b9
       -5.8764217e-05 0.0006991667 -0.00012546233 -0.00013290984
000180 fa 52 46 3a 2f 50 50 37 a8 92 85 b8 35 38 55 b8
       0.0007565465 1.2416435e-05 -6.369251e-05 -5.0835504e-05
000190 83 f8 43 b8 46 59 d8 b8 f2 c4 64 39 57 66 ca b7
       -4.6723067e-05 -0.00010316311 0.00021817142 -2.4127932e-05
0001a0 75 4d 4d b9 78 79 be 38 81 3e 5e b9 54 9e 49 38
       -0.00019579178 9.082531e-05 -0.00021194854 4.806959e-05
0001b0 23 07 58 39 f0 8d b4 ba 4d b1 c0 b7 48 06 b5 b5
       0.00020602024 -0.0013775211 -2.2970746e-05 -1.3487379e-06
0001c0 cd 20 0d b8 0b b3 df 39 b0 7e 11 b9 b2 17 da b8
       -3.3647568e-05 0.00042667272 -0.00013875472 -0.00010399464
0001d0 99 7c 6f 38 da 69 21 b8 03 59 8b b8 8f 7f 76 b9
       5.709808e-05 -3.8483973e-05 -6.644616e-05 -0.00023507907
0001e0 99 c0 b0 b9 a1 f0 e0 b8 9c 74 b2 ba 1a 50 a0 b7
       -0.00033712832 -0.00010725973 -0.0013615075 -1.9110787e-05
0001f0 ce 44 d3 b8 37 fd 8e 38 c0 91 c8 b9 e0 f2 7c 38
       -0.0001007408 6.8182526e-05 -0.00038255565 6.0307677e-05
000200 1b 7d e2 38 a3 14 06 b9 fb 62 8b b7 4a d2 7f b5
       0.000107998225 -0.00012786924 -1.6616183e-05 -9.5300913e-07
000210 74 94 5b b8 88 6c 38 b9 ba 2b 55 b9 bd 61 71 b9
       -5.2351927e-05 -0.00017588038 -0.00020329552 -0.00023019961
000220 fb d1 00 39 87 bd 9f b4 3c 68 6b b8 d8 d4 0b b9
       0.00012285255 -2.9753957e-07 -5.6125442e-05 -0.00013335363
000230 bc 04 27 b9 f1 09 d7 b8 23 9b 4a b9 c1 35 fa 39
       -0.00015928125 -0.000102538506 -0.00019322014 0.00047723766
000240 14 86 d3 b8 82 6a aa 38 b4 76 2f b8 f8 1d 3b 38
       -0.00010086238 8.12607e-05 -4.1833802e-05 4.4612185e-05
000250 4b f5 d7 38 ae d5 71 b9 e9 35 5f 3a eb 2f 93 b5
       0.00010297688 -0.00023063153 0.0008514808 -1.09663e-06
000260 12 2a 49 ba 5b 64 b0 3a 24 d5 2e b9 ba cd 10 b9
       -0.00076738105 0.0013457643 -0.00016673334 -0.0001380955
000270 35 53 2f 38 23 28 3b b9 e8 61 84 b8 dd 87 03 b9
       4.1800744e-05 -0.00017848662 -6.312487e-05 -0.00012543747
000280 aa b4 08 b9 04 b0 cb ba ad e9 53 b9 e1 19 c7 b9
       -0.00013037273 -0.0015540128 -0.00020209579 -0.0003797552
000290 b5 3f c2 b8 3c 2f 88 38 42 53 88 b7 86 5d 59 38
       -9.262507e-05 6.4937834e-05 -1.6251233e-05 5.1823932e-05
0002a0 13 15 d7 38 d6 d3 05 b9 f9 3d 47 b8 c7 d4 92 ba
       0.00010255924 -0.00012762783 -4.7503014e-05 -0.0011202329
0002b0 eb c6 49 b8 6e 5f d9 36 ae 1b 93 ba c8 ca 01 b9
       -4.810739e-05 6.4782134e-06 -0.0011223459 -0.0001237794
0002c0 11 ef a0 ba f5 0b 49 3a 0a 6e 2e ba ad ac 86 ba
       -0.0012278279 0.0007669323 -0.00066539703 -0.001027485
0002d0 c5 50 40 b9 ab f0 56 b9 9d 87 27 b9 7e f6 18 b8
       -0.00018340636 -0.00020498286 -0.00015976881 -3.6469188e-05
0002e0 ae 32 c8 b8 44 9c e7 38 34 e3 42 39 84 00 8c 38
       -9.546183e-05 0.00011044045 0.00018585921 6.675816e-05
0002f0 07 22 c9 38 76 78 13 b9 c8 6a 89 b7 61 4f 93 b5
       9.590765e-05 -0.00014063888 -1.6381397e-05 -1.0975456e-06
000300 b8 b1 6a b8 e7 e1 26 37 fe 17 58 b9 c1 be c4 b8
       -5.595546e-05 9.946968e-06 -0.00020608303 -9.381539e-05
000310 d8 bf 49 38 87 79 b6 b4 cf b9 74 b8 bf 44 5b b8
       4.8100803e-05 -3.3988564e-07 -5.834718e-05 -5.2277694e-05
000320 a7 b8 36 b9 80 aa d8 b8 0b 9d 0e b9 80 9b b1 b7
       -0.00017425661 -0.00010331441 -0.00013600678 -2.1172455e-05
000330 58 da e2 b8 b8 45 16 39 5c 55 24 ba 18 e9 ac 38
       -0.000108171895 0.00014331087 -0.0006268823 8.245016e-05
000340 98 12 e8 38 35 37 13 b9 56 22 28 b8 42 60 0c b9
       0.000110660854 -0.00014039579 -4.00863e-05 -0.00013387299
000350 b3 3e 21 b9 01 ff 6d 39 e1 2a 04 b9 6b 4c ad 38
       -0.00015377514 0.00022697078 -0.00012604475 8.263517e-05
000360 a2 f5 55 38 f2 ba 0a ba 12 5c 9b b8 ed 6d 87 b8
       5.101192e-05 -0.0005292139 -7.4081254e-05 -6.457777e-05
000370 99 5b 12 b9 79 eb 0e 38 25 6c e0 b8 9d b8 14 ba
       -0.00013957768 3.407474e-05 -0.00010701296 -0.00056732615
000380 fb fe d3 b8 a8 c7 9b 38 e5 bf df b7 ac c5 3c 38
       -0.00010108758 7.428165e-05 -2.667303e-05 4.500679e-05
000390 16 fe e9 39 c1 ad 32 b9 a7 ed be b7 1d 64 8e 3a
       0.00044630532 -0.00017040131 -2.276043e-05 0.0010863576
0003a0 c4 7f 10 b8 23 ad cc 36 ac 86 04 b9 6b 55 ec b8
       -3.4451266e-05 6.0998295e-06 -0.0001263867 -0.00011269267
0003b0 f2 d8 22 38 6e c9 9e b4 99 74 85 b8 cb 50 41 b8
       3.8825856e-05 -2.9576353e-07 -6.363652e-05 -4.609003e-05
0003c0 aa 35 01 b9 a3 2c 9d b8 14 a9 04 b9 d8 62 0a b8
       -0.0001232239 -7.4946576e-05 -0.00012651487 -3.299382e-05
0003d0 11 10 17 b9 c2 be 04 39 94 82 57 b7 79 2c 83 38
       -0.00014406467 0.00012659564 -1.2845401e-05 6.2548505e-05
0003e0 e9 56 ec 38 d7 c7 06 b9 34 3c 9c b7 f4 8a 99 b5
       0.00011269545 -0.00012853682 -1.8624683e-05 -1.1439829e-06
0003f0 2a b7 28 b8 02 cc 1f 37 2a de 33 b9 d9 82 05 b9
       -4.0224906e-05 9.524638e-06 -0.00017153533 -0.00012732613

lstm.weight_hh_l1 f4 [80, 20]
000000 35 75 db 3c 23 de e7 3c c3 8c dc 3c 99 16 e5 3c
       0.026789287 0.028304165 0.02692259 0.027964877
000010 56 5c e4 3c da d9 e5 3c 47 50 e9 bc 2d 05 df bc
       0.02787606 0.028057981 -0.028480662 -0.027224148
000020 14 3f e4 3c c9 17 e5 3c c6 17 e2 bc 99 99 dd bc
       0.02786211 0.027965443 -0.027599227 -0.02705078
000030 18 03 d9 3c 8f cf e3 3c 70 1c d6 3c 77 40 da bc
       0.026490733 0.027808933 0.026136607 -0.026642067
000040 ca d8 e6 3c 1f e1 e4 bc 5c 1a de 3c d3 31 e5 bc
       0.028179545 -0.027939377 0.027112179 -0.02797786
000050 7c 0d dc 3c 71 15 ef 3c 33 5c eb 3c 42 a7 f1 3c
       0.026861899 0.029185029 0.028730487 0.0294987
000060 3c 82 e1 3c 3c 10 f7 3c f9 5b f8 bc 69 cb e6 bc
       0.02752792 0.030159108 -0.030317293 -0.028173165
000070 be f1 f1 3c a9 04 f0 3c ad ce ec bc f7 b0 f1 bc
       0.029534217 0.029299097 -0.028907144 -0.029503329
000080 0d d3 e0 3c ec c4 f0 3c 0b e1 fa 3c fa ac e1 bc
       0.027444387 0.029390775 0.030624887 -0.027548302
000090 44 06 f0 3c ed 75 f5 bc 3d 47 ef 3c cf eb ee bc
       0.029299863 -0.029963458 0.029208774 -0.029165177
0000a0 c2 2e ca 3c 13 d0 f2 3c 15 5c db 3c e7 19 fa 3c
       0.024680499 0.029640233 0.026777307 0.03052993
0000b0 c7 0e ea 3c ae c2 ed 3c f8 04 f1 bc 7e fc e5 bc
       0.0285715 0.029023495 -0.029421315 -0.0280745
0000c0 99 e3 ea 3c a0 70 ec 3c 46 7a e9 bc 57 4f ec bc
       0.02867298 0.028862298 -0.028500687 -0.028846426
0000d0 ac 1d d2 3c 51 b6 ea 3c 7f 2f ef 3c f8 06 e2 bc
       0.025648914 0.028651388 0.029197453 -0.027591214
0000e0 2f ca ed 3c 8f 5b f0 bc 70 07 ec 3c a3 8f eb bc
       0.029027073 -0.029340534 0.02881214 -0.028755015
0000f0 2b 00 de 3c c1 41 ff 3c 70 8f ea 3c ac ee ef 3c
       0.02709969 0.031159284 0.02863285 0.029288612
000100 c7 f7 ed 3c c5 7d f5 3c df d0 f3 bc 3a 94 e8 bc
       0.029048814 0.029967198 -0.029762683 -0.028390992
000110 be 1d ec 3c 9d cd f2 3c 46 a9 ed bc b7 19 f0 bc
       0.028822776 0.02963906 -0.02901138 -0.029309137
000120 3f 23 e0 3c 7f 2d f1 3c 73 34 f2 3c 1e f2 d1 bc
       0.027360557 0.02944064 0.029566025 -0.025628146
000130 22 0d ed 3c ab 34 f1 bc 71 f6 e8 3c 2f 6a f3 bc
       0.028936926 -0.02944406 0.028437825 -0.029713718
000140 e0 77 ce 3c 65 de f3 3c 1a a6 e8 3c a1 5f f4 3c
       0.025203645 0.029769132 0.028399516 0.029830756
000150 b5 0d eb 3c 99 bc f8 3c f6 38 f7 bc 60 f7 eb bc
       0.02869306 0.030363368 -0.030178528 -0.028804481
000160 32 f7 ea 3c 13 e6 ec 3c 44 ed ea bc 7a ad ee bc
       0.028682325 0.028918302 -0.02867759 -0.029135454
000170 ce 5a d6 3c e9 6d ef 3c 76 27 f1 3c bf 68 e4 bc
       0.026166346 0.029227214 0.029437762 -0.027881978
000180 da 9b ee 3c a8 6f ec bc e0 00 e3 3c bd 25 ec bc
       0.02912705 -0.028861836 0.027710378 -0.028826589
000190 ae f3 dd 3c 15 ca f6 3c 6d b0 ea 3c 6b 31 f3 3c
       0.027093735 0.030125657 0.02864858 0.02968665
0001a0 8d 79 f0 3c ea 74 f0 3c d1 33 f2 bc 57 2f e8 bc
       0.029354835 0.029352624 -0.029565724 -0.028342886
0001b0 20 1b eb 3c 58 3e ef 3c 99 5d ed bc a4 80 ee bc
       0.028699458 0.029204533 -0.028975295 -0.029114075
0001c0 35 fb df 3c 5b 3e f2 3c 9a 09 f3 3c d5 ba e5 bc
       0.027341465 0.029570749 0.029667664 -0.02804319
0001d0 8f 43 f0 3c 07 c3 f5 bc 57 c9 ee 3c ef ae ee bc
       0.02932909 -0.030000223 0.02914874 -0.02913615
0001e0 c4 12 be 3c 7a 4d f4 3c 9e 0b eb 3c 2a 4c f4 3c
       0.023202308 0.0298221 0.028692063 0.029821474
0001f0 6e 31 ef 3c be 4b f2 3c 8f aa fb bc b9 a6 e7 bc
       0.029198375 0.029577132 -0.030720977 -0.028277742
000200 17 5d ef 3c b0 ea ec 3c 91 1d eb bc 5e 8a ee bc
       0.029219193 0.028920501 -0.028700622 -0.029118713
000210 98 35 e0 3c 54 0e f2 3c 78 fb f0 3c 02 31 e5 bc
       0.027369305 0.029547848 0.029416785 -0.02797747
000220 3d 9a f1 3c 47 38 f4 bc 5f 7b ef 3c 4a 95 ee bc
       0.029492492 -0.029811991 0.029233633 -0.029123921
000230 3d e9 da 3c fd f9 ee 3c 84 fa e7 3c 54 88 f0 3c
       0.026722545 0.029171938 0.028317697 0.029361881
000240 54 c8 ea 3c e7 ea ed 3c 33 bb f3 bc 6c 46 e5 bc
       0.028659977 0.029042674 -0.02975235 -0.027987681
000250 89 30 e8 3c 39 a9 e9 3c b8 b4 e8 bc f5 a0 e2 bc
       0.028343456 0.028523074 -0.028406486 -0.02766464
000260 09 36 db 3c 41 d7 ec 3c 13 41 f1 3c 09 dd de bc
       0.026759164 0.028911235 0.029449975 -0.027205007
000270 52 f0 ec 3c 4d 9c ec bc ce 39 eb 3c 1f dc ea bc
       0.028923187 -0.028883124 0.028714087 -0.028669415
000280 d5 ce dc 3c b1 5f ef 3c d0 ac d9 3c 94 29 f0 3c
       0.026954094 0.029220434 0.026571661 0.029316701
000290 28 08 ec 3c 27 4b f2 3c 72 9c f4 bc 06 90 e2 bc
       0.028812483 0.029576851 -0.029859755 -0.027656566
0002a0 19 43 ea 3c 4b 6b f9 3c e5 c9 ea bc 29 85 ed bc
       0.028596448 0.03044667 -0.028660724 -0.02899416
0002b0 f5 ce c1 3c 26 5e f1 3c e1 da f1 3c 2d 2f e4 bc
       0.023658255 0.029463839 0.029523315 -0.027854526
0002c0 6a e6 ee 3c 34 d5 ee bc d9 be f1 3c 81 16 ec bc
       0.029162604 -0.029154398 0.029509949 -0.028819324
0002d0 05 0a db 3c b4 72 f5 3c b9 08 ea 3c 20 bf f0 3c
       0.026738176 0.029961921 0.028568612 0.02938801
0002e0 fb ce f1 3c 01 5f f0 3c 48 6e f1 bc 3c 17 e6 bc
       0.029517641 0.029342176 -0.029471532 -0.02808725
0002f0 ad c2 e9 3c 70 26 ed 3c 4e b5 e6 bc d4 4b ed bc
       0.028535211 0.028948992 -0.028162625 -0.028966822
000300 df 55 de 3c 89 1f ec 3c 5d ba f4 3c bb 48 e4 bc
       0.027140556 0.02882363 0.029874021 -0.027866712
000310 a6 76 ee 3c 0d c5 f1 bc 5f c9 ed 3c f6 db de bc
       0.02910931 -0.029512906 0.029026685 -0.027204495
000320 74 2b dc 3c f4 74 f5 3c ad 4c ec 3c de 07 ef 3c
       0.026876189 0.029962994 0.028845156 0.029178556
000330 ee df ec 3c 67 16 ee 3c a3 e5 f0 bc 9d e9 e5 bc
       0.028915372 0.029063417 -0.029406374 -0.028065497
000340 30 bb ea 3c ba b2 ed 3c 36 12 ea bc 47 7a ec bc
       0.028653711 0.029015888 -0.028573137 -0.0288669
000350 72 d6 db 3c fe 38 ec 3c 88 a7 ef 3c fb 92 e1 bc
       0.026835654 0.02883577 0.02925469 -0.027535906
000360 94 33 ee 3c 8e 9f f5 bc 45 f0 ee 3c 32 57 ec bc
       0.029077329 -0.029983308 0.029167304 -0.028850172
000370 e8 96 dc 3c 3d 29 f0 3c a6 74 e8 3c c4 f2 ff 3c
       0.026927426 0.029316539 0.028375935 0.03124369
000380 43 1c ee 3c 28 b7 f0 3c 54 65 f7 bc c2 15 e6 bc
       0.02906621 0.02938421 -0.030199684 -0.028086547
000390 c8 c1 eb 3c f0 4a f0 3c ec 30 eb bc 83 bf ec bc
       0.028778926 0.029332608 -0.028709851 -0.028899914
0003a0 6d 4e dd 3c a4 09 ee 3c fa 8c ee 3c 33 d9 e1 bc
       0.027014935 0.029057331 0.029119957 -0.027569389
0003b0 24 a0 ec 3c 13 5d f1 bc 5f d1 f1 3c 03 73 ed bc
       0.028884955 -0.029463327 0.029518781 -0.028985506
0003c0 ae 4a b1 3c 4c fa e8 3c 7d 01 db 3c 64 97 ea 3c
       0.021642055 0.028439663 0.026734108 0.028636642
0003d0 b2 97 e7 3c 5c 5f e5 3c 82 56 eb bc 2c 4d e0 bc
       0.028270576 0.027999572 -0.028727774 -0.027380548
0003e0 e7 7b e3 3c 90 a1 df 3c 0f 04 e5 bc 6e c6 d4 bc
       0.027769042 0.027298719 -0.027956037 -0.025973525
0003f0 41 ae da 3c df a0 d1 3c cf 03 eb 3c d2 5d d6 bc
       0.026694419 0.025589405 0.02868834 -0.026167784

lstm.bias_ih_l1 f4 [80]
000000 c7 51 2d 3d 02 7b 3a 3d f5 5c 38 3d 30 54 3b 3d
       0.042314317 0.045527466 0.045010526 0.045734584
000010 1f f9 3a 3d 48 c0 3c 3d 72 ae 3a 3d a5 02 38 3d
       0.045647737 0.04608181 0.04557652 0.044924397
000020 34 25 39 3d dc f5 38 3d bc d8 37 3d b6 b2 38 3d
       0.045201495 0.045156345 0.04488443 0.045092307
000030 c1 d2 34 3d f1 e6 3a 3d cf 18 3a 3d c2 28 38 3d
       0.044146303 0.0456304 0.045433816 0.044960745
000040 70 d1 3b 3d 54 11 3b 3d c2 25 36 3d 8a 3a 3d 3d
       0.045854032 0.045670822 0.044469602 0.046198405
000050 a4 c3 93 3d 0e aa a8 3d e3 e2 a3 3d 61 52 af 3d
       0.0721505 0.0823556 0.080022596 0.085606344
000060 e8 fe a6 3d 77 2a a7 3d 9f ac b1 3d 47 c9 a1 3d
       0.08154088 0.081623964 0.08675503 0.07899719
000070 a9 a1 a5 3d 4e b0 a4 3d b7 79 a4 3d d2 7c a9 3d
       0.08087475 0.0804144 0.08031028 0.08275761
000080 31 3b 9c 3d 1c 01 a8 3d 4e b7 a9 3d 48 fb a0 3d
       0.07628477 0.082033366 0.08286916 0.07860428
000090 44 91 a7 3d fe 4e a6 3d 27 e6 a6 3d 09 e8 a5 3d
       0.08182004 0.08120535 0.08149367 0.08100898
0000a0 de 27 b5 3d 2c f6 b2 3d bc 25 b2 3d 0e 7c b8 3d
       0.08845495 0.0873836 0.086986035 0.090080366
0000b0 67 6f b1 3d 6c 70 b2 3d f1 d5 c5 bd 93 e7 b1 bd
       0.086638264 0.08712849 -0.09659947 -0.086867474
0000c0 76 df b0 3d 40 24 b1 3d a4 93 b0 bd 36 43 b1 bd
       0.08636372 0.08649492 -0.0862191 -0.086553976
0000d0 1b 89 ad 3d c9 97 b1 3d ad 64 d9 3d 95 e0 b2 bd
       0.084734164 0.08671529 0.106149055 -0.08734242
0000e0 4e 0d b6 3d c2 8f b8 bd 2d 6f af 3d 89 41 af bd
       0.088892564 -0.090117946 0.08566127 -0.08557422
0000f0 28 06 ad 3d de 2c c7 3d 02 6f be 3d a2 86 c9 3d
       0.0844844 0.097253546 0.09298517 0.09840132
000100 bd 37 c3 3d 5b 73 c9 3d 43 ef c6 3d 8c 52 bc 3d
       0.095321156 0.098364554 0.09713604 0.09195432
000110 78 de c1 3d d9 78 bc 3d 36 26 bf 3d 21 46 c0 3d
       0.09466261 0.09202737 0.0933346 0.09388376
000120 b2 15 b3 3d 0a 89 c3 3d 0b 27 cc 3d ab 9b b7 3d
       0.087443724 0.095476225 0.09968384 0.08965238
000130 bf a4 c2 3d 6c ab c6 3d 4f 5d c0 3d bd 1d c2 3d
       0.09504079 0.09700665 0.09392797 0.094783284

lstm.bias_hh_l1 f4 [80]
000000 68 5a 32 3d 3f 05 3b 3d 7e c4 39 3d 06 46 3b 3d
       0.04354325 0.0456593 0.045353405 0.045721076
000010 cd ea 3b 3d c7 f9 3a 3d 79 74 3c 3d e6 f5 37 3d
       0.04587822 0.045648362 0.046009514 0.04491224
000020 b8 22 3b 3d bb 83 3b 3d b8 7b 38 3d 78 38 3a 3d
       0.045687407 0.045779925 0.045039862 0.04546401
000030 71 13 34 3d c6 8d 39 3d b6 78 3b 3d 11 30 38 3d
       0.043963853 0.04530122 0.045769416 0.044967715
000040 83 64 3a 3d b1 dc 3c 3d a3 ae 39 3d 09 84 38 3d
       0.04550601 0.046108905 0.045332562 0.045047794
000050 11 ce 99 3d 60 32 a9 3d 34 cd a2 3d f5 b8 ab 3d
       0.07510007 0.082615614 0.07949296 0.08384887
000060 c9 95 a7 3d 38 42 a7 3d 2a 48 a9 3d 54 81 9c 3d
       0.08182866 0.08166927 0.08265717 0.07641855
000070 be aa a5 3d 8f 6f a9 3d 8d d0 a4 3d ec 6c a9 3d
       0.08089207 0.08273231 0.080475904 0.08272728
000080 d6 9f 9b 3d 3c 84 a7 3d ac 75 aa 3d 13 6e 99 3d
       0.07598846 0.081795186 0.083232254 0.07491698
000090 67 0c ab 3d fc 92 aa 3d 89 92 a7 3d 16 8e a6 3d
       0.08351975 0.08328816 0.08182246 0.081325695
0000a0 51 1a 9d 3d fc a3 b3 3d 4d 9e af 3d af 41 b7 3d
       0.07671035 0.08771512 0.08575115 0.08948075
0000b0 69 46 b4 3d 6b a0 b1 3d d9 ad c9 bd 75 32 aa bd
       0.08802492 0.086731754 -0.09847612 -0.08310405
0000c0 10 7e af 3d e6 80 b5 3d 9f 1c b4 bd fc ea a9 bd
       0.085689664 0.08862476 -0.087945215 -0.08296773
0000d0 6b 2c ad 3d fb 92 b1 3d 16 00 91 3d 57 71 9a bd
       0.08455738 0.086706124 0.070800945 -0.07541149
0000e0 5f be b8 3d f9 2a b0 bd 44 18 b9 3d 6a 76 af bd
       0.090206854 -0.086019464 0.090378314 -0.085675076
0000f0 a0 bf a5 3d f8 21 c9 3d 5b 5c bc 3d f9 17 d2 3d
       0.0809319 0.09820932 0.09197303 0.10258479
000100 c6 2f c5 3d fa cd c8 3d b7 71 cb 3d 5b 70 b7 3d
       0.09628253 0.09804912 0.09933799 0.08956977
000110 8e 25 bf 3d 1a d2 be 3d 97 c1 bf 3d 1c 52 c3 3d
       0.09333335 0.093174174 0.09363096 0.095371455
000120 fa d0 a8 3d f7 be c3 3d c8 ba c9 3d 94 22 b3 3d
       0.08242984 0.09557908 0.09850079 0.0874683
000130 d2 b4 c6 3d 28 38 c7 3d 9c b5 bf 3d be ca bf 3d
       0.097024575 0.09727508 0.09360811 0.09364842

fc.weight f4 [180, 20]
000000 66 4d c9 3c 8d 3d ed 3c 29 96 de 3c b6 b3 e6 3c
       0.02457304 0.028960014 0.027171211 0.028161865
000010 2d 75 da 3c dc 70 f0 3c 39 b8 e7 bc d1 c7 dc bc
       0.026667202 0.02935069 -0.028286086 -0.026950749
000020 cf d7 da 3c 42 d2 d0 3c 26 42 e1 bc d6 ba e2 bc
       0.026714234 0.025490884 -0.027497362 -0.027676981
000030 76 e7 ce 3c 3e a3 e3 3c 93 b8 e6 3c 4f 21 db bc
       0.025256854 0.0277878 0.028164184 -0.026749281
000040 94 33 e5 3c 10 31 e6 bc 11 18 e9 3c d3 02 e4 bc
       0.027978696 -0.028099567 0.028453859 -0.027833378
000050 cd 92 d1 3c 20 d7 e6 3c 8d 2c dd 3c 3a 44 e7 3c
       0.025582695 0.028178751 0.026998783 0.028230775
000060 2a bc e0 3c 21 25 e6 3c 26 d2 ea bc c7 4c de bc
       0.027433474 0.028093876 -0.02866466 -0.02713622
000070 cf 1b e2 3c ac 9b e3 3c fb eb e1 bc 2e 62 e6 bc
       0.02760115 0.027784191 -0.027578345 -0.028122988
000080 62 88 b1 3c d2 35 e0 3c 16 6f e6 3c 6f 7f db bc
       0.021671478 0.027369414 0.028129142 -0.026794164
000090 ca 53 e7 3c 42 ec e9 bc b8 c8 e0 3c 8a df e4 bc
       0.028238196 -0.02855504 0.02743946 -0.027938623
0000a0 53 a3 bb 3c 2d 37 e8 3c f4 a3 e4 3c fd 97 ea 3c
       0.022905027 0.028346622 0.02791021 0.028636927
0000b0 74 33 e6 3c 0d e4 e7 3c e2 86 e9 bc d4 62 cd bc
       0.028100707 0.028306985 -0.0285067 -0.025071539
0000c0 f7 c3 e3 3c 76 69 e7 3c 28 36 e1 bc 6a 4a e7 bc
       0.027803404 0.02824853 -0.027491644 -0.028233726
0000d0 77 be d6 3c e2 82 e5 3c c7 11 ec 3c 67 c5 d6 bc
       0.026213868 0.028016511 0.02881707 -0.026217176
0000e0 a8 1e e8 3c bd da e7 bc 8e 39 e5 3c 21 c7 e4 bc
       0.02833493 -0.028302545 0.027981546 -0.027926983
0000f0 56 0a cf 3c bf 7f e3 3c 61 c2 de 3c f7 b5 e2 3c
       0.025273483 0.027770875 0.027192296 0.027674658
000100 45 67 e2 3c a6 7e e4 3c c7 7e ea bc 2f 79 da bc
       0.027637133 0.027892422 -0.028624905 -0.026669113
000110 12 25 e0 3c 6f aa e2 3c 38 f2 df bc 4f 44 e2 bc
       0.027361427 0.02766916 -0.027337179 -0.027620463
000120 91 01 d4 3c fd f0 e1 3c 79 d0 e7 3c e7 9d d8 bc
       0.025879653 0.027580732 0.02829765 -0.026442481
000130 46 7a e3 3c dc 3e e4 bc 1f b9 e1 3c 07 81 e1 bc
       0.027768265 -0.027862005 0.027554093 -0.027527345
000140 a6 0c b9 3c a5 b2 e5 3c 17 7d df 3c d0 a8 ec 3c
       0.022589039 0.028039286 0.027281327 0.02888909
000150 e9 4d e2 3c 76 d8 e5 3c 0d a4 e6 bc a4 b6 d6 bc
       0.027625041 0.028057318 -0.028154397 -0.026210137
000160 ea 07 e0 3c 08 f7 e3 3c 31 06 e1 bc 95 4d e4 bc
       0.027347524 0.027827755 -0.027468773 -0.027869025
000170 0e 45 d1 3c 0f 1f e3 3c 51 9f e7 3c fe de d3 bc
       0.025545623 0.02772477 0.02827421 -0.025863167
000180 95 de e3 3c d4 52 e8 bc 70 c4 e1 3c 42 14 de bc
       0.027816096 -0.028359808 0.027559489 -0.027109269
000190 2b e0 ce 3c 84 20 e6 3c 96 69 e0 3c c8 61 e3 3c
       0.025253376 0.028091677 0.027394097 0.027756587
0001a0 de b8 e3 3c 6d d5 e1 3c 33 9d e6 bc 5b 04 db bc
       0.027798112 0.02756759 -0.02815113 -0.026735475
0001b0 63 c5 e1 3c 49 41 e5 3c 12 0f e1 bc 8f 74 e3 bc
       0.027559942 0.027985232 -0.027473006 -0.02776554
0001c0 02 8b d4 3c 78 cd e3 3c 28 f0 e6 3c 3d 3b d7 bc
       0.02594519 0.027807936 0.028190687 -0.026273364
0001d0 d9 95 e7 3c 3d 1f e8 bc 22 07 e3 3c e3 24 e3 bc
       0.028269695 -0.028335208 0.027713362 -0.02772755
0001e0 eb 1f ca 3c 83 5d e5 3c 8d 16 e1 3c cd 7a e7 3c
       0.024673423 0.027998691 0.027476573 0.028256798
0001f0 be f1 e3 3c 5a 60 e6 3c db 44 e7 bc 15 a1 dd bc
       0.027825233 0.028122116 -0.028231075 -0.027054349
000200 61 d2 e1 3c 00 19 e7 3c a5 a5 e0 bc fe 81 e1 bc
       0.027566137 0.028210163 -0.027422735 -0.027527805
000210 6b 86 d1 3c e4 eb de 3c 8d 99 eb 3c a8 03 db bc
       0.02557679 0.02721209 0.028759742 -0.026735142
000220 f3 42 e0 3c 02 56 e2 bc 18 9b e3 3c ab 7a e4 bc
       0.027375674 -0.027628902 0.027783915 -0.027890524
000230 a9 cf d2 3c 88 a3 e8 3c 16 fa d7 3c 55 ac e8 3c
       0.025733786 0.02839829 0.026364367 0.028402487
000240 22 65 e3 3c d4 7a e5 3c 93 2a e9 bc 64 ba db bc
       0.027758185 0.02801267 -0.028462684 -0.026822276
000250 55 a8 e1 3c 63 9f e8 3c ad bd e0 bc de 24 e5 bc
       0.027546087 0.028396314 -0.027434194 -0.027971681
000260 65 5f d4 3c a2 12 e3 3c d1 45 e6 3c 20 7a d7 bc
       0.025924394 0.027718846 0.028109463 -0.02630335
000270 93 72 e2 3c 24 7c e5 bc 22 58 e4 3c f8 87 e2 bc
       0.027642524 -0.028013296 0.027874056 -0.027652726
000280 6e 97 c4 3c 76 78 e5 3c bd 6c e0 3c 8f 9f e7 3c
       0.023997989 0.028011542 0.0273956 0.028274326
000290 d7 4d e6 3c 4a c2 e6 3c 86 31 e6 bc 22 be d8 bc
       0.028113289 0.028168816 -0.028099786 -0.02645785
0002a0 4d 56 e1 3c 66 58 e1 3c 08 bb e0 bc 20 9d e3 bc
       0.027506972 0.027507972 -0.027432933 -0.027784884
0002b0 c0 94 cc 3c 6a 22 e3 3c be 56 e6 3c d5 49 db bc
       0.024973273 0.02772637 0.028117534 -0.026768604
0002c0 60 37 e5 3c 17 49 e2 bc 46 68 e3 3c 9e 8e e0 bc
       0.027980506 -0.027622743 0.027759682 -0.027411755
0002d0 a3 77 d5 3c a5 f4 e8 3c c1 39 e3 3c c3 03 ea 3c
       0.026058024 0.028436968 0.0277375 0.028566247
0002e0 e5 58 ec 3c ce 15 eb 3c 07 89 f2 bc 4b ff df bc
       0.028850982 0.02869692 -0.029606355 -0.027343413
0002f0 eb 2d d5 3c 01 c4 ea 3c 52 35 e4 bc e2 db e8 bc
       0.026022872 0.028657915 -0.027857456 -0.02842516
000300 b3 df bd 3c 29 c4 e6 3c 39 4a f0 3c 5b 6b e0 bc
       0.023177957 0.028169708 0.029332267 -0.027394941
000310 ce 08 e9 3c d5 a1 ec bc 32 d2 e7 3c b7 b1 e6 bc
       0.028446581 -0.028885761 0.028298471 -0.028160913
000320 b1 4e cb 3c a4 d1 e7 3c c7 33 de 3c fa d1 e6 3c
       0.024817796 0.028298207 0.027124299 0.028176297
000330 d2 1f e2 3c e6 e3 e9 3c cd aa e5 bc 86 22 d7 bc
       0.027603064 0.028551053 -0.028035546 -0.02626158
000340 2d bf df 3c fc 9a e2 3c 7b 1f d4 bc 2c 11 e2 bc
       0.02731284 0.027661793 -0.025893917 -0.027596079
000350 09 18 d4 3c 55 7d e1 3c a4 2e e5 3c ec 38 d9 bc
       0.025890367 0.027525583 0.027976342 -0.0265164
000360 d1 0b e3 3c c9 e5 e5 bc 03 75 e1 3c dc eb e0 bc
       0.027715595 -0.028063672 0.027521616 -0.027456217
000370 b8 08 b7 3c 14 8f e7 3c 2c 36 d9 3c 09 7f eb 3c
       0.022343025 0.028266467 0.026515089 0.028747099
000380 4b 92 e4 3c c3 93 e4 3c d1 97 e6 bc 96 eb dc bc
       0.02790179 0.02790249 -0.028148564 -0.026967805
000390 aa 6f e1 3c 97 c5 e2 3c a1 a2 ce bc 63 ae df bc
       0.027519066 0.027682109 -0.025224032 -0.027304834
0003a0 03 76 d0 3c a9 20 e3 3c da 2f e3 3c 2a d9 d9 bc
       0.025446897 0.027725535 0.027732778 -0.02659281
0003b0 42 12 e5 3c b9 b6 e5 bc ca fa e2 3c 0e 7c e3 bc
       0.027962808 -0.02804123 0.027707476 -0.027769115
0003c0 fb bb cc 3c 63 3a e5 3c c3 75 e0 3c a2 45 e8 3c
       0.02499198 0.027981943 0.027399903 0.028353516
0003d0 26 2a e7 3c 6a f9 e5 3c a1 73 e4 bc 59 65 db bc
       0.02821834 0.028073031 -0.027887167 -0.026781725
0003e0 18 b3 e1 3c c1 3b e3 3c 55 03 e1 bc bf 7c e4 bc
       0.027551219 0.027738454 -0.02746741 -0.027891515
0003f0 a2 1b cb 3c 3e 72 e3 3c 66 f3 e4 3c 64 fc d7 bc
       0.02479345 0.027764436 0.027948093 -0.026365466

fc.bias f4 [180]
000000 ec ba 3c 3d 57 4e 33 3d 5d 6d 33 3d 19 e6 3c 3d
       0.0460767 0.043775883 0.04380547 0.046117876
000010 f1 4c 3d 3d 71 a0 31 3d b0 22 32 3d 98 b7 31 3d
       0.046215955 0.0433659 0.04349011 0.04338798
000020 b3 16 37 3d e2 10 21 3d 95 72 40 3d a2 be 42 3d
       0.044699382 0.03932274 0.046984274 0.047545083
000030 57 86 31 3d 38 fa 3a 3d 27 ea 31 3d 4d 9e 34 3d
       0.043341007 0.045648783 0.043436196 0.04409628
000040 22 f0 32 3d ee 11 24 3d 3b ce 31 3d 6b 6f 3e 3d
       0.04368604 0.04005616 0.043409567 0.046492975
000050 82 08 18 3d 89 04 31 3d 46 88 39 3d fc 55 2e 3d
       0.03711749 0.043217216 0.045295976 0.04256247
000060 5c 6e 3c 3d 85 35 3c 3d 70 d9 af 3c c3 84 33 3d
       0.046003684 0.045949478 0.021465987 0.043827783
000070 f7 6b 35 3d cc 1f 34 3d 8b e1 30 3d 00 d3 31 3d
       0.044292416 0.043975636 0.043183845 0.043414116
000080 01 ea 38 3d 8c 63 21 3d a0 42 30 3d 91 b7 20 3d
       0.04514504 0.039401576 0.04303229 0.039237563
000090 9e 71 40 3d 58 36 31 3d 53 25 dd 3c db b1 44 3d
       0.046983354 0.043264717 0.026995337 0.04802118
0000a0 c6 f7 30 3d 8b b8 40 3d 4b 21 34 3d e9 18 31 3d
       0.043205045 0.047050994 0.043977063 0.043236647
0000b0 5f 2d 31 3d b2 e6 34 3d bc 96 31 3d 1e 27 4a 3d
       0.04325616 0.04416532 0.043356642 0.04935371
0000c0 18 8c cb 3c ad 69 30 3d b2 b1 31 3d 5f b0 37 3d
       0.024847075 0.04306953 0.043382354 0.044845935
0000d0 e3 e6 30 3d 14 cc 32 3d 6b 7c 36 3d ef 4b 46 3d
       0.04318894 0.043651655 0.044552248 0.04841226
0000e0 f7 5e 32 3d 38 e9 31 3d 99 a6 2e 3d 1f 90 31 3d
       0.043547597 0.043435305 0.04263935 0.043350335
0000f0 31 48 2a 3d c3 f1 28 3d 11 5a 49 3d 6c cb 3e 3d
       0.041572753 0.041246187 0.04915816 0.046580717
000100 f4 ea 31 3d fa a7 2e 3d f0 94 40 3d 2f d7 2e 3d
       0.04343696 0.042640664 0.047017038 0.042685684
000110 b4 16 2e 3d 0f 25 35 3d f9 5e 31 3d a7 ee 40 3d
       0.04250212 0.044224795 0.043303464 0.047102597
000120 67 37 3c 3d 28 a5 31 3d 2e 7a 0c 3d 99 92 31 3d
       0.045951273 0.043370396 0.034296207 0.043352697
000130 58 f7 30 3d b7 59 32 3d bb 3d 43 3d 7d 87 32 3d
       0.043204635 0.04354259 0.047666293 0.043586243
000140 84 87 1e 3d c4 32 05 3d be b4 34 3d f1 64 31 3d
       0.038703457 0.032519117 0.04411768 0.043309156
000150 9f 1a 33 3d 76 32 30 3d c2 88 48 3d 65 3c ca 3c
       0.04372656 0.043016873 0.048958547 0.024687001
000160 5a e7 2f 3d 33 f9 3c 3d 59 14 31 3d c5 ce 2d 3d
       0.042945243 0.046136092 0.043232296 0.04243352
000170 ec de 9c 3c ad e3 12 3d 58 96 1b 3d f3 ae 31 3d
       0.019149266 0.03586166 0.037985176 0.043379735
000180 42 15 44 3d 5f 7c 30 3d c5 bd 30 3d a0 04 3a 3d
       0.047871836 0.04308736 0.04314973 0.045414567
000190 a2 7f 30 3d de d8 17 3d 1e 8b cb 3c a8 84 31 3d
       0.04309047 0.037072055 0.02484661 0.0433394
0001a0 5c e4 2e 3d 74 d5 28 3d 63 37 31 3d 9b 23 2f 3d
       0.04269825 0.04121919 0.04326571 0.042758565
0001b0 89 03 3a 3d a0 81 15 3d c9 74 35 3d 27 76 36 3d
       0.045413528 0.036500573 0.044300828 0.044546273
0001c0 db 82 33 3d 5f d1 39 3d 8c d0 37 3d 24 6b 2f 3d
       0.043825965 0.045365687 0.04487662 0.042826787
0001d0 ba 92 3b 3d 09 80 32 3d 21 f1 3c 3d 31 89 32 3d
       0.045794226 0.043579135 0.046128396 0.043587867
0001e0 e6 6f 30 3d 1d 16 30 3d e1 ea c6 3c 8e 62 30 3d
       0.043075465 0.04298984 0.02428192 0.04306274
0001f0 37 62 3f 3d fb 13 33 3d 71 b5 30 3d d8 1d 30 3d
       0.046724524 0.043720227 0.043141786 0.04299721
000200 88 e2 05 3d a2 f3 2f 3d ca 67 3c 3d b7 bd 39 3d
       0.03268674 0.042956956 0.04599742 0.04534694
000210 f6 b8 31 3d 19 63 35 3d 3b 50 32 3d 82 1e 33 3d
       0.043389283 0.04428396 0.043533545 0.043730266
000220 8f 31 40 3d 5d 04 30 3d 7a 97 ff 3c 4e fd 2f 3d
       0.046922263 0.04297291 0.03120016 0.04296618
000230 63 81 30 3d be b8 3b 3d 4a f1 30 3d 37 71 30 3d
       0.043092143 0.04583048 0.04319886 0.04307672
000240 94 07 30 3d 72 dc 31 3d ab 10 31 3d a9 54 31 3d
       0.042975977 0.043423124 0.043228786 0.04329363
000250 c0 be 32 3d fc 2e 3b 3d 4f 7d 3b 3d 81 59 3c 3d
       0.043638945 0.045699105 0.0457738 0.045983795
000260 da a3 2f 3d dc 74 32 3d dc 49 31 3d 36 d5 37 3d
       0.04288087 0.043568477 0.04328333 0.04488107
000270 82 26 33 3d f4 5b e9 3c 60 73 21 3d da 4e 30 3d
       0.043737896 0.02848623 0.03941667 0.04304395
000280 c9 6c 06 3d ca 6b 30 3d 6a 42 43 3d 6f 5e 31 3d
       0.03281859 0.043071546 0.04767076 0.04330295
000290 82 06 31 3d 2f 03 41 3d 07 12 30 3d ed 99 43 3d
       0.043219097 0.047122177 0.042985942 0.047754217
0002a0 9f fd 38 3d 64 c9 32 3d ad 90 2f 3d f3 13 42 3d
       0.045163747 0.043649092 0.042862583 0.047382306
0002b0 13 f8 3d 3d a3 fd 9b 3c 52 7f 24 3d 65 f2 31 3d
       0.04637916 0.019041842 0.040160485 0.043444056
0002c0 be 1e 2f 3d 9d 94 2f 3d f6 0b 31 3d 30 70 31 3d
       0.042753927 0.042866338 0.043224297 0.04331988
