backend/model/lstm-AREN-360-.pth (torch, 53964 bytes, 12 tensors)

conv1.weight f4 [2, 4, 3]
1.2993884e-17 7.643065e-07 0.00024805914 -9.009539e-18 1.8549916e-18 -1.6234993e-17 4.0173454e-06 -6.0022758e-05
-1.7501157e-17 1.5278161e-08 -2.1892284e-18 -5.3395587e-11 -7.278009e-05 -5.2738764e-05 3.521801e-20 7.499297e-05
-1.4485063e-14 -0.00024370845 -1.5824055e-07 -3.097011e-05 -4.4608532e-05 -6.9592104e-05 4.791544e-07 2.0526986e-08
00000000: e2b1 6f23 be2a 4d35 ef0d 8239 5832 26a3
00000010: cddf 0822 cbbd 95a3 bccc 8636 f2c0 7bb8
00000020: 706b a1a3 083d 8332 5b89 21a2 16d6 6aae
00000030: 83a1 98b8 d133 5db8 f64f 261f 8b45 9d38
00000040: 4878 82a8 fd8b 7fb9 d5e8 29b4 e7e5 01b8
00000050: 0c1a 3bb8 faf1 91b8 3d9f 0035 5253 b032

conv1.bias f4 [2]
-4.0037916e-18 -4.6923174e-06
00000000: beb6 93a2 b372 9db6

lstm.weight_ih_l0 f4 [80, 2]
5.280816e-20 6.2493404e-18 -1.5579995e-15 2.7829206e-20 -1.2652008e-07 -1.6230175e-18 1.6121208e-17 -1.8440834e-17
-1.8064161e-06 1.0902787e-16 -4.162667e-21 1.8624776e-20 -1.7193797e-15 3.287531e-18 7.783182e-18 4.8732425e-20
-2.104564e-20 -4.347957e-20 -3.2621263e-18 -2.7918867e-10 2.5008496e-22 1.5845714e-13 1.0209027e-06 1.5921538e-12
-3.5174285e-20 5.7719207e-09 6.3486946e-17 -1.9342714e-07 1.1428263e-05 -3.0699208e-14 3.7016365e-20 -3.498124e-20
-2.641486e-07 -8.943778e-20 8.134792e-18 -1.1079938e-05 -3.162141e-22 -1.5355742e-20 -7.4249176e-09 3.5022866e-12
-1.2517976e-14 9.409673e-20 4.8821393e-14 -1.9486863e-17 -1.3559702e-19 4.2827875e-10 2.2438752e-20 -1.0072072e-08
-1.0821599e-15 -2.6685953e-19 1.1011077e-06 7.1568804e-20 1.6816651e-21 1.4850666e-19 -5.6832824e-12 1.5506474e-18
1.0712082e-20 6.131318e-20 6.105771e-07 8.251923e-21 2.3734354e-12 1.3386515e-13 -1.0438543e-10 -2.8647148e-07
-1.744986e-19 -2.3162302e-18 -3.3537585e-08 1.8732761e-19 8.781181e-22 5.9713557e-06 3.1218265e-20 2.776635e-21
-2.9874502e-21 5.279522e-16 3.5333853e-10 -6.6465445e-06 1.7627445e-14 2.84394e-07 6.6607507e-15 -1.6043523e-19
-2.4733983e-15 -5.967592e-15 3.9389048e-09 -3.8996504e-07 -1.4121597e-14 -3.5643838e-14 -5.13546e-14 -2.8532588e-11
2.2838685e-07 2.902394e-14 1.3879802e-06 -3.949977e-12 -1.0014861e-17 5.6586246e-12 -3.1691774e-15 1.9471925e-06
4.107655e-16 1.7209905e-14 1.965042e-15 2.5494976e-15 -3.173973e-14 -6.6854007e-14 2.380028e-15 6.4693984e-15
1.847564e-14 9.021781e-14 2.725506e-16 -7.0839233e-15 -1.7901555e-11 8.827841e-15 8.5599544e-14 1.8867694e-14
4.6710052e-14 4.6478012e-06 -4.874098e-12 1.30745965e-08 3.505189e-15 4.529139e-06 -6.327938e-15 -3.3770934e-07
-2.8119512e-21 -5.358958e-21 -3.4756194e-17 1.2082789e-17 -1.9309914e-19 -7.0567476e-19 2.4590312e-19 -2.1408479e-18
6.373746e-20 -1.3392042e-10 -4.0849392e-19 -1.5612466e-07 1.0670238e-20 -9.380154e-10 8.940808e-17 1.4043381e-20
-1.5211141e-07 5.815312e-21 -1.0496435e-20 -1.5539127e-18 1.0793853e-20 9.4389334e-20 3.44949e-09 2.282523e-07
-7.268568e-20 1.4651142e-18 1.9333283e-08 3.222103e-19 1.9797608e-16 -2.4067975e-21 -2.9154825e-07 2.7674794e-20
7.367144e-17 -5.0185675e-20 9.22156e-21 4.7596725e-13 8.081212e-18 -1.1083923e-19 -2.4944804e-20 -5.518121e-19
00000000: 2661 791f 5a8f e622 0988 e0a6 726b 031f
00000010: 93d9 07b4 de83 efa1 20b1 9423 3016 aaa3
00000020: fc73 f2b5 b266 fb24 d842 9d9d f2e7 af1e
00000030: eac9 f7a6 b493 7222 0a93 0f23 e321 661f
00000040: 3cc5 c69e 9353 4d9f d3b3 70a2 507c 99af
00000050: c62a 971b 2968 322a f305 8935 6313 e02b
00000060: 1a1b 269f 5a52 c631 1464 9224 d9b0 4fb4
00000070: 04bc 3f37 c741 0aa9 0ace 2e1f b931 259f
00000080: 4fd0 8db4 d22d d39f 780f 1623 f9e3 39b7
00000090: c323 bf9b e807 919e 441e ffb1 9673 762c
000000a0: fa80 61a8 fc2d de1f 3cdf 5b29 0ebc b3a3
000000b0: af15 20a0 e072 eb2f 93ed d31e 7109 2db2
000000c0: a7f4 9ba6 ac86 9da0 c6c9 9335 b0fc a81f
000000d0: 4420 fe1c 6253 2f20 75f6 c7ac cdd5 e421
000000e0: 7358 4a1e 8bc5 901f 8ae6 2335 dadf 1b1e
000000f0: 0304 272c 01b8 162a c68b e5ae 57cc 99b4
00000100: f702 4ea0 5ae8 2aa2 f70a 10b3 4c28 5d20
00000110: 8cb2 841c 8e5d c836 916c 131f efcb 511d
00000120: b1b9 619d ff2b 1826 fa3f c22f 6205 dfb6
00000130: 1fc6 9e28 d0ae 9834 95fa ef27 9368 3da0
00000140: 253a 32a7 5201 d7a7 f956 8731 635c d1b4
00000150: 5f64 7ea8 8c86 20a9 d347 67a9 adf9 faad
00000160: 803a 7534 53b6 0229 a34a ba35 3bfa 8aac
00000170: d8bd 38a3 5c18 c72c 015d 64a7 83ac 0236
00000180: 4aca ec25 5703 9b28 a098 0d27 eeb5 3727
00000190: 6bf1 0ea9 b68a 96a9 c47f 2b27 ab15 e927
000001a0: ed69 a628 0727 cb29 5f1d 9d25 a939 ffa7
000001b0: b876 9dad 3b07 1f28 c7c0 c029 f1f1 a928
000001c0: 065d 5229 4ff4 9b36 f97d abac af9e 6032
000001d0: 5393 7c27 02f9 9736 edfc e3a7 6b4e b5b4
000001e0: 0c77 549d a974 ca9d df48 20a4 5ce3 5e23
000001f0: a2f8 63a0 4747 50a1 d427 9120 79f7 1da2
00000200: ee7e 961f 3f3f 13af db21 f1a0 38a3 27b4
00000210: 1b8e 491e 7ceb 80b0 3729 ce24 d0a2 841e
00000220: 1154 23b4 3fb2 db1d a545 469e 2951 e5a1
00000230: dfe3 4b1e dade de1f 120c 6d31 8415 7534
00000240: cc9f ab9f 7336 d821 5712 a632 0b33 be20
00000250: 3a40 6425 3cda 359d 1686 9cb4 c6b0 021f
00000260: f1df a924 c2fe 6c9f ba30 2e1e 0ef9 052b
00000270: 7212 1523 1adb 02a0 d698 eb9e bedd 22a1

lstm.weight_hh_l0 f4 [80, 20]
1.776638e-20 -5.483343e-21 7.978057e-11 6.3322697e-19 -4.755852e-08 -2.6876435e-06 -3.3548233e-16 4.023682e-07
4.5103414e-07 3.606769e-09 -3.5214643e-19 -2.2791596e-07 -4.301119e-07 -1.9549975e-06 -8.569876e-06 9.95409e-15
-9.3516326e-07 -4.435537e-17 -1.0586557e-13 1.4709887e-05 -1.8356551e-06 -1.1515081e-21 2.901074e-16 -2.459561e-16
2.9972757e-08 -2.6002529e-15 6.6604265e-08 -8.8509535e-07 -6.69552e-07 -3.5063563e-20 2.900948e-13 -4.652835e-11
2.988847e-16 4.3578637e-21 2.674371e-07 4.072837e-21 -1.4062352e-05 -1.2429666e-09 1.8750486e-09 -4.875033e-12
6.212745e-17 8.132342e-19 1.2621104e-19 -3.924032e-12 -3.316642e-21 -5.770327e-07 2.900989e-14 -1.0429543e-06
-7.31674e-17 4.054603e-15 -3.1339408e-15 -4.878044e-07 5.4988472e-17 -2.1907793e-09 3.300643e-07 4.9633898e-14
-1.0533927e-14 2.407762e-20 4.5860884e-20 -2.7848495e-16 -1.6671804e-13 5.672291e-12 7.6766776e-19 1.5180024e-06
-1.6258577e-21 -4.9631367e-20 -1.7572228e-19 -6.1090484e-17 -1.1824686e-19 -1.07281365e-14 8.235205e-21 1.4582562e-19
-6.794824e-17 -3.7542037e-19 -1.6713639e-19 4.589259e-06 -1.0146081e-05 8.53075e-21 -1.2287963e-19 -5.8961022e-21
-5.6684644e-12 2.2848097e-16 1.0137138e-19 1.3357638e-21 -3.257119e-21 1.7289573e-21 1.9045718e-16 1.6684813e-19
7.138824e-20 2.53038e-21 1.4268789e-12 -6.198216e-06 5.537334e-08 -5.247782e-12 1.4256001e-07 1.6367692e-17
2.3484279e-15 -4.0118994e-19 1.4279614e-05 1.463733e-05 -7.4566293e-22 -4.16325e-21 1.0040496e-15 4.5232237e-19
-1.5310594e-07 -1.1048794e-10 -9.197864e-08 1.36120025e-05 7.956964e-21 2.3309776e-19 4.6354235e-06 -2.5300167e-18
-5.646125e-21 6.4322813e-07 5.036251e-19 1.0010404e-08 1.12433e-20 2.9513908e-18 1.4465776e-21 6.3412167e-06
-2.2877046e-17 -5.3154686e-12 -9.666541e-19 1.9599694e-08 8.636828e-21 -5.2521815e-12 1.30621535e-14 5.5109767e-12
1.1916089e-17 -1.2453111e-12 -7.1559686e-20 7.5547146e-17 5.314746e-09 1.7834121e-09 -2.2872927e-17 5.2711127e-21
7.876798e-20 -3.1006499e-16 -5.79838e-14 -5.5476802e-21 3.4883566e-08 1.7502151e-13 6.7879205e-07 -1.4881969e-12
4.516714e-21 -3.2434364e-21 -1.1408314e-09 -9.852669e-07 5.2503613e-21 -5.032322e-18 8.460452e-06 -1.233518e-06
6.706219e-17 -4.4416297e-06 -1.6657023e-21 -7.223646e-18 3.653757e-08 -2.5482563e-19 9.348022e-08 -3.9576798e-07
8.2497155e-15 -9.091341e-21 1.2096251e-14 -9.0275814e-15 6.29449e-20 1.3784473e-18 7.4520506e-07 -2.5599138e-19
-7.781266e-06 3.8807885e-22 2.7354054e-06 1.3314864e-05 -1.2157691e-19 -6.9880446e-07 -1.4605059e-21 6.4248043e-21
7.857234e-15 7.965075e-07 -1.3318317e-11 -3.312499e-20 2.0298235e-07 1.5347836e-06 1.1503554e-10 -3.493295e-07
3.095381e-20 1.8436111e-16 -5.52613e-23 -1.2475068e-07 -8.086554e-06 1.9125843e-17 -1.4898678e-20 1.1460244e-18
-5.7944273e-20 3.119399e-22 3.1193666e-21 6.336672e-22 -1.6406219e-13 2.1068098e-17 6.460073e-07 1.8265006e-18
5.2432138e-06 -1.0151175e-20 -3.849688e-19 4.3857403e-21 -6.2020476e-08 -1.3897786e-18 1.7420928e-13 5.0377194e-21
-4.6648412e-14 -4.6848694e-17 -5.966927e-08 -2.5969296e-10 1.222212e-16 5.214805e-22 2.4761536e-22 -3.408237e-21
-2.8766223e-07 1.5162253e-15 -1.3929747e-13 1.0455215e-07 5.6430355e-07 7.215802e-10 1.1419548e-05 -3.083618e-16
-7.9453906e-07 -3.581702e-19 -6.985164e-21 2.3789412e-10 8.3262113e-19 -1.230193e-06 5.4294156e-12 2.2616459e-20
1.4730538e-15 -8.819738e-21 -1.4709214e-21 -1.0986355e-20 4.9679553e-12 8.720219e-21 -4.223332e-17 -5.097228e-21
-1.1416183e-07 -4.9858754e-06 3.17588e-16 -1.0794374e-05 2.6475738e-19 -1.3556361e-20 3.9385177e-06 -3.1729264e-16
-4.088471e-20 4.5132396e-19 -5.0619775e-09 -1.0406221e-06 -1.7381645e-07 3.13013e-20 1.0930476e-17 1.3621455e-13
00000000: 79cc a71e a427 cf9d 7870 af2e 47e5 3a21
00000010: 2543 4cb3 5d5d 34b6 7464 c1a5 1005 d834
00000020: a925 f234 f4da 7731 ddde cfa0 10b9 74b4
00000030: 21ea e6b4 9a32 03b6 56c7 0fb7 2351 3328
00000040: ee07 7bb5 948d 4ca4 5963 eea9 7cca 7637
00000050: a160 f6b5 d002 ae9c 4c3c a725 b7c8 8da5
00000060: 65bb 0033 335e 3ba7 1508 8f33 4a97 6db5
00000070: 43bb 33b5 3f95 259f 114f a32a 44a2 4cae
00000080: 994b ac25 aca2 a41d 4694 8f34 10de 991d
00000090: 58ed 6bb7 00d5 aab0 34da 0031 6586 abac
000000a0: 9341 8f24 3d06 7021 f200 1520 8a10 8aac
000000b0: 3099 7a9d 63e5 1ab5 20a6 0229 a3fb 8bb5
000000c0: 69b6 a8a4 1d15 9227 01d3 61a7 aaf1 02b5
000000d0: ee96 7d24 998c 16b1 b133 b134 fd87 5f29
000000e0: 2ac3 3da8 1d68 e31e 6892 581f 2089 a0a5
000000f0: 34b5 3baa 7593 c72c 5693 6221 2abe cb35
00000100: 53b1 f59c a460 6a9f cd74 4fa0 75dd 8ca4
00000110: ec99 0ba0 cc42 41a8 028f 1b1e 1729 2c20
00000120: 90ad 9ca4 ec9b dda0 e051 45a0 6ffd 9936
00000130: 1639 2ab7 2d24 211e 1712 11a0 9abf de9d
00000140: fd70 c7ac d7b5 8325 3d5b ef1f dcda c91c
00000150: d819 769d e6a2 021d 0a95 5b25 c1fa 4420
00000160: 8b8f a81f ab30 3f1d bbd0 c82b 45fa cfb6
00000170: a2d3 6d33 d1a3 b8ac 9912 1934 1ff7 9623
00000180: d938 2927 1cd2 eca0 7a92 6f37 db92 7537
00000190: e05c 619c 7c48 9d9d e4b2 9026 8380 0521
000001a0: 7165 24b4 2ef7 f2ae cb85 c5b3 1b5f 6437
000001b0: 844d 161e bd98 8920 fc89 9b36 aaae 3aa2
000001c0: f84d d59d 4daa 2c35 d6a4 1421 39fa 2b32
000001d0: 4361 541e 32c6 5922 c399 da1c a3c6 d436
000001e0: e600 d3a3 7c05 bbac 29a7 8ea1 2f5c a832
000001f0: 2325 231e 72cb b8ac 8d4e 6b28 77e6 c12c
00000200: 24d0 5b23 1043 afab 2df7 a89f 2a33 ae24
00000210: 009d b631 3c1c f530 2cf7 d2a3 1323 c71d
00000220: 53fc b91f 84bd b2a5 6391 82a9 df95 d19d
00000230: e3d2 1533 840e 452a 3c36 3635 f271 d1ab
00000240: faa2 aa1d 2f11 759d 70cb 9cb0 833d 84b5
00000250: 615a c61d f0a8 b9a2 5df1 0d37 5b8f a5b5
00000260: 88a2 9a24 4f09 95b6 bdb6 fb9c b440 05a3
00000270: 7ced 1c33 296c 96a0 4bbf c833 f079 d4b4
00000280: 199d 1428 07bb 2b9e 1de8 5928 5fa0 22a8
00000290: db9f 941f 446c cb21 1a0a 4835 531c 97a0
000002a0: 488c 02b7 4b94 ea1b e891 3736 e862 5f37
000002b0: 5e88 0fa0 7a95 3bb5 96b4 dc9c e5b8 f21d
000002c0: 198b 0d28 94cf 5535 5e4c 6aad a86d 1c9f
000002d0: 5df3 5934 c3fe cd35 40f7 fc2e 7b8b bbb4
000002e0: dc2c 121f cc8d 5425 179d 859a 35f3 05b4
000002f0: 7cab 07b7 9f67 b023 cbb6 8c9e 941f a921
00000300: 2ad1 889f 5d8e bc1b 53b1 6b1d a083 3f1c
00000310: b5b7 38aa a451 c223 4969 2d35 9fc5 0622
00000320: ddee af36 12c0 3f9e d73e e3a0 47b0 a51d
00000330: 1e30 85b3 5a18 cda1 6824 442a d551 be1d
00000340: f515 52a9 2d0d 58a4 8723 80b3 89c4 8eaf
00000350: 55e9 0c25 999b 1d1c 9fac 951b 72c2 809d
00000360: ff6f 9ab4 d782 da26 c3d5 1caa 2786 e033
00000370: a57a 1735 b158 4630 9696 3f37 2bc2 b1a5
00000380: 4f48 55b5 266d d3a0 2ef2 039e 9fc8 822f
00000390: 13bf 7521 1c1d a5b5 d407 bf2c 3e9b d51e
000003a0: 184a d426 a399 269e 8447 de9c c186 4f9e
000003b0: 5dcb ae2c 64b8 241e 4ec4 42a4 5d91 c09d
000003c0: 2129 f5b3 584c a7b6 b713 b725 7c19 35b7
000003d0: 0149 9c20 4509 809e 9c27 8436 21e8 b6a5
000003e0: 9512 419f 1335 0521 a0ed adb1 81ab 8bb5
000003f0: 4da2 3ab4 f3d0 131f b7a1 4923 2c5d 192a

lstm.bias_ih_l0 f4 [80]
1.1147942e-20 2.7871321e-18 7.54699e-15 -2.9669392e-15 -7.8969755e-09 1.0742425e-05 2.674283e-07 -2.871093e-15
-5.2556673e-14 -6.8289082e-18 -5.949e-06 1.2586686e-06 1.0832249e-15 2.4798652e-16 -9.953175e-18 3.298849e-08
-5.6644507e-07 -1.8405923e-19 2.556099e-12 7.811088e-06 -7.080505e-09 -5.519176e-12 6.233806e-15 -2.9255267e-15
3.351841e-18 9.92886e-18 -5.97518e-15 -4.5216355e-16 6.8952664e-17 2.4330796e-17 -2.9347542e-13 -1.4349193e-16
1.5493323e-07 1.2648375e-10 -3.139917e-20 2.3271345e-17 -2.8894644e-19 4.0470226e-07 7.804377e-06 1.1536304e-15
5.5891996e-11 -1.2172028e-09 4.5623025e-10 -2.651595e-06 -5.1639404e-08 6.2950045e-07 9.110194e-12 1.2907785e-10
-1.3945977e-05 -4.541178e-11 8.8013835e-10 -1.7943533e-10 -5.273315e-06 1.2409635e-05 -6.687035e-11 -6.945653e-07
-7.4280637e-10 4.1625644e-11 1.2034008e-09 1.0023004e-05 -5.5144535e-12 3.1005916e-18 5.0817115e-15 -2.5123812e-15
6.5372125e-18 6.8976116e-14 1.15649586e-17 5.710084e-17 8.70768e-17 -2.4990046e-08 1.3922239e-13 1.8337078e-08
1.7687941e-15 3.9504261e-16 -2.5409807e-21 1.2025399e-14 1.2093391e-18 2.2552192e-20 3.4587972e-18 7.103883e-16
00000000: 2494 521e 70a7 4d22 59f4 0728 5eca 55a7
00000010: 44ab 07b2 5d3a 3437 1193 8f34 51e2 4ea7
00000020: b8b1 6ca9 37f1 fba2 859d c7b6 86ef a835
00000030: f21b 9c26 5af4 8e25 8a9a 37a3 3aaf 0d33
00000040: cf0d 18b5 7d4c 59a0 96de 332c 5e0c 0337
00000050: c848 f3b1 5130 c2ac b698 e027 71ce 52a7
00000060: 7d52 7722 b727 3723 4f47 d7a7 c853 02a6
00000070: 78fe 9e24 7869 e023 4436 a5aa 586f 25a5
00000080: b95b 2634 0312 0b2f 4447 149f e9a3 d623
00000090: 5a90 aaa0 db45 d934 8bef 0237 7341 a626
000000a0: cbd0 752e 844a a7b0 b3d0 fa2f 0ef2 31b6
000000b0: 20ca 5db3 f1fa 2835 ab44 202d 2fec 0d2f
000000c0: 84f9 69b7 1eb9 47ae 3bee 7130 8e4a 45af
000000d0: 6ef1 b0b6 fa32 5037 a90c 93ae 2a72 3ab5
000000e0: 5a2e 4cb0 4f12 372e e764 a530 7928 2837
000000f0: c805 c2ac 85c8 6422 8416 b727 4109 35a7
00000100: 3a2e f122 0652 9b29 f955 5523 63aa 8324
00000110: 12c9 c824 b1a9 d6b2 1fc0 1c2a a983 9d32
00000120: fce8 fe26 00ba e325 b7fd 3f9d 5da1 5828
00000130: 8a77 b221 dbff d41e d536 7f22 68c1 4c26

lstm.bias_hh_l0 f4 [80]
-1.9531182e-21 -2.375907e-19 1.1266057e-14 -3.196853e-15 3.685802e-18 9.871393e-18 -2.8243177e-10 2.8794503e-20
-2.129167e-09 -3.2524001e-06 -5.616961e-12 -2.1641503e-16 1.4593679e-15 -1.6642265e-07 1.2753651e-16 6.2937365e-18
1.2590482e-18 1.0049606e-20 -1.0249313e-18 -2.6542897e-16 -2.3261972e-17 2.137173e-18 1.4016639e-06 -2.7857414e-15
5.4237592e-08 2.5324226e-16 9.801276e-18 -3.1734671e-06 -1.152718e-13 1.8190948e-07 8.5100186e-19 -4.5336585e-17
1.6905687e-15 1.1680081e-06 -7.578334e-17 7.6667665e-17 -9.4102535e-14 2.580203e-19 3.1035544e-18 1.397271e-08
3.933752e-11 -3.093332e-09 4.0717892e-05 1.9744566e-09 -1.329378e-10 2.1179386e-11 3.2382475e-06 1.2916096e-10
-9.627441e-12 -1.5194465e-10 2.4524674e-10 4.346883e-06 -5.412786e-09 1.0826206e-10 -4.130111e-11 -5.5679055e-11
-6.4606687e-10 2.3427845e-11 -3.6428913e-09 2.5044522e-10 6.112646e-21 1.8228987e-18 5.724254e-06 -1.2772577e-15
4.5459646e-18 1.3456814e-14 -3.978713e-17 1.0336489e-19 6.892362e-17 7.2277484e-20 -1.7282189e-06 -1.8056564e-16
1.1729885e-15 7.1726596e-16 -3.2411208e-20 2.3498259e-17 8.70611e-06 2.0153991e-16 -7.609137e-06 8.8014294e-16
00000000: cd92 139d b13f 8ca0 84f3 4a28 875b 66a7
00000010: 6afb 8722 5618 3623 bd44 9baf 6bfa 071f
00000020: b450 12b1 cf43 5ab6 16a1 c5ac 7182 79a5
00000030: 2c51 d226 e9b1 32b4 220a 1325 a932 e822
00000040: 7fcd b921 ead4 3d1e cf40 97a1 6702 99a5
00000050: c78d d6a3 0eb2 1d22 ce20 bc35 dcbb 48a7
00000060: ddf2 6833 f6fb 9125 38cd 3423 c0f7 54b6
00000070: d6c8 01aa e652 4334 e22b 7b21 fe13 51a4
00000080: faa2 f326 74c4 9c35 97be aea4 9ac8 b024
00000090: 6be6 d3a9 ed4e 9820 7c00 6522 a10c 7032
000000a0: 1c02 2d2e 7992 54b1 81c8 2a38 02af 0731
000000b0: aa2a 12af bd4b ba2d ab50 5936 9403 0e2f
000000c0: 245e 29ad 9e10 27af 69d3 862f 71db 9136
000000d0: 5ffb b9b1 1f12 ee2e eaa4 35ae 0be1 74ae
000000e0: ea96 31b0 d112 ce2d 6c56 7ab1 08af 892f
000000f0: e2ed e61d 9581 0622 f812 c036 7e12 b8a6
00000100: 6cb7 a722 9a6a 7228 5a7c 37a4 3e10 f41f
00000110: 53ed 9e24 0fa9 aa1f 26f5 e7b5 922d 50a5
00000120: a30b a926 e3bc 4e26 bf0e 199f b2bb d823
00000130: 7510 1237 155c 6825 fd51 ffb6 16af 7d26

lstm.weight_ih_l1 f4 [80, 20]
1.9231162e-20 -5.8704626e-19 2.6001654e-15 -1.1257933e-16 -3.850595e-06 -9.629465e-18 -1.541758e-13 -1.9540836e-09
-6.6252567e-16 3.6285366e-20 4.506295e-18 3.3125227e-16 -2.6299484e-16 5.3871497e-16 8.5722953e-16 -4.1134623e-17
-1.2987708e-19 8.01184e-06 2.2451751e-17 5.8802414e-16 1.1954244e-09 8.342572e-08 -3.062032e-11 2.855854e-10
6.604284e-17 2.7237183e-17 -3.2498353e-06 6.020134e-20 -5.625903e-07 5.498487e-18 2.3680444e-19 -8.319484e-07
-2.5284336e-16 4.1767332e-16 2.8063903e-06 -3.868869e-17 -1.9909358e-07 1.2321396e-09 2.964823e-19 6.28666e-16
2.438055e-06 6.051487e-10 8.478163e-09 3.969072e-06 9.9319495e-06 4.6375064e-19 -3.6880374e-07 -4.8878257e-20
4.130099e-14 6.7926925e-21 7.978358e-20 2.9504873e-18 -3.4843205e-18 8.430969e-06 -2.0412718e-17 1.084769e-06
-1.260026e-15 -8.277169e-06 1.2562801e-14 -1.0879267e-07 2.6356575e-21 5.387554e-12 1.1542237e-10 -1.7622507e-13
-2.313516e-19 -4.6854703e-12 -1.3306679e-13 2.0098489e-20 5.777717e-14 -7.316362e-18 -2.3356315e-20 -7.5688725e-08
-9.314519e-12 9.5596046e-17 1.5313167e-18 1.308251e-06 -8.315081e-06 -3.885458e-09 -3.3566228e-10 -1.0505623e-12
2.4903027e-18 -2.4830277e-19 -3.947413e-08 4.0787327e-08 -8.3140944e-10 2.9751546e-17 4.3828658e-16 -3.6799214e-20
-1.1008052e-15 -1.2537836e-15 2.1458399e-16 2.6043015e-16 3.1042846e-06 4.8855373e-16 2.041938e-20 1.3159377e-05
6.806356e-18 -9.77745e-19 -8.736361e-06 8.6104303e-16 7.461054e-17 -1.10249e-05 4.4961883e-13 -5.485698e-08
-1.00664965e-05 2.6531773e-06 3.4950555e-14 -2.0454773e-19 2.0613245e-06 -2.4365612e-18 5.316206e-06 1.2425117e-08
-5.8742025e-13 -5.2470324e-07 -9.039132e-09 1.4697369e-08 5.4371485e-14 1.0980247e-17 -1.1220747e-17 1.10523e-08
1.8704676e-17 -3.226691e-18 3.7453753e-16 1.2602169e-05 2.3135337e-06 5.005141e-18 -1.2887031e-05 3.9101616e-20
-1.0271909e-16 9.211001e-06 -2.2642714e-06 5.553098e-17 -4.042544e-17 1.6233819e-16 2.7924622e-21 -7.450659e-18
7.441519e-21 8.014345e-19 1.4412387e-18 9.152529e-17 7.067772e-19 -2.72222e-09 2.2337927e-06 -1.5286995e-14
-5.454526e-16 -2.3678808e-06 5.2775204e-06 -1.07260924e-07 -7.7336554e-14 -4.8533487e-18 6.857862e-18 2.7669332e-14
-6.1525037e-07 2.0981592e-13 2.9163014e-15 -3.8202922e-15 -1.11478045e-08 6.703425e-09 -1.1476129e-06 1.2731636e-13
-6.7183714e-15 -1.01458345e-05 5.390944e-12 -2.7745354e-18 7.940459e-15 4.7372065e-08 8.091938e-08 -1.5058279e-12
-4.4877497e-18 6.590671e-07 5.6418654e-17 -1.6506404e-07 3.0695277e-18 1.03783795e-17 -4.511949e-13 3.3553988e-08
1.883559e-17 -9.803515e-06 -1.952023e-16 9.537106e-18 2.288384e-16 -9.446375e-17 2.2877663e-13 -4.0876218e-15
-1.3022614e-10 1.283771e-15 1.5910584e-14 -9.372149e-14 -3.270572e-14 -1.8381783e-19 3.4742033e-07 2.0331282e-13
-2.3538392e-14 2.3408951e-08 -3.5970843e-19 -1.0571332e-15 -2.0857107e-18 1.480458e-19 -4.3410546e-18 3.4581783e-06
8.257855e-18 4.4434583e-18 -2.1900433e-12 -9.304486e-17 -4.687119e-18 2.5778416e-15 2.113115e-06 -6.1316406e-08
-4.422308e-16 -6.3241785e-08 -2.771128e-20 -5.205338e-06 -2.011126e-16 -1.0637615e-06 4.878941e-10 -1.7125236e-17
4.5350445e-22 -8.44562e-21 7.9226885e-07 -8.164833e-10 4.3999585e-20 -2.6917905e-18 3.9188515e-14 1.5880433e-06
5.3220684e-16 1.1829694e-06 2.4098388e-15 -2.9575876e-18 -6.439994e-08 1.7867321e-17 2.025092e-10 -3.662441e-09
-1.2943256e-06 1.6760126e-14 2.1918324e-19 -6.3505655e-16 -3.6502374e-07 4.568845e-20 -7.928223e-14 -6.8097267e-10
-4.8374897e-08 -2.5280676e-17 2.3809497e-13 -4.4684514e-09 4.6923056e-08 -4.1288176e-10 2.4290457e-14 4.737442e-13
-1.8102657e-13 -2.2500177e-18 6.953402e-18 2.3312988e-14 5.3231606e-08 -4.0857895e-09 -9.972112e-19 -7.418816e-06
00000000: 19a2 b51e f643 2da1 965c 3b27 8ecb 01a5
00000010: 5c34 81b6 dda1 31a3 2696 2daa 9a48 06b1
00000020: c4f5 3ea6 515a 2b1f c140 a622 35f4 be25
00000030: 309b 97a5 2646 1b26 6014 7726 31b3 3da4
00000040: f054 19a0 976a 0637 b314 cf23 867c 2926
00000050: 424c a430 c627 b333 6aab 06ae 9200 9d2f
00000060: d048 9824 fb37 fb23 bf17 5ab6 7a25 8e1f
00000070: e904 17b5 bedb ca22 e0c8 8b20 0f53 5fb5
00000080: 18c1 91a5 b4c5 f025 6b55 3c36 8b6b 32a4
00000090: 6dc6 55b4 0f58 a930 2303 af20 5d33 3526
000000a0: 779d 2336 8e57 2630 5ba7 1132 122e 8536
000000b0: 66a1 2637 02e0 0821 0000 c6b4 30d2 669f
000000c0: cd00 3a29 724f 001e 3762 bc1f 21b5 5922
000000d0: 7a8c 80a2 bc72 0d37 2b46 bca3 6198 9135
000000e0: c196 b5a6 2cde 0ab7 b24f 6228 67a1 e9b3
000000f0: 0825 471d c68e bd2c 05d1 fd2e 6b69 46aa
00000100: de90 88a0 f7da a4ac e4d1 15aa 2ad3 bd1e
00000110: 451a 8229 8bf6 06a3 1b98 dc9e 518a a2b3
00000120: dddc 23ad f26d dc24 82fb e121 2997 af35
00000130: 0081 0bb7 da80 85b1 4488 b8af 7fda 93ab
00000140: 7dc0 3722 7492 92a0 448a 29b3 242e 2f33
00000150: 3d89 64b0 6d34 0924 afa7 fc25 85c7 2d9f
00000160: 8ba4 9ea6 73b0 b4a6 0466 7725 b520 9625
00000170: 3453 5036 e7d0 0c26 08db c01e 18c7 5c37
00000180: 371c fb22 294a 90a1 6392 12b7 c32d 7826
00000190: 4a0a ac24 96f7 38b7 e71c fd2a e39b 6bb3
000001a0: 46e3 28b7 3d0d 3236 3f67 1d29 c27c 71a0
000001b0: 4955 0a36 57c9 33a2 dd61 b236 3e76 5532
000001c0: 1758 25ab 55d9 0cb5 864a 1bb2 b67f 7c32
000001d0: 0ede 7429 c08c 4a23 7bfc 4ea3 88e0 3d32
000001e0: 2b85 ac23 7816 6ea2 fce7 d725 e76d 5337
000001f0: 3542 1b36 38a8 b822 6035 58b7 f4a6 381f
00000200: a6da eca4 f388 1a37 e3f3 17b6 b40b 8024
00000210: f06d 3aa4 c729 3b25 13fe 521d be70 09a3
00000220: fa90 0c1e ae8a 6c21 75b0 d421 ff0a d324
00000230: 939a 5021 cd11 3bb1 44e8 1536 69b1 89a8
00000240: 4c37 1da6 e2e7 1eb6 8e15 b136 5157 e6b3
00000250: 7d25 aea9 950e b3a2 ad02 fd22 2339 f928
00000260: af27 25b5 523b 6c2a 4424 5227 faa3 89a7
00000270: 9084 3fb2 f353 e631 ae07 9ab5 7158 0f2a
00000280: 0a0e f2a7 0738 2ab7 4fad bd2c 7eb9 4ca2
00000290: e70a 0f28 2376 4b33 e6c5 ad33 2bed d3ab
000002a0: 9991 a5a2 bfea 3035 b217 8224 753c 31b4
000002b0: bd7d 6222 8372 3f23 0a00 feaa 001d 1033
000002c0: 48ba ad23 c779 24b7 8d0d 61a5 b6ed 2f23
000002d0: 96ea 8325 8ed1 d9a4 30ca 802a a845 93a7
000002e0: 662f 0faf ca02 b926 4f4f 8f28 c30a d3a9
000002f0: 214b 13a9 8803 59a0 1685 ba34 eee8 642a
00000300: d603 d4a8 d414 c932 9a55 d4a0 5559 98a6
00000310: f6e5 19a2 19c8 2e20 1a28 a0a2 0d13 6836
00000320: 9e54 1823 47ef a322 501c 1aac fe8b d6a4
00000330: 96ec aca2 c9c0 3927 0acf 0d36 0dad 83b3
00000340: bfed fea5 8acf 87b3 e2dc 029f 83a9 aeb6
00000350: f6dd 67a5 91c6 8eb5 7f1c 0630 d2f3 9da3
00000360: 3510 091c 8388 1f9e 4dac 5435 e86e 60b0
00000370: 3cc8 4f1f 7c9e 46a2 487d 3029 c124 d535
00000380: ef65 1926 85c6 9e35 aea5 2d27 403b 5aa2
00000390: 3e4c 8ab3 05cc a423 46a9 5e2f 58ae 7bb1
000003a0: b0b8 adb5 38f6 9628 0962 8120 e70a 37a6
000003b0: 7bf8 c3b4 f2c1 571f 1887 b2a9 312f 3bb0
000003c0: c3c4 4fb3 4f2c e9a3 1a09 862a ea88 99b1
000003d0: 7288 4933 f1fb e2af fbc9 da28 de58 052b
000003e0: 5bd1 4baa a205 26a2 8344 0023 17fc d128
000003f0: c5a0 6433 fc62 8cb1 9329 93a1 25ef f8b6

lstm.weight_hh_l1 f4 [80, 20]
3.632582e-15 1.180803e-15 1.0258096e-16 5.626787e-12 -1.7093413e-15 -1.6013263e-06 7.221293e-16 1.996775e-14
-1.6569121e-16 -2.0984486e-14 -1.7316791e-15 5.270933e-15 1.5767938e-14 2.0437794e-09 -2.8899033e-08 5.858695e-07
1.9837048e-13 -1.5537449e-06 7.2113085e-07 6.760891e-16 -8.5139247e-16 1.13614985e-10 7.185104e-17 -2.506006e-16
5.366679e-08 -2.137212e-14 6.6086373e-16 1.5056265e-14 6.695139e-10 -8.364768e-15 -4.4739943e-07 4.209069e-15
1.0745317e-14 -3.5711068e-16 -2.5896082e-15 -1.5211272e-06 2.4864008e-13 5.3389003e-06 1.3576217e-08 6.256433e-16
3.4667337e-08 1.6428143e-07 2.2445716e-10 -8.704204e-18 -2.3480223e-17 -4.2920615e-16 1.5579673e-15 4.6946408e-07
-1.4517684e-18 1.462023e-06 2.5950993e-12 -4.1839675e-07 -1.0782198e-15 -5.844879e-18 -5.7547106e-07 2.0075852e-17
2.3410729e-15 -1.9511498e-16 -7.363778e-16 1.1260803e-08 1.0720948e-10 1.0241955e-16 -1.4529485e-13 -9.805349e-08
3.5233575e-06 -3.4368332e-15 8.587552e-14 3.1633028e-15 -1.7990836e-17 -8.704887e-16 -1.4807913e-16 6.0357397e-16
-7.663156e-09 -4.3200275e-17 -6.0707084e-16 1.1084677e-05 1.9171435e-14 5.3831227e-06 4.1852118e-06 -4.5484125e-08
-2.1502956e-15 8.8468155e-16 8.807411e-17 -3.732048e-16 -1.2092825e-15 -8.557678e-07 -2.030842e-07 3.007945e-14
-4.2692256e-12 -7.825956e-07 -1.0963436e-15 6.4179375e-08 -7.3235406e-13 -6.135093e-16 -3.8793736e-15 1.6447438e-15
-1.328346e-06 -5.67847e-09 1.0788199e-06 -4.6710966e-07 1.145191e-07 3.6378932e-13 3.9080962e-07 -6.601731e-14
-1.599497e-08 -4.008653e-12 1.3335687e-13 1.7675172e-06 -8.5357346e-14 -1.6649379e-12 -2.6432e-13 1.181165e-12
-1.1670741e-06 -1.1984854e-08 -2.6758858e-07 2.2900768e-13 4.6131543e-11 -9.2499495e-06 1.0149501e-05 1.6381364e-13
1.1894765e-06 1.9851562e-16 2.5000919e-17 6.088789e-10 -3.1117844e-16 -4.525645e-15 1.2052167e-16 1.1618515e-06
7.3609304e-14 -4.564054e-15 -2.9501887e-11 -2.423023e-06 -1.1861749e-13 -7.181313e-17 1.3648853e-06 3.63973e-16
-1.2361149e-07 -1.9726366e-15 -7.141807e-15 8.95429e-06 -2.3296426e-13 -1.7336464e-07 4.9467535e-12 2.8468895e-07
-1.6582245e-06 3.2732495e-12 8.37729e-14 3.0266516e-12 1.8244528e-08 -1.1092283e-12 -1.9445373e-13 6.6728876e-13
-1.9637713e-07 -2.4877686e-06 -5.5730713e-13 2.5256718e-06 3.7764663e-11 -3.1658e-13 -4.6849907e-12 1.01892324e-13
5.833226e-09 2.1385746e-17 -5.008492e-07 -6.012131e-18 6.2440986e-17 -3.9821248e-16 -3.5277046e-07 4.0403517e-16
-2.3982247e-18 2.9077191e-06 -3.7504207e-17 -7.533383e-17 2.9138232e-16 2.534289e-08 -2.032624e-12 3.3040105e-17
6.5253555e-15 -1.710172e-16 -7.540986e-16 1.4229601e-17 -7.191996e-14 6.116205e-14 -2.5959012e-06 -1.3126947e-14
-6.0212584e-14 2.8940563e-06 2.7350294e-14 9.946747e-13 -5.6095484e-08 -3.4221538e-13 -2.097843e-10 2.609964e-12
1.7236294e-12 -1.5994149e-14 -1.3788273e-13 -3.1959559e-12 5.2741534e-06 -3.3053307e-13 3.2466821e-06 8.8983757e-07
1.2552688e-08 6.9292144e-16 6.15693e-17 -1.8581547e-16 -1.0919462e-15 -1.29079054e-14 4.82695e-16 -3.1506653e-07
-1.0075406e-16 4.2260653e-10 -7.6911836e-16 3.1165783e-15 3.454304e-09 -7.984812e-16 -2.2379879e-15 8.579705e-16
2.2778692e-13 3.7534465e-07 -1.5353562e-05 -1.1043663e-08 -1.4108907e-11 1.1066496e-14 1.5592827e-15 -4.4916273e-15
-1.0456523e-05 7.13167e-06 -5.277938e-12 6.465809e-13 -2.5392294e-15 -1.3997042e-13 -2.3977336e-14 1.4447728e-13
4.4725266e-07 5.5705844e-12 -9.66021e-14 1.20795285e-08 6.413959e-08 4.509861e-08 -2.1294248e-07 9.886346e-15
-2.906705e-12 -7.732696e-06 1.53282e-14 -4.970965e-14 -1.8202151e-13 -4.8239026e-12 -1.5359533e-06 2.4590805e-12
-1.4392318e-14 -9.530669e-13 -2.763489e-13 -5.3733665e-06 -1.1998741e-10 6.0599336e-07 -7.6174315e-13 7.565937e-06
00000000: a8e0 8227 f12b aa26 1c89 ec24 97f9 c52c
00000010: 9057 f6a6 27ed d6b5 bd23 5026 7fda b328
00000020: 6a07 3fa5 ee02 bda8 af8f f9a6 c7e7 bd27
00000030: 6406 8e28 8c72 0c31 a53d f8b2 a544 1d35
00000040: 6658 5f2a 458a d0b5 bc93 4135 92de 4226
00000050: ad65 75a6 8dd7 f92e 5ead a524 1f76 90a5
00000060: 427f 6633 c180 c0a8 237b 3e26 629d 8728
00000070: da08 3830 afaf 16a8 1c32 f0b4 cfa5 9727
00000080: 0792 4128 3cdc cda5 d799 3aa7 8829 ccb5
00000090: d0f8 8b2a ce24 b336 d53c 6932 5454 3426
000000a0: 24e5 1433 5665 3034 13cb 762f 7190 20a3
000000b0: 1c91 d8a3 a66b f7a5 d986 e026 a70a fc34
000000c0: 423e d6a1 ba3a c435 279d 362c 03a0 e0b4
000000d0: 4a63 9ba6 52a3 d7a2 127a 1ab5 c42a b923
000000e0: 2cb1 2827 c7f3 60a5 173f 54a6 8975 4132
000000f0: 92c1 eb2e d529 ec24 6496 23aa 7a91 d2b3
00000100: d272 6c36 62a6 77a7 de5f c129 a3f0 6327
00000110: a9ef a5a3 bbe6 7aa6 3fb9 2aa5 e6f7 2d26
00000120: eba6 03b2 e239 47a4 ecf9 2ea6 53f8 3937
00000130: 52ae ac28 aca0 b436 b26e 8c36 535a 43b3
00000140: f4f1 1aa7 fafd 7e26 c715 cb24 4f23 d7a5
00000150: a646 aea6 eab7 65b5 5c0f 5ab4 3f77 0729
00000160: c435 96ac 8f13 52b5 f1ff 9da6 fcd2 8933
00000170: ac23 4eab ffd4 30a6 e8c4 8ba7 5608 ed26
00000180: 9f49 b2b5 5a1c c3b1 f8cb 9035 10c7 fab4
00000190: 8bed f533 91cb cc2a 77d0 d134 63a8 94a9
000001a0: 5065 89b2 bc0a 8dac 8025 162a 6e3b ed35
000001b0: 2935 c0a9 b651 eaab 87cc 94aa f43b a62b
000001c0: 5ca4 9cb5 f2e5 4db2 18a9 8fb4 7ceb 802a
000001d0: 80e3 4a2e 3b30 1bb7 c647 2a37 1170 382a
000001e0: 1aa6 9f35 78df 6425 c097 e623 0b5e 2730
000001f0: d561 b3a5 b50d a3a7 b8f3 0a25 eaf0 9b35
00000200: e0c0 a529 f86f a4a7 2cc0 01ae 389b 22b6
00000210: 2a8d 05aa fd96 a5a4 1a31 b735 efd0 d125
00000220: 11ba 04b4 b924 0ea7 c6a7 00a8 623a 1637
00000230: b025 83aa 1c26 3ab4 650c ae2c 5ad7 9834
00000240: 2990 deb5 9f55 662c caa3 bc29 4ffb 542c
00000250: 24b8 9c32 291c 9cab 79ef 5aaa 39d3 3b2b
00000260: bcdb 52b4 8af3 26b6 36de 1cab b67e 2936
00000270: 3b17 262e fc37 b2aa a5d6 a4ac ed70 e529
00000280: 996d c831 aa3f c523 1872 06b5 f9ce dda2
00000290: a7fa 8f24 ca8d e5a5 6764 bdb4 11e9 e825
000002a0: 2ff5 30a2 3c22 4336 27f5 2ca4 3fb5 ada4
000002b0: 71f8 a725 9bb1 d932 8008 0fac df5e 1824
000002c0: c819 eb27 5e2b 45a5 a85a 59a6 b23e 8323
000002d0: 09f3 a1a9 85b9 8929 3e35 2eb6 5c79 6ca8
000002e0: 3196 87a9 8237 4236 7c59 f628 effc 8b2b
000002f0: a3ed 70b3 6fa6 c0aa 08a9 66af eea8 372c
00000300: 4b94 f22b ff0f 90a8 fe3d 1baa 39e5 60ac
00000310: a2f8 b036 d612 baaa 93e1 5936 2cdd 6e35
00000320: 4ea7 5732 94b8 4726 1af8 8d24 0c3b 56a5
00000330: b45d 9da6 3587 68a8 9b20 0b26 6a26 a9b4
00000340: b352 e8a4 9554 e82f ebae 5da6 b992 6027
00000350: c260 6d31 8325 66a6 9743 21a7 0d4b 7726
00000360: 8e3b 802a fa82 c934 86cb 80b7 8bba 3db2
00000370: de34 78ad 345b 4728 61b7 e026 f3d3 a1a7
00000380: 6d6e 2fb7 944c ef36 70b3 b9ac 10ff 352b
00000390: 84f8 36a7 ba97 1daa f9f7 d7a8 beaa 222a
000003a0: f01d f034 5dff c32c 5287 d9a9 5486 4f32
000003b0: 1dbd 8933 72b2 4133 2fa5 64b4 b918 3228
000003c0: 8b8a 4cac adbb 01b7 6c10 8a28 53df 5fa9
000003d0: 21f0 4caa dab9 a9ac f426 ceb5 db0a 2d2c
000003e0: 6da2 81a8 db21 86ab 1392 9baa de4c b4b6
000003f0: 74ed 03af 8cab 2235 6169 56ab e7de fd36

lstm.bias_ih_l1 f4 [80]
1.1780474e-10 1.6429991e-10 -1.6441886e-07 2.2398354e-11 1.9358427e-10 2.3625996e-07 2.627849e-11 1.346228e-08
5.597112e-12 3.848539e-09 1.3867193e-06 7.541004e-09 -6.923563e-06 1.1321072e-11 1.080085e-09 -3.396684e-08
1.4402001e-06 7.0054056e-09 4.1946123e-08 3.5509328e-11 1.7816103e-10 1.2295842e-10 7.0767103e-10 1.0737694e-11
9.891953e-11 1.94526e-08 1.9121812e-11 1.4846024e-08 8.696432e-07 -7.392067e-07 6.978122e-11 1.0684726e-09
1.005516e-08 1.2082864e-11 -8.798119e-06 6.734241e-11 2.4636802e-06 6.0983784e-06 1.2153254e-07 4.0557255e-11
-8.1875505e-06 8.2926945e-06 1.2994464e-06 -3.4597565e-06 -1.2458154e-05 -0.00029884977 4.647969e-06 7.540445e-05
-1.5833298e-06 -3.971327e-05 -8.052844e-06 3.9607068e-05 6.957783e-05 -3.6932709e-06 -6.0018236e-05 2.0319947e-05
0.002020946 -0.00013508531 -0.0005130555 7.525582e-06 2.1467506e-10 -7.9876106e-10 1.786051e-12 3.8244977e-11
-7.682502e-06 3.1878304e-07 2.1111174e-11 1.9091184e-08 2.3232967e-12 3.4247194e-09 5.3977264e-11 4.754979e-07
-1.1963841e-08 1.5696598e-08 5.0660987e-10 1.3153607e-10 1.7700135e-06 3.3468526e-09 7.727201e-08 4.009901e-06
00000000: 1687 012f 50a6 342f 1d8b 30b4 9c04 c52d
00000010: 21d9 542f a5ae 7d34 e625 e72d bc47 6732
00000020: 4eee c42c 1b3c 8431 501f ba35 b08d 0132
00000030: f450 e8b6 9329 472d 1d72 9430 efe2 11b3
00000040: e64c c135 33b4 f031 4028 3433 f32b 1c2e
00000050: dfe3 432f b831 072f ec85 4230 46e6 3c2d
00000060: bf86 d92e b818 a732 7e32 a82d 810d 7f32
00000070: 6d71 6935 e66d 46b5 5673 992e 8ad9 9230
00000080: 10bf 2c32 6290 542d a29b 13b7 6816 942e
00000090: b455 2536 aca0 cc36 9c7e 0234 695f 322e
000000a0: 435d 09b7 da20 0b37 a368 ae35 2a2e 68b6
000000b0: 5d03 51b7 f0ae 9cb9 c0f5 9b36 7522 9e38
000000c0: cc82 d4b5 cd91 26b8 b41a 07b7 c41f 2638
000000d0: 50ea 9138 e9d9 77b6 17bc 7bb8 c174 aa37
000000e0: d971 043b b0a5 0db9 927e 06ba 4284 fc36
000000f0: a809 6c2f d08f 5bb0 455d fb2b 0434 282e
00000100: 18e4 00b7 3525 ab34 23b2 b92d f5fd a332
00000110: cb7c 232c 4d58 6b31 ff64 6d2e ef47 ff34
00000120: 8789 4db2 2fd5 8632 8041 0b30 1da0 102f
00000130: 3391 ed35 74fe 6531 bdf0 a533 ca8c 8636

lstm.bias_hh_l1 f4 [80]
1.5507587e-10 1.0677395e-05 1.6267005e-12 9.009414e-12 3.0470723e-10 -2.4854146e-06 4.9199554e-11 1.881936e-06
1.9598646e-12 6.7876167e-09 7.779775e-06 1.3630661e-09 1.7734594e-08 1.1326292e-11 6.0623956e-10 7.354215e-11
1.3640255e-06 3.5603223e-09 5.360583e-08 4.9295665e-11 -1.0566653e-05 6.2447644e-11 1.1505164e-12 1.6065538e-11
-5.82928e-07 1.7014456e-08 1.9448346e-11 1.6875028e-08 5.348697e-12 7.721039e-09 7.2877454e-11 1.051403e-09
3.415566e-08 1.09193175e-11 5.9018297e-09 7.3154695e-07 3.4544206e-05 3.7860177e-09 -1.1744003e-06 3.9492208e-11
-1.8131996e-05 1.2478126e-05 1.0167951e-06 -2.8356578e-06 -1.6303811e-05 -0.0001612404 1.0376034e-05 0.00029815268
-1.4134299e-06 -0.00015233534 -1.7047232e-05 5.803418e-05 0.00026057186 -5.814212e-06 -1.7973829e-05 6.8175095e-06
0.0020974048 -5.9587277e-05 -0.00020063855 6.722932e-06 1.7181372e-06 6.601136e-11 5.5966847e-08 1.29909755e-11
1.4268032e-07 8.101831e-08 3.1012207e-11 -2.7454892e-06 3.4265377e-12 -3.0022763e-06 3.6868676e-06 1.1964779e-09
1.0000998e-08 1.0978189e-11 6.0604277e-10 -1.18515004e-07 2.39322e-06 -1.3511585e-06 5.3434235e-08 2.0720884e-06
00000000: fa81 2a2f 1023 3337 10f0 e42b cb7e 1e2d
00000010: bb83 a72f 19cb 26b6 c661 582e d496 fc35
00000020: c8e9 092c 8238 e931 e185 0237 a056 bb30
00000030: c956 9832 1641 472d 51a4 2630 8db8 a12e
00000040: 8f13 b735 daa9 7431 3c3c 6633 fccd 582e
00000050: 6e47 31b7 e652 892e b9eb a12b 6050 8d2d
00000060: 827a 1cb5 2f27 9232 c811 ab2d 94f4 9032
00000070: c830 bc2c 7da5 0432 5c42 a02e f480 9030
00000080: 8cb2 1233 3c18 402d 0bc9 ca31 865f 4435
00000090: 8fe3 1038 2a16 8231 16a0 9db5 46b0 2d2e
000000a0: 2a1a 98b7 2559 5137 d078 8835 3b4c 3eb6
000000b0: 2bc4 88b7 a412 29b9 ba14 2e37 6051 9c39
000000c0: 15b5 bdb5 35bc 1fb9 a700 8fb7 ba69 7338
000000d0: 5d9d 8839 b317 c3b6 81c6 96b7 f6c1 e436
000000e0: 9d74 093b 5aed 79b8 8062 52b9 8c95 e136
000000f0: bf9a e635 1829 912e 3360 7033 278a 642d
00000100: ab33 1934 49fc ad33 a464 082e 253f 38b6
00000110: 041f 712c b77a 49b6 e76b 7736 5371 a430
00000120: dbd0 2b32 5e21 412d 7896 2630 5082 feb3
00000130: 359b 2036 7459 b5b5 907f 6533 350e 0b36

fc.weight f4 [360, 20]
-5.250405e-07 4.746519e-06 4.7908927e-08 -3.0841687e-07 -6.310479e-07 -1.0651938e-05 3.0096734e-07 7.1447007e-06
-6.772243e-08 -3.8071926e-06 -5.3630845e-07 2.851324e-06 6.992731e-06 -1.9986828e-07 -1.6807015e-06 5.382654e-07
9.427135e-05 -3.357024e-06 -1.3376865e-05 -5.9629265e-08 -5.5281066e-07 4.5380608e-07 8.470019e-08 -9.507865e-06
-7.1135776e-07 -8.332288e-06 3.373499e-07 1.2311691e-05 -9.948277e-08 -6.344073e-06 -6.580814e-07 3.8758344e-06
6.322061e-06 -7.2729076e-06 -1.6893089e-06 1.0894456e-06 9.4596e-05 -5.8629234e-06 -1.5253844e-05 1.5316453e-05
-4.617458e-07 1.2738022e-06 9.2795624e-08 -1.1769997e-07 -7.8129426e-07 -1.3903979e-05 2.7421228e-07 8.120698e-06
-7.181787e-08 -3.8530766e-06 -1.8703836e-06 1.9812003e-06 1.0054873e-05 -1.741333e-07 2.0420391e-07 7.0241754e-07
7.812335e-05 -3.6752035e-06 -1.4551731e-05 7.8368856e-07 -5.9162807e-07 4.488674e-07 8.8381924e-08 -2.5547533e-07
-6.167226e-07 -8.290969e-06 5.210827e-07 9.464219e-06 5.027362e-06 -5.3826166e-06 -7.376695e-07 2.2545942e-06
6.5439876e-06 -1.8279603e-07 -2.6140422e-06 5.3741627e-07 0.00011081163 -4.3264154e-06 -2.4255636e-05 3.0274293e-07
8.359086e-06 6.7043646e-07 6.193208e-08 -1.15889925e-07 -8.4774143e-07 -9.156633e-06 3.0956932e-07 7.322576e-06
-6.9579464e-08 -3.8522962e-06 -4.2798763e-07 2.1146263e-06 5.913732e-06 -2.0499768e-07 -1.7606476e-06 5.8723396e-07
8.911768e-05 -4.6488212e-06 -1.3447287e-05 2.9766892e-07 -5.8736657e-07 4.655637e-07 4.876255e-08 -2.8004305e-07
-7.629015e-07 -1.4828174e-05 -1.9142877e-05 8.153274e-06 -8.2604316e-08 -4.4996e-06 -5.2866255e-07 1.9661825e-06
5.417321e-06 -1.9709248e-07 -2.129082e-06 1.15501884e-07 8.4391395e-05 -3.313916e-06 -1.38927335e-05 4.492686e-07
-7.334883e-07 -4.6836612e-06 8.225478e-08 -1.8229284e-07 -6.5482675e-07 -8.483204e-06 8.604513e-06 1.0961292e-05
-1.0902169e-07 -4.058564e-06 -8.4491336e-07 2.7324634e-06 1.3193468e-05 -1.7745363e-07 -1.8394584e-06 4.426361e-06
9.839523e-05 -5.4436055e-06 -2.3372097e-05 2.9098172e-07 -5.54362e-07 7.667257e-07 5.3071062e-08 -1.333573e-07
-5.288092e-07 -1.0050332e-05 3.3925895e-07 6.650195e-06 -7.981575e-08 -3.9994434e-06 -6.304243e-07 1.9312545e-06
6.49418e-06 9.191011e-06 -1.6972198e-06 5.084252e-07 8.164989e-05 -4.6173514e-06 -1.7650056e-05 4.986569e-07
-1.2140549e-06 3.900713e-07 8.396932e-08 -1.9443021e-07 -2.2076024e-06 -1.4308019e-05 2.824816e-07 1.1375402e-05
-6.0345414e-08 -4.8311517e-06 -5.101427e-07 2.0850937e-06 6.6968596e-06 2.1588469e-06 6.1517208e-06 7.900328e-07
8.3349434e-05 -4.165383e-06 -3.878942e-05 3.5164746e-07 -5.499749e-07 3.8309818e-07 4.832615e-08 -1.4147362e-07
-5.488952e-07 -1.1278305e-05 6.2583877e-07 9.977e-06 -7.621429e-08 -5.08487e-06 -6.3094234e-07 1.92717e-06
6.037185e-06 -2.1099682e-07 -1.8935813e-06 5.715702e-07 8.7426066e-05 -4.0960495e-06 -1.7703689e-05 3.2031318e-07
-4.898179e-07 4.417011e-07 5.1084257e-08 -1.3851773e-07 -6.062314e-07 -9.061235e-06 2.9994942e-07 8.1943635e-06
2.1997832e-06 -4.358339e-06 -4.571109e-07 2.112078e-06 5.684638e-06 -2.3121848e-07 -1.6755122e-06 1.739966e-06
0.00012313985 -4.1507833e-06 -2.2488468e-05 2.873969e-07 -4.5551752e-07 3.8651024e-07 6.7701784e-08 -1.08417034e-07
-9.16324e-07 -7.916811e-06 2.6770513e-07 6.336061e-06 -5.738411e-08 -4.713051e-06 -5.978611e-07 2.5546274e-06
6.908714e-06 -1.6118058e-07 -1.3302558e-06 5.5143414e-07 8.193836e-05 -3.755142e-06 -1.9695284e-05 3.301845e-07
-5.219208e-07 6.150629e-07 4.879161e-08 -3.0598392e-07 -7.83435e-07 -8.94914e-06 3.5461204e-07 8.041637e-06
-7.531976e-08 -4.7254075e-06 -4.9068905e-07 1.7974211e-06 1.2145106e-05 -2.6774984e-07 -1.8037983e-06 8.5293976e-07
00000000: 82f0 0cb5 4a44 9f36 6cc4 4d33 7e94 a5b4
00000010: 4865 29b5 bab5 32b7 a394 a134 83bc ef36
00000020: cd6e 91b3 127f 7fb6 d6f6 0fb5 6059 3f36
00000030: 1aa3 ea36 609b 56b4 7794 e1b5 517d 1035
00000040: 8cb3 c538 3c49 61b6 336d 60b7 890d 80b3
00000050: dc64 14b5 a2a2 f334 6ce4 b533 f883 1fb7
00000060: 22f4 3eb5 e8ca 0bb7 041d b534 4f8e 4e37
00000070: 3ba3 d5b3 2cdf d4b6 02a7 30b5 2a0d 8236
00000080: 1722 d436 cd09 f4b6 36bc e2b5 1139 9235
00000090: d761 c638 21ba c4b6 c3ea 7fb7 d57b 8037
000000a0: dce5 f7b4 83f7 aa35 ef46 c733 3ec2 fcb3
000000b0: 22ba 51b5 2345 69b7 7337 9334 223e 0837
000000c0: 4b3a 9ab3 ad49 81b6 e409 fbb5 c3f4 0436
000000d0: 5ab1 2837 66f9 3ab4 2543 5b34 c48d 3c35
000000e0: 27d6 a338 84a3 76b6 3523 74b7 ab5e 5235
000000f0: 5fd0 1eb5 defb f034 7acc bd33 4328 89b4
00000100: db8c 25b5 7119 0bb7 88e0 0b35 83c8 1e37
00000110: b6b0 a836 539c b4b6 4304 46b5 a24d 1736
00000120: 6d94 db36 9746 44b4 e76c 2fb6 f742 1035
00000130: 8a63 e838 a02b 91b6 9578 cbb7 ac88 a234
00000140: 003e 0c37 0bf8 3335 85ff 8433 29df f8b3
00000150: 5990 63b5 709f 19b7 e232 a634 73b4 f536
00000160: b76b 95b3 f942 81b6 2cc6 e5b4 01e9 0d36
00000170: 926e c636 551d 5cb4 644f ecb5 69a2 1d35
00000180: b1e4 ba38 12fd 9bb6 a89b 61b7 4ecf 9f34
00000190: 86ab 1db5 96f2 f934 fe6e 5133 d358 96b4
000001a0: 31ca 4cb5 86c6 78b7 0495 a0b7 0cca 0837
000001b0: 3464 b1b3 45fb 96b6 6ae9 0db5 c2f2 0336
000001c0: 6fc6 b536 5ea0 53b4 5ae1 0eb6 d509 f833
000001d0: 49fb b038 a564 5eb6 d614 69b7 0233 f134
000001e0: efe4 44b5 5828 9db6 0ba4 b033 46bc 43b4
000001f0: 5ac7 2fb5 1553 0eb7 1a5c 1037 64e6 3737
00000200: 4f1f eab3 cd2e 88b6 01ce 62b5 5d5f 3736
00000210: 8359 5d37 158a 3eb4 4fe3 f6b5 2786 9436
00000220: 8959 ce38 37a8 b6b6 320f c4b7 3938 9c34
00000230: 77cf 14b5 fdd0 4d35 40f0 6333 fa30 0fb4
00000240: 7ef3 0db5 d99d 28b7 6523 b634 bd24 df36
00000250: 2c67 abb3 f532 86b6 6e3a 29b5 b39a 0136
00000260: 95e8 d936 1733 1a37 07cc e3b5 b77a 0835
00000270: 733b ab38 bfee 9ab6 350f 94b7 71db 0535
00000280: 9cf2 a2b5 fe6a d134 9f52 b433 92c4 50b4
00000290: 5226 14b6 790c 70b7 faa7 9734 fbd8 3e37
000002a0: 3e97 81b3 471b a2b6 bdf0 08b5 a3ed 0b36
000002b0: 96b5 e036 b5e0 1036 e16a ce36 a412 5435
000002c0: e3cb ae38 5ec4 8bb6 d3b1 22b8 0fca bc34
000002d0: fda1 13b5 9dac cd34 2a8f 4f33 f9e7 17b4
000002e0: ca57 13b5 f337 3db7 50ff 2735 e462 2737
000002f0: 40ab a3b3 b39e aab6 075e 29b5 8754 0136
00000300: 0693 ca36 5d8e 62b4 f526 feb5 016e 1935
00000310: 8358 b738 cc70 89b6 6282 94b7 82f7 ab34
00000320: 087c 03b5 f022 ed34 bc67 5b33 77bb 14b4
00000330: e8bb 22b5 b505 18b7 bc08 a134 867a 0937
00000340: fd9f 1336 d93d 92b6 d868 f5b4 39bd 0d36
00000350: abbe be36 da44 78b4 29e2 e0b5 c788 e935
00000360: 1a1f 0139 f546 8bb6 9ea5 bcb7 874b 9a34
00000370: da8d f4b4 9081 cf34 7363 9133 e5d2 e8b3
00000380: 4ef9 75b5 72d2 04b7 1db9 8f34 599a d436
00000390: 7f76 76b3 cd24 9eb6 b47c 20b5 2a70 2b36
000003a0: 67d1 e736 fb10 2db4 3e8b b2b5 4406 1435
000003b0: 52d6 ab38 d900 7cb6 4d37 a5b7 3644 b134
000003c0: 201a 0cb5 cd1a 2535 f18e 5133 1c46 a4b4
000003d0: 3e4d 52b5 4324 16b7 8261 be34 91ea 0637
000003e0: 7abf a1b3 f18e 9eb6 e5b7 03b5 eb3e f135
000003f0: d5c2 4b37 42bf 8fb4 0a1a f2b5 93f5 6435

fc.bias f4 [360]
0.036230657 0.035894323 0.036342014 0.03623551 0.036002573 0.03610307 0.036237255 0.03631615
0.03627456 0.03621469 0.036300324 0.03546716 0.036316227 0.0363213 0.036267005 0.036268074
0.036413405 0.03651692 0.03625678 0.036306042 0.0364416 0.03509326 0.036421962 0.03623255
0.036520455 0.036230702 0.036241673 0.036304764 0.03608582 0.036199797 0.03510689 0.03621734
0.036232103 0.03608708 0.036237203 0.036229584 0.035208292 0.03622356 0.03610954 0.036213696
0.03651196 0.036158346 0.03635077 0.03644989 0.036238823 0.036372695 0.03624208 0.0362694
0.03646013 0.03637434 0.0362484 0.036225207 0.036205307 0.036432073 0.036154047 0.036142845
0.03623187 0.03623989 0.03488688 0.03601065 0.036202222 0.036161438 0.036432236 0.036382988
0.03630198 0.0364122 0.036307767 0.034899604 0.03629149 0.036273986 0.036304478 0.03628938
0.036235537 0.036421183 0.036224615 0.034868803 0.03619871 0.03522617 0.035283506 0.03617751
0.035128225 0.03488732 0.03630873 0.036219783 0.036207337 0.034978252 0.03621664 0.035512812
0.03471924 0.036266655 0.034882646 0.036344588 0.03479684 0.036151823 0.036322117 0.036264185
0.036236938 0.03601786 0.03623976 0.034706384 0.036233023 0.03493172 0.03625741 0.036191657
0.03614884 0.035960745 0.036235698 0.036303766 0.03628614 0.03630102 0.036256216 0.036097366
0.036309473 0.03613208 0.035677455 0.036262076 0.036261167 0.03629447 0.036332875 0.036272317
0.036253393 0.036273688 0.03500429 0.036216166 0.034963258 0.036220763 0.036230717 0.036266513
0.03627281 0.036270745 0.036289338 0.03625849 0.036210198 0.03627497 0.03620248 0.036183067
0.036308553 0.03623725 0.035187636 0.035292193 0.036238197 0.036075417 0.035565138 0.036288932
0.035133127 0.03623541 0.036258694 0.036210053 0.036270738 0.03515038 0.036281392 0.035192586
0.036280114 0.035334624 0.03514982 0.036275372 0.036267105 0.03518619 0.036253378 0.036224704
0.035678044 0.03530714 0.036260605 0.036138736 0.035576183 0.036256723 0.035781927 0.03629775
0.03627741 0.036287364 0.036261078 0.036261097 0.036259186 0.036209878 0.036252815 0.036202487
0.036211137 0.03625704 0.03627465 0.035283804 0.03624028 0.036256727 0.036239367 0.03627738
0.03623896 0.036249276 0.036220126 0.03597968 0.036283463 0.036283635 0.036267277 0.036245998
0.036279168 0.0353161 0.036231525 0.036237895 0.036232598 0.03622537 0.035265755 0.03620762
0.036205873 0.03620555 0.03611082 0.036239028 0.035422474 0.036231354 0.03541543 0.036263242
0.036231887 0.036231037 0.03626331 0.03614171 0.03626342 0.03626213 0.035441376 0.036244445
0.03624842 0.03622586 0.03559283 0.03539968 0.036254395 0.03625666 0.03598829 0.03625012
0.03628696 0.036253594 0.03628751 0.036319148 0.03628668 0.03630898 0.03628331 0.036273234
0.036128864 0.035620794 0.03602274 0.036263417 0.036266755 0.036262486 0.036264546 0.036254898
0.03626776 0.036171395 0.036272757 0.035623144 0.03626973 0.036227636 0.036233954 0.036258653
0.036251176 0.036246777 0.036097392 0.0362242 0.036255572 0.036261115 0.036253754 0.03624496
00000000: 9966 143d ed05 133d 5ddb 143d b06b 143d
00000010: 6f77 133d d0e0 133d 846d 143d 3ec0 143d
00000020: a294 143d db55 143d a6af 143d 0346 113d
00000030: 53c0 143d a5c5 143d b68c 143d d58d 143d
00000040: 3926 153d c492 153d fd81 143d a5b5 143d
00000050: ca43 153d f3bd 0f3d 322f 153d 9568 143d
00000060: 7996 153d a566 143d 2672 143d 4eb4 143d
00000070: bace 133d 3d46 143d 3ecc 0f3d a258 143d
00000080: 1d68 143d 0cd0 133d 766d 143d 7965 143d
00000090: 9236 103d 285f 143d 99e7 133d d054 143d
000000a0: 918d 153d c61a 143d 8ce4 143d 7b4c 153d
000000b0: 296f 143d 89fb 143d 9372 143d 398f 143d
000000c0: 3857 153d 43fd 143d 3479 143d e260 143d
000000d0: 044c 143d cc39 153d 4416 143d 850a 143d
000000e0: df67 143d 4770 143d 8ce5 0e3d e77f 133d
000000f0: c848 143d 041e 143d f839 153d 5406 153d
00000100: 63b1 143d f624 153d 74b7 143d e3f2 0e3d
00000110: 63a6 143d 0894 143d 01b4 143d 2ca4 143d
00000120: b76b 143d 612e 153d 4360 143d 97d2 0e3d
00000130: 1945 143d 5149 103d 7085 103d de2e 143d
00000140: 9de2 0f3d 02e6 0e3d 76b8 143d 325b 143d
00000150: 254e 143d 5b45 0f3d e657 143d e275 113d
00000160: c335 0e3d 588c 143d 1be1 0e3d 10de 143d
00000170: 2287 0e3d ef13 143d 80c6 143d c189 143d
00000180: 2f6d 143d 7787 133d 2570 143d 4828 0e3d
00000190: 1469 143d 9014 0f3d a682 143d b43d 143d
000001a0: ce10 143d 934b 133d e26b 143d 42b3 143d
000001b0: c7a0 143d 61b0 143d 6681 143d d5da 133d
000001c0: 3eb9 143d 3bff 133d 8622 123d 8b87 143d
000001d0: 9786 143d 83a9 143d c8d1 143d 4892 143d
000001e0: 707e 143d b893 143d a960 0f3d 6757 143d
000001f0: a235 0f3d 395c 143d a966 143d 328c 143d
00000200: cc92 143d a290 143d 21a4 143d c883 143d
00000210: 2551 143d 1095 143d 0d49 143d b234 143d
00000220: 47b8 143d 836d 143d e920 103d 8c8e 103d
00000230: 816e 143d d1c3 133d c0ac 113d b4a3 143d
00000240: c1e7 0f3d 956b 143d ff83 143d fe50 143d
00000250: a090 143d d8f9 0f3d cc9b 143d 1a26 103d
00000260: 759a 143d 0abb 103d 42f9 0f3d 7c95 143d
00000270: d18c 143d 651f 103d 6c7e 143d 5b60 143d
00000280: 2423 123d 389e 103d 0086 143d 3606 143d
00000290: 55b8 113d ee81 143d 1290 123d f3ac 143d
000002a0: 9f97 143d 0fa2 143d 7f86 143d 8486 143d
000002b0: 8384 143d cf50 143d d57d 143d 0f49 143d
000002c0: 2152 143d 4382 143d ba94 143d c085 103d
000002d0: b070 143d ef81 143d bb6f 143d 9797 143d
000002e0: 4e6f 143d 1f7a 143d 8e5b 143d 6e5f 133d
000002f0: f89d 143d 269e 143d ff8c 143d af76 143d
00000300: 7799 143d 9da7 103d 8267 143d 306e 143d
00000310: a268 143d 0e61 143d d372 103d 714e 143d
00000320: 9c4c 143d 454c 143d f0e8 133d 606f 143d
00000330: 2817 113d 5467 143d c50f 113d c488 143d
00000340: e367 143d ff66 143d d688 143d 5409 143d
00000350: f488 143d 9987 143d fa2a 113d 0e75 143d
00000360: 3979 143d 9161 143d cac9 113d 41ff 103d
00000370: 7d7f 143d dd81 143d 7568 133d 017b 143d
00000380: a3a1 143d a67e 143d 36a2 143d 63c3 143d
00000390: 57a1 143d bab8 143d cf9d 143d 3e93 143d
000003a0: dcfb 133d 1ce7 113d 958c 133d f388 143d
000003b0: 738c 143d f987 143d 228a 143d 0480 143d
000003c0: 818d 143d 7528 143d be92 143d 93e9 113d
000003d0: 928f 143d 6e63 143d 0e6a 143d f483 143d
000003e0: 1d7c 143d 8077 143d dcda 133d d45f 143d
000003f0: b980 143d 8986 143d d17e 143d 9875 143d
