backend/model/lstm-ATHM-360-.pth (torch, 53964 bytes, 12 tensors)

conv1.weight f4 [2, 4, 3]
0	0xb52e264d	-6.4875786e-07
1	0xb528a5a8	-6.282594e-07
2	0xbbb0c674	-0.005394751
3	0x3a5acdbc	0.0008346697
4	0xb5984cc7	-1.1347228e-06
5	0xb5b9bb95	-1.3838168e-06
6	0xb5427148	-7.243548e-07
7	0xb51d483a	-5.859216e-07
8	0xb521a166	-6.021204e-07
9	0x3af5afea	0.0018744443
10	0xb5222090	-6.039709e-07
11	0xb9c16394	-0.0003688602
12	0x3b8f5bb5	0.004374946
13	0xb431db1e	-1.6564124e-07
14	0xbbed102a	-0.007234593
15	0x3c3e7992	0.011625664
16	0xb8f5c298	-0.00011718756
17	0xb67631fd	-3.6685954e-06
18	0xb4acd3fc	-3.2191735e-07
19	0xbc586c4a	-0.013209412
20	0x36b6a77e	5.4435213e-06
21	0x39acb97a	0.00032944587
22	0xb8b4fb7d	-8.629912e-05
23	0xb4ae9cb7	-3.252405e-07

conv1.bias f4 [2]
0	0xb5a684d4	-1.2406622e-06
1	0x3b315ea1	0.002706446

lstm.weight_ih_l0 f4 [80, 2]
0	0xac94141b	-4.208645e-12
1	0x2d966d10	1.710146e-11
2	0xb20e262b	-8.274166e-09
3	0x307d2087	9.208709e-10
4	0xb5672b89	-8.611756e-07
5	0x318ce3a7	4.1004173e-09
6	0xb1d01182	-6.055587e-09
7	0x34c88b2a	3.7354158e-07
8	0x3aa9cf7e	0.0012955514
9	0x3006da05	4.905874e-10
10	0xb29ff2f7	-1.8620524e-08
11	0x33867ec9	6.262923e-08
12	0x3b0953ed	0.0020954565
13	0x31e6e70b	6.7201475e-09
14	0xacc2096b	-5.5148572e-12
15	0xb6067ebd	-2.0041327e-06
16	0xad4a440b	-1.1497479e-11
17	0x3031769c	6.456078e-10
18	0x3b236870	0.0024934076
19	0x312460b9	2.3920121e-09
20	0x34b008cc	3.2788955e-07
21	0x33c4f536	9.171565e-08
22	0xaecc21af	-9.2828294e-11
23	0xb98c6c4b	-0.00026783565
24	0xb31c6931	-3.641725e-08
25	0x36780e3d	3.6963168e-06
26	0x394b904d	0.00019413345
27	0x33cb8d24	9.4785975e-08
28	0x2f941a3a	2.6939678e-10
29	0x3449e1f8	1.880179e-07
30	0xb157741c	-3.1352618e-09
31	0x3aafe436	0.0013419453
32	0x3896027f	7.153022e-05
33	0x30628642	8.2409113e-10
34	0xaf6cdd55	-2.1542708e-10
35	0xb82a82d4	-4.0653e-05
36	0x3af17b57	0.0018423599
37	0x368385d3	3.9196834e-06
38	0xba1534c3	-0.0005691761
39	0x3ad50ebd	0.0016255003
40	0xb3d3f94e	-9.8708014e-08
41	0x3aa6bd77	0.001272126
42	0xbb161de9	-0.0022906011
43	0x309d9349	1.1465114e-09
44	0x312c0912	2.503445e-09
45	0x30dc29c3	1.6018976e-09
46	0xb0f3e770	-1.7746355e-09
47	0x3287c073	1.5803584e-08
48	0xae586f9b	-4.921184e-11
49	0x2f9cfe4f	2.8556932e-10
50	0x373da7d3	1.13043525e-05
51	0x333dd3d9	4.4197666e-08
52	0xb9f8c55b	-0.00047449287
53	0x319d83fd	4.5843067e-09
54	0xad966180	-1.7096324e-11
55	0x2e1c66ea	3.55617e-11
56	0xad4c30b7	-1.1606874e-11
57	0x2e5390f6	4.8104597e-11
58	0xb568a326	-8.6664147e-07
59	0x390df15e	0.00013536724
60	0xb947c1ff	-0.00019050388
61	0x33cf2d8b	9.647473e-08
62	0xaf04221b	-1.2017447e-10
63	0x301a1a77	5.606248e-10
64	0xaf11bc4d	-1.3254571e-10
65	0x3a81f6af	0.0009915436
66	0xb88fdbaf	-6.8596906e-05
67	0xb8c8626c	-9.555076e-05
68	0xaeb5c9e5	-8.266791e-11
69	0xb8fcde63	-0.00012057719
70	0xb0e6d6c8	-1.6795747e-09
71	0x31ed62a6	6.908823e-09
72	0xaf550fce	-1.9377852e-10
73	0x321c3e24	9.094524e-09
74	0xb72cc8fb	-1.0298793e-05
75	0x303205ed	6.4764444e-10
76	0xbaa2aacd	-0.0012410522
77	0x32188d9d	8.879764e-09
78	0xb12f6ec2	-2.552881e-09
79	0x321915f4	8.910764e-09
80	0xb8104c86	-3.4403543e-05
81	0xb45aacaf	-2.0365654e-07
82	0xb4c0a015	-3.5879262e-07
83	0xbaa31b17	-0.0012443986
84	0xb5268f04	-6.2047934e-07
85	0xb7b04e14	-2.1017193e-05
86	0xb5b08e70	-1.3154477e-06
87	0x36a99cb3	5.0548347e-06
88	0x3ab667f7	0.0013916482
89	0xb53c18c9	-7.0071525e-07
90	0xb67439a9	-3.6392396e-06
91	0x379f36f7	1.8979872e-05
92	0xb53cffce	-7.04077e-07
93	0x3651a46a	3.1239128e-06
94	0x33f9fba1	1.1640737e-07
95	0x392fd982	0.00016770329
96	0xb683ceee	-3.928194e-06
97	0xb41bfaec	-1.4526785e-07
98	0x3553242c	7.865626e-07
99	0xb678a992	-3.7053583e-06
100	0xb6213eb7	-2.4027374e-06
101	0x3721e687	9.650022e-06
102	0xb65eda8e	-3.3207793e-06
103	0xbb15540e	-0.0022785696
104	0x36f3b62b	7.2631715e-06
105	0xb548a732	-7.474911e-07
106	0x36d9292b	6.4718965e-06
107	0xba467c9a	-0.00075716677
108	0xb9f64df8	-0.00046978868
109	0x35db8b95	1.6357395e-06
110	0x354f0e58	7.713438e-07
111	0x3a7a6b2f	0.0009552715
112	0xb4adb635	-3.2356334e-07
113	0x36c9fe17	6.0198468e-06
114	0x34aacba6	3.181314e-07
115	0xb5a5f476	-1.2364605e-06
116	0xbb0cf790	-0.0021509863
117	0x36814168	3.852114e-06
118	0xbaaa5873	-0.0012996331
119	0xb6d82a28	-6.4422093e-06
120	0x300d5760	5.141967e-10
121	0x3993c101	0.00028181824
122	0x38f401e0	0.00011635176
123	0x31f2531c	7.0525754e-09
124	0xaffb934b	-4.5761292e-10
125	0xbac3dfed	-0.0014944054
126	0xb1c85047	-5.8298926e-09
127	0x36e4fd2e	6.8244035e-06
128	0xae971f24	-6.872217e-11
129	0x2eb36100	8.157208e-11
130	0x3a3ff98c	0.0007323257
131	0x3342e699	4.5378872e-08
132	0x394bd86f	0.00019440216
133	0x3b1c9d0d	0.002389732
134	0x36d692bc	6.394779e-06
135	0x2e1ee6d7	3.6130068e-11
136	0x3002fb63	4.7650967e-10
137	0x3b2bc140	0.0026207715
138	0xb032f7e9	-6.5108324e-10
139	0x30b4423d	1.311555e-09
140	0xb31902ce	-3.562564e-08
141	0xbb3e2013	-0.0029010817
142	0xbb39b41c	-0.0028336113
143	0x2f96269e	2.731228e-10
144	0xaeb897f9	-8.394347e-11
145	0x39625fc6	0.00021588718
146	0xb2068d96	-7.8320195e-09
147	0x3463fb3a	2.1232418e-07
148	0x39cfdc4f	0.0003964626
149	0x2f812964	2.3494373e-10
150	0x37d97e0e	2.5927115e-05
151	0x31db64da	6.3852044e-09
152	0xaf734eb3	-2.2128681e-10
153	0xaf3138ac	-1.611819e-10
154	0xaf3b1d1c	-1.7017893e-10
155	0x3a3d1d3e	0.0007214135
156	0x37eb1201	2.8022567e-05
157	0x3209128a	7.978665e-09
158	0xbb3f0b77	-0.002915112
159	0x31a7b8e4	4.8813593e-09

lstm.weight_hh_l0 f4 [80, 20]
0	0xaad016eb	-3.6964125e-13
1	0xba390f0b	-0.00070594315
2	0xbaf3d08e	-0.0018601583
3	0x3b18d4df	0.002332024
4	0xab8587f7	-9.487956e-13
5	0x2df83a62	2.8220263e-11
6	0x39d96ac0	0.00041469
7	0xba0a5e27	-0.0005278312
8	0xbb033111	-0.002001826
9	0xac32d8b6	-2.541562e-12
10	0xb463b3a2	-2.1206372e-07
11	0x3812564b	3.488948e-05
12	0xb7288160	-1.0043703e-05
13	0xad2ea525	-9.927424e-12
14	0x2f9f77cb	2.900705e-10
15	0x2d2228cc	9.217693e-12
16	0x394f9d34	0.00019799621
17	0xabb28c91	-1.2686676e-12
18	0xbadc860a	-0.0016824615
19	0xad29bc51	-9.648352e-12
20	0x3927b275	0.00015992842
21	0x2f00ed69	1.1725877e-10
22	0x2f63b8f6	2.0711241e-10
23	0x30c2cddf	1.417387e-09
24	0xae8b1844	-6.3252986e-11
25	0x30de8778	1.6191128e-09
26	0x30a52098	1.2014594e-09
27	0xadf0ccd4	-2.7375803e-11
28	0xaefa3202	-1.1377567e-10
29	0xaeeb5efc	-1.07034354e-10
30	0x3101dcc0	1.8897452e-09
31	0x3796b27b	1.7964505e-05
32	0x3a32c9dc	0.00068202405
33	0x36186dc2	2.2713652e-06
34	0x2ebb8763	8.527825e-11
35	0x333d956f	4.41409e-08
36	0x2f47991d	1.8153341e-10
37	0xaef770fd	-1.125233e-10
38	0x307e4bf9	9.2512625e-10
39	0xafdf547c	-4.0623493e-10
40	0xbb293ade	-0.002582244
41	0xb6c3479a	-5.8197884e-06
42	0xb2c63ff0	-2.307931e-08
43	0x3119dc1a	2.2389544e-09
44	0x37a66ac5	1.983846e-05
45	0xb4d04595	-3.8793647e-07
46	0x312a9265	2.4821472e-09
47	0x3b2a05d1	0.0025943408
48	0xb7f19afb	-2.8801607e-05
49	0xaf93f863	-2.6915634e-10
50	0x31a5638f	4.8134505e-09
51	0x38044b52	3.15414e-05
52	0x38222d54	3.8666025e-05
53	0xb118eb1e	-2.225256e-09
54	0x2f256af5	1.5044661e-10
55	0xb0eb04b0	-1.7099833e-09
56	0xb1e2c889	-6.600264e-09
57	0x34a214c7	3.018997e-07
58	0x30a8170d	1.223016e-09
59	0xb0a2bf98	-1.1841506e-09
60	0xafe510fe	-4.166693e-10
61	0x311837d6	2.215065e-09
62	0xba81172b	-0.0009848824
63	0x37e8ad91	2.7737378e-05
64	0xb0e20721	-1.644569e-09
65	0x3b2875bc	0.002570494
66	0xbad2faa3	-0.0016096424
67	0xb0385c94	-6.707037e-10
68	0xb08ac69a	-1.0097267e-09
69	0xb6d140d0	-6.2362305e-06
70	0x36fefb94	7.5990774e-06
71	0x39af066a	0.0003338338
72	0xb8d5c494	-0.00010193247
73	0x3a28242e	0.00064140826
74	0x39932454	0.00028065091
75	0xb24c9600	-1.1908469e-08
76	0x39191997	0.0001460075
77	0xbaf90765	-0.0018999396
78	0x3a77fea3	0.0009460246
79	0xba5d41e0	-0.0008440297
80	0x398f67b3	0.00027352347
81	0x2deafdec	2.6715484e-11
82	0x2e47bd63	4.541557e-11
83	0x2f414989	1.7579373e-10
84	0xad5d2283	-1.2570059e-11
85	0x2d6880c6	1.3216267e-11
86	0x2ed4c038	9.674789e-11
87	0xacf35827	-6.9162623e-12
88	0xad449507	-1.1174401e-11
89	0xadad62fd	-1.9711783e-11
90	0x300ed250	5.195817e-10
91	0x2da415a3	1.865425e-11
92	0xada008f1	-1.8193865e-11
93	0xaf97dcbf	-2.762359e-10
94	0xb72b1542	-1.0197344e-05
95	0xaf110bc2	-1.319185e-10
96	0x2df30ad5	2.7630712e-11
97	0xb71ae93b	-9.2334185e-06
98	0xbaca76b8	-0.0015446758
99	0xb92f9489	-0.00016744634
100	0x354a301f	7.532089e-07
101	0xb8a1ab7a	-7.709018e-05
102	0x3ad7e344	0.0016470929
103	0xba3918a5	-0.0007060862
104	0xb18ba673	-4.0643555e-09
105	0x33d35b95	9.842112e-08
106	0x38264453	3.9641116e-05
107	0xb1009ab1	-1.8714383e-09
108	0xb18f433b	-4.169491e-09
109	0xb4a00d01	-2.9811784e-07
110	0x3659015f	3.2336318e-06
111	0x31f7e7ad	7.2149846e-09
112	0xb280d0f9	-1.4996191e-08
113	0xb3eda95a	-1.10669774e-07
114	0x36db7a2a	6.5409304e-06
115	0xb311ada1	-3.3918358e-08
116	0x347a56a9	2.3314591e-07
117	0xb1d2d31c	-6.1358048e-09
118	0x3602f5f0	1.9514664e-06
119	0x377e5c54	1.5161077e-05
120	0x39566e7c	0.00020449789
121	0x30a7e1aa	1.2214987e-09
122	0xb9fed3b5	-0.0004860439
123	0x33d7360b	1.0021548e-07
124	0xb22c0750	-1.001338e-08
125	0x322cd325	1.0059726e-08
126	0x31211c1d	2.3444564e-09
127	0xaf439f3d	-1.779172e-10
128	0x37ce3c22	2.4585115e-05
129	0x3a2daad9	0.00066248846
130	0x3b27b47f	0.0025589762
131	0x308354e1	9.555629e-10
132	0xb03b0e83	-6.8050826e-10
133	0xb22975df	-9.8638955e-09
134	0x3ab17e73	0.0013541713
135	0xb173c478	-3.5472834e-09
136	0x313e1d73	2.7665379e-09
137	0xbace9e60	-0.0015763752
138	0x315ecfa5	3.2423284e-09
139	0xb1912f46	-4.22543e-09
140	0xaae499c0	-4.0607621e-13
141	0x2d46ebef	1.1307385e-11
142	0xbb09c1ed	-0.002102013
143	0x3608d93b	2.0392024e-06
144	0xac2597b3	-2.353212e-12
145	0x3029e75c	6.1810623e-10
146	0x34170de6	1.4068027e-07
147	0xabb2b8bd	-1.2698936e-12
148	0x39ec19cf	0.00045032657
149	0x364a28e4	3.0124147e-06
150	0x2ee3b9f2	1.03557954e-10
151	0x2ce2e97e	6.449229e-12
152	0x38ddc974	0.00010575625
153	0x383ac205	4.452655e-05
154	0x2ce55494	6.5179615e-12
155	0xb99b64f4	-0.0002963912
156	0x37579690	1.2850054e-05
157	0xaca5a001	-4.707346e-12
158	0x3b0c48df	0.002140574
159	0x3a94aff8	0.0011343947
160	0xad9b7100	-1.7671642e-11
161	0x3916f0bd	0.00014394797
162	0x2d58f651	1.2332872e-11
163	0x2e61f666	5.1377923e-11
164	0x35577491	8.026337e-07
165	0x2eb3d6a1	8.178103e-11
166	0x331ddd63	3.675576e-08
167	0xbb0f291f	-0.0021844578
168	0xac51a8a7	-2.9794307e-12
169	0xb7af273a	-2.0879892e-05
170	0x2f4472fc	1.7866947e-10
171	0x2c3b6050	2.6627762e-12
172	0xac8accbe	-3.944927e-12
173	0xaeb2f7ca	-8.138519e-11
174	0x2c822b11	3.6996036e-12
175	0x30928ca4	1.0662871e-09
176	0x2b172f61	5.371173e-13
177	0xb9a71809	-0.0003187063
178	0xbb41e256	-0.002958437
179	0xb6976adf	-4.512592e-06
180	0xadfdcb51	-2.885306e-11
181	0x32952a44	1.7365103e-08
182	0xb1512a21	-3.043745e-09
183	0x30ab64f6	1.2470582e-09
184	0xaeb05364	-8.0183665e-11
185	0x39945fe0	0.00028300192
186	0x329abafa	1.8012987e-08
187	0x337f4b0c	5.944007e-08
188	0xae8dff2a	-6.457264e-11
189	0xaf30c50e	-1.6077115e-10
190	0x3130d772	2.5733837e-09
191	0x2f90b17a	2.6319552e-10
192	0xaf25ec6a	-1.5090654e-10
193	0xb09a81fc	-1.1241919e-09
194	0xb9a6aa54	-0.00031788892
195	0xb8446a70	-4.682917e-05
196	0x2f4f1f74	1.8837715e-10
197	0xaf4768b4	-1.8136143e-10
198	0x30cd84cb	1.4953455e-09
199	0xb0a82cd2	-1.2236347e-09
200	0xb1052a7b	-1.9378195e-09
201	0x32512a1a	1.2174974e-08
202	0x32ab3b89	1.9934093e-08
203	0x33b4d19b	8.42003e-08
204	0xba2bae03	-0.0006549062
205	0x35df4321	1.6634332e-06
206	0x3a254bd1	0.0006305548
207	0xba4cf4b3	-0.00078184454
208	0xb1b806c1	-5.3558726e-09
209	0xb2abc096	-1.9994598e-08
210	0x3b1052dd	0.0022022047
211	0xbaf41a22	-0.0018623511
212	0xb227b942	-9.762802e-09
213	0xb4521aa1	-1.9567462e-07
214	0xb8aefc68	-8.343981e-05
215	0xb89c7264	-7.4599666e-05
216	0x32a630a7	1.9347068e-08
217	0x391de0dd	0.00015056455
218	0x3442cc3e	1.8141961e-07
219	0xb364fb33	-5.331385e-08
220	0xadca4e7d	-2.2999597e-11
221	0x2ea3cd2f	7.44883e-11
222	0x2eb4baeb	8.2186556e-11
223	0x2fe65b77	4.1901746e-10
224	0xb01b1e1b	-5.6431454e-10
225	0x323d058a	1.1002507e-08
226	0x38b9d3ce	8.860939e-05
227	0xadc3109e	-2.2176313e-11
228	0xad767a76	-1.4010673e-11
229	0xb6ac6e10	-5.1388124e-06
230	0x3086cf00	9.808616e-10
231	0x2e0e5bdc	3.236865e-11
232	0x2f134579	1.3394254e-10
233	0xb10001a7	-1.862739e-09
234	0x2de5f7a3	2.6144259e-11
235	0xaf90f901	-2.6370375e-10
236	0xb311c5b8	-3.3940267e-08
237	0xb13cade2	-2.7456442e-09
238	0xb83d2aab	-4.510085e-05
239	0xafae60df	-3.1719247e-10
240	0xb02e7821	-6.3471545e-10
241	0x2dcfd27b	2.3626648e-11
242	0x2eb7c6fe	8.3572246e-11
243	0x2f9b9742	2.830181e-10
244	0xb6ae949c	-5.2029045e-06
245	0x304a9298	7.3695494e-10
246	0x337b3b23	5.8494276e-08
247	0x35709ea2	8.963781e-07
248	0xadab731f	-1.9491573e-11
249	0x31a381e6	4.758692e-09
250	0x30cd4a7a	1.4936881e-09
251	0x3957e04e	0.00020587558
252	0xae26b75e	-3.7906893e-11
253	0xbb06f2c6	-0.0020591482
254	0xb1a8ff33	-4.9184563e-09
255	0xaf84b391	-2.413825e-10

lstm.bias_ih_l0 f4 [80]
0	0x31e65e7d	6.704623e-09
1	0xbb29bb21	-0.002589889
2	0x351f2d31	5.929788e-07
3	0x3798370b	1.8145443e-05
4	0x33719dca	5.6255693e-08
5	0x3785ab19	1.5934509e-05
6	0x3603fd29	1.966788e-06
7	0x381b1f6f	3.6984155e-05
8	0xbb1e35c3	-0.0024140931
9	0x34ba5dab	3.4713352e-07
10	0x37e514b0	2.730856e-05
11	0x3b1672b1	0.0022956545
12	0x34162d0e	1.398623e-07
13	0x37181d49	9.0667245e-06
14	0xba1d0024	-0.00059890957
15	0x367be80c	3.7536984e-06
16	0x397a42f9	0.00023866807
17	0x3411943f	1.3558109e-07
18	0x3631e20f	2.6506639e-06
19	0x3629e31b	2.5315155e-06
20	0x3945af31	0.00018852648
21	0x3494c79f	2.7712392e-07
22	0x3a44656d	0.000749192
23	0x36db6cea	6.539388e-06
24	0x337a8c17	5.8335072e-08
25	0x3760e748	1.340529e-05
26	0x36025361	1.9420042e-06
27	0x3279a414	1.4531015e-08
28	0x388c36c4	6.685921e-05
29	0xb86b3e9e	-5.6086683e-05
30	0x3acf637d	0.0015822496
31	0x3439ec98	1.731554e-07
32	0x34475bcd	1.8566716e-07
33	0x370d46ea	8.420766e-06
34	0x33be6292	8.865494e-08
35	0x39b26db1	0.00034032532
36	0x37d2a0d6	2.5108846e-05
37	0x347f7d39	2.3794281e-07
38	0x362dcaa7	2.5896968e-06
39	0x39592207	0.00020707409
40	0xb8a0f68d	-7.675318e-05
41	0x39f0d2b8	0.00045933365
42	0x3a3ca214	0.00071957824
43	0x3b981b6a	0.00464194
44	0xb943240e	-0.0001861008
45	0x3bf46b0d	0.0074590505
46	0x3aa502ce	0.0012589337
47	0xb8c91cb1	-9.589771e-05
48	0xb9ad79b0	-0.00033087796
49	0xba21d8dc	-0.0006173977
50	0x3c0eea0e	0.008722795
51	0x39a127bf	0.00030737926
52	0xb9e2ded2	-0.00043272093
53	0xbafb1b35	-0.0019157889
54	0x3987b011	0.00025880386
55	0xbb6c53ae	-0.003606062
56	0x3a433933	0.0007447183
57	0xb9c2a37c	-0.0003712437
58	0x3b3458b4	0.0027518691
59	0xbb2b06a8	-0.0026096497
60	0xbb09194f	-0.0020919626
61	0x398d05e0	0.00026897993
62	0x39309aea	0.00016842378
63	0x3784c51e	1.5827416e-05
64	0x335f3998	5.1973615e-08
65	0x37ff6c6a	3.0448853e-05
66	0x3618a1ed	2.2744018e-06
67	0x39bcc1a4	0.00036002428
68	0x325b2b18	1.2757276e-08
69	0xb5f2e16c	-1.8096011e-06
70	0xbac2bcba	-0.001485727
71	0x33bdcdbf	8.838423e-08
72	0xb9729971	-0.0002313608
73	0x373b4500	1.1162134e-05
74	0x3ac58640	0.0015069917
75	0x36143014	2.2081704e-06
76	0xba021629	-0.00049624086
77	0x3463470f	2.1166873e-07
78	0x36218de3	2.4073458e-06
79	0x3a143f2d	0.0005655166

lstm.bias_hh_l0 f4 [80]
0	0xbb05d237	-0.0020419487
1	0x348fbec3	2.6774623e-07
2	0x39ff953b	0.00048748576
3	0xb79031a7	-1.7189259e-05
4	0x335141eb	4.8721557e-08
5	0x3785ba76	1.5941663e-05
6	0x36912542	4.325674e-06
7	0x34483b5d	1.8648048e-07
8	0x328764bf	1.5761882e-08
9	0xbb0a2da9	-0.0021084344
10	0x385eac53	5.3089414e-05
11	0x3a1d626b	0.000600374
12	0x3424e7ab	1.535797e-07
13	0x390100a4	0.00012302637
14	0x33ae9960	8.130405e-08
15	0x36557cf9	3.1812217e-06
16	0x34a0d867	2.9959776e-07
17	0x34245fd0	1.5308547e-07
18	0x3a895dff	0.0010480284
19	0x362710a8	2.4894634e-06
20	0x31b5c018	5.289632e-09
21	0x379c55ab	1.8636541e-05
22	0x38a7cb59	8.001057e-05
23	0xbb09b100	-0.0021010041
24	0x34247b52	1.5318554e-07
25	0x3a709620	0.0009177644
26	0x35d7c0cd	1.6074861e-06
27	0x33105152	3.3601573e-08
28	0x34a44030	3.0594083e-07
29	0x350b60d6	5.192245e-07
30	0x37cb3cf2	2.4227866e-05
31	0x33a5d499	7.7220825e-08
32	0xb6e46389	-6.806517e-06
33	0xb983a1db	-0.0002510686
34	0x33cbf371	9.497206e-08
35	0x363cd3bd	2.813743e-06
36	0x344d105f	1.9098069e-07
37	0x34105e50	1.3445356e-07
38	0x3b21b405	0.002467395
39	0x3698654a	4.5417446e-06
40	0xb896c568	-7.189327e-05
41	0x3a056972	0.000508926
42	0x3a48dcaf	0.0007662279
43	0x3acdf0fc	0.0015712078
44	0xb9aed997	-0.00033349983
45	0x3b876e14	0.0041329954
46	0x3b0585a1	0.0020373838
47	0xb90dbda8	-0.0001351746
48	0xb895c9e5	-7.1424794e-05
49	0xba156e01	-0.0005700291
50	0x3c08a180	0.008339286
51	0x39aa2344	0.00032451202
52	0xb9947623	-0.00028316778
53	0xbbdddc0c	-0.0067706164
54	0x398a602f	0.00026393073
55	0xba5edbbf	-0.00085013726
56	0x3a022849	0.00049651094
57	0xb9f8a27d	-0.0004742331
58	0x3a9708e6	0.0011523038
59	0xba995ed7	-0.0011701238
60	0x39873fd9	0.00025796777
61	0x346a6167	2.1828383e-07
62	0x38fd3011	0.00012072933
63	0x36a7a291	4.995913e-06
64	0x33733542	5.6626284e-08
65	0x377d4d3d	1.5097959e-05
66	0x3b29f8ec	0.0025935723
67	0xbad4ae97	-0.0016226348
68	0x3221a383	9.408612e-09
69	0x34efe440	4.4683293e-07
70	0x38288a1d	4.018295e-05
71	0x3446b81f	1.850717e-07
72	0xb9a168d0	-0.00030786404
73	0xb80ac01e	-3.3080687e-05
74	0x33aa37a9	7.9263664e-08
75	0x36a3d8cf	4.8830184e-06
76	0x3473563a	2.2662508e-07
77	0x3a82e7e9	0.0009987328
78	0x3651e2c1	3.1275415e-06
79	0x36e955bd	6.9539224e-06

lstm.weight_ih_l1 f4 [80, 20]
0	0xb7260750	-9.896074e-06
1	0x385fb08f	5.3331776e-05
2	0xba8809ec	-0.0010378934
3	0x39194495	0.00014616766
4	0xb727947a	-9.988546e-06
5	0x399b43c6	0.000296144
6	0x38abba0d	8.18857e-05
7	0xb6c98f25	-6.006931e-06
8	0xba995a4e	-0.0011699887
9	0xb812ca2d	-3.4997403e-05
10	0xbafd15de	-0.0019308885
11	0x37826646	1.5544832e-05
12	0xb90a1dd1	-0.00013171813
13	0xb9860d35	-0.00025568312
14	0x37ba54cc	2.2212414e-05
15	0xb8caf750	-9.678176e-05
16	0x386f33df	5.703035e-05
17	0x3aae1d58	0.0013283892
18	0xb9ef8cd9	-0.00045690572
19	0xba8e5f87	-0.001086221
20	0xb65037ff	-3.102701e-06
21	0xba838a5d	-0.0010035742
22	0x38724809	5.7764384e-05
23	0x3993e967	0.00028211923
24	0xb768e91b	-1.3882552e-05
25	0x39e37694	0.00043385162
26	0x38a1372d	7.6873555e-05
27	0xbb11a222	-0.0022221883
28	0xb72c4fcc	-1.0270578e-05
29	0xb8b5cc8e	-8.668854e-05
30	0x3a12ed4a	0.0005604817
31	0x37660842	1.3710991e-05
32	0x380986b6	3.2788805e-05
33	0xb9a976fd	-0.00032322845
34	0x37bd7249	2.2583774e-05
35	0xb8f5cd1e	-0.000117207164
36	0x3804bcdb	3.1647138e-05
37	0xb7b4c8c1	-2.1551155e-05
38	0xbb132e9c	-0.0022458201
39	0xb8c6cb72	-9.4792704e-05
40	0xb65a487f	-3.252673e-06
41	0xba6fc7ba	-0.0009146888
42	0x3857e531	5.1473446e-05
43	0x3a54d565	0.00081189565
44	0xb73f5c84	-1.1406028e-05
45	0x39be5929	0.00036306054
46	0x38cc8af1	9.753358e-05
47	0xb6b9faa5	-5.5426085e-06
48	0xb731517d	-1.0568995e-05
49	0xb7de6b57	-2.6514446e-05
50	0x3a0630d9	0.0005118973
51	0x379aad3f	1.8438905e-05
52	0x37f6dd1e	2.9428451e-05
53	0x39547376	0.00020260908
54	0x3744cf0d	1.1730718e-05
55	0xba1a67c7	-0.0005890098
56	0x38247e7c	3.9218445e-05
57	0xb7c62843	-2.3622188e-05
58	0x3b0c2e2a	0.002138982
59	0x399cba75	0.0002989356
60	0x3b15c6e1	0.0022854137
61	0x37c57795	2.3539915e-05
62	0xba4a9176	-0.0007727364
63	0x39132095	0.0001403115
64	0x3a241678	0.00062594516
65	0x3b2178b6	0.00246386
66	0x3886a531	6.420387e-05
67	0xb6ae2e23	-5.190975e-06
68	0xb791bc67	-1.7373079e-05
69	0xb7e7e597	-2.7644257e-05
70	0x39cc6932	0.0003898829
71	0x380acb4c	3.30911e-05
72	0xb79fe1f9	-1.9059504e-05
73	0xb960b3d7	-0.000214293
74	0x37a698ea	1.9859948e-05
75	0xbb36df47	-0.002790408
76	0x3823a70d	3.9017807e-05
77	0xb921ab4f	-0.00015417974
78	0x38c33bab	9.3094386e-05
79	0xb91293ad	-0.00013978659
80	0xb6658863	-3.4203047e-06
81	0x3962b436	0.00021620173
82	0x38120efd	3.482307e-05
83	0x39282151	0.0001603414
84	0xb6da5370	-6.5066197e-06
85	0x399c2fb6	0.00029790186
86	0x38cfcae9	9.908324e-05
87	0xb75f8797	-1.3323405e-05
88	0xb7cfef14	-2.4787652e-05
89	0xba543fee	-0.00080966845
90	0x3a91b84e	0.0011117549
91	0x37abf6a1	2.0499634e-05
92	0xb78c2962	-1.6708571e-05
93	0xb95ec917	-0.00021246482
94	0x37616213	1.343388e-05
95	0xb937bce0	-0.00017522601
96	0xbb1e54ef	-0.002415951
97	0xb7a0cb2d	-1.9168097e-05
98	0x38b9ccb3	8.8596156e-05
99	0xb939bf86	-0.00017714323
100	0xb65627a1	-3.1911552e-06
101	0x37e35394	2.7099428e-05
102	0x3828079c	4.0061408e-05
103	0x3962d984	0.0002163407
104	0xb749f12f	-1.20366885e-05
105	0x3abcf2b3	0.0014415592
106	0x38ca2ed0	9.64083e-05
107	0xb6e1703c	-6.7185883e-06
108	0xb929e2aa	-0.00016201535
109	0xb8017e2c	-3.0873503e-05
110	0x39afaf15	0.00033509047
111	0x378545b7	1.5887299e-05
112	0xb90e296e	-0.00013557609
113	0xba880806	-0.0010378368
114	0x375d0623	1.3174055e-05
115	0xb8d0c921	-9.955676e-05
116	0x382ab8ea	4.0703373e-05
117	0xb791022d	-1.728636e-05
118	0x38c5edee	9.43801e-05
119	0xbb18d278	-0.0023318809
120	0xb85b8631	-5.2338644e-05
121	0x37a91bc6	2.0159303e-05
122	0x38ea0605	0.00011159111
123	0x39099a88	0.00013122906
124	0xb89ae4ae	-7.385887e-05
125	0x398484a4	0.00025275827
126	0x3b11a9fe	0.0022226567
127	0xb6b3b004	-5.3551066e-06
128	0xbad47eeb	-0.0016212141
129	0xb84ae567	-4.83742e-05
130	0x39e95001	0.0004450083
131	0x38073dcf	3.2244072e-05
132	0xb7c4caa5	-2.3459384e-05
133	0xbb206381	-0.0024473371
134	0xba506e92	-0.00079510466
135	0xb90adc62	-0.00013242805
136	0x38012f78	3.0800205e-05
137	0xb95f3904	-0.00021288177
138	0x38cdbf59	9.810803e-05
139	0xb949e039	-0.00019252383
140	0xb6619ef2	-3.362013e-06
141	0x379c9376	1.8665316e-05
142	0x381294af	3.4947585e-05
143	0x3963b71a	0.00021716618
144	0xb7685826	-1.3848801e-05
145	0x3a9439f4	0.0011308775
146	0x38be0705	9.0612135e-05
147	0xb6c3ceec	-5.8355417e-06
148	0xb71544af	-8.897084e-06
149	0xb9b8c40d	-0.00035241284
150	0x39f2835f	0.00046255716
151	0x37aa0443	2.0267564e-05
152	0xb7850a66	-1.5859678e-05
153	0xb988a4cb	-0.00026062722
154	0x375e3b67	1.3246062e-05
155	0xb90de0f0	-0.00013530604
156	0xba7d116a	-0.0009653779
157	0xb7aaa6ed	-2.034331e-05
158	0x38ba8917	8.894706e-05
159	0xb9413dc7	-0.00018428928
160	0xb66bdb69	-3.5145442e-06
161	0x3807bb99	3.2361222e-05
162	0x38318022	4.231942e-05
163	0x39524f72	0.00020056756
164	0xbb1890d7	-0.002327969
165	0x3a1fc7f4	0.0006095164
166	0x38cd7b4a	9.798126e-05
167	0xb6bfa4b8	-5.7114194e-06
168	0xb757b589	-1.2857266e-05
169	0xb746e082	-1.1853992e-05
170	0x39920cdf	0.0002785688
171	0x3a527e34	0.000802967
172	0xba09d4ec	-0.0005257863
173	0xb99033dd	-0.00027504461
174	0x3ab91862	0.0014121647
175	0xb900cf19	-0.00012284181
176	0x391dc25f	0.00015045096
177	0xb8e92e8c	-0.00011118976
178	0x38d55a98	0.00010173506
179	0xb8d50b4a	-0.00010158734
180	0xb6557710	-3.1808777e-06
181	0x37a050c5	1.9111098e-05
182	0x3a6a559b	0.0008939148
183	0x39a9edf5	0.00032411484
184	0xba1b487e	-0.0005923583
185	0x39bd1c02	0.00036069757
186	0x38ca12c9	9.6356096e-05
187	0xb708c3c1	-8.151809e-06
188	0x377c3cff	1.5034572e-05
189	0xb7f778f1	-2.9501012e-05
190	0x3a1dca0b	0.00060191815
191	0x37bbc96f	2.2385937e-05
192	0xb7a11062	-1.9200324e-05
193	0xbaf48f41	-0.0018658416
194	0x376c43d6	1.408249e-05
195	0xbb15b1e5	-0.002284163
196	0x39c03141	0.0003665779
197	0xb858840d	-5.1621395e-05
198	0x39158f22	0.00014263068
199	0xba4a1f7a	-0.0007710379
200	0xb65a72c9	-3.2551345e-06
201	0x381ea2c5	3.7821726e-05
202	0x383afd26	4.458162e-05
203	0x38ff5c79	0.00012176572
204	0xba4c6ffa	-0.0007798668
205	0xbb156f73	-0.0022802025
206	0x38ea5200	0.00011173263
207	0xb7be559e	-2.2689634e-05
208	0xb72fe7e5	-1.0484805e-05
209	0xb90c101c	-0.00013357442
210	0x39dcde7c	0.00042127434
211	0x379c172e	1.8607443e-05
212	0xb7e45623	-2.7219829e-05
213	0xb902e145	-0.00012481686
214	0x37a5ce70	1.9765663e-05
215	0xb8fedbf4	-0.00012152633
216	0x384fe7b8	4.956845e-05
217	0xb9e0bbe3	-0.00042864596
218	0x38cfec6e	9.9145676e-05
219	0xb8bfd034	-9.1463706e-05
220	0x3a663051	0.00087810034
221	0x3a74bcb8	0.00093359826
222	0x383f7d14	4.5654437e-05
223	0x397e4989	0.00024250722
224	0xb755cc0e	-1.27432995e-05
225	0x3985449a	0.0002541885
226	0xba02b541	-0.00049861154
227	0xb780c363	-1.5349773e-05
228	0xb92ce280	-0.00016487576
229	0xb83098b6	-4.2103893e-05
230	0x3b46e31c	0.003034777
231	0xbb0d113f	-0.0021525172
232	0xb853313c	-5.0352173e-05
233	0xbabf0fe3	-0.0014576878
234	0x37504309	1.2413374e-05
235	0xb8d0de82	-9.959658e-05
236	0x3842a5a8	4.6407484e-05
237	0xba55e7c4	-0.0008159841
238	0x38c8c8f7	9.574176e-05
239	0xb894f561	-7.102895e-05
240	0xb63f45e2	-2.8501895e-06
241	0x37ea7e84	2.7953887e-05
242	0x38653174	5.464391e-05
243	0x39334fdc	0.0001710052
244	0xb72da924	-1.0350985e-05
245	0x39f13aa1	0.00046010784
246	0x38a30f98	7.77535e-05
247	0xb6f563a5	-7.313169e-06
248	0xb7032189	-7.8160165e-06
249	0xb872efa0	-5.7920464e-05
250	0x39d3e6d2	0.0004041703
251	0x37d54d8a	2.5427686e-05
252	0xb7bdaec3	-2.2611935e-05
253	0xb95a9d5f	-0.00020848725
254	0x375be77e	1.3107316e-05
255	0xba034422	-0.0005007406

lstm.weight_hh_l1 f4 [80, 20]
0	0xbd05d56f	-0.03267425
1	0x3d067ca0	0.032833695
2	0x3cbee258	0.023301288
3	0x3d04af72	0.03239388
4	0xbd0885cf	-0.033330735
5	0x3cdab7a4	0.026698895
6	0xbd013c59	-0.031551693
7	0x3cfaacfe	0.030600067
8	0x3d08951c	0.033345327
9	0xbcf483d7	-0.029848022
10	0x3ce1e200	0.027573586
11	0xbce54738	-0.027988061
12	0x3cff99eb	0.031201323
13	0x3cf7ca85	0.030247936
14	0xbcee10c2	-0.029060725
15	0xbcf6be91	-0.030120166
16	0xbcffb991	-0.031216415
17	0xbc72efb5	-0.014827658
18	0x3d016ca6	0.031597756
19	0xbd0574c4	-0.03258206
20	0xbd0c5d2b	-0.03426854
21	0x3d010a9d	0.031504262
22	0x3cc6224c	0.024186276
23	0x3d00d00a	0.0314484
24	0xbd0438b1	-0.032280628
25	0x3cda87a9	0.026676016
26	0xbd0103bd	-0.031497706
27	0x3d0220a2	0.031769402
28	0x3d03ea18	0.03220567
29	0xbcf7f5bb	-0.03026854
30	0x3ce68161	0.028137865
31	0xbce174a5	-0.02752144
32	0x3cfd78e7	0.03094144
33	0x3cf5f146	0.030022275
34	0xbcf48c5e	-0.029852089
35	0xbd0222ff	-0.031771656
36	0xbcfe6786	-0.031055223
37	0xbc693a3f	-0.014235078
38	0x3d0a0618	0.033697218
39	0xbd06b6ff	-0.032889362
40	0xbcea2eae	-0.028586712
41	0x3cc57880	0.02410531
42	0x3ccbc3c0	0.024873614
43	0x3cf97c19	0.030454682
44	0xbce22146	-0.027603757
45	0x3ccc8288	0.024964586
46	0xbcfc700f	-0.030815152
47	0x3cc0cbbc	0.023534648
48	0x3cfb2c22	0.030660693
49	0xbcdea238	-0.027176961
50	0x3cb5dd8c	0.022200368
51	0xbc886b03	-0.01665259
52	0x3cdbcc10	0.026830703
53	0x3cf4bfbe	0.029876586
54	0xbcf8a887	-0.030353798
55	0xbcfacbf1	-0.030614825
56	0xbcae413a	-0.021271337
57	0xbc83fede	-0.016112741
58	0x3cfaeca2	0.030630413
59	0xbcfd4719	-0.030917691
60	0xbcfdc11c	-0.03097587
61	0x3d0832e1	0.033251647
62	0x3cbd6782	0.023120645
63	0x3d02f6fc	0.031973824
64	0xbd00fc03	-0.031490337
65	0x3cf374f2	0.02971885
66	0xbd05507d	-0.032547463
67	0x3cfc5c38	0.030805692
68	0x3d00141b	0.031269174
69	0xbcfab7a0	-0.030605137
70	0x3ce4f849	0.027950423
71	0xbcd42b2b	-0.02589949
72	0x3d003091	0.031296317
73	0x3cfeb03a	0.03108989
74	0xbd03990c	-0.03212838
75	0xbd0c7480	-0.03429079
76	0xbd02d2bb	-0.03193925
77	0xbc8573e6	-0.016290616
78	0x3cfe13e5	0.031015346
79	0xbd00c6b7	-0.03143951
80	0xbd075044	-0.03303553
81	0x3cfdbf86	0.030975115
82	0x3cd75075	0.026283482
83	0x3d026c13	0.03184135
84	0xbd027155	-0.031846363
85	0x3cbca01b	0.023025563
86	0xbd05cf85	-0.03266861
87	0x3d00b664	0.03142394
88	0x3cfa4671	0.030551167
89	0xbcfaf9f9	-0.030636774
90	0x3cfe98b4	0.031078674
91	0xbcd600dd	-0.026123459
92	0x3cfc36b1	0.030787798
93	0x3d030c43	0.031994116
94	0xbd033e89	-0.03204206
95	0xbcfe4dfc	-0.031043045
96	0xbd08fbcc	-0.033443257
97	0xbc64b0a9	-0.013958135
98	0x3d072273	0.032991838
99	0xbd061c1b	-0.032741647
100	0xbced1fab	-0.028945765
101	0x3cf5f46d	0.030023778
102	0x3c975afa	0.018475998
103	0x3cf428b5	0.029804567
104	0xbcf303e4	-0.029664941
105	0x3cbff38d	0.023431564
106	0xbcdbec5d	-0.026846105
107	0x3cec91c6	0.028878104
108	0x3cf4cb5e	0.02988213
109	0xbcecd7f7	-0.028911574
110	0x3cd48ef3	0.02594707
111	0xbcef19b7	-0.029187066
112	0x3cf3aec8	0.029746428
113	0x3cd39c8b	0.025831481
114	0xbcdced9a	-0.026968766
115	0xbd00bc7c	-0.031429753
116	0xbce5d70e	-0.028056648
117	0xbc899513	-0.016794717
118	0x3ca77048	0.020439282
119	0xbcf43628	-0.02981098
120	0xbd063ada	-0.03277097
121	0x3d00354f	0.03130084
122	0x3ca6ea96	0.020375531
123	0x3d02f067	0.031967547
124	0xbcff0eab	-0.031134924
125	0x3cdadf49	0.026717799
126	0xbd08ad52	-0.033368416
127	0x3d00abd4	0.031413868
128	0x3d0bf32e	0.03416746
129	0xbcfd983f	-0.030956386
130	0x3cbccba9	0.023046331
131	0xbcd14740	-0.02554667
132	0x3d002131	0.031281654
133	0x3d0599bd	0.03261732
134	0xbd0394cc	-0.032124326
135	0xbd0353a8	-0.032062203
136	0xbd02a684	-0.031897083
137	0xbc4c9e50	-0.0124889165
138	0x3d083785	0.033256073
139	0xbd026f0f	-0.031844195
140	0xbd02b34e	-0.03190928
141	0x3d0475af	0.032338794
142	0x3cd88f19	0.026435422
143	0x3d02d3cc	0.031940266
144	0xbcfe9aa0	-0.03107959
145	0x3ca5c97c	0.020237677
146	0xbd07b860	-0.033134818
147	0x3cfc3f7d	0.030791992
148	0x3cfbd69e	0.030741986
149	0xbcfa4738	-0.030551538
150	0x3cd9415d	0.026520425
151	0xbce69e3c	-0.028151624
152	0x3cfa9558	0.03058879
153	0x3cfa3bf7	0.030546172
154	0xbd02e9a5	-0.031961102
155	0xbcfcfc7b	-0.03088211
156	0xbd010001	-0.031494144
157	0xbc1e303e	-0.0096550565
158	0x3cf7b22a	0.030236322
159	0xbd01f2b5	-0.031725604
160	0xbd00cdd3	-0.03144629
161	0x3cf0a8ab	0.029377302
162	0x3cdb34a2	0.026758496
163	0x3d078696	0.033087336
164	0xbcee7527	-0.029108597
165	0x3cc024bd	0.023455018
166	0xbcfcd00e	-0.030860927
167	0x3d007ef1	0.03137106
168	0x3d023743	0.031790983
169	0xbcece6a9	-0.028918581
170	0x3ccd4337	0.025056465
171	0xbce45382	-0.02787185
172	0x3d028e9c	0.031874284
173	0x3ce89a7b	0.028393975
174	0xbcfd4319	-0.030915784
175	0xbd02a4b4	-0.031895354
176	0xbd00d484	-0.03145267
177	0xbca5d807	-0.020244611
178	0x3d04a21e	0.03238117
179	0xbd09a01c	-0.033599958
180	0xbd05192c	-0.03249471
181	0x3d08316e	0.033250265
182	0x3cd50e61	0.026007833
183	0x3ce99dc4	0.028517611
184	0xbd01a13c	-0.031647906
185	0x3cd8bbf1	0.026456805
186	0xbd012270	-0.031526983
187	0x3cfc3b5e	0.030790027
188	0x3d02a41e	0.031894796
189	0xbcf6ef76	-0.03014348
190	0x3cdf23ff	0.027238844
191	0xbce5c330	-0.028047174
192	0x3d021ebd	0.031767596
193	0x3cf907d6	0.030399244
194	0xbd021720	-0.031760335
195	0xbd034966	-0.03205242
196	0xbd01cb11	-0.0316878
197	0xbc559960	-0.013037056
198	0x3cde0060	0.027099788
199	0xbcfc6062	-0.030807678
200	0xbcfcaa75	-0.030842999
201	0x3cec822d	0.028870666
202	0x3cba8f0a	0.022773284
203	0x3cff0c84	0.031133898
204	0xbcf43ac4	-0.029813178
205	0x3cd491d4	0.025948443
206	0xbd00e096	-0.03146418
207	0x3cfc4d54	0.030798592
208	0x3cfbdb4b	0.030744215
209	0xbce5d73b	-0.028056731
210	0x3ce564a1	0.028002085
211	0xbce6685a	-0.02812593
212	0x3d0386f4	0.032111123
213	0x3cfa972a	0.030589659
214	0xbd007470	-0.031361043
215	0xbcf83589	-0.030298965
216	0xbcffeaaf	-0.031239836
217	0xbc405a64	-0.011740301
218	0x3ce3ab97	0.027791781
219	0xbd02b3d8	-0.031909794
220	0xbcfa8481	-0.03058076
221	0x3d019a62	0.03164137
222	0x3cdb4598	0.026766583
223	0x3cedb9f8	0.02901934
224	0xbcfd9665	-0.030955503
225	0x3cbbfa1a	0.022946406
226	0xbce238b7	-0.027614934
227	0x3cfa3e06	0.030547153
228	0x3d0192e0	0.03163421
229	0xbcea6944	-0.028614648
230	0x3ce112c6	0.027474772
231	0xbcc61ade	-0.024182733
232	0x3cfc426f	0.030793397
233	0x3cfaa846	0.030597817
234	0xbcfc4992	-0.0307968
235	0xbce2720d	-0.027642274
236	0xbcf8b6a2	-0.030360524
237	0xbc6bba30	-0.014387652
238	0x3cf8574f	0.03031507
239	0xbd022032	-0.031768985
240	0xbd0cd5f7	-0.03438374
241	0x3d011b6d	0.031520296
242	0x3ccc8e70	0.024970263
243	0x3d0461a2	0.032319672
244	0xbcf9c32f	-0.030488579
245	0x3cc5eb62	0.02416009
246	0xbcf98647	-0.030459536
247	0x3cf2813b	0.029602638
248	0x3d03bd60	0.032163024
249	0xbcf737e7	-0.030178024
250	0x3cc76207	0.024338735
251	0xbce3de5a	-0.027815986
252	0x3d00c8b5	0.03144141
253	0x3ce6c6d3	0.028170979
254	0xbd01458a	-0.03156046
255	0xbd05f8cd	-0.032707978

lstm.bias_ih_l1 f4 [80]
0	0x3d4e36b1	0.050345127
1	0x3d48dc17	0.04903802
2	0x3d310636	0.043218814
3	0x3d4889dc	0.048959598
4	0x3d3189d0	0.04334432
5	0x3d2d936b	0.042376917
6	0x3d3b7a70	0.045771062
7	0x3d4271d7	0.047471847
8	0x3d2e0ac0	0.04249072
9	0x3d3676bf	0.04454684
10	0x3d373fb4	0.044738486
11	0x3d333034	0.043747142
12	0x3d30bb97	0.04314765
13	0x3d3d10e0	0.04615867
14	0x3d2cdf7e	0.042205326
15	0x3d363a64	0.04448928
16	0x3d3f8a09	0.0467625
17	0x3ce7a8da	0.028278757
18	0x3d3a5d5d	0.045499194
19	0x3d3248c0	0.04352641
20	0x3dafb8b0	0.08580148
21	0x3db4d993	0.088305615
22	0x3d99ecea	0.07515891
23	0x3daa5100	0.08316231
24	0x3db2b675	0.08726207
25	0x3d9765c2	0.07392456
26	0x3db0f09b	0.08639642
27	0x3daa1974	0.08305636
28	0x3db61f85	0.088927306
29	0x3da9ab0e	0.08284579
30	0x3d9798c1	0.07402182
31	0x3d974279	0.073857255
32	0x3db9ee43	0.09078648
33	0x3daa9fa3	0.083312295
34	0x3dabae25	0.08382825
35	0x3db47a05	0.08812336
36	0x3dafa613	0.08576598
37	0x3d2ce555	0.042210896
38	0x3db7873d	0.089613415
39	0x3dab6bb5	0.08370153
40	0xbdbde524	-0.09272221
41	0x3db85c45	0.09001974
42	0x3da6c928	0.08143836
43	0x3da53141	0.08066035
44	0xbda93d60	-0.082636595
45	0x3d989bb2	0.074515715
46	0xbdb4d0a8	-0.088288605
47	0x3dae76c0	0.085187435
48	0x3da46022	0.080261484
49	0xbda2ebac	-0.07955107
50	0x3da78093	0.081788205
51	0xbdaa03c3	-0.08301499
52	0x3dac0aa6	0.084004685
53	0x3dbf34c7	0.09336238
54	0xbdc21b0e	-0.094778165
55	0xbdc6d836	-0.09709208
56	0xbdd6c118	-0.104860485
57	0xbd81ec7b	-0.06343933
58	0x3da9d040	0.08291674
59	0xbdc847fa	-0.097793534
60	0x3de80a0a	0.1133004
61	0x3de091e2	0.10965325
62	0x3d8b4b20	0.06801438
63	0x3dd64e14	0.10464111
64	0x3dd6e0ea	0.10492118
65	0x3db682cc	0.08911666
66	0x3de2fb5c	0.11083099
67	0x3dd01ebc	0.10162112
68	0x3de44b27	0.11147147
69	0x3dd248d9	0.10267801
70	0x3db26048	0.087097704
71	0x3dbc18a7	0.091843896
72	0x3dd35651	0.10319198
73	0x3dd18b3b	0.10231634
74	0x3dd89419	0.105751224
75	0x3dd819d3	0.105518006
76	0x3dd45d49	0.10369355
77	0x3d04a9c4	0.032388464
78	0x3de9e96e	0.11421476
79	0x3df07d75	0.11742679

lstm.bias_hh_l1 f4 [80]
0	0x3d46a451	0.048496548
1	0x3d329be1	0.04360569
2	0x3d2774a3	0.040882718
3	0x3d36c5c6	0.044622205
4	0x3d2c08ac	0.042000458
5	0x3d2cf087	0.042221572
6	0x3d2ef916	0.042718016
7	0x3d358720	0.04431832
8	0x3d34f5be	0.04417967
9	0x3d397e00	0.04528618
10	0x3d3601b6	0.044435225
11	0x3d2f1a8e	0.042749934
12	0x3d3d27aa	0.046180405
13	0x3d3ec161	0.04657114
14	0x3d406a16	0.04697617
15	0x3d445f84	0.047942653
16	0x3d35e27f	0.044405457
17	0x3c9bc852	0.019016419
18	0x3d36eb0a	0.044657744
19	0x3d3d5f84	0.04623367
20	0x3db234f3	0.087015055
21	0x3db7645d	0.0895469
22	0x3d99c7e5	0.0750883
23	0x3dad9b4b	0.084768854
24	0x3da7a94f	0.0818659
25	0x3d9732b7	0.0738272
26	0x3dab18f8	0.08354372
27	0x3dabf81c	0.083969325
28	0x3da9062a	0.08253129
29	0x3da45813	0.08024611
30	0x3d8a2c18	0.067466915
31	0x3d877912	0.06614889
32	0x3da9611a	0.08270474
33	0x3daa4693	0.08314242
34	0x3da6fa9c	0.08153269
35	0x3dbb358e	0.09141074
36	0x3da99c22	0.08281733
37	0x3d1d7786	0.038444065
38	0x3db342cb	0.08752974
39	0x3dbd96d7	0.09257286
40	0xbdae1715	-0.08500496
41	0x3db6d4b0	0.08927286
42	0x3d9cb066	0.07650833
43	0x3dad8426	0.08472471
44	0xbdaec455	-0.08533541
45	0x3da40282	0.08008291
46	0xbdac1709	-0.08402831
47	0x3db12258	0.08649129
48	0x3db251b4	0.0870699
49	0xbdafa477	-0.08576291
50	0x3da4ff6f	0.080565326
51	0xbda9fe14	-0.08300415
52	0x3da7641e	0.08173393
53	0x3dbd2096	0.09234731
54	0xbdbba225	-0.09161786
55	0xbda4346f	-0.080178134
56	0xbdd5fa5b	-0.10448142
57	0xbd50d7c3	-0.050987016
58	0x3da85083	0.082184814
59	0xbda46aca	-0.08028181
60	0x3dd50546	0.104013965
61	0x3de64b9d	0.11244891
62	0x3db28c98	0.087182224
63	0x3de495d2	0.111613885
64	0x3dd94f95	0.10610882
65	0x3d9358ab	0.071946464
66	0x3df0b4e2	0.11753251
67	0x3dd5ea90	0.1044513
68	0x3dd8029d	0.105473734
69	0x3dd16bc7	0.10225635
70	0x3dbf6735	0.09345857
71	0x3dbcd4e2	0.09220292
72	0x3dd6d53e	0.104898915
73	0x3dd203fa	0.10254665
74	0x3dd358bb	0.10319658
75	0x3dd42892	0.10359301
76	0x3de2b39f	0.11069416
77	0x3d1f1beb	0.038844984
78	0x3ddabeb4	0.10680905
79	0x3ddef585	0.10886673

fc.weight f4 [360, 20]
0	0xbcc98320	-0.024598658
1	0x3ccfd407	0.025369657
2	0x3c8cf8ab	0.017208418
3	0x3ccec735	0.025241474
4	0xbcc1f8f5	-0.023678282
5	0x3c8eb151	0.017418535
6	0xbcc4a3d6	-0.024003904
7	0x3cbe1035	0.023201087
8	0x3cc2ff00	0.023803234
9	0xbcbb6102	-0.022873405
10	0x3cb3b00d	0.021934533
11	0xbcbde239	-0.02317916
12	0x3cba07cd	0.022708798
13	0x3cbd1897	0.023083014
14	0xbcc6c7b1	-0.024265142
15	0xbcc4c916	-0.024021666
16	0xbcc20262	-0.023682777
17	0xbc6537f2	-0.013990389
18	0x3cc90b38	0.024541482
19	0xbcc4059f	-0.023928462
20	0xbcc61f96	-0.024184983
21	0x3cc37e75	0.02386401
22	0x3c8b70d2	0.01702157
23	0x3cc340ae	0.023834553
24	0xbcc11b73	-0.02357266
25	0x3c8d258b	0.017229816
26	0xbcce3f5e	-0.0251767
27	0x3cbd8f47	0.023139609
28	0x3ccd45f1	0.025057765
29	0xbcbaf612	-0.022822414
30	0x3cad34d9	0.021143364
31	0xbcab8b8a	-0.02094056
32	0x3cc09fff	0.023513792
33	0x3cbfb39f	0.02340108
34	0xbcc3e825	-0.023914406
35	0xbcc2faa8	-0.023801163
36	0xbcc23271	-0.023705693
37	0xbc5681db	-0.013092483
38	0x3cc1f456	0.023676079
39	0xbccddeba	-0.025130618
40	0xbcc60735	-0.024173358
41	0x3cc619e2	0.024182264
42	0x3c98e38e	0.018663194
43	0x3cd0f9ae	0.025509682
44	0xbcc41d23	-0.023939675
45	0x3c91f2aa	0.017815907
46	0xbcc71d70	-0.02430603
47	0x3ca6ee6d	0.020377362
48	0x3cc2878f	0.02374628
49	0xbcbc2f58	-0.022971794
50	0x3c8e0df7	0.017340643
51	0xbcc3a706	-0.023883354
52	0x3cc3f0e4	0.023918577
53	0x3cbaf2b9	0.022820817
54	0xbcd14836	-0.025547128
55	0xbcc1c265	-0.023652265
56	0xbcc41244	-0.023934491
57	0xbc13c047	-0.00901801
58	0x3ccfb62f	0.025355427
59	0xbcc58cc3	-0.024114972
60	0xbcc5659a	-0.024096299
61	0x3cd60209	0.026124017
62	0x3cad43f0	0.02115056
63	0x3cc57da3	0.02410776
64	0xbcc2a12c	-0.023758493
65	0x3caa03ee	0.020753827
66	0xbcd237f1	-0.02566144
67	0x3cc2f48c	0.02379825
68	0x3cd0edaa	0.025503952
69	0xbcbd3293	-0.023095405
70	0x3cacefcc	0.021110438
71	0xbca91cfa	-0.0206437
72	0x3cce2bb5	0.025167326
73	0x3cbf502f	0.023353664
74	0xbcc6f5e7	-0.024287177
75	0xbcc939e7	-0.024563743
76	0xbcbe2efa	-0.02321576
77	0xbc253e41	-0.010085643
78	0x3cc94ee2	0.024573747
79	0xbcc6282e	-0.024189081
80	0xbcc3f744	-0.023921616
81	0x3cd46c23	0.02593047
82	0x3cae4d78	0.021277174
83	0x3cbd4ddb	0.023108413
84	0xbcc430bf	-0.023949025
85	0x3caa0e17	0.020758672
86	0xbcc1c0a5	-0.02365143
87	0x3cbc522a	0.022988398
88	0x3cb78833	0.022403812
89	0xbcb6ddc2	-0.02232254
90	0x3cc8fc8b	0.024534484
91	0xbcaefee8	-0.021361783
92	0x3cce9e76	0.025222044
93	0x3cba2c86	0.022726309
94	0xbcc19355	-0.023629824
95	0xbcc16844	-0.023609288
96	0xbcbefe87	-0.023314727
97	0xbc063244	-0.008190695
98	0x3cba9f9c	0.022781186
99	0xbcc13ffa	-0.023590077
100	0xbcc28700	-0.023746014
101	0x3cc685f9	0.024233805
102	0x3ca00937	0.019535644
103	0x3cc37811	0.023860963
104	0xbccf6264	-0.025315471
105	0x3c8cdb71	0.017194482
106	0xbcc76ead	-0.024344767
107	0x3cbc9e96	0.023024838
108	0x3cc63926	0.024197172
109	0xbcb9d057	-0.022682352
110	0x3c95c516	0.018282454
111	0xbcadae71	-0.021201344
112	0x3cc29a59	0.02375524
113	0x3cbb760c	0.022883438
114	0xbcc0f01b	-0.023551991
115	0xbcc918d5	-0.024547974
116	0xbcc0745c	-0.023492984
117	0xbc6d5596	-0.014485737
118	0x3cc3caae	0.023900356
119	0xbcc676ae	-0.024226513
120	0xbcc559f7	-0.02409075
121	0x3cc5a7ae	0.024127807
122	0x3cb6822a	0.022278864
123	0x3cc40c25	0.023931572
124	0xbcc5655b	-0.024096182
125	0x3c929056	0.01789109
126	0xbcd036f0	-0.025416821
127	0x3cc4b591	0.024012359
128	0x3cbd1033	0.023079013
129	0xbcbe8986	-0.023258936
130	0x3c88412b	0.016632637
131	0xbcc2dcf8	-0.023787007
132	0x3cb66c76	0.022268515
133	0x3cc00e03	0.023444181
134	0xbcc6d055	-0.024269262
135	0xbcc3d78b	-0.02390649
136	0xbcc34b8d	-0.023839736
137	0xbbdc5cbf	-0.0067249234
138	0x3ccc657c	0.024950735
139	0xbcca194c	-0.024670266
140	0xbcc2ec04	-0.023794182
141	0x3cc6b73a	0.024257291
142	0x3caefea1	0.02136165
143	0x3cc14ad7	0.023595257
144	0xbcc116c8	-0.023570433
145	0x3cb07e55	0.021544615
146	0xbcc8165a	-0.02442472
147	0x3cbd9777	0.023143513
148	0x3cc29647	0.023753298
149	0xbcbafee8	-0.022826627
150	0x3cc62e19	0.024191903
151	0xbca9934d	-0.020700121
152	0x3ccd8c10	0.025091201
153	0x3cca6b37	0.024709327
154	0xbcc3ff8a	-0.023925561
155	0xbcc8db59	-0.024518656
156	0xbc9e7632	-0.01934347
157	0xbc7c3f8d	-0.015396011
158	0x3cc1ea77	0.023671372
159	0xbccdedc5	-0.025137791
160	0xbca97ec3	-0.020690328
161	0x3cd3cf15	0.02585558
162	0x3c9196e9	0.017772155
163	0x3cc895f3	0.024485564
164	0xbcc7028d	-0.024293208
165	0x3c9186a6	0.0177644
166	0xbcca9b5e	-0.024732288
167	0x3cc0e7af	0.023547975
168	0x3cc21a3c	0.02369415
169	0xbcc47947	-0.02398361
170	0x3ca991f3	0.020699477
171	0xbcbbfe9d	-0.022948558
172	0x3cd25133	0.025673484
173	0x3cc01263	0.023446267
174	0xbcd29373	-0.025705075
175	0xbcc86493	-0.02446202
176	0xbcc6b979	-0.024258362
177	0xbc46deaf	-0.012138053
178	0x3cd38e11	0.025824578
179	0xbccf6233	-0.02531538
180	0xbcc79098	-0.02436094
181	0x3cc82d4f	0.024435667
182	0x3cb1d2a3	0.021706885
183	0x3cc2482f	0.02371606
184	0xbcc37b9b	-0.02386265
185	0x3c5410e7	0.012943483
186	0xbcc6e79c	-0.024280362
187	0x3cbe964a	0.023265023
188	0x3ccd8363	0.025087064
189	0xbcba56bd	-0.022746438
190	0x3cb790f2	0.022407982
191	0xbc9eb8a3	-0.019375151
192	0x3cd40f8e	0.025886323
193	0x3cbda8f5	0.023151854
194	0xbcc18925	-0.023624966
195	0xbcc5e123	-0.024155205
196	0xbcc24eff	-0.023719309
197	0xbc64d9a8	-0.013967909
198	0x3cc2eb57	0.02379386
199	0xbcca5181	-0.024697067
200	0xbcc6e3a8	-0.024278477
201	0x3cc9397b	0.024563542
202	0x3c4a580a	0.012350092
203	0x3cc3ca03	0.023900038
204	0xbcc5bacd	-0.024136925
205	0x3ca911e5	0.020638416
206	0xbcca545c	-0.024698429
207	0x3cc12265	0.02357597
208	0x3cc3d3fb	0.023904791
209	0xbcbee8d9	-0.02330439
210	0x3ca295f5	0.019846896
211	0xbcb16998	-0.021656796
212	0x3ccee3c0	0.025255084
213	0x3cbeb0c1	0.023277642
214	0xbcc296a4	-0.023753472
215	0xbcc51ec6	-0.024062525
216	0xbcd20e07	-0.025641454
217	0xbc2faaa1	-0.010721833
218	0x3cb77d7f	0.022398708
219	0xbcc4bfbc	-0.024017207
220	0xbcc62a3f	-0.024190066
221	0x3cc54601	0.024081232
222	0x3cbf5dd1	0.023360165
223	0x3cc53dee	0.024077382
224	0xbcc21e0e	-0.023695972
225	0x3cbcbe55	0.023039976
226	0xbcc58f93	-0.024116313
227	0x3cbf7843	0.023372775
228	0x3cc4cd71	0.024023743
229	0xbcc1db4f	-0.023664145
230	0x3c9cf0f9	0.019157873
231	0xbc7e5b01	-0.015524627
232	0x3ccda062	0.02510089
233	0x3cbe3680	0.023219347
234	0xbcd198d7	-0.025585575
235	0xbcc65ac0	-0.024213195
236	0xbcc3f156	-0.023918789
237	0xbc5ae678	-0.013360612
238	0x3cc8625d	0.024460966
239	0xbcc616b9	-0.024180757
240	0xbcc1a703	-0.023639208
241	0x3cc1c95f	0.023655592
242	0x3c936e0c	0.01799681
243	0x3cc031c8	0.023461238
244	0xbcc4b7fd	-0.024013514
245	0x3cb745d5	0.022372166
246	0xbccbdc41	-0.024885299
247	0x3cbea479	0.023271786
248	0x3cc1b66d	0.023646558
249	0xbcb9990a	-0.022655983
250	0x3caced22	0.021109167
251	0xbcad618c	-0.021164678
252	0x3cbf6b28	0.023366526
253	0x3cbb9271	0.022896977
254	0xbcc4cda9	-0.024023848
255	0xbcc07b3c	-0.023496263

fc.bias f4 [360]
0	0x3d0979e6	0.033563517
1	0x3d0dd03f	0.034622427
2	0x3d1f5a34	0.038904384
3	0x3ce6b02b	0.028160175
4	0x3d19f966	0.03759136
5	0x3d1c7391	0.03819615
6	0x3d0c8b71	0.03431267
7	0x3d0d4ce4	0.034497157
8	0x3d0c24cd	0.034214783
9	0x3d09fa74	0.033686116
10	0x3d1027f7	0.035194363
11	0x3d0ab398	0.03386268
12	0x3d11b454	0.035572365
13	0x3cdf5a90	0.027264863
14	0x3d16379d	0.03667413
15	0x3d0e2664	0.03470458
16	0x3d0a563c	0.033773646
17	0x3d0c1168	0.034196287
18	0x3d0c44a9	0.034245167
19	0x3d0cfdc4	0.034421697
20	0x3d016e83	0.031599533
21	0x3d0d8fad	0.034560848
22	0x3d09e405	0.033664722
23	0x3d19469f	0.037420865
24	0x3d0a81cf	0.0338152
25	0x3d0c496a	0.0342497
26	0x3d157f78	0.036498517
27	0x3d0d7fc7	0.034545686
28	0x3d0de597	0.034642782
29	0x3d0accfa	0.033886887
30	0x3d0b5e00	0.034025192
31	0x3d0af74e	0.033927254
32	0x3d0b2177	0.03396746
33	0x3d0a8bc1	0.033824686
34	0x3d202154	0.039094284
35	0x3d163cf2	0.036679216
36	0x3d0a1014	0.03370674
37	0x3d094b27	0.033518936
38	0x3d0a31bb	0.033738833
39	0x3d0a5e81	0.033781532
40	0x3d0ac25a	0.033876754
41	0x3d0a4a7c	0.03376244
42	0x3d099719	0.033591364
43	0x3d20baae	0.03924053
44	0x3d0a1a6e	0.03371661
45	0x3d0c0371	0.03418297
46	0x3d19f1bd	0.037584055
47	0x3d0b15cc	0.033956334
48	0x3d197501	0.0374651
49	0x3cd30b4f	0.025762228
50	0x3d07f931	0.03319663
51	0x3d0acab6	0.033884726
52	0x3d0be918	0.034157842
53	0x3d0ccf0b	0.03437714
54	0x3d1eea17	0.038797464
55	0x3d0b5368	0.03401509
56	0x3d0b6f10	0.034041464
57	0x3d0eee71	0.034895364
58	0x3d09fd91	0.033689085
59	0x3d08d036	0.03340169
60	0x3d174d15	0.036938746
61	0x3d1badd0	0.038007557
62	0x3d0b2e1b	0.033979516
63	0x3d08e132	0.033417888
64	0x3d08ae85	0.03336956
65	0x3d0b8d4c	0.034070298
66	0x3d08b2cd	0.033373643
67	0x3d0afa64	0.033930197
68	0x3d0d0aad	0.03443401
69	0x3d207bff	0.039180752
70	0x3d20185b	0.039085727
71	0x3d18277e	0.037147038
72	0x3d0a9b7d	0.03383969
73	0x3cc599bc	0.024121158
74	0x3d099d16	0.033597074
75	0x3d05ed96	0.032697283
76	0x3d014b56	0.031565987
77	0x3d2268e5	0.039650816
78	0x3d0a4abd	0.033762682
79	0x3d19a6d6	0.037512623
80	0x3d087d75	0.03332277
81	0x3d09b3b2	0.033618636
82	0x3d09a2ca	0.033602513
83	0x3d0d00f6	0.034424745
84	0x3d0bb940	0.034112215
85	0x3d0a1d57	0.033719387
86	0x3d0e4f39	0.03474352
87	0x3d0c7ba2	0.034297593
88	0x3d176609	0.036962543
89	0x3d1f5901	0.03890324
90	0x3d0fec46	0.035137437
91	0x3d09c2be	0.033632986
92	0x3d1cea74	0.03830953
93	0x3d0b8a48	0.034067422
94	0x3d08cace	0.033396535
95	0x3d085370	0.033282697
96	0x3d0b0cb0	0.033947647
97	0x3ce7e244	0.028306134
98	0x3d0432f1	0.032275144
99	0x3d1fce8e	0.039015345
100	0x3d093b8b	0.03350405
101	0x3d099747	0.033591535
102	0x3cc90a6d	0.024541104
103	0x3d09602d	0.033538986
104	0x3d011d50	0.031522095
105	0x3d077bb2	0.03307695
106	0x3d207db7	0.03918239
107	0x3d0a2ec8	0.03373602
108	0x3d17d2a6	0.037066124
109	0x3d0b2922	0.033974774
110	0x3d08a317	0.03335866
111	0x3d2517eb	0.040306013
112	0x3d0c9b50	0.034327805
113	0x3d0aa22d	0.03384607
114	0x3d127e74	0.035765126
115	0x3d1eceb5	0.03877135
116	0x3d21a18c	0.039460704
117	0x3d1cceeb	0.03828327
118	0x3d18d0ec	0.03730862
119	0x3d2385b6	0.03992244
120	0x3d0af0ec	0.033921167
121	0x3d097863	0.033562075
122	0x3d1915f5	0.037374455
123	0x3d08d68a	0.033407725
124	0x3d09ba65	0.033625025
125	0x3d0aaee4	0.033858195
126	0x3d0a9c16	0.03384026
127	0x3d1d17e8	0.038352877
128	0x3d095d2a	0.033536114
129	0x3d0a6078	0.033783406
130	0x3d087f12	0.03332431
131	0x3d0a8cf3	0.033825826
132	0x3d11e0f7	0.035614934
133	0x3d181141	0.03712583
134	0x3d124211	0.035707537
135	0x3d0a55f1	0.033773366
136	0x3d00b5d6	0.031423412
137	0x3d0b57af	0.03401917
138	0x3d21cae9	0.03950015
139	0x3d0b0921	0.033944253
140	0x3d08e45d	0.03342091
141	0x3d0bc2ff	0.03412151
142	0x3d08b63d	0.03337692
143	0x3d090566	0.033452414
144	0x3d0baa42	0.034097917
145	0x3d14e341	0.03634954
146	0x3d1950eb	0.037430685
147	0x3d09c4d9	0.033634994
148	0x3d0ae0eb	0.033905905
149	0x3d0a5fe6	0.033782862
150	0x3d114296	0.035463892
151	0x3d0ed54d	0.03487139
152	0x3d1ea917	0.038735475
153	0x3ce94f09	0.02848007
154	0x3d0cf615	0.03441437
155	0x3d074e93	0.03303392
156	0x3d094558	0.033513397
157	0x3d09fe3c	0.033689722
158	0x3d0a5a8c	0.03377776
159	0x3d12e4c3	0.035862695
160	0x3d072f9c	0.03300439
161	0x3d1a82b9	0.037722323
162	0x3d0b0f25	0.03394999
163	0x3cd5f8e9	0.026119666
164	0x3d07584c	0.03304319
165	0x3d081b38	0.033229083
166	0x3d065041	0.03279138
167	0x3d0b2917	0.033974733
168	0x3d0b32f2	0.033984132
169	0x3ceaa83c	0.028644674
170	0x3d0a1ce9	0.033718977
171	0x3d08a52b	0.03336064
172	0x3d27cd32	0.040967174
173	0x3d059e39	0.032621596
174	0x3d08181a	0.03322611
175	0x3d21a7cc	0.039466664
176	0x3d1af789	0.037833724
177	0x3d09dccf	0.033657845
178	0x3d078375	0.03308435
179	0x3d20b471	0.039234582
180	0x3cc673ca	0.024225134
181	0x3d163aeb	0.036677282
182	0x3d09f4da	0.033680774
183	0x3d17bda7	0.0370461
184	0x3d0bbcfa	0.03411577
185	0x3d0a41d0	0.03375417
186	0x3d07f2ef	0.033190664
187	0x3d07c9df	0.033151504
188	0x3d1ee9a5	0.03879704
189	0x3d097451	0.033558194
190	0x3d1a9d18	0.037747473
191	0x3d110d7c	0.03541325
192	0x3d134e31	0.03596324
193	0x3cc96a3e	0.024586793
194	0x3d082f86	0.033248447
195	0x3d0e9379	0.03480861
196	0x3d1a52d0	0.037676632
197	0x3d0826d5	0.033240158
198	0x3d09950d	0.03358941
199	0x3d1603a0	0.03662455
200	0x3cf33007	0.029685987
201	0x3d0a58ac	0.03377597
202	0x3d08510d	0.03328042
203	0x3d1dc8f3	0.03852172
204	0x3d0b6351	0.034030262
205	0x3d099eaa	0.03359858
206	0x3d0cff27	0.03442302
207	0x3d1e0387	0.038577583
208	0x3d07ec70	0.03318447
209	0x3d0f5a67	0.034998324
210	0x3d20a812	0.039222784
211	0x3d0723ed	0.032993246
212	0x3d28a22c	0.041170284
213	0x3d12926c	0.03578417
214	0x3d18c270	0.037294805
215	0x3d06d14c	0.032914445
216	0x3d24e93b	0.04026149
217	0x3d1e70c7	0.03868177
218	0x3d1bbda3	0.03802265
219	0x3d061eb8	0.03274414
220	0x3d077360	0.033069015
221	0x3d079d1f	0.033108827
222	0x3d15f5f8	0.036611527
223	0x3cc246e5	0.023715446
224	0x3d0b4d4a	0.034009255
225	0x3d1407d7	0.03614029
226	0x3d184527	0.037175324
227	0x3d2053cb	0.03914241
228	0x3d090029	0.03344742
229	0x3d0c3f4c	0.034240052
230	0x3d0d5467	0.03450432
231	0x3d084a3f	0.03327393
232	0x3d06d5dd	0.0329188
233	0x3d0983b3	0.033572864
234	0x3d1393eb	0.036029737
235	0x3d12891b	0.035775285
236	0x3d0aea7a	0.03391502
237	0x3ce607ee	0.028079953
238	0x3d03a12c	0.032136127
239	0x3d233175	0.039842088
240	0x3d1f788d	0.038933326
241	0x3d25be3a	0.040464617
242	0x3d09866f	0.03357547
243	0x3ce82833	0.028339481
244	0x3d04eda7	0.032453205
245	0x3d1b0ca7	0.037853863
246	0x3d0781a6	0.033082627
247	0x3d18cc6b	0.037304323
248	0x3d062593	0.032750677
249	0x3d1e6783	0.038672935
250	0x3d0bf559	0.03416953
251	0x3d07fff0	0.033203065
252	0x3d0dd48d	0.034626532
253	0x3d209871	0.03920788
254	0x3d097969	0.03356305
255	0x3d29cf43	0.041457426
