backend/model/lstm-CNVS-180-.pth (torch, 38860 bytes, 12 tensors)

conv1.weight f4 [2, 4, 3]
000000 9f 39 80 38 1b d6 94 15 be 48 cc 19 3a 4c 0b 25
       6.1142484e-05 6.011452e-26 2.1122486e-23 1.2082155e-16
000010 bd d8 10 b7 03 21 00 29 25 1c 11 b4 53 97 be 24
       -8.633532e-06 2.8450343e-14 -1.3514416e-07 8.265572e-17
000020 b1 d4 38 25 e0 a6 11 23 f5 47 0f 35 be c3 77 a6
       1.6031519e-16 7.895803e-18 5.337636e-07 -8.596062e-16
000030 d7 d2 00 9d a9 b6 f8 b7 a6 5a 02 25 2e ca 62 34
       -1.704966e-21 -2.9648962e-05 1.1306415e-16 2.1121443e-07
000040 2f 3b 6c 21 0e 5e 03 34 7f ef da 23 b8 9c 88 a0
       8.003824e-19 1.2234543e-07 2.3737038e-17 -2.3143004e-19
000050 32 da 12 2b 93 ec 9a a9 c8 b7 99 9f 2d b9 55 b6
       5.2172427e-13 -6.880013e-14 -6.510206e-20 -3.184726e-06

conv1.bias f4 [2]
000000 d8 e3 a3 25 2e fb fc a0
       2.8430386e-16 -4.2856677e-19

lstm.weight_ih_l0 f4 [80, 2]
000000 1f 77 ba 9b a3 86 cd aa 3a 54 52 1c af 6c 82 b5
       -3.08481e-22 -3.6508738e-13 6.959203e-22 -9.717386e-07
000010 6d 89 bb 1f 29 af 34 33 aa 95 96 20 d9 8d 42 1c
       7.942493e-20 4.2068823e-08 2.5510028e-19 6.437255e-22
000020 e6 47 a6 34 c1 42 b0 b1 f9 cb 99 9f 09 fc 05 1c
       3.0972222e-07 -5.129863e-09 -6.5135465e-20 4.4331756e-22
000030 4d 4d 4d 23 18 b5 a2 9d 40 89 eb 30 c0 43 70 b3
       1.1129441e-17 -4.306829e-21 1.7137509e-09 -5.5940973e-08
000040 aa 13 85 9d 91 8e 3f b4 dc 82 37 20 0b 55 63 22
       -3.522514e-21 -1.7840127e-07 1.5544001e-19 3.0809258e-18
000050 dd a3 d6 9a a2 8b 78 1c 42 0e 2f ab 43 5d d6 18
       -8.877306e-23 8.223679e-22 -6.2192276e-13 5.5411874e-24
000060 9a 59 12 b0 84 c0 58 af 6c dc 06 21 67 2e 2d 21
       -5.324182e-10 -1.9713481e-10 4.569269e-19 5.8676093e-19
000070 55 fc ab 9b 9c 33 be 18 c6 b0 26 32 19 50 5e 1c
       -2.8452643e-22 4.916596e-24 9.702665e-09 7.355716e-22
000080 cc 87 aa 9b 8b 44 0f 1b 38 04 46 1e e3 ab 0e ae
       -2.8211898e-22 1.185083e-22 1.0482905e-20 -3.2439728e-11
000090 69 e0 c0 9f d9 99 8a ae 38 f2 80 29 f9 a2 2f 2b
       -8.168642e-20 -6.302842e-11 5.72636e-14 6.239866e-13
0000a0 c5 b2 db 35 8b 94 43 34 65 7f 7c a2 07 87 b8 1a
       1.63688e-06 1.821483e-07 -3.421981e-18 7.6318765e-23
0000b0 79 2a 0d 9b e3 b7 a8 1b 1a fe b3 9e d7 6f 1c ab
       -1.167697e-22 2.7912103e-22 -1.9057456e-20 -5.557754e-13
0000c0 77 30 21 b4 d7 c1 38 1c 33 a0 7b 9c eb a9 eb b4
       -1.5011925e-07 6.1131025e-22 -8.3255986e-22 -4.3895793e-07
0000d0 22 5c ed 1c 33 d6 6a 21 a8 a1 b5 1e 85 98 88 9c
       1.570716e-21 7.9565774e-19 1.923098e-20 -9.03915e-22
0000e0 dc 8e 9c 9e 01 04 17 a0 28 15 86 a6 4f c6 f2 33
       -1.6576228e-20 -1.2791522e-19 -9.303852e-16 1.1305075e-07
0000f0 2a 1c 88 a1 46 6b 80 9c f6 b1 9d a0 64 dd 69 27
       -9.223173e-19 -8.498059e-22 -2.67146e-19 3.2455262e-15
000100 58 56 47 1f f9 6c 06 a2 a6 38 94 28 e6 7e a3 1c
       4.221131e-20 -1.8218076e-18 1.6455868e-14 1.0819238e-21
000110 29 70 c0 1b 74 37 e5 1b f7 96 e3 1f 8c b1 3f 2b
       3.1836217e-22 3.7920708e-22 9.638799e-20 6.8103227e-13
000120 1b a8 c0 2a 63 bc 13 35 b2 f0 b1 a4 e3 3c f4 1b
       3.4222698e-13 5.5035906e-07 -7.716927e-17 4.040576e-22
000130 1f 1d e7 34 44 ee 24 ab 28 c3 0c 1b 85 10 b7 33
       4.304829e-07 -5.8595164e-13 1.1643587e-22 8.5246064e-08
000140 d4 42 76 b2 62 90 75 25 ba 85 65 a6 4b 0d 2c a3
       -1.43342795e-08 2.1299281e-16 -7.963157e-16 -9.3269536e-18
000150 35 7e 96 2f 23 f0 a6 a5 e7 6b 56 b3 63 04 53 a5
       2.7374517e-10 -2.8959133e-16 -4.9923894e-08 -1.8302819e-16
000160 1a 8c fa 27 53 8f 60 a6 8e bc 85 a5 43 53 c8 a3
       6.9540837e-15 -7.790985e-16 -2.3199592e-16 -2.1719306e-17
000170 de 4e 20 26 4e e5 4d 24 89 d8 da a5 01 e7 72 a4
       5.5618036e-16 4.4646518e-17 -3.7963702e-16 -5.2671053e-17
000180 41 a9 b3 a4 f3 9c 1d af d0 b0 92 32 fe 86 a6 2f
       -7.79156e-17 -1.4334826e-10 1.7077042e-08 3.0291142e-10
000190 27 7b 4d 31 7e 50 00 27 3d b9 88 2b b1 c6 b6 2a
       2.990143e-09 1.7807203e-15 9.714795e-13 3.2467564e-13
0001a0 7e d8 51 2b d0 be 05 a5 dc 9d 50 a7 32 ba 4d 28
       7.455216e-13 -1.1600561e-16 -2.8951374e-15 1.1420161e-14
0001b0 a3 89 01 27 7e de 9b 25 92 25 f0 29 47 01 b4 a3
       1.797696e-15 2.703898e-16 1.06646584e-13 -1.951618e-17
0001c0 3e d9 3c a5 6d 4c 10 28 15 85 45 a7 f8 d0 89 a5
       -1.6380005e-16 8.010178e-15 -2.7411386e-15 -2.3907314e-16
0001d0 f5 2a c7 a5 72 b9 24 ae c0 0c 14 b6 db 0d 6d 24
       -3.4550106e-16 -3.745399e-11 -2.206114e-06 5.140292e-17
0001e0 07 d5 a0 b0 0f ea 11 1c 73 c3 8c 1b d4 33 16 1c
       -1.1702078e-09 4.827899e-22 2.3287363e-22 4.9697823e-22
0001f0 a4 e0 b1 9d 44 f7 7b 2f 81 8b 08 9d bc 96 7c 33
       -4.7083783e-21 2.2916163e-10 -1.8071572e-21 5.8810414e-08
000200 ca 57 3a 9f 9b 14 1d 34 24 ed 8f 1f 63 f3 82 22
       -3.945965e-20 1.462926e-07 6.095517e-20 3.5494266e-18
000210 33 86 a3 1c 98 d6 1a 9a 26 86 bc 1c 8b c5 df ac
       1.0821125e-21 -3.20198e-23 1.2475473e-21 -6.359973e-12
000220 e6 09 6e 20 0b 6e 57 2c 27 e5 16 af f6 76 c5 27
       2.0162659e-19 3.0614424e-12 -1.3723832e-10 5.480746e-15
000230 e5 24 73 31 9c c3 90 20 bb f0 1a a3 70 f3 c5 30
       3.5382126e-09 2.4523992e-19 -8.399333e-18 1.4402826e-09
000240 ca a2 95 9e cb 6b 7d 29 2b 09 26 2f 00 11 17 9c
       -1.5843317e-20 5.627078e-14 1.5100869e-10 -4.998368e-22
000250 92 b0 c1 2a 61 d4 2a 9b f5 b7 9b b1 e6 d6 58 24
       3.4406207e-13 -1.4130694e-22 -4.532007e-09 4.701956e-17
000260 ca 78 9d 1c 97 33 b0 1a da d0 12 9f 64 29 5f 28
       1.0420612e-21 7.287524e-23 -3.108946e-20 1.2387962e-14
000270 31 29 8b 28 59 ee 6c b5 01 8a c1 1b 83 e0 91 1f
       1.5449964e-14 -8.826369e-07 3.2018355e-22 6.178131e-20

lstm.weight_hh_l0 f4 [80, 20]
000000 0c 4e 55 a1 fa 8d 4f 99 24 ff b9 af 08 73 06 1b
       -7.22705e-19 -1.0730321e-23 -3.3832592e-10 1.1121389e-22
000010 8f fc 89 19 16 9e bb b1 4b 6f 9c 1c d8 4d 83 32
       1.4267476e-23 -5.4603886e-09 1.0351983e-21 1.5285806e-08
000020 b2 90 68 9d 67 1f 6b 33 22 d2 6b 2a 51 82 9a a7
       -3.077975e-21 5.474376e-08 2.0945097e-13 -4.2884876e-15
000030 e2 cb d7 31 23 36 8b 34 fe 79 04 28 e8 ed 2b 1b
       6.2805023e-09 2.5930157e-07 7.353925e-15 1.422166e-22
000040 7b 6e e3 9a bb 9c 3f a1 2b fe 49 1b 93 10 2b 2d
       -9.406349e-23 -6.492075e-19 1.6708456e-22 9.723905e-12
000050 e8 e5 d5 19 6b b6 81 98 5f c7 30 1a 55 56 86 2e
       2.2116542e-23 -3.3529914e-24 3.6556998e-23 6.10895e-11
000060 5e 51 2e a1 86 b5 54 9c 6b b5 aa 30 fb f9 83 9a
       -5.906118e-19 -7.037953e-22 1.242069e-09 -5.4584195e-23
000070 82 1a e2 98 95 ef 73 28 b0 c1 c9 34 fb fc 79 9d
       -5.8446397e-24 1.3541161e-14 3.7580094e-07 -3.3085663e-21
000080 cf 4b ce 18 f8 3b 92 19 e5 f6 c3 19 ed d6 1e 9e
       5.33263e-24 1.5120267e-23 2.0262247e-23 -8.408896e-21
000090 61 16 85 22 ba 3a 22 30 e4 d4 c6 1a bf 07 70 a8
       3.6073417e-18 5.901871e-10 8.2234824e-23 -1.3324356e-14
0000a0 7c 1d ea 19 2d 90 9e 9b b9 19 b7 9e d9 15 3d 33
       2.4206942e-23 -2.623208e-22 -1.9386517e-20 4.4024862e-08
0000b0 bd d6 74 1e fa 80 23 1c 35 37 0d 1b 69 be be 1d
       1.2961659e-20 5.4098874e-22 1.1681085e-22 5.048946e-21
0000c0 46 95 82 ab 88 cf a3 b4 ba 3e 30 9c c5 79 64 9e
       -9.278487e-13 -3.0512115e-07 -5.8314587e-22 -1.2095401e-20
0000d0 bd 86 08 9c 1a ba 47 9f 96 f0 9a b3 90 9f 81 1a
       -4.517277e-22 -4.229383e-20 -7.214946e-08 5.3610937e-23
0000e0 bc 80 bc 1f 63 e6 2a 1f 2c 5a d0 1b 25 b2 a9 20
       7.983407e-20 3.6189472e-20 3.4468986e-22 2.87476e-19
0000f0 71 2a 5f 1a dc 76 33 a4 59 f5 7f 18 95 0f e8 2c
       4.6149603e-23 -3.8915116e-17 3.3081846e-24 6.5955665e-12
000100 cc e3 9a 1a 92 8e 7c 2b e3 94 8a a3 02 ef 39 2f
       6.406093e-23 8.972624e-13 -1.5025046e-17 1.6910565e-10
000110 e0 c5 2f 30 00 03 bb 34 dd 1e 35 b5 fc d1 00 9d
       6.3945826e-10 3.4833647e-07 -6.7472666e-07 -1.7049218e-21
000120 fd 06 fd a4 7c 99 81 2a 31 c5 83 21 72 57 17 1d
       -1.097331e-16 2.3021504e-13 8.929101e-19 2.0029892e-21
000130 da 42 5f 23 f2 d9 3d 1c d6 85 0c 1c b1 c4 ed b3
       1.2103011e-17 6.281654e-22 4.6495093e-22 -1.10719505e-07
000140 0b 9f 3c 1c 66 05 39 a6 53 24 a4 b1 70 1f d8 a5
       6.240954e-22 -6.4192085e-16 -4.777158e-09 -3.749133e-16
000150 9a 36 3d ae 98 a9 b7 aa 39 70 4f 19 c6 b4 89 20
       -4.302212e-11 -3.262501e-13 1.0724312e-23 2.3328329e-19
000160 4f ad f1 33 f9 71 32 a0 12 c5 19 9c c3 f3 2c 99
       1.1253962e-07 -1.5114897e-19 -5.087816e-22 -8.941419e-24
000170 92 37 a2 a3 8b 36 e9 35 36 81 af 1c 3d 5b ad 9b
       -1.758761e-17 1.7375727e-06 1.1613929e-21 -2.867941e-22
000180 89 d0 19 2d 7f 22 38 ae a4 42 e1 a0 0a 41 d8 1f
       8.743347e-12 -4.1867395e-11 -3.8160582e-19 9.1587156e-20
000190 c8 9c fe 9c 5b 15 24 9a 5f 26 8e 9c 69 0b 73 aa
       -1.6848837e-21 -3.3931656e-23 -9.40669e-22 -2.1586694e-13
0001a0 40 a0 02 b3 ee ea 88 98 58 7b 19 9f eb 16 f5 b1
       -3.041373e-08 -3.5392394e-24 -3.2501038e-20 -7.133044e-09
0001b0 cb 4e 10 19 bb f0 f1 b4 2f fd b2 9e 20 c9 3e 2b
       7.460538e-24 -4.5064903e-07 -1.8951197e-20 6.7780677e-13
0001c0 71 d0 ee 1a af 09 ec 9b 1e 99 2d ab 8f 8b 02 35
       9.877125e-23 -3.9049183e-22 -6.167444e-13 4.863186e-07
0001d0 b9 a6 9d 20 6c 39 85 26 17 f6 06 b1 e0 95 03 2b
       2.6707162e-19 9.244293e-16 -1.9639452e-09 4.674854e-13
0001e0 5f 77 3b 1a 16 bc a0 9a b5 fb ff 2f 62 9b 77 22
       3.876712e-23 -6.647832e-23 4.6563078e-10 3.3557001e-18
0001f0 f2 f3 06 b3 0a e0 8e a3 d2 c5 d2 99 4e 54 cc 2e
       -3.1421173e-08 -1.5490555e-17 -2.179339e-23 9.2918215e-11
000200 74 00 19 31 52 fb ab 1d 57 78 8f 20 57 f6 a3 2f
       2.2264688e-09 4.5523182e-21 2.4304777e-19 2.9824562e-10
000210 04 bf 1e b1 d1 44 92 23 25 ed a0 a0 0f 68 2b 35
       -2.3100606e-09 1.5858497e-17 -2.7261983e-19 6.385389e-07
000220 04 7c 65 9b ee b7 83 1b 11 5c 2b 9c 92 83 34 9e
       -1.8982508e-22 2.1790994e-22 -5.6698147e-22 -9.556329e-21
000230 0e 70 41 1b f5 59 3c 2b 5a 8f 91 a8 ff 9c 47 a6
       1.6000793e-22 6.691586e-13 -1.6160403e-14 -6.9254764e-16
000240 3e a4 b5 32 82 3f 03 a5 4c e4 3a b2 bd c8 83 a1
       2.1145862e-08 -1.1383956e-16 -1.0878534e-08 -8.93004e-19
000250 b1 05 22 ab 8b 77 88 a3 6f 48 39 9d 40 51 22 32
       -5.756186e-13 -1.4795778e-17 -2.4521993e-21 9.448115e-09
000260 77 87 27 28 e2 70 86 a6 5c cf 8d 9a b8 e6 e1 9a
       9.2997365e-15 -9.328715e-16 -5.865124e-23 -9.3430565e-23
000270 2a ef 51 1d 1c fa 7d b4 1b 94 91 99 a4 77 1a 34
       2.7784565e-21 -2.365345e-07 -1.5052468e-23 1.4385893e-07
000280 94 f2 13 1a 9f 7f 54 1d 89 36 82 a2 a7 d4 55 1c
       3.059484e-23 2.8123945e-21 -3.529431e-18 7.0750635e-22
000290 60 1b ed b4 21 80 08 32 cd b5 23 19 a2 4b 31 1f
       -4.4164608e-07 7.945375e-09 8.463617e-24 3.754377e-20
0002a0 59 91 9b a3 c1 2f c7 1a 28 8e 35 a6 7f 75 b3 34
       -1.686669e-17 8.238162e-23 -6.298965e-16 3.3426838e-07
0002b0 92 22 15 9c e0 33 40 1c e7 3d 24 a1 bb 2f 40 2b
       -4.9344646e-22 6.359452e-22 -5.564729e-19 6.827834e-13
0002c0 ba 80 97 1a 99 13 f7 1c 0c 0b 7c b5 b3 9f a6 31
       6.2660105e-23 1.6350155e-21 -9.389339e-07 4.8493916e-09
0002d0 d4 24 93 19 bb 9b 32 19 ce 68 d2 1a 57 f0 92 a4
       1.5214319e-23 9.233834e-24 8.7023285e-23 -6.372456e-17
0002e0 e1 7e 72 a8 56 2e 28 31 5f 66 8c a1 b7 cb a9 a7
       -1.3461211e-14 2.4473557e-09 -9.513866e-19 -4.712779e-15
0002f0 14 a9 0d 99 47 93 58 22 2b d0 b1 2e d4 6d 46 9b
       -7.323674e-24 2.9351427e-18 8.086006e-11 -1.6413664e-22
000300 21 5b a7 b5 fd 6c 9a 9c d7 73 99 a0 5b 16 7e 23
       -1.2468992e-06 -1.0219038e-21 -2.5995865e-19 1.37741015e-17
000310 7e 28 5e 9d 84 d9 00 1a cd 61 1e 21 c3 53 d3 1c
       -2.940239e-21 2.6645487e-23 5.366192e-19 1.3984461e-21
000320 ee 78 8c 19 f4 9d 00 b4 1d 39 a5 23 6a 81 99 1a
       1.4524504e-23 -1.1978392e-07 1.7913524e-17 6.3488397e-23
000330 6d 42 fa 9b a6 df 1a 22 2a dc a4 30 46 91 a7 9f
       -4.1401957e-22 2.098929e-18 1.1995145e-09 -7.0967586e-20
000340 3d 87 46 1a 22 ea 8c 9d 28 50 3c 1b 1c 4b 97 af
       4.1054685e-23 -3.729978e-21 1.5576895e-22 -2.7520108e-10
000350 6c a2 bb 1a 03 a1 9d 1d f5 e6 36 2b e4 23 6b b1
       7.7603794e-23 4.1724036e-21 6.4979906e-13 -3.4217402e-09
000360 29 bc a7 9d 1a b8 6d 1b 16 34 ab 1e 10 38 87 22
       -4.4399085e-21 1.9663667e-22 1.8126871e-20 3.665118e-18
000370 71 9b df 98 8a 6b 96 b5 eb e9 02 9b 2e 78 a0 b2
       -5.7801105e-24 -1.1207169e-06 -1.0828931e-22 -1.8681103e-08
000380 a1 e3 38 b0 e8 41 bc ae 80 9c fc a0 53 83 4e 1a
       -6.726229e-10 -8.5609575e-11 -4.2794024e-19 4.2705884e-23
000390 29 51 e4 9a c2 f1 5b 1d 58 56 49 20 cb 1e 81 2f
       -9.442971e-23 2.9109395e-21 1.7053931e-19 2.3486843e-10
0003a0 04 87 f3 19 ae ad b2 19 e0 67 3e a2 91 e9 1a 1c
       2.5180143e-23 1.8474917e-23 -2.5804793e-18 5.1256203e-22
0003b0 fb 82 1c 99 73 ad a4 21 2b 2c 98 aa 6b 79 6e ad
       -8.091462e-24 1.1158984e-18 -2.7031272e-13 -1.3555694e-11
0003c0 ec c1 92 26 e5 f6 fa 9b 03 7a 4b 35 da 73 93 1d
       1.0183348e-15 -4.1518582e-22 7.5800943e-07 3.9030364e-21
0003d0 95 27 db 2f 75 08 47 a0 ee 42 a6 2e 3b f1 cc 2d
       3.9863993e-10 -1.6858754e-19 7.560695e-11 2.3299243e-11
0003e0 a0 f7 79 9f d8 dd 94 aa 46 45 60 a5 74 23 4f 32
       -5.293263e-20 -2.6444016e-13 -1.9452374e-16 1.2057047e-08
0003f0 b4 64 ee 1b 17 0d a9 9a ab 60 db a5 03 9f 49 19
       3.9438875e-22 -6.991791e-23 -3.805595e-16 1.0423569e-23

lstm.bias_ih_l0 f4 [80]
000000 89 96 79 1f 1a b4 e8 a7 ca 4c ea 21 14 3e 0e 33
       5.285232e-20 -6.45882e-15 1.5876783e-18 3.311841e-08
000010 56 66 fe a3 61 fc b7 1e 57 32 92 b3 58 08 c0 b5
       -2.7582076e-17 1.948026e-20 -6.8078116e-08 -1.4307543e-06
000020 97 84 9f 33 ed 21 8c 21 18 72 af 23 5c 55 6a 20
       7.4281324e-08 9.495749e-19 1.9021859e-17 1.9848814e-19
000030 70 00 20 ad 69 36 c5 b0 84 45 e0 b1 7c ee 98 a2
       -9.095044e-12 -1.4349101e-09 -6.527161e-09 -4.1452188e-18
000040 aa da 14 b3 f7 63 53 28 55 f5 45 20 a2 2a 7b a4
       -3.465781e-08 1.1734529e-14 1.6767723e-19 -5.446306e-17
000050 2c 48 d5 1f 73 93 47 20 d3 7c a0 21 5a 4f b5 2c
       9.032841e-20 1.6904743e-19 1.0875062e-18 5.153139e-12
000060 34 3f 16 b4 d8 ad 7a 9e c0 70 2d a3 61 c4 ee a2
       -1.3992832e-07 -1.327084e-20 -9.4022245e-18 -6.4717954e-18
000070 e5 37 8c af c6 5c 2c 33 5a 1a 84 23 3d 60 41 a6
       -2.5505567e-10 4.0131248e-08 1.4322629e-17 -6.7090753e-16
000080 51 c7 25 25 9f 4b 2f 20 d0 b5 8f 20 05 d8 44 b1
       1.4379e-16 1.4848097e-19 2.4345456e-19 -2.8644547e-09
000090 96 9d 68 9f 8c f4 1b 25 f8 b4 63 9f f2 db 07 23
       -4.9258263e-20 1.3526963e-16 -4.8218814e-20 7.36494e-18
0000a0 91 7c ac af 73 cd f6 ae b6 61 b2 30 bf 41 40 b4
       -3.1375127e-10 -1.122328e-10 1.2978976e-09 -1.7905312e-07
0000b0 f9 39 06 31 0e af 56 2f 6e 80 b7 33 dd 35 11 33
       1.953252e-09 1.9525379e-10 8.544963e-08 3.380943e-08
0000c0 b7 9c c1 2e 80 c3 69 ae 6b 9c 2e b2 dd e6 5c 30
       8.804462e-11 -5.3151705e-11 -1.0163698e-08 8.036361e-10
0000d0 84 2f 5b 32 fc 16 db 2f a6 20 26 b0 b3 a3 5e 2e
       1.27582815e-08 3.98522e-10 -6.0436844e-10 5.062235e-11
0000e0 90 d0 d3 2d bf c0 82 35 4a 71 68 2f e5 60 83 b2
       2.4080543e-11 9.741851e-07 2.1140525e-10 -1.529447e-08
0000f0 bb da 39 ab 24 9c 98 33 62 e7 15 b4 c4 8a fb b4
       -6.602875e-13 7.1064534e-08 -1.3960883e-07 -4.6853359e-07
000100 9f fe 00 36 4e a5 b2 1e 9a a5 5e a2 8d 80 ab a2
       1.9221695e-06 1.8914851e-20 -3.017428e-18 -4.648575e-18
000110 65 3e 37 a8 ca f3 72 9e d3 e4 f9 a5 da b8 26 28
       -1.017207e-14 -1.2861788e-20 -4.3349672e-16 9.254934e-15
000120 91 9b 96 25 11 ad 51 ae 3e 22 f7 b2 ab c3 6b a8
       2.6126268e-16 -4.7674812e-11 -2.8770156e-08 -1.3087549e-14
000130 04 6d 8a a7 16 b8 04 b3 05 35 dc 1e e9 0c 04 25
       -3.842089e-15 -3.090107e-08 2.3315334e-20 1.1453549e-16

lstm.bias_hh_l0 f4 [80]
000000 4f bb e4 1f 51 f6 a8 aa 04 2d c3 21 ba 20 e8 b0
       9.687163e-20 -3.001371e-13 1.322563e-18 -1.6889523e-09
000010 a1 c9 1a 28 59 a3 d9 b4 c4 17 54 35 15 c9 7c a2
       8.592439e-15 -4.053825e-07 7.901074e-07 -3.425882e-18
000020 9e de ec 1f 2b 89 3f b3 57 db 92 23 cf 88 98 30
       1.0031818e-19 -4.4595406e-08 1.5922246e-17 1.1098339e-09
000030 44 89 dc 24 9d 4f a9 21 fe 17 ee 1f 44 99 ef aa
       9.564233e-17 1.1472959e-18 1.0083661e-19 -4.2561278e-13
000040 6e 14 c8 1c 2c 35 13 2a 97 20 6b 1f 2c 2e 4a 21
       1.3240171e-21 1.307467e-13 4.9790143e-20 6.850137e-19
000050 71 47 28 26 ec d8 f1 1e 22 37 da 21 9e 6f ab b2
       5.838353e-16 2.5606584e-20 1.4786848e-18 -1.9957778e-08
000060 d9 f5 ae b0 20 25 7c 1c 41 9c 93 a8 0c d3 c8 a2
       -1.273004e-09 8.342779e-22 -1.6388043e-14 -5.4433563e-18
000070 56 39 a7 a0 23 da 4f 34 8b e3 fc 23 eb 02 dc 20
       -2.8328842e-19 1.9357735e-07 2.7418263e-17 3.727138e-19
000080 ef af ad 34 9b ae 01 a5 ab c5 d9 35 c6 0d 2a b4
       3.235177e-07 -1.1248125e-16 1.6225289e-06 -1.5837495e-07
000090 a3 29 80 9f 18 10 03 34 d3 15 87 2b dc d0 0b 34
       -5.427899e-20 1.220618e-07 9.598384e-13 1.3021366e-07
0000a0 46 31 82 af dc 6d 39 ad 54 ab a7 30 18 76 79 b3
       -2.3681873e-10 -1.0540426e-11 1.2199544e-09 -5.8082236e-08
0000b0 28 d2 e2 b3 46 01 ea af ca ef f8 33 cd 3b 1a b4
       -1.0562172e-07 -4.2565257e-10 1.1592017e-07 -1.4364123e-07
0000c0 57 ae d9 b0 79 64 1d b0 eb 0c 6b b1 3d 6a fb 2f
       -1.5838378e-09 -5.725905e-10 -3.4204344e-09 4.573212e-10
0000d0 66 a4 84 35 d4 16 ec 2f ab c9 35 b0 66 34 2c 2f
       9.882613e-07 4.294437e-10 -6.6134004e-10 1.5661925e-10
0000e0 08 09 9e 2d 2e 15 61 2f f9 20 1f 2f 9e 5b b1 ae
       1.7966531e-11 2.0471155e-10 1.447268e-10 -8.0653026e-11
0000f0 d4 9c 86 1f 6c 73 07 33 a9 c2 2c 28 05 2a 80 a3
       5.701066e-20 3.1537112e-08 9.590128e-15 -1.3895584e-17
000100 d6 a3 cc b2 22 30 89 9e 06 d6 a4 a3 f3 37 12 a6
       -2.382323e-08 -1.4525346e-20 -1.7871558e-17 -5.072975e-16
000110 50 b8 04 aa d3 c3 de a4 dc 3d b5 34 57 fe 0c 21
       -1.1787901e-13 -9.660889e-17 3.3758886e-07 4.777046e-19
000120 78 ac bc 24 55 40 94 22 a9 8f 13 21 ab 36 67 35
       8.182418e-17 4.0183595e-18 4.999567e-19 8.613376e-07
000130 2c 5b 81 22 7c f4 31 32 2c 53 c6 af f9 03 83 21
       3.506205e-18 1.0358345e-08 -3.6075087e-10 8.877957e-19

lstm.weight_ih_l1 f4 [80, 20]
000000 54 0f 80 a6 bb ca 7a a5 98 fd 3a 27 aa 40 61 aa
       -8.885939e-16 -2.1752731e-16 2.5950159e-15 -2.0006449e-13
000010 6c e8 28 aa ee 14 b7 b3 0c 0f 38 2a ca f6 cd a9
       -1.5002035e-13 -8.525409e-08 1.6347703e-13 -9.14664e-14
000020 eb 10 9f a6 89 f0 01 a6 c8 de 5f a8 05 cf 90 26
       -1.1037427e-15 -4.508185e-16 -1.2427295e-14 1.004812e-15
000030 41 0f 09 2c 8d 02 7e 26 38 21 8c a6 58 4a 91 25
       1.9477339e-12 8.812741e-16 -9.723455e-16 2.5203868e-16
000040 1c 4e f5 34 49 9f d6 2b d1 35 ac 25 d8 db 83 b4
       4.5691638e-07 1.5249825e-12 2.987371e-16 -2.456061e-07
000050 78 e3 e8 a2 6a ca eb a2 57 70 84 23 64 1f 09 a8
       -6.3124568e-18 -6.391119e-18 1.4359046e-17 -7.6118345e-15
000060 a8 9a 51 a6 94 6e 6f a2 bc 7f 44 33 58 35 35 ad
       -7.272104e-16 -3.244908e-18 4.575098e-08 -1.03005035e-11
000070 ba d4 63 34 d8 67 7f 31 c9 78 76 a5 03 d1 bc 34
       2.1218412e-07 3.7166412e-09 -2.1378022e-16 3.5169805e-07
000080 3f d8 7a 28 c0 a6 a4 2c c5 df 69 33 77 91 c8 34
       1.3924679e-14 4.6796733e-12 5.4453057e-08 3.7358743e-07
000090 26 a9 c5 31 8f 3c 4f 35 d9 59 f6 21 f2 0d 0f a5
       5.7526846e-09 7.7201634e-07 1.6693391e-18 -1.2407998e-16
0000a0 cb 2a 07 a4 a0 72 5c 2f 54 8a 41 25 a2 0d bc a7
       -2.9309706e-17 2.0049606e-10 1.6786949e-16 -5.2195263e-15
0000b0 e9 4d df a7 77 ee 72 a3 0d 50 8b 28 14 c6 a6 a7
       -6.1979404e-15 -1.3169343e-17 1.5466817e-14 -4.6289012e-15
0000c0 81 98 51 a5 7c 30 8e 30 3e 1c a6 b1 57 9b d1 24
       -1.817953e-16 1.034564e-09 -4.8344466e-09 9.090246e-17
0000d0 6f 79 cf b4 56 d0 01 b0 09 c6 76 ab 6a 1b 3f 2b
       -3.864511e-07 -4.722599e-10 -8.7671585e-13 6.7894876e-13
0000e0 a9 7f 36 22 6c a7 8e 35 4a c5 a8 23 03 b4 2e 34
       2.4733182e-18 1.0628551e-06 1.8298152e-17 1.62705e-07
0000f0 30 1c 33 a6 e2 94 e5 25 bf 31 26 35 d4 e7 c9 aa
       -6.21413e-16 3.9826055e-16 6.191221e-07 -3.5865636e-13
000100 29 33 e7 a9 99 fc 7d a5 0b 3e 97 2a b0 e9 0f b5
       -1.02673356e-13 -2.2029835e-16 2.686604e-13 -5.361171e-07
000110 57 30 c1 31 d7 aa 6a a6 d8 25 70 a8 7c 05 24 a9
       5.622535e-09 -8.141659e-16 -1.3330882e-14 -3.6420072e-14
000120 7b 02 83 2b f8 da c2 b3 ea 0b 97 a6 a2 60 d3 25
       9.308798e-13 -9.073659e-08 -1.0480959e-15 3.6668146e-16
000130 69 d6 28 27 8b 39 66 2b 07 a3 30 26 1f e7 ad a7
       2.3430915e-15 8.179227e-13 6.128321e-16 -4.8267728e-15
000140 04 78 07 a5 f5 c3 8c 1f 41 83 5f 33 7e 37 ad a6
       -1.1750046e-16 5.961649e-20 5.204061e-08 -1.2019328e-15
000150 87 e2 02 a6 24 76 ec b4 ad 2f 9e 28 64 b5 0d b4
       -4.540981e-16 -4.4044384e-07 1.75622e-14 -1.3197638e-07
000160 3f 3d 22 a3 aa 10 3b 35 77 d0 f8 b0 bd 70 22 23
       -8.795007e-18 6.968718e-07 -1.8103624e-09 8.805911e-18
000170 ad 3d 16 28 20 55 a0 33 d0 6f 94 a2 f6 66 5d 21
       8.3400465e-15 7.466065e-08 -4.0233866e-18 7.501398e-19
000180 9a 2f 1f 28 32 d2 ba 27 4c 2c 06 22 32 92 b3 a4
       8.836595e-15 5.1853265e-15 1.8183837e-18 -7.787654e-17
000190 2b 7f d1 b3 ab 9e c1 a6 6d b5 dc 28 b8 25 32 ac
       -9.7554526e-08 -1.3435072e-15 2.4503587e-14 -2.531626e-12
0001a0 42 13 50 ac 96 9b 76 30 3b fe da 2c 65 e4 86 ab
       -2.9569268e-12 8.971538e-10 6.224158e-12 -9.584665e-13
0001b0 89 15 81 a8 28 22 f7 a7 4a 8c 1b aa 78 fa 65 28
       -1.4331216e-14 -6.8593304e-15 -1.3815438e-13 1.2766365e-14
0001c0 29 d0 2c 2e 5b 88 03 35 18 0e 0b b0 d9 bb ad 27
       3.9293156e-11 4.8999726e-07 -5.0587934e-10 4.822081e-15
0001d0 30 5f fc 25 84 d5 09 2d cc 87 80 27 92 72 02 ab
       4.3779533e-16 7.834958e-12 3.567437e-15 -4.6344276e-13
0001e0 c0 e2 d1 a6 e4 26 41 a6 88 2f 33 28 f2 96 05 b2
       -1.4563749e-15 -6.7013033e-16 9.946803e-15 -7.77594e-09
0001f0 48 76 a0 aa 14 27 8b a6 22 4b 13 2b 3b f2 50 ab
       -2.8503784e-13 -9.655655e-16 5.232916e-13 -7.4232607e-13
000200 42 ab 81 2a c4 8b 8a 32 77 ec bf b4 79 8f 0a 29
       2.3033837e-13 1.6128872e-08 -3.5748573e-07 3.0766598e-14
000210 36 f9 c1 2c 5c 6d 57 27 9d a5 4d a7 c4 97 31 26
       5.513058e-12 2.9896528e-15 -2.8539244e-15 6.161489e-16
000220 61 a5 87 b0 f6 29 2f b1 9d 61 89 26 2a c2 be a9
       -9.869546e-10 -2.5489704e-09 9.532743e-16 -8.471377e-14
000230 9c 5e 87 a1 94 dd 3d 2b cd 4b 19 b3 fc 0e fd a5
       -9.172999e-19 6.745379e-13 -3.569203e-08 -4.3898658e-16
000240 c8 3f 37 a5 84 2d d4 9e 94 de e2 b3 92 28 39 34
       -1.589433e-16 -2.2465198e-20 -1.0564432e-07 1.7244227e-07
000250 7c 02 05 a2 2d 71 a7 a1 3c 8c e6 a3 f7 ad 87 b5
       -1.8026176e-18 -1.1346318e-18 -2.4996042e-17 -1.0108914e-06
000260 d2 dc cd 26 9b c1 aa 21 4a 64 4e 35 71 7e 0f b0
       1.4284586e-15 1.1570895e-18 7.688692e-07 -5.220278e-10
000270 93 eb f2 ac 67 8c df 26 4f bf 22 b1 e7 8b f5 a3
       -6.9042077e-12 1.551179e-15 -2.368285e-09 -2.6622204e-17
000280 32 1c 37 a3 11 27 ad 1f 1a 5f 8e 23 e9 f5 27 2f
       -9.9264205e-18 7.333298e-20 1.5435948e-17 1.5275926e-10
000290 8f 0e 06 a7 e8 6f d1 a2 03 af ff 31 5c 48 07 2b
       -1.8604128e-15 -5.676805e-18 7.4413733e-09 4.8062053e-13
0002a0 5f fc c7 a3 6f 0a 9e b5 3f bf 42 a5 62 30 11 28
       -2.1682507e-17 -1.1774954e-06 -1.6891614e-16 8.059608e-15
0002b0 fc 43 3e b5 4c b3 0f 27 66 d6 85 a3 a7 63 69 a8
       -7.0879446e-07 1.9942434e-15 -1.451069e-17 -1.2955707e-14
0002c0 d7 74 ff 22 a8 42 a3 28 56 ad 01 b3 09 c5 3e a5
       6.9241597e-18 1.8125543e-14 -3.01928e-08 -1.6546631e-16
0002d0 6d 50 2a a1 98 92 46 b3 af 52 98 28 f9 ac 87 a9
       -5.7704683e-19 -4.6233794e-08 1.6911248e-14 -6.02521e-14
0002e0 d9 3f bf b0 2d d2 62 a8 7c 34 a4 25 54 f7 fa a4
       -1.3915226e-09 -1.2591095e-14 2.848503e-16 -1.0883921e-16
0002f0 11 4e ba b4 11 e5 0b b4 4b 7b 3a a3 c9 c6 9f a1
       -3.4702e-07 -1.3028718e-07 -1.01091885e-17 -1.0826877e-18
000300 24 2c 99 26 01 d1 05 21 95 c5 9f 35 7c 0b b9 ab
       1.0628472e-15 4.5338767e-19 1.1903927e-06 -1.3148228e-12
000310 ad 2c 8f 20 27 db 8d 26 12 5f a5 20 7a 54 88 a3
       2.4254706e-19 9.843242e-16 2.8015e-19 -1.4780927e-17
000320 0d 44 cf a5 ef a6 2b a5 a6 20 19 27 07 a8 0d aa
       -3.595489e-16 -1.4888445e-16 2.1250714e-15 -1.2581612e-13
000330 5d cf 92 a9 e4 b6 37 32 e0 1f d3 29 62 98 db a9
       -6.519674e-14 1.06935865e-08 9.375812e-14 -9.751988e-14
000340 2f 00 a2 a6 86 48 23 a6 32 a3 28 a8 b4 4e 48 26
       -1.1241058e-15 -5.6650273e-16 -9.361261e-15 6.94956e-16
000350 c0 28 21 2f af c2 27 26 2b aa 9c a6 bd cd 02 25
       1.4657342e-10 5.820361e-16 -1.0870799e-15 1.134541e-16
000360 ad 3f 35 35 59 81 9b b1 ed 7c d6 25 26 2d 48 32
       6.7520415e-07 -4.525799e-09 3.7207735e-16 1.1651798e-08
000370 82 0f c6 a0 63 e1 74 33 56 0a 29 33 82 90 f5 a5
       -3.3552767e-19 5.7015665e-08 3.935778e-08 -4.2598647e-16
000380 2d 69 bc a4 76 23 7f a0 ca e5 41 25 c3 d5 a6 a4
       -8.171018e-17 -2.1611073e-19 1.6817937e-16 -7.235315e-17
000390 e2 2a b3 a1 fd 5f a8 33 4e 8c 7c a3 c8 45 95 21
       -1.2140863e-18 7.84057e-08 -1.3690658e-17 1.0115104e-18
0003a0 32 c8 f6 26 51 2b 2f 21 ed b3 c5 34 78 4c 36 20
       1.7123942e-15 5.9349635e-19 3.6825023e-07 1.5441301e-19
0003b0 cd 82 56 b5 0a 6e 65 ae b5 78 b1 2f 5e 72 7d a3
       -7.991155e-07 -5.2166306e-11 3.228188e-10 -1.3739376e-17
0003c0 09 1d 01 b1 ac f1 0c a3 42 5b 37 26 25 e5 4e a9
       -1.8788475e-09 -7.640591e-18 6.3614557e-16 -4.593994e-14
0003d0 2c 67 2b a8 56 6a c6 a3 6f fb b0 28 01 ff 2d 2f
       -9.514779e-15 -2.1512238e-17 1.9648967e-14 1.5824854e-10
0003e0 38 36 41 a5 1e d6 a3 2a 30 af e8 aa e6 13 0d 25
       -1.6758452e-16 2.910319e-13 -4.133304e-13 1.2236542e-16
0003f0 ea 9e 3d 35 aa fa 49 25 76 c8 ea 2f c9 03 ca 23
       7.0639237e-07 1.7518899e-16 4.2706788e-10 2.1902487e-17

lstm.weight_hh_l1 f4 [80, 20]
000000 e3 0b 0f 31 20 fc 6a af 0d c1 15 b2 92 50 9b b0
       2.0815996e-09 -2.1371749e-10 -8.716836e-09 -1.1300634e-09
000010 9a c8 09 af b6 4a 58 32 8d f0 20 35 c6 e2 34 31
       -1.2531345e-10 1.2589842e-08 5.995469e-07 2.6322353e-09
000020 c4 37 b8 35 29 13 e8 2e ec e3 f2 b0 a2 01 9a ae
       1.3725298e-06 1.0553542e-10 -1.7672597e-09 -7.003399e-11
000030 f7 71 89 b0 9e 93 c9 30 9c ee 94 b3 4e cc b4 ae
       -1.0000453e-09 1.466663e-09 -6.93519e-08 -8.221744e-11
000040 e4 fc ee b4 13 cf 95 af d3 a9 bf b0 a1 a4 67 b2
       -4.4514957e-07 -2.7250077e-10 -1.3945346e-09 -1.3483402e-08
000050 1c 4f e6 2d 57 c5 63 34 45 6e ca ac 15 d8 11 ae
       2.6183104e-11 2.1212814e-07 -5.7534277e-12 -3.3161102e-11
000060 7e 8d 11 ac f3 78 88 2f 1c 8c 9c 2e a1 5e a6 2b
       -2.0684283e-12 2.4824195e-10 7.118947e-11 1.1821274e-12
000070 e3 01 13 2d 4a 89 41 2b ea 2e ed 30 74 ac e3 ab
       8.3564015e-12 6.87579e-13 1.7257353e-09 -1.6177185e-12
000080 72 b7 9e ad d9 5c 92 2d 7d b3 ea ac e9 57 8d 31
       -1.8043986e-11 1.6639511e-11 -6.670607e-12 4.1136343e-09
000090 87 78 2c ad 40 61 69 ad 7f 7d fe b3 ae a5 b7 2c
       -9.8038305e-12 -1.326611e-11 -1.1850624e-07 5.219567e-12
0000a0 53 d0 ce b5 51 6b 05 33 e1 05 29 ae 1e 51 1a af
       -1.5408826e-06 3.106408e-08 -3.8431373e-11 -1.4035037e-10
0000b0 29 4b 55 ad fd 93 95 30 d9 31 b5 2f b1 6c 4b 2d
       -1.2124337e-11 1.0883238e-09 3.2959127e-10 1.1563348e-11
0000c0 f6 d1 8e b4 3c 37 8c 34 6e dd 13 af 81 b7 92 ac
       -2.6602328e-07 2.611722e-07 -1.344824e-10 -4.1699426e-12
0000d0 8d d2 4a ae e3 be 96 2e 87 0f c2 ad bb 42 a9 ac
       -4.611649e-11 6.8551186e-11 -2.2062142e-11 -4.8106775e-12
0000e0 a6 95 d9 ae 68 1e 9d ad 86 ba 85 ae e2 c8 69 2d
       -9.8946004e-11 -1.7862337e-11 -6.081273e-11 1.32891215e-11
0000f0 ef d7 29 31 13 df a0 af 89 ad b1 b1 30 6e 31 b1
       2.471548e-09 -2.9262334e-10 -5.1711067e-09 -2.5819524e-09
000100 fd 37 63 af 8a 85 62 32 d9 17 9d 31 4d 40 81 2f
       -2.0665421e-10 1.3185295e-08 4.5720125e-09 2.3510652e-10
000110 cf 38 8f 2f f3 e6 9e 2e 64 97 31 34 53 4e 29 af
       2.6051913e-10 7.226033e-11 1.6539485e-07 -1.5398287e-10
000120 f7 be 51 b0 6c b0 f5 30 45 d0 e4 af ee 21 82 b4
       -7.6305134e-10 1.7876238e-09 -4.1620943e-10 -2.4239074e-07
000130 d5 2d 22 b0 e5 7c bc af 5c bb a7 b0 cb 06 b3 2f
       -5.900039e-10 -3.4285744e-10 -1.22041e-09 3.2564737e-10
000140 b0 fa 0a 2e e6 d6 aa ab 95 74 4f ac 98 36 c1 35
       3.1600222e-11 -1.2138873e-12 -2.9481185e-12 1.4395509e-06
000150 8a 99 4c ab de ca 89 2e d9 0a 82 2e 5c 53 6e 35
       -7.268844e-13 6.266075e-11 5.9136425e-11 8.8783213e-07
000160 d5 9d 19 2c d1 f3 27 33 47 b4 72 ae 3b 09 de aa
       2.1830222e-12 3.9104467e-08 -5.5184548e-11 -3.9441527e-13
000170 55 f3 f4 ae e5 b0 24 2d 21 65 0f ac 37 e4 1e 35
       -1.113906e-10 9.361599e-12 -2.037766e-12 5.9191683e-07
000180 84 53 3f ac 89 a5 e5 ab 11 81 79 ac da 76 0d 33
       -2.7189093e-12 -1.6317374e-12 -3.5456674e-12 3.2937216e-08
000190 5a bc de 32 f6 d9 c2 b1 c0 d2 73 b2 e5 25 fd b2
       2.5929854e-08 -5.6709224e-09 -1.4192381e-08 -2.9470309e-08
0001a0 5c 04 dc b3 96 af d2 b3 3b ca 9e 33 41 28 eb 30
       -1.0245341e-07 -9.810826e-08 7.394234e-08 1.7109941e-09
0001b0 c1 20 82 31 1a a7 c0 30 d2 c5 4b b3 c8 54 c6 b0
       3.7872216e-09 1.4017332e-09 -4.7444537e-08 -1.4430492e-09
0001c0 eb 95 1e b2 f1 ec 5b b5 5d 15 e5 35 fc fa b2 b0
       -9.230898e-09 -8.192865e-07 1.7068047e-06 -1.3022539e-09
0001d0 3c d2 f6 b2 36 75 bd b1 e1 88 28 b2 37 c2 bc 31
       -2.8733773e-08 -5.5139493e-09 -9.81001e-09 5.4936e-09
0001e0 7d d9 0a b2 96 c1 85 b0 ba ce 1f b1 92 00 71 b2
       -8.082108e-09 -9.732044e-10 -2.3255056e-09 -1.4028176e-08
0001f0 19 6d 3b b0 1a ed 24 33 2d 0a 5f 32 dd 45 a9 2f
       -6.818524e-10 3.8399868e-08 1.2982622e-08 3.0790562e-10
000200 6d 85 1e 31 50 0c 8c 2f f7 95 d0 b1 a1 12 59 af
       2.306787e-09 2.54746e-10 -6.0706458e-09 -1.9742653e-10
000210 c4 f5 07 b1 7b b2 4f 31 2d 62 ac b0 33 e4 87 af
       -1.9784787e-09 3.022392e-09 -1.254255e-09 -2.4718502e-10
000220 6a 5d f1 b0 5e 09 83 b0 dd 60 1a b1 e9 5e 31 30
       -1.7561608e-09 -9.534167e-10 -2.246501e-09 6.45271e-10
000230 4b c3 0e b5 4e f9 90 b0 f7 be 9d ab 15 70 9b ac
       -5.318331e-07 -1.0548236e-09 -1.1208524e-12 -4.4178086e-12
000240 bc 1e b0 35 39 76 31 b4 a3 63 26 2d 34 23 58 2a
       1.3121967e-06 -1.6527419e-07 9.458131e-12 1.9196867e-13
000250 46 60 fb b3 97 6a 82 2a 1c 07 6a ac c0 95 9c b5
       -1.170561e-07 2.31666e-13 -3.3257347e-12 -1.1666489e-06
000260 84 40 be ab 7a db 17 2c 63 f2 f0 b4 90 63 58 35
       -1.3518219e-12 2.1580225e-12 -4.4879843e-07 8.0611153e-07
000270 a5 cc 82 ab 33 3a 28 ab a9 2c b4 ab 8a 35 07 31
       -9.293856e-13 -5.976636e-13 -1.2802165e-12 1.967552e-09
000280 ca bf a0 b5 10 48 24 ad 4c 5e 15 33 d0 0f 76 ae
       -1.1976747e-06 -9.338322e-12 3.477753e-08 -5.594797e-11
000290 5f 43 09 ac 9f 2b 30 2f a6 79 34 2f 10 a8 e8 2b
       -1.950627e-12 1.6022604e-10 1.6414123e-10 1.6531238e-12
0002a0 44 af a3 34 56 00 79 2b 71 6d 27 2f 58 ca 76 ab
       3.0488638e-07 8.8463037e-13 1.5227443e-10 -8.7677565e-13
0002b0 b8 5a ae ad 02 08 81 35 57 18 bc ac 34 a4 3e 2e
       -1.9821797e-11 9.61358e-07 -5.3459836e-12 4.334684e-11
0002c0 4a 13 1a ad b0 18 42 ad 78 7d eb b1 07 18 27 2d
       -8.7581695e-12 -1.1033105e-11 -6.8536643e-09 9.498186e-12
0002d0 7d 15 6b 35 19 b9 97 aa eb 20 35 33 d5 74 45 ac
       8.757559e-07 -2.6951426e-13 4.2172285e-08 -2.8060239e-12
0002e0 d5 53 0d aa 2a d8 8e 2d 1d e2 72 2c 30 af 0e 2a
       -1.2552401e-13 1.6239527e-11 3.4515786e-12 1.2672914e-13
0002f0 f2 44 d3 2a 0e 7d e2 29 2d 58 8a 33 0a 2a b8 b5
       3.752897e-13 1.005811e-13 6.442165e-08 -1.3721303e-06
000300 58 79 10 b3 f8 0c 80 2c 3a e8 3f ab 32 30 d4 a9
       -3.3637974e-08 3.6394186e-12 -6.817911e-13 -9.423052e-14
000310 35 c8 27 ab 32 80 bd aa 83 f2 ab ab 91 de e5 b5
       -5.960816e-13 -3.3662098e-13 -1.2217591e-12 -1.7126605e-06
000320 fe 67 58 31 94 ce 2b af 08 ce d7 af 8c f5 05 b1
       3.149125e-09 -1.562575e-10 -3.9254666e-10 -1.9493624e-09
000330 65 95 4c 30 97 b0 af 31 a8 7d fa 31 60 2f f5 2e
       7.442707e-10 5.1132463e-09 7.290243e-09 1.11497256e-10
000340 3f 75 4f 2f 51 da 46 2e b7 81 25 b1 be 3b 77 34
       1.8868195e-10 4.521389e-11 -2.4084394e-09 2.3025402e-07
000350 70 bb 35 b2 5e 7c 55 30 bf db 8d af 0d cd 60 ae
       -1.0578205e-08 7.7665685e-10 -2.580389e-10 -5.1113825e-11
000360 eb c5 ce af 68 e0 b3 b5 55 8e 63 b0 69 3a 7e 2f
       -3.761181e-10 -1.340185e-06 -8.2784385e-10 2.3121917e-10
000370 b4 1b 94 ad 29 b2 c4 aa 1c 76 42 b5 55 37 31 ac
       -1.6837955e-11 -3.4940217e-13 -7.2442504e-07 -2.5183928e-12
000380 c4 28 2b aa ce b2 0f 2d f8 b0 6a 2c 84 99 b8 29
       -1.5201994e-13 8.1683115e-12 3.3351637e-12 8.197872e-14
000390 d2 49 17 2f 7f a6 77 29 9f 93 84 32 3f 98 ac a9
       1.3759596e-10 5.498943e-14 1.5433953e-08 -7.664745e-14
0003a0 0b 7b 86 ab e1 96 d3 b5 6e 9d ae aa b7 59 d4 b1
       -9.555424e-13 -1.5764637e-06 -3.1017848e-13 -6.1802115e-09
0003b0 10 17 b2 32 20 26 89 aa 80 d4 85 ab 07 2f 10 b4
       2.0732415e-08 -2.4362543e-13 -9.509199e-13 -1.3428154e-07
0003c0 af cd 83 2f 92 7a 12 ae 79 ce 9b ae 47 ff 41 b3
       2.3974908e-10 -3.330542e-11 -7.085261e-11 -4.5168488e-08
0003d0 33 3a 36 ae 20 31 7c 30 c9 9c 5c 30 70 86 9b 2d
       -4.14337e-11 9.1746877e-10 8.025834e-10 1.7681162e-11
0003e0 b1 61 14 2e 20 a0 ad 32 b1 f2 95 af 8e 28 79 ad
       3.373807e-11 2.0212667e-08 -2.7275385e-10 -1.4163016e-11
0003f0 4a 75 4e b2 b1 5f 40 2f 1e 53 62 ae df 0a 38 2e
       -1.2017447e-08 1.7496295e-10 -5.1460274e-11 4.1846412e-11

lstm.bias_ih_l1 f4 [80]
000000 61 8e 2e 36 8b 2d 94 33 c0 dd dc 33 ab e2 0b 36
       2.6010896e-06 6.900071e-08 1.02848844e-07 2.0844552e-06
000010 c6 d0 22 32 d4 bd 91 37 a5 7f 96 36 28 e8 4e 31
       9.477111e-09 1.7373743e-05 4.485208e-06 3.010891e-09
000020 7b 15 f2 32 f4 1e 0f 31 82 b7 c7 36 12 b4 b1 30
       2.8182276e-08 2.0826834e-09 5.9520253e-06 1.2929624e-09
000030 cc 88 19 35 e4 3a ed 34 3f 99 a4 33 9f 97 cb b2
       5.719601e-07 4.418754e-07 7.6647204e-08 -2.370126e-08
000040 fd 5b c8 33 80 37 ff 32 1c 88 48 34 c4 40 88 32
       9.329958e-08 2.9711146e-08 1.8675968e-07 1.5861936e-08
000050 7c de cf 35 45 73 0c 33 a5 f6 b0 b4 71 ed 0b 36
       1.5487453e-06 3.2701127e-08 -3.2962012e-07 2.0850823e-06
000060 e5 7c 55 34 40 0f ab 37 04 2e 96 36 fe 79 9c b4
       1.9882607e-07 2.039189e-05 4.4757053e-06 -2.9146025e-07
000070 07 35 0d 33 f6 ae d5 30 03 b8 03 36 c2 ab be 30
       3.287735e-08 1.5547517e-09 1.962763e-06 1.3873136e-09
000080 00 90 0a 35 fe 1a dd 34 5f 59 3f 33 fe 31 f8 30
       5.1618554e-07 4.1184097e-07 4.4551935e-08 1.8058584e-09
000090 d6 55 02 34 c9 8a 08 33 8a b4 77 34 3d 6f 05 33
       1.213842e-07 3.1791192e-08 2.3069347e-07 3.1067646e-08
0000a0 27 62 b9 3a 90 e2 02 b9 63 c7 ca b9 c9 99 e5 ba
       0.0014143632 -0.00012482167 -0.00038676997 -0.0017517145
0000b0 62 e4 c0 b8 49 67 8a 3b eb 44 3c 3b 1b c2 69 38
       -9.197813e-05 0.0042237383 0.0028727602 5.5732304e-05
0000c0 75 df 2c 39 3a 79 34 38 47 9a a9 ba 7a 7f 45 b8
       0.00016486442 4.3028245e-05 -0.0012939655 -4.7087182e-05
0000d0 79 c3 00 ba 1e ae 0e 3a f9 a8 57 b9 22 42 1e b8
       -0.000491194 0.00054428156 -0.00020566945 -3.7731726e-05
0000e0 0d 13 9b b9 4a b0 56 b9 76 f8 d8 b9 61 fb 1e 39
       -0.00029578098 -0.00020474303 -0.00041383848 0.000151617
0000f0 d3 c3 f4 35 96 33 12 33 01 72 cb 33 3b c9 76 36
       1.8236409e-06 3.404019e-08 9.473661e-08 3.6773988e-06
000100 6b 05 11 32 1f d5 af 37 07 72 a2 36 3e 18 74 31
       8.441343e-09 2.0960868e-05 4.8412508e-06 3.5520453e-09
000110 34 4f 76 33 ea fb e8 30 2a fc 35 36 e1 e6 ee 30
       5.7348373e-08 1.695182e-09 2.711788e-06 1.7382399e-09
000120 03 5a 0e 35 dd a4 b9 34 4e f9 a7 33 87 fc ea 30
       5.3030107e-07 3.457889e-07 7.821892e-08 1.7097513e-09
000130 7b f6 c9 33 cd dd 02 33 fe c3 f1 34 b2 d3 b5 32
       9.4046264e-08 3.046971e-08 4.503235e-07 2.1167441e-08

lstm.bias_hh_l1 f4 [80]
000000 03 d3 0d 36 7b 5f b5 32 45 49 cd 33 7c b0 e2 35
       2.1133462e-06 2.1114593e-08 9.559384e-08 1.6889676e-06
000010 e3 09 fa 31 11 4f 9d 37 57 52 79 37 30 d6 cd 35
       7.2770816e-09 1.8752677e-05 1.4860728e-05 1.5336027e-06
000020 f3 05 ce 32 48 7a d2 30 cc 77 bc 35 9a c6 c4 30
       2.3984262e-08 1.5314265e-09 1.4041957e-06 1.4317323e-09
000030 4d a6 47 34 75 b9 df 34 b5 0c 36 33 31 e2 56 31
       1.8593819e-07 4.1671925e-07 4.2386734e-08 3.1269674e-09
000040 7b 26 4a 34 56 44 05 33 be 0f 4b 34 96 bf e8 b4
       1.8826715e-07 3.1028627e-08 1.8911575e-07 -4.3352765e-07
000050 a3 db fb 35 fd 65 93 32 b4 cf fa 33 56 37 1d 36
       1.876488e-06 1.7159431e-08 1.1679313e-07 2.3427033e-06
000060 0f 7b 18 32 0e 85 ee 37 5b a4 b6 36 fb c6 a9 31
       8.875545e-09 2.843377e-05 5.443156e-06 4.941169e-09
000070 1e a7 39 33 93 b8 06 31 da 40 93 35 03 11 02 31
       4.322566e-08 1.9604485e-09 1.0971228e-06 1.892716e-09
000080 9b 81 b3 35 4f 72 b3 34 5c ed 62 33 0b 91 53 31
       1.3374259e-06 3.342452e-07 5.2835603e-08 3.0786989e-09
000090 4e 70 e0 33 4c 64 ae 33 9b 91 bb 34 29 1e ae 32
       1.0451241e-07 8.12075e-08 3.4937406e-07 2.0269981e-08
0000a0 81 71 b5 3a d8 90 18 b9 a5 89 99 b9 97 28 9c ba
       0.0013843031 -0.00014549808 -0.00029284987 -0.0011913952
0000b0 e6 2e ae b8 1b 6c b8 3b 16 f4 04 3b 17 d9 91 38
       -8.305702e-05 0.0056281216 0.0020287088 6.954575e-05
0000c0 41 8b 26 39 1f 47 21 38 62 e8 81 ba ae 8b 0d b8
       0.0001588287 3.8451628e-05 -0.0009911174 -3.3747106e-05
0000d0 d4 6d f3 b9 4e 0c 56 3a ad fd 86 b9 0d c9 5d b8
       -0.000464304 0.00081652857 -0.00025747475 -5.287775e-05
0000e0 77 7f e1 b9 eb c3 2e b9 92 cc 0d ba 2c 08 0d 39
       -0.00043010313 -0.00016666918 -0.00054092065 0.00013449852
0000f0 d3 26 bf 35 50 92 bb 32 c1 2c ca 33 4c 70 e5 35
       1.4241908e-06 2.18362e-08 9.414499e-08 1.7094512e-06
000100 47 94 30 32 aa dd a5 37 e0 b2 df 36 66 8d 5b 31
       1.0278263e-08 1.9772753e-05 6.6667417e-06 3.194907e-09
000110 96 f5 57 33 de 15 e2 30 0e ea a3 35 93 69 c6 30
       5.0281947e-08 1.6449879e-09 1.2212565e-06 1.4436402e-09
000120 cb 9c 66 34 43 be dc 34 f6 2c 66 33 63 83 35 31
       2.147746e-07 4.1116627e-07 5.359194e-08 2.6413651e-09
000130 56 89 12 34 80 ce 08 33 e5 e7 54 34 b6 b3 cc 32
       1.3647272e-07 3.1852778e-08 1.9828401e-07 2.3830449e-08

fc.weight f4 [180, 20]
000000 79 1e ff 38 a6 dd 4a b7 94 3e 34 b8 7b f9 30 b9
       0.000121650235 -1.2091745e-05 -4.2973625e-05 -0.00016877607
000010 51 fb 1b b7 5b d5 d6 39 68 68 88 39 5d eb ba 36
       -9.297234e-06 0.00040976223 0.0002601773 5.570632e-06
000020 ba 6b 86 37 bb 12 8b 36 6a b0 d1 b8 84 b1 7e b6
       1.6024209e-05 4.1447033e-06 -9.998756e-05 -3.7952277e-06
000030 a5 ed 52 b8 9f b6 a9 38 46 21 a8 b7 5f 0b 84 b6
       -5.0289225e-05 8.092564e-05 -2.0042655e-05 -3.9352303e-06
000040 af c7 72 b8 47 28 87 b7 19 a0 30 b8 a1 05 51 37
       -5.7883266e-05 -1.611201e-05 -4.2110772e-05 1.2458681e-05
000050 55 85 06 39 e0 d6 02 b8 e5 4a 5f b8 d0 50 40 b9
       0.00012828906 -3.1194533e-05 -5.3237094e-05 -0.00018340652
000060 04 08 9a b7 31 37 fa 39 61 1d a2 39 89 12 bc 36
       -1.8361963e-05 0.00047724837 0.00030920937 5.6049944e-06
000070 47 b6 6b 37 27 0d 7c 36 55 ac d5 b8 fc 8c b5 b6
       1.4049531e-05 3.7558582e-06 -0.00010188731 -5.410633e-06
000080 61 bf 30 b8 a1 4b 8f 38 b9 5e c2 b7 8b 0c 84 b6
       -4.2139905e-05 6.832858e-05 -2.317071e-05 -3.9353667e-06
000090 fb c4 1c b8 bc 51 86 b7 80 64 74 b8 82 f2 53 37
       -3.737675e-05 -1.6012105e-05 -5.826773e-05 1.2633043e-05
0000a0 38 fe fa 38 3f a8 a7 b7 89 2a 07 b8 61 38 25 b9
       0.00011968281 -1.9986297e-05 -3.2226122e-05 -0.00015756629
0000b0 54 bb fe b6 19 5b f0 39 31 6a a1 39 b0 2c fe 36
       -7.5915978e-06 0.0004584424 0.00030787432 7.574992e-06
0000c0 45 fc 70 37 55 94 96 36 40 f8 09 b9 f1 b6 8c b6
       1.4363851e-05 4.4876165e-06 -0.00013157818 -4.1936223e-06
0000d0 5b 06 48 b8 59 3a 7b 38 da ea e4 b7 8b 91 bd b6
       -4.7689635e-05 5.9897404e-05 -2.728908e-05 -5.6495824e-06
0000e0 8c 33 05 b8 c6 c1 80 b7 f5 d4 4b b8 4e 7a 5c 37
       -3.1757678e-05 -1.5349022e-05 -4.8597303e-05 1.3141498e-05
0000f0 dd 38 04 39 23 0d e7 b7 1b 45 1a b8 e1 fc 2d b9
       0.00012609684 -2.7543463e-05 -3.678082e-05 -0.0001659277
000100 64 11 80 b7 e1 87 ec 39 57 a1 6a 39 1b 6a bc 36
       -1.5266887e-05 0.00045114665 0.00022376083 5.615189e-06
000110 d4 e2 77 37 b0 26 ac 36 4f fc e0 b8 96 55 8c b6
       1.477516e-05 5.1305033e-06 -0.000107281485 -4.1822886e-06
000120 74 19 76 b8 17 97 8e 38 41 da a9 b7 8e 23 a0 b6
       -5.8674676e-05 6.79923e-05 -2.0248002e-05 -4.7725107e-06
000130 b7 9c 05 b8 f5 02 93 b7 c6 b2 9f b8 5c 8f 52 37
       -3.1855623e-05 -1.7525143e-05 -7.61501e-05 1.2550354e-05
000140 cd a1 00 39 45 a4 57 b7 e7 93 f5 b7 bb c9 07 b9
       0.00012267307 -1.2853246e-05 -2.9275148e-05 -0.00012949754
000150 03 d8 0c b7 78 d8 f2 39 b3 f7 88 39 b5 24 cf 36
       -8.394944e-06 0.0004631912 0.00026124492 6.173354e-06
000160 da c5 d2 37 bc af a1 36 f0 e4 20 b9 8d 8a 6e b6
       2.5126083e-05 4.818632e-06 -0.00015344075 -3.554541e-06
000170 c5 e6 36 b8 00 8f 86 38 c4 d0 df b7 f9 bb cd b6
       -4.3607102e-05 6.416254e-05 -2.6680886e-05 -6.131359e-06
000180 58 cb 0b b8 b2 d0 90 b7 0f 5a 3f b8 41 a3 77 37
       -3.332956e-05 -1.7263319e-05 -4.5621822e-05 1.4760358e-05
000190 79 ed 17 39 2e 27 63 b7 4a aa 2a b8 ea a5 0d b9
       0.00014488948 -1.3539377e-05 -4.0689752e-05 -0.00013508616
0001a0 e1 3e fc b6 66 86 0d 3a 35 95 6f 39 dc 82 b9 36
       -7.5175053e-06 0.000539875 0.000228484 5.5286637e-06
0001b0 c8 33 6c 37 6d 7c 98 36 ff 0f 14 b9 88 f2 9f b6
       1.4078752e-05 4.544438e-06 -0.00014120339 -4.7668036e-06
0001c0 7b ff 72 b8 a2 ca 85 38 fc e3 b1 b7 0a 5d 97 b6
       -5.793523e-05 6.3796775e-05 -2.1206208e-05 -4.510982e-06
0001d0 88 21 2b b8 dc d8 a0 b7 2a cf 2a b8 07 21 a1 37
       -4.0800805e-05 -1.917447e-05 -4.0724095e-05 1.9208075e-05
0001e0 91 3b 07 39 9f 2e 42 b7 9c 86 33 b8 a9 68 02 b9
       0.00012896793 -1.1574156e-05 -4.280229e-05 -0.00012436755
0001f0 2a 77 87 b7 21 e7 f7 39 53 76 a0 39 fa d6 b6 36
       -1.6148744e-05 0.00047283716 0.00030605737 5.4490492e-06
000200 6f 08 91 37 97 73 c5 36 03 8a ea b8 34 c3 c5 b6
       1.7289274e-05 5.884514e-06 -0.00011183696 -5.893782e-06
000210 cf ac 26 b8 63 07 84 38 11 0b c5 b7 f0 24 92 b6
       -3.9738425e-05 6.2956264e-05 -2.3489383e-05 -4.355439e-06
000220 c3 81 04 b8 37 d2 aa b7 c2 dd 2e b8 f8 25 58 37
       -3.1592102e-05 -2.0363468e-05 -4.169136e-05 1.2883444e-05
000230 07 26 ff 38 00 fb b0 b7 4e 5e 13 b8 32 b8 20 b9
       0.00012166431 -2.1097716e-05 -3.513536e-05 -0.00015327407
000240 23 58 2e b7 8d c9 07 3a af 20 72 39 47 8b ad 36
       -1.0391729e-05 0.0005179875 0.00023091094 5.172016e-06
000250 d8 2a d3 37 3c 9a 5c 36 db 79 d3 b8 ae 54 81 b6
       2.517311e-05 3.287233e-06 -0.000100839614 -3.8543576e-06
000260 ee 33 6d b8 5d 8f a1 38 93 1f aa b7 f8 b2 98 b6
       -5.6553567e-05 7.703782e-05 -2.0280282e-05 -4.5507877e-06
000270 2e 33 05 b8 f1 2e 97 b7 c7 2d 47 b8 e5 2e 53 37
       -3.1757336e-05 -1.8022462e-05 -4.748793e-05 1.25874985e-05
000280 3c b4 07 39 7b 58 6c b7 59 bd f7 b7 12 64 34 b9
       0.00012941746 -1.4087297e-05 -2.9532866e-05 -0.00017203417
000290 8b a7 05 b7 13 d4 dd 39 9d 3b a4 39 cc 82 ac 36
       -7.966427e-06 0.00042310412 0.00031324933 5.141226e-06
0002a0 54 e0 ce 37 c3 c0 7e 36 6b 5f e2 b8 d3 f8 6d b6
       2.4661575e-05 3.7961152e-06 -0.00010794293 -3.5460587e-06
0002b0 70 fc 66 b8 2e df 75 38 45 59 c1 b7 af f1 83 b6
       -5.5071374e-05 5.8620404e-05 -2.3048962e-05 -3.93224e-06
0002c0 16 85 00 b8 9b e4 c9 b7 ec a9 47 b8 0e 87 88 37
       -3.0641524e-05 -2.406752e-05 -4.760355e-05 1.6275353e-05
0002d0 b0 58 09 39 be bb 55 b7 94 01 1b b8 76 b8 fc b8
       0.00013098377 -1.27395015e-05 -3.695635e-05 -0.00012050655
0002e0 69 77 a8 b7 d8 65 fe 39 a6 d4 8e 39 1f e7 e9 36
       -2.0082765e-05 0.00048522535 0.00027242786 6.970847e-06
0002f0 16 0b a0 37 9b 9c 03 37 30 4d de b8 c1 52 9d b6
       1.9078649e-05 7.844671e-06 -0.00010600162 -4.6885984e-06
000300 a5 5c 67 b8 b5 2b 75 38 48 96 b3 b7 60 11 96 b6
       -5.5160974e-05 5.8453257e-05 -2.1408443e-05 -4.472371e-06
000310 9a a4 15 b8 02 80 be b7 0f 88 68 b8 63 59 4b 37
       -3.5677665e-05 -2.2709373e-05 -5.5439825e-05 1.2120555e-05
000320 e4 7e 0e 39 7e b7 93 b7 17 66 0c b8 55 7a 45 b9
       0.00013589446 -1.760921e-05 -3.347368e-05 -0.00018832956
000330 7a 3a 1f b7 aa 99 0c 3a 52 fa a3 39 75 22 bf 36
       -9.490754e-06 0.0005363474 0.00031276286 5.696255e-06
000340 7e 4a ab 37 d3 a2 95 36 68 5f 3b b9 d9 43 8c b6
       2.0419477e-05 4.4595013e-06 -0.00017869251 -4.1802236e-06
000350 02 1b 4d b8 df ee a9 38 ca eb a8 b7 bc 2f 84 b6
       -4.890096e-05 8.103041e-05 -2.0136958e-05 -3.9394636e-06
000360 98 5f 2d b8 88 7a af b7 60 07 b1 b8 68 79 ae 37
       -4.1335443e-05 -2.0918684e-05 -8.4413914e-05 2.079895e-05
000370 df ab fc 38 5b e3 a1 b7 66 20 1d b8 49 c4 35 b9
       0.0001204831 -1.9298566e-05 -3.746189e-05 -0.00017334627
000380 26 6a 05 b7 a2 93 f8 39 2f 78 81 39 6f 6b f7 36
       -7.952132e-06 0.0004741224 0.0002469434 7.3736805e-06
000390 af 40 8f 37 bf 65 7d 36 aa fe e0 b8 83 36 78 b6
       1.7077049e-05 3.7759162e-06 -0.00010728587 -3.698661e-06
0003a0 ed 35 37 b8 f8 12 9b 38 f5 52 e9 b7 75 48 82 b6
       -4.3680822e-05 7.394509e-05 -2.7814394e-05 -3.882737e-06
0003b0 c5 6c 66 b8 a4 ad 94 b7 c9 de 86 b8 12 55 77 37
       -5.4937573e-05 -1.7723833e-05 -6.431115e-05 1.4742154e-05
0003c0 b7 e5 25 39 bd 92 5f b7 ef d9 f8 b7 1d 2c 03 b9
       0.00015821202 -1.3326001e-05 -2.9665387e-05 -0.00012509567
0003d0 89 4d 44 b7 3e ee dd 39 73 f3 a3 39 98 bf cc 36
       -1.1700563e-05 0.0004232991 0.00031271167 6.101978e-06
0003e0 85 9e 6c 37 16 fc 73 36 b1 72 c5 b8 1a be 8d b6
       1.4103604e-05 3.6356555e-06 -9.415055e-05 -4.224258e-06
0003f0 32 a3 37 b8 69 5e a2 38 3e 02 fc b7 54 58 af b6
       -4.3782587e-05 7.742347e-05 -3.0041785e-05 -5.225689e-06
