backend/model/lstm-BKNG-360-.pth (torch, 53964 bytes, 12 tensors)

conv1.weight f4 [2, 4, 3]
000000 9f 96 26 30 7f 12 64 35 30 89 b8 2f f3 29 97 2f
       6.0604494e-10 8.4963534e-07 3.3566883e-10 2.7496547e-10
000010 42 93 70 2f e8 e2 36 b9 7d 2b 0c 30 98 70 b5 b6
       2.188019e-10 -0.00017441402 5.0993504e-10 -5.407328e-06
000020 8b 6a ad 2f 23 e7 8e 2f de 20 b7 2f 8e 89 e3 2f
       3.154422e-10 2.5993882e-10 3.331086e-10 4.1388798e-10
000030 63 82 00 2f 06 04 1f 33 2b ff 09 2f e2 83 a0 2e
       1.1687855e-10 3.702373e-08 1.2550731e-10 7.299385e-11
000040 aa 62 0d 38 1a 39 00 2f 2f 6a 3d 2e 32 f8 0d 30
       3.3708908e-05 1.1661819e-10 4.3067935e-11 5.164821e-10
000050 b6 61 e1 2e 14 69 a4 36 95 ac 9f 34 c1 29 f2 37
       1.0249172e-10 4.8998136e-06 2.9741628e-07 2.8868091e-05

conv1.bias f4 [2]
000000 20 67 3e 30 34 3d f2 34
       6.9268147e-10 4.5120544e-07

lstm.weight_ih_l0 f4 [80, 2]
000000 b0 5d 45 a8 78 cb 2f b7 1d 4c 70 a8 47 a4 53 2a
       -1.0956012e-14 -1.0478187e-05 -1.3339181e-14 1.879756e-13
000010 09 c6 89 aa 2e 9f e5 2a ce 88 59 b1 f0 cf 44 29
       -2.4473503e-13 4.0789025e-13 -3.165542e-09 4.37011e-14
000020 5a 14 32 a6 eb b9 0c ae 07 f1 39 b4 be eb 1b 23
       -6.1783737e-16 -3.1997443e-11 -1.7317153e-07 8.452487e-18
000030 31 bb f8 b1 5c 6e 2b 25 bb 4f f0 2b f9 20 82 29
       -7.239031e-09 1.4869277e-16 1.7075155e-12 5.7788796e-14
000040 ea eb 65 a6 4f 90 81 37 70 dc 28 b4 11 81 2a 25
       -7.977006e-16 1.5445197e-05 -1.5726414e-07 1.4788879e-16
000050 d6 e1 ca 35 b2 e4 99 2a 21 1f cd a7 de 04 49 27
       1.51159e-06 2.733695e-13 -5.693268e-15 2.7896992e-15
000060 c5 61 4c a9 14 6b 7a 34 a6 1b ae a4 0c 1e 4d b2
       -4.53819e-14 2.3322019e-07 -7.550731e-17 -1.1939402e-08
000070 01 2a 90 b4 fa 6f 18 29 01 d6 00 ac c4 2e f2 2a
       -2.6852652e-07 3.3847904e-14 -1.830869e-12 4.3020286e-13
000080 1b af c5 a9 af 39 00 36 b0 f4 0b a7 10 6b 08 aa
       -8.7789334e-14 1.9107063e-06 -1.942277e-15 -1.2116371e-13
000090 86 f5 38 a9 62 90 b3 28 7d e7 4f a6 b9 2c 14 26
       -4.1069165e-14 1.9935608e-14 -7.2131277e-16 5.1408425e-16
0000a0 6e da cf a8 a3 d1 0f 28 1e 5e 68 a8 ad 64 33 b7
       -2.3076345e-14 7.983552e-15 -1.28989955e-14 -1.0692672e-05
0000b0 fe 6d db b6 0e e9 8f 2a 5a 4d 1a aa 13 e6 4b 29
       -6.5395134e-06 2.5563617e-13 -1.3704784e-13 4.5274612e-14
0000c0 aa 18 56 32 eb 9d f9 33 cc d2 74 2c 6d c4 27 a5
       1.2462047e-08 1.1623691e-07 3.4791501e-12 -1.4551493e-16
0000d0 6e d4 ac a5 38 66 f6 35 31 f3 b4 aa 43 ef 32 29
       -2.9981192e-16 1.8358178e-06 -3.214317e-13 3.9731466e-14
0000e0 c7 18 e1 32 54 8e c7 b6 9f 05 34 a6 8b 81 9b ab
       2.6204715e-08 -5.9472313e-06 -6.2457663e-16 -1.1049368e-12
0000f0 5f 99 74 ab af 06 be 36 a2 49 b3 a7 4e 7b 9c b1
       -8.689906e-13 5.6632193e-06 -4.9762313e-15 -4.5542157e-09
000100 23 35 2a a9 34 26 06 35 6a 80 85 a4 77 f4 31 36
       -3.779367e-14 4.9974483e-07 -5.78971e-17 2.6517353e-06
000110 f1 df 13 aa 79 a9 6c 29 fd 28 48 ab c4 9a 61 2b
       -1.3133918e-13 5.254952e-14 -7.1111156e-13 8.015084e-13
000120 0a c5 e4 a9 7c 9f 6e 29 f8 ea 91 a6 4b 44 d4 33
       -1.0159415e-13 5.2984947e-14 -1.0125085e-15 9.884442e-08
000130 50 85 10 a9 e4 af 94 2d b7 a0 b5 b4 7a 46 70 b6
       -3.2090053e-14 1.6903763e-11 -3.3830813e-07 -3.580381e-06
000140 96 25 59 b1 f8 d5 6f b5 ab c7 6e 30 ee a7 01 b0
       -3.1599021e-09 -8.9345804e-07 8.686764e-10 -4.716857e-10
000150 12 2d c2 b1 05 3f 56 36 6c 77 79 b1 19 ad 49 30
       -5.651267e-09 3.1925167e-06 -3.6302152e-09 7.336936e-10
000160 b9 07 4b 30 8e 86 d3 ae 0a 9b 3e ae 1a 76 2a 2e
       7.3861944e-10 -9.619071e-11 -4.33387e-11 3.875842e-11
000170 9d df 40 37 c5 3d 96 ae cf 7b 2d b2 c2 c0 91 31
       1.1496156e-05 -6.832183e-11 -1.0098076e-08 4.2419694e-09
000180 ee d3 2b b0 a0 6e d8 30 2b bd 28 33 a2 14 8b af
       -6.251061e-10 1.574751e-09 3.9287595e-08 -2.5298613e-10
000190 58 78 57 37 f6 99 a9 35 0e 44 34 b7 80 8b fa 30
       1.2843018e-05 1.263629e-06 -1.0744681e-05 1.8229542e-09
0001a0 aa 05 3d 33 f2 a2 ff af df 32 e2 2e f4 19 8d b4
       4.4010143e-08 -4.650001e-10 1.02863267e-10 -2.628218e-07
0001b0 51 88 34 b1 8c 67 86 30 9e 72 10 32 b9 92 b5 33
       -2.6270934e-09 9.779213e-10 8.407964e-09 8.455158e-08
0001c0 59 c6 19 b1 05 68 7b 33 37 66 99 2f d6 95 1f af
       -2.2377178e-09 5.8535097e-08 2.7903166e-10 -1.4514198e-10
0001d0 bb a9 8f b0 18 f7 ce 2f e6 30 71 36 12 3d 63 af
       -1.045286e-09 3.7646752e-10 3.594026e-06 -2.0667226e-10
0001e0 17 79 29 a9 e9 2f 14 28 52 e0 19 34 1e 17 fa a9
       -3.7630567e-14 8.226039e-15 1.4330843e-07 -1.11062404e-13
0001f0 76 b4 f3 35 90 b7 33 2a 4c 3a 0f aa b1 22 b7 36
       1.8157432e-06 1.596208e-13 -1.2721177e-13 5.4578636e-06
000200 a9 62 33 37 a6 e2 48 aa 11 1a 40 2a 2d 41 0f 23
       1.06922025e-05 -1.7842203e-13 1.7062069e-13 7.765847e-18
000210 32 4a 02 a6 4e 8f 48 2b 9a b3 1c aa b7 aa 73 b7
       -4.5203364e-16 7.125315e-13 -1.3917895e-13 -1.4523676e-05
000220 ef bc 03 a8 21 be aa b4 7f 4f 15 a6 1d 08 b4 34
       -7.312929e-15 -3.1803305e-07 -5.1802497e-16 3.3533516e-07
000230 da 5d aa ab c0 ad 85 2a ab 2e bc a6 af ff 1e 27
       -1.2105276e-12 2.374611e-13 -1.305777e-15 2.2065511e-15
000240 68 6a dc a8 a1 53 bd 28 f7 65 af a4 79 ae 28 23
       -2.4471053e-14 2.1019483e-14 -7.606689e-17 9.144244e-18
000250 4d 99 6f aa 2d 0e 2a 2f bc b8 9e ab 1c bf fc b5
       -2.1280651e-13 1.5466446e-10 -1.1277849e-12 -1.8831083e-06
000260 9c be 83 aa 38 71 60 33 a5 00 c5 a6 d7 7b f1 b5
       -2.3402536e-13 5.2257036e-08 -1.3669796e-15 -1.7991941e-06
000270 f0 41 d7 a8 28 69 b7 31 60 55 a3 a6 29 42 6e 26
       -2.3898391e-14 5.337956e-09 -1.1333538e-15 8.26625e-16

lstm.weight_hh_l0 f4 [80, 20]
000000 5e 1f 01 37 ab 6c 8b 2c 97 c9 83 a8 da ac 27 af
       7.696302e-06 3.962682e-12 -1.4631347e-14 -1.5249971e-10
000010 d2 cf fc a5 67 19 3f 2a f3 73 08 a6 8f 5a 16 28
       -4.3855856e-16 1.6973021e-13 -4.734162e-16 8.3463094e-15
000020 1f 75 8d 26 4a d6 ee 30 b4 b8 8c 28 f5 ff ce 26
       9.815586e-16 1.7377684e-09 1.5623225e-14 1.4363499e-15
000030 cd 06 36 37 9b 87 57 a5 9d 36 9c 35 9b f3 b3 a8
       1.0849629e-05 -1.8694222e-16 1.16388e-06 -1.997864e-14
000040 bd 83 0d 28 5c b8 cc a6 40 d3 92 27 4f 1c ba 30
       7.8556385e-15 -1.4205314e-15 4.075218e-15 1.3541327e-09
000050 5e bb 46 b5 6e 8b 1b 35 f8 7e 62 28 b2 4b e6 36
       -7.4033403e-07 5.7944897e-07 1.2573052e-14 6.8633462e-06
000060 36 a9 b2 a5 aa 15 af b5 5a 61 7a a5 30 99 98 29
       -3.099274e-16 -1.3044821e-06 -2.1717027e-16 6.77673e-14
000070 38 20 1d b5 a1 9c 0a 30 4b 54 0b b6 78 0e 86 27
       -5.853394e-07 5.042669e-10 -2.076168e-06 3.720816e-15
000080 26 b8 31 31 32 cd d9 a4 ec 4e c2 27 a0 29 d9 b4
       2.5861566e-09 -9.445636e-17 5.3931384e-15 -4.0449686e-07
000090 a2 29 38 28 5d e3 d6 32 e3 af c6 2c 00 64 5e 34
       1.02230795e-14 2.5016272e-08 5.647026e-12 2.0711741e-07
0000a0 14 97 71 29 f4 ce a5 2c 62 2d 5d 2a 41 da c9 29
       5.364379e-14 4.7125585e-12 1.9644488e-13 8.964054e-14
0000b0 b4 4d 91 a8 04 a2 d4 26 8b 55 9d b3 a0 1d 0d 2a
       -1.6131932e-14 1.475437e-15 -7.3264424e-08 1.2533594e-13
0000c0 54 63 83 28 74 6a ae a7 ef e9 29 2b 96 99 12 29
       1.4586998e-14 -4.841012e-15 6.036551e-13 3.2551727e-14
0000d0 11 ec a4 a9 7c 31 8d a7 e0 8b 00 2a c8 b8 19 ab
       -7.324014e-14 -3.9189013e-15 1.1417213e-13 -5.4612955e-13
0000e0 65 df a3 2b 6a 78 e9 b5 fc 89 27 b7 6b 47 87 a8
       1.1643851e-12 -1.7394898e-06 -9.986103e-06 -1.5018983e-14
0000f0 8b 80 4a 28 27 c8 94 ac c3 20 45 b0 2a 87 66 29
       1.1241126e-14 -4.2286344e-12 -7.171474e-10 5.1187495e-14
000100 49 e9 17 a7 25 92 3a 26 a8 48 ab a6 40 80 30 b1
       -2.1081924e-15 6.4729776e-16 -1.1885202e-15 -2.5684272e-09
000110 7a 0a 14 27 0c 15 d6 a6 2b 78 bd ab bb fd 0e 28
       2.0544805e-15 -1.4854938e-15 -1.3462611e-12 7.9376025e-15
000120 f3 e9 32 33 cb f6 78 a6 1b c1 17 29 62 f3 89 36
       4.165663e-08 -8.637675e-16 3.3696228e-14 4.1112517e-06
000130 a4 e6 02 2c 70 de 47 a7 83 b3 97 28 31 34 9d a7
       1.8602142e-12 -2.7737381e-15 1.6842218e-14 -4.363284e-15
000140 01 7f dd 24 93 d5 f3 b5 2a 5d 10 aa 0a 8f 46 a3
       9.6058625e-17 -1.8167069e-06 -1.2822092e-13 -1.0763891e-17
000150 b1 36 c3 a4 b1 26 67 22 12 ad a6 a4 7a 8d c3 29
       -8.466042e-17 3.132682e-18 -7.228422e-17 8.684282e-14
000160 2f 88 83 b4 37 e3 02 2a 41 78 78 26 80 33 89 24
       -2.4499738e-07 1.162515e-13 8.620526e-16 5.9501523e-17
000170 49 ba 03 25 8e ae 49 22 16 0c af b5 b0 9c 0f 33
       1.1425555e-16 2.7332988e-18 -1.3042034e-06 3.343729e-08
000180 98 f2 a3 36 73 13 ae a3 7a ce 16 25 c0 82 1b a4
       4.88602e-06 -1.8873355e-17 1.3080383e-16 -3.3721017e-17
000190 df a3 eb 2b b4 30 3d a2 0d 18 92 ac b2 fe 2c 34
       1.6743238e-12 -2.564006e-18 -4.1522397e-12 1.6111406e-07
0001a0 23 86 84 33 32 78 04 30 32 6f 4c 28 2b 66 2a 2e
       6.171128e-08 4.819213e-10 1.13483865e-14 3.8744268e-11
0001b0 9c 8f 08 a5 51 f1 05 a1 4d df 38 aa 62 fa 7e ab
       -1.1844776e-16 -4.538153e-19 -1.6419956e-13 -9.0586403e-13
0001c0 9e 55 c0 ac 87 d6 49 32 7e 11 25 b2 c4 fd ce a3
       -5.4664736e-12 1.1748518e-08 -9.608241e-09 -2.2442039e-17
0001d0 78 69 c8 b4 69 23 c5 a1 69 4f 1f 34 17 e7 1c b6
       -3.7329642e-07 -1.3358612e-18 1.4836918e-07 -2.3380323e-06
0001e0 a9 26 6d 24 a8 85 67 2b d8 05 a5 25 42 aa 27 25
       5.142393e-17 8.225317e-13 2.8626897e-16 1.4542627e-16
0001f0 b3 e9 1f 31 4e f7 ea b2 f5 0e 4d 27 d0 3f a8 29
       2.3270388e-09 -2.7353646e-08 2.8457573e-15 7.4717684e-14
000200 69 a4 12 23 31 4b b9 32 e6 cf 34 b4 35 8b 23 33
       7.949491e-18 2.1571028e-08 -1.683944e-07 3.8078003e-08
000210 d4 ce f5 a4 35 f0 59 b6 3c 08 68 25 be 82 56 b4
       -1.06602193e-16 -3.2475339e-06 2.0125582e-16 -1.9977867e-07
000220 0f cb 2e 29 43 ea 65 a3 04 16 67 b5 80 32 70 33
       3.8811887e-14 -1.2463722e-17 -8.6086243e-07 5.5925284e-08
000230 57 0b 1f 29 86 ab aa a8 d0 f8 20 37 59 0e 32 b5
       3.5314928e-14 -1.8948178e-14 9.594674e-06 -6.6331046e-07
000240 1a e2 c4 a7 47 a5 35 31 bb 95 19 a7 f8 9c 99 29
       -5.464607e-15 2.6432916e-09 -2.1314184e-15 6.8217946e-14
000250 08 8e a0 35 53 30 d0 31 7d 13 2f 35 27 f3 39 28
       1.1962265e-06 6.0590906e-09 6.522094e-07 1.0322288e-14
000260 8f 74 d3 b6 84 3f 81 a6 ac 44 81 29 f4 61 86 aa
       -6.3018592e-06 -8.968389e-16 5.7406635e-14 -2.387115e-13
000270 b0 57 5b 29 08 c4 c3 29 b1 55 69 b6 7d a4 7e 2c
       4.8703825e-14 8.6937456e-14 -3.4769585e-06 3.618688e-12
000280 f9 0d 8a b5 3c 17 b2 2c 54 97 07 34 c0 f6 9a 25
       -1.0285868e-06 5.061644e-12 1.2627908e-07 2.6881946e-16
000290 92 b3 ca a3 07 58 bd 2c 7c 0c 12 a7 e9 42 c6 25
       -2.1976935e-17 5.381476e-12 -2.0268338e-15 3.4392865e-16
0002a0 a7 d8 9a b6 45 61 77 37 99 8e 88 34 2e 72 98 24
       -4.6147793e-06 1.4744995e-05 2.5435727e-07 6.611292e-17
0002b0 3b 76 a2 b2 ec 1b e6 30 72 0e eb 25 66 2b 1f a8
       -1.8913047e-08 1.6742638e-09 4.077579e-16 -8.835684e-15
0002c0 47 d5 84 a6 2f c2 18 a4 7b 75 5f 25 fe d1 59 a4
       -9.217149e-16 -3.3124226e-17 1.9381971e-16 -4.7232245e-17
0002d0 ce ad 8f 24 15 fe 35 b0 60 c7 05 26 80 73 ba b5
       6.23108e-17 -6.620849e-10 4.641385e-16 -1.3891695e-06
0002e0 ab 02 3b 22 5f 34 f5 2f 6e 2d dd 34 16 dd 3a b6
       2.5344638e-18 4.4602452e-10 4.1197512e-07 -2.7844849e-06
0002f0 c6 e0 bb b4 88 c0 0a 24 0c c0 1c 2a 6c f1 f7 ad
       -3.4995008e-07 3.008706e-17 1.3922213e-13 -2.8187862e-11
000300 cb 50 2f b4 e5 af f4 2b a4 25 54 25 7c 59 b9 35
       -1.6327537e-07 1.7386063e-12 1.8400822e-16 1.3809617e-06
000310 25 5b 7a 25 21 37 87 25 1a 76 a0 2c 01 14 85 a4
       2.1714924e-16 2.3456124e-16 4.5605854e-12 -5.7713444e-17
000320 3f 18 0b 2a f5 06 36 aa dc 2b d6 b0 29 19 34 31
       1.2354092e-13 -1.6167261e-13 -1.5583015e-09 2.620775e-09
000330 65 31 45 a8 85 e3 6c b7 d8 69 24 a8 2b 65 0b b7
       -1.09464075e-14 -1.411967e-05 -9.12678e-15 -8.308601e-06
000340 c0 84 9d 28 7d bf 4d a8 8e 2f 27 2b c4 15 6e 29
       1.7488073e-14 -1.1421308e-14 5.9396314e-13 5.2865495e-14
000350 da 41 17 aa f3 d2 cd a7 65 10 b3 2a be 4f 22 b0
       -1.3434341e-13 -5.712764e-15 3.1808163e-13 -5.9048577e-10
000360 b9 72 e4 2a 26 86 a2 a8 a1 ef 16 2a 62 75 d4 a8
       4.058054e-13 -1.804379e-14 1.3405814e-13 -2.3587635e-14
000370 66 2c 5f 36 62 ea 8c a6 14 b5 b4 27 e8 43 13 27
       3.3255433e-06 -9.777981e-16 5.015636e-15 2.043716e-15
000380 de 1b 41 b6 cc e1 c1 23 6c 7b 00 33 34 de 2e aa
       -2.8775462e-06 2.102073e-17 2.9914574e-08 -1.5531397e-13
000390 a4 a9 b1 24 13 77 f3 a4 9e 8d 3e 2a f7 f5 c6 25
       7.7048896e-17 -1.0558617e-16 1.6924523e-13 3.4514197e-16
0003a0 1e 28 ad b3 9f 6b 6c a4 63 00 65 27 38 91 74 b7
       -8.0632375e-08 -5.12655e-17 3.1780344e-15 -1.4577345e-05
0003b0 97 01 eb 33 2a 55 85 a5 1e 54 80 27 37 25 53 a5
       1.09433294e-07 -2.3129532e-16 3.5618337e-15 -1.8313942e-16
0003c0 20 1b 11 28 fa 27 54 32 c5 00 1e 29 41 49 ac b5
       8.054999e-15 1.2349114e-08 3.5083715e-14 -1.2836318e-06
0003d0 6e 3b 76 ab 60 16 af 25 11 d0 4b a6 91 a4 09 29
       -8.747923e-13 3.0372823e-16 -7.0711756e-16 3.056285e-14
0003e0 a2 a4 c7 ac b9 9a c8 a6 74 88 fa 33 ef b8 80 27
       -5.674198e-12 -1.3919725e-15 1.1666353e-07 3.5727642e-15
0003f0 cc af 84 29 e0 e6 be a5 38 2b f7 28 df ff ac a9
       5.8924735e-14 -3.3116193e-16 2.7441252e-14 -7.682721e-14

lstm.bias_ih_l0 f4 [80]
000000 b7 48 33 37 cb 30 27 2f 1d 5a 93 31 7e b1 55 31
       1.0686162e-05 1.5205896e-10 4.2885078e-09 3.1096472e-09
000010 7e a0 dc 2d 46 e7 84 2a 48 53 be 2c 28 49 dd 30
       2.5082377e-11 2.3608388e-13 5.409371e-12 1.6100659e-09
000020 c3 fd cc 31 db fe 8a 2c 12 4b b5 31 2c df 26 2e
       5.966031e-09 3.9504905e-12 5.276328e-09 3.7942247e-11
000030 43 47 16 30 fd 5f 93 2b 6a 24 39 b4 81 34 71 32
       5.467095e-10 1.047162e-12 -1.7242715e-07 1.4039984e-08
000040 53 ef 15 b7 bc f4 9e 2d 7c 25 58 2f 5f 17 47 2d
       -8.936814e-06 1.8071204e-11 1.9658403e-10 1.131703e-11
000050 f5 86 18 36 8d c8 0b 2f fc f2 d7 31 b8 4f c9 30
       2.272832e-06 1.2713226e-10 6.2849477e-09 1.4647332e-09
000060 d1 f7 f1 2c 86 f4 aa 2a 18 56 80 2c 23 fe a8 30
       6.877145e-12 3.0367738e-13 3.647537e-12 1.2295839e-09
000070 d9 be 82 b4 66 8a 84 2c 62 e2 54 32 44 6d 99 2e
       -2.4353247e-07 3.767031e-12 1.2391498e-08 6.977044e-11
000080 2b 02 47 30 61 13 96 2b 9e b3 91 30 fa 2c f1 31
       7.239886e-10 1.066352e-12 1.0601189e-09 7.0191364e-09
000090 8c ab e0 30 f1 af 26 2e 24 2c 87 2f 7a ae 40 b7
       1.6346902e-09 3.7900297e-11 2.458772e-10 -1.1484715e-05
0000a0 d0 1b 3a 37 65 89 08 b7 9f 05 26 38 93 39 c3 37
       1.10929395e-05 -8.138221e-06 3.958272e-05 2.3272622e-05
0000b0 1d 18 07 b6 1c eb f4 34 9a b2 fd b5 9b 0a 47 38
       -2.0130603e-06 4.5619606e-07 -1.8901949e-06 4.7455174e-05
0000c0 aa 48 2a 36 05 55 fe b5 0f d7 9f 38 35 97 2b 37
       2.537427e-06 -1.8949219e-06 7.6217686e-05 1.02276e-05
0000d0 a6 10 d5 b7 e2 5b a0 b5 2a 5d 97 38 6c ce ee b8
       -2.5399331e-05 -1.194767e-06 7.217594e-05 -0.000113871734
0000e0 31 26 81 38 bf cf 83 b6 3e ec 52 37 75 3a c6 b6
       6.158313e-05 -3.928289e-06 1.257198e-05 -5.907665e-06
0000f0 b8 e0 8e 34 cc 39 c1 2f 10 57 6b 31 e1 d9 54 30
       2.6613066e-07 3.5147563e-10 3.424649e-09 7.7434775e-10
000100 6d 7d 04 2d 40 3d 49 2a 4d 89 3b 2d 69 be 18 31
       7.531181e-12 1.7873637e-13 1.0660206e-11 2.2227147e-09
000110 2b 3a 24 2d 89 fc f5 2c 3c f5 01 32 f6 58 3b 2f
       9.335237e-12 6.991356e-12 7.564548e-09 1.7039156e-10
000120 0d 48 bf 2f 8c 85 7c 2b 09 a0 0d 32 47 61 d1 31
       3.4793893e-10 8.971372e-13 8.243668e-09 6.0937597e-09
000130 58 8b 7d 34 d9 95 dc 36 95 48 2a 32 e6 7f 99 33
       2.3613154e-07 6.5739555e-06 9.911806e-09 7.147882e-08

lstm.bias_hh_l0 f4 [80]
000000 94 26 81 34 d5 1e 99 b4 5d 98 df b6 0b 26 24 31
       2.4056192e-07 -2.8520904e-07 -6.6636553e-06 2.3886766e-09
000010 f5 41 0c 2d cc 47 d6 2a fa a7 cc 33 5a 6d af 31
       7.972724e-12 3.8063855e-13 9.530045e-08 5.105602e-09
000020 e2 80 fe 2c a1 33 73 2d 69 22 a2 31 8b ff 41 34
       7.233423e-12 1.3824415e-11 4.7187325e-09 1.8067492e-07
000030 29 a7 78 34 05 3a 47 2b d0 96 bf 30 2e ef ba 34
       2.3157612e-07 7.077952e-13 1.3939943e-09 3.4819226e-07
000040 8e 79 4f b7 c4 cb 87 2e cf f6 51 2f c4 00 80 2d
       -1.2366463e-05 6.175285e-11 1.9096123e-10 1.4552255e-11
000050 aa b5 90 2f be 82 b3 2f 78 26 56 31 4b 0f e4 36
       2.6322527e-10 3.2652808e-10 3.1162966e-09 6.79671e-06
000060 e6 05 94 2d 4a 17 75 b7 d7 13 58 2c 9c 28 ad 30
       1.6828271e-11 -1.460856e-05 3.070646e-12 1.2598949e-09
000070 89 79 d0 2d 08 ae 19 36 d4 0c b1 31 1b 0a 2b 2e
       2.3700835e-11 2.2900076e-06 5.1528364e-09 3.8889874e-11
000080 89 ed 41 30 24 b9 a6 2d c8 88 22 32 5b 30 b0 31
       7.055055e-10 1.8954234e-11 9.4607415e-09 5.1277715e-09
000090 d0 08 86 b6 08 d2 0f b1 9f 68 f2 2f 89 af 9d b6
       -3.994537e-06 -2.0928628e-09 4.409388e-10 -4.6993996e-06
0000a0 14 7e d3 37 d2 38 a4 b7 48 66 de 38 50 db 53 38
       2.521187e-05 -1.9576783e-05 0.00010604836 5.051057e-05
0000b0 87 7b 4e b6 eb 1d 02 35 69 09 df b5 ba f7 61 38
       -3.0768294e-06 4.847231e-07 -1.6617533e-06 5.3874894e-05
0000c0 3d f9 43 36 20 26 02 b6 8f 9b f8 38 7c af a8 36
       2.920234e-06 -1.9393701e-06 0.000118545366 5.0272192e-06
0000d0 62 e1 0e b8 a9 64 35 b5 db 20 c9 37 1c cd f3 b8
       -3.4065342e-05 -6.7574234e-07 2.3976367e-05 -0.000116253475
0000e0 bb 20 db 37 00 f3 87 b6 1a d5 f0 37 af 56 93 b6
       2.6122076e-05 -4.0516024e-06 2.8709463e-05 -4.3910327e-06
0000f0 a0 46 24 30 1d 41 df 2e 86 34 50 31 70 e9 80 31
       5.9763217e-10 1.01524324e-10 3.029784e-09 3.751829e-09
000100 81 8c d9 2d b4 77 d3 b3 f2 b4 8a 2c 68 66 ac 31
       2.473244e-11 -9.847227e-08 3.942285e-12 5.017501e-09
000110 d3 91 f1 2c 7f 12 89 b6 52 e9 07 32 09 e8 93 36
       6.8658217e-12 -4.0850714e-06 7.911085e-09 4.407954e-06
000120 28 fe 80 30 46 1d 38 2b 37 d3 93 30 55 e5 b8 31
       9.385461e-10 6.5410557e-13 1.0755689e-09 5.381177e-09
000130 ac 65 9b 30 c1 a2 44 2d da 37 b1 2f 70 76 59 2d
       1.1306631e-09 1.1177449e-11 3.2235797e-10 1.236132e-11

lstm.weight_ih_l1 f4 [80, 20]
000000 27 1e 57 35 d4 af 22 b5 86 29 5b 36 b9 bc 13 36
       8.013762e-07 -6.0605566e-07 3.2657713e-06 2.2014558e-06
000010 9a 7a 2a b4 48 90 44 b5 ea 82 21 b5 1f c7 09 36
       -1.5877086e-07 -7.3225647e-07 -6.016768e-07 2.0530495e-06
000020 78 a5 02 34 01 6c c2 b4 63 62 a3 36 9f f3 fe 34
       1.216739e-07 -3.62139e-07 4.8692323e-06 4.7488444e-07
000030 b6 ce e8 b5 b1 8c 0a b4 06 eb 30 37 f1 c4 c5 b6
       -1.7345508e-06 -1.2903435e-07 1.0545138e-05 -5.8939845e-06
000040 f2 e4 ec 35 5d 44 45 b4 d7 d9 64 35 d3 34 81 b4
       1.7650002e-06 -1.8371925e-07 8.525362e-07 -2.4066557e-07
000050 2a 8f d4 35 57 8c 5f b5 b6 25 50 36 fe 4f b3 37
       1.5836897e-06 -8.3278195e-07 3.1016366e-06 2.1375712e-05
000060 00 d7 dc b3 c0 11 97 32 e6 7e 0c b4 c4 33 70 36
       -1.02836566e-07 1.7586785e-08 -1.3084681e-07 3.5792918e-06
000070 df e4 5d 34 41 bb e5 b3 a4 5f 25 37 dc 0f c0 34
       2.0665492e-07 -1.0697705e-07 9.8570345e-06 3.5774326e-07
000080 a9 11 26 b6 7f bf 4c b3 c2 98 b5 36 a8 e2 16 b7
       -2.4746207e-06 -4.7671616e-08 5.4120037e-06 -8.993469e-06
000090 37 2f 5b 36 5e c2 7f 34 62 69 2f 35 51 16 bc b4
       3.2661026e-06 2.3819436e-07 6.534593e-07 -3.5033966e-07
0000a0 b2 50 45 35 a1 05 85 b5 14 22 67 37 34 a6 37 37
       7.3505646e-07 -9.91091e-07 1.3776607e-05 1.0946347e-05
0000b0 30 3c 1b b4 61 18 c0 32 a9 ed b4 b3 4f 5e fe 35
       -1.4457396e-07 2.2362828e-08 -8.425133e-08 1.8951922e-06
0000c0 64 94 e6 33 12 d1 be b3 91 ef 01 37 b1 9f 76 35
       1.0737202e-07 -8.885594e-08 7.744778e-06 9.1874523e-07
0000d0 0e 0f 1d b6 3d 83 c8 b3 44 7c 4a 36 06 1d a5 b6
       -2.3403586e-06 -9.337098e-08 3.0172678e-06 -4.920762e-06
0000e0 8d 2d 0f 36 69 15 ad b4 a0 18 93 35 30 2e 68 b4
       2.1335175e-06 -3.223934e-07 1.095952e-06 -2.1623487e-07
0000f0 65 74 c0 35 8f c2 1d b5 ab 66 09 37 40 cf cd 35
       1.433899e-06 -5.877018e-07 8.189741e-06 1.5334008e-06
000100 b7 84 0b b4 1e b4 16 33 b1 e3 99 b3 d3 24 6f 36
       -1.2993665e-07 3.5088412e-08 -7.1660345e-08 3.563521e-06
000110 03 c6 0e 34 fc 7e 03 37 53 fc ff 36 f6 57 2d b7
       1.3296817e-07 7.837774e-06 7.6289666e-06 -1.0332084e-05
000120 5c 85 bc b5 b4 2f 35 b3 3a 9b 86 36 29 5d ea b6
       -1.4045904e-06 -4.2185732e-08 4.011582e-06 -6.9845887e-06
000130 6d 78 cd 36 83 85 56 b4 d0 83 89 35 03 60 89 b5
       6.1234955e-06 -1.9978874e-07 1.0245658e-06 -1.0235239e-06
000140 77 b2 38 35 e9 9f 1c b5 d5 39 78 36 80 15 c8 35
       6.880504e-07 -5.834723e-07 3.6988542e-06 1.4907419e-06
000150 c7 3b fa b4 11 d2 3f b5 56 e8 e7 b3 cf 82 0b 36
       -4.6609622e-07 -7.145873e-07 -1.07990374e-07 2.0788755e-06
000160 69 ab 42 34 a7 d9 1e b4 44 dd 96 36 01 21 a5 34
       1.8130017e-07 -1.4794078e-07 4.496107e-06 3.0757658e-07
000170 24 4d 9d b5 ee 3a b5 b3 d6 2b fa 35 fd f2 97 b6
       -1.1719862e-06 -8.4391885e-08 1.8639209e-06 -4.5284382e-06
000180 c5 94 ee 35 c8 18 6a b4 d8 26 86 35 8e d6 9a b4
       1.777568e-06 -2.1801964e-07 9.995083e-07 -2.8840844e-07
000190 25 69 98 35 45 9b 9d b6 54 49 0d 37 fa 08 da 35
       1.1355484e-06 -4.6970404e-06 8.421328e-06 1.6244878e-06
0001a0 17 35 e5 b3 38 fe a8 32 de bf d0 b3 97 f9 80 36
       -1.06733005e-07 1.967338e-08 -9.720655e-08 3.8437533e-06
0001b0 40 0f a0 36 29 45 0e b4 9a ee b9 36 f9 a7 eb 34
       4.770147e-06 -1.3249941e-07 5.5412065e-06 4.3894377e-07
0001c0 30 0b d9 b5 f7 b1 0f b4 7e ea 2c 36 8a 64 97 b6
       -1.6171016e-06 -1.3382656e-07 2.576649e-06 -4.511855e-06
0001d0 c3 03 f6 35 ec 5f 42 b5 d2 c6 d1 35 d6 88 4f b4
       1.8329523e-06 -7.2410216e-07 1.5629578e-06 -1.9328158e-07
0001e0 60 03 bb 35 78 35 0f b5 3c 8d 47 36 98 84 f7 b6
       1.3933568e-06 -5.334946e-07 2.973552e-06 -7.3766096e-06
0001f0 6c 13 a6 b4 37 04 a7 32 8a 90 a4 b3 01 b5 8b 36
       -3.093404e-07 1.9443275e-08 -7.6631366e-08 4.1635944e-06
000200 6a 16 ec b6 d2 74 54 37 a6 a4 ce 36 a5 f4 9a 34
       -7.0359574e-06 1.2663384e-05 6.158446e-06 2.8862738e-07
000210 86 e3 08 b6 78 3c ef b3 e7 76 2f 36 88 46 9b b6
       -2.0398015e-06 -1.1140304e-07 2.6146242e-06 -4.627571e-06
000220 5b 4f f9 35 6f 4f 6d 36 3b 80 7c 35 f4 b8 5c b4
       1.8575041e-06 3.5361988e-06 9.4063915e-07 -2.0556382e-07
000230 5c 2e 44 35 3d 03 22 b5 b8 51 ad 36 91 fc c6 35
       7.308315e-07 -6.0354415e-07 5.165315e-06 1.4825656e-06
000240 79 44 0b b4 6d 6c ba 32 ba ff 25 b4 85 f8 41 36
       -1.2970294e-07 2.1702556e-08 -1.5459855e-07 2.8903899e-06
000250 fa 13 05 34 03 2e e4 b3 7e ba c4 36 1a 24 a6 34
       1.2393858e-07 -1.0625447e-07 5.8629657e-06 3.0946177e-07
000260 b8 3a 98 b6 4b 0f 96 b3 53 95 08 36 78 5f 9b b6
       -4.5367888e-06 -6.987701e-08 2.0352497e-06 -4.630474e-06
000270 b5 f1 da 35 66 bd 50 b4 91 03 81 35 b7 0f 72 b4
       1.6312612e-06 -1.9440412e-07 9.612287e-07 -2.2543723e-07
000280 ae 10 47 35 e1 23 fc b4 b2 15 12 37 06 fe de 35
       7.415755e-07 -4.6964763e-07 8.7073295e-06 1.661422e-06
000290 52 80 1d 36 c3 9e a5 32 26 1c 9b b3 f6 d1 09 36
       2.3469515e-06 1.9280725e-08 -7.22287e-08 2.0536804e-06
0002a0 8f b9 15 34 4d 77 ce b4 03 ac 15 37 44 a3 af 34
       1.3944212e-07 -3.8457293e-07 8.921142e-06 3.2715081e-07
0002b0 0e ca ad b5 d6 1a af b3 84 1e a1 36 0a c4 eb b6
       -1.294831e-06 -8.153954e-08 4.8017264e-06 -7.0263677e-06
0002c0 71 b1 e8 35 26 8e 29 b4 a4 d0 af 35 58 20 70 b4
       1.7336989e-06 -1.5791065e-07 1.3099238e-06 -2.2363508e-07
0002d0 ae 76 3f 35 60 b3 40 b5 34 89 96 36 df f3 e2 36
       7.1325746e-07 -7.17866e-07 4.486321e-06 6.763715e-06
0002e0 15 19 99 b4 f2 33 19 33 4b ca 91 b3 a4 8e 10 36
       -2.851672e-07 3.5670332e-08 -6.7888855e-08 2.15407e-06
0002f0 f4 93 24 34 b6 9e 97 b3 6b 7d 32 37 37 6b 72 35
       1.5327515e-07 -7.060355e-08 1.0638828e-05 9.0308043e-07
000300 63 3e a0 b5 7d 1b ab b5 20 6d 88 36 de 3c b5 b6
       -1.1939086e-06 -1.2748493e-06 4.0658197e-06 -5.401306e-06
000310 a7 23 00 36 64 b0 61 b4 d6 88 77 35 6f 4c 09 b6
       1.9094239e-06 -2.1018928e-07 9.2213793e-07 -2.045908e-06
000320 ca 59 42 35 74 ed 94 b5 4d 98 44 36 de d0 c6 35
       7.240129e-07 -1.1095967e-06 2.9294927e-06 1.4812938e-06
000330 56 16 11 b4 d7 47 b6 32 c6 1b 8f b3 15 6e 32 36
       -1.3512303e-07 2.1220258e-08 -6.6640084e-08 2.6588143e-06
000340 ba 2b f4 34 93 3c 56 b6 ac ad 83 36 65 66 a6 34
       4.5480357e-07 -3.1923744e-06 3.9243223e-06 3.099441e-07
000350 f3 62 a2 b5 20 dd 25 b3 64 26 03 36 45 ce b3 b5
       -1.2098739e-06 -3.8618168e-08 1.9542867e-06 -1.3396572e-06
000360 a9 bb 23 36 30 5a 74 b4 c5 64 d5 36 9a e5 6f b4
       2.4398125e-06 -2.2757081e-07 6.359626e-06 -2.2342138e-07
000370 54 de 6c 35 91 5c 19 b5 d2 0a 58 36 01 56 03 36
       8.824038e-07 -5.7131643e-07 3.2192806e-06 1.9570582e-06
000380 68 aa ef b3 28 9d b1 32 0c 17 9b b3 8c c2 a6 36
       -1.11603015e-07 2.0676978e-08 -7.221942e-08 4.9698338e-06
000390 f3 09 51 36 26 3b 11 b4 40 03 9b 36 24 0b 25 35
       3.1149218e-06 -1.3525695e-07 4.6197383e-06 6.14835e-07
0003a0 56 1f bc b5 b8 dc 16 b3 1c 8b 46 37 f6 9d cd b6
       -1.4016211e-06 -3.512534e-08 1.1834109e-05 -6.127865e-06
0003b0 e7 a2 41 36 9f f4 2a b4 c6 6d 5e 35 c9 ee 64 b4
       2.8854063e-06 -1.5921476e-07 8.2861186e-07 -2.1321024e-07
0003c0 06 5a 5d 35 b1 81 13 b5 1c 84 33 36 9d 10 47 36
       8.2459917e-07 -5.4950493e-07 2.6749976e-06 2.966298e-06
0003d0 93 b2 e7 b3 29 3c 6b 34 da e3 8b b6 ea 6f 39 36
       -1.0789258e-07 2.1907967e-07 -4.169048e-06 2.763229e-06
0003e0 03 72 02 34 67 bf 70 b4 80 30 93 36 94 cc b4 34
       1.214867e-07 -2.2421374e-07 4.3865875e-06 3.3676463e-07
0003f0 9a f1 c4 b5 62 3b a3 b3 6b a5 8b 36 01 09 1d b7
       -1.4673453e-06 -7.601081e-08 4.16178e-06 -9.360026e-06

lstm.weight_hh_l1 f4 [80, 20]
000000 47 68 f4 3c 0f 52 f4 bc de 52 f4 3c 1d 49 f4 bc
       0.02983488 -0.029824285 0.02982467 -0.02982002
000010 4a 54 f4 3c 6e 0e f4 3c 0b 18 f4 bc ba 48 f4 bc
       0.029825348 0.029792037 -0.02979662 -0.029819835
000020 61 2e f4 3c b5 4a f4 bc 0d 56 f4 3c 24 12 f4 3c
       0.029807271 -0.02982078 0.029826188 0.029793806
000030 7c fd f4 3c 62 16 f4 bc f5 34 f4 bc 9b 55 f4 3c
       0.029906027 -0.02979583 -0.029810408 0.029825976
000040 83 2d f4 bc 97 56 f4 bc 74 d1 f3 3c 11 4b f4 3c
       -0.029806858 -0.029826446 0.029762961 0.02982095
000050 f4 4f f4 3c a1 5d f4 bc 85 51 f6 3c 08 b7 f4 bc
       0.02982328 -0.029829802 0.030068168 -0.029872432
000060 e1 56 f4 3c b4 e4 f5 3c d6 f4 f5 bc 51 5d f4 bc
       0.029826583 0.03001628 -0.030023973 -0.029829653
000070 4f 35 f5 3c d3 64 f4 bc 90 3f f4 3c 78 25 f4 3c
       0.029932646 -0.029833233 0.029815465 0.029803023
000080 62 58 f4 3c d1 61 f4 bc 92 43 f4 bc 1b 4e f4 3c
       0.0298273 -0.029831799 -0.029817376 0.0298224
000090 84 0f f4 bc aa 63 f4 bc 32 4a f4 3c 00 36 f4 3c
       -0.029792555 -0.02983268 0.029820535 0.029810905
0000a0 d2 53 f4 3c f8 3f f4 bc 00 43 f4 3c 6c 30 f4 bc
       0.029825125 -0.029815659 0.029817104 -0.029808246
0000b0 67 4d f4 3c 79 7a f4 3c 58 70 f4 bc e3 74 f4 bc
       0.029822065 0.029843556 -0.029838726 -0.029840892
0000c0 21 81 f4 3c 47 70 f4 bc 6a b3 f5 3c f8 72 f4 3c
       0.02984673 -0.029838694 0.029992778 0.029839978
0000d0 ff 6d f4 3c bb 36 f4 bc 6b 6a f4 bc 56 43 f4 3c
       0.029837606 -0.029811254 -0.0298359 0.029817265
0000e0 97 72 f4 bc d1 77 f4 bc d7 74 f4 3c 51 72 f4 3c
       -0.029839797 -0.02984229 0.02984087 0.029839667
0000f0 20 ec f6 3c 4b 68 f4 bc e4 69 f4 3c d7 2f f4 bc
       0.03014189 -0.029834887 0.029835649 -0.029807968
000100 ea 68 f4 3c e7 65 f4 3c 9b 34 f4 bc a1 6a f9 bc
       0.029835183 0.029833747 -0.02981024 -0.030446352
000110 de 6b f4 3c 3d 60 f4 bc 17 65 f4 3c 0a 6a f4 3c
       0.029836591 -0.029831046 0.02983336 0.02983572
000120 63 71 f4 3c 20 1b f4 bc 34 29 f7 bc bb 69 f4 3c
       0.029839223 -0.02979809 -0.030171014 0.029835572
000130 d7 67 f4 bc 61 23 f6 bc 55 ec f6 3c 6d 67 f4 3c
       -0.029834671 -0.030046167 0.030141989 0.029834474
000140 19 50 f4 3c cf 3d f4 bc d2 4a f4 3c 82 3c f4 bc
       0.02982335 -0.029814629 0.029820833 -0.029814009
000150 ad 50 f4 3c 72 e2 f3 3c 50 49 f4 bc 19 cb f3 bc
       0.029823625 0.029771063 -0.029820114 -0.02975993
000160 8e 1a f4 3c 80 37 f4 bc 9d 4a f4 3c 8f 32 f4 3c
       0.029797819 -0.02981162 0.029820735 0.029809264
000170 d5 57 f4 3c 6d 2b f4 bc 6f 7e f6 bc e1 e4 f3 3c
       0.029827038 -0.029805863 -0.030089585 0.029772224
000180 50 f9 f7 bc 6a 54 f4 bc 86 28 f4 3c 36 52 f4 3c
       -0.030270249 -0.029825408 0.02980448 0.029824357
000190 73 3c f4 3c 64 61 f4 bc 55 47 f4 3c 1e 57 f4 bc
       0.02981398 -0.029831596 0.02981917 -0.029826697
0001a0 94 4e f4 3c ad 52 f4 3c b1 60 f4 bc 93 e2 f6 bc
       0.029822625 0.02982458 -0.029831262 -0.030137336
0001b0 7c 42 f4 3c 59 60 f4 bc 71 61 f4 3c 3e 62 f4 3c
       0.029816858 -0.029831098 0.02983162 0.029832002
0001c0 d9 e5 f8 3c eb 64 f6 bc 66 56 f4 bc de 46 f6 3c
       0.030383037 -0.030077418 -0.029826354 0.030063089
0001d0 52 56 f4 bc 03 63 f4 bc 30 33 f4 3c b0 60 f4 3c
       -0.029826317 -0.029832369 0.029809564 0.02983126
0001e0 8e 36 f4 3c 35 11 f4 bc 97 23 f4 3c cd 45 f4 bc
       0.02981117 -0.029793361 0.029802127 -0.02981844
0001f0 55 46 f4 3c dd 35 f4 3c 97 4d f4 bc 93 d7 f3 bc
       0.029818693 0.02981084 -0.029822154 -0.02976588
000200 32 f7 f3 3c 79 39 f4 bc ff 64 f4 3c 12 1b f4 3c
       0.029780958 -0.029812561 0.029833315 0.029798064
000210 53 4d f4 3c 27 50 f4 bc ea 4a f4 bc 00 62 f4 3c
       0.029822027 -0.029823376 -0.029820878 0.029831886
000220 76 30 f4 bc 3f 3b f4 bc 48 52 f4 3c be 5e f4 3c
       -0.029808264 -0.029813407 0.029824391 0.029830333
000230 1c c8 f5 3c 3d 09 f4 bc 4f 53 f9 3c 82 53 f4 bc
       0.030002646 -0.029789561 0.030435232 -0.029824976
000240 8e 11 f4 3c 6b 21 f5 3c bd 51 f4 bc 42 fe f3 bc
       0.029793527 0.029923161 -0.029824132 -0.029784326
000250 88 3d f4 3c 5e 4e f4 bc 69 5e f4 3c ed 2c f4 3c
       0.029814497 -0.029822525 0.029830175 0.029806579
000260 23 63 f4 3c fe 5d f4 bc 61 fa f3 bc 6b 63 f4 3c
       0.029832428 -0.029829975 -0.029782476 0.029832562
000270 f1 24 f4 bc a4 5d f4 bc bb 6b f4 3c df 3d f4 3c
       -0.029802771 -0.029829808 0.029836526 0.029814659
000280 0e 51 f4 3c ff 2b f4 bc 3e da f3 3c f9 38 f4 bc
       0.029823806 -0.029806135 0.029767152 -0.029812323
000290 48 49 f4 3c 9c 53 f4 3c 6c 4a f4 bc 6f e6 f3 bc
       0.0298201 0.029825024 -0.029820643 -0.029772965
0002a0 e9 5e f4 3c 0d 58 f4 bc 23 58 f4 3c bc 56 f4 3c
       0.029830413 -0.029827142 0.029827183 0.029826514
0002b0 b0 4d f4 3c b8 3a f4 bc a8 49 f4 bc ce 5c f4 3c
       0.0298222 -0.029813156 -0.029820278 0.029829409
0002c0 04 b6 f7 bc b5 54 f4 bc ea 53 f4 3c 07 4e f4 3c
       -0.030238159 -0.029825548 0.02982517 0.029822363
0002d0 f8 59 f4 3c 2c 27 f4 bc 0d 38 f7 3c d7 46 f4 bc
       0.029828057 -0.029803835 0.030178094 -0.029818935
0002e0 3a 4e f4 3c c4 23 f4 3c 97 28 f4 bc 3a 47 f4 bc
       0.029822458 0.02980221 -0.029804511 -0.02981912
0002f0 c1 64 f4 3c 67 ac f4 bc b0 59 f4 3c 5c 69 f4 3c
       0.0298332 -0.029867364 0.029827923 0.029835396
000300 1c 53 f4 3c a1 57 f4 bc c7 4a f4 bc 55 5b f4 3c
       0.029824786 -0.029826941 -0.029820813 0.029828707
000310 84 13 f4 bc 02 1d f4 bc cb 9c f4 3c 72 5f f4 3c
       -0.029794462 -0.029798988 0.029859921 0.029830668
000320 6b 68 f4 3c eb 47 f4 bc 4a 5f f4 3c b6 26 f4 bc
       0.029834947 -0.02981945 0.029830594 -0.029803615
000330 3a 48 f6 3c 57 fc f3 3c 61 57 f4 bc 84 32 f4 bc
       0.030063737 0.029783411 -0.029826822 -0.029809244
000340 f8 5d f4 3c f1 fb f3 bc c2 53 f4 3c aa 5a f4 3c
       0.029829964 -0.029783221 0.029825095 0.029828388
000350 49 0e f4 3c 33 39 f4 bc e9 49 f4 bc 71 29 f4 3c
       0.029791968 -0.029812431 -0.0298204 0.029804917
000360 e2 0f fa bc 79 54 f4 bc e5 ea f3 3c 70 03 f4 3c
       -0.030525152 -0.029825436 0.029775092 0.029786795
000370 ee 65 f4 3c 9e 51 f4 bc 56 2e f4 3c 4b 3a f4 bc
       0.02983376 -0.029824074 0.029807251 -0.029812953
000380 25 58 f4 3c 54 60 f4 3c 11 d8 f5 bc 7a 68 f4 bc
       0.029827187 0.02983109 -0.030010255 -0.029834975
000390 4d 3e f4 3c 30 6d f4 bc 6f 65 f4 3c 05 5d f4 3c
       0.029814864 -0.02983722 0.029833524 0.029829511
0003a0 27 60 f4 3c a1 47 f4 bc 15 9e f8 bc 71 5c f4 3c
       0.029831005 -0.029819312 -0.030348817 0.029829236
0003b0 76 57 f4 bc be 53 f4 bc 5c 4e f4 3c 1f 31 f4 3c
       -0.02982686 -0.029825088 0.02982252 0.029808579
0003c0 49 45 f4 3c 9d 5e f4 bc fd 51 f4 3c 78 43 f4 bc
       0.029818194 -0.029830271 0.029824251 -0.029817328
0003d0 76 5c f4 3c 2f 52 f4 3c b8 50 f4 bc 55 ce f7 bc
       0.029829245 0.029824344 -0.029823646 -0.030249754
0003e0 86 52 f4 3c 49 d0 f3 bc 88 61 f4 3c 01 4a f5 3c
       0.029824506 -0.029762404 0.029831663 0.029942514
0003f0 a9 4c f4 3c 85 03 f4 bc 96 2b f4 bc 14 58 f4 3c
       0.02982171 -0.029786834 -0.02980594 0.029827155

lstm.bias_ih_l1 f4 [80]
000000 65 9c 1d 3d d8 ad 1d 3d 57 bc 1d 3d 25 bf 1d 3d
       0.038479228 0.03849587 0.038509693 0.038512368
000010 52 ba 1d 3d 2b c4 1d 3d 4f b5 1d 3d ec be 1d 3d
       0.038507767 0.03851716 0.038502987 0.038512155
000020 ea a3 1d 3d 7a b7 1d 3d 63 ac 1d 3d 2f c1 1d 3d
       0.0384864 0.038505055 0.03849448 0.038514312
000030 b5 99 1d 3d 18 a1 1d 3d 58 b6 1d 3d 73 b7 1d 3d
       0.038476665 0.03848371 0.038503975 0.03850503
000040 2a a8 1d 3d 0c 6f 1d 3d 1c bc 1d 3d 26 c1 1d 3d
       0.038490452 0.03843598 0.038509473 0.03851428
000050 2f 8b a0 3d 23 88 a0 3d d9 9e a0 3d d2 0a a1 3d
       0.07839047 0.07838466 0.07842798 0.07863392
000060 e3 6f a0 3d ab 8f a0 3d f2 83 a0 3d 83 81 a0 3d
       0.07833841 0.078399025 0.078376666 0.078372024
000070 80 7e a0 3d a5 7a a0 3d 79 8b a0 3d 10 76 a0 3d
       0.07836628 0.078358926 0.07839102 0.07835019
000080 36 81 a0 3d 63 66 a0 3d 93 88 a0 3d 3f 95 a0 3d
       0.07837145 0.07832029 0.078385495 0.078409664
000090 77 7c a0 3d b9 79 a0 3d 2a 8d a0 3d 10 95 a0 3d
       0.0783624 0.07835717 0.07839425 0.078409314
0000a0 8c 4b 88 3d 69 3f 88 bd 88 b8 79 3d bc 5f 88 bd
       0.066550344 -0.066527195 0.060967 -0.06658885
0000b0 37 34 88 3d 9f 3d 88 3d 4e b9 88 bd dc 4d 89 bd
       0.06650584 0.06652378 -0.06675969 -0.067043036
0000c0 09 a1 8a 3d ad ae 8b bd 3b 3a 88 3d 18 37 88 3d
       0.06768996 -0.06820426 0.066517316 0.06651133
0000d0 5a 51 88 3d 05 5a 88 bd 2b 41 88 bd 94 39 88 3d
       0.066561416 -0.06657795 -0.06653055 0.06651607
0000e0 ff d4 89 bd 1d 48 88 bd 86 2f 88 3d 46 50 88 3d
       -0.06730079 -0.066543795 0.066496894 0.06655936
0000f0 c2 15 d8 3d b3 db d7 3d fa fa d7 3d 97 f4 d7 3d
       0.10551025 0.10539951 0.10545917 0.10544699
000100 ea 0c d8 3d a2 0e d8 3d fd 10 d8 3d 72 12 d8 3d
       0.10549338 0.10549666 0.10550115 0.10550393
000110 ff 0c d8 3d 25 16 d8 3d 44 11 d8 3d ee 08 d8 3d
       0.10549354 0.10551099 0.10550168 0.10548578
000120 b9 17 d8 3d 63 0d d8 3d 5c fc d7 3d 9a 13 d8 3d
       0.105514 0.10549428 0.105461806 0.10550614
000130 58 0a d8 3d ea 0b d8 3d 1b 1f d6 3d 19 f6 d7 3d
       0.10548848 0.105491474 0.10455152 0.10544986

lstm.bias_hh_l1 f4 [80]
000000 1d ac 1d 3d b3 97 1d 3d fb c1 1d 3d 00 ae 1d 3d
       0.03849422 0.03847475 0.038515072 0.038496017
000010 34 46 1d 3d 36 b9 1d 3d c1 b3 1d 3d af b8 1d 3d
       0.03839703 0.03850671 0.038501505 0.038506206
000020 57 ae 1d 3d 78 b6 1d 3d ec 96 1d 3d 78 bb 1d 3d
       0.03849634 0.038504094 0.03847401 0.038508862
000030 c0 b7 1d 3d 0d c9 1d 3d 0d bb 1d 3d dd be 1d 3d
       0.038505316 0.038521815 0.038508464 0.0385121
000040 6a b5 1d 3d fb b9 1d 3d 79 be 1d 3d d4 b9 1d 3d
       0.038503088 0.038507443 0.038511727 0.038507298
000050 4a 69 a0 3d ca 8b a0 3d 33 9f a0 3d 03 93 a0 3d
       0.07832582 0.07839163 0.07842865 0.0784054
000060 05 7e a0 3d 6e 8d a0 3d 6c 86 a0 3d 83 7c a0 3d
       0.07836536 0.078394756 0.07838139 0.07836249
000070 34 83 a0 3d 65 8c a0 3d 49 8b a0 3d f8 8a a0 3d
       0.07837525 0.07839278 0.078390665 0.07839006
000080 da 8a a0 3d 56 71 a0 3d d6 83 a0 3d fa 88 a0 3d
       0.07838984 0.07834117 0.07837646 0.07838626
000090 c0 73 a0 3d 83 88 a0 3d a4 85 a0 3d 18 73 a0 3d
       0.078345776 0.078385375 0.0783799 0.078344524
0000a0 9f 35 88 3d b2 3e 88 bd 32 ee 88 3d e2 2d 84 bd
       0.066508524 -0.06652583 0.06686057 -0.06454064
0000b0 60 2f 88 3d a7 3e 88 3d 68 ad 88 bd 50 36 88 bd
       0.06649661 0.06652575 -0.066736996 -0.06650984
0000c0 2b 6f 89 3d eb 4e 89 bd f8 3b 88 3d 50 56 88 3d
       0.06710657 -0.067045055 0.06652063 0.06657088
0000d0 44 40 88 3d 5d 4b 88 bd 2b 3f 88 bd fb e6 88 3d
       0.06652883 -0.066549994 -0.06652673 0.06684681
0000e0 f4 7a 89 bd b7 5a 88 bd 44 47 88 3d c6 58 87 3d
       -0.067129046 -0.066579275 0.06654218 0.06608729
0000f0 77 1b d8 3d 5e 0f d8 3d 3b 19 d8 3d be eb d7 3d
       0.105521135 0.10549806 0.10551687 0.10543011
000100 02 82 d7 3d 08 0f d8 3d d5 12 d8 3d 14 19 d8 3d
       0.10522844 0.10549742 0.10550467 0.10551658
000110 0e 5c d8 3d 13 6d d8 3d 67 17 d8 3d a3 d9 d7 3d
       0.10564433 0.10567679 0.10551339 0.10539558
000120 88 13 d8 3d 8b 0d d8 3d f2 07 d8 3d f3 2c d8 3d
       0.105506 0.10549458 0.105483904 0.105554484
000130 05 ff d7 3d 82 0c d8 3d b1 ec d7 3d 6f d9 d7 3d
       0.10546688 0.10549261 0.10543192 0.10539519

fc.weight f4 [360, 20]
000000 81 d3 e8 3c 24 cb e8 bc b0 2b e5 3c 0f 98 e8 bc
       0.028421165 -0.028417177 0.027974933 -0.02839282
000010 52 9b e9 3c 02 c3 e8 3c f5 e4 e8 bc 4b 5a e9 bc
       0.028516445 0.0284133 -0.028429488 -0.028485438
000020 c7 ca e8 3c 80 f5 e8 bc 9f cc e8 3c a8 c9 e8 3c
       0.028417004 -0.028437376 0.028417883 0.02841647
000030 3a c6 e8 3c 86 c4 e8 bc e0 c3 e8 bc 47 ce e8 3c
       0.028414834 -0.028414022 -0.028413713 0.028418673
000040 03 c8 e8 bc f1 4a e9 bc 0d c6 e8 3c cd c4 e8 3c
       -0.028415686 -0.028478118 0.02841475 0.028414154
000050 a1 01 e9 3c 30 fa e8 bc 38 fc e8 3c ad f1 e8 bc
       0.02844316 -0.028439611 0.02844058 -0.028435552
000060 33 02 e9 3c d7 26 e9 3c 26 f6 e8 bc 2d 39 e9 bc
       0.028443431 0.028460903 -0.028437685 -0.028469646
000070 17 72 e7 3c fb 5b e7 bc da 18 e9 3c 1c 64 e7 3c
       0.028252644 -0.028242102 0.028454233 0.028245978
000080 a5 f3 e8 3c 6c 05 e9 bc 99 f5 e8 bc c4 ef e8 3c
       0.028436491 -0.028444968 -0.028437423 0.028434642
000090 e2 5c e7 bc c5 f8 e8 bc 8f 92 e8 3c cc 2c e9 3c
       -0.028242532 -0.028438935 0.028390197 0.028463744
0000a0 a6 f1 e8 3c 9c 40 ea bc 4c 42 e9 3c 84 77 e9 bc
       0.02843554 -0.028595261 0.028473996 -0.028499372
0000b0 9d d7 e8 3c b4 d4 e8 3c 05 0b e9 bc d0 0b e9 bc
       0.028423125 0.028421737 -0.028447637 -0.028448015
0000c0 8f 11 e9 3c 75 12 e9 bc a5 d9 e8 3c d8 01 e9 3c
       0.028450755 -0.028451184 0.028424093 0.028443262
0000d0 25 d2 e8 3c 24 d9 e8 bc 2d da e8 bc 1d ee e8 3c
       0.028420517 -0.028423853 -0.028424347 0.028433854
0000e0 b5 ca e9 bc e7 f0 e8 bc 77 a0 e9 3c 68 f6 e8 3c
       -0.028539041 -0.028435184 0.028518898 0.028437808
0000f0 1c e0 e8 3c 00 59 e9 bc 90 c0 e8 3c 67 36 ea bc
       0.028427176 -0.028484821 0.028412133 -0.028590394
000100 cc 3f e9 3c ce c6 e8 3c 68 d4 e8 bc f9 ee e8 bc
       0.028472804 0.02841511 -0.028421596 -0.028434264
000110 a3 ce e8 3c a9 e9 e8 bc a9 d7 e8 3c a9 8a e9 3c
       0.028418845 -0.02843173 0.028423147 0.028508501
000120 66 ce e8 3c 26 d9 e8 bc 13 b6 e8 bc 98 cb e8 3c
       0.028418731 -0.028423857 -0.028407132 0.028417394
000130 a9 55 ea bc 30 cc e8 bc 4e bf e8 3c 86 e6 e8 3c
       -0.0286053 -0.028417677 0.028411534 0.028430235
000140 f9 a9 e8 3c e9 ad e8 bc d9 b3 e8 3c 2d 84 e8 bc
       0.028401362 -0.02840324 0.02840607 -0.028383339
000150 4c ad e8 3c 05 aa e8 3c 95 be e8 bc b7 b1 e8 bc
       0.028402947 0.028401384 -0.02841119 -0.028405054
000160 6d ad e8 3c 19 b8 e8 bc 15 b2 e8 3c 17 aa e4 3c
       0.028403008 -0.028408097 0.028405229 0.027913136
000170 58 b7 e8 3c 0b 23 e9 bc f9 b1 e8 bc 39 a8 e8 3c
       0.028407738 -0.028459093 -0.028405176 0.028400527
000180 df 8e e8 bc 87 ba e8 bc be af e8 3c aa 63 e6 3c
       -0.028388439 -0.028409256 0.028404113 0.028123695
000190 63 a9 e8 3c ef 93 e8 bc b9 8c e8 3c 54 84 e8 bc
       0.028401082 -0.028390853 0.028387414 -0.028383411
0001a0 a3 d4 e8 3c d3 a4 e8 3c 74 07 e5 bc f1 96 e8 bc
       0.028421706 0.028398907 -0.027957655 -0.028392287
0001b0 26 33 e3 3c 33 a3 e8 bc a8 9d e8 3c ac 95 e8 3c
       0.02773435 -0.028398132 0.028395489 0.028391682
0001c0 aa 97 e8 3c d7 a2 e8 bc d6 9b e8 bc 4c 95 e8 3c
       0.028392632 -0.02839796 -0.02839462 0.028391503
0001d0 f8 9b e8 bc 8e a7 e8 bc 4f 95 e8 3c a3 83 e2 3c
       -0.028394684 -0.028400209 0.028391508 0.02765066
0001e0 6a 7d e8 3c 3f aa e8 bc b7 80 e8 3c 4a 42 e8 bc
       0.028380115 -0.028401492 0.028381689 -0.028351922
0001f0 d7 98 e8 3c 36 6e e8 3c f4 73 e8 bc f0 a2 e8 bc
       0.028393192 0.028372865 -0.028375603 -0.028398007
000200 29 bb e8 3c 21 76 e8 bc 0d a2 e8 3c ef ab e8 3c
       0.028409557 -0.02837664 0.028397584 0.028402297
000210 98 3e e7 3c ef 82 e8 bc 13 9f e8 bc e5 7f e8 3c
       0.02822809 -0.028382747 -0.028396165 0.028381297
000220 3d af e0 bc 30 9f e8 bc 78 a9 e8 3c ac 9b e8 3c
       -0.02742731 -0.028396219 0.028401121 0.028394543
000230 44 5e e8 3c 2a 84 e8 bc 0b 96 e8 3c 6d 64 e8 bc
       0.028365262 -0.028383333 0.028391859 -0.0283682
000240 f7 c9 e3 3c 50 9f e8 3c 74 6a e8 bc 63 76 e8 bc
       0.027806265 0.028396279 -0.028371073 -0.028376764
000250 04 a4 e8 3c 7b 7e e8 bc ef 68 e8 3c a9 5d e2 3c
       0.028398521 -0.028380623 0.028370349 0.027632551
000260 46 9b e8 3c 20 97 e8 bc 79 7d e6 bc a2 e0 e7 3c
       0.028394353 -0.028392375 -0.028136002 0.028305355
000270 c0 93 e8 bc 0c 5a e8 bc 9b 7b e8 3c 5b 60 e8 3c
       -0.028390765 -0.02836325 0.028379252 0.028366258
000280 63 9d e8 3c 0f 72 e8 bc 6f 96 e8 3c 9a 86 e8 bc
       0.02839536 -0.0283747 0.028392045 -0.028384496
000290 ea 90 e8 3c b2 9b e8 3c 01 8f e8 bc 85 9d e8 bc
       0.028389413 0.028394554 -0.028388502 -0.028395424
0002a0 77 8b e8 3c 02 a1 e8 bc 84 9b e8 3c 6d 5f e8 3c
       0.028386815 -0.028397087 0.028394468 0.028365815
0002b0 b3 9b e2 3c 3c 10 e3 bc 85 8e e8 bc f2 86 e8 3c
       0.027662134 -0.027717702 -0.028388271 0.02838466
0002c0 1a cb e2 bc 6e 74 e8 bc be a1 e8 3c ce ab e8 3c
       -0.027684737 -0.02837583 0.028397437 0.028402235
0002d0 21 86 e8 3c a9 80 e8 bc b7 77 e8 3c 3b 62 e8 bc
       0.02838427 -0.028381662 0.028377397 -0.028367152
0002e0 95 52 e3 3c a3 7c e8 3c 02 86 e8 bc 41 8e e8 bc
       0.02774934 0.028379744 -0.028384212 -0.028388144
0002f0 3e 5f e3 3c 16 79 e8 bc e0 80 e8 3c 50 84 e8 3c
       0.027755376 -0.02837805 0.028381765 0.028383404
000300 46 80 e8 3c 08 7e e8 bc 4b 7d e8 bc 11 84 e8 3c
       0.028381478 -0.028380409 -0.028380057 0.028383287
000310 03 84 e8 bc e1 84 e8 bc 80 83 e8 3c 3e 0a e4 3c
       -0.02838326 -0.028383674 0.028383017 0.027836915
000320 cd 83 e8 3c 78 bd e8 bc 54 b1 e8 3c 35 52 e8 bc
       0.02838316 -0.028410658 0.02840487 -0.028359512
000330 e1 d0 e8 3c 2f 7f e8 3c 82 89 e8 bc b6 33 e8 bc
       0.028419914 0.028380958 -0.028385881 -0.02834497
000340 49 d4 e8 3c 30 84 e8 bc 99 83 e8 3c b0 7d e8 3c
       0.028421538 -0.028383344 0.028383063 0.028380245
000350 d4 d2 e8 3c f5 b4 e3 bc 86 a4 e6 bc f2 8e e8 3c
       0.028420843 -0.027796248 -0.028154623 0.028388474
000360 8d 82 e8 bc 76 7e e8 bc f6 8a e8 3c 50 98 e8 3c
       -0.028382564 -0.028380614 0.028386574 0.02839294
000370 e7 9e e8 3c 87 67 e8 bc 48 77 e8 3c cc 6e e8 bc
       0.028396083 -0.028369678 0.02837719 -0.028373145
000380 30 63 e8 3c 01 68 e8 3c 32 76 e8 bc a3 6f e8 bc
       0.028367609 0.028369905 -0.028376672 -0.028373545
000390 8b 72 e8 3c e1 85 e8 bc d3 2b e4 3c 09 9f e8 3c
       0.02837493 -0.028384151 0.027852928 0.028396146
0003a0 77 25 e3 3c 29 6a e8 bc e2 69 e8 bc 7f 37 e8 3c
       0.027727826 -0.028370934 -0.028370801 0.028346775
0003b0 c0 6a e8 bc 20 a4 e3 bc 5a 6e e8 3c 5f 90 e8 3c
       -0.028371215 -0.027788222 0.028372932 0.028389154
0003c0 25 e2 e7 3c 60 27 e8 bc 50 d9 e2 3c c3 20 e8 bc
       0.028306076 -0.028339088 0.027691513 -0.028335935
0003d0 3c 45 e7 3c c7 19 e3 3c 34 2e e8 bc f1 2e e8 bc
       0.028231256 0.027722253 -0.028342344 -0.028342696
0003e0 63 fe e7 3c ca 21 e8 bc e1 2e e8 3c 2b 00 e8 3c
       0.028319543 -0.028336424 0.028342666 0.028320393
0003f0 1e 85 e2 3c 2b fc e7 bc 8c 2a e3 bc b2 cb e7 3c
       0.027651366 -0.028318485 -0.027730249 0.028295372
