backend/model/lstm-AREN-180-.pth (torch, 38860 bytes, 12 tensors)

conv1.weight f4 [2, 4, 3]
0	0x360798ea	2.0205575e-06
1	0xb1230faf	-2.3728537e-09
2	0xb662fb26	-3.3822812e-06
3	0xa42a1ba8	-3.68863e-17
4	0xa3c6942f	-2.1529961e-17
5	0x359bbadf	1.1602787e-06
6	0xa404731f	-2.872045e-17
7	0x2a845231	2.3504942e-13
8	0xa38cd8b6	-1.5270611e-17
9	0xa2ef2223	-6.4817223e-18
10	0x38a50ae2	7.86984e-05
11	0xa2fcdcd1	-6.8538535e-18
12	0x9ab48df3	-7.4675586e-23
13	0x18277f49	2.1648507e-24
14	0x321e930b	9.230244e-09
15	0xb4af8455	-3.2692574e-07
16	0x23566884	1.1623095e-17
17	0x34a54d81	3.0790036e-07
18	0x23367a34	9.892117e-18
19	0x230d93d6	7.674931e-18
20	0x343f0c4c	1.7792735e-07
21	0x2fff5816	4.644682e-10
22	0x3394ca16	6.928546e-08
23	0x3784c0e7	1.5825453e-05

conv1.bias f4 [2]
0	0xa42ee192	-3.79213e-17
1	0x23a78018	1.8160426e-17

lstm.weight_ih_l0 f4 [80, 2]
0	0x1eb3950f	1.9014011e-20
1	0x2c3cbd3d	2.6821455e-12
2	0x9d4f4179	-2.743007e-21
3	0x1b9f84ec	2.6390242e-22
4	0x1a0dafe6	2.9300206e-23
5	0x9e74bbd6	-1.2956096e-20
6	0xa15e5beb	-7.533818e-19
7	0x98ecf53f	-6.1252205e-24
8	0xac11c150	-2.071305e-12
9	0x1c0d4098	4.673647e-22
10	0x187df451	3.2822832e-24
11	0x9b186c85	-1.260821e-22
12	0x9d5d0bcc	-2.9255205e-21
13	0xa68295e4	-9.06119e-16
14	0xaa636123	-2.0195351e-13
15	0x1b1fcb6c	1.3217901e-22
16	0xb427791f	-1.559715e-07
17	0xad6b9103	-1.33904025e-11
18	0x1a81599b	5.3497915e-23
19	0x9ae1601e	-9.3213105e-23
20	0x9e4207fa	-1.0271924e-20
21	0xb50e5a80	-5.3030817e-07
22	0x1a7923dc	5.152096e-23
23	0xa7af3f06	-4.8640587e-15
24	0x9c53cd82	-7.0079656e-22
25	0x1ab16159	7.336276e-23
26	0xa837af77	-1.01965885e-14
27	0xb4a5f5c4	-3.0912463e-07
28	0x1a30bbe5	3.6547727e-23
29	0x9b8392ba	-2.1766952e-22
30	0x99ad5e1b	-1.792579e-23
31	0xa44553f1	-4.2788667e-17
32	0xad2f6f2b	-9.9722825e-12
33	0x19d9b4aa	2.2510244e-23
34	0x1ff254b9	1.0263115e-19
35	0x9b09d1d9	-1.140018e-22
36	0x3124a657	2.3959694e-09
37	0x32ad7ccf	2.0196607e-08
38	0xa4ea479f	-1.01602654e-16
39	0x1ba0b54a	2.6586935e-22
40	0x1aa1e7b6	6.696239e-23
41	0xb5ad340a	-1.290465e-06
42	0x1a4af7d5	4.1972818e-23
43	0x24164d44	3.2591512e-17
44	0x9b0d3787	-1.1681188e-22
45	0xa09ceb05	-2.658295e-19
46	0xa665f2d6	-7.977944e-16
47	0xb5c0a1c1	-1.4352191e-06
48	0x2a54f211	1.8913366e-13
49	0x1ff5ddc2	1.04128404e-19
50	0x250967c3	1.1918012e-16
51	0x1a36fe33	3.7842058e-23
52	0x9adffc1b	-9.2637937e-23
53	0x9d9fc503	-4.2290655e-21
54	0x9b279b38	-1.386407e-22
55	0xb5bb1d41	-1.39411e-06
56	0x341a26a7	1.435643e-07
57	0x1b08fb6d	1.1330896e-22
58	0x99a3900b	-1.6911983e-23
59	0x9ab2684c	-7.3787575e-23
60	0x200418f0	1.1189086e-19
61	0xa5667f64	-1.9992482e-16
62	0x231444aa	8.037636e-18
63	0x193e6c01	9.844581e-24
64	0x2a522e0d	1.8667724e-13
65	0xa4450f3f	-4.273048e-17
66	0x9b129bce	-1.212718e-22
67	0xa3a3fe50	-1.7780201e-17
68	0x19d6c3b7	2.220613e-23
69	0xa65ba954	-7.621037e-16
70	0x1baccefe	2.8588779e-22
71	0x9ad9f7bc	-9.014933e-23
72	0x9b7bac1f	-2.0817849e-22
73	0x9fdb812d	-9.296381e-20
74	0xaa5473d0	-1.8869563e-13
75	0x3063d41b	8.288354e-10
76	0x1d165135	1.9894318e-21
77	0x33ae97e8	8.130138e-08
78	0xa08d5566	-2.394284e-19
79	0x269a8ba7	1.0723749e-15
80	0x2476cac1	5.3514486e-17
81	0x31332d14	2.6073552e-09
82	0x2094a085	2.5178398e-19
83	0x2005346f	1.1282887e-19
84	0x2588cf28	2.3732614e-16
85	0x24160cca	3.2536898e-17
86	0xa4b9dd69	-8.0606044e-17
87	0xb5d1f860	-1.5644e-06
88	0x2ad18b16	3.7222368e-13
89	0xa5093031	-1.1899184e-16
90	0x34b33952	3.3383054e-07
91	0xa4e6bf3f	-1.00070583e-16
92	0xa4cdd652	-8.926765e-17
93	0xa3987f57	-1.6533804e-17
94	0xa3ce6ed8	-2.2381509e-17
95	0xa264d156	-3.1010583e-18
96	0x22ab477e	4.642534e-18
97	0x23f2b0b4	2.631253e-17
98	0xa69a3ccc	-1.0702376e-15
99	0xa11f3c49	-5.395108e-19
100	0xa628607f	-5.8417485e-16
101	0x2403c03f	2.8568936e-17
102	0x2ff50c79	4.4574103e-10
103	0x2a85ee9c	2.3791114e-13
104	0x35c85db4	1.4928432e-06
105	0x31b25d7d	5.19111e-09
106	0xa6812b3c	-8.962892e-16
107	0xb4284e41	-1.5674688e-07
108	0x2570e031	2.0892641e-16
109	0x242ce04b	3.7486538e-17
110	0x274eea98	2.8715416e-15
111	0x311d771d	2.2914215e-09
112	0x2241e795	2.6278976e-18
113	0xb0f02101	-1.7471679e-09
114	0x200f926a	1.2161015e-19
115	0x35a0401c	1.1939587e-06
116	0xa49a2870	-6.685536e-17
117	0xa3884924	-1.4776126e-17
118	0x24673aea	5.0140043e-17
119	0x232977a8	9.1868466e-18
120	0x1daf7075	4.6438392e-21
121	0x1aacf5bd	7.1534544e-23
122	0x2a9d0617	2.7893028e-13
123	0xb11aea85	-2.2543258e-09
124	0xa892a795	-1.6281933e-14
125	0x1a6367f6	4.702648e-23
126	0x9b9dcab3	-2.6104463e-22
127	0x317a4186	3.6417034e-09
128	0x1c6e8499	7.8918973e-22
129	0xae21e582	-3.6811006e-11
130	0xb2c2bc77	-2.2670276e-08
131	0x1c02248f	4.3060643e-22
132	0xa4250b80	-3.5788413e-17
133	0x1ac7e3d9	8.267258e-23
134	0xb5361dfa	-6.7843905e-07
135	0x23a12cca	1.7474624e-17
136	0xa18a8223	-9.385691e-19
137	0xa27e19dd	-3.443711e-18
138	0x9e750c27	-1.2972705e-20
139	0x285da355	1.2303381e-14
140	0xb5924890	-1.0898966e-06
141	0x9b1c8d80	-1.2949739e-22
142	0xa1119a48	-4.93321e-19
143	0xb08ab802	-1.009312e-09
144	0x2eb391fe	8.165911e-11
145	0x1a1f7ef7	3.298299e-23
146	0x1a211a36	3.3315193e-23
147	0x24dd425f	9.595591e-17
148	0x97ddd8bb	-1.4336501e-24
149	0x9998d23a	-1.5801341e-23
150	0x1b60596d	1.8557741e-22
151	0x9dc5a2be	-5.2313737e-21
152	0x309d8ed4	1.1463848e-09
153	0x9af4be39	-1.01223356e-22
154	0x17c37a16	1.2632398e-24
155	0x97b6245e	-1.1770655e-24
156	0x1bde3d3b	3.6766388e-22
157	0x1c0355a5	4.3454957e-22
158	0xb2ce4d0c	-2.4016593e-08
159	0xaaad0ecb	-3.0741238e-13

lstm.weight_hh_l0 f4 [80, 20]
0	0xb4c6b1b5	-3.7009673e-07
1	0x998dd8bc	-1.4666597e-23
2	0xb216c526	-8.7759755e-09
3	0x19d04d3b	2.1537889e-23
4	0x24b2f6d9	7.761337e-17
5	0xa8001e23	-7.111962e-15
6	0xb20035fd	-7.462856e-09
7	0xb2d9a94c	-2.5339112e-08
8	0x9a544b90	-4.390161e-23
9	0x223aaa0a	2.5297718e-18
10	0x3397db1e	7.0713426e-08
11	0x9c837251	-8.698403e-22
12	0x2f940137	2.6921906e-10
13	0x2ad2dbc9	3.7456e-13
14	0xa1e3118a	-1.5386761e-18
15	0x356dccfe	8.8587683e-07
16	0x23036628	7.123157e-18
17	0x195b460e	1.1336182e-23
18	0x1a57d00a	4.462901e-23
19	0x2b38d298	6.566219e-13
20	0x18de974e	5.7538434e-24
21	0x20ab5f50	2.90316e-19
22	0xb331171f	-4.1232052e-08
23	0x1cc5d2fc	1.3090905e-21
24	0x9eaa622e	-1.8040056e-20
25	0xb48b286a	-2.5920173e-07
26	0x2f567b27	1.9506939e-10
27	0xa457628d	-4.670417e-17
28	0x320b3e44	8.105022e-09
29	0xa06c8718	-2.0034676e-19
30	0x9bb2d638	-2.9586065e-22
31	0x9ef060c5	-2.5451011e-20
32	0xb54c4fc6	-7.611201e-07
33	0x9a23d847	-3.3882317e-23
34	0x3535762c	6.7599717e-07
35	0x988b4541	-3.6000586e-24
36	0x21634d27	7.70127e-19
37	0x1aba5123	7.705888e-23
38	0x2190f4c5	9.82261e-19
39	0x1b942e7e	2.451459e-22
40	0x9f06d923	-2.8555215e-20
41	0x1fbf15da	8.09278e-20
42	0x2601b0c8	4.499545e-16
43	0x2b4be7f6	7.2442e-13
44	0x1a598a5b	4.498631e-23
45	0x99ef2cfe	-2.4730193e-23
46	0x24c88d46	8.69755e-17
47	0x1b0174a7	1.0708322e-22
48	0x17a68448	1.0760891e-24
49	0x1d7e4826	3.365392e-21
50	0x306d2cf3	8.6283974e-10
51	0x26821a31	9.027661e-16
52	0x17a8b60d	1.0902702e-24
53	0x9e12b332	-7.766232e-21
54	0x19501e84	1.07595105e-23
55	0x1dad4909	4.5868235e-21
56	0x9a15cea5	-3.0979404e-23
57	0x2640a2b8	6.6833907e-16
58	0xa32b9afa	-9.302746e-18
59	0x984e6655	-2.667654e-24
60	0x9d9de40d	-4.1793353e-21
61	0x9881092d	-3.3354984e-24
62	0x96d744a4	-3.4778442e-25
63	0x303b580c	6.8155326e-10
64	0xa1fe7380	-1.7242282e-18
65	0x1a35519b	3.7495843e-23
66	0x35096c90	5.1194456e-07
67	0xb4210739	-1.4996921e-07
68	0xb23ce438	-1.0994931e-08
69	0x9fecc5e0	-1.00277245e-19
70	0x347fbef4	2.3818194e-07
71	0x9d0addbc	-1.8378782e-21
72	0x9dbeddf7	-5.0522088e-21
73	0x26840e25	9.163174e-16
74	0x1b5a988d	1.8081829e-22
75	0x18c15c1a	4.998233e-24
76	0xa18a8b12	-9.388055e-19
77	0x1e1e5e06	8.383894e-21
78	0xb227b54c	-9.7619015e-09
79	0x1b08e3da	1.1323279e-22
80	0x9aaf174c	-7.241594e-23
81	0x1ada6c55	9.0337707e-23
82	0xb138cc26	-2.689157e-09
83	0xa7fc5878	-7.003997e-15
84	0x9c2c34d8	-5.6978325e-22
85	0x9ac2c158	-8.054888e-23
86	0xa4e3bc54	-9.87646e-17
87	0x1d294f68	2.2408016e-21
88	0x23977845	1.6422389e-17
89	0x319a9b08	4.499615e-09
90	0x9abd7a3c	-7.836605e-23
91	0x992f2e83	-9.056681e-24
92	0x1c8a7488	9.162197e-22
93	0xa9fe54ad	-1.1294555e-13
94	0x3439139f	1.7236606e-07
95	0x18311584	2.2887576e-24
96	0xa4d90938	-9.4124366e-17
97	0x9d67b2c4	-3.0665015e-21
98	0x2699b6fe	1.0666108e-15
99	0xb5acb0b2	-1.2866424e-06
100	0x99c6fce6	-2.0574865e-23
101	0x9a379e84	-3.797156e-23
102	0x31f8b38e	7.238163e-09
103	0xaa769da2	-2.1903879e-13
104	0x2c56710a	3.0473978e-12
105	0x20f20703	4.1001035e-19
106	0xad40cad5	-1.0958974e-11
107	0x1a3ba3d8	3.8803046e-23
108	0x35f0f651	1.7953081e-06
109	0x9a005b48	-2.6543516e-23
110	0xad7cf103	-1.4378057e-11
111	0xa82861a3	-9.347045e-15
112	0xae3e8ec4	-4.33278e-11
113	0x1ac63e8e	8.1991943e-23
114	0xab3c5fe7	-6.692411e-13
115	0xa4c78d0d	-8.654144e-17
116	0x35326015	6.6449985e-07
117	0x98f9d8e3	-6.458399e-24
118	0xb37bcffe	-5.862966e-08
119	0xaa4557ee	-1.7527622e-13
120	0xa5042bdd	-1.1464036e-16
121	0x9a6c7315	-4.889662e-23
122	0x1d845b36	3.503442e-21
123	0x19d2e503	2.1805988e-23
124	0xa5c85a3d	-3.4755617e-16
125	0x9a5337b8	-4.3678787e-23
126	0x3578a1b9	9.2622537e-07
127	0x9a145863	-3.067708e-23
128	0x992418e7	-8.48363e-24
129	0x1a6a6964	4.84752e-23
130	0x2e128275	3.3312426e-11
131	0x33a8d664	7.862107e-08
132	0x9d07f4de	-1.7993695e-21
133	0x9ea69f4c	-1.7641817e-20
134	0x28af6d86	1.9476401e-14
135	0x9a91bed1	-6.0278875e-23
136	0x9d635157	-3.0085252e-21
137	0xab402905	-6.826903e-13
138	0x232a8529	9.243916e-18
139	0x19997034	1.5865148e-23
140	0x9b8a8f5b	-2.2922826e-22
141	0x24b23aa3	7.729453e-17
142	0x1b206452	1.3267305e-22
143	0x9fd28790	-8.916273e-20
144	0xb101ccc3	-1.8888364e-09
145	0x998913e4	-1.4173502e-23
146	0xa25f378f	-3.0251548e-18
147	0x1b3a55a6	1.5413234e-22
148	0x285f0d72	1.2381902e-14
149	0x9e1a78e1	-8.177689e-21
150	0x19341a0b	9.311041e-24
151	0x34bbcbf8	3.497987e-07
152	0x1ad592f3	8.8332145e-23
153	0x9adfb6f8	-9.252624e-23
154	0x9c68c2db	-7.7014206e-22
155	0x99128295	-7.574394e-24
156	0xb425aa95	-1.542888e-07
157	0x18fa80dc	6.47536e-24
158	0x1b16594d	1.2436564e-22
159	0x9ac6190f	-8.1931365e-23
160	0xade3fbb5	-2.5918693e-11
161	0x9df28f96	-6.420533e-21
162	0xa5d821bb	-3.7492884e-16
163	0x244fe680	4.508121e-17
164	0x1a359bcc	3.7555774e-23
165	0x3495af96	2.7881168e-07
166	0x2bcd9dc4	1.4609915e-12
167	0x9bacb259	-2.8570268e-22
168	0x1b1262a5	1.2108711e-22
169	0xb1a99cb8	-4.936364e-09
170	0x9fd5f69a	-9.061698e-20
171	0xaa127529	-1.3008053e-13
172	0x9a068488	-2.7817608e-23
173	0x9affb3b6	-1.05755867e-22
174	0xb21ca6a7	-9.1182875e-09
175	0x9af620f4	-1.01796454e-22
176	0x9819f5a4	-1.9898803e-24
177	0x1871159d	3.1159432e-24
178	0x9d09973f	-1.8209991e-21
179	0x35c05112	1.4328709e-06
180	0x98f2371e	-6.2611188e-24
181	0x335f4d12	5.199133e-08
182	0xb2f64368	-2.8668822e-08
183	0x9a8fe4a6	-5.9512815e-23
184	0xb502ca1f	-4.87229e-07
185	0x24af0d24	7.591641e-17
186	0x9ca85c49	-1.1141163e-21
187	0x9b80c48b	-2.1302837e-22
188	0x359ac816	1.1532127e-06
189	0x25ffac6d	4.435229e-16
190	0x1a589692	4.4789383e-23
191	0xa2756301	-3.3256104e-18
192	0x31425152	2.827694e-09
193	0xa5012c78	-1.1204033e-16
194	0x99712696	-1.24672e-23
195	0x35b40aef	1.3414227e-06
196	0x3580d7cf	9.599552e-07
197	0xb380f308	-6.0046716e-08
198	0x9e079ff9	-7.179922e-21
199	0x9f46880b	-4.2040663e-20
200	0x99797261	-1.2896097e-23
201	0x35ecc197	1.7639712e-06
202	0xb1322b0f	-2.5926885e-09
203	0x18b83ad6	4.7622294e-24
204	0x2051b8d8	1.7764148e-19
205	0x218645da	9.098683e-19
206	0x9eaf4bb8	-1.8560162e-20
207	0x1a416a77	3.9997466e-23
208	0x1a1a0637	3.1851474e-23
209	0x9b708868	-1.989641e-22
210	0x99dd69e9	-2.2893641e-23
211	0x98f15e3b	-6.239219e-24
212	0x99ef3ff4	-2.4737851e-23
213	0x99c12ac8	-1.9973011e-23
214	0x9a015401	-2.6744433e-23
215	0x218b0d19	9.422473e-19
216	0x22611d39	3.0508656e-18
217	0x32043f7c	7.697846e-09
218	0x32278d75	9.752843e-09
219	0x2882855c	1.4490735e-14
220	0x1aa3a658	6.768396e-23
221	0x9feab17e	-9.939649e-20
222	0x3257dc0d	1.2564681e-08
223	0x268cde5a	9.77472e-16
224	0x31fdc673	7.38583e-09
225	0xab13df46	-5.2534745e-13
226	0x18a48b00	4.253336e-24
227	0xaf1acdde	-1.4079357e-10
228	0xa076c385	-2.0901702e-19
229	0x9a2453f2	-3.3982216e-23
230	0x99b7acc7	-1.899154e-23
231	0x2b1f338e	5.6559694e-13
232	0x18d563b9	5.5159904e-24
233	0x9a478b25	-4.1264636e-23
234	0x1a641cd7	4.717259e-23
235	0x33a696e7	7.757426e-08
236	0x17635340	7.345273e-25
237	0x9bbf32c9	-3.1631119e-22
238	0x25fec68c	4.4196517e-16
239	0x19852634	1.3767308e-23
240	0x9b42b2c4	-1.6105066e-22
241	0xb5b19ddb	-1.323347e-06
242	0x1a2c02a2	3.5570893e-23
243	0x27cc4a10	5.6701673e-15
244	0xaedfc9a3	-1.0176684e-10
245	0x1a74429c	5.0511824e-23
246	0x3583653e	9.789726e-07
247	0x313c6067	2.74124e-09
248	0x33e3986d	1.0598237e-07
249	0xb12c3acc	-2.5062716e-09
250	0x2189de3a	9.342304e-19
251	0x1a1008e6	2.978569e-23
252	0xa7a94a04	-4.698717e-15
253	0x197a3fdb	1.29375926e-23
254	0xb3bb1b29	-8.7128065e-08
255	0x325e26d7	1.2930932e-08

lstm.bias_ih_l0 f4 [80]
0	0x9c972c97	-1.0003868e-21
1	0x328cf843	1.6411041e-08
2	0x1cbd7883	1.2538122e-21
3	0x1f6982b2	4.9447778e-20
4	0xab24707a	-5.8420597e-13
5	0x35db7beb	1.6352836e-06
6	0x2188f6c8	9.281041e-19
7	0x1f36789f	3.8639775e-20
8	0x20d3adf0	3.5859893e-19
9	0x2e8e7223	6.477687e-11
10	0x9fdae237	-9.270083e-20
11	0x1c52b3f4	6.9715755e-22
12	0xad0dd16f	-8.061426e-12
13	0x2691c60f	1.011508e-15
14	0x9c012c76	-4.2739984e-22
15	0x29db1e12	9.73077e-14
16	0x9d379778	-2.4298156e-21
17	0x2b0895d1	4.852482e-13
18	0xb13cb179	-2.7458482e-09
19	0x18dcd528	5.70839e-24
20	0x9f1fb396	-3.381811e-20
21	0x1d83f29b	3.492626e-21
22	0x1d31cc24	2.3531293e-21
23	0x1ba956c9	2.8014788e-22
24	0x2a108f16	1.2839412e-13
25	0xa00c01e0	-1.1859082e-19
26	0x2685645b	9.25593e-16
27	0x1f523813	4.4515613e-20
28	0xa661ae26	-7.829857e-16
29	0xaafe2040	-4.5141842e-13
30	0xa00fe38f	-1.2187864e-19
31	0x227b0ad0	3.4022567e-18
32	0x20000eba	1.0846894e-19
33	0xb492e531	-2.7361378e-07
34	0x30ff3036	1.8567394e-09
35	0x9e341d24	-9.535147e-21
36	0x32487908	1.16690515e-08
37	0xa7fa8dda	-6.9542735e-15
38	0xa17d2953	-8.5774426e-19
39	0x35058d16	4.975167e-07
40	0xb1d62c67	-6.2332677e-09
41	0xb2deb701	-2.5927422e-08
42	0x2d65b8b9	1.305816e-11
43	0xac5fa3c6	-3.1781119e-12
44	0xae082505	-3.09557e-11
45	0x322c6b40	1.00361035e-08
46	0xb45add0a	-2.0383246e-07
47	0x2ef36dca	1.1069863e-10
48	0x2ca36a1d	4.6445196e-12
49	0xaa83c779	-2.3408687e-13
50	0xb2dff1c9	-2.6070568e-08
51	0x2dc1da80	2.2038593e-11
52	0xadbfc4aa	-2.1801522e-11
53	0xae101689	-3.2761825e-11
54	0x2d6e49dd	1.3545135e-11
55	0x2eb1f24a	8.092067e-11
56	0xb0e30270	-1.6517117e-09
57	0x2967e954	5.1494684e-14
58	0x357a232f	9.3183456e-07
59	0x2d9906ac	1.7397049e-11
60	0x1c9fcc6f	1.0574582e-21
61	0xa1584b67	-7.328344e-19
62	0x2ce5b0c2	6.5281955e-12
63	0x1b62087f	1.8697027e-22
64	0x24b2838f	7.7418064e-17
65	0xa07a6059	-2.1207702e-19
66	0x3487cdf2	2.5295554e-07
67	0x3242f48b	1.1347889e-08
68	0x1f23b266	3.466416e-20
69	0xa4bd2cb8	-8.204144e-17
70	0x2afbe3c3	4.4744598e-13
71	0x1c0f6052	4.743922e-22
72	0x349d280d	2.927267e-07
73	0x9dd3a152	-5.6018036e-21
74	0x9d0b7524	-1.8457057e-21
75	0x1e8b58ed	1.4753976e-20
76	0x35d07097	1.5529976e-06
77	0x284333e2	1.0835925e-14
78	0x328015d4	1.4911087e-08
79	0x1d3426ae	2.3842799e-21

lstm.bias_hh_l0 f4 [80]
0	0x9e3fecb1	-1.01604024e-20
1	0x9d37e483	-2.4337986e-21
2	0x27586304	3.0029698e-15
3	0x9b3717ae	-1.5145057e-22
4	0x248456c5	5.739287e-17
5	0x2993b090	6.55874e-14
6	0x20f93da8	4.2223041e-19
7	0x1faacd48	7.233741e-20
8	0x1ec6fa65	2.1067626e-20
9	0x1c75c440	8.1317347e-22
10	0x9f6e8c68	-5.0514602e-20
11	0x9d10d005	-1.9165785e-21
12	0xaac57b9f	-3.508001e-13
13	0x1d8f422f	3.7920217e-21
14	0x3432b18f	1.6642137e-07
15	0x28966dfc	1.6701043e-14
16	0xb3010079	-3.0035583e-08
17	0x31c4dca6	5.7294356e-09
18	0xa26eeaf5	-3.23794e-18
19	0x9d7ad9e6	-3.3199875e-21
20	0xa68e22c3	-9.862652e-16
21	0x9fdd33c0	-9.3682754e-20
22	0xb4c733c6	-3.710431e-07
23	0xa354dd0d	-1.1539352e-17
24	0x242e2360	3.77602e-17
25	0x9f8f0e70	-6.058674e-20
26	0x205983b9	1.8424198e-19
27	0x1f3a948f	3.9509917e-20
28	0x1ee1ccaf	2.3907457e-20
29	0xb3e84dd9	-1.0817502e-07
30	0x345f6243	2.0804241e-07
31	0x9d9aba6c	-4.0956216e-21
32	0x99dcedeb	-2.2843561e-23
33	0x2dc81159	2.2745071e-11
34	0x237f24b1	1.3831347e-17
35	0xa501ae49	-1.1248017e-16
36	0x21e6affa	1.5631987e-18
37	0x9a256d8b	-3.4209688e-23
38	0x212b9d2b	5.8145064e-19
39	0x1d9ff85f	4.234376e-21
40	0x2c6739df	3.28592e-12
41	0x28efec77	2.663688e-14
42	0x2d57fd99	1.2277645e-11
43	0xac592431	-3.0857645e-12
44	0xb665bbe0	-3.4233017e-06
45	0xadaf519c	-1.9931438e-11
46	0x313e9eda	2.7738936e-09
47	0xb395e35c	-6.9797096e-08
48	0x3420c9d8	1.4974592e-07
49	0x3083c0e9	9.586333e-10
50	0x2d758f4b	1.3958455e-11
51	0x2e28791c	3.8306344e-11
52	0xad848996	-1.5067763e-11
53	0xae3144f5	-4.0306387e-11
54	0x2d34847e	1.0261235e-11
55	0x2ee95582	1.06108025e-10
56	0x2a1f67d6	1.4158062e-13
57	0x28a92fe9	1.8783547e-14
58	0xaca4b03e	-4.680727e-12
59	0x2cc1a421	5.503612e-12
60	0x9f4ae2be	-4.296272e-20
61	0x34d4ed8c	3.9660915e-07
62	0x9d46f7c0	-2.6333166e-21
63	0x208c9bd4	2.382004e-19
64	0x24a37dda	7.090318e-17
65	0xa024f13c	-1.3971158e-19
66	0x34ad0bd2	3.2232361e-07
67	0xb4a75659	-3.1169e-07
68	0x1ea2439d	1.7180381e-20
69	0x991dab63	-8.151321e-24
70	0xa04e7d81	-1.7490404e-19
71	0xb4f17aca	-4.497909e-07
72	0x9c7622f4	-8.143975e-22
73	0x2c2b46b4	2.433981e-12
74	0xa35efe63	-1.2088513e-17
75	0x218b2dce	9.431131e-19
76	0x9f8e0a29	-6.015615e-20
77	0x1fe692e3	9.765179e-20
78	0xa277865a	-3.3545867e-18
79	0x9d9da5d9	-4.1729036e-21

lstm.weight_ih_l1 f4 [80, 20]
0	0xa2e02385	-6.075293e-18
1	0xa4331615	-3.8833142e-17
2	0x1ebf0b6e	2.0227639e-20
3	0xb20aa458	-8.070025e-09
4	0xa7a768de	-4.646551e-15
5	0x2349684b	1.0918317e-17
6	0xa60fd7fe	-4.9905815e-16
7	0xb103e135	-1.9191024e-09
8	0x2516ebc7	1.309031e-16
9	0xab2923ce	-6.009055e-13
10	0xa39c45e8	-1.694316e-17
11	0xb4cbd5a9	-3.7967155e-07
12	0x9e8e0c0a	-1.5039814e-20
13	0x332dbe1a	4.0452598e-08
14	0xb1f17701	-7.0275523e-09
15	0x203a8e49	1.5801891e-19
16	0xa205ed23	-1.81504e-18
17	0x34f775fa	4.6093174e-07
18	0xb585af89	-9.96036e-07
19	0x2891c5ef	1.6184074e-14
20	0xb5c1f0a9	-1.4449662e-06
21	0x2b361d12	6.469973e-13
22	0x2681c4d6	9.004526e-16
23	0xa1fb8cdd	-1.7045708e-18
24	0xaaebe24f	-4.190142e-13
25	0x27bec7cb	5.295221e-15
26	0xac613d41	-3.2008426e-12
27	0xa8771beb	-1.3717308e-14
28	0x2989ccbc	6.119538e-14
29	0xa63ce2bb	-6.553288e-16
30	0x2d3f6f23	1.088177e-11
31	0x230a1929	7.486323e-18
32	0xa1f4fe20	-1.6601349e-18
33	0xa9c9b259	-8.9571315e-14
34	0x226774e5	3.1368221e-18
35	0x284a1764	1.1218325e-14
36	0xb5ba29f2	-1.3870288e-06
37	0x2abf9820	3.4033974e-13
38	0x2a0f8b51	1.2749286e-13
39	0xb27963cc	-1.4516399e-08
40	0xa1099d3c	-4.6625503e-19
41	0xa21fb600	-2.1644868e-18
42	0x32975180	1.7615776e-08
43	0x9cdc360e	-1.4572352e-21
44	0xa5b457c9	-3.1284508e-16
45	0xaf577e90	-1.95991e-10
46	0x30457e55	7.184771e-10
47	0xa2f6e97e	-6.6925653e-18
48	0x23035613	7.119751e-18
49	0x1f78b12a	5.266259e-20
50	0x2add6f0c	3.933454e-13
51	0x3030bd86	6.4297756e-10
52	0x24b2f747	7.76141e-17
53	0xa0bb6eac	-3.175227e-19
54	0x9eeb02b3	-2.488271e-20
55	0xb49fe219	-2.9780566e-07
56	0xa0543e07	-1.7977622e-19
57	0x1badfca9	2.8783727e-22
58	0x24599f28	4.7189185e-17
59	0xa4b2ddb1	-7.7570755e-17
60	0x9bc4b6d6	-3.2543635e-22
61	0xaf6d794e	-2.159812e-10
62	0x27a0dc43	4.464773e-15
63	0x19e3fc55	2.3573166e-23
64	0x30b49a23	1.3140532e-09
65	0x1c8f45d7	9.480999e-22
66	0x1b77c9c3	2.0496554e-22
67	0x2b0a838c	4.9210007e-13
68	0x1e6ca33c	1.2527492e-20
69	0x9e3a3ee5	-9.859764e-21
70	0x342a0991	1.5835964e-07
71	0xa9c5a913	-8.777887e-14
72	0xb2c3f72a	-2.2813385e-08
73	0x9b53dcd4	-1.7524864e-22
74	0x2501ceb2	1.1258998e-16
75	0xab3f9710	-6.806647e-13
76	0x9a2358af	-3.3779248e-23
77	0x9cbc0b51	-1.2443722e-21
78	0x9e02fb20	-6.934074e-21
79	0x35831729	9.767001e-07
80	0xa2993e25	-4.153653e-18
81	0x2642d2fb	6.7593203e-16
82	0xaa7a04b5	-2.2206094e-13
83	0x249e2da9	6.859893e-17
84	0xa6b0362c	-1.2227137e-15
85	0xb2b75ec7	-2.1347104e-08
86	0xa4b04349	-7.644182e-17
87	0xb593ee02	-1.1021623e-06
88	0x30661cf6	8.371467e-10
89	0x21029578	4.4243534e-19
90	0x2b3eeb9e	6.7828544e-13
91	0xb39a4238	-7.183229e-08
92	0xb5d89b8b	-1.6138523e-06
93	0xa02e141d	-1.4745028e-19
94	0x28989583	1.694023e-14
95	0x1fe4f84a	9.6972516e-20
96	0xa14953cf	-6.821237e-19
97	0x200456d5	1.1209565e-19
98	0x289d792f	1.7483056e-14
99	0xb3c70ec5	-9.269346e-08
100	0xa2ae10ba	-4.7180504e-18
101	0xa3133477	-7.979996e-18
102	0xa1ac8fd5	-1.1693245e-18
103	0x32bcb785	2.1969536e-08
104	0xa68d1e89	-9.792117e-16
105	0x228f2a41	3.8804966e-18
106	0xaa333633	-1.5917198e-13
107	0x35b21e52	1.3270858e-06
108	0x250074b9	1.1141777e-16
109	0x2105a6f5	4.528312e-19
110	0xa30e2c49	-7.707213e-18
111	0x1dcac55f	5.367303e-21
112	0xa517b5ec	-1.31588e-16
113	0x9f0095a6	-2.722884e-20
114	0x9fcc46fa	-8.651478e-20
115	0xade3326d	-2.5829306e-11
116	0xa155499e	-7.226464e-19
117	0x1d1c2ce0	2.0669628e-21
118	0x25a9841f	2.9406355e-16
119	0x30b273d6	1.2984127e-09
120	0x9afcb714	-1.04520536e-22
121	0x1b2bae8f	1.4201191e-22
122	0x9a8cdd10	-5.825979e-23
123	0x350882c2	5.0854226e-07
124	0x1dba6361	4.9336545e-21
125	0xa5ced6e9	-3.5880932e-16
126	0x9ffca086	-1.06991715e-19
127	0x9c0c6dd8	-4.6464084e-22
128	0xab3ce42c	-6.710767e-13
129	0x20729212	2.0546528e-19
130	0x1b1b494d	1.2844984e-22
131	0xa42f649d	-3.80323e-17
132	0x31feb35d	7.412764e-09
133	0xb007759e	-4.927986e-10
134	0x99b7d5b2	-1.9008067e-23
135	0x2cdfd154	6.3612813e-12
136	0xaf789fd7	-2.2612255e-10
137	0x199f243f	1.6454854e-23
138	0x1cdea2b8	1.4732789e-21
139	0xa4d10065	-9.063997e-17
140	0x2896e594	1.6752909e-14
141	0xb416ad69	-1.4032925e-07
142	0xa3a561fa	-1.793083e-17
143	0xb03418dc	-6.5518946e-10
144	0x35e7e929	1.72787e-06
145	0x1fefd154	1.0156674e-19
146	0x25c9db61	3.50166e-16
147	0xa0da9d4b	-3.7034724e-19
148	0x201f9c64	1.3519569e-19
149	0xa652a8fc	-7.30874e-16
150	0xb5701704	-8.944046e-07
151	0x1dc44cce	5.1960182e-21
152	0x1c8781bb	8.967085e-22
153	0x1e671365	1.2233049e-20
154	0xa68804cf	-9.438199e-16
155	0xb503591b	-4.893097e-07
156	0x9c38f0e6	-6.1191847e-22
157	0x1a749022	5.0574447e-23
158	0x21b5701c	1.2294712e-18
159	0xab18ec4a	-5.4329165e-13
160	0x3302330b	3.0314407e-08
161	0x228201ca	3.5238465e-18
162	0x2685b5b4	9.27798e-16
163	0x35597e72	8.10228e-07
164	0x2d8c8f29	1.5979733e-11
165	0xa5043d0c	-1.1469858e-16
166	0x35a89b27	1.2562131e-06
167	0x9c21d50a	-5.354578e-22
168	0x9af020cc	-9.931466e-23
169	0xb0d10499	-1.5208058e-09
170	0x9beaf1f6	-3.8868416e-22
171	0xacad4917	-4.9250703e-12
172	0x9932b119	-9.238149e-24
173	0x33801fb3	5.9662305e-08
174	0xb417474a	-1.4088906e-07
175	0xa268deae	-3.1559749e-18
176	0x9b6c23d2	-1.9533037e-22
177	0x9aafe724	-7.275173e-23
178	0x1dd0c2aa	5.525842e-21
179	0x28932e34	1.6340316e-14
180	0xa5c1482e	-3.3529074e-16
181	0xa6c08b92	-1.3360507e-15
182	0x2120efdc	5.452756e-19
183	0x3299823c	1.7870768e-08
184	0xaa17b154	-1.3473017e-13
185	0x35438300	7.283379e-07
186	0xa81edf63	-8.819201e-15
187	0xa700c435	-1.7869932e-15
188	0x27e045ce	6.224817e-15
189	0x35c37b9f	1.4564611e-06
190	0xa74bbd07	-2.8274381e-15
191	0x222f9d6d	2.3800263e-18
192	0xa17d54f0	-8.583215e-19
193	0xa2998e1b	-4.1621193e-18
194	0x22029a6d	1.7700038e-18
195	0x2347502c	1.0804789e-17
196	0xb32aa7e4	-3.9733905e-08
197	0x342fa461	1.6357946e-07
198	0xb2de02c1	-2.5845454e-08
199	0x2eb9bc6f	8.4462985e-11
200	0xb5190ca4	-5.7015336e-07
201	0xa20f029e	-1.93815e-18
202	0x33c0f736	8.985664e-08
203	0x22219ceb	2.190264e-18
204	0x34a0e619	2.996974e-07
205	0x2f508ad3	1.896681e-10
206	0xa3c857bd	-2.1721202e-17
207	0x31092967	1.9959658e-09
208	0x23ae5ede	1.8905296e-17
209	0x1fd88b1a	9.170968e-20
210	0xa25f681b	-3.0277249e-18
211	0x1e128781	7.757197e-21
212	0x9e0e3c99	-7.529949e-21
213	0x2fd41f58	3.8584846e-10
214	0x1d40a87f	2.5498099e-21
215	0x1e4bdc99	1.0792349e-20
216	0xa07c43da	-2.136768e-19
217	0x2b3912d3	6.5751327e-13
218	0x34b8cd87	3.4422212e-07
219	0x1d929cf3	3.880816e-21
220	0x25057137	1.157427e-16
221	0x9d15b20a	-1.981203e-21
222	0x28257fe7	9.187074e-15
223	0x23a54851	1.7919963e-17
224	0x342b0bb4	1.5929874e-07
225	0x9d5ef292	-2.9506861e-21
226	0x9e428504	-1.02977815e-20
227	0x9d4faa00	-2.748411e-21
228	0x1dd5abaa	5.6558127e-21
229	0x1aab11b6	7.0752556e-23
230	0xb14fd2cf	-3.0242295e-09
231	0x2258b766	2.937055e-18
232	0x3400c99a	1.1994271e-07
233	0x9ef1faab	-2.5620541e-20
234	0x1acf346b	8.569788e-23
235	0x9a6880e8	-4.8080605e-23
236	0x3584daae	9.89841e-07
237	0xa333bbc7	-9.743373e-18
238	0x1f4e6d8b	4.371281e-20
239	0x9d009574	-1.7017924e-21
240	0x3588e4c9	1.0199375e-06
241	0x9b3d70f7	-1.5670214e-22
242	0x9dff363e	-6.7554023e-21
243	0xaab4c009	-3.2107674e-13
244	0xa422baba	-3.5286314e-17
245	0x210e150e	4.8139337e-19
246	0xa69b5a84	-1.077982e-15
247	0x20b75a40	3.1061128e-19
248	0x32d390ca	2.4629475e-08
249	0x23072764	7.326706e-18
250	0x9f9178f5	-6.1609995e-20
251	0xa0768cf1	-2.0883644e-19
252	0x1f908dca	6.122094e-20
253	0xa39f4820	-1.726936e-17
254	0x9c6a884f	-7.760028e-22
255	0x31de3f7a	6.468267e-09

lstm.weight_hh_l1 f4 [80, 20]
0	0xa9de27f9	-9.8657146e-14
1	0xb4120051	-1.3597425e-07
2	0xa8e2693e	-2.5136682e-14
3	0x25fc6759	4.3785063e-16
4	0xaa22553d	-1.4418063e-13
5	0x31f86918	7.2296977e-09
6	0xa4e9e0fa	-1.0142877e-16
7	0xa7eccc44	-6.5724624e-15
8	0xae3aa95f	-4.2441935e-11
9	0xab9e7cd8	-1.1261226e-12
10	0x29054483	2.9591357e-14
11	0xa62f5e4e	-6.084313e-16
12	0x280d9f50	7.861618e-15
13	0xb41b8653	-1.4484367e-07
14	0xa8f002b8	-2.6646532e-14
15	0x358ec80f	1.0638049e-06
16	0xb4ad0e8b	-3.2234342e-07
17	0xa89ef5ba	-1.764809e-14
18	0x28ab091d	1.8988766e-14
19	0xa9f44c33	-1.0848995e-13
20	0xad73e052	-1.386276e-11
21	0xaf8a554f	-2.516267e-10
22	0xacb2b6a5	-5.079342e-12
23	0x29eb7ac4	1.0457393e-13
24	0xb513b708	-5.5028113e-07
25	0x2d5f5fc4	1.2697347e-11
26	0xa8b3e42b	-1.9971944e-14
27	0xab7d26dc	-8.9937584e-13
28	0x2997af05	6.736108e-14
29	0xaf84b9c5	-2.4142657e-10
30	0x2d0f6dcb	8.152988e-12
31	0xaa112c4f	-1.289396e-13
32	0x2c81f2f9	3.693376e-12
33	0xad300d29	-1.0007364e-11
34	0xad1a7fd5	-8.782271e-12
35	0x2a18ba22	1.356489e-13
36	0x2b21a0ae	5.742168e-13
37	0xac4946d9	-2.8603146e-12
38	0xb4600650	-2.0863922e-07
39	0xad801581	-1.4561465e-11
40	0xb1664d90	-3.3513494e-09
41	0x31370554	2.6633034e-09
42	0xa708565d	-1.892061e-15
43	0xa87584d4	-1.36290346e-14
44	0xa793a74b	-4.0982076e-15
45	0x2788e327	3.799386e-15
46	0xa3321b54	-9.655186e-18
47	0xa5b7b56e	-3.186838e-16
48	0x23ed92f0	2.5757822e-17
49	0xb456875b	-1.9979545e-07
50	0x27142a07	2.056191e-15
51	0xb31bfc94	-3.631847e-08
52	0x268bc90e	9.699559e-16
53	0xaa53cd2b	-1.8811747e-13
54	0xa7764676	-3.4177555e-15
55	0x275c639c	3.0585132e-15
56	0x258ee61d	2.4789004e-16
57	0xb166fa90	-3.3611833e-09
58	0x26c7a9eb	1.3854455e-15
59	0x3193a4ce	4.296999e-09
60	0xa2abdc20	-4.658271e-18
61	0xa78e0536	-3.9418567e-15
62	0xa19d6289	-1.0664816e-18
63	0xa6f6c313	-1.7122554e-15
64	0x2bf82a54	1.7633208e-12
65	0x221eaa71	2.1503224e-18
66	0x9d99b535	-4.0686126e-21
67	0xa0aa4a99	-2.8848485e-19
68	0xa3a46a1d	-1.7825856e-17
69	0xa691febf	-1.0130445e-15
70	0xa8abf49f	-1.9090901e-14
71	0x9e68a23a	-1.2315525e-20
72	0x20a9e7d6	2.878313e-19
73	0xab399748	-6.593515e-13
74	0xa1b5f073	-1.2328683e-18
75	0x1dacbe25	4.5724626e-21
76	0x24760198	5.3344097e-17
77	0x25c48a03	3.40941e-16
78	0x288c2b4b	1.5561898e-14
79	0x340730d2	1.2590615e-07
80	0x32755bf4	1.4281785e-08
81	0xb5299566	-6.317481e-07
82	0x342ba3a4	1.5985148e-07
83	0x25b1cd26	3.084362e-16
84	0xa908feb2	-3.041898e-14
85	0x2906f228	2.9964014e-14
86	0x284bf847	1.13226e-14
87	0xa7333c2b	-2.4873857e-15
88	0x2507f112	1.1791061e-16
89	0xaab313fc	-3.1810654e-13
90	0xae10d25e	-3.2928653e-11
91	0xaba31940	-1.1588855e-12
92	0x28055ab1	7.402649e-15
93	0xa8aad4e4	-1.8966118e-14
94	0xa8cb2689	-2.255424e-14
95	0x26031a48	4.5485373e-16
96	0xb32063e4	-3.7343753e-08
97	0xa818ed76	-8.489186e-15
98	0x28582de5	1.20003605e-14
99	0xa999bf66	-6.827767e-14
100	0x2ab8ee9f	3.2850542e-13
101	0xab7a4c9c	-8.892416e-13
102	0xb4411782	-1.7983078e-07
103	0x2515362d	1.2942045e-16
104	0xa8ca1fad	-2.2440242e-14
105	0xb307c7dd	-3.161391e-08
106	0x287c25f9	1.3997044e-14
107	0xa71f2fa4	-2.2091509e-15
108	0x253b53e6	1.624809e-16
109	0xaab43e4f	-3.2017658e-13
110	0x287395c3	1.3521684e-14
111	0xa517ebd5	-1.3177065e-16
112	0x27d25b71	5.838585e-15
113	0xa8808f9f	-1.427314e-14
114	0xa8495b8f	-1.1177595e-14
115	0x25ad1c77	3.0030005e-16
116	0x269b668a	1.0783079e-15
117	0xb3a95521	-7.8851606e-08
118	0x33a68352	7.7538644e-08
119	0x2f90da59	2.6348593e-10
120	0xa083ef1a	-2.2350487e-19
121	0xa28ab3e1	-3.759543e-18
122	0xa8987735	-1.6927088e-14
123	0xa67b915f	-8.7280133e-16
124	0xa02f6d4b	-1.4859239e-19
125	0xb5841141	-9.839788e-07
126	0xb3c4879f	-9.1516306e-08
127	0x354be6e8	7.5959406e-07
128	0xb49ca69f	-2.9178497e-07
129	0xa230a2af	-2.3938572e-18
130	0xb40436f5	-1.2313451e-07
131	0x9d016f2d	-1.7130484e-21
132	0xb42c3508	-1.6038041e-07
133	0x9ff86595	-1.0520014e-19
134	0x22eb0911	6.3706477e-18
135	0x1cef6fda	1.5844606e-21
136	0xb01f67b6	-5.7991245e-10
137	0xa16c0871	-7.997108e-19
138	0xb3508e34	-4.8558107e-08
139	0xb2916f1e	-1.6930752e-08
140	0xa67effd6	-8.8470675e-16
141	0xa81448d4	-8.2314425e-15
142	0x32316219	1.0325061e-08
143	0x31eabf4b	6.832044e-09
144	0xa5950227	-2.5848838e-16
145	0x3023bce9	5.956751e-10
146	0xa0fdc038	-4.2987067e-19
147	0xa412e13f	-3.1849494e-17
148	0xa872722b	-1.3458455e-14
149	0xa7599565	-3.0195786e-15
150	0x34f6d9df	4.5979593e-07
151	0xa21af9fa	-2.1003228e-18
152	0x240ec824	3.0960867e-17
153	0xa6b0cfbc	-1.226876e-15
154	0xa54f553a	-1.7983264e-16
155	0x227051fa	3.2569463e-18
156	0x302f6244	6.3804273e-10
157	0xa4cd3295	-8.899027e-17
158	0x2500b7d5	1.1164515e-16
159	0x2aaab37b	3.0322606e-13
160	0xac4d4ead	-2.9175926e-12
161	0x3440e083	1.796307e-07
162	0x2690c038	1.0044108e-15
163	0x2382b488	1.4171086e-17
164	0xa1622120	-7.661562e-19
165	0x2176358a	8.34189e-19
166	0x234c5f12	1.1078994e-17
167	0x9f9502eb	-6.310878e-20
168	0xa8885a42	-1.5138176e-14
169	0xb3d9ff89	-1.01513315e-07
170	0x264a1ffc	7.0126175e-16
171	0xa895a2f8	-1.6613e-14
172	0x2763bdea	3.160553e-15
173	0xb2cb565b	-2.367158e-08
174	0xa0b67c22	-3.0914143e-19
175	0x20b434ff	3.0528256e-19
176	0xac298743	-2.409143e-12
177	0xa09c952c	-2.6526142e-19
178	0xa39ecfa2	-1.721833e-17
179	0x29edb87e	1.05569186e-13
180	0xad834aab	-1.4926135e-11
181	0xb1de4ef4	-6.4700263e-09
182	0xabc61640	-1.4074922e-12
183	0x28fdb621	2.8167628e-14
184	0xb548a977	-7.475241e-07
185	0x2d570434	1.2222268e-11
186	0xab2cdb6e	-6.1411195e-13
187	0xaad2621b	-3.7371568e-13
188	0x2891d874	1.6192105e-14
189	0xae616115	-5.1245303e-11
190	0x2cb71b76	5.2042216e-12
191	0xa900c6c3	-2.8594108e-14
192	0x2b1fd136	5.6778486e-13
193	0xaf18132c	-1.383113e-10
194	0xac1d2a7c	-2.2334625e-12
195	0x295b3de6	4.8681457e-14
196	0x2aecafe8	4.204408e-13
197	0xac2990df	-2.4096764e-12
198	0x2b8a1e9e	9.813988e-13
199	0xb4a13236	-3.002512e-07
200	0xa8bc5eae	-2.0913254e-14
201	0xaa3d6437	-1.6821341e-13
202	0xa7731258	-3.3732969e-15
203	0x3584a519	9.882816e-07
204	0xa8c5d5f8	-2.1964188e-14
205	0xb46f0041	-2.2258702e-07
206	0xa3bbb2e2	-2.035034e-17
207	0xa65a19a3	-7.566869e-16
208	0x2492c432	6.3649775e-17
209	0xa9c97533	-8.946524e-14
210	0x2816f8ac	8.380595e-15
211	0xb0b2ec39	-1.3018343e-09
212	0xad4ecfb3	-1.1755863e-11
213	0xa7da4fc2	-6.059363e-15
214	0xa795d08c	-4.1581915e-15
215	0x31cb100b	5.9099015e-09
216	0x2608ba82	4.7437244e-16
217	0xa7a55d4f	-4.5897865e-15
218	0x27b05300	4.89398e-15
219	0xb35d05c6	-5.1460823e-08
220	0xa318e59e	-8.28856e-18
221	0xa44d2b27	-4.448884e-17
222	0x3187f796	3.9571644e-09
223	0x1e9b011e	1.6411725e-20
224	0x355db737	8.259553e-07
225	0xb5cdabb9	-1.5323668e-06
226	0xac8d11db	-4.0094434e-12
227	0x2ab7025c	3.2508967e-13
228	0x1e38fd07	9.793204e-21
229	0xb5d306c3	-1.5722693e-06
230	0xadf04596	-2.7315743e-11
231	0x9e7bf563	-1.3338574e-20
232	0x201f3898	1.3486549e-19
233	0xa1d44de1	-1.4386293e-18
234	0xb486fbfc	-2.5142788e-07
235	0x1ef65d59	2.6084871e-20
236	0x202d05e1	1.4655615e-19
237	0xa1449214	-6.6600716e-19
238	0xb333101c	-4.1691337e-08
239	0xa26602ea	-3.1172355e-18
240	0xa65654f3	-7.436129e-16
241	0xa8994b7c	-1.7019148e-14
242	0xa5785df6	-2.1542406e-16
243	0xa28aedc9	-3.765674e-18
244	0xa61593cc	-5.189506e-16
245	0x25ddd71d	3.8483155e-16
246	0x34920dcc	2.7204658e-07
247	0xa454918e	-4.6093462e-17
248	0x221e147c	2.1423837e-18
249	0xa7f1d92a	-6.7126387e-15
250	0xaf39d425	-1.6901021e-10
251	0xaf35d2d4	-1.6536755e-10
252	0x24b55176	7.863424e-17
253	0x3381fb10	6.0526986e-08
254	0xa883e5ba	-1.464355e-14
255	0x23bf5624	2.0744743e-17

lstm.bias_ih_l1 f4 [80]
0	0x30c6e76e	1.4472172e-09
1	0x35af007f	1.303866e-06
2	0x34d02284	3.8768133e-07
3	0x2f7d7586	2.3051969e-10
4	0xb2331bb8	-1.0425474e-08
5	0x30795723	9.07095e-10
6	0x27846ca5	3.6755152e-15
7	0x2dbe7b78	2.165533e-11
8	0x292a1ac8	3.7770812e-14
9	0x345645d3	1.9955705e-07
10	0x30607fce	8.1672347e-10
11	0x29a12ef5	7.157982e-14
12	0x2d465e24	1.12759e-11
13	0x2fcd790d	3.7375295e-10
14	0x2f7cca05	2.2991038e-10
15	0x2adb44ae	3.894987e-13
16	0x2c5a8923	3.105579e-12
17	0x2edcabd3	1.0034964e-10
18	0x2f4fbd2b	1.8893746e-10
19	0x3116daaf	2.195218e-09
20	0xb293400b	-1.7142176e-08
21	0x34b3f625	3.3520442e-07
22	0x2fc08866	3.5021513e-10
23	0x296b2cad	5.2219232e-14
24	0x3484f0ef	2.4762218e-07
25	0x3034b6fd	6.574366e-10
26	0x2742aa20	2.7015133e-15
27	0x3092a374	1.0669354e-09
28	0x28a7c16a	1.8624604e-14
29	0x34091394	1.2766242e-07
30	0x2f6a834e	2.1328825e-10
31	0x33e0005f	1.043088e-07
32	0x2d596d7d	1.2359333e-11
33	0x2fb0b475	3.2142436e-10
34	0xb5ca016f	-1.505059e-06
35	0x329eee6a	1.8502039e-08
36	0x2c35b837	2.5823907e-12
37	0x2e96ea91	6.8628776e-11
38	0x35a3ab5e	1.2194321e-06
39	0x310fa12e	2.0900859e-09
40	0xb7e75b24	-2.7579787e-05
41	0xba402274	-0.00073293527
42	0xb79faa90	-1.9033701e-05
43	0x3471e0b5	2.2526622e-07
44	0xb826eebe	-3.979983e-05
45	0x384ec8f8	4.9301394e-05
46	0xb3a45b6b	-7.653474e-08
47	0xb6616492	-3.3586152e-06
48	0x341ebe32	1.478409e-07
49	0xb9a693d6	-0.00031772134
50	0x378e4943	1.6961834e-05
51	0xb477356f	-2.3023107e-07
52	0x36c1a0cd	5.770568e-06
53	0xb781b55e	-1.5462454e-05
54	0xb7e4a5d8	-2.7256945e-05
55	0x34e4948a	4.2576386e-07
56	0x35b2b889	1.331574e-06
57	0xb761a020	-1.3448327e-05
58	0x3785e1a2	1.5959904e-05
59	0xb816a2b4	-3.5914316e-05
60	0x3138a5b5	2.6869718e-09
61	0x35bd9089	1.4123663e-06
62	0x2f8fe8c5	2.617694e-10
63	0x2d16e9af	8.578401e-12
64	0x3090d0d5	1.0536733e-09
65	0x3052e90b	7.672873e-10
66	0x2797c9d9	4.2129763e-15
67	0x2d16c8fa	8.571139e-12
68	0x2993e325	6.567515e-14
69	0x340b277f	1.2959752e-07
70	0x2f6b2545	2.1386366e-10
71	0x2a2e8eb0	1.5503809e-13
72	0xab05a855	-4.74847e-13
73	0x2fb101fe	3.2197528e-10
74	0x35961589	1.1182138e-06
75	0x2ac87737	3.560986e-13
76	0x2c9ef118	4.517397e-12
77	0x2e9c43c6	7.106098e-11
78	0x2ecede54	9.407289e-11
79	0x30c8521c	1.4575252e-09

lstm.bias_hh_l1 f4 [80]
0	0x30d3b737	1.5404343e-09
1	0x350527bf	4.96042e-07
2	0x2f265293	1.5126948e-10
3	0x29ca5065	8.984548e-14
4	0x30474c43	7.250415e-10
5	0x3027dd5a	6.1068806e-10
6	0x278449d9	3.6717426e-15
7	0x2d58968e	1.2311608e-11
8	0x28a1ca1d	1.7962243e-14
9	0x33b79d6b	8.550236e-08
10	0x2f8f484b	2.6062916e-10
11	0x29e93840	1.03570364e-13
12	0x2d80f808	1.4662063e-11
13	0x3061a91b	8.2094836e-10
14	0x2fc7fc5b	3.6377198e-10
15	0x317a884e	3.6457268e-09
16	0xb5908e20	-1.07702e-06
17	0x30a3e80c	1.1925763e-09
18	0x3006cee0	4.9042903e-10
19	0x310b9caf	2.0316226e-09
20	0x317130fd	3.5097962e-09
21	0x3489302b	2.5553285e-07
22	0x2f1c0ec8	1.4193369e-10
23	0x29571975	4.776167e-14
24	0x304239b2	7.065878e-10
25	0x3088ebce	9.962322e-10
26	0xb4c239cf	-3.6177377e-07
27	0xaf296715	-1.5407083e-10
28	0x28dfc969	2.4845321e-14
29	0x3510943d	5.3859895e-07
30	0x2f6ef43e	2.1732746e-10
31	0x2985876a	5.929877e-14
32	0x2d854e03	1.5154994e-11
33	0x2fa9f950	3.0918068e-10
34	0x2f640309	2.0737558e-10
35	0x2ae09d21	3.9899423e-13
36	0x2c37f11d	2.6139709e-12
37	0x2f2fb121	1.5979086e-10
38	0x2eb968b1	8.431423e-11
39	0x3525cf3a	6.1768844e-07
40	0xb8b4326a	-8.592459e-05
41	0xba626604	-0.00086364173
42	0xb742545a	-1.1582941e-05
43	0x347a4f3a	2.3311887e-07
44	0xb81bf65f	-3.718433e-05
45	0x37ab1778	2.0395717e-05
46	0xb37761d7	-5.7598154e-08
47	0xb616731a	-2.241874e-06
48	0x34419121	1.8027323e-07
49	0xba1a67d5	-0.0005890106
50	0x37b2a92c	2.129803e-05
51	0xb488b203	-2.5461495e-07
52	0x364bfa3d	3.0395015e-06
53	0xb81a8708	-3.684222e-05
54	0xb728d700	-1.0063639e-05
55	0x352e7797	6.499408e-07
56	0x36243672	2.4469596e-06
57	0xb70be60c	-8.338608e-06
58	0x37130f77	8.7654835e-06
59	0xb855d715	-5.0983468e-05
60	0x3122b7c9	2.3678572e-09
61	0x3507395c	5.037489e-07
62	0xb443c38f	-1.8231934e-07
63	0x29a96605	7.522805e-14
64	0x3271e1d9	1.4079398e-08
65	0x309866df	1.1088693e-09
66	0x279529c4	4.140109e-15
67	0x2cd69e26	6.099804e-12
68	0x28fd9f53	2.8157738e-14
69	0x33dd55ac	1.0306698e-07
70	0x301b7ff0	5.657048e-10
71	0xaaa97b55	-3.010601e-13
72	0x2d724499	1.3771339e-11
73	0x2fdabc3a	3.9787712e-10
74	0x2f7261c8	2.204451e-10
75	0x358dcb70	1.0564527e-06
76	0x2c5c7c48	3.133287e-12
77	0x2f0061b1	1.1676239e-10
78	0x2ed5d64f	9.7241874e-11
79	0x31230c62	2.372666e-09

fc.weight f4 [180, 20]
0	0xb6f3ff1d	-7.2716634e-06
1	0xb883e3c1	-6.288989e-05
2	0xb589e091	-1.0272653e-06
3	0x327ab199	1.4592296e-08
4	0xb62571bd	-2.465312e-06
5	0x36a68c5b	4.963525e-06
6	0xb1955690	-4.3463118e-09
7	0xb43cfee0	-1.7601587e-07
8	0x323d66ac	1.1024593e-08
9	0xb7e59ddf	-2.7372442e-05
10	0x35b6a625	1.3608411e-06
11	0xb29d0241	-1.827823e-08
12	0x349b0749	2.88763e-07
13	0xb5f5b990	-1.8307928e-06
14	0xb625f87a	-2.4731548e-06
15	0x33a1995f	7.525045e-08
16	0x33f6c122	1.1490398e-07
17	0xb58bf625	-1.0427945e-06
18	0x35888132	1.017039e-06
19	0xb6711004	-3.592112e-06
20	0xb6601e83	-3.3396361e-06
21	0xb846db3f	-4.7411067e-05
22	0xb5985585	-1.1349772e-06
23	0x33196b93	3.5720927e-08
24	0xb6a3ae66	-4.878081e-06
25	0x360e2e31	2.1186536e-06
26	0xb1c14786	-5.6251706e-09
27	0xb4363d1d	-1.6972304e-07
28	0x324242cf	1.1307477e-08
29	0xb823bbe5	-3.903722e-05
30	0x361aa201	2.3042087e-06
31	0xb3bafbaa	-8.7070774e-08
32	0x35123c9e	5.447745e-07
33	0xb6020bf3	-1.9378465e-06
34	0xb5a01561	-1.1927151e-06
35	0x338778bf	6.308391e-08
36	0x3523ee1e	6.106874e-07
37	0xb5f7ca51	-1.8461816e-06
38	0x3547d2d6	7.4440084e-07
39	0xb6573c12	-3.2072462e-06
40	0xb6616bec	-3.3590431e-06
41	0xb858998b	-5.164141e-05
42	0xb5c64bf3	-1.4774254e-06
43	0x32d2cfa1	2.4541636e-08
44	0xb627cebc	-2.5005274e-06
45	0x361833e3	2.2679967e-06
46	0xb24669cc	-1.1549172e-08
47	0xb43054aa	-1.6422078e-07
48	0x3237dad5	1.0701759e-08
49	0xb81c37d6	-3.72453e-05
50	0x3634e17b	2.6953337e-06
51	0xb27d69ca	-1.4750592e-08
52	0x3486a67d	2.508058e-07
53	0xb6396dad	-2.7630988e-06
54	0xb5d7a0d3	-1.6065554e-06
55	0x33683c94	5.4071805e-08
56	0x340d2e40	1.3148474e-07
57	0xb551daf1	-7.817717e-07
58	0x357eb915	9.4891703e-07
59	0xb6442367	-2.9226883e-06
60	0xb6c80ee3	-5.9621975e-06
61	0xb85b0972	-5.2222465e-05
62	0xb5d2fb05	-1.5719276e-06
63	0x32ccfded	2.3864198e-08
64	0xb628e090	-2.5164663e-06
65	0x3628a45b	2.5129618e-06
66	0xb19ea6dd	-4.6173754e-09
67	0xb451a888	-1.9525953e-07
68	0x32661efe	1.3394809e-08
69	0xb847fb0f	-4.7679114e-05
70	0x361be042	2.3227335e-06
71	0xb2ccf8f8	-2.3861944e-08
72	0x350b6879	5.1933563e-07
73	0xb5e8af01	-1.733628e-06
74	0xb5f3fa12	-1.8177691e-06
75	0x33add629	8.094896e-08
76	0x33f26e30	1.1289046e-07
77	0xb5aeb127	-1.3015568e-06
78	0x3636e013	2.7250542e-06
79	0xb62f29b7	-2.6101313e-06
80	0xb668d786	-3.4696145e-06
81	0xb881fd99	-6.1984356e-05
82	0xb5a8a653	-1.2565382e-06
83	0x32c2a68e	2.2660313e-08
84	0xb68ac3e4	-4.135525e-06
85	0x36e49c52	6.8131276e-06
86	0xb1933e83	-4.28537e-09
87	0xb4d14652	-3.8980448e-07
88	0x328d21bc	1.6429901e-08
89	0xb7e9b991	-2.7862176e-05
90	0x364c6c70	3.0461488e-06
91	0xb27fe0c8	-1.4894063e-08
92	0x34a6972f	3.102991e-07
93	0xb65cf958	-3.2927692e-06
94	0xb59f5b2f	-1.1872961e-06
95	0x339ce52a	7.306001e-08
96	0x3453ae81	1.971439e-07
97	0xb5944e72	-1.104969e-06
98	0x35880125	1.0133123e-06
99	0xb627dd45	-2.5013735e-06
100	0xb657d4e8	-3.2161424e-06
101	0xb890c2ae	-6.902717e-05
102	0xb5ea3161	-1.744873e-06
103	0x326fbf76	1.3955164e-08
104	0xb627d343	-2.500791e-06
105	0x36279881	2.4973708e-06
106	0xb1d3c535	-6.163328e-09
107	0xb472d03b	-2.261376e-07
108	0x322234e6	9.441669e-09
109	0xb7f9363b	-2.9708366e-05
110	0x3591d7ea	1.0866181e-06
111	0xb28386f6	-1.531178e-08
112	0x34d18689	3.902717e-07
113	0xb60b736a	-2.0779794e-06
114	0xb5d0e5db	-1.5564104e-06
115	0x348bb799	2.6024352e-07
116	0x340b898f	1.2995427e-07
117	0xb5d13e34	-1.5589817e-06
118	0x354479b4	7.319279e-07
119	0xb67270f4	-3.6126557e-06
120	0xb658faa1	-3.2332393e-06
121	0xb89168ac	-6.9336354e-05
122	0xb5aed3f4	-1.3025697e-06
123	0x32a8fbf6	1.9672353e-08
124	0xb683727c	-3.917432e-06
125	0x36191577	2.281127e-06
126	0xb52fe9f5	-6.553303e-07
127	0xb42cb74b	-1.608543e-07
128	0x326738ec	1.3458912e-08
129	0xb7fe762a	-3.0334184e-05
130	0x35acca1a	1.2873818e-06
131	0xb28fde7b	-1.6748563e-08
132	0x348d47c3	2.631551e-07
133	0xb60b7e0a	-2.0785978e-06
134	0xb59724e9	-1.1261119e-06
135	0x3360f441	5.2376212e-08
136	0x34994cac	2.8554257e-07
137	0xb5c27174	-1.4487146e-06
138	0x353e2f05	7.084894e-07
139	0xb6e223f7	-6.7395117e-06
140	0xb684b367	-3.9547917e-06
141	0xb867338d	-5.5122702e-05
142	0xb5a9f54e	-1.2662874e-06
143	0x32a42a2f	1.9111296e-08
144	0xb626b2a5	-2.4839912e-06
145	0x36341615	2.6834944e-06
146	0xb192e8f3	-4.2756425e-09
147	0xb433cc15	-1.6744919e-07
148	0x3229dc99	9.887253e-09
149	0xb836967f	-4.353234e-05
150	0x361a4571	2.2988208e-06
151	0xb2a93b6c	-1.9701211e-08
152	0x3410cac0	1.3484805e-07
153	0xb5df968c	-1.665861e-06
154	0xb615bc5f	-2.2312377e-06
155	0x3329724f	3.9452342e-08
156	0x35876344	1.0087174e-06
157	0xb5baa2df	-1.3905482e-06
158	0x35baa177	1.3905072e-06
159	0xb63f8653	-2.8539405e-06
160	0xb6c1da27	-5.7772445e-06
161	0xb88b304e	-6.637034e-05
162	0xb5a268a4	-1.2100395e-06
163	0x32ce400b	2.401068e-08
164	0xb62e8393	-2.6004607e-06
165	0x360719a2	2.0131488e-06
166	0xb18fafe1	-4.181843e-09
167	0xb44e64cf	-1.9221919e-07
168	0x326a46d4	1.3636697e-08
169	0xb804b502	-3.163983e-05
170	0x3635054c	2.6974185e-06
171	0xb2ec06b6	-2.7477068e-08
172	0x34b085bd	3.2879862e-07
173	0xb601add2	-1.9323675e-06
174	0xb598ae2a	-1.1375571e-06
175	0x346a08aa	2.17961e-07
176	0x34acea41	3.220794e-07
177	0xb5594648	-8.094107e-07
178	0x354a5c2e	7.5385003e-07
179	0xb62b945e	-2.5567347e-06
180	0xb6a45976	-4.8979955e-06
181	0xb8992d92	-7.304097e-05
182	0xb5e584c2	-1.7100467e-06
183	0x328f9fd9	1.6720081e-08
184	0xb6201872	-2.3856087e-06
185	0x3625fce4	2.4734118e-06
186	0xb1befde9	-5.558594e-09
187	0xb43fc0b3	-1.7858365e-07
188	0x322af7a1	9.951607e-09
189	0xb80f80b7	-3.4213732e-05
190	0x35a6b98d	1.2421966e-06
191	0x3326f8ef	3.887629e-08
192	0x34c8f7b6	3.7433136e-07
193	0xb5ec659f	-1.7612946e-06
194	0xb5f384e8	-1.8143592e-06
195	0x33966e3f	7.004973e-08
196	0x345cef6a	2.0576195e-07
197	0xb59d8e35	-1.1738799e-06
198	0x35fdb941	1.8903885e-06
199	0xb695dca9	-4.4662343e-06
200	0xb6e41663	-6.7975357e-06
201	0xb89e06a0	-7.535261e-05
202	0xb57b6d57	-9.3663897e-07
203	0x32955871	1.7386101e-08
204	0xb63212db	-2.6535042e-06
205	0x3696a48d	4.4895046e-06
206	0xb3b4a0b8	-8.411138e-08
207	0xb49cd229	-2.9210176e-07
208	0x3239611e	1.0790499e-08
209	0xb8448673	-4.6855257e-05
210	0x36528c4f	3.1374109e-06
211	0xb2580de2	-1.2576011e-08
212	0x34b8bf6b	3.4411946e-07
213	0xb5f391e0	-1.8147366e-06
214	0xb60fa168	-2.1402611e-06
215	0x32f2ac26	2.8250792e-08
216	0x34bf6c12	3.5655154e-07
217	0xb5364802	-6.790507e-07
218	0x35487113	7.467035e-07
219	0xb69d1fa5	-4.6826485e-06
220	0xb6f2b503	-7.2332346e-06
221	0xb855d5a2	-5.098212e-05
222	0xb5a8aed9	-1.2567863e-06
223	0x3279eef3	1.4548038e-08
224	0xb66b7fc5	-3.50921e-06
225	0x3619bf70	2.2910208e-06
226	0xb1ba29ae	-5.418051e-09
227	0xb50be9f0	-5.212196e-07
228	0x329ba462	1.8119128e-08
229	0xb7f11aef	-2.874198e-05
230	0x36456d7a	2.9419011e-06
231	0xb32c9b84	-4.018831e-08
232	0x3500240b	4.7736165e-07
233	0xb5cea735	-1.539686e-06
234	0xb5b20fb4	-1.3266604e-06
235	0x34a9020d	3.1480195e-07
236	0x3453c8d4	1.9723967e-07
237	0xb59b6734	-1.1578436e-06
238	0x354517cd	7.3422854e-07
239	0xb715efeb	-8.936952e-06
240	0xb66283bd	-3.3753306e-06
241	0xb85120a0	-4.9859867e-05
242	0xb6440cf5	-2.9213818e-06
243	0x325ec807	1.2967582e-08
244	0xb621835a	-2.4067326e-06
245	0x36a4d108	4.9119153e-06
246	0xb192668b	-4.260817e-09
247	0xb4866acd	-2.5037153e-07
248	0x32a93d41	1.9702044e-08
249	0xb81459be	-3.536953e-05
250	0x364ebedc	3.0807487e-06
251	0xb2bb5919	-2.1810182e-08
252	0x34a98eec	3.1582692e-07
253	0xb5c8d5a5	-1.496334e-06
254	0xb5c74290	-1.4846028e-06
255	0x331256aa	3.4072094e-08

fc.bias f4 [180]
0	0x3d73cbca	0.05952052
1	0x3d73f47b	0.059559327
2	0x3d725713	0.05916507
3	0x3d73c889	0.059517417
4	0x3d6ea509	0.05826286
5	0x3d6e1cd8	0.058132976
6	0x3d73bf99	0.059508894
7	0x3d73f5ea	0.059560694
8	0x3d73f0e8	0.059555918
9	0x3d741f6c	0.05960028
10	0x3d741ec8	0.059599668
11	0x3d72cfa6	0.05928006
12	0x3d73cc95	0.059521277
13	0x3d73dce5	0.059536833
14	0x3d73e9c1	0.059549097
15	0x3d73c5cc	0.059514806
16	0x3d742944	0.059609666
17	0x3d73ead3	0.059550118
18	0x3d6ea2aa	0.058260597
19	0x3d742d6c	0.05961363
20	0x3d725dcf	0.059171494
21	0x3d7406a4	0.059576645
22	0x3d73bd8c	0.059506938
23	0x3d73dc24	0.059536114
24	0x3d733e4a	0.059385575
25	0x3d73b9c3	0.059503328
26	0x3d6d7c59	0.057979915
27	0x3d73d982	0.059533603
28	0x3d738721	0.05945504
29	0x3d73d989	0.05953363
30	0x3d743c2d	0.0596277
31	0x3d73b119	0.059495065
32	0x3d73b994	0.059503153
33	0x3d7408a4	0.059578553
34	0x3d737d11	0.059445444
35	0x3d73dd34	0.059537128
36	0x3d6ec81e	0.058296315
37	0x3d73be4e	0.05950766
38	0x3d73dea4	0.0595385
39	0x3d739ba0	0.059474587
40	0x3d74088c	0.059578463
41	0x3d73b5ae	0.059499435
42	0x3d73d184	0.05952598
43	0x3d72dffe	0.059295647
44	0x3d73fd41	0.059567694
45	0x3d7403b7	0.059573855
46	0x3d736d88	0.05943063
47	0x3d6e435d	0.05816971
48	0x3d73c5d1	0.059514824
49	0x3d70e772	0.058814473
50	0x3d6e8e6e	0.0582413
51	0x3d7403ef	0.059574064
52	0x3d73d9d7	0.05953392
53	0x3d73f9b3	0.059564304
54	0x3d7281e5	0.05920591
55	0x3d73db09	0.05953506
56	0x3d74165b	0.059591632
57	0x3d6e61b6	0.058198653
58	0x3d73e2a2	0.059542306
59	0x3d74068d	0.05957656
60	0x3d73fd6b	0.05956785
61	0x3d6eb25a	0.058275558
62	0x3d73c7b4	0.059516624
63	0x3d74036f	0.059573587
64	0x3d73e4ce	0.059544377
65	0x3d72958b	0.059224647
66	0x3d74100f	0.059585627
67	0x3d73c3e8	0.059513003
68	0x3d7410fd	0.059586514
69	0x3d740e27	0.05958381
70	0x3d6f2b3f	0.058390852
71	0x3d739732	0.059470363
72	0x3d73d09a	0.05952511
73	0x3d741afa	0.05959604
74	0x3d737999	0.059442136
75	0x3d740336	0.059573375
76	0x3d73e984	0.05954887
77	0x3d73b85b	0.059501987
78	0x3d726134	0.05917473
79	0x3d73ee28	0.059553295
80	0x3d73e853	0.059547734
81	0x3d72be27	0.059263375
82	0x3d7404b5	0.0595748
83	0x3d7409fe	0.05957984
84	0x3d740556	0.0595754
85	0x3d73815a	0.05944953
86	0x3d73f0e1	0.059555892
87	0x3d73ef9c	0.05955468
88	0x3d700b1f	0.058604356
89	0x3d73ee78	0.059553593
90	0x3d7405df	0.05957591
91	0x3d6feb14	0.058573797
92	0x3d73d817	0.05953225
93	0x3d70a7bb	0.05875371
94	0x3d736c26	0.05942931
95	0x3d740587	0.059575584
96	0x3d73ed65	0.05955257
97	0x3d73edba	0.059552886
98	0x3d71c6d7	0.05902752
99	0x3d71b97f	0.059014793
100	0x3d74044e	0.059574418
101	0x3d6f8189	0.058473144
102	0x3d7264f5	0.05917831
103	0x3d73f1ab	0.059556644
104	0x3d7415c9	0.05959109
105	0x3d6f9449	0.058491025
106	0x3d73d2ee	0.05952733
107	0x3d73f928	0.059563786
108	0x3d73c491	0.059513632
109	0x3d73f807	0.05956271
110	0x3d73d65f	0.059530612
111	0x3d70b6f7	0.05876824
112	0x3d73d72b	0.059531372
113	0x3d73c2b3	0.05951185
114	0x3d73e0f7	0.059540715
115	0x3d73e92a	0.059548534
116	0x3d73e8f8	0.05954835
117	0x3d73e3aa	0.05954329
118	0x3d73babf	0.059504267
119	0x3d73f9c6	0.059564374
120	0x3d73e615	0.059545595
121	0x3d7190f3	0.058976125
122	0x3d73e4e2	0.05954445
123	0x3d706c4b	0.058697026
124	0x3d73daca	0.059534825
125	0x3d703d64	0.058652297
126	0x3d73f9da	0.05956445
127	0x3d704cdb	0.058667045
128	0x3d73dec0	0.059538603
129	0x3d73eb54	0.0595506
130	0x3d73f9f5	0.05956455
131	0x3d73efe0	0.059554935
132	0x3d73f454	0.05955918
133	0x3d73d659	0.05953059
134	0x3d73f1c6	0.059556745
135	0x3d73e00d	0.059539843
136	0x3d73cd3d	0.059521902
137	0x3d735d96	0.059415422
138	0x3d73e941	0.05954862
139	0x3d73df7c	0.059539303
140	0x3d73e078	0.059540242
141	0x3d73eeed	0.05955403
142	0x3d734d10	0.059399664
143	0x3d70f36c	0.058825895
144	0x3d73f1e2	0.05955685
145	0x3d714bf5	0.05891033
146	0x3d73d8b2	0.05953283
147	0x3d720477	0.05908629
148	0x3d70c29a	0.058779337
149	0x3d711591	0.058858458
150	0x3d73f55e	0.059560172
151	0x3d73edd6	0.05955299
152	0x3d73e742	0.059546717
153	0x3d70dda6	0.05880513
154	0x3d70a506	0.05875113
155	0x3d740086	0.05957081
156	0x3d73bf23	0.059508454
157	0x3d73ee3d	0.059553374
158	0x3d73e4ee	0.059544496
159	0x3d73c280	0.05951166
160	0x3d73f134	0.0595562
161	0x3d73e4fb	0.059544545
162	0x3d73e9e7	0.05954924
163	0x3d73ef10	0.05955416
164	0x3d73ecf3	0.059552144
165	0x3d73e4e1	0.059544448
166	0x3d715bcc	0.058925435
167	0x3d73fb53	0.059565853
168	0x3d73f0d3	0.05955584
169	0x3d73e461	0.05954397
170	0x3d71e53b	0.0590565
171	0x3d739198	0.05946502
172	0x3d73ebfc	0.059551224
173	0x3d71c932	0.059029765
174	0x3d73e82b	0.059547585
175	0x3d73e374	0.059543088
176	0x3d735447	0.059406545
177	0x3d73e720	0.05954659
178	0x3d73dcec	0.05953686
179	0x3d70f11c	0.05882369
