backend/model/lstm-BIDU-90-.pth (torch, 31237 bytes, 12 tensors)

conv1.weight f4 [2, 4, 3]
000000 66 3c c9 37 58 99 1e 3b fe 98 26 37 bb 87 8e 38
       2.3989192e-05 0.0024200287 9.929992e-06 6.7963694e-05
000010 47 ba b4 3c 55 a0 77 36 5b c2 22 3c 14 d3 b8 bb
       0.02206148 3.6899194e-06 0.009934033 -0.005640397
000020 a9 8d 00 bb 07 29 f7 bc 3a ae 87 37 87 9b 93 36
       -0.0019615686 -0.03017093 1.6174385e-05 4.399047e-06
000030 4f 02 eb 37 e8 51 3b 39 92 d5 f0 39 12 62 ab 3b
       2.8015258e-05 0.00017864222 0.0004593549 0.0052301968
000040 dd 9e 16 3c 8c b3 6c 3c 01 f5 9d 37 05 da ac 3a
       0.009193149 0.014447104 1.8829947e-05 0.0013187533
000050 85 14 c7 38 d6 0a 3b 38 84 90 f9 38 25 58 eb 3b
       9.4928815e-05 4.4594366e-05 0.000119001634 0.0071821385

conv1.bias f4 [2]
000000 58 73 49 37 99 c8 ce ba
       1.2007389e-05 -0.0015776335

lstm.weight_ih_l0 f4 [80, 2]
000000 40 ab a9 39 b1 d9 fc ba f1 2c a4 3a 21 ce 22 36
       0.00032361783 -0.0019290951 0.0012525601 2.4259864e-06
000010 5e a9 a8 b3 c1 36 0d 3b 33 94 80 b4 43 fe 8f 35
       -7.853917e-08 0.0021547528 -2.3949687e-07 1.072833e-06
000020 10 1e 13 af 5b a3 c9 30 23 93 18 34 33 fe e1 3b
       -1.3380252e-10 1.4671103e-09 1.4209631e-07 0.006896758
000030 d0 b8 3c 3a d1 1b 53 34 ea d2 ea b3 35 b7 e6 b8
       0.000719917 1.9661026e-07 -1.0934839e-07 -0.000110013796
000040 69 14 9e b3 0e 53 5a bb 65 cc 66 3a 7f 50 45 36
       -7.361161e-08 -0.0033313665 0.0008804261 2.9402142e-06
000050 31 be 54 b6 bb 01 b1 3a 50 e8 e9 32 3d 40 54 35
       -3.1701168e-06 0.0013504544 2.7230413e-08 7.9069633e-07
000060 50 73 83 b3 b0 80 11 bc 89 3d 0d 39 90 96 89 bb
       -6.121138e-08 -0.008880779 0.00013469731 -0.0041988567
000070 23 22 d2 32 7f 6f fe b8 f1 be 37 30 d6 a3 a1 32
       2.4462741e-08 -0.000121324316 6.6846356e-10 1.881737e-08
000080 ee e4 1d 3a 43 0b 07 37 49 75 74 b2 39 f5 b0 32
       0.0006023188 8.049249e-06 -1.4229337e-08 2.0600611e-08
000090 0c 47 1e bb 5c 1f 0d 33 3f 43 be 38 d5 7c ad 3a
       -0.0024151234 3.2857642e-08 9.0724316e-05 0.0013236055
0000a0 f8 88 52 ba 72 32 9d 3b b0 f2 83 33 0f ea 84 35
       -0.0008031274 0.0047972733 6.1443075e-08 9.902886e-07
0000b0 01 37 c0 bb 0b 38 b1 ba 87 87 9c bb b9 39 4a 3a
       -0.005865932 -0.001352073 -0.0047768983 0.000771429
0000c0 37 ae b6 b9 a2 fa f2 3b 36 ca 8c b4 c8 e0 37 3b
       -0.00034843545 0.0074151317 -2.622416e-07 0.0028057564
0000d0 52 a2 d7 b8 4e 9b 91 34 69 7b 1b bb c8 ee 9f 34
       -0.000102822334 2.7121354e-07 -0.0023724681 2.9789794e-07
0000e0 38 39 d9 bb 51 26 0b ba 7d 33 67 32 54 25 37 36
       -0.0066291355 -0.0005308139 1.3457677e-08 2.7290853e-06
0000f0 aa 7f 3a b4 74 25 0a ba 9a c8 72 b3 ea a7 42 35
       -1.7369044e-07 -0.0005269863 -5.6527462e-08 7.251498e-07
000100 15 e0 36 ba 47 c2 be 34 8c b4 81 b1 6a 0f cb 30
       -0.000697614 3.5531613e-07 -3.77492e-09 1.4774575e-09
000110 c3 a8 57 31 aa 1f 98 33 21 03 86 38 d8 33 87 b2
       3.1382548e-09 7.083811e-08 6.390201e-05 -1.5739644e-08
000120 9f 16 1d b2 99 c9 6e bb 53 f5 d9 bb df 0f 6f 33
       -9.143746e-09 -0.003643608 -0.0066515594 5.566096e-08
000130 ec 43 c9 b9 c4 1c 80 b5 30 64 44 3b dd af 3f bb
       -0.00038388313 -9.545115e-07 0.0029966943 -0.002924911
000140 b8 71 d8 35 bf 7c 42 3b 71 a9 86 37 b7 16 9f 3a
       1.6126351e-06 0.0029676405 1.6052947e-05 0.0012137507
000150 4f 72 0a 35 6a ed 8f b7 55 17 c8 38 cb 24 dc 3a
       5.1575347e-07 -1.7157483e-05 9.541089e-05 0.0016795633
000160 d2 cb c5 3b cd 1f 12 b7 bc d4 23 37 56 db d8 39
       0.00603626 -8.709682e-06 9.765088e-06 0.00041362148
000170 ca e7 e1 b6 99 83 29 3c 9c 4c ac 36 cc a6 b4 3a
       -6.7325063e-06 0.010346317 5.134918e-06 0.001378262
000180 8e 9b 5c b7 82 74 70 38 97 a5 12 37 92 9a 60 b9
       -1.314924e-05 5.7328965e-05 8.7408325e-06 -0.00021419887
000190 fd de cf b7 6e 35 87 b8 ae 04 0f 3b f5 27 2d 39
       -2.478016e-05 -6.447254e-05 0.0021822858 0.00016513451
0001a0 2b c6 04 b7 4d 07 83 38 c3 8d 63 35 cf e3 ad ba
       -7.913953e-06 6.247927e-05 8.477038e-07 -0.0013266745
0001b0 05 6f c7 36 64 66 0b b8 69 03 82 b6 02 eb d3 ba
       5.9435865e-06 -3.323554e-05 -3.874699e-06 -0.001616806
0001c0 a3 ed 37 39 50 a8 7f ba 85 d4 db 36 20 32 1e b8
       0.00017540767 -0.00097525585 6.551449e-06 -3.7716818e-05
0001d0 1b 71 5b b6 2d 7e 94 37 f5 c5 1d 37 5d 0b a8 b9
       -3.269938e-06 1.770173e-05 9.40402e-06 -0.00032051923
0001e0 5e 17 24 bb 9d 91 29 bb dc 19 a3 bb 4b 67 1b bb
       -0.0025038342 -0.0025874146 -0.004977448 -0.002371269
0001f0 96 26 de 3b 62 2e 14 bb 1e 52 fd 37 99 a5 52 ba
       0.006779502 -0.0022610654 3.0198189e-05 -0.000803554
000200 be 04 80 b0 e3 e4 9f 36 aa 5d 59 35 0c d0 2b ba
       -9.314574e-10 4.765215e-06 8.09751e-07 -0.0006554134
000210 df 7f 1e b4 71 a2 e6 3a c8 fc 92 ba 58 90 98 34
       -1.4761416e-07 0.0017596019 -0.0011214251 2.841723e-07
000220 e8 18 0f b3 6b 5e 60 34 d8 99 7f 34 78 f0 a1 39
       -3.3317434e-08 2.0895975e-07 2.3804694e-07 0.00030887476
000230 93 14 1c b3 8b 1f 15 bb 24 e5 4a b3 f0 27 50 38
       -3.6340293e-08 -0.0022754397 -4.7240192e-08 4.962826e-05
000240 26 81 eb b9 98 70 95 34 fe 79 17 b1 ac 2a fc bb
       -0.00044918916 2.7835335e-07 -2.2042737e-09 -0.0076955166
000250 5a c2 43 b9 83 60 0c 37 9d a9 6b b1 d8 1a 98 32
       -0.00018669051 8.367121e-06 -3.4293415e-09 1.7707336e-08
000260 64 6c 6b b0 02 6a 44 b9 d3 d3 46 b3 7b c2 79 3b
       -8.5646534e-10 -0.00018731508 -4.629312e-08 0.0038110304
000270 a7 3b ed b6 0f 03 93 32 e5 5f d3 b2 84 7d f2 3b
       -7.070095e-06 1.7114443e-08 -2.460724e-08 0.0074002165

lstm.weight_hh_l0 f4 [80, 20]
000000 59 6a 01 b2 d8 c7 b2 b3 1e ce a7 32 ee c4 c9 3a
       -7.532969e-09 -8.325122e-08 1.953509e-08 0.0015393773
000010 0b 32 53 b7 56 5b 16 bb aa 81 15 37 24 5e c3 b2
       -1.2588232e-05 -0.0022942624 8.911282e-06 -2.2743798e-08
000020 43 ae 14 3c 4b b8 a2 b2 33 6c e3 3a 43 c5 41 38
       0.00907475 -1.8943089e-08 0.0017350971 4.61985e-05
000030 80 21 e0 ba 0d da 8c b0 21 9d b5 39 dd aa 15 b7
       -0.0017099828 -1.0248314e-09 0.0003464008 -8.920874e-06
000040 13 67 f6 31 10 88 1e b2 0d ff 92 3b ae 2c 9f 3a
       7.1712605e-09 -9.2277475e-09 0.004485971 0.0012144053
000050 88 d2 25 3a ef 41 14 35 7f e3 a7 3b b2 fc 32 b8
       0.0006325622 5.523024e-07 0.005123555 -4.2673848e-05
000060 50 e6 9d 35 07 89 e7 ba e9 55 07 35 84 5b dd b2
       1.1764441e-06 -0.0017664739 5.0416435e-07 -2.5769403e-08
000070 01 16 99 34 5c c5 c4 bb 99 41 0d 3b 4e 26 a4 34
       2.851448e-07 -0.0060049724 0.0021553992 3.057525e-07
000080 20 37 3a 3a 00 29 0f 3c 07 8f aa b8 23 1b 49 39
       0.0007103551 0.0087378025 -8.1328726e-05 0.00019178963
000090 0d d3 82 b3 fc d6 a2 bb 44 ad e7 33 d4 94 52 34
       -6.091987e-08 -0.004969476 1.07882926e-07 1.9611917e-07
0000a0 ad 03 b2 ba 9b d4 4f 32 32 b5 40 b0 86 24 05 ba
       -0.0013581418 1.2097327e-08 -7.0106687e-10 -0.000507899
0000b0 dd ce 4f 3a 38 6f 8b 32 31 a3 02 3b a2 db bd b8
       0.00079272484 1.6232306e-08 0.0019933695 -9.053132e-05
0000c0 5c 79 89 ba 77 34 2b ba 00 bf 66 38 38 77 b1 bb
       -0.0010488438 -0.000653095 5.5014156e-05 -0.0054158233
0000d0 72 28 8a 31 a8 6f 31 b0 96 ce 67 3a bc 8b 12 2d
       4.0209267e-09 -6.45509e-10 0.00088427344 8.330166e-12
0000e0 85 6f a2 30 83 2d 83 39 78 b9 74 3b 34 1d 5f 31
       1.1818747e-09 0.00025020176 0.0037341993 3.246737e-09
0000f0 3d 55 ea b3 89 cf b9 3b 2c a4 81 ba cf 84 04 35
       -1.0911979e-07 0.005670492 -0.0009890846 4.9367094e-07
000100 2c 46 a7 ba 11 b8 f4 36 eb 1e 1a 3b cd c1 fd bb
       -0.0012762002 7.293195e-06 0.0023516964 -0.00774405
000110 84 88 86 34 18 a3 52 b9 49 56 a0 b4 b9 24 81 3b
       2.5058773e-07 -0.00020087918 -2.9865103e-07 0.0039411453
000120 d3 5c 99 ba 51 b6 61 33 9b eb 1c ba 23 c6 e3 32
       -0.0011700637 5.255271e-08 -0.00059860357 2.651638e-08
000130 ca 11 cc ba f4 53 32 b4 10 e3 91 34 52 35 92 34
       -0.0015569266 -1.6608084e-07 2.7173564e-07 2.7233415e-07
000140 a7 30 8b bb 31 75 45 3a 60 6f f0 31 8a 57 b0 38
       -0.004247743 0.00075324165 6.997581e-09 8.4086394e-05
000150 8a b1 b0 3a bf 58 c9 35 9d 3c bc 3b d4 8a d9 33
       0.0013480645 1.5001496e-06 0.0057445304 1.01301026e-07
000160 4e 8f 83 ad ec fe 8c af 60 cd 55 32 93 56 a1 39
       -1.4956616e-11 -2.5646985e-10 1.2444929e-08 0.00030772816
000170 3b d5 d7 af 31 e4 29 b8 07 a5 ff ba f9 54 0e 2f
       -3.9259782e-10 -4.050526e-05 -0.0019504138 1.2945013e-10
000180 b5 a9 37 b2 5d 7f 86 bb 10 c4 21 31 9b 32 42 bb
       -1.0690589e-08 -0.0041045384 2.3540032e-09 -0.0029632214
000190 0d e9 0f b4 40 d6 af 35 e5 d5 37 37 74 f9 02 b9
       -1.3402696e-07 1.3100871e-06 1.0957451e-05 -0.00012490695
0001a0 06 cb 0d 3b 5c f7 ed b8 37 1c af 35 27 e1 2f b6
       0.0021635904 -0.00011347115 1.3046728e-06 -2.6208088e-06
0001b0 8a 7e d3 34 2d ca 37 b5 30 fd a6 3a 3c a9 3d bb
       3.9393882e-07 -6.8467017e-07 0.0012740251 -0.0028939983
0001c0 0a ed c1 35 3c d3 48 b3 20 19 51 b4 ac 12 a2 33
       1.4448608e-06 -4.6758245e-08 -1.9473782e-07 7.547109e-08
0001d0 04 8f 15 bc f2 00 91 b4 60 3d dd 3b 14 54 46 bb
       -0.009128336 -2.7009042e-07 0.0067517012 -0.0030262517
0001e0 78 a6 31 b8 a8 6f 4b 34 9f 1f ea b2 56 65 d5 34
       -4.2355125e-05 1.8946469e-07 -2.7255565e-08 3.9748073e-07
0001f0 8f 52 7d b1 35 24 bf 34 fa 55 b4 34 c0 f8 cc 38
       -3.6863275e-09 3.5602866e-07 3.359017e-07 9.773811e-05
000200 fb b4 90 3b 2b 44 90 b4 7e 2e 5d b4 db 07 1e b8
       0.004416106 -2.687169e-07 -2.0599143e-07 -3.767745e-05
000210 0e eb 9b 36 9e 06 c4 ba 2e 31 c4 b3 fe 8f d4 32
       4.646724e-06 -0.0014955585 -9.135907e-08 2.4745528e-08
000220 73 01 38 3a 01 ad e2 b3 6f c5 25 39 e9 6f 78 33
       0.0007019259 -1.0555414e-07 0.00015809176 5.784378e-08
000230 1a 6c 35 3b 8f b5 3a bb 89 66 03 bc c0 9d 2b 34
       0.0027682842 -0.0028489565 -0.008020052 1.5983005e-07
000240 7a 2b c4 bb 6b d9 a9 34 4b db 14 34 48 e2 35 b9
       -0.005986628 3.1636895e-07 1.3863352e-07 -0.00017345801
000250 a7 4b 3e b9 b6 2c c5 38 54 47 91 b3 ef 8e c0 33
       -0.00018147995 9.40202e-05 -6.765063e-08 8.966696e-08
000260 3e 93 32 3b 55 51 2b b2 ba c1 0d b4 7e 9e ec b9
       0.0027248408 -9.972003e-09 -1.3202126e-07 -0.00045131514
000270 42 65 89 37 ed 56 84 b3 9b 68 1f 3a 32 22 26 33
       1.6378825e-05 -6.162541e-08 0.0006080956 3.8680987e-08
000280 f1 ba 0a bb 6a eb bd 36 bd 31 e2 ba 50 41 62 34
       -0.0021168555 5.6600447e-06 -0.0017257255 2.1071651e-07
000290 b9 c9 9b bb 3a b5 aa 38 35 ca 2f ba 7f 68 c9 b8
       -0.004754272 8.139988e-05 -0.00067058514 -9.603891e-05
0002a0 f2 ba b3 3a a7 7f 72 b4 86 df 4a b4 6d 87 82 3a
       0.001371233 -2.2584446e-07 -1.8894033e-07 0.0009958573
0002b0 08 bd 29 b2 c0 79 b9 ba 71 30 0d b3 24 a5 62 32
       -9.880075e-09 -0.0014150664 -3.2873178e-08 1.319248e-08
0002c0 0c e3 b2 39 28 12 30 b3 94 24 bd b4 6a 61 a4 3b
       0.0003411997 -4.0994706e-08 -3.5230607e-07 0.0050164955
0002d0 0b a4 61 b7 43 cc 5d 35 15 39 f8 b3 fb 81 8c 39
       -1.3449239e-05 8.2626156e-07 -1.1558783e-07 0.00026799724
0002e0 d2 a3 d7 b2 9f 06 af 35 0d 6f 09 35 10 2a d4 b4
       -2.5103791e-08 1.3040443e-06 5.119808e-07 -3.9518682e-07
0002f0 66 8d bc 34 3a 28 b9 3a 3a 2c 0d 3a 1b 1c f6 34
       3.512061e-07 0.0014126368 0.00053853134 4.584152e-07
000300 44 00 26 38 1e d0 82 b3 58 07 3b bb 3f a8 c0 33
       3.957773e-05 -6.091453e-08 -0.0028538313 8.9713005e-08
000310 77 26 68 34 d5 22 af bb 8c 40 45 b9 03 64 80 37
       2.1620677e-07 -0.0053447285 -0.0001881143 1.530536e-05
000320 8c 7e 8d b2 56 be 5e bb 34 b6 ac b2 05 78 45 b9
       -1.6472107e-08 -0.003398796 -2.0106292e-08 -0.00018832095
000330 a7 f2 db 38 55 6b 07 34 ec e3 04 34 42 cd 03 b4
       0.00010487931 1.2611902e-07 1.2376375e-07 -1.2274998e-07
000340 16 52 d1 33 aa 54 71 b6 94 ab 53 b3 c3 59 3f 33
       9.747252e-08 -3.596108e-06 -4.9283315e-08 4.455229e-08
000350 72 ab ae 33 c3 71 93 b1 c2 c0 a4 b3 b8 1c 0b 34
       8.133692e-08 -4.2911963e-09 -7.6719076e-08 1.2955832e-07
000360 f3 17 c3 32 ff 15 59 b3 70 d6 a7 36 7a a9 08 37
       2.2711879e-08 -5.0544255e-08 5.0019516e-06 8.145691e-06
000370 b8 7e c9 bb 3b 78 36 ba 4b eb 9e b8 ce 1e 93 35
       -0.0061491393 -0.0006960665 -7.577854e-05 1.0961319e-06
000380 08 99 02 32 5d 04 e5 39 9a 78 89 3a 89 cc fd b3
       7.601791e-09 0.00043681535 0.0010488213 -1.1818435e-07
000390 5f ac 26 34 f1 2a 52 b4 c2 da 3e b9 e5 1c 7b b7
       1.5522663e-07 -1.9573396e-07 -0.00018201306 -1.4967493e-05
0003a0 23 e0 9e b9 a2 60 77 b8 a8 0e 32 b4 c0 ee 08 bb
       -0.00030303103 -5.8979385e-05 -1.6582874e-07 -0.002089426
0003b0 ac c9 e4 b8 a3 75 db 35 41 ab 5c 3b 6f 16 68 39
       -0.000109094515 1.6351008e-06 0.0033671411 0.00022133601
0003c0 97 8e 06 3c ac f4 e5 33 ce 4c 6c 3a 03 67 2a 3b
       0.008212707 1.0708149e-07 0.00090141303 0.0026001341
0003d0 e3 b0 1b 3a 35 c3 8d 34 64 72 1a 34 9d c7 e8 3b
       0.0005939139 2.6405328e-07 1.4383983e-07 0.007103874
0003e0 cd fd 06 34 4b 97 8b b4 87 f6 70 3b ad f9 a4 bb
       1.2572055e-07 -2.6000848e-07 0.0036768035 -0.0050346465
0003f0 6e ca 1b 3a e3 3d 9b 3b 49 49 b8 35 6c b8 25 33
       0.0005942945 0.004737602 1.3730397e-06 3.8584787e-08

lstm.bias_ih_l0 f4 [80]
000000 c8 c0 51 36 35 3c 4f 38 d2 7e c3 38 54 6c a0 38
       3.125564e-06 4.9408718e-05 9.321947e-05 7.649572e-05
000010 4b ec ba 35 eb 79 bc 38 c5 67 2c 37 9e ae f0 37
       1.392685e-06 8.9872476e-05 1.027616e-05 2.8691542e-05
000020 8c 65 6e 37 cf 18 93 38 09 38 a2 b9 59 49 73 bb
       1.4209549e-05 7.014127e-05 -0.00030940797 -0.0037122576
000030 2a af 17 37 45 d8 86 ba 08 9a 23 37 4d c7 59 35
       9.041085e-06 -0.0010287842 9.75142e-06 8.112882e-07
000040 14 0d 23 34 d0 24 0c 37 5d c6 bf 35 03 ca 50 37
       1.5185316e-07 8.353221e-06 1.428834e-06 1.2444801e-05
000050 fa f5 c8 39 fb 68 83 38 5f 4e 4f 35 fb 39 60 38
       0.0003833024 6.266121e-05 7.7227554e-07 5.345976e-05
000060 8a 60 57 36 79 7c 0c 39 f6 fa 92 37 56 db 6f 37
       3.209369e-06 0.0001339781 1.7521419e-05 1.4296578e-05
000070 b4 d7 9c 37 a9 43 a5 38 94 3a 64 3a 20 9b 33 38
       1.8697094e-05 7.880416e-05 0.00087062386 4.2821397e-05
000080 a2 64 68 37 94 d9 90 bb a2 51 f7 b9 82 6e 9c bb
       1.3851708e-05 -0.0044204686 -0.00047172332 -0.0047739157
000090 d2 c3 83 ba e4 f7 d0 ba 46 9d 4a 35 e2 27 7e b9
       -0.0010052866 -0.0015943018 7.5479727e-07 -0.00024238185
0000a0 58 1a d9 ba ce d1 ac 3b 3e 0e b3 ba ad 1d 21 3c
       -0.0016563637 0.005274034 -0.0013660861 0.009833735
0000b0 ca de 85 b9 a3 8d 41 3c 29 59 59 3b e7 52 41 bc
       -0.00025533728 0.011813554 0.0033164716 -0.011799551
0000c0 1f 24 59 3b 15 7e 37 bc 0b ff 9a bb 20 3f b1 3b
       0.0033133102 -0.011199494 -0.0047301105 0.0054091364
0000d0 f2 84 8d 3b b5 77 36 ba 23 2f 05 bb 38 e1 7d 3a
       0.004318827 -0.0006960587 -0.0020322285 0.0009684744
0000e0 28 b9 17 3b 7e 15 41 bb 41 17 61 3a 48 8a 4e 3b
       0.0023151133 -0.0029462273 0.0008586534 0.0031515528
0000f0 78 6a 90 36 6d 76 6a 38 f7 cd 3e 35 e9 2d 29 38
       4.303929e-06 5.590024e-05 7.1080234e-07 4.0335497e-05
000100 29 cf e6 b8 a8 01 cd 39 70 8d 33 bb 68 45 7a 37
       -0.00011005841 0.0003910188 -0.0027397536 1.4917321e-05
000110 e0 21 c7 35 61 50 8c 38 ef a7 27 37 45 dc b3 bb
       1.4836514e-06 6.690692e-05 9.993076e-06 -0.0054889047
000120 c7 07 0d 37 95 0b ab 34 46 78 40 38 fa aa 76 35
       8.406066e-06 3.185966e-07 4.588838e-05 9.1890945e-07
000130 24 3e 10 3b eb 35 65 bb ed 1d 01 36 a8 0f 68 bb
       0.0022009695 -0.0034974765 1.9239917e-06 -0.0035409722

lstm.bias_hh_l0 f4 [80]
000000 b3 a0 b9 b7 7b fc d5 37 40 08 d6 bb d0 23 a2 38
       -2.212855e-05 2.5509149e-05 -0.006531745 7.7314326e-05
000010 83 50 5f 32 fc 0d a9 38 de 0f 98 bb e0 d1 ee bb
       1.2998615e-08 8.061153e-05 -0.0046405634 -0.0072882026
000020 8d 86 5b 37 c2 ea b5 39 a0 8b bc b9 78 1e 51 bb
       1.3084745e-05 0.00034697918 -0.00035962183 -0.003190903
000030 67 fe 48 38 33 d5 22 35 d5 46 92 ba f1 52 58 35
       4.7920646e-05 6.065995e-07 -0.0011160026 8.0586966e-07
000040 48 c9 b4 34 87 a0 c2 36 29 18 f7 39 e1 56 d6 3b
       3.3674064e-07 5.8003384e-06 0.00047129512 0.0065411185
000050 05 a6 cf bb 39 00 58 38 10 56 c1 b9 f4 70 64 38
       -0.0063369297 5.149862e-05 -0.0003687595 5.4464632e-05
000060 e0 2d 03 3c e8 70 d3 38 5f 56 3d 37 af 3d ac 37
       0.008006543 0.000100822945 1.1285388e-05 2.0532721e-05
000070 e3 e6 ab 37 72 f6 fb 38 cb ff 00 37 02 d3 86 38
       2.0492304e-05 0.00012014517 7.688951e-06 6.428921e-05
000080 27 d2 94 3b 45 ba 01 35 70 f3 c2 36 d1 d4 72 35
       0.0045416537 4.83273e-07 5.8099904e-06 9.0461714e-07
000090 43 49 42 34 f9 42 65 36 44 45 8a 35 50 87 59 37
       1.809431e-07 3.4162642e-06 1.030196e-06 1.2965713e-05
0000a0 39 96 db ba dd 03 81 3c 46 dc a6 ba e5 a4 25 3c
       -0.0016753144 0.015748912 -0.0012730442 0.010110115
0000b0 22 01 58 b9 c4 ca 60 3c 7d bb 5f 3c e8 f1 4f bb
       -0.00020599787 0.013720218 0.0136555405 -0.003172988
0000c0 a5 39 b7 3b 2d fa 5f bc 16 96 a0 bb d5 1d b1 3b
       0.0055915886 -0.013670486 -0.004900704 0.0054051676
0000d0 3e 43 ed 3b b1 93 44 ba 3d 8a 0a bb b4 50 74 3a
       0.007240682 -0.00074988144 -0.0021139525 0.0009319887
0000e0 9b b4 a7 3a 54 67 3f bb e9 1e c9 3a d0 d9 75 3b
       0.0012794913 -0.0029205875 0.0015344295 0.003751386
0000f0 f9 1f 4f 3a e3 92 29 38 d1 27 34 35 6c b8 75 bb
       0.00079011876 4.042954e-05 6.7113166e-07 -0.0037493957
000100 71 90 f3 b7 2f ab 22 39 4b 6c d2 37 03 fd 87 37
       -2.9035118e-05 0.00015513295 2.5084379e-05 1.6211072e-05
000110 7f a9 3b 37 f2 c9 23 bb 57 cb 3b 39 79 89 ca 37
       1.11855325e-05 -0.0024992195 0.0001790946 2.4144292e-05
000120 37 cb 3d 3b 32 81 19 3a b3 71 c6 3a 39 0b 30 b7
       0.0028960237 0.00058557384 0.0015140086 -1.04930305e-05
000130 88 b9 d3 34 65 33 30 37 19 7a 92 b9 83 ec 26 37
       3.9436804e-07 1.0502384e-05 -0.0002793826 9.949438e-06

lstm.weight_ih_l1 f4 [80, 20]
000000 bd 45 25 3b 27 74 83 3a b0 48 84 b8 ad 75 9b 3b
       0.002521857 0.0010029123 -6.3077896e-05 0.0047442527
000010 fe af eb b6 48 5b 18 3a 89 d6 00 3a 3b fb 15 ba
       -7.024034e-06 0.0005811942 0.0004914781 -0.0005721335
000020 2a 00 96 39 26 57 46 ba 81 5a 5f 3b b5 46 8b 39
       0.00028610352 -0.0007566087 0.0034081044 0.00026564827
000030 34 db 0b 3a 78 72 f3 b7 02 4f e8 b8 36 e6 7e 3a
       0.0005335093 -2.9021161e-05 -0.000110773384 0.0009723635
000040 e1 e3 89 b8 d0 3d 7c b9 11 62 89 38 b6 b4 1a 3b
       -6.575115e-05 -0.0002405562 6.550935e-05 0.0023606247
000050 ff ee b6 b8 4e 1d 0e 3a 77 dd 81 b8 35 32 f2 3b
       -8.722953e-05 0.0005421237 -6.1924504e-05 0.007391239
000060 e5 06 0b b7 5f 0a 74 3a 60 d2 19 39 2a e0 65 b9
       -8.286651e-06 0.0009309407 0.00014669588 -0.0002192265
000070 1f b2 97 3a cf e5 03 ba 16 9b 95 bb c8 76 56 39
       0.001157347 -0.00050314976 -0.004565607 0.0002045288
000080 87 5e 11 3a 55 e7 0b b8 f3 88 41 b9 3b 15 60 ba
       0.00055453967 -3.3355627e-05 -0.00018456932 -0.00085480855
000090 ab de 17 39 cd c1 e8 39 80 ae 8f 38 3e 51 7d 39
       0.00014483432 0.0004439488 6.8512745e-05 0.00024158225
0000a0 bb a4 b6 3b fb c2 ff 39 f9 19 94 b8 1b e2 da 3a
       0.0055738366 0.00048782662 -7.062028e-05 0.0016699465
0000b0 84 42 75 37 78 38 d0 ba 72 c0 fb 39 ec cc e2 b9
       1.4618625e-05 -0.001588597 0.00048017834 -0.00043258758
0000c0 11 e1 b7 bb bd ea 30 ba 95 e2 7a b9 a0 e2 9e 39
       -0.005611547 -0.0006748846 -0.00023926266 0.00030304957
0000d0 39 a7 a8 bb 9a 25 09 b8 8a 9e 34 b9 cd fc 80 3b
       -0.0051468876 -3.2698365e-05 -0.00017225198 0.003936386
0000e0 1f 84 13 39 e2 8e 2b b9 ad 50 38 3b 5e 5b 30 39
       0.00014068231 -0.00016361059 0.0028124258 0.00016818705
0000f0 15 c6 af b8 0c 00 ea ba f5 02 b9 b8 2a 87 08 3a
       -8.381546e-05 -0.0017852797 -8.822038e-05 0.00052081293
000100 65 3f c5 b5 75 c9 12 3a a8 fe 02 3a 35 7e 32 ba
       -1.4696094e-06 0.00055994774 0.0004997053 -0.00068089674
000110 f4 ff 98 39 bc 2b 21 ba 9b de dc 3b 12 72 3e b9
       0.000291824 -0.00061481795 0.006740404 -0.00018162307
000120 22 61 02 3a 6c 90 26 bb 1d fc cf b8 91 ad f7 37
       0.00049735804 -0.0025415672 -9.917489e-05 2.9525518e-05
000130 df df dd 38 da fe c5 b8 5e 0d 94 38 e3 00 de 3b
       0.000105798004 -9.441162e-05 7.05968e-05 0.006775008
000140 25 9d 4c 3b c9 98 dd 3a fb 75 84 b8 c2 24 07 3a
       0.0031221595 0.0016906495 -6.316226e-05 0.00051553186
000150 2f 19 b0 37 1d a5 a2 3b a2 8e e3 39 65 fd 44 b9
       2.0992562e-05 0.0049635307 0.00043403084 -0.00018786413
000160 b1 6e 83 39 c8 f8 3b ba aa 46 c2 b9 3f c5 63 3a
       0.0002506874 -0.0007170555 -0.00037055212 0.0008688755
000170 71 13 f2 39 68 13 0a b8 61 25 fb bb 79 d1 a4 b9
       0.00046172322 -3.2919837e-05 -0.007664368 -0.00031436587
000180 37 da fa 38 50 7b 97 b9 0c c1 92 bb 7b 1b 38 39
       0.00011961575 -0.0002889284 -0.0044785794 0.00017557845
000190 da 9f ae b8 e0 c9 d0 3b 77 6c e9 b9 ed a6 18 3a
       -8.326741e-05 0.0063717216 -0.00044522036 0.0005823214
0001a0 f0 91 82 38 b8 c9 ef 3b 72 10 11 3c f8 33 be b9
       6.226066e-05 0.007317748 0.0088540185 -0.00036278344
0001b0 fb d4 e7 b9 54 01 f9 3a 2a f8 94 b9 df 98 92 39
       -0.00044218436 0.0018997588 -0.00028413656 0.00027961188
0001c0 26 83 91 3a 98 65 f4 b7 96 63 5a bb 68 57 0f 38
       0.0011101707 -2.9134375e-05 -0.0033323518 3.417526e-05
0001d0 a6 21 ee 38 23 be 53 b9 c2 9f f8 39 db ca 58 39
       0.00011354992 -0.0002019336 0.00047421275 0.00020674935
0001e0 b6 8c f5 b8 2d 7a 47 bb b7 06 70 39 ff 11 dd 39
       -0.0001170872 -0.0030437813 0.00022890685 0.00042165813
0001f0 cf cc ea 3b 56 74 f9 39 cd a4 2c 3a a0 6c 6a ba
       0.0071655284 0.00047579658 0.00065858365 -0.0008942578
000200 68 ce 78 3b 1a 8a 16 3b 45 56 23 ba 69 ab 0d 3a
       0.0037964825 0.0022970499 -0.00062308117 0.0005404265
000210 18 e6 d0 39 d6 dd f9 3a 21 46 25 b9 64 0f ef 37
       0.00039844285 0.0019063305 -0.00015761751 2.8498187e-05
000220 20 cf 44 39 59 0a 62 b9 9a 3c 60 38 84 ba 86 39
       0.00018769177 -0.00021556894 5.34622e-05 0.00025697437
000230 bb 49 a5 b8 07 59 f1 b9 6a aa 17 b8 ea 53 f1 39
       -7.8815465e-05 -0.00046033433 -3.6159916e-05 0.00046029623
000240 b7 d5 91 bb 4e 48 3d 3a c7 d8 33 bb 98 c9 2f ba
       -0.0044505256 0.0007220552 -0.0027442442 -0.000670576
000250 62 60 1c b9 ae 08 4a ba 79 26 e7 3a 7b 5f a2 39
       -0.00014913225 -0.0007706982 0.0017635367 0.00030970186
000260 b0 c8 67 39 bc 5c 0b b8 01 14 e6 b8 33 39 28 38
       0.00022104639 -3.3226548e-05 -0.00010970981 4.0107592e-05
000270 21 87 88 39 6d c6 20 b9 43 51 4c 39 6d bb 0d 3b
       0.0002604062 -0.00015332708 0.00019485228 0.0021626607
000280 5d 74 bf b8 f2 55 d7 bb 2d a7 a3 bb 56 be ed 39
       -9.129264e-05 -0.006571525 -0.004994294 0.00045345974
000290 22 53 0a b7 74 ba 11 3a 10 94 d6 39 8b b9 65 39
       -8.244797e-06 0.0005559095 0.00040927576 0.00021908262
0002a0 2c 9a 3c 39 22 6a fa ba 91 32 67 b9 69 e8 92 39
       0.0001798651 -0.0019105116 -0.00022048714 0.0002802045
0002b0 d2 0a 20 bb 57 28 09 b8 3c de dd b9 37 85 22 3a
       -0.0024420512 -3.2700915e-05 -0.00042317982 0.000619966
0002c0 4b 0f 5a 39 cd 2a 1d b9 17 7a e7 37 92 f1 9a 39
       0.00020795797 -0.00014988631 2.7594198e-05 0.00029553153
0002d0 1e 68 6e b8 aa cf 71 3b 05 71 8a b8 1c 08 f4 39
       -5.684059e-05 0.003689746 -6.601404e-05 0.0004654535
0002e0 bf 60 cc b6 04 d2 69 3a 80 b9 30 3a 03 54 b6 b9
       -6.0909365e-06 0.00089195394 0.0006741509 -0.0003477634
0002f0 a5 44 a4 39 d7 8a 2c ba d4 70 4a b9 fb 06 9e 39
       0.00031331662 -0.0006581968 -0.00019306253 0.0003014131
000300 c7 f2 18 39 ff f9 f5 b7 eb 59 76 ba be bc 10 3c
       0.00014586291 -2.932269e-05 -0.0009397554 0.008834062
000310 cf fe 68 39 6c 72 46 bb 28 68 e6 ba df d6 38 39
       0.00022220168 -0.0030280603 -0.0017578648 0.00017627653
000320 c3 e1 1a b9 30 30 e0 3a b4 e4 c8 b8 8c 29 14 3a
       -0.00014770687 0.0017104205 -9.5793424e-05 0.0005651943
000330 96 23 f6 b9 66 ba bd 39 50 68 f2 3b a7 53 af b9
       -0.0004694729 0.00036187767 0.007397689 -0.00033440927
000340 0c b2 f1 bb 4a 2e 0d ba 9a 72 b7 3b 13 48 e7 39
       -0.007375961 -0.0005385621 0.0055983784 0.00044113453
000350 5b 7e 1f 3a 1c c6 6d 39 5f 42 e7 b8 43 d4 8e bb
       0.0006084197 0.00022675883 -0.00011027301 -0.0043587997
000360 4b da 5e 39 3e a6 9b b9 a2 db 3c 3b 56 cd 84 39
       0.0002125289 -0.00029687764 0.0028817435 0.0002532999
000370 92 90 8d b9 7e af 09 3a 37 b8 9f b8 d1 02 f9 3a
       -0.0002700133 0.00052522856 -7.6160235e-05 0.0018998032
000380 4b fc bf b9 cf b6 bb 3a 0a cb c1 39 66 c5 c9 b9
       -0.00036618332 0.0014321449 0.00036963105 -0.0003848478
000390 15 80 c3 b9 ae 7d 79 3a 1e 2b 39 3a c2 61 b2 39
       -0.00037288727 0.0009517324 0.0007063615 0.0003402364
0003a0 eb db ef 3b 12 83 cb bb 9e 71 db b8 24 8b 10 bc
       0.0073199174 -0.006210693 -0.000104638966 -0.008822236
0003b0 e9 08 8f 3b 7a ef c2 3b 37 23 1f 38 bc 8e ad 3b
       0.004365076 0.005948958 3.794135e-05 0.0052965563
0003c0 17 c7 0f b9 05 ca 01 3a 60 88 19 3a 7b 54 00 3a
       -0.0001371171 0.0004951063 0.0005856808 0.0004895401
0003d0 4c fe 0d b7 96 c1 8c ba 8b 30 8e 39 57 31 95 b9
       -8.463463e-06 -0.0010738845 0.00027120518 -0.00028456256
0003e0 fb 3d 75 39 2c 62 f2 ba af c5 1b ba 26 8f 8d 39
       0.0002338811 -0.0018492392 -0.0005942238 0.0002700027
0003f0 0e 92 b6 3b 3c cb 00 b8 37 e0 7d 3b c6 cd 39 38
       0.0055716103 -3.0706855e-05 0.0038738379 4.429908e-05

lstm.weight_hh_l1 f4 [80, 20]
000000 ef d1 d7 3c 26 14 01 bd 1c 35 dd bc 5f 8b 01 3d
       0.026345221 -0.031513356 -0.027002864 0.031627055
000010 04 ae eb 3c e2 6e e9 bc 6a e3 dc bc 8b 1f 06 bd
       0.0287695 -0.028495256 -0.026963908 -0.032744925
000020 98 bd d0 bc 56 b3 e8 3c b6 20 f2 3c 6d 37 ca 3c
       -0.02548103 0.028405827 0.029556613 0.024684632
000030 4d 11 e0 3c 9f 5c dc 3c a0 8b 70 3c f5 45 af bc
       0.027352 0.026899634 0.014681727 -0.021395663
000040 9d 6f fb bc db 1e f4 3c 16 07 d7 bc 56 43 e9 bc
       -0.03069287 0.02979987 -0.026248496 -0.028474491
000050 92 8c e7 3c b3 e9 02 bd 8f a0 dd bc 9b 37 ef 3c
       0.028265271 -0.031961154 -0.0270541 0.02920132
000060 d1 8d b4 3c f7 4f ec bc 31 0f e8 bc 92 43 f1 bc
       0.02204028 -0.028846724 -0.028327556 -0.029451165
000070 e4 a9 e0 bc 1d 07 fe 3c 8f 94 02 3d 3e b6 db 3c
       -0.02742476 0.031009251 0.031879958 0.026820298
000080 25 12 e9 3c 01 fe fb 3c 6a 9f ea 3c 32 cc fc bc
       0.028451035 0.030760767 0.028640468 -0.030859087
000090 ac c1 e1 bc 36 22 01 3d 4e 2e f0 bc 56 3c ec bc
       -0.02755817 0.031526767 -0.029318955 -0.028837364
0000a0 62 a9 e2 3c 4b 32 eb bc 0a 42 d1 bc 1a a0 e3 3c
       0.027668659 -0.028710505 -0.025544185 0.027786303
0000b0 2c 49 bd 3c b8 b9 e0 bc cb 29 d9 bc 13 59 e4 bc
       0.02310618 -0.027432308 -0.026509186 -0.027874505
0000c0 65 30 db bc aa 94 87 3c c2 e6 ee 3c bd 78 c8 3c
       -0.026756475 0.01655038 0.029162768 0.024471635
0000d0 d1 97 e2 3c 9d fe ec 3c c0 11 d9 3c d9 c2 e9 bc
       0.027660282 0.028930003 0.026497722 -0.028535293
0000e0 29 fb f6 bc 46 17 f7 3c ad e6 dc bc 0f b0 e6 bc
       -0.03014906 0.030162465 -0.026965464 -0.028160123
0000f0 79 66 ec 3c 01 87 ef bc 4f c6 e5 bc cc c7 e8 3c
       0.028857457 -0.02923918 -0.028048662 0.028415583
000100 f3 c4 e5 3c b1 6d e9 bc 3b 31 e7 bc 81 0e f4 bc
       0.028048014 -0.028494688 -0.028221717 -0.029792072
000110 6e 1f de bc bf e9 01 3d 49 ae ec 3c e7 a2 d3 3c
       -0.027114596 0.03171706 0.0288917 0.025834514
000120 15 80 e5 3c cd 7a e8 3c 4a 3c e9 3c 6b bf f5 bc
       0.028015176 0.028378868 0.02847113 -0.029998502
000130 06 c5 fc bc a7 2f f5 3c 84 b7 e5 bc 90 1b ad bc
       -0.030855667 0.029929949 -0.028041609 -0.021131307
000140 86 8b e7 3c 42 a4 00 bd 05 5a c3 bc 59 77 ea 3c
       0.028264772 -0.03140665 -0.023846636 0.028621363
000150 73 21 f7 3c 06 0b f4 bc e4 c2 c1 bc 47 c7 ef bc
       0.030167317 -0.029790413 -0.023652501 -0.029269828
000160 8f 45 bd bc 6f bb 00 3d 98 92 f2 3c 3d 8e d7 3c
       -0.023104457 0.03142875 0.029610917 0.026312942
000170 e0 db bf 3c 1a 5e c1 3c c9 77 f5 3c 39 f8 f6 bc
       0.023420274 0.023604441 0.029964345 -0.030147659
000180 f2 08 fd bc fc 02 05 3d 5d 77 e1 bc 0e 03 de bc
       -0.030888055 0.03247355 -0.027522737 -0.027101066
000190 0a 37 e9 3c 7d ea 03 bd 0a e5 dd bc 32 ef e2 3c
       0.028468627 -0.032206047 -0.027086753 0.027701948
0001a0 19 41 a9 3c 9b b3 f4 bc 0c 12 e1 bc 96 a6 f0 bc
       0.020660924 -0.029870799 -0.027474426 -0.02937631
0001b0 60 8e 82 bc be 20 00 3d bd 7f fd 3c 15 43 95 3c
       -0.01593703 0.031281225 0.0309447 0.018220464
0001c0 cf 25 ec 3c 6f db f6 3c cb b7 e2 3c 27 87 fc bc
       0.028826622 0.030133931 0.02767553 -0.030826164
0001d0 aa 33 02 bd de 86 f4 3c fc 6e ed bc 08 c9 ef bc
       -0.031787552 0.029849466 -0.028983586 -0.029270664
0001e0 e9 56 e1 3c 5c 05 04 bd 28 2a e0 bc 2a 7a e6 3c
       0.027507262 -0.032231674 -0.027363852 0.028134424
0001f0 58 5a f0 3c 64 a8 f8 bc 07 40 d9 bc 6d 32 eb bc
       0.029339954 -0.030353732 -0.026519788 -0.028710568
000200 f1 1a e0 bc 71 28 ed 3c c7 c5 f0 3c 78 79 d2 3c
       -0.027356597 0.028949948 0.029391183 0.025692686
000210 db 01 e4 3c a8 ae ef 3c 0d 1e 7f 3c 78 76 f8 bc
       0.027832916 0.029258087 0.0155711295 -0.030329928
000220 5b c6 01 bd 1b 69 f3 3c 11 bd d8 bc 53 ef e8 bc
       -0.031683307 0.029713204 -0.026457341 -0.028434431
000230 ae 68 e5 3c 65 03 15 bd 34 dd df bc 34 43 09 3d
       0.028004017 -0.03638019 -0.027327158 0.033511356
000240 a7 ac e5 3c af 53 f3 bc a9 5f e0 bc b3 3d f2 bc
       0.028036429 -0.02970299 -0.027389364 -0.029570436
000250 89 b2 ce bc b4 f2 f4 3c 90 ad f0 3c c2 fb d4 3c
       -0.025231617 0.029900886 0.029379636 0.025998954
000260 2b 57 a5 3c a3 dd ec 3c fa b1 e2 3c dd 2d f3 bc
       0.020183166 0.028914278 0.027672756 -0.029684955
000270 ff 17 fb bc fe 4b f6 3c 64 c4 e2 bc 98 f7 df bc
       -0.03065109 0.030065533 -0.027681537 -0.027339742
000280 c3 ac e0 3c 7c 0a ee bc 5c 83 da bc c7 db a7 3c
       0.02742613 -0.029057734 -0.026673965 0.02049054
000290 7f 14 e8 3c 41 f6 ea bc 48 86 db bc a3 aa b5 bc
       0.028330086 -0.028681876 -0.026797429 -0.022176092
0002a0 a1 30 d8 bc 1b 51 f0 3c bc e7 fc 3c 9d 5c cf 3c
       -0.026390376 0.02933555 0.030872218 0.025312716
0002b0 dc 7c b4 3c 71 02 ec 3c e1 e2 a8 3c 18 cf e8 bc
       0.022032194 0.028809758 0.020615997 -0.028419062
0002c0 4b 36 fa bc 11 cb ec 3c 73 6d de bc e7 40 e3 bc
       -0.030543467 0.028905423 -0.027151799 -0.027740909
0002d0 0f ac e4 3c 7e af 13 bd b3 91 e5 bc e2 d7 e3 3c
       0.027914075 -0.036056034 -0.028023576 0.027812902
0002e0 8b 84 e9 3c 31 68 f2 bc b3 a4 d7 bc b5 dc ed bc
       0.028505584 -0.029590698 -0.026323652 -0.029035905
0002f0 70 e5 da bc ee 8d f6 3c b4 f3 ef 3c 6d cc f2 3c
       -0.026720732 0.030096974 0.029291011 0.029638493
000300 b7 1c e9 3c e7 c0 ef 3c 4b cb 02 3d 6e 00 f8 bc
       0.028456075 0.029266788 0.031932157 -0.030273642
000310 0a 21 0c bd 95 38 f9 3c ef aa e4 bc 7e f5 e8 bc
       -0.034211196 0.030422488 -0.027913539 -0.028437372
000320 a1 dc e7 3c 6c 43 f6 bc 48 32 eb bc 03 40 e9 3c
       0.028303446 -0.030061446 -0.0287105 0.028472906
000330 fe 28 e8 3c b3 36 f5 bc 08 d3 e5 bc 3c 31 f0 bc
       0.02833986 -0.02993331 -0.02805473 -0.029320352
000340 a5 9d e3 bc 69 10 05 3d 09 7f b7 3c 52 bd e6 3c
       -0.027785132 0.032486353 0.022399442 0.028166447
000350 81 68 ef 3c d8 9a f4 3c 85 36 ea 3c 26 d7 09 bd
       0.029224636 0.029858992 0.02859045 -0.033652447
000360 21 dc 01 bd a2 2c 01 3d 7e 96 ea bc 12 aa c0 bc
       -0.031704072 0.031536706 -0.028636213 -0.023518596
000370 d2 07 d1 3c 84 f6 d9 bc 83 53 ed bc 0f 24 c3 3c
       0.025516424 -0.026606806 -0.028970486 0.023820905
000380 50 dc d7 3c ad f6 d8 bc c8 d1 dc bc 40 84 d6 bc
       0.02635017 -0.026484812 -0.0269555 -0.026186109
000390 b3 3d d0 bc c6 96 e3 3c 3b f2 db 3c 97 d1 c4 3c
       -0.025420045 0.027781855 0.026848903 0.024025721
0003a0 f8 e6 ce 3c dc 70 00 3d 61 a1 cf 3c eb 9b e0 bc
       0.025256619 0.03135763 0.025345506 -0.027418097
0003b0 54 92 e8 bc f2 06 e0 3c 51 ac c6 bc 54 12 d0 bc
       -0.028390087 0.027347062 -0.024252089 -0.025399365
0003c0 f5 99 e1 3c 5f 58 f9 bc bd a1 d2 bc 16 7a b6 3c
       0.027539233 -0.030437646 -0.025711888 0.022275012
0003d0 3c ba e5 3c 2a 2c c2 bc 49 b1 eb bc 0e fa c9 bc
       0.028042905 -0.0237027 -0.02877106 -0.024655368
0003e0 76 46 d1 bc 1a 49 f1 3c 76 6c ed 3c b9 c3 36 3c
       -0.025546294 0.029453803 0.028982382 0.011155062
0003f0 70 db e4 3c 8d de ee 3c ad a7 de 3c 50 7b a0 bc
       0.027936667 0.029158855 0.027179563 -0.01959005

lstm.bias_ih_l1 f4 [80]
000000 bd d9 3b 3d 61 c4 37 3d 01 39 3c 3d 22 31 22 3d
       0.04586195 0.044865016 0.0459528 0.039597638
000010 3c 87 44 3d 57 01 37 3d b4 77 18 3d 1c 4a 45 3d
       0.047980532 0.044679012 0.037223533 0.04816638
000020 64 91 39 3d 5f 32 40 3d 5a 89 4c 3d 18 8b 2e 3d
       0.04530467 0.046923038 0.049935676 0.04261312
000030 9a e4 3e 3d 39 50 40 3d 9e 32 42 3d 45 6b 47 3d
       0.04660473 0.046951506 0.047411554 0.048686285
000040 ae 64 d8 3b 2b d5 56 3d 41 c5 39 3d 01 d0 3e 3d
       0.006603799 0.052449387 0.04535413 0.046585087
000050 02 e7 a3 3d 74 42 b8 3d 65 63 9f 3d 54 24 aa 3d
       0.080030456 0.0899705 0.0778263 0.0830771
000060 a3 af 71 3d 69 63 75 3d c1 1b a1 3d de 5d ad 3d
       0.05900539 0.059909258 0.07866622 0.08465169
000070 3e ec 9a 3d e1 96 b8 3d 4e 27 7b 3d 17 75 91 3d
       0.07564591 0.09013153 0.06131678 0.07102411
000080 55 8c a4 3d 43 e9 ae 3d 29 70 a3 3d b5 6b b0 3d
       0.08034579 0.08540585 0.07980377 0.086142935
000090 d8 30 47 3d 73 21 b9 3d 4d 8f 9f 3d 6a 3e a4 3d
       0.048630565 0.09039583 0.07791004 0.08019717
0000a0 3c 1e ba 3d 69 99 47 3c d6 ca be bd a2 c1 71 3d
       0.09087798 0.012182572 -0.09316032 0.059022553
0000b0 f9 f9 d9 3d 65 60 ee bd a8 3c b6 bd b2 f7 04 be
       0.106433816 -0.116394795 -0.08898288 -0.12985113
0000c0 34 42 c3 bd a5 5e 77 3d af 45 cc 3d 9d 3c be 3d
       -0.095341116 0.060392994 0.099742286 0.09288905
0000d0 bc 21 ed 3d cf 3b db 3d 70 1c 59 3d 15 aa c0 bd
       0.115787 0.10704767 0.053005636 -0.094074406
0000e0 20 57 1e be 56 60 e9 3d 59 4f b8 bd aa 90 b7 bd
       -0.15462923 0.11395328 -0.08999509 -0.08963139
0000f0 82 f5 bc 3d 92 cc da 3d e9 43 b5 3d c1 60 bc 3d
       0.092265144 0.1068355 0.088508435 0.09198142
000100 73 b8 c8 3d b6 e5 c7 3d 43 51 b7 3d c4 86 ca 3d
       0.09800806 0.09760611 0.08951046 0.09888986
000110 8d 84 9e 3d 64 49 f9 3d 30 14 be 3d 4b ce a3 3d
       0.07740126 0.12172201 0.09281194 0.07998332
000120 71 03 6a 3d 03 c1 d4 3d c1 46 b5 3d e1 77 d0 3d
       0.05713219 0.103883766 0.08851386 0.10179115
000130 70 c6 00 3e 55 db cd 3d 42 15 a1 3d a1 dd be 3d
       0.12575698 0.100516 0.07865383 0.09319616

lstm.bias_hh_l1 f4 [80]
000000 2d 43 3b 3d c5 ea 45 3d 12 bd 3e 3d 3a be 4c 3d
       0.04571836 0.048319597 0.04656703 0.0499861
000010 e1 ea 41 3d 36 97 49 3d ff 5d 1a 3d 3d e7 3f 3d
       0.04734314 0.04921647 0.037687298 0.046851385
000020 b6 91 3a 3d ca 09 42 3d 45 e0 0b 3d 2b 44 2e 3d
       0.045549117 0.047372617 0.034149427 0.04254548
000030 e1 d9 3e 3d 6e dc 44 3d c0 46 50 3d 7d c0 47 3d
       0.046594504 0.04806178 0.050848722 0.048767556
000040 2f 18 6d 3d 23 60 03 3d cc 2d 37 3d c5 da 37 3d
       0.05788439 0.032074105 0.04472141 0.04488637
000050 ab 30 a2 3d 26 9e b9 3d a5 99 9f 3d 64 90 95 3d
       0.07919439 0.090633675 0.07792977 0.07302931
000060 12 4e ad 3d b8 ba ad 3d a3 08 9c 3d 3f 48 ab 3d
       0.08462156 0.084828794 0.07618835 0.08363389
000070 73 e5 9d 3d 30 06 b7 3d d0 6c ad 3d e4 1c 8d 3d
       0.077097796 0.08936727 0.0846802 0.06890276
000080 5f 82 a4 3d fb c2 8e 3d 70 45 a3 3d 63 e6 b2 3d
       0.08032679 0.06970783 0.079722285 0.08735349
000090 f0 f3 e4 3d f2 fa bb 3d 28 e2 9f 3d 80 a2 a6 3d
       0.1117934 0.091787234 0.07806808 0.08136463
0000a0 bc 0a bd 3d 8c 73 3a be 72 99 bf bd 2d a9 cc 3d
       0.09230563 -0.1820814 -0.09355439 0.09993205
0000b0 b8 b6 dc 3d 88 b8 ba bd 39 04 b9 bd 0e 01 ea bd
       0.10777038 -0.09117228 -0.090340085 -0.114259824
0000c0 7a 47 c5 bd de 02 26 3e ab a7 c5 3d 7f 80 b5 3d
       -0.09632774 0.16212031 0.09651121 0.08862399
0000d0 fe e4 c7 3d 58 a1 0f 3e 2a 04 c4 3d 88 fe d0 bd
       0.09760474 0.14026392 0.09571107 -0.10204798
0000e0 a1 a0 22 be 26 a4 e5 3d a4 4b b9 bd 7f cd b4 bd
       -0.15881588 0.112129495 -0.090476304 -0.08828258
0000f0 7b 70 aa 3d f0 8b d4 3d 93 36 b5 3d 10 3d bc 3d
       0.08322235 0.103782535 0.088483 0.09191334
000100 b7 0b ca 3d 4f 1e ca 3d a3 6e b6 3d 6f 54 cf 3d
       0.09865516 0.09869062 0.08907821 0.10123526
000110 7f 15 77 3d 9b cb e1 3d 48 62 cb 3d e4 7a a3 3d
       0.060323235 0.11025163 0.09930855 0.07982424
000120 fd f6 86 3d a7 fd dd 3d 42 27 b6 3d 43 41 d4 3d
       0.06590078 0.10839396 0.088942066 0.1036401
000130 27 c7 00 3e 9f 66 df 3d 6d 45 ba 3d bd 73 bf 3d
       0.1257597 0.10908245 0.09095273 0.09348247

fc.weight f4 [90, 20]
000000 df be 22 3d 3f 8d 38 bd 4c 39 1e bd 7c ef 23 3d
       0.03973281 -0.045056578 -0.03862886 0.040023312
000010 85 d8 24 3d 6e 68 31 bd 47 c1 1f bd 96 1f 46 bc
       0.04024555 -0.043312483 -0.039002683 -0.012092492
000020 9f ab 1d bd b5 85 f7 3c 2d 05 28 3d bb 0a 18 3d
       -0.03849375 0.030215124 0.04102056 0.03711961
000030 bc 87 22 3d e3 35 41 3d 70 c8 c2 3c a2 4b 2a bd
       0.039680228 0.04717053 0.023777217 -0.041576035
000040 3e 3c 3c bd f6 2f 40 3d e2 e2 04 bd 01 79 13 bd
       -0.04595589 0.04692074 -0.032442935 -0.03600407
000050 64 99 ba 3c 85 b8 24 bd da 32 15 bd 05 a7 17 3d
       0.02277822 -0.040215034 -0.03642545 0.037024517
000060 74 f0 1c 3d 64 98 12 bd 5d 35 16 bd 9f 15 1d bd
       0.03831525 -0.035789862 -0.036671985 -0.038350698
000070 2a c7 97 bc 35 73 23 3d 2e c3 22 3d a4 6b c6 3c
       -0.018527586 0.03990479 0.03973692 0.024221249
000080 39 66 16 3d 2d a2 26 3d f0 a3 17 3d 10 c2 22 bd
       0.03671858 0.040682007 0.037021577 -0.039735854
000090 96 07 27 bd bf de 20 3d a7 dc 12 bd a0 6f 17 bd
       -0.04077872 0.039274927 -0.03585496 -0.03697169
0000a0 ec 13 1b 3d 5a 3f 25 bd be d9 00 bd 1b 9c 1b 3d
       0.037860796 -0.04034362 -0.031457655 0.03799067
0000b0 c8 f2 1d 3d e2 e7 20 bd 93 f7 f1 bc 68 f8 20 bd
       0.038561612 -0.03928364 -0.029536998 -0.0392994
0000c0 d3 94 14 bd 5a 28 2e 3d ed 7e b3 3c fc 36 0e 3d
       -0.036274742 0.04251895 0.021911109 0.034720406
0000d0 87 f0 17 3d 70 3e 20 3d b1 af 18 3d b5 99 27 bd
       0.03709462 0.039122045 0.037276927 -0.04091807
0000e0 d4 e8 2e bd 77 82 1b 3d 96 50 1a bd e0 c4 e9 bc
       -0.04270251 0.037966218 -0.03767451 -0.02853626
0000f0 75 87 21 3d 52 32 2e bd 84 46 1d bd 3f f1 22 3d
       0.039435823 -0.042528458 -0.038397327 0.03978085
000100 c4 7c 24 3d 73 31 2f bd 39 b4 1c bd f1 c9 26 bd
       0.04015805 -0.042771768 -0.03825781 -0.04071993
000110 af ff 1c bd d7 4c 3c 3d 11 5a 29 3d f3 bb 15 3d
       -0.038329776 0.045971718 0.04134566 0.036556195
000120 39 3f 0c 3d c3 d2 08 3d 14 6e 1f 3d 39 48 2a bd
       0.03423998 0.033404123 0.038923338 -0.041572783
000130 11 0f 16 bd a5 2d 2b 3d ec b8 23 bd 02 77 16 bd
       -0.036635462 0.041791577 -0.039971277 -0.03673459
000140 f9 c2 16 3d 7e 50 24 bd 65 96 12 bd 93 13 fa 3c
       0.036807034 -0.040115826 -0.03578796 0.030526912
000150 d8 6f f2 3c 17 9a 27 bd 49 ad b9 bc 9c 7b 1a bd
       0.029594347 -0.040918436 -0.022665637 -0.03771554
000160 44 8d 11 bd ed c2 29 3d 3f 4e 1c 3d 34 8c 92 3c
       -0.035535112 0.04144566 0.03816056 0.01788912
000170 08 b0 16 3d 9e 64 1c 3d 2b 01 15 3d ec 76 1e bd
       0.03678897 0.038181894 0.036378067 -0.03868763
000180 09 0a 24 bd 7e 93 06 3d ba 45 15 bd dc 3b 18 bd
       -0.040048633 0.032855503 -0.03644345 -0.03716646
000190 bf a1 0b 3d bd 5b 36 bd e9 81 e1 bc 96 5d 2d 3d
       0.0340898 -0.044521082 -0.027527766 0.04232558
0001a0 87 52 1e 3d 18 2f 2e bd ee bf 23 bd e6 4d 2d bd
       0.038652923 -0.04252538 -0.03997796 -0.042310618
0001b0 63 21 21 bd 38 b3 4e 3d f0 99 11 3d 05 e5 1a 3d
       -0.03933848 0.050463885 0.035547197 0.037816066
0001c0 9d 8d fc 3c 77 88 3e 3d 76 b2 24 3d 53 4a 31 bd
       0.030829245 0.04651686 0.040209256 -0.04328377
0001d0 f2 f5 44 bd 36 6f 49 3d 0d c6 29 bd 3e 45 2a bd
       -0.048086114 0.049178325 -0.04144864 -0.04156994
0001e0 b1 9b 27 3d 1e b5 53 bd 6c 8d fd bc f4 14 2f 3d
       0.040919963 -0.0516864 -0.030951224 0.04274459
0001f0 84 16 32 3d 47 48 22 bd 0f 36 1c bd e9 e6 41 bd
       0.043478504 -0.03961971 -0.03813749 -0.047339354
000200 a8 24 28 bd 8a be 3c 3d e6 cf 36 3d 84 6d 22 3d
       -0.041050583 0.04608015 0.04463186 0.039655223
000210 07 ff 2a 3d b9 05 47 3d a9 45 2c 3d b4 6b 3d bd
       0.04174712 0.048589442 0.04205862 -0.04624529
000220 b9 36 98 bc 2a 0a 38 3d 4c 21 35 bd ad 94 30 bd
       -0.018580781 0.04493157 -0.044221207 -0.04311054
000230 b5 c5 18 3d 75 90 37 bd 5a 78 13 bd f5 6b 19 3d
       0.037297923 -0.0448155 -0.036003448 0.03745647
000240 cd f4 0b 3d 73 47 1f bd eb ce fe bc 2a c5 1e bd
       0.034169007 -0.0388865 -0.031104526 -0.03876225
000250 75 61 15 bd 99 7b 23 3d 95 71 27 3d e5 ef 0d 3d
       -0.036469895 0.039912794 0.040879805 0.03465261
000260 60 95 13 3d e6 97 1e 3d 79 9d 14 3d 5e 68 09 bd
       0.036031127 0.03871908 0.03628299 -0.033546798
000270 f9 6d 35 bd 86 aa fe 3c 29 17 a3 bc 46 67 20 bd
       -0.04429433 0.031087171 -0.019908505 -0.03916099
000280 ae fd 36 3d 93 2b 40 bd 71 02 20 bd 96 13 29 3d
       0.04467552 -0.046916556 -0.03906483 0.041278444
000290 79 90 34 3d d6 34 36 bd b2 de 24 bd 12 f7 33 bd
       0.044083092 -0.044483982 -0.04025144 -0.043936796
0002a0 2e f4 25 bd df a7 3c 3d 2f a7 36 3d 09 3c d0 3c
       -0.04051607 0.04605853 0.044593032 0.025419252
0002b0 7d f0 2d 3d 04 1e 37 3d da 3c 27 3d e6 0d 37 bd
       0.042465676 0.04470636 0.040829517 -0.04469099
0002c0 ae a2 2c bd 38 de 2f 3c 5e de ec bc d8 7e 2a bd
       -0.04214733 0.010734133 -0.028914627 -0.041624874
0002d0 f2 7c 17 3d c8 25 23 bd 0d 5c 14 bd f9 5a 05 3d
       0.03698439 -0.039830953 -0.0362206 0.03255746
0002e0 b0 5c b0 3c ed 75 20 bd 98 c2 14 bd 08 07 22 bd
       0.021528572 -0.039174963 -0.03631839 -0.039557487
0002f0 3c d3 12 bd c7 e8 2c 3d e2 dc 1f 3d e5 1a 0e 3d
       -0.03584598 0.04221418 0.03902901 0.034693617
000300 6e c4 18 3d cc eb 1f 3d e7 4a 15 3d fb 35 20 bd
       0.037296705 0.039043233 0.036448386 -0.03911398
000310 bc 87 2b bd 4b d5 21 3d 77 ea 15 bd 8f f2 19 bd
       -0.041877493 0.039510053 -0.036600556 -0.037584838
000320 66 a8 16 3d 8c 48 25 bd 60 8f 90 bc 6c 4d 18 3d
       0.03678169 -0.04035239 -0.017646492 0.03718321
000330 ea 65 1d 3d 8a e1 1e bd 0d 35 0e bd 82 38 1c bd
       0.03842727 -0.03878931 -0.034718562 -0.038139828
000340 81 9b ce bc d8 52 24 3d 33 34 1e 3d 9e da 0c 3d
       -0.025220634 0.04011807 0.038624 0.034388177
000350 89 43 14 3d 7a 3d 1c 3d 85 7a 14 3d 02 f5 eb bc
       0.03619722 0.038144566 0.036249656 -0.028803352
000360 4d 27 25 bd 8f b3 25 3d e8 23 15 bd 4c 6a 19 bd
       -0.040320683 0.040454444 -0.036411196 -0.03745489
000370 e9 a6 15 3d f9 ae 21 bd 63 66 11 bd db d9 15 3d
       0.03653613 -0.039473508 -0.035498034 0.036584716
000380 d3 59 18 3d eb 01 1b bd 7c 37 09 bd 99 69 19 bd
       0.037195038 -0.037843626 -0.03350018 -0.03745422
000390 be e6 0e bd 54 34 1f 3d 35 af 1b 3d 42 6c 03 3d
       -0.03488802 0.038868263 0.038008887 0.032085665
0003a0 9d 31 12 3d 6c f0 0f 3d 10 a9 00 3d 56 9a 1d bd
       0.035691846 0.035141394 0.03141123 -0.038477264
0003b0 30 ff 14 bd dd e2 1c 3d 1e 83 13 bd 18 3a c1 bc
       -0.03637618 0.03830229 -0.036013715 -0.023587272
0003c0 f7 1c 27 3d ee b1 3e bd 75 d7 25 bd d1 2f 1e 3d
       0.040799107 -0.046556406 -0.04048868 0.03861982
0003d0 fa 52 d9 3c c4 26 2e bd 95 ed 25 bd 0e 5a a7 bc
       0.026528824 -0.04251744 -0.04050978 -0.020428684
0003e0 36 4a 23 bd 58 aa 2f 3d 5d 7d 30 3d 42 83 c9 3c
       -0.039865695 0.04288706 0.043088306 0.024598721
0003f0 5a 3c 29 3d bb 30 49 3d 27 55 26 3d a4 70 42 bd
       0.04131732 0.04911874 0.04060855 -0.047470704

fc.bias f4 [90]
000000 3a 46 49 3d df 72 a0 3d 2e 1d 8f 3d 05 d1 06 3d
       0.04913924 0.0783441 0.069879875 0.03291418
000010 17 d3 b1 3d e9 2d 31 3c 41 a5 bb ba 5a b5 91 3d
       0.0868284 0.0108141685 -0.0014316217 0.07114668
000020 43 0c bd 3c 43 a8 82 3d 85 30 a4 3d 39 33 a7 3d
       0.023077136 0.063797496 0.08017067 0.08164067
000030 74 a5 aa 3c 3a e8 a6 3d de 2e 94 3d 65 ce d3 bb
       0.020830847 0.081497625 0.07235502 -0.006463813
000040 1c 7d 81 3d 08 54 a7 3d 0a 77 b0 b7 31 47 8a bc
       0.06322691 0.081703246 -2.1036267e-05 -0.01687965
000050 b7 e8 b3 3d 6e aa 8b 3d 92 3b b4 3d 7b 55 86 3d
       0.08784621 0.06819616 0.08800425 0.06559273
000060 34 07 aa 3b 56 a0 68 3d 2a bf 75 3d af 32 c7 3a
       0.005188847 0.056793533 0.05999676 0.00151976
000070 62 ef a8 3d 63 96 a2 3d 76 68 6a 3d a0 c6 98 3d
       0.08248784 0.0793884 0.057228528 0.0745976
000080 5c aa 41 3d b4 c9 94 3d 9a 4d b5 3d 9d 2e 86 3d
       0.047281608 0.07265034 0.08852692 0.065518595
000090 8d b2 a7 3d 95 9a 8b 3d 71 3a 92 3d bd 25 2f 3d
       0.08188353 0.068165936 0.07140053 0.0427606
0000a0 f5 3a 83 3d 88 e1 39 3d 7c 54 9b 3d 69 e7 c0 3d
       0.064077295 0.0453811 0.075844735 0.09419138
0000b0 39 d3 ab 3d a4 3a 98 3d f2 61 bf 3c f2 28 86 3d
       0.08389897 0.0743306 0.023362134 0.065507784
0000c0 49 49 9c 3d e9 b0 98 3d 0c 18 67 3d 18 a4 97 3d
       0.076311655 0.07455618 0.056419417 0.07404345
0000d0 78 3e af 3d 16 72 80 3d 5c 48 a3 3d 07 1d 98 3d
       0.08556837 0.0627176 0.07972786 0.074274115
0000e0 39 e4 a3 3d 51 c2 9e 3d d2 b2 02 3d fa 56 ab 3c
       0.080025144 0.07751907 0.031908818 0.020915497
0000f0 1f d9 84 bc 28 96 05 3d 2c 52 6f 3d d1 e5 94 3d
       -0.016216813 0.032613903 0.058427975 0.072703965
000100 5d 44 c3 3d 12 bf bb 3d b2 96 79 3a b6 d2 99 3d
       0.09534524 0.09167303 0.00095210515 0.07510893
000110 ab 11 e4 bc 81 06 02 bd 8d f0 0b 3d 30 d6 b3 bc
       -0.027840456 -0.031744484 0.034164954 -0.021952718
000120 58 f5 a6 3b 0b ef 0b 3d 90 e3 42 3d 29 97 ef 3c
       0.005095165 0.034163516 0.0475803 0.029246883
000130 58 c1 ff bc d2 0e 88 3d bc 69 2b 3d ec ed 39 3d
       -0.031220123 0.06643452 0.041848883 0.045392916
000140 13 66 1d bc d2 fc c5 3c dc 97 1e 3d 66 0b ac 3c
       -0.009606856 0.024168406 0.038719043 0.021001529
000150 cd f5 29 3d 04 47 76 3d cc 6f 7b 3d 31 65 98 bc
       0.04149418 0.06012632 0.061385915 -0.01860294
000160 88 b1 dc bc e7 cf 91 3d
       -0.026940122 0.07119732
