backend/model/lstm-ATHM-90-.pth (torch, 31237 bytes, 12 tensors)

conv1.weight f4 [2, 4, 3]
000000 ea 53 4b b1 b0 6c 3c b1 4a 3d be 37 da a2 4e b2
       -2.9588088e-09 -2.7419382e-09 2.2678305e-05 -1.2027806e-08
000010 c7 36 26 b8 23 32 2d b3 e0 de 65 b1 e6 33 6b b1
       -3.96285e-05 -4.03253e-08 -3.3450576e-09 -3.4226502e-09
000020 fa 13 bc b1 17 ea aa b1 96 1e 96 33 cf 60 a9 b1
       -5.473791e-09 -4.974264e-09 6.990483e-08 -4.929553e-09
000030 01 b1 17 ba e7 06 b5 31 18 d6 40 32 14 7f 11 32
       -0.00057865685 5.268578e-09 1.122455e-08 8.469005e-09
000040 b1 ad fd 31 15 c6 55 32 2b 66 62 39 b2 88 c2 31
       7.3830155e-09 1.244327e-08 0.000215911 5.6616836e-09
000050 78 8b cc 31 4e b2 ba 31 8d 39 d9 b9 fd b7 ab b8
       5.953037e-09 5.4335834e-09 -0.00041432344 -8.188186e-05

conv1.bias f4 [2]
000000 5f ac 08 b2 f0 13 79 32
       -7.9554345e-09 1.4498241e-08

lstm.weight_ih_l0 f4 [80, 2]
000000 63 02 4f ac a1 1b 3a af 69 c9 00 ad e2 2f 07 af
       -2.9417794e-12 -1.6926417e-10 -7.32068e-12 -1.229519e-10
000010 f5 74 21 39 0b 08 3e 38 c7 99 e8 a9 5e bf 4b 38
       0.00015397726 4.530702e-05 -1.0329546e-13 4.8577196e-05
000020 6b d7 86 37 b1 be c1 b4 20 e9 a5 ac fa 8c 4b b9
       1.6074357e-05 -3.6087798e-07 -4.715464e-12 -0.00019412106
000030 d3 a4 2a b3 d7 2e 20 39 b3 27 6f ab b7 d5 0f 35
       -3.9731116e-08 0.00015276238 -8.496495e-13 5.358265e-07
000040 dc 8c 9b 2e 79 8c 96 af ee eb 59 b4 1a f8 68 2b
       7.0736056e-11 -2.7384653e-10 -2.029553e-07 8.276727e-13
000050 52 f2 21 af 31 ea 39 af 85 09 17 b4 ec b9 cc af
       -1.4728954e-10 -1.6908853e-10 -1.4066434e-07 -3.723949e-10
000060 0a fd 1c 35 67 b0 7c 2e 32 ce 0e a8 9a 9d c4 b2
       5.848275e-07 5.7454843e-11 -7.927295e-15 -2.2889072e-08
000070 19 ac 27 aa 29 ee 95 ac 4a 6a 6d 38 2f 71 03 aa
       -1.4892288e-13 -4.261276e-12 5.6604193e-05 -1.1674406e-13
000080 8b 2a 63 aa 17 cd 0f 39 68 98 78 28 75 82 bd aa
       -2.017641e-13 0.00013713945 1.3799813e-14 -3.3663667e-13
000090 c2 e0 1a a8 53 42 62 aa 57 e0 1c b8 12 d2 a5 af
       -8.597454e-15 -2.0095843e-13 -3.740223e-05 -3.016259e-10
0000a0 e9 bb 6f 37 dc b2 01 af fd b4 94 b8 b9 67 72 36
       1.4289261e-05 -1.1796025e-10 -7.0909016e-05 3.6121185e-06
0000b0 5c 6d ca a6 06 06 7a a9 06 e7 12 aa fc ed d5 ac
       -1.4046208e-15 -5.5516376e-14 -1.3047557e-13 -6.0802457e-12
0000c0 6b 2e 90 a8 20 b6 ba aa 63 7f 19 ad 64 1e 47 af
       -1.6007342e-14 -3.3166612e-13 -8.725329e-12 -1.8109741e-10
0000d0 e3 30 12 ac 66 1f 03 b3 6f f5 2b b5 54 5e 75 37
       -2.0774985e-12 -3.052937e-08 -6.4059617e-07 1.46251e-05
0000e0 a9 b1 63 ad 7a 94 25 39 7b 09 d3 a8 b5 33 32 ab
       -1.29429046e-11 0.00015790938 -2.3429817e-14 -6.331006e-13
0000f0 78 de 1b ad 0d 2c 3d 36 8e f5 82 b3 91 d3 64 35
       -8.860128e-12 2.8188836e-06 -6.098263e-08 8.524449e-07
000100 6b b4 c1 36 6d 0a 21 2c 43 b1 ed a7 ca 71 c5 b4
       5.7728516e-06 2.2885264e-12 -6.59729e-15 -3.6776902e-07
000110 2c e2 95 35 d6 6d 0b ad 2c 97 08 37 af f9 cc b7
       1.116719e-06 -7.925624e-12 8.141429e-06 -2.4434963e-05
000120 9e eb 2d aa 10 63 3b 39 83 69 ae a7 e8 b5 86 aa
       -1.5447233e-13 0.00017870613 -4.8409098e-15 -2.3929404e-13
000130 c6 3e 01 a8 81 20 2e b8 39 a7 e5 b8 e6 99 fe af
       -7.17455e-15 -4.1515104e-05 -0.000109507186 -4.6311682e-10
000140 42 c2 31 b4 cb 72 1f b4 57 e7 14 b8 ad 97 cc b3
       -1.655508e-07 -1.484979e-07 -3.55014e-05 -9.52708e-08
000150 d1 c8 9a af 95 3e 5e b2 4c 3d 73 30 1c ce 99 32
       -2.8155125e-10 -1.293633e-08 8.8489993e-10 1.7905272e-08
000160 b1 e5 da af 8c e4 25 b2 8a e8 3e 32 3f f8 47 b7
       -3.9817175e-10 -9.65623e-09 1.1112329e-08 -1.1919124e-05
000170 2b cf 69 b1 cb 72 a5 38 ea e3 3f b1 db b4 17 b3
       -3.4023724e-09 7.889195e-05 -2.7923712e-09 -3.5321914e-08
000180 91 5b f9 31 a3 82 62 34 d2 38 8d 30 44 95 ac 38
       7.2572637e-09 2.1095416e-07 1.027525e-09 8.229402e-05
000190 1b 9a e6 b1 58 ad c0 b4 ce d4 de 32 0a 0b ac 34
       -6.7114008e-09 -3.588891e-07 2.5940974e-08 3.2045529e-07
0001a0 f3 8c 0b b2 a0 93 52 b3 2a 99 8f af d8 08 05 b2
       -8.122913e-09 -4.90287e-08 -2.6120378e-10 -7.74363e-09
0001b0 31 49 3b b3 59 79 ee b3 f8 75 0a 31 d3 1f 6f 32
       -4.3605898e-08 -1.1104812e-07 2.01487e-09 1.3918867e-08
0001c0 1f 33 4c b8 73 25 8a 37 3b 38 88 2f b1 68 d5 38
       -4.8685e-05 1.646832e-05 2.477821e-10 0.00010176132
0001d0 28 1f 14 30 fe c9 2e 32 84 01 0c 32 14 d0 e9 34
       5.388636e-10 1.0174061e-08 8.149417e-09 4.355103e-07
0001e0 49 3b 26 ac 8c 42 9a b6 60 62 75 ac 9e 71 12 af
       -2.3622929e-12 -4.5973047e-06 -3.4871203e-12 -1.3318988e-10
0001f0 82 dc 06 35 7c 9b 08 2e 44 8e f0 a9 cc 36 39 ac
       5.023977e-07 3.1060918e-11 -1.068282e-13 -2.63205e-12
000200 d8 7b 8e a8 92 d7 95 2f b1 dc cf ac 66 17 34 39
       -1.5818876e-14 2.7256114e-10 -5.9077955e-12 0.00017174854
000210 15 b3 91 ae b2 fd 98 b8 97 11 84 aa 76 e6 06 2b
       -6.625648e-11 -7.295179e-05 -2.3460116e-13 4.792619e-13
000220 4b c5 72 ad 19 74 f2 36 01 9b 97 2e 56 18 9c 37
       -1.3799915e-11 7.2256776e-06 6.894219e-11 1.8607981e-05
000230 98 ed e7 ac ec 07 99 af 26 b8 b3 35 16 73 b5 b0
       -6.591793e-12 -2.7836167e-10 1.3390134e-06 -1.3202193e-09
000240 77 7b 83 aa 5c f5 b0 ac 53 09 e9 a7 46 0b a8 ae
       -2.3355946e-13 -5.0294612e-12 -6.46806e-15 -7.641758e-11
000250 f3 76 92 aa 75 4b 1c 39 af b2 28 a9 c2 d2 69 35
       -2.6017347e-13 0.00014905429 -3.7458477e-14 8.7105957e-07
000260 9e e2 86 aa 66 3e 8b ac d0 c7 09 2f 37 92 e4 a9
       -2.396043e-13 -3.9575452e-12 1.2531065e-10 -1.0150598e-13
000270 60 ad 11 34 c1 da 1a 38 cc ed 11 ad 57 90 bc af
       1.3567251e-07 3.692019e-05 -8.295097e-12 -3.429956e-10

lstm.weight_hh_l0 f4 [80, 20]
000000 2f 83 76 2e 66 d7 f6 36 60 a5 cd 2b 41 cd fa ad
       5.605044e-11 7.356447e-06 1.4612027e-12 -2.851286e-11
000010 3e f6 c1 2f 4f ba 0c af 94 33 78 2e 2f 4b 26 2e
       3.528146e-10 -1.2799116e-10 5.6434482e-11 3.7810807e-11
000020 6b 55 0b b0 34 70 f8 38 1c 1a 68 2f 64 81 5e b3
       -5.068929e-10 0.00011846461 2.1109553e-10 -5.1806083e-08
000030 b2 f7 35 2e 23 c7 3f 2c e6 cc 7c 2e 65 f7 3d 39
       4.1374633e-11 2.7253276e-12 5.7480153e-11 0.00018116606
000040 14 18 62 ae e7 97 c6 b2 15 95 b0 b2 60 61 64 af
       -5.1407836e-11 -2.3119311e-08 -2.0556891e-08 -2.0771074e-10
000050 c9 44 36 2f 96 0d 1e b8 91 47 b5 2e f2 fb 07 b7
       1.6577241e-10 -3.768279e-05 8.24364e-11 -8.105288e-06
000060 23 44 ae 38 c9 75 19 af d8 b2 7e 2e 59 46 1d 2e
       8.309658e-05 -1.3957115e-10 5.791176e-11 3.576015e-11
000070 ee e8 93 af f0 1b cb b3 d4 4f 95 2f 47 77 95 38
       -2.690465e-10 -9.458006e-08 2.7159663e-10 7.127091e-05
000080 0d 1c 3f 2e ed 0f 8b 34 d1 6b a4 2e ce 3c 87 ad
       4.3453286e-11 2.5902355e-07 7.4770086e-11 -1.5374726e-11
000090 83 0e 6b ae 9c 13 d6 ac 75 17 3b ad 93 d8 84 37
       -5.3445703e-11 -6.084423e-12 -1.0634928e-11 1.5836476e-05
0000a0 2a 23 ba 38 7d 38 1b 2e 46 bb f2 37 75 2f 21 b9
       8.875721e-05 3.529309e-11 2.8935854e-05 -0.00015371836
0000b0 74 c8 96 32 50 be 15 b7 bd c4 92 ab 3f 60 8b 28
       1.7553454e-08 -8.925403e-06 -1.042853e-12 1.547384e-14
0000c0 a1 e2 fa 33 c9 ed 4b 2e ad b0 13 2a 51 66 86 aa
       1.1682756e-07 4.6368052e-11 1.311752e-13 -2.3874178e-13
0000d0 01 25 99 28 17 da 93 27 b3 a1 06 29 1f fe 39 37
       1.700246e-14 4.103715e-15 2.989423e-14 1.10860265e-05
0000e0 d6 4a 89 a8 a9 60 25 2e b0 72 31 a8 bf e2 0f aa
       -1.524251e-14 3.7602508e-11 -9.850343e-15 -1.277962e-13
0000f0 da 35 ca 2c 16 a9 e6 2c a5 0b 37 ac 53 8a ac ab
       5.747164e-12 6.5557655e-12 -2.6012328e-12 -1.2259728e-12
000100 fc 97 5f 2a 9c e7 01 ad 4e 87 8b 2c c6 e2 e3 2b
       1.9859109e-13 -7.384229e-12 3.9656394e-12 1.6192262e-12
000110 c3 87 65 b7 0d 17 2d ae 5a 8a 18 2d e6 41 d9 b7
       -1.3681073e-05 -3.935612e-11 8.67092e-12 -2.5899102e-05
000120 5a 79 b7 36 d6 5b 97 b2 36 73 e4 b6 9c 89 40 ab
       5.467952e-06 -1.7620476e-08 -6.808342e-06 -6.8403074e-13
000130 84 d7 69 30 d4 df f6 b6 31 cd 35 ab 54 12 8b ad
       8.507117e-10 -7.3574283e-06 -6.458888e-13 -1.581061e-11
000140 6c f2 43 34 98 88 58 2b 4c b5 5f 28 f4 30 03 aa
       1.8248983e-07 7.692818e-13 1.2418299e-14 -1.1652121e-13
000150 f7 79 a0 2c b3 3e 88 b7 d1 2f 2b 2b dd 3c ce 29
       4.5610143e-12 -1.624166e-05 6.081776e-13 9.158796e-14
000160 38 dc 82 b5 05 b3 2c 32 5d 46 55 2b 37 0f 30 ac
       -9.749847e-07 1.0052422e-08 7.577045e-13 -2.501955e-12
000170 bc 27 67 b7 60 31 b7 28 0a 14 23 2a d0 9e 1f 39
       -1.3777924e-05 2.0338494e-14 1.4484261e-13 0.00015222584
000180 0d 00 b5 32 2d a3 c1 a8 52 96 aa a9 a8 af 9e ab
       2.1071196e-08 -2.149807e-14 -7.575593e-14 -1.127533e-12
000190 c5 2f 8d 2f 70 e1 98 2f 91 43 fa 36 af 7d 6a b2
       2.5681693e-10 2.7808822e-10 7.4584464e-06 -1.364917e-08
0001a0 ca 69 0c 2f 43 0f a6 af f9 dd e3 2e d3 d6 5f 2e
       1.277051e-10 -3.0206068e-10 1.0362195e-10 5.0895132e-11
0001b0 a0 03 2f 36 a1 e6 24 ae ef a8 96 2f d2 c6 f8 b8
       2.6079142e-06 -3.7494122e-11 2.7404876e-10 -0.00011862595
0001c0 a1 f4 06 2f 79 e3 9d b8 6e 74 80 2e ba 17 d2 ad
       1.2274139e-10 -7.5287135e-05 5.841448e-11 -2.3884773e-11
0001d0 b5 65 44 ae 03 b1 23 ad 03 51 09 38 fe 91 3d b0
       -4.4655574e-11 -9.304782e-12 3.2738793e-05 -6.8965267e-10
0001e0 42 c5 6e 38 e6 9e 18 b9 54 c4 18 38 80 be 66 35
       5.6927332e-05 -0.00014555044 3.642247e-05 8.595889e-07
0001f0 c0 bf d9 2b ed aa 89 ae 26 62 01 b8 c8 28 ab 2e
       1.5471999e-12 -6.260401e-11 -3.0847405e-05 7.783424e-11
000200 9b 76 97 ae 44 d1 34 ac 7c 26 5f 2e ad 29 2e af
       -6.8877536e-11 -2.5695704e-12 5.073851e-11 -1.5840014e-10
000210 4f f1 5c 2d 0c 2b 66 b8 1b 1f ff 2c f7 77 30 38
       1.2559133e-11 -5.4876364e-05 7.2509893e-12 4.2073396e-05
000220 2d da 0d ad 63 fd 90 b8 a3 19 10 ac 07 61 c2 ae
       -8.063367e-12 -6.913652e-05 -2.0477862e-12 -8.839334e-11
000230 37 8f fe 2c 85 8f ba 2d 00 ea 01 af 9e 7a 98 37
       7.2350142e-12 2.1209487e-11 -1.1815615e-10 1.817691e-05
000240 9d be b2 2a f7 84 9e 2e e6 84 09 2d c8 b6 25 b9
       3.1751416e-13 7.2086274e-11 7.817058e-12 -0.00015803718
000250 16 10 82 ad 8b aa 60 ab 12 c4 17 31 06 6b b9 ad
       -1.4786432e-11 -7.981746e-13 2.2084845e-09 -2.1079593e-11
000260 12 4a 91 2a 95 bd 24 2a 78 9e 05 2c 50 20 8d ab
       2.580857e-13 1.46319e-13 1.8988405e-12 -1.0027621e-12
000270 2e 71 dd ab 5d 9c cf 37 19 6c dd aa 0a 3b a9 b7
       -1.5734408e-12 2.4749135e-05 -3.9332494e-13 -2.0173862e-05
000280 d8 0d f4 2f 65 13 48 30 de 8c 13 32 88 2c c2 ae
       4.4393178e-10 7.278714e-10 8.588556e-09 -8.830009e-11
000290 ff 12 24 2f 3f a0 00 39 11 ca 3f 30 fd 27 b0 b7
       1.4922462e-10 0.00012266728 6.977255e-10 -2.0999456e-05
0002a0 07 d1 62 b0 86 a9 a5 b6 d1 5c 25 30 e2 0a 7e 34
       -8.2515367e-10 -4.9371183e-06 6.015855e-10 2.3659553e-07
0002b0 80 60 b3 b5 3e 27 90 31 32 f9 95 2e d0 e0 30 ae
       -1.3364624e-06 4.195413e-09 6.8200015e-11 -4.021744e-11
0002c0 d3 dd 96 ae 22 57 ef b2 4c 89 31 ad a3 a6 4e b0
       -6.860614e-11 -2.7862885e-08 -1.0091771e-11 -7.517917e-10
0002d0 00 d1 9f 2b 66 ea b2 2b 72 8a e6 b8 58 6c ee aa
       1.1355639e-12 1.2712719e-12 -0.00010993042 -4.2352471e-13
0002e0 0c cd 68 29 9c be e2 b8 86 6f 6b 37 4a bb bf 2a
       5.1692198e-14 -0.000108120235 1.4033058e-05 3.4058374e-13
0002f0 27 d7 0d ac 53 31 af b7 35 8b e6 2b e6 8b a7 ac
       -2.0156739e-12 -2.0884594e-05 1.6381121e-12 -4.7619573e-12
000300 0e f2 94 2a 81 54 15 29 27 99 c8 2a 55 a3 a8 a8
       2.645804e-13 3.315794e-14 3.5633408e-13 -1.872258e-14
000310 77 2e 36 37 68 56 05 b4 c7 98 60 a9 a0 5c 3d 39
       1.0858864e-05 -1.2418025e-07 -4.9870505e-14 0.0001805895
000320 dd 2d 2f 35 47 6e d4 b3 90 06 2d 2d 04 68 b6 ae
       6.525932e-07 -9.8920786e-08 9.835369e-12 -8.294879e-11
000330 62 d8 32 32 46 4b d4 af 88 68 0e 2f 8c 68 2a 2f
       1.0410163e-08 -3.861606e-10 1.2951962e-10 1.5498552e-10
000340 f7 26 06 b0 69 ea 93 ad d9 25 e7 2f d2 b2 56 b3
       -4.880429e-10 -1.6816064e-11 4.2045548e-10 -4.9988394e-08
000350 4a 15 d3 2e 29 02 13 2d 9c 80 48 2f e2 00 55 ae
       9.598951e-11 8.356462e-12 1.8235585e-10 -4.8431377e-11
000360 36 39 8c ae 44 fa 12 ad 9d 2f 93 ad 3a 2a 29 b6
       -6.3766256e-11 -8.354709e-12 -1.673311e-11 -2.5207542e-06
000370 c5 c7 89 30 4b c9 19 38 b4 41 28 2e ae fc 82 af
       1.002484e-09 3.666551e-05 3.8257134e-11 -2.3826402e-10
000380 fc 05 46 2e 88 01 9e b0 19 99 a5 2f 70 03 3a 33
       4.5025303e-11 -1.1496448e-09 3.0122108e-10 4.3309626e-08
000390 64 d5 3a b1 01 1f 29 36 c6 10 a8 30 5b 4e d5 b1
       -2.718786e-09 2.520101e-06 1.2228376e-09 -6.208024e-09
0003a0 7b ed b7 2f db 69 1d 2e 6e 7e a5 2f 4a 53 c7 35
       3.3456246e-10 3.5791686e-11 3.010316e-10 1.4850896e-06
0003b0 47 95 c1 33 1f 04 54 ae ee bf 08 ae 9b 9d ca b0
       9.014416e-08 -4.820688e-11 -3.1093288e-11 -1.4742229e-09
0003c0 1f 82 97 b8 a0 2d 4d 2d 3b ba d1 2d 13 a8 96 ac
       -7.224478e-05 1.1663032e-11 2.3843252e-11 -4.2819164e-12
0003d0 cc 98 8b 2b 98 25 ac ad e6 67 54 31 30 8b 2c 2c
       9.918954e-13 -1.9570831e-11 3.090912e-09 2.4519935e-12
0003e0 a3 3a aa ad 8c 3d dc ab 54 c4 00 2e 09 30 91 ad
       -1.9352802e-11 -1.5649023e-12 2.9278205e-11 -1.6505923e-11
0003f0 c2 24 33 2c ff a5 97 b6 69 4f 54 2c a1 eb 69 b6
       2.5457835e-12 -4.519475e-06 3.0171093e-12 -3.485686e-06

lstm.bias_ih_l0 f4 [80]
000000 cb 7a 35 34 24 4d db 34 3f 5d dd 31 50 18 dc 31
       1.690161e-07 4.0848056e-07 6.4425474e-09 6.4056067e-09
000010 5b c3 8f 33 09 08 8e 36 db 86 4c 33 39 71 1d 32
       6.6944914e-08 4.232865e-06 4.76201e-08 9.164347e-09
000020 f5 d8 14 35 64 ce 43 38 25 5e b3 35 fc 81 0f b9
       5.545001e-07 4.668384e-05 1.3363939e-06 -0.00013685966
000030 65 86 ab 32 5e c8 67 b8 c4 e8 21 33 f0 e7 32 31
       1.9968136e-08 -5.52613e-05 3.7697433e-08 2.603425e-09
000040 a7 d4 bb 33 96 8e af 2f 26 0e 0f 30 21 de 87 35
       8.746547e-08 3.1933628e-10 5.2043203e-10 1.0122932e-06
000050 66 7f af 34 4a fc db 34 1c f1 28 b8 73 40 6b 38
       3.2688985e-07 4.0975493e-07 -4.0278872e-05 5.608839e-05
000060 2b ba 02 38 7e 8d 81 35 07 e6 4e 33 86 e8 55 32
       3.1167798e-05 9.652429e-07 4.817232e-08 1.24511015e-08
000070 54 a4 d2 35 4d ab d4 b4 3f 72 c6 38 53 8d df 35
       1.5694045e-06 -3.9612715e-07 9.462656e-05 1.6655925e-06
000080 dc f4 c6 32 d0 a7 25 30 59 89 29 33 53 07 b2 37
       2.3161583e-08 6.0265126e-10 3.9473296e-08 2.1222664e-05
000090 43 72 c7 32 69 8d 66 32 b2 85 7a 32 45 6b 5d 35
       2.321861e-08 1.3419915e-08 1.4582314e-08 8.2485013e-07
0000a0 05 7f 2e 3a 6e f9 da 39 63 10 22 37 f5 f0 55 b8
       0.00066565006 0.0004176604 9.659768e-06 -5.1007566e-05
0000b0 1d 98 11 38 de 51 7b ba 78 67 5c 39 26 a5 2a 39
       3.471236e-05 -0.00095870893 0.0002101938 0.00016273986
0000c0 dc be dd b9 f0 8a 23 b8 f6 28 8f 3a 2e b2 1e bb
       -0.00042294606 -3.8991624e-05 0.0010922241 -0.002421509
0000d0 ca d2 0b 39 29 b3 9b 37 a8 61 e5 38 5a d6 62 b8
       0.00013334598 1.8560868e-05 0.00010937761 -5.408223e-05
0000e0 cb 42 a4 b8 1b 88 b1 b7 a0 ee c4 b7 ed 58 76 ba
       -7.8325706e-05 -2.1163423e-05 -2.347614e-05 -0.0009397406
0000f0 06 bd 97 34 6c 18 18 b4 2a 5b 12 38 d8 48 d3 32
       2.8263474e-07 -1.4164988e-07 3.4894016e-05 2.4596758e-08
000100 30 47 aa 30 e5 8e df 36 a3 dc 06 35 15 63 92 32
       1.2389361e-09 6.662553e-06 5.023996e-07 1.7041694e-08
000110 88 a2 82 35 18 d1 cb b8 4d 09 33 35 fa 3e 16 36
       9.733058e-07 -9.718741e-05 6.669623e-07 2.23884e-06
000120 90 9e 94 32 aa 83 ee 2f 06 1c 1f 32 88 3f 79 31
       1.7301574e-08 4.33855e-10 9.26139e-09 3.6270382e-09
000130 90 a4 31 33 28 4d 21 30 7b 4e 70 30 6c 5d 82 35
       4.1360693e-08 5.8681104e-10 8.742302e-10 9.712944e-07

lstm.bias_hh_l0 f4 [80]
000000 85 03 dc 34 a2 d4 ef 34 be 02 23 2f e7 05 1b 32
       4.0980754e-07 4.467193e-07 1.4825738e-10 9.0235295e-09
000010 c1 bd 86 30 75 21 aa b4 ed a8 71 36 17 63 59 32
       9.803715e-10 -3.168931e-07 3.6010126e-06 1.2653593e-08
000020 57 e3 05 35 66 bc a3 b8 17 65 0a 35 b8 d9 f5 35
       4.9877184e-07 -7.8075376e-05 5.155611e-07 1.8317287e-06
000030 53 dd bb 38 c8 e6 3e 34 ca 28 a9 32 77 1d 3f 31
       8.95808e-05 1.7779087e-07 1.9692738e-08 2.7810907e-09
000040 c5 eb e1 35 3b 63 d8 2f 91 97 39 30 24 1e 32 35
       1.6832424e-06 3.9360679e-10 6.7517997e-10 6.635403e-07
000050 4b b9 5f 38 fc 94 df 38 59 07 0d 2f cc b7 40 32
       5.333991e-05 0.00010661219 1.2826486e-10 1.12176615e-08
000060 6b 78 4b b8 c2 16 63 37 bb 4f 51 33 e7 bf e3 b7
       -4.851112e-05 1.3535553e-05 4.873412e-08 -2.714987e-05
000070 fb 25 f8 37 f1 23 89 b8 83 98 77 b4 d0 df d1 35
       2.958159e-05 -6.539364e-05 -2.3059151e-07 1.5636851e-06
000080 b4 54 78 32 20 88 f0 b5 21 6f 41 38 49 68 43 31
       1.4454759e-08 -1.7921011e-06 4.6118283e-05 2.8435514e-09
000090 3c aa a3 32 b7 93 b4 2f e6 8f 7b 30 ae bd af 35
       1.9053111e-08 3.2846767e-10 9.151776e-10 1.309372e-06
0000a0 a3 6a d5 39 6f bb 92 3a 0e 97 33 37 82 56 7b b9
       0.00040705976 0.0011194776 1.0704402e-05 -0.00023969452
0000b0 3d 41 ec 37 51 c1 33 ba 1c d3 ad 39 be ca be 38
       2.8163771e-05 -0.00068571145 0.0003315442 9.09767e-05
0000c0 33 40 ef ba 66 36 4f b8 48 8f 48 3a cc 9f 32 ba
       -0.0018253386 -4.940331e-05 0.0007650745 -0.0006813973
0000d0 83 29 2e 39 84 dd c5 37 04 54 48 39 9c 28 59 b8
       0.00016609397 2.3587381e-05 0.00019104785 -5.1774652e-05
0000e0 93 8b 43 b9 83 dc a6 b7 39 d4 cb b7 72 df b5 ba
       -0.00018648645 -1.9891426e-05 -2.429831e-05 -0.0013875796
0000f0 70 be dc 36 35 b8 b4 34 74 6a 3a b8 01 2b 53 b5
       6.5786808e-06 3.366164e-07 -4.4444998e-05 -7.8666204e-07
000100 e3 c8 b4 b3 2b c8 2a 35 43 37 c5 33 bc 5a 5c 32
       -8.418444e-08 6.362122e-07 9.1835794e-08 1.2826316e-08
000110 58 c4 03 35 7d 1a ec 30 80 b7 e5 34 1c b4 51 36
       4.908702e-07 1.7178788e-09 4.2788088e-07 3.1248264e-06
000120 46 b9 75 36 32 c4 35 30 e2 f5 33 b8 e9 00 05 32
       3.6615688e-06 6.6126227e-10 -4.2905922e-05 7.741826e-09
000130 8b 1d 47 32 8b ae e9 b8 08 83 95 31 0f 55 3c 35
       1.1590042e-08 -0.00011142817 4.3513673e-09 7.0159234e-07

lstm.weight_ih_l1 f4 [80, 20]
000000 57 5d 11 39 f2 26 1b 38 f8 57 33 35 8d 33 0e b7
       0.0001386305 3.699115e-05 6.681071e-07 -8.475862e-06
000010 e0 73 9c 35 fd 9e 27 b8 8e c2 45 37 20 42 6b 36
       1.165663e-06 -3.9963972e-05 1.1787413e-05 3.5056219e-06
000020 3c 24 3b b8 48 44 95 b8 95 e7 3f 38 6b 25 62 b9
       -4.461802e-05 -7.117592e-05 4.5753626e-05 -0.00021566979
000030 bc 2a d0 36 5b 69 63 35 21 a5 04 37 e1 cc 81 37
       6.203858e-06 8.47174e-07 7.90626e-06 1.5473403e-05
000040 5d 5c df b6 55 f7 58 b5 10 8b 87 b5 4c 6c 56 b8
       -6.6566704e-06 -8.0826186e-07 -1.0098756e-06 -5.1122435e-05
000050 95 db 1a 38 2b a0 3d 38 87 0a 68 35 ee 6a 3a b7
       3.6920963e-05 4.521028e-05 8.6442054e-07 -1.111136e-05
000060 71 02 f5 35 bb 5f 47 b8 6d 10 75 37 9e fa 6e 38
       1.8254633e-06 -4.7534453e-05 1.4606962e-05 5.6977027e-05
000070 20 f2 aa b8 ba ce 54 b6 22 c3 bf 37 31 07 03 b9
       -8.151331e-05 -3.1710792e-06 2.285984e-05 -0.00012495813
000080 65 73 89 36 64 ed bf 38 6b b2 2e 37 3a fa 1a 39
       4.096352e-06 9.151807e-05 1.0412749e-05 0.00014779801
000090 af 2f 3b b7 1d e9 91 b5 ac 10 70 b5 1c f4 b1 b8
       -1.1157171e-05 -1.0871187e-06 -8.943123e-07 -8.4854866e-05
0000a0 58 90 76 38 0e db 8c 38 03 f5 d9 b5 c4 1b 0e b9
       5.87854e-05 6.716522e-05 -1.6239068e-06 -0.00013552519
0000b0 e6 f0 fc 35 28 4a a9 b9 c1 9a d7 37 20 22 b7 37
       1.8845574e-06 -0.00032289443 2.570206e-05 2.183119e-05
0000c0 78 a1 8b b8 a7 36 54 b6 22 7e 4b 38 76 b8 bd b8
       -6.6581124e-05 -3.1622274e-06 4.8516442e-05 -9.046581e-05
0000d0 1a e1 ac 37 3b c0 bb 35 49 c0 90 37 f0 62 92 37
       2.0608819e-05 1.3988532e-06 1.7255677e-05 1.7450628e-05
0000e0 94 d4 ed b6 f7 d7 2b b5 a6 aa c6 b5 c7 31 03 b5
       -7.0878978e-06 -6.4016734e-07 -1.4801815e-06 -4.887374e-07
0000f0 d0 e7 82 38 ff 12 55 38 81 82 81 35 89 67 13 b7
       6.2420615e-05 5.080085e-05 9.649231e-07 -8.785989e-06
000100 31 19 e7 35 67 31 8d b8 69 d8 b2 37 76 ad 0b 37
       1.7218173e-06 -6.732606e-05 2.1320027e-05 8.325433e-06
000110 20 00 b0 b8 e8 84 18 b6 91 df a3 38 63 10 0c b9
       -8.392357e-05 -2.2727127e-06 7.814088e-05 -0.00013357545
000120 70 fd 46 37 bf af d0 35 51 d0 0d 37 2d 89 5e b6
       1.1860728e-05 1.5548356e-06 8.452757e-06 -3.3160425e-06
000130 80 c1 50 b7 84 a8 0e b6 6c 7a de b5 f9 31 0d b9
       -1.2442819e-05 -2.1257738e-06 -1.6575918e-06 -0.00013465424
000140 b6 34 1e 38 47 0f 67 38 84 40 e4 34 76 15 00 b7
       3.7719226e-05 5.508892e-05 4.251525e-07 -7.634391e-06
000150 fb ce 04 36 b4 53 bd b8 86 0c 00 39 19 42 22 37
       1.9790011e-06 -9.027813e-05 0.00012211697 9.671342e-06
000160 74 e2 61 b9 45 31 73 b5 7a 57 6f 38 45 c4 db b8
       -0.00021542032 -9.059625e-07 5.706351e-05 -0.00010479292
000170 9d 3e 05 37 c4 ee fa 35 f7 91 46 37 cd cc 50 b6
       7.941996e-06 1.8695941e-06 1.1835705e-05 -3.1113625e-06
000180 30 54 0e b7 16 b5 a1 b5 0c 06 0d b6 11 ac 84 b8
       -8.483461e-06 -1.2048138e-06 -2.1014157e-06 -6.3263e-05
000190 9a e8 10 38 fc e6 5d 38 26 45 9b 35 81 6e c4 b8
       3.4548902e-05 5.2905627e-05 1.1568525e-06 -9.366591e-05
0001a0 08 12 bd b8 24 08 c4 b8 40 dc ae 38 d3 90 13 37
       -9.015581e-05 -9.3475246e-05 8.337991e-05 8.795602e-06
0001b0 68 52 91 b8 c3 5f 9a b6 47 73 8f 38 ef a2 af b8
       -6.929488e-05 -4.600706e-06 6.8402434e-05 -8.374999e-05
0001c0 11 a3 a7 37 0d c6 e6 37 ca b0 27 37 b8 b1 3d b6
       1.9983885e-05 2.7510361e-05 9.995138e-06 -2.826664e-06
0001d0 63 b1 3e b7 fd 8c ac b5 68 f1 f3 b5 71 8c af b8
       -1.1366184e-05 -1.2856032e-06 -1.8175169e-06 -8.3708095e-05
0001e0 22 f4 17 38 2f 3b 5f 38 62 ae 34 35 3b 22 41 b7
       3.6228572e-05 5.3222462e-05 6.7308986e-07 -1.1511666e-05
0001f0 ff 4e 93 36 cc c0 af b8 ed 57 17 39 f3 d5 42 37
       4.3901377e-06 -8.3805615e-05 0.00014433237 1.1613115e-05
000200 3a ec 3f b9 5e 7f 21 b6 d6 74 96 38 ce f9 c8 b8
       -0.0001830318 -2.4065007e-06 7.17432e-05 -9.583273e-05
000210 c7 8f 23 37 9b c8 c8 38 c1 ff 3d 39 53 5d 77 b6
       9.749033e-06 9.574109e-05 0.0001811972 -3.686019e-06
000220 6a 88 04 b7 6d 7c 85 b5 61 f2 f7 b5 31 53 b3 b8
       -7.8995745e-06 -9.945485e-07 -1.8473476e-06 -8.550881e-05
000230 48 4d 86 38 2e 58 52 38 f9 13 be b7 98 aa 14 b7
       6.404013e-05 5.0150025e-05 -2.2659066e-05 -8.861207e-06
000240 41 34 00 36 63 2b e8 b8 d6 ed 18 38 c1 d1 1d 37
       1.9103902e-06 -0.000110707035 3.6461126e-05 9.406766e-06
000250 ba b7 ae b7 02 e6 36 b6 05 be 88 38 e6 a0 bd b8
       -2.082797e-05 -2.7253996e-06 6.520379e-05 -9.042192e-05
000260 90 1f 16 37 03 7e a8 35 93 95 58 37 b9 2b 74 b6
       8.948045e-06 1.255365e-06 1.2909429e-05 -3.6384283e-06
000270 1b 6b 43 b7 4c cb 26 39 69 12 3f b6 77 f7 20 b9
       -1.1647843e-05 0.00015906728 -2.8471934e-06 -0.00015350977
000280 6e 15 06 38 55 4f 71 38 12 19 94 35 3f d6 5e b7
       3.1968048e-05 5.753276e-05 1.1034156e-06 -1.3282114e-05
000290 fa 9d 04 36 b3 3e 5a b8 09 15 d1 37 59 33 cb 37
       1.9761487e-06 -5.2033643e-05 2.4924537e-05 2.4223396e-05
0002a0 d3 d9 9d b8 99 b4 24 b6 d2 f1 a5 38 e6 40 07 b9
       -7.526916e-05 -2.4543026e-06 7.912856e-05 -0.0001289878
0002b0 fd 28 1c 37 9a ce bb 35 77 2f 25 37 8c 4e 6b b6
       9.307868e-06 1.3992715e-06 9.845818e-06 -3.506345e-06
0002c0 83 04 26 b7 a1 f9 a4 b5 3a 96 cb b5 dc 25 a9 b8
       -9.8954215e-06 -1.2291604e-06 -1.51684e-06 -8.0656e-05
0002d0 f7 f7 9a 38 6e ae 53 38 5f 52 70 35 3e 7c 00 39
       7.389479e-05 5.046877e-05 8.9526833e-07 0.00012253315
0002e0 97 76 0f 36 ba 1a a4 b8 ef e5 6e 37 42 eb db 36
       2.137769e-06 -7.8251076e-05 1.4239441e-05 6.554096e-06
0002f0 db fe 28 b9 b6 c9 27 b6 c3 b3 d2 38 ea 78 e2 b8
       -0.0001611667 -2.500235e-06 0.000100470636 -0.00010799042
000300 90 cb ac 37 1c 4b b7 35 19 ef 16 37 ab 82 62 b8
       2.0598789e-05 1.3656422e-06 8.996366e-06 -5.4004293e-05
000310 db bd 95 b8 ef d7 ac b5 7b d0 ce b5 af 98 a7 b8
       -7.140237e-05 -1.2877844e-06 -1.5408872e-06 -7.99162e-05
000320 e4 e4 8c 38 58 09 2f 39 9f 23 65 b7 73 66 1c b7
       6.7183544e-05 0.00016692781 -1.3657757e-05 -9.322178e-06
000330 54 15 da 35 5d 38 69 b9 d5 7e 27 37 8f 06 f9 36
       1.6248473e-06 -0.00022241609 9.983506e-06 7.421542e-06
000340 fe 00 a7 b8 5d f5 20 b9 d0 2c 0e 38 dd b7 d1 b8
       -7.963365e-05 -0.00015350194 3.3897173e-05 -0.00010000144
000350 70 19 62 37 99 38 e3 35 1b b7 0c 37 72 6d 4b b6
       1.3476572e-05 1.692929e-06 8.387283e-06 -3.0313063e-06
000360 d7 04 ec b6 59 c5 30 b7 1d d7 bc b7 5d f1 ac b8
       -7.0339115e-06 -1.0536366e-05 -2.2511516e-05 -8.2465565e-05
000370 4a 94 5c 39 5f 89 5a 38 3e 33 e0 b7 44 0a 8e 38
       0.00021036077 5.2103187e-05 -2.6726742e-05 6.773e-05
000380 1c f1 fe 35 ea 2e ab b8 ab ca 82 37 26 44 3d 37
       1.8994647e-06 -8.162654e-05 1.5591582e-05 1.1281145e-05
000390 3a d7 8d b8 18 1a 46 b6 40 73 93 38 02 5a d5 b9
       -6.763493e-05 -2.9519488e-06 7.030973e-05 -0.00040693587
0003a0 b1 05 2f 39 ea 9d a6 35 05 3e 2c 37 b4 2b 38 b6
       0.00016691421 1.2413923e-06 1.0266439e-05 -2.7443575e-06
0003b0 25 c5 13 b7 18 43 ab b5 e3 26 34 b6 3a 40 85 b8
       -8.807784e-06 -1.276002e-06 -2.6844725e-06 -6.353897e-05
0003c0 d9 a3 5d 38 3b 87 56 38 c0 7a 3f 35 00 90 ae 38
       5.28431e-05 5.114752e-05 7.133167e-07 8.323789e-05
0003d0 90 8f 58 b9 82 b6 b3 b8 3d 51 d3 37 3d 26 1a 37
       -0.00020652846 -8.56938e-05 2.519099e-05 9.188018e-06
0003e0 45 44 84 b9 50 c5 2a b6 49 87 80 38 84 65 87 b8
       -0.00025227867 -2.5446825e-06 6.1287144e-05 -6.4562104e-05
0003f0 90 a5 9e 37 d5 2a 50 b5 f4 cf 8e 37 65 10 a4 b6
       1.8912164e-05 -7.7548367e-07 1.7024555e-05 -4.8894894e-06

lstm.weight_hh_l1 f4 [80, 20]
000000 5f 20 46 3c fe 25 84 3c ac 24 87 bc 02 c7 9e bc
       0.012092679 0.016131397 -0.016496979 -0.019382004
000010 12 22 a3 3c 67 ff 9f bc 88 4f 8c bc 89 85 a5 3c
       0.019913707 -0.019530965 -0.017127767 0.020205276
000020 87 78 97 3c 81 23 a1 bc 64 48 90 bc 89 40 9f 3c
       0.01849009 -0.01967025 -0.017612644 0.019439952
000030 82 62 8f bc b2 96 9c bc 39 87 98 3c 8c 4c 58 3c
       -0.017503027 -0.019114826 0.018619167 0.013201844
000040 46 8e 14 3c be c9 96 bc e1 91 8d 3c c5 91 8a 3c
       0.009067124 -0.018406745 0.017281475 0.016915211
000050 c0 b6 96 3c 5a b5 ce 3c 4c 84 dd bc 3a 07 dd bc
       0.018397689 0.02523296 -0.027040623 -0.026980985
000060 42 a2 e2 3c eb 0e da bc d9 f3 cf bc 95 d5 e2 3c
       0.027665261 -0.026618442 -0.02538483 0.027689734
000070 78 48 dc 3c 92 dd df bc 1d 36 bf bc ee e5 de 3c
       0.026890025 -0.027327333 -0.023341233 0.027209248
000080 9f 2a d1 bc 0e 24 d0 bc f8 56 da 3c 99 30 40 3c
       -0.025533019 -0.025407817 0.026652798 0.011730337
000090 38 23 8f 3c e6 b4 da bc 4a 27 d6 3c cc 44 dd 3c
       0.017472848 -0.026697587 0.026141781 0.027010344
0000a0 58 36 a0 3c e9 ca db 3c 74 e4 f5 bc 01 71 e2 bc
       0.019557163 0.026830154 -0.030016162 -0.027641775
0000b0 6c f8 f9 3c 69 17 f2 bc e3 26 e4 bc 4f b8 f0 3c
       0.030513965 -0.029552178 -0.027850574 0.02938476
0000c0 46 e3 e9 3c bc b7 f5 bc 65 00 cc bc d3 9a f3 3c
       0.028550755 -0.029994838 -0.024902532 0.029736912
0000d0 c1 e2 de bc ae 86 de bc e7 1d e3 3c 64 3f 35 3c
       -0.027207734 -0.02716383 0.02772422 0.011062477
0000e0 b7 2b 78 3c 59 06 e7 bc 05 9e e4 3c 39 97 e1 3c
       0.015147141 -0.028201269 0.02790738 0.027537929
0000f0 0e 17 96 3c 1f ee cf 3c 92 2d e5 bc 78 a8 ec bc
       0.01832154 0.0253821 -0.027975831 -0.028888926
000100 c3 e1 ee 3c c2 59 f0 bc 8b 05 e7 bc f3 29 ee 3c
       0.029160386 -0.029339675 -0.028200885 0.029072737
000110 24 a4 ea 3c 27 cc ed bc 6b 59 d1 bc a4 b7 ef 3c
       0.028642721 -0.029028011 -0.025555333 0.029262371
000120 18 2a e7 bc 96 11 db bc d7 cb e7 3c 59 b5 38 3c
       -0.028218314 -0.026741784 0.02829544 0.011273705
000130 fd 46 92 3c 1a 14 e9 bc e3 5a db 3c c3 76 eb 3c
       0.017856115 -0.028451968 0.026776737 0.028743153
000140 28 6e 95 3c 91 41 df 3c 70 1c f6 bc f9 4f ee bc
       0.018241003 0.027252944 -0.030042857 -0.029090868
000150 20 92 f8 3c 04 9f e9 bc a4 d1 e1 bc c1 81 f5 3c
       0.030343115 -0.028518207 -0.027565785 0.029969098
000160 d5 34 f0 3c e6 04 fc bc ed 7a d7 bc ba dd f0 3c
       0.029322067 -0.030764055 -0.026303733 0.029402602
000170 9d 3d ef bc c2 6d d9 bc 6b 64 eb 3c 6b 2b 4f 3c
       -0.029204184 -0.026541594 0.028734406 0.012644629
000180 d5 49 98 3c 0a 3b e4 bc 99 e3 e1 3c eb 9e f0 3c
       0.018589893 -0.027860183 0.027574347 0.029372653
000190 5b 69 91 3c 7f 38 db 3c 7d 91 f1 bc f5 a3 ed bc
       0.017750433 0.026760338 -0.02948832 -0.029008845
0001a0 8f 36 ea 3c b6 05 eb bc 2b c5 e3 bc 86 a1 e9 3c
       0.028590469 -0.028689247 -0.027803978 0.028519403
0001b0 75 9e df 3c b2 c7 ed bc c7 0d d0 bc 39 82 ec 3c
       0.027297238 -0.029025886 -0.025397195 0.028870689
0001c0 ba 59 eb bc 76 6c dd bc 52 bc dd 3c 87 ca 22 3c
       -0.028729308 -0.027029257 0.027067337 0.009935982
0001d0 59 b1 92 3c b7 01 e9 bc f0 5f e4 3c f7 65 ea 3c
       0.017906832 -0.0284432 0.027877778 0.028613074
0001e0 67 d5 a0 3c 9b e1 d7 3c fd a8 ed bc 0d 7d e7 bc
       0.019633008 0.026352694 -0.029011244 -0.028257871
0001f0 f4 a3 ef 3c e8 78 ea bc 74 35 e0 bc bc 07 e3 3c
       0.029252984 -0.028622106 -0.027369238 0.027713649
000200 11 af e1 3c e2 d3 e8 bc 98 72 cb bc 98 33 e7 3c
       0.027549298 -0.028421346 -0.024834916 0.028222844
000210 95 9b e2 bc d3 00 d7 bc 48 b7 e4 3c ce 5b 4b 3c
       -0.027662078 -0.02624551 0.027919427 0.012412025
000220 29 f8 9f 3c 45 21 e6 bc ba 4b d5 3c 98 0f de 3c
       0.019527512 -0.028092036 0.026037086 0.027107045
000230 d4 0a 9f 3c 66 27 da 3c fa 82 f2 bc d0 91 ed bc
       0.019414343 0.026630115 -0.02960347 -0.029000193
000240 6c 57 f4 3c 93 27 ee bc 7b 57 eb bc ae c0 f3 3c
       0.029826842 -0.029071605 -0.028728237 0.029754963
000250 a2 71 ef 3c d7 21 f1 bc f7 13 d6 bc 4f 5c f2 3c
       0.029228989 -0.029435081 -0.026132567 0.029585032
000260 70 0b e1 bc 4b bb da bc 51 05 e7 3c 3e f7 23 3c
       -0.027471274 -0.026700636 0.028200777 0.010007678
000270 bd 54 83 3c 01 76 ef bc 7f 58 e5 3c c9 6b ee 3c
       0.016031617 -0.029231073 0.0279963 0.02910413
000280 a9 fd 99 3c c1 2e d8 3c 83 36 e3 bc 8b 42 e0 bc
       0.018797712 0.026389481 -0.027735954 -0.02737548
000290 14 47 f2 3c fd 71 eb bc 31 d0 df bc bf 09 f4 3c
       0.029574908 -0.028740877 -0.027320953 0.029789804
0002a0 6f c0 df 3c 2f 2e e9 bc 8d d5 d0 bc 2e bd ea 3c
       0.02731344 -0.028464405 -0.025492454 0.028654661
0002b0 a4 64 e8 bc ee db da bc 29 80 dd 3c ef 75 33 3c
       -0.028368302 -0.026716199 0.02703865 0.0109534105
0002c0 0c f9 94 3c 16 95 e8 bc 2b 9d e0 3c cd c7 e9 3c
       0.018185161 -0.028391402 0.027418694 0.028537655
0002d0 6e 9e 9b 3c f0 c6 d9 3c f5 42 f1 bc 93 e0 e5 bc
       0.018996444 0.026584119 -0.029450873 -0.028061187
0002e0 c3 8d f0 3c e1 c0 e9 bc 30 eb e8 bc 38 5c f5 3c
       0.029364472 -0.028534355 -0.028432459 0.0299512
0002f0 64 03 ed 3c 24 92 ec bc 7a 76 d6 bc cb 06 ed 3c
       0.02893228 -0.028878279 -0.02617954 0.028933903
000300 a4 e1 ea bc 87 df df bc 31 85 e9 3c e7 f1 4d 3c
       -0.028672047 -0.027328266 0.028505893 0.012569881
000310 92 46 88 3c eb e6 ed bc 1c c5 e6 3c 04 6d ee 3c
       0.016635213 -0.029040774 0.028170161 0.029104717
000320 b8 b9 8d 3c f4 f8 ca 3c 99 aa d4 bc 71 d8 d8 bc
       0.017300472 0.024776913 -0.025960254 -0.026470395
000330 52 fd de 3c e4 06 d9 bc 85 4d d5 bc 2c ea d8 3c
       0.027220402 -0.026492544 -0.02603794 0.02647885
000340 72 c5 d6 3c dc ac da bc d2 c7 ba bc a5 dc d6 3c
       0.026217196 -0.026693754 -0.02280036 0.026228258
000350 af 71 d4 bc 5a 60 ca bc fb 1a d5 3c ba 90 22 3c
       -0.025933115 -0.024704147 0.026013842 0.009922201
000360 22 e3 8b 3c 02 8a d5 bc ea 4e c6 3c e0 b0 d7 3c
       0.017076079 -0.026066784 0.024207551 0.026329458
000370 df 64 9f 3c 8a ba d4 3c a8 b0 ec bc aa 75 e1 bc
       0.019457279 0.025967855 -0.02889283 -0.027521927
000380 b8 06 f8 3c 04 b3 e7 bc b0 b3 e8 bc 45 3c f3 3c
       0.030276641 -0.028283603 -0.028405994 0.029691825
000390 37 6b ed 3c b3 89 ec bc fd 1c d4 bc e7 0a e9 3c
       0.028981788 -0.028874254 -0.025892729 0.028447581
0003a0 f6 f7 ea bc 55 4d dc bc aa ec e5 3c 7d 94 1e 3c
       -0.02868269 -0.026892344 0.028066952 0.009678957
0003b0 60 2c 95 3c 26 85 eb bc 16 ac de 3c 93 c9 ea 3c
       0.018209636 -0.028750014 0.027181666 0.028660571
0003c0 50 b0 8a 3c 5e db d8 3c 17 9b ef bc a0 5b de bc
       0.016929775 0.02647179 -0.029248757 -0.0271433
0003d0 ae 69 f1 3c 57 54 ed bc 08 c4 e4 bc b1 2a eb 3c
       0.029469337 -0.02897088 -0.027925506 0.02870688
0003e0 6d f9 dd 3c ee 99 f0 bc 24 5f d2 bc 2d cd e8 3c
       0.027096475 -0.029370274 -0.025680132 0.028418148
0003f0 ae 31 e9 bc ff a7 da bc d7 e5 e6 3c 1d 1f 4b 3c
       -0.028466072 -0.026691435 0.028185768 0.012397555

lstm.bias_ih_l1 f4 [80]
000000 d1 0e 12 3d e5 f0 50 3d 47 c3 5c 3d f9 4d 61 3d
       0.03565866 0.051010985 0.05389717 0.055006
000010 d4 28 63 3d d2 fa 5b 3d bf 2b 5c 3d 14 91 62 3d
       0.05545886 0.053705998 0.053752657 0.05531414
000020 92 a4 5e 3d 61 ae 65 3d a4 40 4b 3d c3 b1 64 3d
       0.054356165 0.056074504 0.049622193 0.05583359
000030 17 90 59 3d 4b d2 52 3d 72 24 5a 3d 3e 37 52 3c
       0.05311593 0.051470082 0.053257413 0.012830554
000040 fb 19 00 3d 03 5f 5c 3d fe 36 54 3d 4e c3 5c 3d
       0.031274777 0.053801548 0.051810257 0.053897195
000050 e2 10 43 3d 78 9c 9c 3d 75 9b b2 3d 81 21 b2 3d
       0.047623523 0.076470315 0.08721057 0.086977966
000060 f5 2e b9 3d f6 13 b2 3d b5 0d ad 3d 2f 5e b7 3d
       0.090421595 0.086952135 0.0844988 0.08953511
000070 f4 13 ae 3d 8c 95 b5 3d 25 4d 91 3d 6a 33 b2 3d
       0.084998995 0.088664144 0.07094792 0.08701213
000080 0e 2c ad 3d b5 61 a1 3d ab 08 ad 3d 54 ee 8e 3c
       0.084556684 0.07879964 0.08448919 0.017447628
000090 43 03 0f 3d 77 ed ab 3d 79 e0 a6 3d 8d b2 b0 3d
       0.03491522 0.08394902 0.081482835 0.08627806
0000a0 de 68 b3 3d ce a8 e5 3d 49 00 e1 bd 5d a1 f1 bd
       0.08760236 0.112138376 -0.109863825 -0.11798356
0000b0 8f 60 fb 3d 04 5c eb bd 01 41 e8 bd 16 28 f2 3d
       0.122742765 -0.1149216 -0.113405235 0.11824052
0000c0 6f 8f ea 3d 8f b2 f0 bd 06 de db bd 2b be ef 3d
       0.11453139 -0.11752807 -0.10735707 0.117061935
0000d0 a6 59 ee bd 38 13 e6 bd 26 ed ee 3d 71 1a 8c 3d
       -0.11638193 -0.112341344 0.11666326 0.06840981
0000e0 6e 65 af 3d eb 04 ec bd e9 23 e9 3d 5a 58 eb 3d
       0.08564268 -0.115243755 0.113838024 0.11491461
0000f0 36 c6 40 3d 66 ec ab 3d 77 70 c5 3d 6b cc be 3d
       0.04706403 0.08394699 0.096405916 0.093163334
000100 07 a0 d1 3d 40 60 c5 3d e5 e4 b8 3d a7 b5 c8 3d
       0.10235601 0.09637499 0.09028033 0.098002724
000110 70 90 bb 3d 24 e3 c5 3d bc ac a4 3d b2 ab c0 3d
       0.09158409 0.09662464 0.08040759 0.09407748
000120 c6 e1 b9 3d 1f 32 ac 3d 39 3a bb 3d 47 64 76 3c
       0.09076266 0.08407997 0.091419645 0.015038556
000130 c3 ac 33 3d b7 9a ba 3d 43 b6 b4 3d 5a c0 bd 3d
       0.04386593 0.09111541 0.08823826 0.09265204

lstm.bias_hh_l1 f4 [80]
000000 17 ab 13 3d 3f 8d 52 3d cd ca 5b 3d fb fe 59 3d
       0.036051836 0.051404234 0.053660203 0.053221684
000010 50 d0 64 3d da 95 60 3d a6 e3 5a 3d 0d 91 63 3d
       0.055862725 0.05483041 0.05343976 0.055558253
000020 45 85 5b 3d 9d 72 5e 3d 15 16 4d 3d 3a fd 5c 3d
       0.053593893 0.054308522 0.050069887 0.053952433
000030 c8 c2 5c 3d cb 79 53 3d d4 83 5c 3d 9c 6f a9 3c
       0.053896695 0.051629823 0.05383666 0.020683102
000040 a3 8a 0a 3d df fb 5a 3d 81 d5 58 3d 6e 94 5e 3d
       0.03382362 0.05346286 0.05293799 0.054340772
000050 4d b9 28 3d 4d 8c 9f 3d c3 00 b3 3d 0a 58 b3 3d
       0.04119234 0.07790432 0.0874038 0.087570265
000060 f2 a8 ba 3d b9 28 b3 3d ac 3e ad 3d 28 61 b7 3d
       0.09114255 0.087480016 0.08459219 0.08954078
000070 39 4d ad 3d f7 1d b4 3d 8e 95 99 3d 5e f6 b1 3d
       0.08461995 0.08794778 0.074992284 0.08689569
000080 d6 0c af 3d 5b 7e a0 3d 67 6d aa 3d a7 d2 79 3c
       0.0854737 0.078366004 0.08321648 0.015247977
000090 38 06 2f 3d b6 96 ad 3d 30 0e a8 3d b5 3c af 3d
       0.04273054 0.084760115 0.08205831 0.08556501
0000a0 1b 9d b4 3d bc f9 e4 3d 8f 7a 04 be 07 23 f4 bd
       0.08819028 0.111804456 -0.12937377 -0.119207434
0000b0 22 81 fc 3d e1 14 f0 bd ce f7 e8 bd c5 26 f2 3d
       0.12329318 -0.11722732 -0.1137539 0.11823801
0000c0 d9 06 ed 3d 66 7a ef bd 29 f9 d8 bd ab 62 e7 3d
       0.11573572 -0.116932675 -0.105943985 0.11298116
0000d0 93 55 d6 bd 4a 46 e6 bd 31 7c ef 3d cf b3 70 3d
       -0.10465541 -0.11243875 0.116936095 0.05876523
0000e0 05 76 c1 3d db df eb bd ee a0 e8 3d 96 f2 ea 3d
       0.094463386 -0.115173064 0.1135882 0.11472051
0000f0 c7 b2 4a 3d 8e 08 ac 3d fb f3 c4 3d f5 1b c1 3d
       0.0494869 0.08400069 0.09616848 0.094291605
000100 c1 de ce 3d 60 c7 be 3d a5 9d bb 3d 42 67 ca 3d
       0.10101081 0.093153715 0.09160928 0.09882976
000110 a5 fc bf 3d 49 24 c6 3d 81 bd a4 3d 67 7d be 3d
       0.0937436 0.096748896 0.080439575 0.09301262
000120 d2 00 bc 3d 82 1a ac 3d a9 35 bb 3d 3a 15 9f 3c
       0.09179844 0.084034935 0.09141094 0.019419301
000130 be bc 33 3d 06 96 bd 3d 58 9f b5 3d 34 81 be 3d
       0.04388117 0.0925713 0.08868283 0.09301987

fc.weight f4 [90, 20]
000000 be 09 c6 3c 7e 81 05 3d af d1 10 bd c3 6d 0f bd
       0.024174567 0.032594196 -0.03535622 -0.035016786
000010 87 9c 13 3d 62 b4 0f bd 55 ee 0d bd e0 4e 14 3d
       0.036037948 -0.035084136 -0.03465112 0.036208034
000020 06 24 0e 3d 62 23 15 bd 1f 6c f7 bc 16 27 10 3d
       0.034702323 -0.036410697 -0.030202923 0.035193525
000030 21 9f 0d bd c6 62 05 bd 3b c4 0c 3d 38 32 73 3c
       -0.034575585 -0.0325649 0.034366827 0.014843516
000040 56 48 b5 3c 8a b7 0d bd d4 0d 0b 3d d5 61 10 3d
       0.022129219 -0.034598865 0.033948734 0.03524955
000050 bd 5f c4 3c 38 0f 04 3d 12 7e 10 bd 05 ea 0e bd
       0.023971433 0.032241076 -0.03527648 -0.034891147
000060 51 08 15 3d 2f 70 0f bd 8c 77 0c bd b9 48 11 3d
       0.036384884 -0.035019096 -0.034293696 0.035469744
000070 66 92 0d 3d 3e 7d 11 bd 0f 2e 00 bd fc e1 0e 3d
       0.034563445 -0.03551983 -0.031293925 0.034883484
000080 7f ca 0d bd 50 e5 06 bd 8d 87 0c 3d 4f a9 5e 3c
       -0.034616943 -0.032933533 0.03430896 0.013590171
000090 e3 0b b3 3c 93 a6 0d bd 69 b1 09 3d d2 7c 0e 3d
       0.021856254 -0.034582686 0.033616457 0.034787007
0000a0 ba 75 b7 3c bc c0 04 3d 58 90 10 bd 0d 17 0f bd
       0.022395004 0.03241037 -0.035293907 -0.034934092
0000b0 dd 76 13 3d 3c e2 0f bd cc 3b 0d bd 84 bc 11 3d
       0.03600203 -0.035127863 -0.034480855 0.035580173
0000c0 03 2b 0f 3d da 2c 14 bd de a7 02 bd 70 ec 0f 3d
       0.03495313 -0.036175586 -0.031898372 0.035137594
0000d0 58 33 0d bd f4 37 06 bd 28 d9 0c 3d 21 ef 6a 3c
       -0.034472793 -0.032768205 0.034386784 0.014339239
0000e0 db 9c ad 3c 68 a6 0d bd cc 62 0a 3d be 79 0e 3d
       0.021192959 -0.034582525 0.033785626 0.03478407
0000f0 65 d0 ba 3c ce 01 05 3d af 1b 15 bd 1a 86 10 bd
       0.022804448 0.032472424 -0.036403354 -0.03528414
000100 1a 37 15 3d 0a 59 11 bd d2 c5 0e bd 51 71 13 3d
       0.036429502 -0.035485305 -0.034856625 0.03599674
000110 59 f1 0e 3d d5 17 13 bd f0 95 02 bd 07 3c 10 3d
       0.034898136 -0.0359114 -0.031881273 0.035213497
000120 ac e7 0f bd 9f 39 08 bd 59 72 0e 3d 32 0e 73 3c
       -0.03513305 -0.033258077 0.03477702 0.014834927
000130 71 e7 9a 3c 6e 40 0e bd e1 67 0b 3d 99 cd 10 3d
       0.018909188 -0.034729414 0.034034614 0.035352323
000140 5c e2 be 3c 72 1a 06 3d 4e 74 11 bd 17 ba 0e bd
       0.023301296 0.032740064 -0.035511307 -0.034845438
000150 d9 15 14 3d 81 44 0f bd d4 db 0c bd 47 70 11 3d
       0.036153648 -0.03497744 -0.034389332 0.035507467
000160 a6 3c 0f 3d 8f 2a 11 bd 74 4c 02 bd 12 e5 0f 3d
       0.03496995 -0.035440978 -0.031811193 0.035130568
000170 56 4b 0e bd 7b 14 07 bd 2b 21 0d 3d 52 a2 4a 3c
       -0.034739815 -0.032978516 0.03445546 0.012367802
000180 5e 3d b0 3c 89 4a 0e bd 58 71 0a 3d 0f 5a 0e 3d
       0.021513637 -0.03473905 0.0337995 0.034753855
000190 a1 ee be 3c 13 03 07 3d 14 40 11 bd a1 9f 0f bd
       0.023307147 0.032961916 -0.0354615 -0.035064343
0001a0 a7 4b 16 3d ac 0b 10 bd 27 7d 0d bd 4f 85 15 3d
       0.03669324 -0.03516738 -0.034543183 0.036504086
0001b0 bf 6b 0e 3d 36 54 11 bd 46 26 01 bd 2f 9c 10 3d
       0.034770723 -0.0354807 -0.03153064 0.0353052
0001c0 4f 0c 0e bd f3 b9 07 bd d4 45 0d 3d 39 62 43 3c
       -0.034679707 -0.03313632 0.03449042 0.011925274
0001d0 f0 d9 9c 3c d4 24 0e bd e7 c4 0a 3d 65 d5 0f 3d
       0.01914689 -0.03470309 0.033879187 0.03511562
0001e0 4f 2d c7 3c ee c8 01 3d fc d3 10 bd cb 4f 0f bd
       0.024313597 0.031685762 -0.035358414 -0.034988206
0001f0 54 36 16 3d 9b f7 11 bd 14 31 0e bd be 2b 12 3d
       0.036672905 -0.035636526 -0.034714773 0.035686247
000200 9b 4d 0e 3d de b8 11 bd 88 2e 02 bd 62 86 10 3d
       0.03474198 -0.035576694 -0.031782657 0.035284407
000210 9d 68 0d bd 2e 8f 07 bd e2 cd 0d 3d 77 94 75 3c
       -0.034523595 -0.03309553 0.034620173 0.01498901
000220 7f d7 b9 3c b1 fc 0e bd 8b 45 0b 3d 36 fb 0e 3d
       0.022685764 -0.034908954 0.03400187 0.034907542
000230 83 cf c2 3c bf d5 06 3d 74 e6 10 bd 71 b4 11 bd
       0.02378059 0.032918688 -0.035376027 -0.035572473
000240 7e 5b 13 3d ca 50 11 bd 16 16 0e bd 53 b9 11 3d
       0.035975926 -0.035477437 -0.03468903 0.03557713
000250 70 e3 10 3d a0 73 13 bd d6 21 00 bd da b2 12 3d
       0.03537315 -0.03599894 -0.03128227 0.035815097
000260 b2 39 0f bd c3 99 07 bd e6 f2 0c 3d ef 71 68 3c
       -0.034967132 -0.033105623 0.034411334 0.01418732
000270 d6 3f b3 3c 80 21 0f bd 54 73 08 3d f0 21 10 3d
       0.021881025 -0.034944057 0.03331311 0.035188615
000280 e0 80 c7 3c a5 dd 05 3d 2b 89 13 bd ec 90 0f bd
       0.024353445 0.03268208 -0.036019485 -0.035050318
000290 c2 da 14 3d 13 dc 10 bd 2b a0 0d bd dc 65 12 3d
       0.036341436 -0.03536613 -0.034576576 0.035741672
0002a0 8b b7 0f 3d 61 41 13 bd e7 49 03 bd 47 98 10 3d
       0.03508715 -0.035951022 -0.0320529 0.035301473
0002b0 7e a7 0d bd 95 6e 07 bd e9 68 0d 3d 44 94 56 3c
       -0.03458356 -0.033064444 0.03452388 0.013096873
0002c0 c4 a5 b8 3c ff ee 0d bd 80 01 0b 3d 0f 00 0f 3d
       0.02253998 -0.034651753 0.033936977 0.034912165
0002d0 2f a3 ab 3c 0d de 03 3d fc 2c 10 bd 3e cb 0e bd
       0.020951835 0.032194186 -0.03519915 -0.034861796
0002e0 b6 46 16 3d d5 c4 0f bd 57 42 0d bd 27 ec 13 3d
       0.03668853 -0.035099823 -0.034487095 0.036113884
0002f0 1c 1c 0c 3d 26 74 0d bd ff 9b fb bc e6 e2 0e 3d
       0.034206495 -0.034534596 -0.030714033 0.034884356
000300 35 d4 0c bd b0 78 02 bd 6c 75 0c 3d 12 8b 46 3c
       -0.034382064 -0.031853378 0.03429167 0.012118118
000310 d2 1c b1 3c ba 03 0d bd 60 3f 08 3d 45 2b 0e 3d
       0.021620188 -0.034427382 0.033263564 0.034709234
000320 4d a8 bb 3c 06 d0 03 3d 8a 69 10 bd f0 98 0f bd
       0.0229074 0.03218081 -0.0352569 -0.035057962
000330 de f6 13 3d 78 88 10 bd a3 a5 0c bd ce 96 13 3d
       0.036124103 -0.035286397 -0.03433765 0.03603249
000340 cd 00 0e 3d 44 05 11 bd ce 3f 02 bd b0 35 0f 3d
       0.034668732 -0.035405412 -0.03179913 0.03496331
000350 ea 11 0d bd 88 42 07 bd 1e 7b 0c 3d 77 25 7e 3c
       -0.034440912 -0.033022434 0.0342971 0.015511862
000360 a9 42 b3 3c 5c 28 0d bd da 84 0a 3d 48 59 0e 3d
       0.021882372 -0.034462318 0.033818103 0.034753114
000370 16 7a be 3c f5 9a 07 3d 8d b5 13 bd fc 2e 12 bd
       0.023251574 0.033106763 -0.036061812 -0.03568934
000380 de c0 1c 3d 59 15 16 bd b2 2a 10 bd 5a bb 1d 3d
       0.03826987 -0.036641452 -0.035196967 0.03850875
000390 57 54 13 3d bd 96 14 bd 8f 90 04 bd aa 6b 12 3d
       0.035969105 -0.036276568 -0.032364424 0.035747208
0003a0 50 0c 12 bd 98 8d 0a bd 34 d4 10 3d 45 1a 82 3c
       -0.035656273 -0.03382644 0.035358623 0.015881667
0003b0 ca 12 c0 3c 45 7f 10 bd 6c ad 0d 3d da a7 13 3d
       0.02344646 -0.035277624 0.034589216 0.036048748
0003c0 c8 94 cb 3c 1b 78 0d 3d c6 ef 1a bd 79 c7 18 bd
       0.024851218 0.03453837 -0.037826322 -0.037299607
0003d0 74 9f 1b 3d 8d 3f 1c bd af 18 15 bd 69 e4 19 3d
       0.037993863 -0.038146544 -0.036400493 0.037571345
0003e0 66 8d 16 3d ef c8 21 bd 43 26 0a bd 5d e7 17 3d
       0.03675594 -0.039498266 -0.033727895 0.03708588
0003f0 80 74 17 bd e8 4e 0f bd b7 f1 16 3d 29 fc 88 3c
       -0.036976337 -0.03498736 0.03685161 0.016721802

fc.bias f4 [90]
000000 d4 05 89 3d 66 38 8f 3d 28 fc 8c 3d e6 e5 88 3d
       0.06690565 0.06993179 0.068840325 0.06684475
000010 f5 2b 8d 3d 00 18 8e 3d d8 a8 88 3d 4e 31 88 3d
       0.0689315 0.069381714 0.066728294 0.06650029
000020 3d db 88 3d 7f a3 99 3d 7c ac 90 3d 4f 60 71 3d
       0.066824414 0.075018875 0.07064149 0.058929738
000030 b2 e3 3b 3d ec d7 88 3d 4a ac 89 3d b2 98 88 3d
       0.045871444 0.06681809 0.06722315 0.06669749
000040 f5 19 7e 3d 27 9c 6f 3d d1 a4 92 3d 35 f2 92 3d
       0.062036473 0.058498528 0.071603425 0.071751036
000050 00 0f 8a 3d 9f 53 88 3d 8b 8f 8e 3d 7a 76 39 3d
       0.06741142 0.066565745 0.069609724 0.045279004
000060 73 d5 8e 3d 93 53 6b 3d 2b b6 88 3d fe a1 5c 3d
       0.06974306 0.05745275 0.06675371 0.053865425
000070 dd 06 89 3d 52 f4 8c 3d f8 86 8b 3d 44 9d 8a 3d
       0.06690762 0.06882538 0.068128526 0.06768277
000080 96 46 8a 3d 6b 52 8a 3d 17 39 96 3d 8d 74 5a 3d
       0.067517444 0.06754001 0.07335108 0.053333808
000090 9e 7d 88 3d bb 45 8f 3d eb c5 89 3d 5b a5 51 3d
       0.066645846 0.06995722 0.06727203 0.051183086
0000a0 5f 82 90 3d fe 1a 28 3d 4a b8 87 3d 3c ef 90 3d
       0.07056116 0.041041367 0.06626947 0.0707688
0000b0 14 fc 87 3d 92 cc 8c 3d 45 4f 0b 3d 78 5f 49 3d
       0.06639877 0.06874956 0.034011144 0.04916331
0000c0 3a 39 41 3d fb ff 89 3d 3f d3 8a 3d a4 5c 19 3d
       0.047173716 0.067382775 0.06778573 0.037441865
0000d0 e2 16 88 3d 31 d7 88 3d ef 75 8f 3d d3 9c 87 3d
       0.066449896 0.066816695 0.07004916 0.06621709
0000e0 23 5a 92 3d 9e 91 88 3d b4 24 8a 3d f3 bf 96 3d
       0.071460985 0.06668399 0.06745282 0.0736083
0000f0 b8 9f 8a 3d 38 15 49 3d 9f 35 88 3d 5e 79 86 3d
       0.06768745 0.0490925 0.066508524 0.06566118
000100 7e 4a 8c 3d cb a2 8f 3d f4 57 8d 3d fd 3e 89 3d
       0.06850146 0.07013472 0.06901541 0.06701467
000110 11 02 8a 3d 0c 12 89 3d 10 07 87 3d 43 78 5e 3d
       0.067386754 0.06692895 0.06593144 0.05431391
000120 02 79 2b 3d 58 da 87 3d d7 83 83 3d ae 58 8c 3d
       0.04186345 0.06633443 0.06421631 0.06852852
000130 7e 94 92 3d c2 fc 84 3d 6c b7 8e 3d 03 99 87 3d
       0.07157229 0.06493522 0.06968579 0.066209815
000140 e3 dc 39 3d 6f b4 8e 3d 1c a8 55 3d 16 87 8e 3d
       0.04537667 0.06968009 0.052162275 0.06959359
000150 aa cd 8a 3d 70 57 8e 3d 63 b9 9a 3d 98 ee 8d 3d
       0.067775086 0.06950271 0.07554891 0.06930274
000160 d7 d8 8c 3d cb 40 90 3d
       0.068772964 0.07043608
