backend/model/lstm-BKNG-180-.pth (torch, 38860 bytes, 12 tensors)

conv1.weight f4 [2, 4, 3]
3.8493852e-12 4.3330795e-12 1.4232473e-11 2.8581547e-12 3.4483048e-12 -7.433896e-06 9.137309e-05 5.7070886e-09
1.29273744e-11 -2.3114162e-06 3.912629e-12 2.6551152e-06 3.105792e-05 4.3091766e-11 3.5144804e-11 8.461631e-11
5.781396e-11 5.099512e-11 3.243589e-11 8.691056e-11 6.437119e-06 7.513972e-07 1.865545e-05 5.5908157e-11
00000000: 2e70 872c e974 982c 5c61 7a2d f01f 492c
00000010: 23a7 722c ae70 f9b6 8e9f bf38 1518 c431
00000020: b86b 632d d41d 1bb6 d4a9 892c 882e 3236
00000030: 3044 0238 0485 3d2e 8891 1a2e bf12 ba2e
00000040: bb44 7e2e 6747 602e 91a7 0e2e 4c1e bf2e
00000050: 6efe d736 9fb3 4935 467e 9c37 fde2 752e

conv1.bias f4 [2]
8.79701e-12 7.628073e-11
00000000: 36c2 1a2d 3cbe a72e

lstm.weight_ih_l0 f4 [80, 2]
3.125782e-07 1.4325002e-06 2.071795e-18 5.037426e-18 -4.5247456e-10 -1.0884401e-17 7.256666e-20 -8.989752e-15
-2.679463e-08 -2.0942258e-10 4.9118477e-16 8.332124e-16 3.0134078e-14 7.150585e-07 2.9610202e-08 1.2931996e-14
1.9249305e-14 1.988174e-14 4.7740116e-13 1.6200713e-13 2.9870942e-14 2.6341415e-14 -7.538818e-13 3.6285994e-07
2.9901023e-16 1.8606933e-16 3.4424326e-17 3.738346e-17 8.5425774e-17 7.810963e-17 4.7858763e-15 2.7668782e-15
3.430416e-17 7.003286e-10 6.663337e-08 9.433271e-16 -1.5510206e-17 1.661093e-17 -1.2545631e-10 9.511279e-14
3.988971e-17 -6.579004e-17 5.602347e-18 -6.957954e-20 -3.1359536e-11 -3.185632e-08 1.2861552e-11 8.488801e-09
1.4704745e-16 -1.1261437e-08 -1.3528448e-14 6.415592e-16 -3.1085882e-08 -3.2315492e-07 3.8263673e-14 -5.104424e-09
-9.173067e-10 -1.5016169e-09 2.9117797e-13 1.2540914e-13 1.5414714e-14 2.2074399e-14 -8.3354445e-07 3.064671e-17
2.5798337e-09 3.2557792e-16 -3.738372e-18 3.4996186e-12 -1.7167943e-07 7.496521e-17 -5.5791222e-11 2.9833705e-15
1.09482536e-16 -1.8286001e-16 9.004628e-16 5.7406446e-16 3.2991473e-14 1.03848605e-17 4.5771915e-13 2.7076555e-07
-8.8330364e-11 -7.5112874e-11 1.0630009e-06 2.151624e-07 -5.5548635e-11 -4.684195e-11 3.97847e-12 -6.47516e-08
-4.0566103e-11 -9.170748e-11 2.8713282e-10 4.4762685e-10 3.7932826e-09 1.1439515e-09 5.392649e-10 1.283686e-06
-9.807751e-08 -6.131332e-10 -7.2734274e-08 -1.0187229e-06 1.393332e-09 7.9551604e-10 -3.4468907e-11 -3.5243035e-09
-2.3492913e-10 -9.8174274e-11 3.639838e-11 2.7968418e-11 1.316738e-09 3.985893e-11 -4.463638e-10 3.7519899e-06
-4.3531115e-10 -4.4819374e-11 -3.6648026e-10 -2.2541959e-10 4.3181583e-11 2.3730677e-11 -1.0095322e-08 -7.84947e-09
4.216687e-13 2.3155788e-08 5.542955e-13 3.22187e-18 -3.9124066e-07 1.4664316e-16 -1.9256303e-15 7.931641e-19
9.6276134e-17 9.4522605e-08 6.2597556e-16 1.3264334e-09 3.2166408e-14 1.9455373e-14 2.1930472e-14 -1.1848613e-06
1.4255026e-14 -6.2296636e-13 4.775984e-13 8.3271573e-13 1.1178277e-13 1.9668025e-14 5.453919e-17 4.348801e-17
-5.005112e-13 1.8013908e-16 9.849889e-15 7.25502e-18 8.481992e-17 8.3167485e-17 5.384559e-15 8.9236336e-15
2.613934e-16 -2.4100473e-07 5.7864925e-11 7.9155165e-16 2.1091102e-17 7.725884e-07 -1.3241191e-07 1.6600739e-13
00000000: 6cd0 a734 5544 c035 1adf 1822 25d9 b922
00000010: 22c0 f8af 21c8 48a3 db57 ab1f eaf1 21a8
00000020: 042a e6b2 3743 66af 0a93 0d26 3928 7026
00000030: 3ab6 0729 72f2 3f35 8659 fe32 4ef6 6828
00000040: e061 ad28 2c14 b328 6160 062b 6067 362a
00000050: da86 0629 2b43 ed28 e932 54ab 17cf c234
00000060: 1f5e ac25 f985 5625 12c1 1e24 9a66 2c24
00000070: 7afa c424 ca1b b424 eb6d ac27 e55f 4727
00000080: 3433 1e24 3e81 4030 1518 8f33 a1f2 8726
00000090: 700e 8fa3 7335 9923 d0f0 09af ca2c d629
000000a0: 75f5 3724 96b3 97a4 acb0 ce22 404a a49f
000000b0: b3eb 09ae 65d2 08b3 4843 622d 24d6 1132
000000c0: bf88 2925 5378 41b2 f4b4 73a8 b7ea 3826
000000d0: 4a83 05b3 137e adb4 0353 2c29 fd62 afb1
000000e0: b825 7cb0 7361 ceb0 2beb a32a b932 0d2a
000000f0: e9d7 8a28 19d4 c628 bdc0 5fb5 4055 0d24
00000100: ea48 3131 d2ae bb25 edeb 89a2 8643 762c
00000110: e256 38b4 a6db ac24 555f 75ae 79f9 5627
00000120: 1573 fc24 c0d2 52a5 37c5 8126 7b76 2526
00000130: 9494 1429 1e91 3f23 24d6 002b bc5d 9134
00000140: 933d c2ae ca2c a5ae 6fac 8e35 6407 6734
00000150: 344e 74ae 5903 4eae dffa 8b2c 920d 8bb3
00000160: 5f69 32ae b9aa c9ae 5ada 9d2f e115 f62f
00000170: 1156 8231 3739 9d30 653b 1430 1d4b ac35
00000180: ae9e d2b3 6a89 28b0 1732 9cb3 0dbb 88b5
00000190: 837f bf30 77ab 5a30 8a98 17ae 3430 72b1
000001a0: 5627 81af 34e3 d7ae ef14 202e 4703 f62d
000001b0: 9af8 b430 2a4d 2f2e 1f64 f5af b2ca 7b36
000001c0: 9950 efaf 211e 45ae 8379 c9af f9d9 77af
000001d0: 24ea 3d2e bcbc d02d b26f 2db2 56da 06b2
000001e0: dd60 ed2a 1ee8 c632 3305 1c2b 67bb 6d22
000001f0: b50b d2b4 6c11 2925 9cc1 0aa7 c919 6a21
00000200: 66ff dd24 5afc ca33 d86c 3426 ba4d b630
00000210: 58dd 1029 093d af28 3a88 c528 8607 9fb5
00000220: da65 8028 7559 2fab 976e 062b 7e63 6a2b
00000230: 61b6 fb29 6127 b128 8384 7b24 958d 4824
00000240: a2e1 0cab acaf 4f25 9870 3128 ddd4 0523
00000250: d894 c324 6bc5 bf24 caff c127 ffc0 2028
00000260: dbae 9625 7063 81b4 1d7e 7e2e 3426 6426
00000270: f587 c223 df63 4f35 1c2d 0eb4 5fe8 3a2a

lstm.weight_hh_l0 f4 [80, 20]
5.3521005e-18 2.1517978e-15 -7.038217e-09 9.4725564e-20 -1.4151062e-17 5.162651e-10 5.7218115e-17 3.6193172e-17
-5.3198997e-11 -1.6432306e-16 5.0794938e-17 -3.101672e-07 -6.1673615e-18 -3.8452352e-08 -6.2199823e-09 5.2707654e-17
-3.7731207e-18 -1.20280374e-17 4.2960217e-19 -1.1274179e-16 1.07487515e-14 2.9968635e-07 1.7454956e-06 4.5684e-16
-8.0937174e-20 4.8291954e-18 3.1691303e-18 2.7062293e-18 -2.8070498e-18 -1.6720315e-17 3.707054e-15 -1.3628765e-19
5.9092446e-07 1.1599267e-19 1.9110549e-19 -1.5523029e-18 -1.3931504e-19 1.8532743e-17 -2.3897906e-08 -1.0433556e-17
6.4199455e-08 1.7432557e-19 -6.268415e-07 -8.212601e-15 -1.5515203e-17 8.518123e-15 1.7939471e-17 -3.8095153e-16
2.4349278e-08 -9.256287e-17 1.3696884e-17 -3.539014e-19 -1.5658577e-18 4.14539e-15 9.144562e-19 -7.02056e-18
-8.2570766e-19 -2.9395017e-18 -6.509357e-07 -3.8709035e-17 -6.861326e-20 -2.7330227e-15 1.3018361e-20 -1.3077448e-21
-6.1631866e-21 2.0078182e-20 -1.1709029e-06 -1.3967388e-11 4.205172e-09 -4.939818e-19 1.6811589e-19 3.6157937e-09
4.0036992e-16 -1.6631554e-06 1.0404963e-20 -1.0591367e-08 7.261897e-17 2.7193656e-21 -2.7236315e-21 -1.7078694e-08
-1.6486017e-18 6.9616813e-19 -1.1753301e-16 1.2341967e-07 -4.1166952e-11 -1.3289225e-15 -3.8976594e-08 7.4844784e-17
-6.2970004e-17 1.661943e-08 7.483956e-17 1.0654105e-14 -1.9987704e-11 8.96094e-19 1.0893469e-11 -2.1652194e-17
-3.807721e-18 -7.731889e-18 2.5274772e-18 2.4548597e-12 -2.5055142e-17 -1.7388981e-08 -1.478522e-17 -2.0669591e-10
-1.9904136e-17 -8.979769e-07 5.896991e-16 1.0616057e-10 -8.23919e-08 3.6294205e-07 6.4069196e-16 -1.4152523e-17
-6.611546e-17 8.55849e-18 4.823414e-17 -2.2472663e-16 -3.9707383e-17 -1.3115082e-16 -4.674304e-09 -1.2734213e-15
-1.3645567e-15 1.8136905e-16 4.642918e-16 -2.8542184e-09 -4.424461e-10 3.5171125e-15 1.6331778e-14 1.5784157e-14
2.7766125e-09 1.5062734e-07 2.6736249e-09 -4.6430386e-16 4.5407653e-13 5.09197e-16 1.6949083e-07 6.7063667e-07
-9.225883e-16 -2.4068714e-15 4.757855e-16 -2.6074408e-14 4.0312596e-08 1.0901815e-16 -3.7994198e-16 -2.5044937e-08
-6.341438e-16 1.7497182e-15 1.7248801e-14 2.8142539e-08 -1.4085809e-09 -2.2786752e-14 1.0859921e-14 -5.6113466e-16
4.7318582e-07 -1.3245399e-09 6.2434985e-08 1.628084e-13 -6.4338325e-16 -1.8412046e-15 2.6499685e-16 -2.2312957e-14
-6.8682445e-16 1.733101e-16 -3.1202182e-16 4.9829668e-17 -6.023606e-16 2.5990992e-15 1.5608283e-14 -6.310172e-08
-1.345212e-14 -2.08242e-14 1.7565729e-14 -4.835738e-16 -3.0018956e-15 3.389985e-16 4.8080475e-16 -2.5417467e-08
2.3127598e-08 -4.739287e-15 7.6278724e-07 8.8739194e-10 3.5388933e-07 -8.422544e-10 6.5158604e-13 9.103284e-16
-3.9811088e-13 4.0181312e-14 -1.1902904e-08 1.9714947e-13 -2.0991954e-13 -2.7080551e-12 3.067713e-13 -1.9970998e-15
8.267364e-12 -6.275277e-09 -2.627812e-07 -2.2585789e-13 3.115988e-11 -4.9175348e-14 3.3986054e-15 -7.806652e-13
-8.304155e-16 -1.2092238e-14 -6.239025e-16 5.554295e-17 5.5032632e-14 1.1831051e-15 -3.295952e-10 2.1260136e-14
-3.5160084e-14 -1.6998097e-13 2.3355738e-14 -2.4130807e-11 -4.1953627e-15 9.181653e-16 6.3101435e-15 -8.348313e-15
-1.2637222e-15 -3.8533566e-15 -2.751822e-10 -1.11708684e-13 -2.032459e-18 6.0511426e-19 -3.299905e-08 5.220606e-20
-1.0680434e-18 8.05204e-18 -2.720544e-08 2.981246e-17 5.782113e-18 1.6844896e-06 -8.827358e-11 -6.4122545e-19
1.1812153e-17 -2.4162028e-16 -9.937871e-08 -1.19988355e-17 -6.7424126e-13 -6.0182233e-15 4.6156735e-19 3.1115477e-16
-7.601525e-18 3.3247228e-18 -2.999358e-18 -2.5200185e-07 -6.7373822e-15 2.9533375e-17 -6.8693017e-13 1.4735634e-08
-3.3808613e-16 -5.456945e-16 -7.124568e-11 -5.696632e-18 -1.3503667e-17 3.534799e-18 -1.5966589e-06 -8.827185e-17
00000000: 2975 c522 aa0d 1b27 d0d4 f1b1 17aa df1f
00000010: 4085 82a3 ede8 0d30 9def 8324 5be9 2624
00000020: bff8 69ae 9b73 3da5 1440 6a24 0e85 a6b4
00000030: 1589 e3a2 cf26 25b3 8bb7 d5b1 3712 7324
00000040: 1e34 8ba2 cde0 5da3 a597 fd20 81fb 01a5
00000050: dea1 4128 94e4 a034 c646 ea35 d8ac 0326
00000060: 851b bf9f 762a b222 2ed7 6922 3aaf 4722
00000070: ac1f 4fa2 ba37 9aa3 8a8f 8527 6ae6 20a0
00000080: 05a0 1e35 a2f0 0820 179e 6120 5814 e5a1
00000090: 6379 24a0 34ef aa23 0d48 cdb2 1377 40a3
000000a0: 06de 8933 acce 4d20 3844 28b5 f0f1 13a8
000000b0: 3d1a 8fa3 e972 1928 6176 a523 869a dba5
000000c0: a128 d132 796f d5a4 b5a9 7c23 11e8 d0a0
000000d0: 6e14 e7a1 795a 9527 2ef3 8621 a881 01a3
000000e0: b5b4 73a1 9ee5 58a2 f6bb 2eb5 9083 32a4
000000f0: 2c02 a29f 5fef 44a7 eee8 751e ed9e c59c
00000100: afd6 e89d 11a2 bd1e eb27 9db5 86b7 75ad
00000110: 167d 9031 36cc 11a1 e979 4620 b779 7831
00000120: 2ccc e625 9639 dfb5 508b 441e 53f5 35b2
00000130: ac72 a724 2e78 4d1d b2ca 4d9d 72b4 92b2
00000140: 694a f3a1 fa78 4d21 9f81 07a5 5785 0434
00000150: de0d 35ae 9684 bfa6 3867 27b3 9094 ac24
00000160: ee32 91a4 83c2 8e32 7b91 ac24 63ed 3f28
00000170: 4fd0 afad 793d 8421 d3a3 3f2d ccb4 c7a3
00000180: e87a 8ca2 d0a0 0ea3 b27e 3a22 d2be 2c2c
00000190: c817 e7a3 c65e 95b2 9d5e 88a3 ba43 63af
000001a0: 5095 b7a3 810c 71b5 1df8 2926 1773 e92e
000001b0: 6def b0b3 60da c234 b9aa 3826 b388 82a3
000001c0: ae73 98a4 54e0 1d23 d270 5e24 cc8b 81a5
000001d0: 341e 37a4 e434 17a5 9d9b a0b1 f484 b7a6
000001e0: 42a7 c4a6 b21a 5125 b0d2 0526 f123 44b1
000001f0: c13c f3af 466f 7d27 841a 9328 ca2b 8e28
00000200: afce 3e31 21bc 2134 e8ba 3731 94d3 05a6
00000210: 539f ff2a 1bc4 1226 49fd 3534 cd05 3435
00000220: 80f5 84a6 f16e 2da7 c622 0926 7edb eaa8
00000230: 2b24 2d33 f560 fb24 8a05 dba5 6622 d7b2
00000240: 8ec7 36a6 3529 fc26 075d 9b28 19be f132
00000250: 0998 c1b0 ac3e cda8 8ca2 4328 6ebc 21a6
00000260: 2a0a fe34 1b0b b6b0 ff13 8633 544e 372a
00000270: 4e71 39a6 3bac 04a7 a2c2 9825 2dfa c8a8
00000280: b3f6 45a6 1dd0 4725 4bde b3a5 7dcc 6524
00000290: 5e9e 2da6 eb48 3b27 4096 8c28 8a82 87b3
000002a0: f454 72a8 5691 bba8 d037 9e28 7361 0ba6
000002b0: 334f 58a7 596b c325 2195 0a26 9a55 dab2
000002c0: 20aa c632 35c0 aaa7 57c2 4c35 a8ec 7330
000002d0: 2efe bd34 6284 67b0 b967 372b 3131 8326
000002e0: d31d e0aa e6f5 3429 877d 4cb2 77f8 5d2a
000002f0: 3059 6caa fc8f 3eac 67b2 ac2a fde7 0fa7
00000300: e670 112d ec9d d7b1 6014 8db4 1b4b 7eaa
00000310: e80a 092e 5177 5da9 34e5 7427 dbbc 5bab
00000320: d959 6fa6 9bd5 59a8 e1d3 33a6 c512 8024
00000330: 4ed8 7729 e080 aa26 6732 b5af 897e bf28
00000340: d158 1ea9 ae61 3faa aa5e d228 bf41 d4ad
00000350: 6427 97a7 5252 8426 cd58 e327 cc63 16a8
00000360: 1f1f b6a6 f1d4 8aa7 7448 97af ac8b fba9
00000370: 11f8 15a2 2499 3221 d7ba 0db3 4189 761f
00000380: 8a9d 9da1 af88 1423 65b1 e9b2 577c 0924
00000390: 8352 d522 9f16 e235 9c1d c2ae a041 3da1
000003a0: 51e5 5923 dc48 8ba5 066a d5b3 e656 5da3
000003b0: 34c8 3dab 50d4 d8a7 0b3b 0821 575e b325
000003c0: 3039 0ca3 3d52 7522 4550 5da2 df4a 87b4
000003d0: 62bd f2a7 db32 0824 895a 41ab 0128 7d32
000003e0: b5e4 c2a5 2649 1da6 c1ab 9cae 2b2b d2a2
000003f0: 4419 79a3 3c69 8222 c84c d6b5 818a cba4

lstm.bias_ih_l0 f4 [80]
2.915236e-12 2.362392e-13 4.9242094e-13 2.7186798e-07 1.1752693e-09 1.7513958e-08 4.160664e-10 6.381414e-10
4.86148e-10 2.0597442e-06 6.1153593e-10 9.249861e-13 4.7655664e-12 4.5435387e-13 3.5541418e-12 1.264898e-10
3.4637126e-12 2.5997836e-11 3.5353293e-13 6.101155e-09 3.93311e-12 9.377826e-14 4.171202e-13 5.957488e-15
1.929703e-12 1.7592448e-11 4.177445e-10 1.6689629e-06 4.4279666e-10 1.9728727e-08 1.2042943e-09 7.248916e-13
1.3784062e-11 3.9281725e-09 1.8068417e-12 9.620925e-11 4.0199766e-12 1.9348927e-11 5.017594e-13 6.067903e-09
-1.6234103e-06 3.444965e-07 -7.264886e-07 6.2433735e-08 -1.6512384e-06 6.936067e-06 3.2492113e-05 1.0218741e-05
-1.6877451e-05 -8.435675e-05 2.5616471e-05 -9.834021e-07 -4.7542785e-06 6.343211e-07 1.0895096e-06 -2.0261126e-05
-1.9450802e-06 -7.816684e-06 5.9511905e-07 -0.000104860075 1.8759412e-12 5.747756e-07 4.565293e-13 4.705965e-14
1.3157836e-12 1.470154e-11 4.8662685e-10 7.097709e-10 2.1026096e-09 8.449046e-09 5.298235e-10 8.407459e-13
3.4256088e-12 6.322506e-13 2.6406052e-12 8.717114e-11 6.324891e-12 7.349587e-11 2.737495e-13 6.365348e-09
00000000: 3924 4d2c a8fd 842a ab9a 0a2b 40f5 9134
00000010: 1d87 a130 9a71 9632 24bc e42f 3569 2f30
00000020: a0a1 0530 233a 0a36 0419 2830 232e 822b
00000030: 68ac a72c 4bc7 ff2a ba19 7a2c b713 0b2f
00000040: b3bc 732c ecad e42d 7705 c72a 54a2 d131
00000050: 4e62 8a2c 7c2b d329 5bd1 ea2a 21a4 d627
00000060: 70ca 072c acbe 9a2d 50a8 e52f 2101 e035
00000070: 176e f32f ee77 a932 5784 a530 f209 4c2b
00000080: e67d 722d 92f8 8631 554a fe2b fe90 d32e
00000090: bb70 8d2c e931 aa2d 933b 0d2b d77d d031
000000a0: f4e3 d9b5 3df3 b834 eb03 43b5 4f13 8633
000000b0: 1fa0 ddb5 5dbc e836 2448 0838 2971 2b37
000000c0: 0d94 8db7 afe8 b0b8 f4e2 d637 70fd 83b5
000000d0: f186 9fb6 3746 2a35 443b 9235 70f6 a9b7
000000e0: 3988 02b6 6724 03b7 45c0 1f35 53e8 dbb8
000000f0: f401 042c 474a 1a35 6780 002b 15f0 5329
00000100: 1a2e b92b ed50 812d 52c3 0530 b019 4330
00000110: 807d 1031 4c27 1132 04a3 1130 20a6 6c2b
00000120: 480e 712c 75f6 312b ead0 392c fdb0 bf2e
00000130: 8e89 de2c 7f9e a12e 761b 9a2a 31b6 da31

lstm.bias_hh_l0 f4 [80]
2.2577261e-12 2.9073579e-11 9.96741e-07 -1.1291299e-11 2.8272057e-12 1.9641417e-11 -1.2642732e-06 3.3063782e-10
1.2637966e-09 2.3478854e-06 -1.1605439e-06 7.212229e-13 1.09206515e-11 4.0710154e-13 1.3161785e-12 4.2120143e-09
2.7763933e-12 7.742286e-11 3.8970205e-13 2.7521356e-09 1.9423148e-12 7.47947e-07 -2.1459292e-09 -8.9169987e-07
1.2172528e-12 2.4456206e-11 2.9512237e-09 3.6065503e-10 4.2546314e-10 1.765423e-08 1.0705401e-09 1.0189897e-12
4.5820747e-12 6.9298744e-13 1.6815343e-12 7.667983e-11 2.4207207e-12 1.9594845e-11 3.2548177e-13 2.138428e-09
-1.3694312e-06 3.5150327e-07 -7.187262e-07 6.729837e-08 -1.1269334e-06 3.594388e-06 2.445653e-05 4.5912373e-05
-4.7302467e-05 -0.00016475611 5.0183546e-05 -8.4542603e-07 -1.493251e-06 7.107271e-07 2.7354354e-06 -7.667033e-06
-1.9630345e-06 -4.1174167e-06 4.410529e-07 -5.2277213e-05 2.19488e-12 -3.178997e-07 4.104723e-13 4.073461e-15
2.6230693e-12 1.8642433e-11 -1.9116573e-07 6.1588894e-09 9.894319e-10 6.0987024e-09 7.70441e-10 8.2429766e-13
-2.1596513e-08 -9.006946e-07 2.2968834e-12 1.15693934e-10 3.8760098e-12 1.9889498e-11 -1.2477583e-11 1.8874708e-09
00000000: 94df 1e2c e1bb ff2d c3c7 8535 7da3 46ad
00000010: 69f2 462c 8ac4 ac2d 19b0 a9b5 23c5 b52f
00000020: e4b1 ad30 5d90 1d36 fcc3 9bb5 9601 4b2b
00000030: 3e1e 402d 842d e52a 543c b92b 45b9 9031
00000040: 0e5f 432c 3241 aa2e fc61 db2a 1520 3d31
00000050: a2ad 082c 87c6 4835 9677 13b1 265d 6fb5
00000060: 2750 ab2b 7b1e d72d 7ace 4a31 af45 c62f
00000070: 9de6 e92f 10a6 9732 4822 9330 f968 8f2b
00000080: a937 a12c 020f 432b a8a7 ec2b e89e a82e
00000090: d457 2a2c ab5b ac2d de3a b72a a0f3 1231
000000a0: 4ccd b7b5 3eb6 bc34 7dee 40b5 ac85 9033
000000b0: 2341 97b5 1e37 7136 0028 cd37 0992 4038
000000c0: a366 46b8 62c2 2cb9 2c7c 5238 3cf1 62b5
000000d0: b76b c8b5 cbc8 3e35 6c92 3736 a8a1 00b7
000000e0: adbc 03b6 5728 8ab6 d9c9 ec34 3b44 5bb8
000000f0: 7173 1a2c cdab aab4 4b13 e72a 0cc3 9227
00000100: 0495 382c 07fb a32d 3c43 4db4 2a9e d331
00000110: 8afc 8730 c18c d131 f7c6 5330 e804 682b
00000120: 3c83 b9b2 43c7 71b5 f9a0 212c e569 fe2e
00000130: fe5f 882c 2bf3 ae2d 0a82 5bad bdb4 0131

lstm.weight_ih_l1 f4 [80, 20]
-6.549423e-08 9.354317e-08 -3.1626403e-08 3.4994228e-09 -1.0498067e-07 6.4695286e-07 2.3156588e-06 1.2408667e-06
-1.6381832e-06 -7.874036e-06 1.7915511e-06 -9.446736e-08 -1.726368e-07 5.6484712e-08 1.3310252e-07 -1.5261035e-06
-1.14011826e-07 -2.7425938e-07 5.1020965e-07 -1.1221827e-05 -6.502883e-08 2.2831722e-08 -1.4635374e-07 -2.631214e-09
-7.430559e-08 2.613185e-07 1.7599903e-06 2.4280832e-06 -1.5090412e-06 -5.490786e-06 2.2742481e-06 -4.2060922e-08
-1.3909325e-07 3.1045026e-08 9.99703e-08 -6.8286613e-07 -6.291146e-07 -2.9223216e-07 3.4305582e-08 -6.318532e-06
-1.3059022e-07 1.57289e-08 -1.176415e-07 3.7630903e-09 -6.2006144e-08 2.4609864e-07 3.0704682e-06 1.2503074e-06
-1.6330786e-06 -6.402735e-06 2.5758416e-06 -1.7990651e-06 -1.9247476e-07 1.3139478e-07 9.5928854e-08 -6.246587e-07
-9.0321726e-07 -2.6491503e-07 2.7425484e-08 -4.69746e-06 7.0601243e-07 1.6295264e-08 -5.8187317e-07 2.3527311e-09
-2.3527043e-07 2.8951274e-07 3.5910864e-06 1.7208736e-06 -1.4417284e-06 -1.309178e-05 1.68899e-06 -1.2714193e-07
-1.8250645e-07 4.9254844e-08 8.0052524e-07 -7.9855243e-07 -9.062158e-08 -3.139212e-07 3.2669413e-07 -3.4850689e-06
-7.1977816e-08 1.6242122e-08 -2.0495986e-07 3.0436065e-09 -1.2744394e-07 6.653388e-07 1.4100171e-06 1.259922e-06
-2.9053156e-06 -7.448878e-06 2.6603807e-06 -1.13236e-07 -1.4294918e-07 2.7348772e-08 1.0080209e-07 -7.1216294e-07
-9.776102e-08 -4.134482e-07 2.6192026e-08 -3.723642e-06 -6.520255e-08 1.7051605e-08 -2.490331e-08 3.0433724e-09
-6.6772394e-08 2.3053997e-07 1.3772751e-06 2.3554771e-06 -1.7399198e-06 -7.882068e-06 1.8003202e-06 -3.2647844e-08
-1.663564e-07 2.9832915e-08 7.40362e-07 -5.856348e-07 -2.3055212e-07 -3.5427752e-07 2.8779903e-08 -5.166007e-06
-6.5299005e-08 1.5342012e-08 -1.1342839e-07 5.5537304e-09 -6.7257204e-08 3.766511e-07 1.2641589e-06 1.2184386e-06
-1.8570421e-06 -6.677943e-06 3.5539442e-06 -3.8616733e-08 -1.1338752e-07 3.144268e-08 8.850995e-08 -7.584581e-07
-3.2498588e-07 -2.5037457e-06 2.2449143e-08 -4.079906e-06 -1.12872996e-07 4.095446e-08 -3.382108e-08 4.3600124e-09
-6.375145e-08 2.2950441e-07 2.5732304e-06 1.3024068e-06 -1.4692015e-06 -5.8154014e-06 2.3783043e-06 -4.089945e-08
-2.0562928e-07 4.212545e-07 9.538879e-08 -9.669311e-07 -2.5342334e-07 -7.969579e-07 2.2646036e-08 -6.1517176e-06
-1.3292517e-07 1.6083154e-08 -3.1540804e-08 5.292225e-09 -6.35346e-08 2.2725722e-07 1.3758141e-06 1.3111908e-06
-2.0678124e-06 -6.10193e-06 1.9074037e-06 -4.950428e-08 -3.824242e-07 3.10875e-08 8.890977e-08 -1.1392867e-06
-2.3253807e-07 -3.1642236e-07 2.5036519e-08 -3.504104e-06 -1.335976e-07 1.3831511e-08 -4.487851e-08 5.704992e-09
-9.414754e-08 3.5018465e-07 4.1179355e-06 5.1533034e-06 -3.508145e-06 -8.115736e-06 4.5777488e-06 -1.0316751e-07
-1.3870122e-07 2.2032362e-08 8.297581e-08 -1.103276e-06 -1.7396914e-07 -7.4590565e-07 1.5643987e-07 -6.233802e-06
-4.651077e-07 7.30117e-08 -3.3032524e-08 3.4122896e-09 -1.0635674e-07 3.162791e-07 2.462099e-06 1.7829898e-06
-1.4086295e-06 -7.576832e-06 1.7092767e-06 -5.1040175e-08 -2.2678589e-07 3.293064e-08 8.884384e-08 -6.041477e-07
-5.247874e-07 -2.3545766e-07 2.2984914e-08 -1.0874296e-05 -1.7322198e-07 2.042086e-08 -8.043125e-07 1.2528977e-06
-3.903496e-07 5.771139e-07 2.1195317e-06 1.240382e-06 -1.5360043e-06 -6.003606e-06 3.3262004e-06 -1.0236809e-07
-1.2897475e-07 1.3282609e-07 1.7854427e-07 -6.9133824e-07 -1.0399753e-07 -5.689112e-07 2.524302e-08 -6.208982e-06
-8.56293e-08 3.6727874e-07 -7.1930344e-08 5.6248166e-09 -7.931419e-08 3.7522355e-07 1.2738232e-06 1.3135833e-06
-1.419694e-06 -8.5998445e-06 1.6897397e-06 -5.6809984e-08 -1.6442674e-07 4.1743696e-08 9.398915e-08 -6.2280407e-07
00000000: d5a5 8cb3 e7e1 c833 99d5 07b3 7f7a 7031
00000010: bc71 e1b3 43aa 2d35 b766 1b36 db8b a635
00000020: 8cdf dbb5 ba1a 04b7 3a75 f035 fbdd cab3
00000030: 0b5e 39b4 9999 7233 f1ea 0e34 84d4 ccb5
00000040: aad6 f4b3 ec3d 93b4 57f5 0835 6145 3cb7
00000050: faa5 8bb3 7d1f c432 6925 1db4 ced0 34b1
00000060: ee91 9fb3 574b 8c34 ce38 ec35 27f2 2236
00000070: 438a cab5 7e3d b8b6 499f 1836 79a6 34b3
00000080: a959 15b4 5e56 0533 41af d633 344e 37b5
00000090: 6de0 28b5 15e4 9cb4 6357 1333 c703 d4b6
000000a0: 5e38 0cb4 381c 8732 19a2 fcb3 7e4c 8131
000000b0: 3d28 85b3 8a1f 8434 3e0e 4e36 3cd0 a735
000000c0: 2730 dbb5 13d7 d6b6 9fdc 2c36 6877 f1b5
000000d0: 0fab 4eb4 8615 0d34 7201 ce33 38ae 27b5
000000e0: 9e74 72b5 a539 8eb4 4795 eb32 e09e 9db6
000000f0: ce84 3d35 aaf9 8b32 0532 1cb5 afad 2131
00000100: a59e 7cb4 546e 9b34 65fe 7036 c4f8 e635
00000110: 6981 c1b5 c4a4 5bb7 41b1 e235 8284 08b4
00000120: fef6 43b4 468c 5333 ade3 5635 1b5c 56b5
00000130: be9b c2b3 0089 a8b4 8064 af34 07e1 69b6
00000140: 3992 9ab3 ce84 8b32 f012 5cb4 b127 5131
00000150: 86d7 08b4 bc99 3235 d23f bd35 971a a935
00000160: f1f8 42b6 60f1 f9b6 fe88 3236 262c f3b3
00000170: 927d 19b4 96ec ea32 8978 d833 772b 3fb5
00000180: b0f0 d1b3 e3f7 ddb4 e0fc e032 afe3 79b6
00000190: 7b05 8cb3 e078 9232 f5ea d5b2 9323 5131
000001a0: 8364 8fb3 588a 7734 d0da b835 ca12 1e36
000001b0: 3087 e9b5 393d 04b7 88a2 f135 af38 0cb3
000001c0: b39f 32b4 a321 0033 4abd 4635 8434 1db5
000001d0: af8d 77b4 8833 beb4 ad37 f732 aa57 adb6
000001e0: 823a 8cb3 71c9 8332 eb95 f3b3 21d3 be31
000001f0: 0a6f 90b3 8836 ca34 2bac a935 3b89 a335
00000200: 7b3f f9b5 1813 e0b6 4c80 6e36 8cdb 25b3
00000210: 737f f3b3 980b 0733 dc12 be33 d898 4bb5
00000220: b879 aeb4 0606 28b6 30d6 c032 20e6 88b6
00000230: 9664 f2b3 e8e5 2f33 ac42 11b3 13cf 9531
00000240: bbe7 88b3 b16d 7634 c3af 2c36 5bce ae35
00000250: 6131 c5b5 eb21 c3b6 f59a 1f36 6ca9 2fb3
00000260: f2ca 5cb4 c728 e234 8bd8 cc33 80c7 81b5
00000270: 3d0e 88b4 88ee 55b5 2987 c232 da6a ceb6
00000280: 31ba 0eb4 3b27 8a32 7b77 07b3 e7d6 b531
00000290: 8470 88b3 fd03 7434 9da8 b835 2cfc af35
000002a0: bfc4 0ab6 2ebf ccb6 f200 0036 889e 54b3
000002b0: fb4f cdb4 1185 0533 aaee be33 98e9 98b5
000002c0: 94af 79b4 c2e0 a9b4 e30f d732 0c28 6bb6
000002d0: 0773 0fb4 a19f 6d32 72c0 40b3 a405 c431
000002e0: 282e cab3 0301 bc34 cc2c 8a36 8aea ac36
000002f0: 796d 6bb6 d228 08b7 909a 9936 f08c ddb3
00000300: e7ed 14b4 ad41 bd32 6f30 b233 4614 94b5
00000310: 46cc 3ab4 3f3a 48b5 ddf9 2734 f42b d1b6
00000320: eab3 f9b4 9bca 9c33 a5df 0db3 a27d 6a31
00000330: 3c66 e4b3 12cd a934 8a3a 2536 104f ef35
00000340: 2410 bdb5 7e3c feb6 4d6a e535 4437 5bb3
00000350: 6e82 73b4 9f6f 0d33 6bca be33 b72c 22b5
00000360: 1edf 0cb5 1cd2 7cb4 5c70 c532 bf70 36b7
00000370: e5fe 39b4 f269 af32 efe7 57b5 3d29 a835
00000380: 3e91 d1b4 f7ea 1a35 473d 0e36 337b a635
00000390: b528 ceb5 9572 c9b6 b037 5f36 74d5 dbb3
000003a0: 4f7c 0ab4 f59e 0e34 e0b5 3f34 6794 39b5
000003b0: 3f55 dfb3 48b7 18b5 fdd5 d832 c056 d0b6
000003c0: 35e3 b7b3 682e c534 2078 9ab3 6944 c131
000003d0: 7053 aab3 5572 c934 3bf8 aa35 614e b035
000003e0: 508c beb5 0d48 10b7 04cb e235 3dff 73b3
000003f0: 478d 30b4 ae49 3333 15d7 c933 c52e 27b5

lstm.weight_hh_l1 f4 [80, 20]
-0.02953622 0.029531423 0.029546255 0.029864974 0.029527651 0.029520722 0.02973235 0.029537933
-0.029569145 -0.029542524 -0.029560741 0.029625045 -0.029604767 -0.029530209 0.029534904 0.029570809
-0.029542258 0.0295531 0.029541992 0.029520692 -0.029551297 0.029560642 0.02953995 0.029525254
0.029545862 0.029569928 0.02956102 0.029548764 -0.02952413 -0.029531825 -0.02952072 0.029519625
-0.029532192 -0.02953347 0.029529061 0.029526228 -0.029542781 0.02952819 0.029519854 0.029527886
-0.029537372 0.029532585 0.02955246 0.02959679 0.030263137 0.029545132 0.029524362 0.029524928
-0.029560499 -0.02952642 -0.029539827 0.029568382 -0.029556496 -0.029649612 0.029502584 0.029529087
-0.029540336 0.029568434 0.029524125 0.030533815 -0.029545793 0.02953655 0.029572748 0.029520523
0.029546022 0.029539667 0.02981959 0.029540593 -0.029755138 -0.029521802 -0.029530818 0.02953732
-0.029543072 -0.029533643 0.029543184 0.029563483 -0.029533327 0.029531186 0.030007236 0.030401867
-0.029593978 0.029539632 0.029975176 0.029673569 0.02952787 0.029518804 0.029536782 0.029530182
-0.029530277 -0.029571956 -0.029533885 0.030453179 -0.02955095 -0.029527161 0.029531777 0.029608592
-0.029549554 0.029526856 0.029542673 0.029541207 -0.029637426 0.030380614 0.029552292 0.029536365
0.029537233 0.030307977 0.029532565 0.02957641 -0.029757451 -0.029573588 -0.029537583 0.029538264
-0.029754754 -0.029818943 0.029547166 0.029966999 -0.029629098 0.029530635 0.029582055 0.030399395
-0.029541248 0.0295324 0.029545873 0.030445086 0.029521309 0.029516019 0.029537823 0.029551802
-0.030445408 -0.029565664 -0.029559335 0.029525757 -0.029577043 -0.029552633 0.029524922 0.02954158
-0.029540537 0.029531585 0.029551545 0.029525977 -0.029536562 0.029521776 0.029544141 0.02953852
0.029518407 0.029525379 0.029550519 0.029528974 -0.029588329 -0.029521246 -0.029527532 0.02952736
-0.029539268 -0.02954415 0.029570155 0.029682783 -0.029641714 0.029528653 0.029571123 0.030485686
-0.029572668 0.02960261 0.029547846 0.029582571 0.029521713 0.029524343 0.029551158 0.029562773
-0.030117938 -0.029545324 -0.029528592 0.029528363 -0.029536378 -0.02956065 0.029541323 0.029553091
-0.029586505 0.029527722 0.02954314 0.029513223 -0.029538214 0.029532885 0.029612465 0.030475823
0.030178396 0.030249642 0.029594313 0.029567448 -0.029580418 -0.029973533 -0.029557465 0.029630493
-0.030468049 -0.0295694 0.029545603 0.029647084 -0.029645193 0.02960316 0.029535431 0.029522618
-0.0300681 0.029534351 0.029550148 0.029550336 0.029552745 0.029546674 0.029533396 0.029527858
-0.02957481 -0.030041095 -0.030453987 0.029551715 -0.029540468 -0.0295487 0.03046199 0.029553682
-0.0295991 0.030393668 0.029530108 0.029672615 -0.029525382 0.02953912 0.030144447 0.029518489
0.029526547 0.029540112 0.029531492 0.02954835 -0.029537737 -0.029522752 -0.029530691 0.030257726
-0.029666398 -0.029612795 0.030424844 0.029584732 -0.03041136 0.03018565 0.029526316 0.02954033
-0.029535623 0.029539827 0.029586017 0.029527953 0.029898806 0.02953734 0.029633394 0.029526668
-0.029532358 -0.030455165 -0.029551547 0.029544672 -0.029567238 -0.02953598 0.029551871 0.029566696
00000000: f1f5 f1bc e2eb f13c fd0a f23c 64a7 f43c
00000010: f9e3 f13c 71d5 f13c 4291 f33c 89f9 f13c
00000020: fe3a f2bc 2a03 f2bc 5e29 f2bc 39b0 f23c
00000030: b285 f2bc 56e9 f1bc 2ff3 f13c 7b3e f23c
00000040: 9b02 f2bc 5819 f23c 0c02 f23c 61d5 f13c
00000050: 9015 f2bc 2929 f23c c4fd f13c f2de f13c
00000060: 2a0a f23c a23c f23c f429 f23c 4010 f23c
00000070: 97dc f1bc baec f1bc 70d5 f1bc 24d3 f13c
00000080: 7fed f1bc 2df0 f1bc eee6 f13c fde0 f13c
00000090: b403 f2bc 1ae5 f13c 9fd3 f13c 77e4 f13c
000000a0: 5cf8 f1bc 52ee f13c 0018 f23c f874 f23c
000000b0: 66ea f73c a208 f23c 13dd f13c 43de f13c
000000c0: dc28 f2bc 64e1 f1bc 82fd f1bc 6439 f23c
000000d0: 7720 f2bc bee3 f2bc 67af f13c fce6 f13c
000000e0: 93fe f1bc 8039 f23c 94dc f13c 0d22 fa3c
000000f0: 050a f2bc a3f6 f13c 8c42 f23c 06d5 f13c
00000100: 800a f23c 2cfd f13c 3648 f43c 1dff f13c
00000110: 0cc1 f3bc b5d7 f1bc 9dea f1bc 40f8 f13c
00000120: 5004 f2bc 8af0 f1bc 8c04 f23c 1e2f f23c
00000130: e0ef f1bc 63eb f13c bcd1 f53c 560d f93c
00000140: 126f f2bc 19fd f13c 808e f53c fc15 f33c
00000150: 6ee4 f13c 6bd1 f13c 1ff7 f13c 48e9 f13c
00000160: 7be9 f1bc e340 f2bc 0cf1 f1bc f278 f93c
00000170: d514 f2bc f2e2 f1bc a0ec f13c b88d f23c
00000180: e811 f2bc 4ee2 f13c 7a03 f23c 6700 f23c
00000190: 30ca f2bc c4e0 f83c a617 f23c 3ff6 f13c
000001a0: 11f8 f13c 6f48 f83c 47ee f13c 3a4a f23c
000001b0: e6c5 f3bc 4f44 f2bc cdf8 f1bc 3bfa f13c
000001c0: 3ec0 f3bc db46 f4bc e60c f23c 5a7d f53c
000001d0: b9b8 f2bc 3bea f13c 1156 f23c 2708 f93c
000001e0: 7d00 f2bc efed f13c 300a f23c f967 f93c
000001f0: acd6 f13c 94cb f13c 4ef9 f13c 9f16 f23c
00000200: a668 f9bc b133 f2bc 6b26 f2bc 00e0 f13c
00000210: 8e4b f2bc 5d18 f2bc 40de f13c 2f01 f23c
00000220: fffe f1bc 39ec f13c 1516 f23c 76e0 f13c
00000230: a9f6 f1bc a7d7 f13c 8e06 f23c c4fa f13c
00000240: 96d0 f13c 35df f13c ee13 f23c bfe6 f13c
00000250: 3963 f2bc 8ad6 f1bc b9e3 f1bc 5de3 f13c
00000260: 56fc f1bc 9306 f2bc 1c3d f23c 4f29 f33c
00000270: 2ed3 f2bc 13e6 f13c 243f f23c 1ebd f93c
00000280: 6142 f2bc 2c81 f23c 530e f23c 2657 f23c
00000290: 85d7 f13c 09dd f13c 4515 f23c a12d f23c
000002a0: e5b9 f6bc 0909 f2bc f2e5 f1bc 77e5 f13c
000002b0: 46f6 f1bc 2d29 f2bc a500 f23c 5319 f23c
000002c0: 665f f2bc 1fe4 f13c 7504 f23c b7c5 f13c
000002d0: 20fa f1bc f3ee f13c d795 f23c 6fa8 f93c
000002e0: af38 f73c 19ce f73c c66f f23c 6f37 f23c
000002f0: a252 f2bc 0e8b f5bc 7f22 f2bc a6bb f23c
00000300: 2198 f9bc 873b f2bc 9f09 f23c 71de f23c
00000310: 7ada f2bc 5482 f23c 4af4 f13c 6bd9 f13c
00000320: 6051 f6bc 06f2 f13c 2713 f23c 8c13 f23c
00000330: 9918 f23c de0b f23c 05f0 f13c 68e4 f13c
00000340: df46 f2bc be18 f6bc a47a f9bc 7016 f23c
00000350: dafe f1bc 1e10 f2bc 6c8b f93c 901a f23c
00000360: d079 f2bc 24fc f83c 20e9 f13c fc13 f33c
00000370: 37df f1bc 06fc f13c 7df1 f63c c2d0 f13c
00000380: a8e1 f13c 1bfe f13c 07ec f13c 620f f23c
00000390: 20f9 f1bc b3d9 f1bc 59ea f1bc 0ddf f73c
000003a0: f206 f3bc 8896 f2bc 863d f93c ae5b f23c
000003b0: 3f21 f9bc e547 f73c 2ce1 f13c 90fe f13c
000003c0: b1f4 f1bc 82fd f13c 605e f23c 9be4 f13c
000003d0: 57ee f43c 4bf8 f13c bbc1 f23c e9e1 f13c
000003e0: d8ed f1bc 1c7d f9bc 1616 f2bc ab07 f23c
000003f0: fe36 f2bc 71f5 f1bc c416 f23c db35 f23c

lstm.bias_ih_l1 f4 [80]
0.041231167 0.041193664 0.04117876 0.04123258 0.041204214 0.041267864 0.041219123 0.04119413
0.04136371 0.041415088 0.04148388 0.041184235 0.041204657 0.041528333 0.041197065 0.041195057
0.041342326 0.04118716 0.04119594 0.041207097 0.07949843 0.07948707 0.079473875 0.07965725
0.079528466 0.07951543 0.07949683 0.079518855 0.07950481 0.0795548 0.07951768 0.079509355
0.07954372 0.079573855 0.079511546 0.079486184 0.079512395 0.079537325 0.07958034 0.07952042
-0.07374833 0.073762424 0.07503345 0.07373184 0.0737177 0.073844805 0.07382664 0.073900536
-0.07373046 -0.07361856 -0.07380886 0.07372982 -0.06518051 -0.07376965 0.07374368 0.074545756
-0.07337513 0.07373491 0.07370799 0.07043376 0.09991986 0.099925295 0.1002565 0.099808015
0.09977683 0.09990654 0.09983831 0.09992498 0.099913016 0.099911965 0.099846765 0.09988816
0.100013174 0.09991853 0.099875785 0.09992851 0.09991776 0.099924244 0.09992021 0.09985777
00000000: 03e2 283d b0ba 283d 0fab 283d 7ee3 283d
00000010: c0c5 283d 7e08 293d 62d5 283d 2dbb 283d
00000020: fe6c 293d dea2 293d 00eb 293d cdb0 283d
00000030: 37c6 283d 9d19 2a3d 41be 283d 26bc 283d
00000040: 9256 293d deb3 283d 13bd 283d c6c8 283d
00000050: 13d0 a23d 1eca a23d 33c3 a23d 5723 a33d
00000060: d2df a23d fcd8 a23d 3ccf a23d c8da a23d
00000070: 6bd3 a23d a1ed a23d 2ada a23d cdd5 a23d
00000080: d1e7 a23d 9ef7 a23d f3d6 a23d a7c9 a23d
00000090: 65d7 a23d 77e4 a23d 04fb a23d 9adb a23d
000000a0: 5d09 97bd c110 973d 23ab 993d b800 973d
000000b0: 4ef9 963d f23b 973d 6c32 973d 2a59 973d
000000c0: ffff 96bd 54c5 96bd 1929 97bd a9ff 963d
000000d0: 5c7d 85bd 8b14 97bd ed06 973d 72ab 983d
000000e0: b345 96bd 5402 973d 37f4 963d 933f 903d
000000f0: c9a2 cc3d a2a5 cc3d 4853 cd3d 2568 cc3d
00000100: cb57 cc3d cd9b cc3d 0778 cc3d 78a5 cc3d
00000110: 329f cc3d a59e cc3d 767c cc3d 2a92 cc3d
00000120: b5d3 cc3d 16a2 cc3d ad8b cc3d 52a7 cc3d
00000130: afa1 cc3d 15a5 cc3d f8a2 cc3d 3b82 cc3d

lstm.bias_hh_l1 f4 [80]
0.041185614 0.041194562 0.041195445 0.04119668 0.04125039 0.04121368 0.041217852 0.04120813
0.041261476 0.041482396 0.04126035 0.041198015 0.04120759 0.041230224 0.041207965 0.04119239
0.041210335 0.041204516 0.041265257 0.041203436 0.08006015 0.07950643 0.079474 0.07952217
0.07952535 0.079663604 0.07949727 0.07949094 0.07949438 0.07949633 0.07960941 0.079503044
0.07957408 0.07952567 0.079419166 0.07948468 0.07953282 0.07949666 0.07956897 0.07955839
-0.073755816 0.0737442 0.075204745 0.073729545 0.07379352 0.07381134 0.07381299 0.073888846
-0.07373072 -0.07429008 -0.073807366 0.0737569 -0.079791605 -0.07378024 0.07374686 0.07371361
-0.07376621 0.07375343 0.0736699 0.07428582 0.09988523 0.09992572 0.100137256 0.099843875
0.09991316 0.099901624 0.09995604 0.09992956 0.099929705 0.099885456 0.09993249 0.09993572
0.100032955 0.09992564 0.09991313 0.09998537 0.09992567 0.09993632 0.09991259 0.09990267
00000000: 3fb2 283d a1bb 283d 8ebc 283d dabd 283d
00000010: 2bf6 283d adcf 283d 0dd4 283d dbc9 283d
00000020: cb01 293d 72e9 293d 9d00 293d 40bf 283d
00000030: 4ac9 283d 06e1 283d afc9 283d 5ab9 283d
00000040: 2bcc 283d 11c6 283d c205 293d efc4 283d
00000050: 93f6 a33d 44d4 a23d 44c3 a23d 85dc a23d
00000060: 30de a23d ac26 a33d 77cf a23d 25cc a23d
00000070: f3cd a23d f9ce a23d 420a a33d 7ed2 a23d
00000080: bcf7 a23d 5bde a23d 84a6 a23d ddc8 a23d
00000090: 1ae2 a23d 25cf a23d 0ef5 a23d 82ef a23d
000000a0: 4a0d 97bd 3307 973d f204 9a3d 84ff 963d
000000b0: 0f21 973d 662a 973d 442b 973d 0953 973d
000000c0: 2200 97bd 6625 98bd 5128 97bd dc0d 973d
000000d0: c869 a3bd 181a 97bd 9808 973d 29f7 963d
000000e0: bd12 97bd 0a0c 973d 3fe0 963d 2a23 983d
000000f0: a190 cc3d dba5 cc3d c314 cd3d f27a cc3d
00000100: 459f cc3d 3999 cc3d c1b5 cc3d dfa7 cc3d
00000110: f2a7 cc3d bf90 cc3d 68a9 cc3d 19ab cc3d
00000120: 14de cc3d d0a5 cc3d 419f cc3d 21c5 cc3d
00000130: d4a5 cc3d 6aab cc3d f99e cc3d c599 cc3d

fc.weight f4 [180, 20]
-0.033210926 0.033158824 0.033278953 0.032570813 0.03299013 0.033235695 0.033244543 0.033173632
-0.033297125 -0.0331949 -0.032568794 0.033179797 -0.033148892 -0.033259753 0.032471236 0.033100817
-0.033274714 0.033282828 0.03250999 0.033096686 -0.032290116 0.03319724 0.03326288 0.033061825
0.033263505 0.03310229 0.03304609 0.03328051 -0.033240873 -0.03226494 -0.03238696 0.032966696
-0.03327964 -0.03327158 0.03327486 0.03325917 -0.033269074 0.03322653 0.032953694 0.033273596
-0.033269826 0.032658298 0.03321448 0.033126917 0.033259597 0.032784652 0.033282608 0.03303787
-0.032621752 -0.032607477 -0.033249434 0.03322654 -0.033277463 -0.03329488 0.033200428 0.03324708
-0.0332961 0.033273075 0.03278301 0.033043005 -0.0332597 0.033296242 0.032958608 0.033158436
0.03282207 0.033317376 0.03253908 0.032888565 -0.033315 -0.031945873 -0.033314932 0.033329945
-0.032946818 -0.033299264 0.033264507 0.03281659 -0.033257242 0.0332351 0.033303536 0.0332836
-0.033292357 0.033299223 0.03320905 0.032895446 0.033245716 0.0319257 0.033215985 0.033114616
-0.033255037 -0.033070035 -0.03323569 0.03328522 -0.033174116 -0.03320983 0.033277832 0.032403644
-0.033289388 0.033234715 0.033244833 0.033244047 -0.033253 0.03267437 0.03321713 0.033272654
0.033238087 0.033273038 0.03298665 0.032879498 -0.033190574 -0.032674987 -0.032769658 0.032999933
-0.03323949 -0.033246156 0.032481406 0.03328781 -0.033177555 0.03301615 0.033163235 0.03324117
-0.03328672 0.033253152 0.033236437 0.03293617 0.0332835 0.0332316 0.032526016 0.033032503
-0.03322803 -0.032905236 -0.03327219 0.033169527 -0.03288424 -0.033267498 0.03314931 0.033197675
-0.03249217 0.032522663 0.0331847 0.03328724 -0.033286035 0.033295304 0.033302557 0.033057697
0.033183843 0.03326343 0.033015244 0.033297732 -0.0330068 -0.03205766 -0.03321827 0.033202294
-0.032789644 -0.033284422 0.03210409 0.033293497 -0.033249307 0.03293418 0.033259716 0.032871287
-0.033275984 0.033222537 0.033304337 0.033162788 0.03322555 0.03326642 0.033030488 0.032752417
-0.032787334 -0.03268666 -0.033088386 0.03316698 -0.033242643 -0.033261873 0.033106714 0.033236407
-0.033227667 0.033238143 0.0328559 0.031941045 -0.033252474 0.03331081 0.03294804 0.032820262
0.032843925 0.03280744 0.032861214 0.033076502 -0.033216745 -0.033134673 -0.033068325 0.03305915
-0.033300396 -0.03330492 0.033286113 0.033292886 -0.033265803 0.033311784 0.032865122 0.033298112
-0.033260945 0.032871906 0.032592505 0.03295029 0.033285305 0.0332175 0.03298736 0.032293063
-0.033235297 -0.032920394 -0.033188887 0.033183802 -0.03302008 -0.03323179 0.03272002 0.033270106
-0.032253712 0.033218317 0.033279367 0.03324479 -0.033253726 0.033257876 0.033190336 0.03232912
0.033093892 0.03319207 0.033003494 0.0331466 -0.033226546 -0.03322502 -0.033214554 0.033252075
-0.033283044 -0.033019178 0.03325509 0.03323598 -0.033208255 0.032946445 0.03323452 0.03324978
-0.03328479 0.033256166 0.033324156 0.033270672 0.033254024 0.0326949 0.033264194 0.033270616
-0.033075657 -0.033237137 -0.03320966 0.03267601 -0.033265933 -0.033269685 0.033244584 0.033261817
00000000: 2e08 08bd 8cd1 073d 834f 083d f968 053d
00000010: a920 073d 2722 083d 6e2b 083d 13e1 073d
00000020: 9162 08bd 60f7 07bd db66 05bd 8ae7 073d
00000030: 22c7 07bd 613b 08bd 8f00 053d b994 073d
00000040: 114b 08bd 9353 083d 3229 053d 6490 073d
00000050: a442 04bd d4f9 073d a83e 083d d66b 073d
00000060: 503f 083d 4496 073d 565b 073d 2551 083d
00000070: 9527 08bd 3e28 04bd 30a8 04bd 1608 073d
00000080: 3b50 08bd c847 08bd 384b 083d c43a 083d
00000090: 2745 08bd 8b18 083d 74fa 063d e549 083d
000000a0: f145 08bd b5c4 053d e80b 083d 17b0 073d
000000b0: 373b 083d 3349 063d 5853 083d b852 073d
000000c0: 639e 05bd 6b8f 05bd 8f30 08bd 8d18 083d
000000d0: f34d 08bd 3660 08bd 2cfd 073d 172e 083d
000000e0: 7e61 08bd 5949 083d 7a47 063d 1a58 073d
000000f0: 533b 08bd a461 083d 9bff 063d 24d1 073d
00000100: 6f70 063d cd77 083d b347 053d 29b6 063d
00000110: 4f75 08bd add9 02bd 3d75 08bd fb84 083d
00000120: 3ef3 06bd cf64 08bd 5d40 083d b06a 063d
00000130: bf38 08bd 8721 083d 4a69 083d 6254 083d
00000140: 915d 08bd c464 083d 3606 083d 60bd 063d
00000150: a92c 083d 86c4 023d 7c0d 083d 31a3 073d
00000160: 6f36 08bd 7274 07bd 2622 08bd 1556 083d
00000170: 95e1 07bd 0807 08bd 564e 083d afb9 043d
00000180: 745a 08bd 2021 083d bc2b 083d e92a 083d
00000190: 4c34 08bd 8fd5 053d af0e 083d e848 083d
000001a0: a924 083d 4f49 083d 021d 073d a7ac 063d
000001b0: d7f2 07bd 35d6 05bd 7a39 06bd f02a 073d
000001c0: 2226 08bd 1f2d 08bd 390b 053d cc58 083d
000001d0: 30e5 07bd f13b 073d 2cd6 073d e527 083d
000001e0: a857 08bd 7534 083d ee22 083d 14e8 063d
000001f0: 4754 083d dc1d 083d 003a 053d 174d 073d
00000200: 1d1a 08bd a4c7 06bd 6b48 08bd c5dc 073d
00000210: a0b1 06bd 8043 08bd 92c7 073d 49fa 073d
00000220: 8216 05bd 7c36 053d aeec 073d 3358 083d
00000230: f056 08bd a860 083d 4368 083d 8267 073d
00000240: c8eb 073d 3c3f 083d fe3a 073d 3463 083d
00000250: 2332 07bd e54e 03bd e10f 08bd 21ff 073d
00000260: 6f4e 06bd 3f55 08bd 947f 033d c35e 083d
00000270: 6d30 08bd fee5 063d 573b 083d 0ba4 063d
00000280: 664c 08bd 5b14 083d 216a 083d b4d5 073d
00000290: 8417 083d 5f42 083d fa4a 073d 6627 063d
000002a0: 034c 06bd 72e2 05bd b087 07bd 19da 073d
000002b0: 7029 08bd 9a3d 08bd e89a 073d e622 083d
000002c0: bc19 08bd b824 083d e893 063d 9dd4 023d
000002d0: bf33 08bd ea70 083d 86f4 063d 8a6e 063d
000002e0: 5a87 063d 1861 063d 7b99 063d 3a7b 073d
000002f0: 480e 08bd 39b8 07bd a772 07bd 0869 073d
00000300: ff65 08bd bd6a 08bd 0557 083d 1f5e 083d
00000310: b941 08bd f071 083d 949d 063d 9a63 083d
00000320: a13c 08bd b1a4 063d b87f 053d e2f6 063d
00000330: 2c56 083d 130f 083d c11d 073d bb45 043d
00000340: bc21 08bd 89d7 06bd 12f1 07bd bdeb 073d
00000350: 1040 07bd 0f1e 08bd 6d05 063d 3c46 083d
00000360: 781c 04bd ee0f 083d f24f 083d b02b 083d
00000370: 0f35 08bd 6939 083d 97f2 073d 8a6b 043d
00000380: 768d 073d 68f4 073d ac2e 073d bbc4 073d
00000390: 8f18 08bd f516 08bd fc0b 08bd 5433 083d
000003a0: cd53 08bd 1e3f 07bd 7d36 083d 7322 083d
000003b0: 6105 08bd daf2 063d ec20 083d ec30 083d
000003c0: a255 08bd 9e37 083d e97e 083d d446 083d
000003d0: 5f35 083d 16eb 053d 0940 083d c546 083d
000003e0: 577a 07bd aa23 08bd da06 08bd 48d7 053d
000003f0: dc41 08bd cb45 08bd 792b 083d 8b3d 083d

fc.bias f4 [180]
0.046456747 0.046516743 0.04647695 0.046054713 0.04644376 0.04648846 0.046296332 0.046466358
0.04625621 0.046471022 0.046422057 0.04690797 0.046457678 0.043169845 0.046379257 0.0465536
0.046405025 0.046476368 0.04623396 0.04645769 0.044834014 0.04387778 0.04645142 0.04638064
0.046383657 0.046456836 0.046502586 0.046419706 0.041575406 0.046690036 0.046501566 0.045560528
0.04638904 0.04583222 0.046560183 0.045179967 0.046168644 0.04653372 0.04645007 0.045982525
0.046423998 0.04643845 0.046091165 0.04642228 0.04645438 0.046398364 0.046138987 0.04066578
0.04608446 0.04652851 0.04634789 0.046359517 0.045600586 0.04644678 0.04694442 0.04650619
0.046431504 0.046355188 0.046426512 0.04614717 0.046475943 0.04630767 0.046393294 0.045238916
0.044360463 0.045145687 0.046494167 0.04604616 0.04645614 0.046491195 0.046437204 0.04641506
0.04648514 0.046621423 0.046369854 0.04160029 0.046624918 0.041604713 0.046419248 0.046375092
0.04661217 0.046431806 0.046653878 0.046239868 0.046538334 0.04643275 0.046470538 0.046574034
0.04645516 0.046448287 0.043186072 0.045436636 0.04623042 0.04653839 0.046509866 0.046473183
0.04522164 0.046473175 0.041218024 0.046495434 0.0465027 0.0461686 0.046458036 0.04647001
0.043834355 0.04642381 0.046564676 0.044719446 0.04382055 0.04649005 0.046429966 0.046429653
0.04649006 0.04650859 0.04647818 0.04649267 0.04647324 0.046459127 0.04645935 0.046471715
0.046454724 0.046456665 0.046199482 0.04669791 0.046077255 0.046438247 0.04646931 0.046576023
0.044362195 0.046485193 0.04647031 0.046602253 0.046493318 0.04649086 0.044005163 0.046515442
0.04652153 0.044878248 0.046461068 0.0464795 0.04651235 0.0464705 0.046651796 0.04644783
0.04647384 0.041503347 0.046403013 0.046558842 0.046518624 0.046459828 0.046467632 0.046384428
0.044627186 0.046453983 0.04512203 0.0457379 0.046515405 0.044919245 0.046534352 0.046486933
0.04649238 0.04252422 0.046734184 0.04647643 0.046479333 0.046475492 0.04644478 0.04646957
0.046494946 0.046733193 0.04667468 0.04647161 0.046491984 0.0465476 0.04651733 0.044926036
0.041728873 0.04632729 0.046515565 0.046534203
00000000: 6e49 3e3d 5788 3e3d 9d5e 3e3d dea3 3c3d
00000010: d03b 3e3d af6a 3e3d 39a1 3d3d 8253 3e3d
00000020: 2777 3d3d 6658 3e3d 0e25 3e3d 9222 403d
00000030: 684a 3e3d ddd2 303d 2df8 3d3d fdae 3e3d
00000040: 3213 3e3d 015e 3e3d d25f 3d3d 6b4a 3e3d
00000050: dfa3 373d 30b9 333d d843 3e3d a0f9 3d3d
00000060: cafc 3d3d 8649 3e3d 7f79 3e3d 9722 3e3d
00000070: f94a 2a3d 0d3e 3f3d 6d78 3e3d ad9d 3a3d
00000080: 6f02 3e3d 91ba 3b3d e4b5 3e3d a10e 393d
00000090: 551b 3d3d 249a 3e3d 6e42 3e3d 2c58 3c3d
000000a0: 1727 3e3d 3f36 3e3d 17ca 3c3d 4a25 3e3d
000000b0: f346 3e3d 360c 3e3d 3cfc 3c3d 2991 263d
000000c0: 0fc3 3c3d ae94 3e3d 49d7 3d3d 7ae3 3d3d
000000d0: aec7 3a3d fb3e 3e3d cb48 403d 467d 3e3d
000000e0: f62e 3e3d f0de 3d3d ba29 3e3d d104 3d3d
000000f0: 8f5d 3e3d 1dad 3d3d e506 3e3d 714c 393d
00000100: 51b3 353d afea 383d ab70 3e3d e69a 3c3d
00000110: cb48 3e3d 8d6d 3e3d f034 3e3d b81d 3e3d
00000120: 3467 3e3d 1bf6 3e3d 51ee 3d3d 1165 2a3d
00000130: c5f9 3e3d b469 2a3d 1c22 3e3d cff3 3d3d
00000140: 67ec 3e3d 472f 3e3d 2318 3f3d 0466 3d3d
00000150: fb9e 3e3d 4430 3e3d e457 3e3d 6ac4 3e3d
00000160: c447 3e3d 8f40 3e3d e1e3 303d c41b 3a3d
00000170: 1c5c 3d3d 0a9f 3e3d 2181 3e3d aa5a 3e3d
00000180: 543a 393d a85a 3e3d 3bd4 283d ff71 3e3d
00000190: 9d79 3e3d 491b 3d3d c84a 3e3d 5657 3e3d
000001a0: a78b 333d e526 3e3d 9aba 3e3d bd2b 373d
000001b0: 2d7d 333d 5a6c 3e3d 592d 3e3d 052d 3e3d
000001c0: 5c6c 3e3d cb7f 3e3d e75f 3e3d 196f 3e3d
000001d0: b95a 3e3d ed4b 3e3d 294c 3e3d 2059 3e3d
000001e0: 4f47 3e3d 5849 3e3d ab3b 3d3d 4f46 3f3d
000001f0: 81bb 3c3d 0836 3e3d 9a56 3e3d 80c6 3e3d
00000200: 22b5 353d 4267 3e3d a757 3e3d 01e2 3e3d
00000210: c76f 3e3d 336d 3e3d c23e 343d fa86 3e3d
00000220: 5c8d 3e3d 41d2 373d f64d 3e3d 4a61 3e3d
00000230: bc83 3e3d da57 3e3d f415 3f3d 1440 3e3d
00000240: 5a5b 3e3d 6aff 293d 1611 3e3d 7cb4 3e3d
00000250: 508a 3e3d a94c 3e3d d854 3e3d 99fd 3d3d
00000260: ffca 363d 8846 3e3d e1d1 383d aa57 3b3d
00000270: f086 3e3d 3efd 373d ce9a 3e3d 1569 3e3d
00000280: cb6e 3e3d e02d 2e3d 586c 3f3d 125e 3e3d
00000290: 1d61 3e3d 165d 3e3d e23c 3e3d e056 3e3d
000002a0: 7c71 3e3d 4e6b 3f3d f32d 3f3d 0459 3e3d
000002b0: 616e 3e3d b2a8 3e3d f588 3e3d 5d04 383d
000002c0: e5eb 2a3d afc1 3d3d 1b87 3e3d a69a 3e3d
