backend/model/lstm-apple-10-.pth (torch, 819142 bytes, 14 tensors)

lstm.weight_ih_l0 f4 [400, 2]
0	0xbd1c4b3a	-0.03815768
1	0x3d2f2202	0.04275704
2	0xbd6a256b	-0.05716459
3	0xbd9ab4f1	-0.07554043
4	0xbe14c87c	-0.14529604
5	0xbe58a6f1	-0.21157433
6	0xbe5c7810	-0.21530175
7	0xbdb3a007	-0.08770757
8	0xbd2eba3a	-0.04265807
9	0xbcdd9cf7	-0.027052386
10	0xbc9fbe17	-0.019499822
11	0x3d76ea3b	0.060281973
12	0x3d8a3b19	0.06749553
13	0xbe02459c	-0.12721866
14	0xbd45aa73	-0.048258256
15	0xbd206574	-0.039159253
16	0xbdc86de8	-0.09786588
17	0xbe129588	-0.14314854
18	0x3d9b7556	0.075907394
19	0xbc4f20ab	-0.012642066
20	0xbc3013fb	-0.010746951
21	0xbdddb07b	-0.108246766
22	0xbe415a74	-0.18882161
23	0xbe0f4741	-0.13992025
24	0xbe3f9c2b	-0.18711917
25	0xbd3314ae	-0.043720894
26	0x3cca0688	0.024661317
27	0xbdc61284	-0.096715
28	0xbda5067a	-0.08057876
29	0x3db55cda	0.08855601
30	0xbe115717	-0.14193378
31	0x3d4f3c95	0.050594885
32	0x3d44fbd7	0.048091736
33	0x3b568fb9	0.0032739474
34	0xbd9e1b8a	-0.077200964
35	0xbe62bdb5	-0.2214268
36	0x3d2cf004	0.042221084
37	0xbdb3d2fb	-0.08780476
38	0xbe5802f5	-0.21094878
39	0xbe5e403a	-0.21704188
40	0xbe0f35ab	-0.13985316
41	0xbd50d796	-0.05098685
42	0x3d45e9fd	0.04831885
43	0xbe046a75	-0.12931235
44	0xbd58dcbf	-0.052944895
45	0x3c7f0fce	0.015567733
46	0xbe13333f	-0.14375018
47	0xbcc6f6de	-0.024287637
48	0xbbbb9203	-0.005724193
49	0xbdf1be0b	-0.11803826
50	0x3d6d4882	0.057930477
51	0xbd9a46fd	-0.07533071
52	0xbdd40d95	-0.10354153
53	0xbdc26333	-0.09491577
54	0x3c87876f	0.016544072
55	0xbe228157	-0.15869652
56	0x3d5d1bfe	0.053981774
57	0x3d790f7b	0.06080578
58	0xbe18ee6a	-0.14934698
59	0xbe1d4756	-0.15359244
60	0xbdd24a7f	-0.10268115
61	0xbdffeae1	-0.124959715
62	0xbc2a3eba	-0.010390932
63	0xbd72038a	-0.059085406
64	0xbc533331	-0.012890623
65	0x3d42e349	0.047580037
66	0xbe022280	-0.12708473
67	0xbd51300e	-0.05107122
68	0xbd78fb1f	-0.060786363
69	0x3d2ae68b	0.04172377
70	0xbdf27865	-0.1183937
71	0xbc5f3df6	-0.0136256125
72	0x3d443f85	0.04791214
73	0x3ca4d0df	0.020119129
74	0xbe373b10	-0.17893624
75	0xbc76c707	-0.0150621
76	0xbe1fec48	-0.15617478
77	0xbe4b19a0	-0.19833994
78	0x3d2c4d30	0.0420658
79	0xbc960363	-0.018312162
80	0x3d654bbb	0.055980425
81	0x3c493883	0.01228154
82	0xbde62300	-0.112371445
83	0xbdc9f4d2	-0.09861149
84	0xbdd166dd	-0.10224698
85	0xbe4f7e23	-0.20262961
86	0xbd864329	-0.065557785
87	0x3d30ee8d	0.04319625
88	0xbe150678	-0.14553249
89	0xbe009d0d	-0.1255991
90	0xbcad2f90	-0.021140844
91	0xbe628aaa	-0.22123209
92	0xbd988bfb	-0.07448574
93	0x3e0ccf86	0.13751039
94	0x3e164c13	0.14677458
95	0xbd985583	-0.07438185
96	0xbddc2ecc	-0.10751113
97	0x3c43d2f3	0.01195215
98	0xbdfeae11	-0.12435544
99	0xbc71e712	-0.014764564
100	0xbdef3811	-0.11680616
101	0xbccf0f6f	-0.025275914
102	0xbdf8ec80	-0.12154484
103	0xbe6b2922	-0.2296491
104	0xbdbfe219	-0.093692966
105	0xbde28046	-0.110596225
106	0x3c28119a	0.010258103
107	0x3e0592ed	0.13044329
108	0x3cbf9a97	0.023389144
109	0xbd6e178c	-0.058127925
110	0xbcb6c63f	-0.022311328
111	0xbdb1d2f0	-0.08682811
112	0x3dc96d50	0.09835303
113	0xbdc1f1d0	-0.0946995
114	0xbdbc4c75	-0.091942705
115	0xbd657805	-0.056022663
116	0x3bb99d02	0.0056644687
117	0xbe5bcf6d	-0.21465845
118	0xbdd16207	-0.10223775
119	0xbe607e62	-0.21923211
120	0xbe1ef40a	-0.15522781
121	0xbcc46fd0	-0.023979098
122	0xbd11fb5b	-0.035640102
123	0xbe047b04	-0.12937552
124	0x3c59525e	0.013264267
125	0x3d22e7fb	0.039772015
126	0xbd0e22a3	-0.034701
127	0xbe0bf108	-0.13666165
128	0xbe417ffe	-0.18896481
129	0xbe55eea6	-0.20891818
130	0xbe34cd31	-0.176564
131	0xbe62424e	-0.22095606
132	0x38e65364	0.00010982787
133	0xbd71b266	-0.059008025
134	0x3c89b1f4	0.016808487
135	0xbd20a4f6	-0.03921982
136	0xbd30a760	-0.04312837
137	0xbdc94077	-0.09826749
138	0xbe4530c0	-0.19256878
139	0xbe87ff3e	-0.26561922
140	0xbe311d09	-0.17296232
141	0xbdff09cf	-0.12453043
142	0x3db08323	0.08618762
143	0x3e12b452	0.14326599
144	0xbd5eb632	-0.054372974
145	0xbd8d37ba	-0.068953946
146	0x3d988db8	0.07448906
147	0xbdc9dbd6	-0.098563835
148	0xbdc75cd8	-0.097345054
149	0x3dfe2732	0.1240982
150	0xbdabe382	-0.08393003
151	0xbe374f5a	-0.17901364
152	0xbd7099ab	-0.0587403
153	0xbd5a2734	-0.053260043
154	0xbd3c3fbd	-0.045959223
155	0xbc621ead	-0.013801259
156	0xbd909562	-0.070597425
157	0xbda06acb	-0.07832869
158	0xbd9c632a	-0.076361015
159	0xbb91ac01	-0.0044455533
160	0xbdfdf5d7	-0.12400406
161	0xbe1bb8b1	-0.15207173
162	0x3c7f6da9	0.01559011
163	0xbe0ca6e2	-0.13735536
164	0xbc24aa6d	-0.010050398
165	0xbe1a54a9	-0.15071358
166	0xbd88e93a	-0.066851094
167	0xbe2a5157	-0.16632591
168	0xbd8c56dc	-0.068525046
169	0xbe6b0ece	-0.22954866
170	0xbbe60576	-0.007019694
171	0x3da00038	0.07812542
172	0xbdb1ebaf	-0.08687531
173	0xbd9e8731	-0.077406295
174	0xbdf5f338	-0.12009281
175	0xbe2626df	-0.16225766
176	0x3da9eb8e	0.082968816
177	0x3e1871ce	0.14887163
178	0xbe126e05	-0.14299782
179	0xbd5bab42	-0.05363012
180	0xbbecdff1	-0.0072288443
181	0xbd16524c	-0.03669958
182	0xb9d1ab0b	-0.00039991023
183	0x3daf4da0	0.08559728
184	0x3d8d87d0	0.0691067
185	0xbcd9a369	-0.026567178
186	0x3cbfc1f7	0.02340792
187	0xbd8c099d	-0.06837771
188	0x3dc8cc3c	0.098045796
189	0xbdbbf391	-0.09177316
190	0xbe42b24f	-0.19013332
191	0xbe000869	-0.12503208
192	0x3d16d762	0.0368265
193	0xbdd946ee	-0.10609232
194	0x3cfe813b	0.031067481
195	0xbdf21fe5	-0.1182249
196	0xbdcce430	-0.10004461
197	0xbe27b97d	-0.16379352
198	0x3bfc4870	0.007699065
199	0xbd66b48b	-0.056324523
200	0xb9fa6298	-0.00047757174
201	0x3e72208e	0.23645231
202	0xbd8fa8e4	-0.07014635
203	0x3d56523b	0.052324515
204	0xbc07aa97	-0.008280418
205	0x3cc2c6ea	0.02377649
206	0x3b27d1e1	0.0025607275
207	0x3c5e269a	0.013559008
208	0x3df51299	0.11966438
209	0x3e4518d8	0.19247758
210	0x3d3fc2f8	0.046816796
211	0x3d88ec71	0.066857226
212	0xbc743300	-0.0149047375
213	0x3dd737e4	0.10508707
214	0x3e776e0e	0.24163076
215	0x3e95d568	0.2926438
216	0xbc5cf30e	-0.013485683
217	0xbd598f0c	-0.053114936
218	0x3daeed64	0.085413724
219	0xbe04bca8	-0.12962592
220	0x3de1673e	0.1100602
221	0xbdd64289	-0.10461909
222	0xbd788454	-0.060673073
223	0xbd877b90	-0.066153646
224	0x3d236795	0.039893705
225	0xbc6f36a4	-0.01460043
226	0x3ddcab81	0.10774899
227	0xbbfb84bd	-0.0076757357
228	0x3db27347	0.08713394
229	0x3d62e50a	0.05539421
230	0xbdcbeede	-0.0995767
231	0x3db8acb0	0.090173125
232	0x3b43fcd1	0.002990533
233	0x3de6def5	0.112729944
234	0xbd3d8017	-0.046264734
235	0x3da6a093	0.08136096
236	0x3ddb5ca9	0.10711033
237	0x3df8376c	0.12119946
238	0xbe19816a	-0.14990774
239	0xbcad33f2	-0.021142934
240	0xbc8c95bd	-0.017161245
241	0x3d542659	0.051794384
242	0xbc35503b	-0.011066492
243	0xbda07e91	-0.078366406
244	0xbc176d7b	-0.009242411
245	0x3e4491c1	0.19196226
246	0x3db0768a	0.086163595
247	0x3d836ef8	0.0641765
248	0x3dc36d70	0.09542358
249	0x3d1db2fb	0.038500767
250	0xbc7a9f6b	-0.015296797
251	0x3b130e3d	0.0022438907
252	0xbdf71ff5	-0.12066642
253	0xbcd080f6	-0.025452118
254	0xbd879f0c	-0.06622133
255	0x3de37aad	0.11107383

lstm.weight_hh_l0 f4 [400, 100]
0	0x3b7a7836	0.0038218624
1	0x3d3e14f2	0.046406694
2	0x3d563610	0.05229765
3	0xbba45c4e	-0.0050158864
4	0x3be28c38	0.006913688
5	0x3e4a9ce6	0.19786415
6	0x3d0ff5ec	0.03514664
7	0xbcb2ebc9	-0.021840947
8	0x3da44d9b	0.080226146
9	0x3d4c46be	0.049872153
10	0x3d0218e7	0.03176203
11	0x3cb9c8dd	0.022678787
12	0xbddc8fb7	-0.10769599
13	0xbdac040a	-0.08399208
14	0xbcdf7348	-0.02727665
15	0xbd3a1b0d	-0.045435954
16	0xbd8e63f9	-0.06952662
17	0xbe0cafd8	-0.13738954
18	0xbdb7fa71	-0.08983315
19	0x3d81e5e1	0.06342674
20	0xbd76d18b	-0.06025843
21	0xbd9300ce	-0.07177888
22	0x3d470c64	0.0485958
23	0x3dbd81d3	0.09253278
24	0x3d51cc51	0.051220242
25	0xbcdd25f2	-0.026995633
26	0xbe410f42	-0.18853477
27	0xbcd9ffad	-0.026611174
28	0x3dd8b943	0.10582211
29	0xbdf7a1fb	-0.12091442
30	0xbd2955ae	-0.041341476
31	0xbd922857	-0.071366005
32	0x3dcae52d	0.09906993
33	0xbbf6789f	-0.0075217034
34	0x3b9f7b37	0.0048669833
35	0xbc4f7115	-0.012661238
36	0xbdb08ddb	-0.08620807
37	0x3d41af48	0.0472863
38	0xbd93ca18	-0.07216281
39	0x3ca10640	0.0196563
40	0x3d57cefe	0.052687638
41	0x3dd949b7	0.10609763
42	0x3df7d962	0.12102009
43	0xbd9c98e0	-0.07646346
44	0xbd137c50	-0.036007226
45	0xbd258195	-0.040406782
46	0xbd542635	-0.05179425
47	0xbd8d5814	-0.06901565
48	0xbddb3d48	-0.10705048
49	0xbbbd9ce5	-0.0057865256
50	0xbd9ad155	-0.07559458
51	0xbdcd31b2	-0.10019244
52	0xbd8d1270	-0.06888282
53	0x3d3285cb	0.043584626
54	0xbe3ab998	-0.18234861
55	0xbc999353	-0.018747007
56	0x3da9cf1e	0.082914576
57	0xbbcce700	-0.0062531233
58	0xbccb6abb	-0.024831166
59	0x3ce9940f	0.028512983
60	0x3dd7208b	0.10504254
61	0xbe5a7082	-0.21331981
62	0xbd30a55d	-0.043126453
63	0x3cc1839b	0.023622325
64	0xbdde67b4	-0.108596236
65	0xbd6299b8	-0.05532238
66	0x3d246490	0.040134966
67	0xbdea7a27	-0.1144908
68	0x3d6d66d1	0.05795938
69	0x3bfd8f2c	0.0077380147
70	0x3d8e6d3c	0.069544286
71	0xbe06f707	-0.13180171
72	0xbd414ce7	-0.04719248
73	0x3da2a02e	0.07940708
74	0x3c2ce8c6	0.010553544
75	0xbd60215c	-0.054719314
76	0xbcbcf226	-0.023064684
77	0x3c9b0592	0.018923555
78	0xbc11ba3b	-0.008894498
79	0x3d6a2006	0.057159446
80	0x3d5e7a7e	0.054316036
81	0x3d1f8527	0.038945343
82	0xbd8cf159	-0.06881971
83	0xbd152e89	-0.036421333
84	0xbdcadbdd	-0.09905217
85	0x3e319149	0.17340578
86	0xbd2e4804	-0.04254915
87	0xbe0011e9	-0.12506832
88	0x3ce5e086	0.028061163
89	0x3d98bb4b	0.07457598
90	0x3d8f5867	0.06999283
91	0xbcdea45a	-0.027177978
92	0x3b187807	0.0023264901
93	0xbe20aa1d	-0.15689893
94	0xbc2adefa	-0.010429138
95	0xbd5c00a8	-0.053711563
96	0xbe034bf1	-0.12821938
97	0x3d2378f0	0.039910257
98	0xbd607237	-0.054796424
99	0xbe19e09f	-0.15027092
100	0xbe0d4916	-0.13797411
101	0x3d211c80	0.03933382
102	0xbd8ca890	-0.06868088
103	0x3b57f776	0.0032953895
104	0xbc32f8d7	-0.010923586
105	0x3e327747	0.17428313
106	0x3dbe7cda	0.09301157
107	0x3e10a3f7	0.14125048
108	0xbd2f1b85	-0.042750854
109	0x3d21d06e	0.039505415
110	0xbc5b3a02	-0.013380529
111	0xbd3d2b33	-0.046183776
112	0xbdab2569	-0.08356745
113	0x3d8fa88a	0.07014568
114	0x3d11b992	0.035577364
115	0x3d0c58ff	0.03426456
116	0xbdec9b00	-0.115530014
117	0xbe19445b	-0.14967482
118	0xbe1465df	-0.14491986
119	0xbd333ee2	-0.04376114
120	0xbe01b006	-0.12664804
121	0x3c594eb2	0.013263391
122	0xbda5aa61	-0.08089138
123	0x3d95b10a	0.07309158
124	0x3e05581f	0.13021897
125	0xbd73ae56	-0.05949243
126	0xbdcb61f4	-0.099307925
127	0x3dd1802e	0.102295265
128	0x3d243b51	0.04009563
129	0xbdedc2fb	-0.11609455
130	0x3dafe49b	0.08588525
131	0xbdb9047e	-0.0903406
132	0x3d3fa4a1	0.04678786
133	0xbe1650ec	-0.14679307
134	0x3df0f2e9	0.117650814
135	0x3e4a432f	0.19752191
136	0xbe1b4154	-0.1516164
137	0x3db0ff48	0.08642441
138	0x3d58ffb7	0.052978244
139	0x3dc71f1a	0.09722729
140	0x3deed1eb	0.116611324
141	0x3e28ed3c	0.16496748
142	0x3e36b57e	0.17842671
143	0xbcac7eb9	-0.02105652
144	0xbd4ba3c4	-0.049716726
145	0xbe6f8d0e	-0.23393652
146	0x3e2df39a	0.16987458
147	0xbd76a10d	-0.060212184
148	0xbba78d69	-0.005113293
149	0xbca1a965	-0.019734094
150	0xbe0c12c4	-0.13679034
151	0xbb285086	-0.0025682761
152	0xbd929c24	-0.07158688
153	0x3d6cc9ee	0.057809763
154	0xbdcbbb9f	-0.09947895
155	0x3d258efd	0.040419567
156	0xbc0cf40f	-0.00860311
157	0xbc97cb01	-0.018529417
158	0xbe11b712	-0.14229992
159	0xbd020d63	-0.031751048
160	0x3d4e5680	0.05037546
161	0xbe0ac415	-0.13551362
162	0x3d87f839	0.066391416
163	0x3e09983a	0.13436976
164	0xbddb177e	-0.1069784
165	0xbd9f8078	-0.07788175
166	0x3d916bf2	0.07100667
167	0x3bfaa551	0.007649102
168	0x3d04a32c	0.032382175
169	0xbdc62bd5	-0.09676329
170	0x3ca13d6f	0.019682614
171	0xbdec0cad	-0.11525855
172	0x3d51f988	0.051263362
173	0xbda7f9b0	-0.08201921
174	0xbc1b11e6	-0.009464717
175	0x3e3cfc83	0.184557
176	0xbd0e9341	-0.0348084
177	0xbe00dfc4	-0.1258536
178	0x3c9c5615	0.019084016
179	0xbdb1358f	-0.086527936
180	0x3e0df79e	0.1386399
181	0x3d9b75d1	0.07590831
182	0x3d3efebb	0.04662965
183	0xbe07e63e	-0.13271424
184	0xbdb17483	-0.08664801
185	0x3e0810e5	0.13287695
186	0x3d95075f	0.072767965
187	0xbd843218	-0.06454867
188	0xbd136b7d	-0.03599118
189	0xbdd94d92	-0.106104985
190	0x3df36fde	0.11886571
191	0x3d36b051	0.044601742
192	0xbd21400f	-0.03936773
193	0xbd59135c	-0.05299698
194	0x3c914f65	0.017738054
195	0x3de8fa5c	0.11375877
196	0x3d1417d6	0.036155544
197	0xbd75d8ec	-0.060021326
198	0xbda35017	-0.0797426
199	0x3d8ec3bd	0.06970928
200	0xbdbf8025	-0.093506135
201	0xbdc98f31	-0.09841765
202	0x3d132a59	0.035929058
203	0x3d5da603	0.0541134
204	0xbd417474	-0.0472302
205	0xbc8f69d3	-0.017506516
206	0xbd4eca4f	-0.050485905
207	0x3dbc9f6d	0.092100956
208	0xbda66b8f	-0.08125984
209	0x3e09c72d	0.13454886
210	0xbd2c5f13	-0.042082857
211	0x3dc2f97b	0.09520241
212	0xbda541c2	-0.08069183
213	0xbd000543	-0.031255018
214	0xbe8cc59e	-0.2749452
215	0xbdac0345	-0.08399061
216	0xbd972535	-0.073801436
217	0x3ca05aa0	0.019574463
218	0x3d84ddcc	0.06487617
219	0x3c646818	0.0139408335
220	0xbde1f88a	-0.11033733
221	0x3cc0c4b8	0.023531303
222	0xbd238b08	-0.039927512
223	0xbce807f3	-0.028324103
224	0x3db3986e	0.08769308
225	0x3c8f75ec	0.017512284
226	0xbe387a73	-0.1801546
227	0x3d4d1f42	0.050078638
228	0x3d9a27b5	0.07527105
229	0x3dda2a9b	0.106526576
230	0xbe0d6b29	-0.1381041
231	0x3cbe93a5	0.023263762
232	0xbccb479b	-0.024814418
233	0xbdb6f4e7	-0.0893343
234	0x3daf7d90	0.08568871
235	0xbe13b158	-0.1442312
236	0xbe206948	-0.15665162
237	0x3e44bf70	0.19213653
238	0xbb9da692	-0.0048111165
239	0x3e0d01b2	0.13770178
240	0x3df736c0	0.120709896
241	0x3de3e733	0.11128082
242	0xbcbc4405	-0.022981653
243	0x3d95807d	0.07299898
244	0x3dfb9226	0.12283735
245	0xbd588c93	-0.052868437
246	0x3e1c9bfc	0.15293878
247	0x3e025ceb	0.12730758
248	0x3d0cb622	0.034353383
249	0xbdb17e23	-0.08666637
250	0x3dab8c34	0.08376351
251	0xbd0b313f	-0.03398251
252	0x3d2614e5	0.04054727
253	0x3e81a751	0.25322965
254	0x3d9aecb1	0.075646766
255	0x3df015f0	0.11722934

lstm.bias_ih_l0 f4 [400]
0	0xbe155be9	-0.14585842
1	0xbd31653c	-0.043309435
2	0xbd7e7511	-0.062123362
3	0xbdb3dc8c	-0.087823
4	0xbdbca37f	-0.09210872
5	0xbd5d6c7c	-0.054058537
6	0x3d0a8cba	0.033825614
7	0xbd0545f3	-0.032537412
8	0xbe02eef1	-0.12786461
9	0x3d5282ab	0.051394146
10	0x3d500359	0.050784443
11	0xbdd93d2f	-0.10607373
12	0x3b8bbbcc	0.0042643305
13	0xbda2524c	-0.07925853
14	0xbdf26191	-0.118350156
15	0xbd8496b5	-0.064740576
16	0xbd087657	-0.033315983
17	0xbd9cc0a3	-0.0765393
18	0xbdb4a530	-0.088205695
19	0xbd229838	-0.03969595
20	0xbd846511	-0.064645894
21	0xbdac3c80	-0.08409977
22	0xbd8a6bbc	-0.0675883
23	0xbd8d3a50	-0.06895888
24	0xbd317485	-0.043324012
25	0xbd282703	-0.04105283
26	0xbe1bc098	-0.15210187
27	0xbcfbf201	-0.030755045
28	0x3d2f0cd3	0.04273684
29	0x3cb9285a	0.022602249
30	0x3beb8317	0.007187258
31	0xbdc5c896	-0.09657399
32	0xbc6ff3b9	-0.01464551
33	0x3c9317b8	0.017955646
34	0xbdea1b3e	-0.11430977
35	0xbe0d1522	-0.13777593
36	0x3d90dbae	0.070731506
37	0xbe03dbb8	-0.12876785
38	0xbd4da3b1	-0.050204936
39	0x3daf8440	0.085701466
40	0xbdaff1c7	-0.08591037
41	0x3d8f2460	0.0698936
42	0xbdc595c1	-0.09647704
43	0xbdaba150	-0.08380377
44	0xbe3d4d42	-0.18486503
45	0xbd3daf07	-0.046309497
46	0xbb388b2b	-0.0028159122
47	0x3d6b8c98	0.057507128
48	0xbe0f83c0	-0.14015102
49	0xbd33ce47	-0.043897893
50	0xbd817f67	-0.06323128
51	0x3d037931	0.032098
52	0x3cb1eaae	0.02171835
53	0x3dd5d257	0.1044051
54	0xbdc415c8	-0.09574467
55	0x3d12418b	0.035707038
56	0xbd3585fa	-0.044317223
57	0x3cf848aa	0.030308086
58	0x3d802b38	0.06258243
59	0x3d10e79d	0.035377134
60	0xbd92cabc	-0.07167575
61	0x3b9c4eb3	0.004770124
62	0x3d9c8e88	0.07644373
63	0xbc4e506a	-0.012592414
64	0x3c3b1556	0.011418661
65	0x3cf97587	0.03045155
66	0xbe073f29	-0.13207687
67	0xbdd65a5c	-0.104664534
68	0xbb26b747	-0.0025438832
69	0xbd032e8c	-0.032026812
70	0xbd0b8d1c	-0.03407012
71	0x3de9d30e	0.114172086
72	0xbe4b7abc	-0.19871038
73	0xbd86fe52	-0.065914765
74	0xbd48464d	-0.04889517
75	0xbcfb4199	-0.030670928
76	0xbdc9b2bb	-0.09848543
77	0xbdbb152d	-0.09134898
78	0xbc5ddbd5	-0.013541182
79	0xbd27b0ce	-0.0409401
80	0xbd9a543d	-0.075355984
81	0x3ae70174	0.0017624334
82	0x3d9671c2	0.07345916
83	0x3c67d066	0.014148807
84	0x3de68387	0.112555556
85	0xbd7cc078	-0.06170699
86	0xbd84f0fe	-0.06491278
87	0x3d1453bf	0.03621268
88	0x3c803bef	0.015653579
89	0xbd7ca434	-0.061680034
90	0xbe07a63d	-0.13247009
91	0xbd5b2a13	-0.053506922
92	0xbc311e5d	-0.010810462
93	0xbe1d27e8	-0.15347254
94	0x3b357325	0.002768704
95	0xbd28b32c	-0.041186497
96	0xbc4bbda4	-0.012435351
97	0xbd00f56b	-0.03148405
98	0xbe065207	-0.13117228
99	0x3d607e7e	0.054808132
100	0xbd4a43f8	-0.049381226
101	0xbdf47462	-0.11936261
102	0x3d4cc6d6	0.049994312
103	0xbd82a6d9	-0.0637948
104	0xbd97c25f	-0.0741012
105	0xbdd6b022	-0.104828134
106	0x3dcbf03a	0.09957929
107	0x3d4d0f79	0.050063584
108	0xbbea4364	-0.007149147
109	0x3d86d30e	0.06583224
110	0x3e204c39	0.15654077
111	0xbcfa5b8c	-0.030561231
112	0xbc1e4924	-0.009660993
113	0x3d195f36	0.037444316
114	0xbcfe1759	-0.031016992
115	0xbdb57a09	-0.08861167
116	0xbd0040b1	-0.031311695
117	0xbd48b3c3	-0.04899956
118	0x3b6bb57a	0.0035966323
119	0x3d3a97f8	0.045555085
120	0xbe014934	-0.12625581
121	0x3d5b918d	0.053605605
122	0x3df95f0c	0.12176332
123	0xbd0d2d89	-0.034467254
124	0x3bbc0c83	0.005738796
125	0xbd3a6bed	-0.045513082
126	0x3d6e5906	0.058190368
127	0x3d1d1999	0.03835449
128	0x3df6f74a	0.120588854
129	0xbcff15a8	-0.031138256
130	0xbd8d3b53	-0.06896081
131	0xbceacdc3	-0.028662568
132	0x3da1e886	0.079056785
133	0xbc461a31	-0.012091205
134	0xbd991f93	-0.074767254
135	0xbc3fc47a	-0.0117045585
136	0x3df24457	0.11829441
137	0xbc9cd84e	-0.01914611
138	0x3be67eca	0.0070341574
139	0xbd23d90f	-0.040001925
140	0x3dca2f96	0.098723575
141	0xbd80e693	-0.062939785
142	0x3ca2d4ce	0.019876864
143	0xbd645a7d	-0.05575036
144	0xbd24b306	-0.040209793
145	0xbc4b9983	-0.012426737
146	0xbde10bd1	-0.10988582
147	0x3ddefd7b	0.10888191
148	0xbd4d268b	-0.050085586
149	0xbddfed8a	-0.10933979
150	0xbdb75409	-0.08951575
151	0x3c6a69c3	0.014307442
152	0x3d09d7be	0.033653013
153	0x3d2bafa2	0.041915543
154	0xbd3476b7	-0.044058528
155	0x3cc5ce8f	0.024146346
156	0xbc44dc3d	-0.0120153995
157	0xbd90874d	-0.070570566
158	0xbc2ba939	-0.010477358
159	0xbc257446	-0.0100985225
160	0x3cefcaa5	0.029271433
161	0x3dbff0b6	0.09372084
162	0x3d4208f2	0.047371812
163	0x3de78b8a	0.11305912
164	0x3e100b0f	0.14066719
165	0xbd9e0da6	-0.07717447
166	0xbd9eb47d	-0.07749269
167	0xbc2487d4	-0.01004215
168	0x3d47c0d6	0.048767887
169	0x3e19d52f	0.1502273
170	0xbdbc676e	-0.09199415
171	0xbd848795	-0.06471173
172	0x3d0d3fac	0.03448455
173	0xbcf38789	-0.029727714
174	0xbc17138d	-0.00922097
175	0x3c5fcb48	0.013659306
176	0xbda07419	-0.07834644
177	0xbe2f2a76	-0.17106041
178	0x3e1432cf	0.14472507
179	0xbccfe78a	-0.025378961
180	0x3de287e0	0.11061072
181	0x3d862c5f	0.06551432
182	0x3d211400	0.039325714
183	0x3daa6890	0.08320725
184	0x3de17ab8	0.11009735
185	0xbc4e7d4d	-0.012603116
186	0x3915e62f	0.00014295497
187	0xbd531718	-0.051535696
188	0x3d812255	0.063053764
189	0xbdbb2708	-0.09138304
190	0xbcac0a30	-0.021000952
191	0x3d341362	0.043963797
192	0xbd561f57	-0.05227598
193	0xbddd8d02	-0.10817911
194	0x3d38a141	0.04507566
195	0xbe102497	-0.14076458
196	0xbda652fe	-0.08121298
197	0x3d56a639	0.052404616
198	0xbdaed757	-0.085371666
199	0xbd5d26d9	-0.053992126
200	0xbd1309ed	-0.035898138
201	0x3cbca06f	0.02302572
202	0x3e070522	0.13185552
203	0x3d9eecc1	0.07760001
204	0x3deaf5db	0.114726745
205	0xbda4a2f4	-0.08038893
206	0x3db9cfd8	0.09072846
207	0xbd61a4ed	-0.055088926
208	0xbd2d5965	-0.04232158
209	0xbb0a4e09	-0.0021103641
210	0xbd892d55	-0.066980995
211	0xbdd62ee7	-0.10458165
212	0x3e0167b1	0.12637211
213	0xbda130ef	-0.078706615
214	0x3cfe6ce1	0.031057777
215	0x3e0224a9	0.12709297
216	0xbda7f688	-0.08201319
217	0x3e09e82b	0.13467471
218	0xbe1863ab	-0.1488177
219	0xbdc78785	-0.09742645
220	0xbc3a338a	-0.011364827
221	0x3d6f65c8	0.058446676
222	0x3df28429	0.11841614
223	0xbdcab6f9	-0.098981805
224	0xbdbcb9c9	-0.09215123
225	0x3cffd7ba	0.031230796
226	0xbd0a0f3d	-0.03370594
227	0x3d7a42ec	0.061098978
228	0xbe0aa008	-0.1353761
229	0x3e04d97c	0.12973589
230	0xbd239d7b	-0.039945107
231	0x3d4cb8e5	0.049981017
232	0xbd070742	-0.032965906
233	0x3dc7589e	0.09733699
234	0x3d036dcd	0.032087136
235	0x3d1ef639	0.038809035
236	0x3dbb67d1	0.09150661
237	0xbd830c72	-0.06398858
238	0x3e1f3c35	0.15550311
239	0xbe050b61	-0.12992622
240	0x3b7b6749	0.0038361123
241	0xbe3537a5	-0.17697008
242	0xbe02d458	-0.12776315
243	0xbae01240	-0.0017095283
244	0x3d3fdee1	0.046843413
245	0x3e1775b1	0.1479099
246	0xbd9ef35a	-0.077612594
247	0x3dc7c05c	0.097534865
248	0xbdd05077	-0.101715975
249	0x3d41c692	0.047308512
250	0x3c1026ba	0.008798296
251	0x3e05e2db	0.1307482
252	0x3d8ee42a	0.069771126
253	0xbdffc242	-0.124882236
254	0x3df1fea7	0.11816149
255	0xbd1f6727	-0.038916733

lstm.bias_hh_l0 f4 [400]
0	0xbac470a4	-0.0014987183
1	0xbe21ef13	-0.15813856
2	0x3cf0356d	0.02932235
3	0xbe0bfe3e	-0.13671204
4	0xbe02fe84	-0.12792403
5	0x3d393adb	0.045222145
6	0x3d531c43	0.051540624
7	0xbc8211f3	-0.0158777
8	0xbd804fa9	-0.06265194
9	0x3d0cfdf0	0.03442186
10	0xbd42dfbd	-0.047576655
11	0xbde36f5b	-0.11105224
12	0x3d8f4f0f	0.06997501
13	0xbdaa602c	-0.083191246
14	0xbe073eeb	-0.13207595
15	0xbe14e19e	-0.14539191
16	0xbd97834a	-0.07398088
17	0x3cc4447d	0.023958439
18	0xbd40b205	-0.047044773
19	0xbe15fb98	-0.14646757
20	0xbcd15753	-0.025554335
21	0xbdb63b05	-0.08897976
22	0x3dd5c6be	0.10438298
23	0x3ccb8d66	0.024847697
24	0xbd8913b1	-0.06693209
25	0xbaee2e36	-0.0018171731
26	0xbe15eedc	-0.14641899
27	0xbb58e282	-0.0033093994
28	0x3ca8d2ac	0.020608269
29	0xbdcc1251	-0.09964431
30	0xbd4da602	-0.050207146
31	0x3cf4d6b5	0.029887537
32	0x3c7ae05f	0.015312283
33	0x3b7b5597	0.0038350576
34	0x3cd6783c	0.02618038
35	0xbd2bd01f	-0.041946527
36	0xbd404baf	-0.046947177
37	0xbd2457e3	-0.040122878
38	0xbc9ca004	-0.01911927
39	0xbc39de2d	-0.011344475
40	0xbdac31d9	-0.08407945
41	0xbb4a36af	-0.0030855348
42	0xbd289b54	-0.041163757
43	0xbe179533	-0.14803009
44	0xbe2a0517	-0.16603504
45	0x3d0f9e27	0.035062935
46	0xbdc6adf7	-0.0970115
47	0xbcc1f36c	-0.023675643
48	0xbd144a95	-0.03620394
49	0xbde91eb5	-0.1138281
50	0x3d8b2705	0.06794552
51	0xbb7d65f9	-0.0038665517
52	0x3d6d4159	0.05792365
53	0xbd1fb73e	-0.038993113
54	0x3c671a7f	0.014105438
55	0x3ddbc971	0.10731781
56	0xbbe7fe2a	-0.0070798593
57	0xbd13d083	-0.036087524
58	0x3d0db7d2	0.034599133
59	0xbc76d9f5	-0.015066613
60	0x3ce053d2	0.027383719
61	0xbdcae226	-0.09906416
62	0x3d288f85	0.041152496
63	0xbd3f0eb0	-0.046644866
64	0xbbf15241	-0.0073645418
65	0xbd98aa65	-0.07454375
66	0xbdb731d5	-0.089450516
67	0x3d478ad2	0.048716374
68	0xbd7934c6	-0.060841344
69	0x3d768f0f	0.060195025
70	0xbd29b7bc	-0.04143499
71	0x3daf207b	0.08551117
72	0xbd762cb5	-0.06010123
73	0x3decda13	0.11565032
74	0xbe209a2a	-0.15683809
75	0xbd27a167	-0.04092541
76	0xbd93a4b7	-0.07209151
77	0xbe291c45	-0.1651469
78	0xbd8f23dd	-0.06989262
79	0xbd82aaf0	-0.0638026
80	0x3d0522c6	0.032503866
81	0x3c92a92c	0.017902933
82	0x3d5388e6	0.05164423
83	0xbc309f41	-0.010780157
84	0xbce82e87	-0.028342498
85	0xbd58f03e	-0.052963488
86	0xbdbc7234	-0.0920147
87	0xbd711cc3	-0.05886532
88	0x3c9e214e	0.01930299
89	0xbde865e6	-0.113475606
90	0xbe311eea	-0.17296949
91	0xbc23693b	-0.009973819
92	0xbbc55a40	-0.0060227215
93	0xbe1894d4	-0.14900523
94	0x3c9d22f2	0.019181702
95	0xbe3434bb	-0.1759824
96	0xbd5051ab	-0.050859135
97	0xbca78d9d	-0.020453269
98	0xbd0ff118	-0.035142034
99	0x3d341f8c	0.043975398
100	0x3c91bcf8	0.017790303
101	0xbdb7076d	-0.08936963
102	0x3ba2a909	0.004963998
103	0xbd973cd4	-0.07384649
104	0xbdd66912	-0.10469259
105	0xba1e04dc	-0.0006027946
106	0xba99a36c	-0.0011721677
107	0x3e3324e5	0.17494543
108	0xbd0e27d1	-0.03470594
109	0xbd33209e	-0.043732278
110	0x3d48c8b1	0.04901952
111	0xbcb0cd4c	-0.021582268
112	0xbd115a16	-0.035486303
113	0xbd559bac	-0.052150413
114	0xbdd9e067	-0.106385045
115	0xbdc04bbf	-0.093894474
116	0xbd1af391	-0.03782994
117	0xbc589c76	-0.013220897
118	0x3d6d045b	0.05786548
119	0x3ce9dce2	0.028547708
120	0xbda3445f	-0.07972025
121	0xbd9443eb	-0.07239517
122	0x3dc8ba07	0.09801107
123	0xbd4421da	-0.047883846
124	0x3dc2228f	0.09479248
125	0x3d4b13d5	0.04957946
126	0xbdbe04c2	-0.09278251
127	0x3d94d7e6	0.07267742
128	0xbcae8337	-0.021302802
129	0xbdbeddf7	-0.0931968
130	0xbdb68b04	-0.08913234
131	0x3d6cc491	0.057804648
132	0xbd6b2844	-0.057411447
133	0x3c3d465a	0.011552418
134	0x3d80fd4e	0.06298314
135	0xba776f94	-0.00094389287
136	0x3d0b95a5	0.03407826
137	0xbd4db5b9	-0.050222132
138	0xbcd03b0e	-0.025418784
139	0xbd8186a6	-0.0632451
140	0x3c055d00	0.008139849
141	0xbd5b00e2	-0.05346764
142	0xbd835721	-0.06413103
143	0xbd99f0c4	-0.075166255
144	0xbe09bb75	-0.13450415
145	0x3da3ba12	0.079944745
146	0xbbdf9e82	-0.0068243155
147	0x3da4c8d6	0.08046119
148	0xbd8ab5bc	-0.06772944
149	0xbd859fe1	-0.06524635
150	0xbd1ef0c2	-0.038803823
151	0x3d9ae061	0.07562328
152	0xbd9984e9	-0.07496054
153	0x3d35d267	0.04439011
154	0x3c29236a	0.010323385
155	0x3cba424e	0.022736695
156	0xbd977927	-0.07396155
157	0xbd7b6de1	-0.061384086
158	0xbc45281c	-0.012033489
159	0xbdc84824	-0.09779385
160	0xbd15373f	-0.03642964
161	0x3bb3cd30	0.0054871067
162	0x3dcf673e	0.10127114
163	0x3cdcb052	0.026939545
164	0x3cc2071b	0.023685029
165	0x3b974523	0.004616396
166	0xbdf86a7d	-0.12129686
167	0xbc937bcf	-0.018003372
168	0xbbabb17e	-0.0052396646
169	0x3d87b4c2	0.06626274
170	0x3ba652cd	0.0050757886
171	0xbd126b74	-0.035747007
172	0x3bf363f7	0.007427688
173	0xbcca68c1	-0.024708154
174	0x3c3b842a	0.011445085
175	0x3bee1be9	0.0072665107
176	0xbdb8f88f	-0.09031784
177	0xbd9dbbbc	-0.07701823
178	0x3e049290	0.12946534
179	0x3dbdecee	0.092737064
180	0x3d8c246f	0.06842887
181	0x3dacb31e	0.084326014
182	0x3d74ed6b	0.059796732
183	0x3c624bfe	0.013812063
184	0x37415de4	1.1525557e-05
185	0xbdab9195	-0.08377377
186	0x3db1153a	0.08646627
187	0x3d3814bc	0.04494165
188	0xbda383dd	-0.07984135
189	0xbdab3217	-0.08359163
190	0xbd93bf25	-0.07214192
191	0x3db56ff3	0.08859243
192	0xbdde5449	-0.1085592
193	0xbd2ca0d9	-0.042145584
194	0x3df610af	0.12014901
195	0x3c5f756d	0.013638836
196	0x3daf7ed7	0.08569115
197	0x3d026e28	0.031843334
198	0x3cb6aec2	0.022300128
199	0x3dd8e2c2	0.105901256
200	0x3cdcccff	0.026953219
201	0x3d41d0d6	0.047318302
202	0x3d33b0d6	0.043869816
203	0xbc8b4ad5	-0.017003456
204	0x3da78084	0.08178809
205	0xbda27616	-0.07932679
206	0x3dcc59ce	0.099780664
207	0xbe0b3e4f	-0.13597988
208	0xbe2fdfc0	-0.17175198
209	0x3e2854c9	0.16438593
210	0xbe46d97f	-0.19418906
211	0xbd2f300c	-0.04277043
212	0x3d3d3a5d	0.046198238
213	0xbd503327	-0.050830033
214	0x3dc0cc9c	0.09414026
215	0x3d9dde4b	0.07708415
216	0xbdbd9a44	-0.092579395
217	0x3d4fb236	0.050707065
218	0xbd83833c	-0.06421515
219	0xbcdf3935	-0.027248958
220	0x3cf98821	0.03046042
221	0x3d9c2497	0.076241665
222	0x3cfc3b5e	0.030790027
223	0xbe2dfe60	-0.16991568
224	0xbda5acfb	-0.08089634
225	0x3dbdece5	0.092737
226	0xbd11932e	-0.035540752
227	0x3d978862	0.0739906
228	0xbdf413ea	-0.11917861
229	0x3d84faac	0.06493124
230	0xbd9d3d3a	-0.07677694
231	0x3e06c6d1	0.1316178
232	0xbd9abab1	-0.0755514
233	0x3d89c25f	0.067265265
234	0xbc680ccd	-0.014163208
235	0x3d99671c	0.0749037
236	0x3e2497a7	0.16073476
237	0x3c8c8869	0.01715489
238	0x3d053e1c	0.032529935
239	0xbe17308c	-0.14764613
240	0x3d2bd92e	0.041955166
241	0xbd6d3eb7	-0.057921138
242	0xbd965368	-0.07340127
243	0x3dabb044	0.083832294
244	0xbd54dcca	-0.051968373
245	0x3e13f0bd	0.14447303
246	0xbde195da	-0.1101491
247	0x3d78304d	0.06059294
248	0xbcd752a9	-0.026284533
249	0x3d8c0da3	0.068385385
250	0x3c8a5d19	0.016890096
251	0x3d70ea70	0.058817327
252	0x3dacd14c	0.08438358
253	0xbd5523c8	-0.052036077
254	0x3dc67aaf	0.09691369
255	0xbde71b10	-0.11284459

lstm.weight_ih_l1 f4 [400, 100]
0	0x3d134e8a	0.035963573
1	0x3d8da571	0.06916321
2	0x3e056dfc	0.13030237
3	0x3defebf4	0.11714926
4	0xbd8cfd2d	-0.06884227
5	0xbd9c4799	-0.07630844
6	0x3dc03e97	0.09386938
7	0xbddaf51c	-0.10691282
8	0xbd14c12b	-0.03631703
9	0x3d4aff49	0.049559865
10	0xbd07a0c8	-0.033112317
11	0x3cfa980d	0.030590082
12	0x3ce75936	0.028240781
13	0xbde39778	-0.11112875
14	0xbd9acd74	-0.07558718
15	0x3d7d6651	0.061865155
16	0xbe370de5	-0.17876394
17	0x3dfc1a92	0.123097554
18	0xbd72f13f	-0.0593121
19	0xbdb10c68	-0.086449444
20	0xbe1a2477	-0.15052973
21	0xbd126ac2	-0.035746343
22	0xbc8f3635	-0.017481903
23	0x3d4707a4	0.04859127
24	0x3d281960	0.041039824
25	0xbde6244f	-0.11237394
26	0xbdc247f0	-0.09486377
27	0x3d483835	0.04888173
28	0xbba3bf24	-0.004997151
29	0x3d3dcfbc	0.04634069
30	0xbe240c46	-0.16020307
31	0x3da27feb	0.07934555
32	0xbd19a05c	-0.037506446
33	0xbca8fdf8	-0.020628914
34	0x3dc3219b	0.09527894
35	0xbd68e692	-0.056860514
36	0xbbd5453d	-0.006508498
37	0x3dcbe5d5	0.09955946
38	0x3e137fe8	0.14404261
39	0x3d80cc81	0.06289006
40	0x3dad0b6e	0.08449446
41	0xbe12dbf5	-0.1434172
42	0x3d4380d2	0.047730274
43	0x3c195e52	0.009360867
44	0x3d0e3843	0.034721624
45	0xbcefc233	-0.029267406
46	0x3c4563a1	0.012047679
47	0x3dafed7a	0.08590217
48	0xbcc16a82	-0.023610357
49	0x3cd0ca88	0.0254872
50	0x3bea90e7	0.007158387
51	0x3c9b149b	0.018930724
52	0x3ce5b67a	0.028041113
53	0xbe1c54ff	-0.15266798
54	0xbd85d59a	-0.06534882
55	0xbcf1ddb6	-0.029524665
56	0x3d2c4e48	0.042066842
57	0x3dcf2629	0.101147
58	0x3e1ff14d	0.15619393
59	0x3db2ed75	0.087366976
60	0x3c01a85c	0.007913675
61	0x3d5d1b39	0.05398104
62	0x3d449a6b	0.047998827
63	0xbe1f1ba1	-0.15537883
64	0x3e0405e5	0.12892874
65	0x3d96e7b6	0.07368414
66	0xbddccd3d	-0.107813336
67	0x3d4148fb	0.04718874
68	0x3e07d57c	0.13265032
69	0x3db2fe43	0.08739903
70	0xbd95a39f	-0.07306599
71	0xbbd0be7f	-0.006370365
72	0xbd0fc3e5	-0.03509893
73	0x3c1bf1fe	0.009518145
74	0x3cfe5cde	0.031050142
75	0x3c5320f2	0.012886273
76	0xbda612f2	-0.08109082
77	0xbd72bbf3	-0.059261274
78	0x3c27f493	0.010251182
79	0x3bdfc0b4	0.006828392
80	0x3c92c8b7	0.017917974
81	0x3e24e1a7	0.16101705
82	0x3daa5f3f	0.08318948
83	0x3e3270b6	0.17425808
84	0x3ca9042d	0.020631874
85	0x3df21d0e	0.11821948
86	0xbc8cb11c	-0.017174296
87	0x3e1491c9	0.14508738
88	0xbd5895c0	-0.052877188
89	0x3ccdc374	0.025117613
90	0x3d313115	0.0432597
91	0x3d50e79a	0.051002122
92	0x3cb6beb7	0.022307737
93	0xbddd4e93	-0.108060025
94	0x3e1dd618	0.15413702
95	0x3d87085b	0.065933906
96	0x3cd404cb	0.025881192
97	0x3da63105	0.081148185
98	0xbd503cb1	-0.05083913
99	0xbdf53a76	-0.11974041
100	0xbd8a4313	-0.06751075
101	0x3ca7c440	0.020479321
102	0x3c7c9053	0.015415269
103	0xbd86acd7	-0.06575935
104	0x3da58d7f	0.08083629
105	0x3cc3be67	0.023894502
106	0x3c50a977	0.012735716
107	0x3cd565e2	0.026049558
108	0xbcb79c01	-0.022413256
109	0x3c5eb3d1	0.013592676
110	0x3c30cf10	0.010791555
111	0x3ce00675	0.027346829
112	0xbd2c3465	-0.042042155
113	0x3cb17959	0.021664308
114	0x3e0ba2cb	0.1363632
115	0x3bf988a1	0.0076151644
116	0xbd0cd2e2	-0.0343808
117	0x3d136d42	0.03599287
118	0xbe0613a7	-0.13093434
119	0xbcbcdcdb	-0.02305453
120	0xbdd6681d	-0.10469077
121	0xbdeeaa2a	-0.1165355
122	0x3d217cf4	0.039425805
123	0xbd9ccadc	-0.0765588
124	0x3db342b1	0.08752955
125	0xbe1f6de2	-0.1556926
126	0x3d67a0c9	0.05654982
127	0xbdd830eb	-0.10556205
128	0x3dc0a96e	0.09407316
129	0xbe25dd1e	-0.16197631
130	0x3e0cc868	0.13748324
131	0x3d9b5cf3	0.07586088
132	0x3dd60ac4	0.10451272
133	0xba72563d	-0.0009244418
134	0xbe1fd80a	-0.15609756
135	0xbe1520bd	-0.1456327
136	0x3d803952	0.06260933
137	0xbdd537a7	-0.104110055
138	0xbde95bc9	-0.1139446
139	0xbd06b443	-0.032886755
140	0x3c18f1f8	0.009335034
141	0xbcacf759	-0.021114038
142	0xbd635e9f	-0.05551016
143	0x3ae47130	0.0017428752
144	0xbdb87c29	-0.09008057
145	0x3ba27ae6	0.0049584983
146	0xbdaaafdc	-0.08334324
147	0xbd9a1744	-0.07523969
148	0x3d691ae0	0.056910396
149	0xbe1353e7	-0.14387475
150	0xbd194f19	-0.03742895
151	0xbd916ff7	-0.07101434
152	0x3c15f8a5	0.00915352
153	0xbd1900cd	-0.03735428
154	0xbd9ddeca	-0.07708509
155	0xbda8b4f5	-0.0823764
156	0x3dd1edbd	0.10250423
157	0x3db28db9	0.08718438
158	0xbab84869	-0.0014059666
159	0xbdbb6d42	-0.09151699
160	0xbcb5a46c	-0.022173129
161	0x3d62740b	0.05528645
162	0xbd4630b3	-0.048386287
163	0xbcf6555b	-0.030069998
164	0xbc909d70	-0.017653197
165	0x3c5eea57	0.013605676
166	0xbc9227c3	-0.017841225
167	0xbdda355a	-0.10654707
168	0x3d74cc2d	0.05976503
169	0xbd869780	-0.06571865
170	0x3dfd58cd	0.12370453
171	0x3e1d6633	0.15371017
172	0x3dfc3247	0.12314277
173	0xbdfcefd2	-0.123504296
174	0xbcc0b77b	-0.02352499
175	0x3dac3188	0.08407885
176	0x3d8091d0	0.062778115
177	0x3df90501	0.121591575
178	0x3d214778	0.0393748
179	0x3e195f1d	0.14977689
180	0x3dced383	0.100989364
181	0x3d8c976e	0.068648204
182	0xbd031442	-0.03200174
183	0x3d6ab5c6	0.05730226
184	0x3d1ffe21	0.039060716
185	0xbd788a9f	-0.060679074
186	0x3cb77728	0.022395685
187	0x3c7cf783	0.015439871
188	0xbe2e1339	-0.1699952
189	0xbdd495f2	-0.10380162
190	0xbd90d21b	-0.070713244
191	0xbd35ce32	-0.044386096
192	0x39a686fe	0.00031762564
193	0xbd9913ab	-0.074744545
194	0xbd8c288e	-0.06843673
195	0xbd1625a7	-0.036657
196	0xbe2b2228	-0.16712248
197	0x3d89f448	0.06736046
198	0xbcc0bac2	-0.023526553
199	0xbc6028ec	-0.013681632
200	0xbe0d265c	-0.13784164
201	0x3da3a5da	0.07990618
202	0xbe0a43d1	-0.13502432
203	0xbd9a5cba	-0.075372174
204	0x3cc98c9f	0.024603186
205	0x3e107ee3	0.14110903
206	0x3b66800f	0.0035171544
207	0x3e186eb0	0.14885974
208	0xbb92046f	-0.004456095
209	0xbd0afa99	-0.033930395
210	0x3e549b53	0.20762376
211	0x3af5e28e	0.0018759535
212	0xbdccce72	-0.10000314
213	0xbd9637bb	-0.073348485
214	0xbd0065f7	-0.03134724
215	0xbd6e321a	-0.05815325
216	0xbd2d94ce	-0.04237824
217	0xbddc595b	-0.10759231
218	0xbd7bd836	-0.06148549
219	0x3d370105	0.044678707
220	0x3cdc027a	0.02685665
221	0xbd9648cf	-0.07338106
222	0xbe3ae658	-0.18251932
223	0xbc1a9e36	-0.0094371345
224	0x3dc2af5f	0.09506106
225	0xbd616e80	-0.05503702
226	0xbdd04e14	-0.10171142
227	0x3dbd64e4	0.09247759
228	0x3da0f9b7	0.07860129
229	0xba438423	-0.00074583496
230	0x3c49c3de	0.012314765
231	0x3a9c5d97	0.0011929747
232	0x3decdf37	0.11566012
233	0xbe22628b	-0.15857904
234	0xbe296fd7	-0.1654657
235	0xbdb175ae	-0.08665024
236	0xbdb4f085	-0.08834938
237	0x3db7410d	0.08947954
238	0xbe445a52	-0.1917508
239	0x3d392e50	0.045210183
240	0xbe39c86b	-0.1814286
241	0x3e000898	0.12503278
242	0x3dca66fb	0.09882923
243	0xbc2dd558	-0.010609947
244	0x3d7ea9d8	0.062173694
245	0xbe15b8a4	-0.14621216
246	0x3e18eb1d	0.14933439
247	0xbe0d938f	-0.1382582
248	0xbd5df7cb	-0.054191392
249	0xbb04b3b4	-0.0020248713
250	0x3e1f6a97	0.15568005
251	0xbdc0bcf7	-0.09411042
252	0xbd870408	-0.06592566
253	0xbcb8142b	-0.022470554
254	0xbd43866d	-0.04773562
255	0x3db7e4bb	0.08979174

lstm.weight_hh_l1 f4 [400, 100]
0	0xbd7a75d6	-0.061147533
1	0x3dcadc1a	0.09905262
2	0x3e13babc	0.14426702
3	0x3d8f6760	0.07002139
4	0xbd815619	-0.0631525
5	0xbe033be7	-0.1281582
6	0x3d73069a	0.059332468
7	0xbdc938e3	-0.098253034
8	0xbd819c82	-0.063286796
9	0xbcbd1a51	-0.023083838
10	0xbd2cfe65	-0.042234797
11	0x3cdeb9d9	0.027188228
12	0x3c4d2404	0.012520794
13	0x3d17e2a2	0.03708137
14	0xbddff42b	-0.10935243
15	0xbe4787de	-0.19485423
16	0x3cd16028	0.025558546
17	0x3d7417bd	0.05959295
18	0xbc790879	-0.015199774
19	0x3e10b0d7	0.14129959
20	0x3c0103c9	0.007874438
21	0xbcf5d7ec	-0.030010186
22	0xbc10881b	-0.008821513
23	0xba872391	-0.0010310282
24	0xbda289cc	-0.07936439
25	0xbd1d04b6	-0.03833457
26	0x3e1dee03	0.15422826
27	0xbe1af69f	-0.15133141
28	0xbd8d2278	-0.0689134
29	0xbc9f6ba4	-0.019460507
30	0x3b923b95	0.004462669
31	0xbd537e0a	-0.051633872
32	0x3d157747	0.036490705
33	0x3df63527	0.12021857
34	0xbc9c9349	-0.0191132
35	0xbd95618b	-0.072939955
36	0xbe1f3186	-0.15546235
37	0x3e2a429a	0.16626969
38	0x3d94408e	0.07238875
39	0x3d4ead7c	0.050458416
40	0x3dad0695	0.08448521
41	0x3e2d0597	0.16896664
42	0x3b3efe15	0.0029143144
43	0xbd95e135	-0.073183455
44	0xbe12a784	-0.14321715
45	0x3d171d25	0.03689303
46	0x3c5a136a	0.013310293
47	0xbd8b79f7	-0.06810372
48	0xbdfb50ae	-0.12271248
49	0xbe21e9bf	-0.15811823
50	0x3dbe402d	0.09289584
51	0xbd4d2ccd	-0.050091553
52	0xbdba5f24	-0.09100178
53	0x3be5c9b9	0.0070125726
54	0x3c85c319	0.016328381
55	0xbddb67da	-0.107131675
56	0x3de10736	0.109877035
57	0xbdf5cd12	-0.12002005
58	0xbb8d0a77	-0.004304226
59	0x3e087159	0.13324489
60	0x3e264e31	0.16240765
61	0xbdc5701f	-0.09640526
62	0x3d015282	0.031572826
63	0xbe2791ad	-0.16364165
64	0xbe01b4aa	-0.12666574
65	0x3dee08e4	0.116227895
66	0xbdc250ef	-0.09488093
67	0x3da756fa	0.08170886
68	0xbd28bc33	-0.041195106
69	0xbde7b9f7	-0.11314767
70	0x3dc3f6e7	0.09568577
71	0x3c9c5666	0.019084167
72	0xbcb6c45b	-0.022310426
73	0xbc95f54a	-0.01830544
74	0x3d1866d7	0.03720745
75	0x3e07d9b8	0.13266647
76	0x3e0067eb	0.12539642
77	0xbcaff909	-0.021481054
78	0xbd227dfe	-0.039670937
79	0x3e0e5d15	0.13902695
80	0xbd1dd881	-0.038536552
81	0xbdda95a3	-0.10673072
82	0xbe1462e7	-0.14490853
83	0xbe00deb0	-0.12584949
84	0xbd549d97	-0.051908102
85	0x3d22c399	0.039737318
86	0xbdf04ac3	-0.1173301
87	0x3be100b9	0.006866541
88	0x3d9582b4	0.0730032
89	0xbe37cb11	-0.17948557
90	0xbe2c2ed1	-0.16814734
91	0x3dd36dbe	0.10323666
92	0xbe34a7d7	-0.17642151
93	0xbdf0a542	-0.117502704
94	0xbdf9aa6d	-0.12190709
95	0x3c70f37e	0.014706491
96	0x3db7e2e2	0.08978821
97	0x3e0c85f2	0.13722971
98	0xbd226cc0	-0.039654493
99	0x3c858c38	0.016302213
100	0xbdda2199	-0.106509395
101	0x3db7ba10	0.089710355
102	0x3ca58684	0.020205744
103	0x3db34941	0.087542064
104	0xbd71a0a6	-0.058991097
105	0xbdab0300	-0.083501816
106	0x3be31cfb	0.006930945
107	0xbd56f344	-0.05247809
108	0x3dc5febb	0.096677266
109	0xbd0aab17	-0.03385457
110	0x3d89f1b6	0.06735556
111	0xbb8d41b5	-0.0043108114
112	0xbd80fd56	-0.0629832
113	0xbb217674	-0.0024637254
114	0xbc9a71b1	-0.01885304
115	0xbb00e000	-0.0019664764
116	0x3de55030	0.11196935
117	0x3da637f5	0.08116142
118	0x3cc242ba	0.023713458
119	0x3d16ee68	0.036848456
120	0x3ceba1fa	0.02876376
121	0x3d3c6450	0.045994103
122	0x398c06b3	0.00026707872
123	0x3d9211df	0.07132315
124	0x3cfcfc00	0.030881882
125	0xbdca326a	-0.09872897
126	0xbd19605d	-0.037445415
127	0x3db7cd1a	0.08974667
128	0x3d4aa2b6	0.04947158
129	0x3d0caedf	0.034346458
130	0xbc03db1a	-0.008047843
131	0x3d88be2e	0.06676899
132	0xbdd2dfce	-0.102965936
133	0x3bc7a588	0.006092731
134	0xbd287f71	-0.041137163
135	0x3cd965f0	0.026537865
136	0x3d4ff603	0.050771724
137	0x3c2749cb	0.010210465
138	0x3cc3a840	0.023883939
139	0xbdc66011	-0.09686292
140	0x3c0c4c95	0.00856318
141	0x3d2d3ce7	0.04229441
142	0xbcd11d60	-0.025526702
143	0x3e2540c6	0.1613799
144	0x3d3b98e3	0.0458001
145	0xbce60a3b	-0.02808105
146	0x3d0a71af	0.033799823
147	0x3e05ed5c	0.13078827
148	0xbcf995a9	-0.030466871
149	0x3b7f4c79	0.0038955493
150	0xbe512a81	-0.2042637
151	0x3cee0273	0.029053902
152	0x3dcfd4cd	0.101480104
153	0x3e41c2d4	0.18921977
154	0x3d978f33	0.0740036
155	0xbcbe8375	-0.023256043
156	0xbd5f123b	-0.054460745
157	0x3d757e84	0.059935108
158	0xbc55a548	-0.013039894
159	0xbde7a43f	-0.11310624
160	0xbd2e1ea2	-0.042509682
161	0xbd1d55fa	-0.03841207
162	0xbd13f5f5	-0.036123235
163	0xbc5973fc	-0.013272282
164	0xbd77f6a4	-0.06053795
165	0x3dd3d51d	0.103433825
166	0x3de89644	0.11356786
167	0x3d559de1	0.05215252
168	0x3ccab647	0.02474512
169	0x3d817672	0.0632142
170	0x3d5f1f46	0.054473184
171	0xbce946c5	-0.028476128
172	0x3d8e8269	0.069584675
173	0x3d9b475e	0.075819716
174	0x3c884ce0	0.01663822
175	0xbd1802b3	-0.03711195
176	0x3d9fc74f	0.07801687
177	0x3cfd35d2	0.030909453
178	0xbc857393	-0.016290462
179	0x3d92b32e	0.07163082
180	0x3cc3b6cf	0.02389088
181	0x3d002e08	0.0312939
182	0xbd1b3ae3	-0.037897956
183	0xbdbab857	-0.09117191
184	0x3cbfc363	0.023408597
185	0x3b66ee67	0.0035237314
186	0xbc436354	-0.011925537
187	0x3d6c86b1	0.05774564
188	0x3d57326d	0.052538324
189	0x3d6a59be	0.05721449
190	0x3cc632eb	0.024194201
191	0x3d7daaaf	0.061930355
192	0x3c87bd8a	0.016569871
193	0xbd56ee4f	-0.052473363
194	0xbaa74273	-0.0012760892
195	0x3dac17db	0.084029876
196	0xbd098485	-0.033573646
197	0x3d286dc9	0.041120324
198	0x3e3975b2	0.18111303
199	0xbd6f2f4d	-0.05839472
200	0x3dff5e1d	0.124691226
201	0x3daebaa0	0.0853169
202	0x3d017325	0.03160395
203	0xbd696ea7	-0.056990292
204	0xbdd28c08	-0.10280615
205	0x3d7b7b7a	0.061397053
206	0x3d449dd7	0.04800209
207	0x3b39895e	0.0028310637
208	0xbd9f366a	-0.077740505
209	0xbbe4282a	-0.0069627957
210	0xbdbe43b9	-0.09290261
211	0xbca0066c	-0.019534312
212	0x3dfd63c1	0.12372542
213	0x3c4e7f00	0.012603521
214	0xbd57763e	-0.052603
215	0xbbbe7a41	-0.0058129136
216	0xbde53b66	-0.1119297
217	0xbd00eb15	-0.03147419
218	0xbc582905	-0.013193374
219	0x3cd012d9	0.025399612
220	0xbd97ac52	-0.07405914
221	0x3c47a64f	0.012185647
222	0xbe0050d7	-0.12530838
223	0xbd840947	-0.06447082
224	0xbc34dd01	-0.01103902
225	0xbcf4291e	-0.029804762
226	0xbd868d75	-0.065699495
227	0x3cd4c1be	0.02597129
228	0xbc2f42c5	-0.010697071
229	0xbcdeb9d4	-0.02718822
230	0x3dee84ce	0.11646424
231	0xbd884493	-0.066537045
232	0x3df41dbf	0.11919736
233	0xbdb4e16a	-0.08832057
234	0x3d2bb599	0.041921232
235	0x3cd9c2b0	0.026582092
236	0x3d5355d1	0.051595513
237	0x3d96372a	0.073347405
238	0xbd6c2b9b	-0.057658773
239	0xbe0ed3cc	-0.13947982
240	0x3d601243	0.054704916
241	0x3d3e1a96	0.046412073
242	0xbdfbc2fd	-0.122930504
243	0x3d339d75	0.043851335
244	0xbd33667d	-0.043798912
245	0x3dfa1829	0.122116394
246	0x3ddb547d	0.10709474
247	0x3c2d9a3d	0.010595855
248	0xbe075ec5	-0.13219745
249	0xbe2368af	-0.15957902
250	0xbc838e2b	-0.016059002
251	0xbbae41e6	-0.0053179143
252	0x3db264cc	0.08710632
253	0xbdc5cd7a	-0.09658332
254	0x3d87a29e	0.06622814
255	0xbdebfcce	-0.11522828

lstm.bias_ih_l1 f4 [400]
0	0x3cebf598	0.028803632
1	0x3cf22be5	0.029561946
2	0x3bdcecf9	0.0067421165
3	0xbd02db57	-0.03194746
4	0xbcb4f38c	-0.022088788
5	0xbdd9a858	-0.10627812
6	0xbd7287df	-0.059211608
7	0xbdb6d2aa	-0.089269
8	0xbcc07373	-0.02349255
9	0x3da93576	0.0826215
10	0xbd85f41c	-0.06540701
11	0xbda1cb9b	-0.07900163
12	0xbd98d504	-0.074625045
13	0x3c751de9	0.014960744
14	0x3d87b838	0.06626934
15	0x3dca2950	0.09871161
16	0xbd5a4c6d	-0.05329554
17	0xbd88eadb	-0.0668542
18	0xbdd5ca1a	-0.104389384
19	0xbe1e2b5b	-0.15446226
20	0xbda9d662	-0.082928434
21	0xbd20f956	-0.039300285
22	0xbe2185bd	-0.15773673
23	0xbd024571	-0.031804506
24	0x3c06597e	0.008200048
25	0x3d8d2939	0.06892628
26	0x3d7475e5	0.059682745
27	0xbd52c3c9	-0.051456247
28	0x3c286a64	0.010279272
29	0x3d0dd3e4	0.034625903
30	0xbe4a9a17	-0.19785343
31	0x3cb0443c	0.021516912
32	0xbd3e5a20	-0.04647267
33	0xbcf6f53d	-0.030146236
34	0xbc041758	-0.008062206
35	0xbd75ab95	-0.059978087
36	0x3dc0f3de	0.09421514
37	0xbd81cef9	-0.06338305
38	0x3c86751b	0.016413262
39	0xbe184acf	-0.14872287
40	0xbd2891ca	-0.04115466
41	0xbdb47ff9	-0.08813471
42	0x3d97e073	0.07415857
43	0xbe753d36	-0.23949131
44	0xbdfe4438	-0.124153554
45	0x3d04d973	0.03243394
46	0x3ccc3476	0.02492736
47	0xbc690479	-0.014222258
48	0xbd8f6303	-0.07001307
49	0x3d931c7d	0.07183168
50	0x3dc420c6	0.095765635
51	0x3d84b047	0.06478935
52	0x3d293f8a	0.04132036
53	0xbc294655	-0.01033171
54	0x3d28e809	0.04123691
55	0xbdef7f3f	-0.11694192
56	0x3a94f028	0.0011363076
57	0x3b2dffd1	0.0026550184
58	0x3d5b8515	0.053593714
59	0x3d144088	0.036194354
60	0xbe127b81	-0.14304926
61	0x3d930f31	0.07180632
62	0xbcb7c9d8	-0.022435114
63	0xbe10e35e	-0.14149234
64	0xbad44624	-0.001619522
65	0x3caa26a3	0.020770377
66	0xbd344729	-0.044013176
67	0xbe2ecb9e	-0.17069861
68	0x3ca5c74f	0.02023664
69	0xbe2bffa4	-0.16796738
70	0x3d249c71	0.040188257
71	0xbdc054c8	-0.09391171
72	0xbd4b147b	-0.04958008
73	0x3d40f9c0	0.04711318
74	0x3db887c2	0.09010269
75	0xbd411782	-0.04714156
76	0xbddfed56	-0.1093394
77	0xbc7403d8	-0.014893495
78	0xbc95dc49	-0.018293517
79	0xbe11aeef	-0.14226888
80	0xbc7c2883	-0.015390518
81	0xbdf0a8d9	-0.11750955
82	0x3cc5498c	0.024082921
83	0x3b9a3435	0.0047059306
84	0x3d6f0cf4	0.058361962
85	0x3d8dc73b	0.06922766
86	0xbc19b3f4	-0.009381283
87	0x3d16fb4f	0.03686076
88	0xbe0cb419	-0.13740577
89	0xbcc13021	-0.02358252
90	0x3d9d411b	0.076784335
91	0x3d1dbae0	0.038508296
92	0xbe16a624	-0.14711815
93	0x3d20a317	0.039218035
94	0xbde520aa	-0.11187871
95	0x3aa82fed	0.0012831666
96	0x3ceaa9c7	0.02864541
97	0xbc9ce147	-0.01915039
98	0xbdeab4a0	-0.11460233
99	0xbd9ce32c	-0.07660517
100	0xbdda9f39	-0.106749006
101	0xbdde2a83	-0.10847952
102	0x3dc973da	0.0983655
103	0xbd371afa	-0.04470346
104	0xbd6c1c64	-0.057644263
105	0x3dbc3203	0.091892265
106	0xbc9bb517	-0.019007249
107	0x3e03c0dd	0.1286654
108	0x3da7a2dc	0.0818536
109	0xbcd13e0e	-0.025542285
110	0xbd48cd1b	-0.04902373
111	0x3c83a395	0.016069213
112	0xbc185d22	-0.009299548
113	0x3c0ef28f	0.008724823
114	0x3d8b31bc	0.067965955
115	0x3e24ae62	0.16082147
116	0x3c5c5381	0.013447643
117	0xbde3f952	-0.111315385
118	0x3d56449c	0.052311525
119	0xbd19a6df	-0.037512656
120	0xbd79356c	-0.060841963
121	0xbd035a4d	-0.03206854
122	0xbcd6c774	-0.026218154
123	0x3dbd82d2	0.092534676
124	0x3bc14c37	0.005898978
125	0xbd245f3e	-0.040129893
126	0x3dc6536f	0.096838824
127	0xbcab8df1	-0.020941706
128	0xbca917e1	-0.02064127
129	0x3e0c0e76	0.13677391
130	0xbe0f94e6	-0.14021644
131	0x3d550153	0.052003216
132	0xbbc547d6	-0.0060205264
133	0xbdbd82df	-0.09253477
134	0xbd96a2c3	-0.07355263
135	0x3db2f840	0.08738756
136	0x3df9fe4d	0.12206707
137	0x3e05636b	0.13026206
138	0xbd4c1660	-0.049826026
139	0xbda29f54	-0.07940546
140	0xbd8216fe	-0.06352042
141	0x3db420bd	0.08795307
142	0xbd73f34f	-0.05955821
143	0xbe450f42	-0.19244102
144	0xbda2e87e	-0.079545006
145	0x3c21142e	0.009831471
146	0x3dbc98d6	0.09208839
147	0xbdc01f9e	-0.093810305
148	0x3bf2f6dc	0.007414682
149	0x3d1d8dcd	0.03846531
150	0x3dfc0be2	0.12306954
151	0xbd8a7803	-0.06761172
152	0x3db9cbe8	0.09072095
153	0x3d1abb06	0.037776016
154	0x3e00c3e6	0.1257473
155	0xbd936bff	-0.07198333
156	0xbc204a54	-0.009783346
157	0xbd2cf0c6	-0.042221807
158	0xbddb452c	-0.10706553
159	0xbdddde76	-0.10833447
160	0xbd7ded9a	-0.061994173
161	0x3dda6a52	0.1066481
162	0xbb0288a0	-0.001991786
163	0x3cab6fc8	0.020927325
164	0xbd2ee333	-0.042697143
165	0xbd5da920	-0.05411637
166	0x3d539d03	0.05166341
167	0xbd0791f8	-0.03309819
168	0x3d60b9ca	0.054864682
169	0xbd3054b1	-0.043049518
170	0x3d10aec7	0.03532293
171	0x3d0e13b2	0.03468675
172	0xbc38a508	-0.011269815
173	0x3d91cc43	0.07119038
174	0xbb145120	-0.0022631362
175	0xbe067a6e	-0.1313264
176	0xbe266bdc	-0.16252083
177	0x3df1976e	0.11796461
178	0x3dad27bc	0.08454844
179	0xbdb2b875	-0.08726589
180	0x3d8d800a	0.06909187
181	0xbdaee381	-0.08539487
182	0x3ba8f782	0.0051564584
183	0x3d9cc0ef	0.07653987
184	0x3b9534ca	0.004553412
185	0xbd2cba37	-0.042169776
186	0x3d83f60d	0.06443415
187	0x3af85ec6	0.0018949143
188	0x3a87696d	0.0010331102
189	0x3dfcc227	0.12341719
190	0x3d9a895e	0.07545732
191	0xbc123d4c	-0.008925747
192	0xbc313b24	-0.010817323
193	0x3d9dac8d	0.07698927
194	0xbe22d206	-0.1590043
195	0x3c94557c	0.018107168
196	0xbda03afd	-0.07823751
197	0xbde8a344	-0.113592654
198	0x3ce0a301	0.027421476
199	0x3da26c8a	0.079308584
200	0xbd904b4a	-0.0704561
201	0x3d0a3353	0.033740353
202	0xbd54633e	-0.051852457
203	0x3cd4614e	0.025925305
204	0xbdc3a6a9	-0.09553272
205	0xbd934863	-0.07191541
206	0x3cd039d9	0.025418209
207	0xbd51a221	-0.05118001
208	0xbde4b7f5	-0.111678995
209	0xbd627cf9	-0.055294964
210	0x3d8000b5	0.06250135
211	0x3c72a75c	0.014810409
212	0x3d3c346e	0.04594844
213	0x3db116f7	0.08646958
214	0xbc933251	-0.017968329
215	0x3c51c9bd	0.012804446
216	0xbd7c184d	-0.061546613
217	0xbd2736ff	-0.040823933
218	0x3dc568e9	0.09639151
219	0xbcc416ed	-0.023936713
220	0xbc8352ab	-0.01603063
221	0xbd5b3be9	-0.05352393
222	0x3d477f9e	0.04870569
223	0xbd884bff	-0.0665512
224	0x3d924ba6	0.07143335
225	0x3d6cca4e	0.05781012
226	0xbc5cc7ca	-0.013475368
227	0x3c20f07f	0.009822964
228	0x3ca400a4	0.020019837
229	0xbdde7053	-0.10861268
230	0x3c352de7	0.011058307
231	0xbd9efc63	-0.07762983
232	0x3ce55c7d	0.027998203
233	0x3dc95c2d	0.09832034
234	0xbb9ce519	-0.0047880528
235	0x3b942fb7	0.0045222896
236	0x3d362010	0.04446417
237	0x3daed23c	0.08536193
238	0x3b1f2218	0.0024281796
239	0xbdd84ed8	-0.10561913
240	0xbcbd934c	-0.023141526
241	0x3cb90e91	0.022589954
242	0x3d0a60e3	0.033783805
243	0x3d859341	0.06522227
244	0xbd3fbff8	-0.046813935
245	0xbba56da5	-0.005048471
246	0xbd2bf69c	-0.041983232
247	0xbd2eaf3d	-0.04264759
248	0xbddcf68f	-0.10789215
249	0x3dbee47e	0.09320925
250	0xbd0d9c3c	-0.034572825
251	0xbc942660	-0.018084705
252	0xbc8239d0	-0.015896708
253	0xbd7a01a9	-0.06103674
254	0xbce4730d	-0.027886892
255	0xbb98143e	-0.004641085
