backend/model/lstm-GOOGL-30-.pth (torch, 26188 bytes, 12 tensors)

conv1.weight f4 [2, 4, 3]
000000 d1 0e a3 33 16 7f c0 bc af b3 03 b5 64 94 92 bc
       7.592974e-08 -0.0234981 -4.9062777e-07 -0.017893024
000010 6b 3d ac 34 6d 35 d7 3a 08 7f 43 ba 9c 9d e3 34
       3.2082184e-07 0.001641912 -0.0007457589 4.239672e-07
000020 d9 8d b9 34 c4 55 d0 34 08 10 f5 b8 d8 33 27 bb
       3.4562143e-07 3.8805422e-07 -0.000116854964 -0.002551308
000030 c3 bf 57 35 cf 94 cc 38 9e dd 90 b9 fa e2 7c 36
       8.037279e-07 9.755196e-05 -0.00027630938 3.7683044e-06
000040 10 d8 e4 3c 61 06 1f 3c fa 82 78 3c 15 e7 26 bc
       0.027935058 0.009706111 0.015167946 -0.01018693
000050 ac 09 93 36 50 02 ac bb 07 5e 1d 36 d1 95 5d b9
       4.3820673e-06 -0.005249299 2.3449554e-06 -0.00021132013

conv1.bias f4 [2]
000000 89 71 68 b7 c7 4c 05 38
       -1.3854712e-05 3.1781175e-05

lstm.weight_ih_l0 f4 [80, 2]
000000 61 74 25 b3 c5 03 d2 35 e2 35 56 b9 e9 e6 86 b7
       -3.8522902e-08 1.5647316e-06 -0.00020428703 -1.608157e-05
000010 e3 e7 d8 3a 37 38 51 32 b1 40 40 bb 99 7b 0e b9
       0.00165486 1.2178183e-08 -0.0029335434 -0.00013588219
000020 08 40 5d 3a d6 b6 d0 33 6b 22 bb bb a9 56 9b 34
       0.00084400224 9.7190124e-08 -0.00571089 2.8934053e-07
000030 3b c0 01 31 f3 48 d3 b1 11 10 4a ba 7a 67 d2 34
       1.888124e-09 -6.1492016e-09 -0.00077080826 3.9190837e-07
000040 36 ad 78 b4 4d 5d 22 3a 87 74 24 b1 2c 20 d2 b9
       -2.3159814e-07 0.00061937125 -2.393138e-09 -0.0004007829
000050 e6 42 ee ba e5 12 88 b9 ea 17 61 37 4f e6 25 34
       -0.0018177896 -0.0002595402 1.3416613e-05 1.5450608e-07
000060 30 60 2f 39 8d 2d 39 38 c9 35 65 b4 b6 42 28 34
       0.00016725133 4.414986e-05 -2.1346854e-07 1.5670489e-07
000070 4e 1a bd b3 f0 98 0d 34 34 18 d0 b3 cc 06 e2 bb
       -8.805783e-08 1.3187287e-07 -9.690157e-08 -0.006897783
000080 ff 31 8d b4 31 54 4a 34 67 6f cf b7 6b 40 4e 38
       -2.6299674e-07 1.8843345e-07 -2.4728199e-05 4.917422e-05
000090 c5 4d 03 b5 08 08 ca 34 a0 14 6c 39 ec 39 74 33
       -4.891447e-07 3.7631276e-07 0.00022514397 5.6863357e-08
0000a0 b9 e7 0c 31 8a 8d 8f 34 b9 8a b8 b4 1c 14 ce 36
       2.05044e-09 2.673881e-07 -3.4373605e-07 6.1416195e-06
0000b0 02 50 e8 39 bc 0e 29 32 ce 8b 7f b4 51 ac 4a 35
       0.000443101 9.840445e-09 -2.3799586e-07 7.550162e-07
0000c0 72 e4 8f b4 49 43 21 34 19 78 40 ba 3f 42 d6 37
       -2.6802041e-07 1.5018772e-07 -0.00073421147 2.5541636e-05
0000d0 4a bf 43 31 1a 1c a9 b1 d3 c4 54 b4 32 02 91 3b
       2.848497e-09 -4.921742e-09 -1.9815643e-07 0.0044253105
0000e0 83 2d 6c b5 4a 93 cc 35 50 22 c4 3b cd 47 9c 31
       -8.798308e-07 1.5242051e-06 0.0059855357 4.5483604e-09
0000f0 b8 4f 81 bb 63 23 51 3b fa 3b a3 b3 5a eb d3 ba
       -0.003946271 0.0031911961 -7.601189e-08 -0.0016168163
000100 d7 27 00 b5 0b a7 f9 34 8b b2 a6 b3 c3 07 0d 34
       -4.774169e-07 4.6501404e-07 -7.762454e-08 1.3134472e-07
000110 89 cf b8 bb 8e 54 80 b9 ab f1 13 b4 3a 3b 1d 38
       -0.0056399745 -0.0002447706 -1.377836e-07 3.7486876e-05
000120 e8 39 ec b3 9f 14 5a 37 41 cb 89 b2 a3 ea de b8
       -1.10001395e-07 1.2998614e-05 -1.6041328e-08 -0.000106294894
000130 cf e8 0e b4 c8 c3 6d 34 77 48 fc 3b f1 d1 32 ba
       -1.3309476e-07 2.214357e-07 0.007699068 -0.0006821445
000140 c3 80 40 3a eb 58 66 3a 45 e4 bf 38 8d 0e 53 38
       0.0007343406 0.00087870535 9.150108e-05 5.031987e-05
000150 49 fb 10 b7 22 31 e8 ba c5 94 48 b8 a7 99 ca b8
       -8.641576e-06 -0.0017714838 -4.782227e-05 -9.6607306e-05
000160 69 3d 18 b8 61 9d 4d 38 5c 3e ad 37 c4 5c dd b7
       -3.6296817e-05 4.902238e-05 2.0652245e-05 -2.638845e-05
000170 30 7a b5 b4 d9 f4 95 36 9b 71 4e b8 63 36 bf 38
       -3.380278e-07 4.46905e-06 -4.922003e-05 9.11772e-05
000180 69 c8 16 b9 82 b4 b2 38 7c 13 bf 36 1d 2c 50 b7
       -0.00014379773 8.5213236e-05 5.694512e-06 -1.2408037e-05
000190 72 ca 37 38 51 23 ea b7 96 4d c7 b7 9a 4a 1e 38
       4.3819142e-05 -2.791142e-05 -2.3758777e-05 3.7739614e-05
0001a0 11 0b 82 b8 55 a5 89 38 07 b2 a2 37 42 ff 1e b8
       -6.200944e-05 6.5634646e-05 1.9394805e-05 -3.7907863e-05
0001b0 c7 07 f5 b7 ce 18 b5 3a d1 a5 80 b9 58 28 12 b8
       -2.9209898e-05 0.0013816596 -0.00024537605 -3.4846686e-05
0001c0 d7 f1 b0 37 f9 fe 87 b8 84 61 2d 3b 1d 15 b7 ba
       2.109345e-05 -6.484794e-05 0.002645583 -0.0013968084
0001d0 da cb 9f ba f4 20 78 b8 b1 b4 cf 37 d8 37 79 b8
       -0.001219149 -5.9158498e-05 2.4760464e-05 -5.9418235e-05
0001e0 5c 1c 3d 2f fd 58 2b ba ce cf 9e b4 e6 f7 23 3b
       1.7199525e-10 -0.00065363926 -2.958099e-07 0.0025019585
0001f0 e0 74 74 b1 ab 3d 2a 32 ef 9c ec ba e9 87 f0 b7
       -3.557311e-09 9.909324e-09 -0.0018052141 -2.8673518e-05
000200 7d c0 a2 b7 f3 f3 c5 38 d6 59 92 3a cf 95 74 34
       -1.940154e-05 9.439131e-05 0.0011165689 2.2778771e-07
000210 a1 83 90 31 da e4 b3 b1 ef d0 63 b4 ae e7 f3 ba
       4.205916e-09 -5.235603e-09 -2.1217032e-07 -0.0018608475
000220 88 32 10 37 70 29 1a ba ce 8e 46 b1 dc e1 9f 31
       8.594834e-06 -0.00058808085 -2.8893967e-09 4.6531863e-09
000230 dc 89 ef b7 a0 99 f2 33 bb f7 01 bb 32 3e 15 35
       -2.8555216e-05 1.12969474e-07 -0.0019831497 5.559733e-07
000240 8b d9 68 b4 39 d7 0c 3b a4 a7 03 bb 55 13 18 3b
       -2.1685825e-07 0.0021490587 -0.0020088935 0.0023204882
000250 a1 a1 79 b4 80 a5 fc 33 92 6d 0e 3b c6 f4 3e 34
       -2.3248732e-07 1.1764769e-07 0.002173279 1.7784177e-07
000260 3d 3a 82 b4 91 63 bd b6 b8 7d af b3 0a 06 32 b2
       -2.425676e-07 -5.64423e-06 -8.1719406e-08 -1.0362337e-08
000270 9a 5a 56 3a b8 17 15 3a bf 3b 99 ba ea fa 4c 33
       0.0008176953 0.00056874333 -0.0011690779 4.7725656e-08

lstm.weight_hh_l0 f4 [80, 20]
000000 04 4c 3f 2d 68 a8 2b b9 cc 39 6b b6 81 73 16 3b
       1.0873972e-11 -0.00016370567 -3.505137e-06 0.002295703
000010 b6 b2 ba b8 49 f2 0a b9 ed 1c 86 2d 41 32 b7 ae
       -8.902459e-05 -0.00013250964 1.5246882e-11 -8.3308034e-11
000020 b5 b5 73 ae 17 38 d1 bb 9a c4 77 ba d8 8e 01 ae
       -5.541319e-11 -0.0063848603 -0.0009451598 -2.9458075e-11
000030 bc e5 d4 3b 5c 17 f0 2e 43 38 80 31 10 b2 50 39
       0.006497113 1.0918086e-10 3.7316865e-09 0.00019902759
000040 3b c9 96 ba b4 88 db ab 05 a8 f7 af 15 73 8b bb
       -0.0011504063 -1.5598829e-12 -4.5048423e-10 -0.004255662
000050 b4 a6 f3 b0 33 d8 dc 3b 6b 1c cd 35 d0 3c 22 bb
       -1.7727957e-09 0.00673964 1.5281961e-06 -0.0024755485
000060 82 2a d5 b9 16 c1 c4 b8 d5 43 ef b1 59 0e 03 34
       -0.00040658197 -9.381973e-05 -6.963527e-09 1.2205545e-07
000070 c5 94 07 b9 04 c5 b7 b1 75 37 9d b2 48 69 6b 33
       -0.00012930024 -5.348399e-09 -1.8302424e-08 5.4810954e-08
000080 db eb cb b7 b6 ed 48 b3 33 37 22 38 98 81 6a b3
       -2.4309315e-05 -4.6782326e-08 3.8675218e-05 -5.4600235e-08
000090 38 7a 62 b4 79 70 51 b2 80 ec 77 b3 e8 73 37 bb
       -2.1092353e-07 -1.21909745e-08 -5.7724264e-08 -0.002799267
0000a0 ef b4 0a b5 bf e3 b4 b5 4d 92 41 ba 02 fd 44 b1
       -5.16723e-07 -1.3477328e-06 -0.0007384166 -2.8665572e-09
0000b0 af 84 03 31 b2 db 8b b1 5d 7c b3 bb 56 07 38 36
       1.913843e-09 -4.070409e-09 -0.0054774717 2.7422407e-06
0000c0 ee 94 8b 31 2e c9 70 af 6e d8 bb b1 2b 55 b0 30
       4.062364e-09 -2.1899346e-10 -5.4670215e-09 1.2829892e-09
0000d0 65 09 a4 37 ae 3b 4c 3b ce a4 bf 36 05 49 24 b1
       1.9554698e-05 0.0031163502 5.7114294e-06 -2.3906648e-09
0000e0 71 92 09 ba 45 ef 23 3b 69 c2 1b b1 67 3e eb ba
       -0.0005247957 0.0025014442 -2.2665978e-09 -0.0017947674
0000f0 32 b4 3f b1 d8 ae 62 33 89 75 fc b9 43 d3 0e bb
       -2.7896587e-09 5.2778745e-08 -0.00048152756 -0.0021793402
000100 a3 a7 90 33 45 c8 cd 3a 98 c5 f1 b1 20 bd 65 39
       6.7360155e-08 0.0015699944 -7.036487e-09 0.00021909596
000110 80 28 85 39 7d ce 60 bb 6a 41 36 bb 23 d7 22 b6
       0.00025397912 -0.0034302764 -0.0027809986 -2.4265107e-06
000120 0a 36 ab b8 6f f8 e9 ba c2 9b 1e b7 8a 8b 15 b4
       -8.163981e-05 -0.0017850528 -9.453799e-06 -1.392747e-07
000130 79 df f5 b3 3f 6f 2c b9 e6 1c 7a b3 7c 6b bc b2
       -1.1449351e-07 -0.0001644464 -5.8233944e-08 -2.1934959e-08
000140 48 c8 50 b0 6d 7c d2 b7 56 a0 1a 32 af d7 1e b6
       -7.5954576e-10 -2.5091891e-05 9.000436e-09 -2.366938e-06
000150 a7 c8 9c 39 cc d1 66 3b 26 01 26 ba 8f 53 13 3b
       0.00029904136 0.0035220264 -0.00063325686 0.0022480225
000160 36 0f 8f bb b5 22 de ba ed 90 8e b2 48 36 1a b5
       -0.004365827 -0.0016947599 -1.659688e-08 -5.744846e-07
000170 cc 20 eb 32 7f 1f 4e b3 81 75 f5 ba fe b0 b5 3b
       2.7372515e-08 -4.7991758e-08 -0.0018727035 0.0055447808
000180 61 7e a5 3a 20 12 6c ba 8b 52 c5 3a 0c 6e f7 37
       0.0012626165 -0.00090053864 0.0015054507 2.9495939e-05
000190 c2 8b 3f 33 b2 f4 17 33 ac 0a 56 33 57 38 9d b3
       4.4597762e-08 3.5379976e-08 4.9835464e-08 -7.3211304e-08
0001a0 71 ee 76 3b 90 06 ce b3 ad 56 92 35 54 20 48 33
       0.0037678743 -9.593816e-08 1.0903074e-06 4.659553e-08
0001b0 65 c1 bd 33 b8 3d 96 b1 cc b3 e0 b2 c7 56 4c 3b
       8.8361766e-08 -4.372591e-09 -2.6158794e-08 0.0031179653
0001c0 55 87 58 35 47 cb a4 b3 44 16 56 33 b8 53 a1 b3
       8.0663204e-07 -7.673821e-08 4.9846008e-08 -7.512375e-08
0001d0 76 4d b7 ba 73 d9 bb b2 81 67 83 b3 ab e9 26 32
       -0.0013984877 -2.186855e-08 -6.11899e-08 9.715602e-09
0001e0 76 8a 8a 2d 08 43 5a 3b b2 ec 59 af 45 8e 9f ba
       1.5750273e-11 0.0033304114 -1.9820126e-10 -0.0012173137
0001f0 47 10 47 3a bc b6 04 33 f5 2f eb 31 0a 59 35 3b
       0.0007593673 3.089984e-08 6.8448522e-09 0.002767148
000200 95 46 12 b1 a5 88 91 2e 3f 0a 1b 30 c2 b0 06 b0
       -2.1285917e-09 6.6181095e-11 5.640323e-10 -4.9000104e-10
000210 c2 37 4e b1 26 da 30 b3 6a d3 97 b7 44 7c 92 30
       -3.000864e-09 -4.1176598e-08 -1.809905e-05 1.0658217e-09
000220 4a 41 67 30 a5 88 b3 3b d5 d6 b5 bb 9b 90 80 b8
       8.413009e-10 0.005478936 -0.0055492916 -6.1304505e-05
000230 15 82 18 3b 26 43 3d 33 1d 26 05 32 e5 99 78 b3
       0.0023270894 4.4066063e-08 7.750285e-09 -5.7881966e-08
000240 fd ca 0f 33 2f f6 a6 b9 56 96 bc ba da b6 87 33
       3.34794e-08 -0.00031845408 -0.0014388065 6.319688e-08
000250 2f 78 2a 34 21 59 5b b3 f9 35 89 35 99 0b a2 33
       1.5876206e-07 -5.1070973e-08 1.0223004e-06 7.5458225e-08
000260 99 a6 b3 b5 33 99 d7 b3 a7 f3 7c ba e1 f6 13 b4
       -1.3385026e-06 -1.00395845e-07 -0.0009649344 -1.3780256e-07
000270 d3 8b a2 b3 9a fa e4 b3 e9 32 e8 bb 74 8f ed b2
       -7.569147e-08 -1.06626615e-07 -0.007086147 -2.7655666e-08
000280 7e 9e c1 3b 9f 05 3b 34 2b 86 ba 32 5b 9e e1 b3
       0.0059087863 1.7417777e-07 2.1714262e-08 -1.0506184e-07
000290 95 4b 99 3a ab 35 c6 b4 9e d6 71 b4 bf 4b f6 b6
       0.0011695499 -3.6919423e-07 -2.2522951e-07 -7.3401893e-06
0002a0 69 5e f9 b5 7d 5c 2d 3a c4 1f 26 b3 3d 80 5a 38
       -1.8579423e-06 0.0006613208 -3.8678778e-08 5.209468e-05
0002b0 0a 94 a4 33 56 b5 98 b3 6a 49 e6 b9 ed da 27 b4
       7.663773e-08 -7.1110364e-08 -0.00043923716 -1.5632732e-07
0002c0 8a 0d 39 ba 17 83 63 39 81 f4 2f b4 99 00 32 b3
       -0.00070592074 0.00021697242 -1.6387095e-07 -4.1444398e-08
0002d0 f1 6e c1 b7 c9 c1 85 b8 c8 7b 1d 39 25 33 4b 39
       -2.3059054e-05 -6.3780295e-05 0.00015018799 0.00019378641
0002e0 72 fd c3 b9 89 d3 dd b0 1a ae ea ae ec 92 44 30
       -0.0003738213 -1.6139988e-09 -1.0672015e-10 7.1513173e-10
0002f0 56 45 68 b3 f8 f4 53 31 46 2c d0 af 6f 48 63 30
       -5.407977e-08 3.084379e-09 -3.7866438e-10 8.2685053e-10
000300 0d 72 97 b9 51 54 ac b1 62 d1 0f 3b 7d 48 aa 36
       -0.0002888594 -5.0154445e-09 0.002194487 5.0748336e-06
000310 5b cf 82 b0 1e 9c 95 af 62 c7 65 b0 f7 23 8e bb
       -9.517679e-10 -2.721387e-10 -8.3593055e-10 -0.0043377834
000320 0a 09 b8 af dc e7 37 32 4f 36 3b 31 79 07 68 b2
       -3.3475828e-10 1.0704721e-08 2.7242952e-09 -1.3505876e-08
000330 a8 77 2a bb 1b 72 5f b3 50 9f 21 3b f2 23 09 33
       -0.0026011262 -5.2025012e-08 0.0024661608 3.193049e-08
000340 2b 60 bd b8 89 43 d8 34 45 f7 aa b6 07 4e 3c 32
       -9.030135e-05 4.0282274e-07 -5.0951808e-06 1.0960782e-08
000350 5a 44 81 32 97 5b 7e b2 f0 2a b5 32 0f 24 ad b2
       1.504866e-08 -1.4805571e-08 2.1090699e-08 -2.0156248e-08
000360 37 70 b0 b6 19 d5 73 38 38 87 4c bb ac c0 20 33
       -5.2582723e-06 5.8134177e-05 -0.0031208526 3.7428137e-08
000370 51 46 db b0 a7 f4 8c 3b cc 8b b0 3b d6 f0 db ba
       -1.5954332e-09 0.004301626 0.005387759 -0.0016780149
000380 80 19 c8 32 25 27 14 3b 25 21 1a b2 40 19 12 38
       2.329466e-08 0.002260634 -8.971516e-09 3.483263e-05
000390 3a 5f 66 33 4c e2 d5 bb e5 63 ce ba 39 97 bd 3a
       5.3637656e-08 -0.006527221 -0.0015746324 0.0014464624
0003a0 ee f0 ea ba 7b c6 21 b3 52 4e 42 33 61 bf 84 3b
       -0.0017924586 -3.766625e-08 4.5240377e-08 0.0040511345
0003b0 15 f8 03 39 d6 5c b8 b2 a0 d3 22 b3 32 48 70 ba
       0.00012585551 -2.1462636e-08 -3.7911036e-08 -0.00091660314
0003c0 89 0d 17 b1 51 8c af 3a 2a 41 79 32 1a 6b 8f b7
       -2.1981086e-09 0.0013393258 1.4508524e-08 -1.7096801e-05
0003d0 10 89 45 39 24 bb 8d 39 82 6a 52 bb 91 2e 87 ba
       0.00018838444 0.00027033046 -0.003210694 -0.001031356
0003e0 ff 98 e8 bb 9a e0 61 b1 d2 b8 dc 3b 28 85 da bb
       -0.0070983167 -3.286948e-09 0.0067358995 -0.0066687055
0003f0 61 ed 81 33 f3 5b 43 ba 04 80 35 33 1e a6 4c b9
       6.0502096e-08 -0.0007452361 4.2258776e-08 -0.0001951684

lstm.bias_ih_l0 f4 [80]
000000 76 06 02 b2 03 56 03 38 ec 72 8e 3b 1d e4 83 3a
       -7.568465e-09 3.131294e-05 0.004347196 0.001006249
000010 8d e0 aa 37 c1 51 42 37 42 a1 79 38 05 98 6c 3a
       2.0370144e-05 1.1582336e-05 5.951641e-05 0.0009025338
000020 3c 77 65 b8 01 f2 12 34 4e 05 61 3a fe 40 a9 36
       -5.47089e-05 1.368535e-07 0.00085838593 5.0441586e-06
000030 99 05 c3 37 d0 8e e7 3b dc b1 5c 3b 75 cb 00 3a
       2.3248418e-05 0.007066585 0.0033675348 0.000491313
000040 f3 d3 11 37 d3 a7 cb 35 81 77 d3 bb c0 71 e1 3a
       8.692022e-06 1.5173522e-06 -0.006453455 0.0017200038
000050 5f 03 35 38 85 dd bf bb 30 eb 40 b4 1f 16 78 37
       4.3156902e-05 -0.0058552646 -1.7966954e-07 1.4787102e-05
000060 b7 44 43 ba 50 c8 26 37 92 e6 2c b4 6f 8c 05 37
       -0.0007448899 9.94101e-06 -1.6102629e-07 7.960115e-06
000070 0c 75 d4 37 d1 9c e4 ba a5 4e 97 3b c7 97 e0 36
       2.5326874e-05 -0.0017441754 0.0046175295 6.6933894e-06
000080 87 95 a5 38 60 6b 3f 37 71 8c 2d 37 82 75 0f 37
       7.895665e-05 1.1409487e-05 1.0344303e-05 8.550824e-06
000090 0f 37 3a 37 11 52 14 36 f6 99 2b 37 03 d5 dc 35
       1.1099283e-05 2.2101488e-06 1.0228241e-05 1.6453272e-06
0000a0 be 5d ce 37 bf 58 47 3b 5a 18 5a 3a 6f 83 66 bb
       2.4600766e-05 0.0030417887 0.00083196687 -0.0035173555
0000b0 b0 ef 10 3b e7 a9 00 3a 85 b0 22 38 92 1f 6e 3b
       0.002211552 0.000490813 3.8788206e-05 0.0036334735
0000c0 5f b6 c1 3b 38 d6 f0 b9 78 33 02 bb af 59 96 3b
       0.005911633 -0.00045935973 -0.0019867104 0.004588328
0000d0 fa b2 99 3b 99 9d 98 ba d4 5c 89 3b 2a 83 39 bc
       0.004690525 -0.0011643647 0.004191974 -0.011322776
0000e0 1c 5b 00 bc ef 39 06 bb e1 5e 75 bb 31 53 b3 ba
       -0.007834222 -0.0020481308 -0.0037440585 -0.0013681409
0000f0 bb 90 e5 b1 9e e0 8f 37 1f e9 0c 35 9b ca 50 37
       -6.681231e-09 1.7151524e-05 5.24933e-07 1.2444939e-05
000100 44 e8 28 38 21 67 3a 37 1b 9e 27 36 fb b6 c9 37
       4.0270636e-05 1.11104755e-05 2.4976969e-06 2.4046274e-05
000110 98 44 0b 39 0f 03 75 b8 dc f2 ab bb 82 90 da 36
       0.00013281626 -5.84154e-05 -0.005247457 6.513729e-06
000120 4b ee 94 3a 2a 6c 99 36 d6 a0 9c ba 47 b9 d8 36
       0.0011362521 4.5723473e-06 -0.0011949788 6.4588708e-06
000130 fa e2 95 39 03 e5 5b 35 44 0c 9c 37 c7 ab 09 36
       0.00028588605 8.1917113e-07 1.860236e-05 2.0514578e-06

lstm.bias_hh_l0 f4 [80]
000000 16 3c a8 bb 1f 2d ee ba fe 88 27 35 6c 6a ac 3b
       -0.005134116 -0.0018171406 6.24117e-07 0.00526171
000010 48 e6 c6 36 80 03 47 37 dc 87 cc 3b c7 00 d8 3b
       5.927668e-06 1.1862139e-05 0.0062417816 0.0065918895
000020 33 d0 91 3a 07 69 2d 34 32 13 41 36 8f 4f 94 3b
       0.001112467 1.6150089e-07 2.8770414e-06 0.0045260857
000030 69 9f 45 37 98 54 8e 36 a1 25 14 37 18 65 da 36
       1.1779231e-05 4.241778e-06 8.830249e-06 6.508675e-06
000040 6c ab 81 3b ea 85 28 36 99 91 28 38 77 2a de 35
       0.0039572027 2.51119e-06 4.018992e-05 1.6552648e-06
000050 5f b7 fd b1 1a d3 12 b9 5e e0 08 35 11 a9 87 37
       -7.384116e-09 -0.00014002286 5.0990445e-07 1.6171982e-05
000060 0e 9a 2b 37 67 85 90 bb 79 7a 28 b4 47 3f 59 37
       1.0228263e-05 -0.004410434 -1.5690775e-07 1.2948941e-05
000070 89 6a 0b 38 81 96 82 bb fb e0 88 3b ec af 7c 3a
       3.32394e-05 -0.0039852266 0.0041772104 0.00096392515
000080 d9 31 b2 37 52 3f 26 37 f1 6e a1 38 65 76 db 36
       2.1242466e-05 9.909114e-06 7.697743e-05 6.5404915e-06
000090 d3 30 5e ba 69 36 2d 36 ad d5 04 38 3a 1d b5 b9
       -0.00084759033 2.581068e-06 3.1670254e-05 -0.00034544786
0000a0 c6 82 93 b9 e0 d7 8d 3b d1 c7 42 3a 40 de c0 bb
       -0.0002813546 0.004328713 0.00074302877 -0.0058858693
0000b0 7f d4 79 3b cf 3d 91 bc 5d ec 8d ba 23 84 73 3b
       0.0038121042 -0.017729668 -0.0010827888 0.0037157617
0000c0 a6 29 1d 3c 54 6c a6 b9 0c 92 16 bb 5f bf 10 3b
       0.009592449 -0.00031742698 -0.0022975234 0.0022086722
0000d0 c6 a5 86 3b 47 ee 07 bc 75 3c 54 3b c0 bc 8d ba
       0.004109117 -0.008296556 0.0032384668 -0.0010813698
0000e0 b6 d1 13 bb 9d e0 34 ba 61 a9 ca bb 95 71 b5 ba
       -0.0022555417 -0.0006899925 -0.0061847423 -0.0013843054
0000f0 f6 72 18 b2 75 70 3f ba 0d b5 ea 3a 04 0d cb 37
       -8.8737035e-09 -0.0007302829 0.001790674 2.4205547e-05
000100 f4 10 c1 3b 95 0f 44 37 79 6a 3a b4 68 d2 a5 3b
       0.0058919135 1.1686138e-05 -1.7361334e-07 0.005060483
000110 1c 1f 8d 3b 39 4f 25 34 17 42 55 36 bd a4 ea ba
       0.004306687 1.5395644e-07 3.1777943e-06 -0.0017901879
000120 a7 af 76 ba 79 3f ad 36 5f 78 4a bb f0 d2 98 bb
       -0.00094103295 5.163191e-06 -0.00308945 -0.0046638176
000130 09 16 2c 3a 01 64 16 39 f2 69 a1 37 af 68 06 36
       0.0006564563 0.00014342369 1.924203e-05 2.002849e-06

lstm.weight_ih_l1 f4 [80, 20]
000000 30 d0 3b b7 a1 36 48 39 fd 5d 86 bb 31 bf 8d bb
       -1.1194541e-05 0.00019093837 -0.0041005597 -0.0043257703
000010 42 78 ac ba 43 c2 a9 b9 52 b4 97 b8 b0 50 13 39
       -0.0013158398 -0.00032378928 -7.2338284e-05 0.00014049071
000020 57 f6 8f 39 77 30 c3 39 d8 a9 f1 b8 02 49 01 39
       0.00027458623 0.00037229407 -0.000115234114 0.00012329596
000030 ce fd b4 39 6e db 89 b9 29 f5 50 39 16 fc 80 b9
       0.00034521375 -0.00026294164 0.00019927755 -0.0002460188
000040 04 43 c6 b9 83 17 76 b8 27 1f a7 b9 6a ea c9 3b
       -0.00037815433 -5.8672867e-05 -0.00031875932 0.0061619775
000050 ae a1 29 b7 3e 21 61 3b f8 8f f4 39 c7 78 1a 3a
       -1.0110829e-05 0.003435209 0.00046646572 0.0005892631
000060 13 08 3e 3b ef 59 17 ba 01 b4 18 b8 d2 3b 86 3a
       0.0028996512 -0.0005773594 -3.6407266e-05 0.0010241217
000070 10 2d ed 39 82 5b 2d b7 a0 19 fa b8 27 ef b7 39
       0.00045237737 -1.0332909e-05 -0.00011925702 0.00035082662
000080 a7 19 c8 39 3a e5 88 3b 41 ca ce 39 f5 a5 01 ba
       0.00038166085 0.0041777166 0.00039442073 -0.0004945689
000090 ba ec cc b9 b9 64 e3 b8 8e 35 d7 b9 82 ca 83 b8
       -0.00039086287 -0.000108429645 -0.00041047897 -6.284287e-05
0000a0 6a 99 29 b7 75 59 94 39 78 e6 43 39 1f e8 06 bb
       -1.01089045e-05 0.0002829541 0.00018682505 -0.0020585132
0000b0 b3 5b a1 3b 0e 1a 1e 3b f6 f3 d6 3b 63 64 1b 38
       0.0049242615 0.0024124417 0.006559844 3.7048372e-05
0000c0 e1 b2 14 3a 5f b6 77 36 4f cf 25 b9 df fe 4d 39
       0.0005672407 3.6912022e-06 -0.00015812855 0.0001964527
0000d0 b5 60 77 3a ce d7 83 b9 fb aa 73 39 26 89 f4 b9
       0.0009436713 -0.00025147054 0.00023237981 -0.0004664149
0000e0 97 38 4a 3b 75 9e 9d bb 0d 79 12 bb c6 43 a2 b8
       0.0030856484 -0.0048101493 -0.0022349984 -7.737386e-05
0000f0 6a 37 9e b9 ce 36 4b 39 44 6f 05 38 f6 05 77 ba
       -0.00030177395 0.00019380005 3.1813295e-05 -0.00094231905
000100 d7 b5 1a 3b 78 37 94 b9 9a 55 99 b7 a1 41 51 39
       0.002360692 -0.00028270087 -1.8278883e-05 0.00019956242
000110 19 27 6b 3b e2 16 28 3a 1e 9c d8 b8 71 f5 07 39
       0.0035881458 0.0006412101 -0.00010328762 0.00012966037
000120 c9 99 8b 39 b1 de 1c b9 06 80 0e 39 58 f9 ef b9
       0.00026626725 -0.00014960278 0.00013589868 -0.00045771408
000130 f0 9e 79 b9 03 2b 60 b8 fb 2a 8c 3b c0 bd 8f 3b
       -0.000238057 -5.344582e-05 0.0042775846 0.0043866336
000140 32 7d ac b6 56 fe 51 39 22 19 83 39 94 74 8d b9
       -5.140574e-06 0.00020026541 0.00025004992 -0.00026980473
000150 85 59 0e 39 78 e8 fb b9 ab 35 3d bb ae dd 8b 39
       0.00013575524 -0.00048047653 -0.00288711 0.0002667731
000160 34 a9 12 3a f7 7c 95 b7 bd 42 02 3b 9c be 46 39
       0.0005594671 -1.7820375e-05 0.0019876205 0.00018953759
000170 5a f0 5e 39 21 70 b5 b9 64 11 da 3b 1a a4 cb b9
       0.00021261108 -0.00034606553 0.006654905 -0.00038841442
000180 62 21 92 b9 f2 c5 92 b8 9b 37 88 b9 3d e8 9b b8
       -0.00027872162 -6.998693e-05 -0.0002598137 -7.434234e-05
000190 23 04 8a b6 aa 1a 1a 39 24 9f 9d 37 e1 71 ca 39
       -4.113202e-06 0.00014696518 1.8789964e-05 0.0003861329
0001a0 46 70 33 39 6a 53 93 b9 4d 62 8b b7 62 c1 37 39
       0.00017112595 -0.00028100173 -1.6615866e-05 0.0001752428
0001b0 68 7b 95 39 2c c3 a0 b6 7c b3 50 3a 9c 01 04 3b
       0.0002851144 -4.7910926e-06 0.00079613156 0.002014256
0001c0 92 81 25 3b 99 f8 64 b9 82 2a 06 39 93 37 55 b9
       0.0025254232 -0.00021836384 0.00012795071 -0.00020333966
0001d0 17 42 5b b9 e6 31 a6 b8 9b df 2c b9 3e ed bd 39
       -0.00020910088 -7.924791e-05 -0.00016486498 0.00036225648
0001e0 9d 64 82 39 3f 71 ed b8 2a 83 ae 32 8a 92 1a b4
       0.00024870495 -0.000113221344 2.0315913e-08 -1.4395678e-07
0001f0 8d 8a b4 ba ea 0e 09 b9 cf bc 42 36 15 5b 24 b9
       -0.0013774202 -0.00013070894 2.9018154e-06 -0.0001567419
000200 9b 94 69 34 42 23 68 3b 3a 86 82 3b 3c 90 d8 33
       2.1753878e-07 0.0035421406 0.003983286 1.008452e-07
000210 bc 5d 04 34 f7 d1 a5 b3 6d 5a a6 bb 6b 06 f1 3a
       1.2327558e-07 -7.7216036e-08 -0.0050766976 0.0018388754
000220 67 28 0e b4 a2 bf 84 36 16 43 6a b9 43 13 1e b3
       -1.3239479e-07 3.9562156e-06 -0.0002234097 -3.680476e-08
000230 97 fd 9b 3a 9c d1 5a 39 56 71 71 ba a8 a9 24 b9
       0.0011901137 0.00020868186 -0.0009210309 -0.0001570346
000240 d6 20 15 39 55 f6 9a 3b fc 1b 99 b8 0a 44 4a 39
       0.0001422198 0.004729072 -7.300821e-05 0.00019289568
000250 d3 c0 95 b9 83 6d 61 b7 b2 00 62 b8 6c a6 3b 39
       -0.0002856316 -1.3436543e-05 -5.3883246e-05 0.00017895707
000260 61 2b 2e 39 b4 8c 43 b9 06 1a 9b 3b 03 6a 85 b9
       0.00016610093 -0.00018649065 0.004733327 -0.00025446722
000270 ea 12 71 b9 ed db de b8 87 b3 89 b9 54 ed 7d 38
       -0.00022990597 -0.00010626749 -0.00026264435 6.054093e-05
000280 36 74 fe 37 6b 7b d0 3b f9 c2 3d 34 c1 bd 36 3b
       3.0333274e-05 0.006362369 1.7672927e-07 0.0027884098
000290 60 62 21 35 f3 a3 a8 3b b0 2c 80 3b 52 78 9d 3a
       6.012033e-07 0.0051464974 0.003911577 0.0012014008
0002a0 a6 ab 0c 36 c4 79 c1 bb c0 8a 5e 39 28 3e 12 3b
       2.0961538e-06 -0.005904408 0.00021223258 0.002231488
0002b0 c4 14 a7 3a 54 4f 23 bb ec 16 66 35 65 61 a1 37
       0.0012747278 -0.002491911 8.571503e-07 1.9238048e-05
0002c0 da 14 8f b5 9a 5e d3 b4 6a ff 15 bb ab cf c0 ba
       -1.0660399e-06 -3.9370644e-07 -0.0022887834 -0.0014710327
0002d0 a4 e8 6c b6 44 d1 29 3a 79 40 85 37 e0 43 22 b9
       -3.5302155e-06 0.00064780214 1.5884858e-05 -0.0001547481
0002e0 73 a1 01 39 a4 fd 55 b9 2e b7 8e b7 be 64 29 bb
       0.00012362543 -0.00020407751 -1.7013019e-05 -0.00258474
0002f0 2e e6 45 39 e7 9a b1 bb c4 e8 f1 b7 22 86 25 39
       0.00018873133 -0.005420077 -2.8837829e-05 0.00015785595
000300 72 b7 df 38 19 4c e7 b8 25 f0 cc 38 bd 44 2e 3b
       0.00010667638 -0.00011029113 9.7722084e-05 0.0026591264
000310 2c 0e a7 3a d5 43 04 bb 36 6b 98 3b 01 07 02 b8
       0.0012745312 -0.0020182033 0.0046514524 -3.1000938e-05
000320 37 b0 29 b5 1e 2c 40 b9 f5 f0 1c 3b 27 6d c7 b7
       -6.321383e-07 -0.00018326982 0.0023947333 -2.3773477e-05
000330 f1 ca 45 37 7b 6a 1a b8 60 44 79 b6 fb d1 ec ba
       1.1789366e-05 -3.681563e-05 -3.714369e-06 -0.001806795
000340 03 15 35 3b 65 8c 8c b5 b4 94 8f 3b 7f 25 87 37
       0.0027630932 -1.0471673e-06 0.0043817405 1.6110715e-05
000350 63 f0 a9 37 1e d2 e1 39 0d e7 07 39 ad e6 bd b7
       2.0258309e-05 0.00043071894 0.00012960676 -2.2637973e-05
000360 54 af a8 b7 d5 be ef b6 9e 2b b5 b7 03 39 7c bb
       -2.0108804e-05 -7.144971e-06 -2.1597192e-05 -0.003848613
000370 b4 d2 39 b8 c5 1a 1c ba 54 56 63 37 7a c5 e8 b8
       -4.430367e-05 -0.00059549167 1.3550354e-05 -0.00011099405
000380 02 24 91 38 b5 3b 2f b9 57 11 42 b7 4c b6 f6 38
       6.920846e-05 -0.00016711543 -1.1567338e-05 0.000117641495
000390 d1 23 37 39 89 d8 8d 3b 70 bd 87 b8 e1 a1 85 38
       0.00017465583 0.0043287915 -6.472587e-05 6.3720865e-05
0003a0 68 7e 99 3b 90 91 b7 b8 64 aa a1 3b f8 8b 09 b9
       0.0046842583 -8.753233e-05 0.004933642 -0.0001311748
0003b0 80 fa 25 b9 1f ef c1 bb fd 3c 0b bb 41 72 96 3b
       -0.00015828945 -0.005918398 -0.0021246069 0.004591257
0003c0 59 07 d0 b5 3d 2f 51 38 21 89 d2 36 b6 2a 29 b8
       -1.5499346e-06 4.9873477e-05 6.2744516e-06 -4.0332518e-05
0003d0 ef 3e d8 37 1e 4f e6 3b ee 25 c3 b6 da b1 df 37
       2.5778512e-05 0.0070284745 -5.8158685e-06 2.666649e-05
0003e0 2a 39 8d 3a ff 24 dc ba 71 d2 ad b7 4d ee 0f 38
       0.0010774483 -0.0016795694 -2.0721202e-05 3.431579e-05
0003f0 17 bd 21 38 06 34 e0 3b 51 d9 18 b8 98 38 b9 bb
       3.8561495e-05 0.006842139 -3.6442016e-05 -0.0056524985

lstm.weight_hh_l1 f4 [80, 20]
000000 fb 21 12 3b 6b 45 1d 3c f6 ad 2a bc 0c bc fa bb
       0.0022298086 0.00959907 -0.010417452 -0.0076518115
000010 49 51 19 bc 1c 4a 18 bc 7d c0 52 39 2b 08 09 bc
       -0.009357759 -0.009295013 0.00020098868 -0.008363764
000020 94 32 fd b9 de 46 c9 bb 75 76 1e ba 53 cb ba bb
       -0.00048293604 -0.006142481 -0.0006044873 -0.0057005077
000030 bb a0 55 3b 81 99 12 bc b5 b1 99 bb 99 91 fa 3b
       0.0032597024 -0.008947731 -0.004690374 0.007646751
000040 cd 55 17 3c d0 48 11 3c be ff 24 3b 7e bf a6 3a
       0.009236765 0.0088674575 0.0025176848 0.0012721864
000050 4e 3a 59 3c 00 a9 93 3c f4 60 5e bc 51 ab 46 bc
       0.01325853 0.018024921 -0.01357292 -0.012125806
000060 52 3b 5a bc c4 d6 7b bc 93 7a 73 39 2c fe 82 bb
       -0.013319807 -0.015371028 0.00023219948 -0.003997585
000070 b0 b4 3a ba 60 fc 15 bc 47 b1 1e bc 1d 8c 08 bc
       -0.00071222614 -0.009154409 -0.009685821 -0.008334187
000080 e4 ad 30 3c c4 eb 71 bc 2f b7 e9 bb 1c df 37 3c
       0.010783646 -0.014765684 -0.007132433 0.011222627
000090 a7 26 73 3c 88 4a 5b 3c 26 d5 24 3b da 20 e3 3a
       0.014840758 0.013384469 0.002515146 0.0017328516
0000a0 75 da 2f 3c 1c bb 5f 3c 9f de 65 bc 8c fc 3a bc
       0.010733237 0.01365545 -0.014030128 -0.011412751
0000b0 ce f5 59 bc b0 c2 40 bc 6f ca 63 39 23 dc 25 bc
       -0.013303233 -0.011765167 0.0002172382 -0.010123285
0000c0 f4 74 22 ba 95 e1 fd bb d7 1e 59 bb 54 0d 0c bc
       -0.0006197237 -0.0077478387 -0.0033129954 -0.0085481
0000d0 2d 73 84 3b de 6d 5f bc da 00 0d bc 84 ec 31 3c
       0.0040420503 -0.013637034 -0.00860616 0.010859612
0000e0 d7 6f 34 3c 4b 52 46 3c 5d 17 5e 3b 8d 38 d7 3a
       0.011012993 0.012104581 0.0033888437 0.0016420052
0000f0 3c 94 ed 3b 57 15 37 3c 98 8a 13 bc 84 48 cb bb
       0.007250337 0.011174521 -0.009005211 -0.006203713
000100 2b 38 15 bc 81 74 b8 b7 73 ed 23 39 b8 98 f2 bb
       -0.00910763 -2.198876e-05 0.00015633348 -0.0074034594
000110 c9 51 eb b9 e9 a3 b3 bb 98 e7 13 bb cd 89 98 bb
       -0.00044883628 -0.005482186 -0.002256846 -0.004655099
000120 98 32 4a 3b 54 b3 05 bc e5 ae 94 bb a4 33 e9 3b
       0.003085291 -0.008160431 -0.0045374506 0.0071167517
000130 0d 7e f3 3b 72 cf 15 3c c6 00 16 3b a6 2c 92 3a
       0.007430798 0.009143697 0.0022888645 0.0011152222
000140 96 b2 1a 3c 63 d1 4d 3c 78 a2 5b bc 14 d6 1c bc
       0.009441992 0.012562129 -0.013405435 -0.009572525
000150 3e 46 46 bc 37 e1 17 bc 83 54 31 39 f4 7d 85 bc
       -0.012101708 -0.009270004 0.00016911518 -0.01629541
000160 47 c6 34 ba 6c fe 03 bc c1 93 8d bb 02 15 58 ba
       -0.00068960007 -0.008056264 -0.004320592 -0.00082428765
000170 44 43 8f 3b 37 89 46 bc c0 0a d2 bb be 10 2c 3c
       0.0043720324 -0.0121176755 -0.006409973 0.0105020385
000180 6d 5c 34 3c b5 c3 4f 3c a5 3d 99 ba 20 11 ce 3a
       0.011008364 0.012680938 -0.0011691345 0.0015721656
000190 0b ca 9a 39 99 ba 1f 3c 8b 46 03 bc ae f2 db bb
       0.00029523703 0.009749078 -0.008012424 -0.0067122793
0001a0 32 c9 04 bc ca e7 c5 bb 51 e2 bc 3b a9 b3 47 bc
       -0.008104609 -0.0060395943 0.0057642837 -0.01218883
0001b0 22 ff c7 3a d9 30 a3 bb df 9e 07 bb 69 27 98 bb
       0.0015258531 -0.0049801883 -0.002069406 -0.00464337
0001c0 82 e6 33 3b e2 4c f4 bb 00 4c 85 bb 8f 5d a5 3b
       0.0027450626 -0.007455454 -0.004067898 0.0050465534
0001d0 8f 2e d7 3b 5a 9e 04 3c 00 de 08 3b eb d3 81 3a
       0.0065668295 0.008094395 0.0020884275 0.0009905075
0001e0 a3 65 ad ba 64 3d 91 39 10 0c ae b6 11 56 9c 38
       -0.0013229143 0.00027702295 -5.1870084e-06 7.454691e-05
0001f0 c7 83 d6 bb b8 f5 88 38 9f d0 ba 33 02 10 de ba
       -0.006546471 6.530754e-05 8.699248e-08 -0.0016942027
000200 56 a7 e8 3b 5f 8f 8c b6 f3 db 87 38 1c 2a 3d b6
       0.007100026 -4.1890157e-06 6.4782704e-05 -2.8187706e-06
000210 1d fe 6a 3b 9e 16 38 ba 69 a5 35 b6 68 c9 ae 36
       0.003585703 -0.0007022413 -2.7067383e-06 5.209051e-06
000220 c3 c4 20 36 2d ad e9 ba 64 47 50 ba 84 fd f8 b8
       2.3956388e-06 -0.00178281 -0.00079452083 -0.000118727825
000230 96 2b 05 3c d4 a2 18 3c cd 89 19 bc 47 43 f6 bb
       0.0081280675 0.009316165 -0.009371233 -0.0075153443
000240 b7 78 0c bc 3d f6 d8 bb 32 0c 12 39 55 63 eb bb
       -0.008573703 -0.0066211508 0.00013928188 -0.007183472
000250 82 84 f0 b9 b3 1b ba bb d2 ef 33 3a 1b a7 9f bb
       -0.00045875093 -0.0056795715 0.0006864044 -0.0048722154
000260 37 95 51 3b 98 1b 13 bc 3f 01 9a bb e3 35 ea 3b
       0.0031979808 -0.008978747 -0.0046998556 0.007147537
000270 18 3b fd 3b fa d1 15 3c 17 c9 93 3b c8 79 47 bb
       0.007727992 0.009144301 0.0045100558 -0.0030437578
000280 bc e4 2e 38 f2 02 fa 3a 1d 1b 28 bb 76 6f 34 b8
       4.169786e-05 0.0019074364 -0.0025650926 -4.301915e-05
000290 38 ee 57 b8 5d 99 73 b8 2d c2 50 35 29 07 cf 39
       -5.1481853e-05 -5.8078545e-05 7.77686e-07 0.0003948745
0002a0 f9 ff 38 b6 c0 36 08 b8 99 8a 91 37 e5 75 2c 3b
       -2.7567132e-06 -3.2475917e-05 1.7349887e-05 0.0026315388
0002b0 e8 6e 91 37 fa 69 de b6 3f a0 cc b8 76 cd 24 38
       1.7336992e-05 -6.628453e-06 -9.757326e-05 3.9291997e-05
0002c0 33 da d3 b9 c1 95 b8 b9 ff 50 5c 3b da 81 3e 3b
       -0.00040407627 -0.0003520679 0.0033617613 0.0029069097
0002d0 5a 73 96 3b 3f 6b c5 3b 8d 08 1e ba 88 07 94 bb
       0.0045913877 0.0060247476 -0.0006028496 -0.0045174994
0002e0 95 09 cb bb 31 62 89 bb 73 01 9d 38 ab 54 ab bb
       -0.0061962106 -0.0041926135 7.486613e-05 -0.005228599
0002f0 5e d7 8d b9 2b b5 61 bb 42 fc c2 ba 5e 77 54 bb
       -0.00027054077 -0.003444026 -0.0014876204 -0.0032419781
000300 08 35 fa 3a 46 83 b1 bb 7d 84 19 bb 69 db 91 3b
       0.0019089291 -0.0054172603 -0.0023424916 0.0044512046
000310 14 3e 99 3b c8 23 b5 3b 25 8f bc 3a f1 0c a5 3b
       0.0046765897 0.005527947 0.0014385922 0.005036943
000320 6e c6 5e 3a 96 48 86 3a 80 a1 60 3b 0a 62 1d 3a
       0.0008498196 0.0010245021 0.003427595 0.00060036837
000330 9f 1a 7e ba 36 12 3f ba 4d 24 a1 37 6b eb cf bb
       -0.0009693298 -0.00072887854 1.92096e-05 -0.0063452027
000340 1c 72 9f bb 83 8a 1a ba 43 8a f0 b9 24 5d b8 bb
       -0.004865898 -0.00058952736 -0.0004587938 -0.0056263376
000350 3c 58 22 3b dc c6 c2 b9 70 a1 40 3b cc 64 47 3a
       0.002477183 -0.00037150725 0.00293931 0.00076062675
000360 91 92 64 3a 6e 22 88 3a a9 14 90 39 92 7c ec 3a
       0.000871935 0.0010386237 0.00027481213 0.0018042496
000370 64 de 89 3b 4b a8 b6 3b 59 c3 a9 bb 78 54 87 bb
       0.004207419 0.0055742613 -0.005180758 -0.0041299425
000380 8b 9b a4 bb 50 35 3b bb 4e 90 9e 38 5e a8 86 bb
       -0.005023425 -0.0028565712 7.560906e-05 -0.0041094264
000390 85 f0 7c b9 23 0f 45 bb 1a 17 ac ba 82 f1 42 bb
       -0.00024122193 -0.0030068837 -0.0013129443 -0.0029746
0003a0 27 04 dd 3a db ef 9e bb 09 eb 25 bb 09 aa 9f 3b
       0.0016862199 -0.0048503703 -0.0025317094 0.0048725647
0003b0 42 34 86 3b 3d dd a6 3b 49 4f b5 3b 02 91 5b 37
       0.004095585 0.0050922916 0.005533133 1.30871795e-05
0003c0 19 3f c3 3a 17 eb 05 3b 1b 7f fa ba 45 ec f1 b9
       0.0014896124 0.0020434314 -0.0019111367 -0.00046143137
0003d0 a3 d9 f4 ba f7 52 bb ba 2d 61 5d bb a6 8f cd 3a
       -0.0018680583 -0.0014291693 -0.0033779845 0.0015683069
0003e0 ad b2 37 b8 6f 63 f8 ba 15 5f 00 ba 75 36 90 ba
       -4.3797005e-05 -0.0018950532 -0.0004896981 -0.0011002558
0003f0 47 a6 37 3a 11 1f ec ba 6a 34 7e ba 7e 14 be 3a
       0.0007005673 -0.001801463 -0.00096971414 0.0014501957

lstm.bias_ih_l1 f4 [80]
000000 1f 5a 12 3d 6d ad 64 3d fb 67 3d 3d cd 57 c6 3c
       0.035730477 0.055829454 0.04624174 0.024211789
000010 9b 42 42 3d 51 e9 f4 3c 0e b1 97 37 c6 b8 10 3d
       0.0474268 0.02989641 1.808305e-05 0.035332464
000020 fe f5 49 39 1a 1e ae 3c ca b8 68 3b 76 2c a0 3c
       0.00019260493 0.021254588 0.0035510533 0.01955245
000030 c2 bb e4 3b 45 7d 3e 3d 76 f1 7a 3c 35 7d 0d 3d
       0.0069803903 0.046506185 0.015316358 0.034543235
000040 46 b8 12 3d ef e5 58 3d d4 5e 7b 3b 8c f6 82 3a
       0.035820268 0.052953657 0.0038356083 0.000999169
000050 e7 b8 26 3d e0 b1 8d 3d d7 23 77 3d 82 a6 f0 3c
       0.04070368 0.069186926 0.060336914 0.029376272
000060 0f b1 62 3d 49 2f 07 3d ee 18 9d 37 fa d7 21 3d
       0.055344637 0.03300408 1.8727467e-05 0.039512612
000070 9d 96 db 3b 71 6b b3 3c 06 ef 02 3c 8e d7 a3 3c
       0.006701304 0.021901818 0.007991558 0.020000245
000080 e1 8b 25 3c 17 af 6d 3d 5c 71 82 3c 85 88 07 3d
       0.0101041505 0.058028307 0.015923195 0.03308918
000090 2c 07 26 3d 14 00 77 3d c3 74 81 3b 40 fe 91 3a
       0.040534183 0.06030281 0.0039506867 0.0011138394
0000a0 d0 d4 da 3d 49 da 51 3e a6 9f 3c be 3e fe 22 be
       0.10685122 0.20493425 -0.18420276 -0.15917298
0000b0 cd f6 52 be 57 1a 18 be aa 52 a5 3b 63 e9 22 be
       -0.2060196 -0.14853798 0.0050452547 -0.15909342
0000c0 1d f7 72 bc a5 48 05 be b1 a6 45 bd ef ab 02 be
       -0.014829424 -0.13015993 -0.048254672 -0.127609
0000d0 99 bc 9d 3d 77 38 3a be fb 24 c6 bd 05 6f 12 3e
       0.07701988 -0.18185602 -0.09675022 0.14300163
0000e0 1b 2a 1e 3e e2 21 56 3e 28 c1 5f 3d be 9e 27 3d
       0.1544575 0.20911363 0.054627568 0.040922873
0000f0 4b 11 26 3d 51 e7 8f 3d ae 4b 6e 3d 64 1c 19 3d
       0.040543836 0.07026542 0.058177643 0.03738059
000100 d8 b2 66 3d 4d 80 09 3d 16 17 d4 37 45 0d 24 3d
       0.056322902 0.033569623 2.528312e-05 0.040051717
000110 59 c6 5f ba 02 c6 b9 3c a3 8f 78 3b f1 2d a5 3c
       -0.0008536331 0.022677425 0.003792741 0.020163508
000120 16 58 f1 3b 94 8e 0c 3d 70 6b 82 3c 3a d9 0a 3d
       0.007365237 0.03431566 0.01592037 0.03389857
000130 6f ae 0d 3d b6 f5 7f 3d b1 ff 0b 3b f3 ca ce 3a
       0.03459018 0.062490188 0.002136212 0.0015777036

lstm.bias_hh_l1 f4 [80]
000000 da 65 21 3d 59 02 64 3d 00 01 4e 3d 11 46 0f 3d
       0.039403774 0.0556663 0.050293922 0.03497893
000010 1f 94 54 3d ed 33 f9 3c c9 20 d5 37 0e 94 12 3d
       0.05189907 0.030420268 2.5406845e-05 0.035785727
000020 bd 5c 45 39 a1 29 ae 3c f3 66 6a 3b 08 46 9b 3c
       0.00018821932 0.021260085 0.003576693 0.018954292
000030 a2 a4 ea 3b 36 1a 4b 3d b8 b5 79 3c 56 3c f6 3c
       0.007160739 0.049585544 0.015241079 0.030058067
000040 e8 8a 14 3d 95 34 5e 3d 2b fa 70 3b 0f cd 2d 3c
       0.036265284 0.054249365 0.0036770205 0.010607972
000050 3f 7f 21 3d 5f 3a 87 3d c2 35 6d 3d 87 51 15 3d
       0.039427992 0.0660293 0.057912596 0.036454704
000060 15 56 6a 3d 89 bb fb 3c cd c5 ff 39 71 e9 11 3d
       0.057211 0.030729072 0.00048784763 0.035623018
000070 8c 08 a1 3a 5a db a5 3c 29 c2 7e 3b 3e 11 a5 3c
       0.0012285872 0.020246197 0.0038873053 0.020149823
000080 01 90 ea 3b ab 7c 5e 3d 1c 14 83 3c d2 ca 0e 3d
       0.00715828 0.05431811 0.0160008 0.034861393
000090 5b 82 22 3d bd 2d 7d 3d 85 8c 81 3b ef 54 3e 3b
       0.039675098 0.061811198 0.003953519 0.0029042324
0000a0 14 77 36 3e 7e a6 36 3e 7e d3 3a be 93 14 1e be
       0.17818862 0.17836949 -0.1824474 -0.15437536
0000b0 7a 26 1b be 54 52 07 be 96 fc 1c 3b 91 28 14 be
       -0.15151396 -0.13215 0.0023954264 -0.144686
0000c0 1c e1 46 bb 07 ff d7 bd a7 15 5f bd 93 e2 ba bd
       -0.0030346578 -0.105466895 -0.05446401 -0.09125247
0000d0 41 a5 6a 3d 58 11 3b be 4c c7 c5 bd 4b d7 1a 3e
       0.057286505 -0.18268335 -0.096571535 0.1512119
0000e0 f6 55 21 3e 2c 03 f6 3d 62 4d 3b 3d 40 c9 83 3b
       0.15755448 0.12012324 0.045728095 0.0040217936
0000f0 ac 70 25 3d f3 83 8b 3d 4e 3a 7d 3d 2b 49 19 3d
       0.040390655 0.06812277 0.06182318 0.037423294
000100 6a 22 67 3d 60 ba 09 3d d3 71 b1 37 39 22 21 3d
       0.056429304 0.033625007 2.1153048e-05 0.039339278
000110 a5 54 8c 3b 18 4f ba 3c f5 36 7b 3b e2 d8 9a 3c
       0.0042825514 0.022742793 0.0038332317 0.018902246
000120 10 55 ec 3b 83 a7 63 3d 1d 8c 83 3c a5 1e 17 3d
       0.0072122887 0.055579673 0.016058022 0.03689446
000130 e4 86 27 3d 92 3c 83 3d 82 b3 7f 3b 2c f8 91 3a
       0.040900126 0.06408037 0.0039016907 0.0011136583

fc.weight f4 [30, 20]
000000 04 5e da 3c 9d ce 1a 3d 62 5a 39 bd e3 f2 11 bd
       0.026656158 0.037794698 -0.04525221 -0.035632025
000010 60 03 36 bd c5 a4 09 bd 0b ee 18 3a 2c 69 0e bd
       -0.044436812 -0.033604402 0.0005833811 -0.03476827
000020 f5 2d 19 bb 12 07 e5 bc e7 9b 33 bc 80 de e0 bc
       -0.002337334 -0.027957473 -0.010962463 -0.027449846
000030 71 b8 7b 3c 4d 28 14 bd 33 fa b4 bc 7f 5e 10 3d
       0.0153637985 -0.036171246 -0.02209196 0.03524637
000040 4a 2b 17 3d e2 c1 36 3d 45 d7 3b 3c 7a db b2 3b
       0.036906518 0.044618495 0.0114648985 0.0054582926
000050 c4 8e 73 3d 8e c6 93 3d 92 42 95 bd 46 c4 58 bd
       0.059462324 0.07215606 -0.07288088 -0.052921556
000060 18 39 24 bd 0f d4 38 bd 15 01 26 3a 15 80 5c bd
       -0.04009351 -0.04512411 0.00063325587 -0.053833086
000070 2b 39 3a bc d8 ea 27 bd 64 a6 8a bc 3a 60 09 bd
       -0.011366169 -0.04099545 -0.016925044 -0.033539034
000080 5d bc bb 3c 01 6d 8b bd 6c 71 0d bd 72 53 63 3d
       0.022916967 -0.068079 -0.034531996 0.0554995
000090 b8 8b 5f 3d 9a bd 8b 3d 83 b1 89 3c 8f 61 f4 3b
       0.054576606 0.06823273 0.016808277 0.007457919
0000a0 45 ac 1b 3d 0c 2d 4c 3d 0e ae 3e bd 32 95 19 bd
       0.038006086 0.049847648 -0.04655271 -0.0374958
0000b0 6e a3 3b bd a8 0f 0f bd 8c 9c 4c 3a e4 3b 1e bd
       -0.045810156 -0.03492704 0.000780531 -0.038631335
0000c0 1c a2 16 bb f8 8a e7 bc b9 fc 35 bc 5f c7 d9 bc
       -0.0022984808 -0.028264508 -0.011107617 -0.026584325
0000d0 c2 1d 81 3c e8 5c 39 bd 69 cb be bc cb 70 14 3d
       0.01576126 -0.045254618 -0.023290353 0.03624038
0000e0 16 15 16 3d c2 b3 41 3d 23 1a 43 3c 75 f5 b8 3b
       0.036641203 0.04729057 0.011908087 0.005644495
0000f0 f5 0a 18 3d 1d 90 45 3d 79 1a 3a bd 87 47 16 bd
       0.037119824 0.04823314 -0.045435403 -0.036689308
000100 21 62 3c bd 37 21 08 bd 1c eb 13 3a 6d ff 16 bd
       -0.04599202 -0.0332348 0.0005642639 -0.036864687
000110 bf 73 18 bb 1e 45 e6 bc 68 56 28 bc e2 20 d7 bc
       -0.002326235 -0.02810913 -0.010274507 -0.026260797
000120 f4 87 7f 3c 98 30 37 bd e5 e8 b8 bc b4 9e 12 3d
       0.015596379 -0.044724077 -0.02257199 0.035795882
000130 77 72 01 3d 2c af 42 3d ab 91 c9 3b eb 16 bc 3b
       0.031603303 0.04753034 0.006151398 0.0057400367
000140 44 80 7f 3d 3e 68 99 3d 2d c6 9c bd 3a c8 66 bd
       0.062378183 0.07490586 -0.076549865 -0.056343295
000150 08 02 95 bd b3 58 59 bd 0e fa 4e 3b ec 28 6e bd
       -0.07275778 -0.053063106 0.003158215 -0.058144495
000160 aa 4c 5c bb ce b2 31 bd 3a a2 95 bc da ee 31 bd
       -0.0033615031 -0.043383412 -0.018265832 -0.043440677
000170 31 4d c2 3c b5 5a 8d bd 12 38 14 bd e2 a3 1f 3d
       0.023718448 -0.069020666 -0.036186285 0.03897465
000180 87 25 6f 3d d4 b4 92 3d 63 43 93 3c 07 00 0e 3c
       0.0583854 0.071633965 0.017976468 0.008666999
000190 1d ca 38 3d 6c f2 6c 3d b4 7f 5d bd f7 64 36 bd
       0.045114625 0.05784838 -0.054076865 -0.04452988
0001a0 ac e3 68 bd 77 43 1f bd c4 16 11 3c 5b 08 38 bd
       -0.05685775 -0.0388827 0.008855525 -0.044929843
0001b0 90 71 e9 bb ff 9c 09 bd ae bf 08 bc 1e 95 ae bc
       -0.0071241334 -0.03359699 -0.008346481 -0.021311339
0001c0 86 a4 99 3c 03 9a 58 bd c9 86 e2 bc de 7c 38 3c
       0.018755209 -0.052881252 -0.027652161 0.011260239
0001d0 46 55 39 3d 75 9e 65 3d 7b de 65 3c e1 53 e0 3b
       0.04524734 0.05605932 0.014030094 0.0068459366
0001e0 7a 8f 45 3d 59 f7 76 3d dc 24 6d bd f6 84 39 bd
       0.048232533 0.060294483 -0.05789648 -0.045292817
0001f0 d9 76 63 bd 74 4d 30 bd 0a cb 7f 3b 04 9e ce bc
       -0.055533264 -0.043042615 0.0039030933 -0.025221832
000200 f6 d8 a8 bb 03 63 13 bd dd 10 72 bc 39 26 07 bd
       -0.005152817 -0.035983097 -0.014774528 -0.032995436
000210 8f 56 a1 3c 1d 7c 27 bd 7d 8c ec bc 45 16 46 3d
       0.019694595 -0.040889848 -0.028875584 0.04836108
000220 46 1a 40 3d a3 e9 72 3d cb 0f 6c 3c e3 e9 d2 3b
       0.046900056 0.059304845 0.014408062 0.006436573
000230 11 34 3a 3d 4d c7 7b 3d 7c e2 5f bd 9f ed 33 bd
       0.04545981 0.061469365 -0.05465935 -0.043927785
000240 e0 88 50 bd 7d 5c 2c bd 96 ae 74 3a 2d a1 36 bd
       -0.050911784 -0.04208039 0.00093338767 -0.044587303
000250 fb 99 19 bb eb ad 09 bd fe 7c 6b bc 26 22 01 bd
       -0.0023437727 -0.033613127 -0.014373062 -0.031526707
000260 80 39 98 3c 4e ff 62 bd 30 81 e0 bc 0e 28 47 3d
       0.018582106 -0.05541926 -0.027405351 0.048622184
000270 c1 b9 3c 3d 98 db 56 3d 6d d3 61 3c 9a 3a 79 3c
       0.046075586 0.052455515 0.013783318 0.015211726
000280 5c 23 49 3d 5c de 87 3d 18 a5 7f bd 02 25 45 bd
       0.049105987 0.066342086 -0.062413305 -0.048130997
000290 eb 6a 70 bd 32 63 3c bd f9 d1 86 3a 10 cb 51 bd
       -0.058695715 -0.045993038 0.0010285965 -0.051219046
0002a0 29 e1 3f bb c3 ea 17 bd 47 37 94 bc ac 99 0d bd
       -0.0029278493 -0.03708912 -0.018092765 -0.03457038
0002b0 ca 2b ab 3c 67 b4 75 bd 52 eb f8 bc 34 46 43 3d
       0.020894904 -0.0599865 -0.030385647 0.047674373
0002c0 21 fa 2e 3d 83 30 80 3d 6e dd 6d 3c e9 f5 a2 3c
       0.04271901 0.06259253 0.014518125 0.01989265
0002d0 04 e8 1b 3d c9 72 47 3d 2d 38 36 bd 40 90 14 bd
       0.038063064 0.048693452 -0.044487167 -0.03627038
0002e0 87 01 38 bd 96 c8 0b bd bf a5 ee 3b f5 bf 17 bd
       -0.04492333 -0.03412684 0.007282942 -0.0370483
0002f0 7b c0 f3 ba ee 76 e6 bc 36 a0 35 bc ad 16 d7 bc
       -0.0018596792 -0.028132882 -0.011085561 -0.02625593
000300 09 02 24 3c d5 8c 37 bd c9 64 ba bc ab c8 c6 3c
       0.010010251 -0.044812042 -0.022753136 0.024265608
000310 23 64 f4 3c d8 0d 39 3d e5 cc 3e 3c be 38 0c 3c
       0.029832905 0.045179218 0.01164553 0.00855845
000320 57 68 1a 3d 7e 9c 4b 3d c2 e2 3d bd 6b b0 d8 bc
       0.037697162 0.04970979 -0.04635883 -0.02645131
000330 7a 44 3b bd a3 3f 0e bd 72 0d 58 3a 5e 5c 1b bd
       -0.0457196 -0.034728657 0.00082417496 -0.037929885
000340 60 31 1a bb f0 29 eb bc b7 88 41 bc f9 e2 ca bc
       -0.0023527965 -0.02870652 -0.0118123805 -0.024766432
000350 3e 36 73 3c fd 93 3d bd 9c 48 c6 bc 8d a6 14 3d
       0.014844475 -0.04628371 -0.024204545 0.036291648
000360 92 6c 1d 3d 65 5a 3b 3d 23 9d 45 3c 12 60 c0 3b
       0.03843362 0.045740504 0.01206139 0.0058708275
000370 a6 36 1f 3d 77 07 50 3d 12 60 43 bd f0 ba b0 bc
       0.038870476 0.05078837 -0.04769904 -0.021573514
000380 06 cb 45 bd f6 e6 14 bd 92 cc 5a 3a b7 92 21 bd
       -0.04828932 -0.036353074 0.00083465234 -0.03944656
000390 07 55 f0 ba cb 89 f0 bc 78 7d 4b bc ee b7 fa bc
       -0.0018335887 -0.02936258 -0.012420051 -0.030605283
0003a0 3a f4 88 3c a5 2b 3e bd ff 3f c8 bc 99 46 46 3b
       0.016718019 -0.04642834 -0.024444578 0.0030254482
0003b0 b5 1f 23 3d 45 82 40 3d f9 8e 3f 3c db 19 b8 3b
       0.03982516 0.046999235 0.011691802 0.0056183166
0003c0 ae ad 96 3d 82 51 cf 3d 11 1d bd bd bd 9d 90 bd
       0.073573455 0.10122968 -0.092340596 -0.07061336
0003d0 a2 0e b5 bd 19 11 85 bd 9a 06 bc 3a d2 23 8f bd
       -0.088406816 -0.06497402 0.0014345229 -0.06989254
0003e0 59 75 89 bb a1 c9 58 bd dc ab b4 bc 01 ec 54 bd
       -0.004194897 -0.052926663 -0.022054605 -0.051982883
0003f0 25 21 f5 3c f6 24 b5 bd ca e8 32 bd 3b ad 85 3d
       0.029923031 -0.0884494 -0.043679036 0.06527182

fc.bias f4 [30]
000000 e8 2c 38 3e 21 bb c4 3d 6a c1 2a 3e 63 a1 2e 3e
       0.1798588 0.096060045 0.16675344 0.17053752
000010 ed 00 9c 3d c0 ef 13 3e 58 b4 09 3e 08 8d 09 3e
       0.07617364 0.14446926 0.13447702 0.13432705
000020 1b e7 e9 3d f9 16 33 3e a9 50 2d 3e 8b 7f 2f 3e
       0.11421033 0.17489232 0.169253 0.17138498
000030 b4 7c 26 3c 5c 8a 26 3e f1 bc 36 3e ac fd 30 3e
       0.0101615675 0.16263717 0.17845513 0.17284268
000040 a7 7c 28 3e de 6d 2b 3e 76 c1 2f 3d 36 88 36 3e
       0.16453801 0.1674113 0.042909108 0.17825398
000050 d2 d8 2d 3e 96 23 a5 3d 25 f8 06 3d b4 7a 23 3e
       0.16977242 0.08063428 0.032951493 0.15964776
000060 4d 9c 2d 3e 86 6d 2d 3e cc e8 a7 3d f8 f3 30 3e
       0.16954155 0.16936311 0.08198699 0.17280567
000070 d4 c8 f1 3d a0 ba 33 3e
       0.11805883 0.1755166
