backend/model/lstm-DIS-90-.pth (torch, 31230 bytes, 12 tensors)

conv1.weight f4 [2, 4, 3]
00000000: 3a86 a02b 94f6 712b 188f d8ad 8961 922b
00000010: aa8b 842b 72a5 b52b a116 84b2 1d26 542b
00000020: 4172 742b 4a4a 5a2b 6670 06b8 2d3d 072c
00000030: 9c97 422a aa40 082a 6db1 9829 520c 0eb4
00000040: 302d 7b29 d6ef 1929 bfdd de29 e505 2233
00000050: 2146 142a cdc3 3c29 f192 592e cfcb a629
1.1405939e-12 8.5962596e-13 -2.4619903e-11 1.0400995e-12 9.417929e-13 1.2906744e-12 -1.5377113e-08 7.5370423e-13
8.6844773e-13 7.7552255e-13 -3.205277e-05 1.9218613e-12 1.7283261e-13 1.2101661e-13 6.7809345e-14 -1.3229263e-07
5.577239e-14 3.418085e-14 9.897247e-14 3.7723925e-08 1.3169371e-13 4.1914216e-14 4.9470598e-11 7.407236e-14

conv1.bias f4 [2]
00000000: f2bd b42b ca97 47b0
1.284249e-12 -7.2611483e-10

lstm.weight_ih_l0 f4 [80, 2]
00000000: 7cef c928 b1d6 05a0 60fa 4ca1 ac80 999d
00000010: 2b6a 39b1 73d0 429b bf9f 8830 d542 1ba0
00000020: 7622 90a0 284e 639c 095d dcaa 1447 8924
00000030: f4a7 d69f 9dfe 7524 f39e 5da7 6dd1 96a3
00000040: 0bcd 9da4 f231 b09f 10c0 0ca6 c535 39a2
00000050: 2d9f 4ba3 315f 309f d151 7bad b99f 7125
00000060: 8d84 55a9 1e2c 01a3 7631 b39e ac3e 0e2d
00000070: f533 8131 a7ed 0db1 c62d bf34 ceb6 309c
00000080: 2d68 93a5 c2bf 8b32 6378 dfa1 c2e5 e99d
00000090: a00e 56a4 4d87 74a0 469a a5a1 2cba 0ead
000000a0: 99e2 37af 5d5b 2eb2 2f98 25a1 deb2 3c34
000000b0: 276e b79f c089 9aa7 0e7e 64a8 01e9 11a0
000000c0: daef 7ba0 d2d1 ceb3 39be 34aa 952b 26a5
000000d0: 0fb1 f79f a970 8aad 730e a5ad 1619 85b4
000000e0: e1a7 c9a4 ce3d 90a0 dc2a 18a6 1028 98a2
000000f0: 5a7b 3529 0a70 949e b50a 34b4 f4e8 85a5
00000100: 9d0a c8a7 5735 dfa2 c880 1bae f570 2c1d
00000110: 7b62 83a7 dcb9 cfa2 99b9 5032 ab1a 481c
00000120: 5f16 4ea5 0f7a 59aa 022e 3c2f 6900 a2ab
00000130: 8084 1133 f739 5da7 e09b d221 4b63 849f
00000140: b083 84ae 3215 a933 d373 b52d dae7 3ab3
00000150: 248d d3aa 5b34 0fb1 8f4b 90b5 c0b9 c729
00000160: be45 fa2d dae1 dc27 3e9c 86b0 79c3 58ac
00000170: 8f94 f6ab 977b 9ea7 ed27 7532 2e5c 9dab
00000180: 6275 b92d c52a d129 23ee b8ae 0c59 1dab
00000190: 50db ad2d 7d33 df28 4808 bf2e d158 3b2a
000001a0: 466c d7ae e40d 26ab c62d 5a2b ff97 402f
000001b0: 7715 11b2 a785 20ab beb3 ba2a e1fb 4128
000001c0: 2a56 392e f537 8a29 1eca d7ac 0dbd 49a8
000001d0: bc2d b2ad 6376 51a9 cbb7 60ac 1869 baa8
000001e0: a4db 86a4 a9c3 c3ac 45cc c7a3 a8df 479e
000001f0: 542f df9e a8dc 7e9a 029e a6a5 8fd7 db9f
00000200: a658 91a0 60d1 b6b4 75ab 5931 8c8f 84a6
00000210: 4a7a 0cb0 1651 ce9b 94db a4a7 4cb8 54a3
00000220: 982b 7b2a a00a 3a30 bfd0 18a6 894b 19b3
00000230: 5d03 3aa3 e5e7 289f 4b18 7da3 08d7 48a0
00000240: 55a0 c0a6 14a1 2ca3 15f4 c8a2 8cf7 2eb3
00000250: c654 07a7 fa60 bca2 2b1a 212f 2166 db33
00000260: 22ee 4ea5 5653 60a1 1371 072a 1c1b e89d
00000270: 8281 dd2f 299b 2fa0 202c d6a1 fe60 99af
2.2419343e-14 -1.1336574e-19 -6.9449257e-19 -4.0631806e-21 -2.6981393e-09 -1.6114657e-22 9.940705e-10 -1.3151124e-19
-2.4417353e-19 -7.5209014e-22 -3.9144407e-13 5.953469e-17 -9.091038e-20 5.3341572e-17 -3.0756078e-15 -1.6351728e-17
-6.843525e-17 -7.462153e-20 -4.883255e-16 -2.510064e-18 -1.1038359e-17 -3.734819e-20 -1.4285865e-11 2.0957534e-16
-4.741047e-14 -7.002446e-18 -1.8972819e-20 8.085681e-12 3.760301e-09 -2.065329e-09 3.5609827e-07 -5.8469785e-22
-2.5571027e-16 1.6268931e-08 -1.5142934e-18 -6.191215e-21 -4.641624e-17 -2.0712371e-19 -1.1221671e-18 -8.113104e-12
-1.6724257e-10 -1.0148907e-08 -5.610559e-19 1.7573936e-07 -7.7685746e-20 -4.2892935e-15 -1.2683876e-14 -1.2359072e-19
-2.1339887e-19 -9.6307886e-08 -1.6053208e-13 -1.4412971e-16 -1.0490149e-19 -1.5738815e-11 -1.8764745e-11 -2.4791433e-07
-8.745425e-17 -2.4435448e-19 -5.279368e-16 -4.12421e-18 4.0297064e-14 -1.5716448e-20 -1.6767702e-07 -2.3229677e-16
-5.552266e-15 -6.0500747e-18 -3.53573e-11 2.2822408e-21 -3.6466577e-15 -5.630425e-18 1.21493935e-08 6.6208917e-22
-1.7875231e-16 -1.9315819e-13 1.7114846e-10 -1.1510906e-12 3.388095e-08 -3.0701334e-15 1.4271413e-18 -5.606844e-20
-6.0260574e-11 7.873531e-08 2.0628754e-11 -4.3517367e-08 -3.7579065e-13 -2.0839e-09 -1.0750827e-06 8.869598e-14
2.8452681e-11 6.1307135e-15 -9.79419e-10 -3.0803955e-12 -1.7520585e-12 -4.3987806e-15 1.4269955e-08 -1.1181106e-12
2.1084193e-11 9.288884e-14 -8.409653e-11 -5.590118e-13 1.9765217e-11 2.4780303e-14 8.6871454e-11 1.6639751e-13
-9.796301e-11 -5.8994324e-13 7.751268e-13 1.7516298e-10 -8.444991e-09 -5.70289e-13 3.3164958e-13 1.076827e-14
4.214066e-11 6.138138e-14 -6.133107e-12 -1.1198735e-14 -2.0256567e-11 -4.6510007e-14 -3.193434e-12 -2.0695725e-14
-5.848532e-17 -5.563956e-12 -2.1662135e-17 -1.0581223e-20 -2.3630618e-20 -5.2704214e-23 -2.890348e-16 -9.310672e-20
-2.4622618e-19 -3.4052482e-07 3.1675118e-09 -9.198248e-16 -5.1105487e-10 -3.4132242e-22 -4.575721e-15 -1.1531569e-17
2.2308403e-13 6.7681505e-10 -5.30185e-16 -3.5691787e-08 -1.0083792e-17 -3.5767202e-20 -1.3720302e-17 -1.7011807e-19
-1.3366134e-15 -9.358248e-18 -5.446854e-18 -4.0737675e-08 -1.878097e-15 -5.106018e-18 1.4652161e-10 1.0216559e-07
-1.7948334e-16 -7.6004446e-19 1.2029639e-13 -6.143792e-21 4.0291687e-10 -1.4874415e-19 -1.4512884e-18 -2.7899455e-10

lstm.weight_hh_l0 f4 [80, 20]
00000000: b7d0 1822 2c97 a8a0 57ee d521 bc34 54a2
00000010: d492 40a0 3dd9 a325 3a6e d11f 22b9 c822
00000020: e31d 4eab c542 5023 e074 07b3 5214 a031
00000030: e223 aeab 30a1 be9f 5e2d b223 fe00 2e33
00000040: 8b94 15ae 9e2e d034 0969 2d22 0adf d720
00000050: 0f96 d522 33cf cf9c 5ce3 0b2d ed6d 9a9f
00000060: 4758 45aa f1b7 3832 8f7b a0b3 a867 ebaf
00000070: 0b0c 98a0 7732 c4af 5808 9daf dbda bbb2
00000080: 72bf fa20 6be1 41a3 7fbb bd23 aff6 4830
00000090: 2183 3da6 3931 48b2 9e3e 661f 1855 50a7
000000a0: d81f 211d b3d4 d81a 60c7 0629 b709 009d
000000b0: 4d88 5f9b 7813 1921 e05b 241b 100a 3b1d
000000c0: bdd0 899d fdc4 721e b81f 93a9 cf4b b69c
000000d0: 42ef eeb1 8a7d 6a33 504c 101d 2d98 3298
000000e0: a66d 999f 6ed6 91a3 bba0 1a1e 68b6 5a1c
000000f0: 29a0 0b30 7fc8 2aa1 0c58 b61f d7bf 7fa2
00000100: 27ab 0da1 7b42 fe25 0314 6e20 de75 9824
00000110: bb36 8da2 7bd9 0124 920e 18a2 1847 7ea2
00000120: be60 af34 d326 ec33 c7e1 5324 aafc efa4
00000130: 6e6d 0eab 334b 9921 c2c8 8b23 7fee 8d25
00000140: 1d00 311e 6343 1f9d eac4 76a2 9c09 db9e
00000150: c09b 689e aace 30a9 d7d0 a61d bc9e 01aa
00000160: 057d 5a2a ee54 b81f 3741 5e9e 52d3 432a
00000170: 9336 6d20 2836 af9d 2826 6820 a5d9 cdaf
00000180: acad 3d30 af5f 7a25 0b45 0c1f e6bd c921
00000190: ec3d 0ab1 a63b bcad b26d af26 70d3 18a9
000001a0: cc66 a6ac f8eb 162c ce59 c826 b11d af2a
000001b0: f43a 76a9 9ac6 d12e 4f04 6ea8 aa44 1ba9
000001c0: f5c4 3b2a e67b f5aa 52fa 052b 6923 f0a5
000001d0: 0510 9ba9 cbdb c626 3e45 8129 6054 6b32
000001e0: 96c7 0e1e d1d4 3b9c be97 f01b 0722 609e
000001f0: c939 c91a 741a c321 7461 8d1b ebbe 7b31
00000200: fe2a b09e c7b8 ab1f db87 fb9f 57bb 9c34
00000210: 7756 5fa5 39c6 bbb1 6e2a 1132 5292 0a23
00000220: 6044 561d 9576 cf9f a389 e5b0 9319 361d
00000230: 7a0e 8325 4144 6630 aa71 a227 7843 cba5
00000240: 9d90 fda3 cfa5 8d29 8650 ad23 8bff 9b30
00000250: d318 60a6 0435 eb26 0908 8db3 ab49 33a6
00000260: efce 34b2 a268 53a3 ac3e 8cb1 b129 4430
00000270: 45d5 0ba7 fa4a c024 a752 af25 cd16 0525
00000280: a1de be22 c4f7 3925 4435 5a20 d493 f5ae
00000290: 6c41 53a1 7e9f 2cad 7db6 d720 3b04 b824
000002a0: 05f9 3fa8 3006 1334 5b76 9eb4 b727 c4a4
000002b0: 53d7 3db2 c74d f3b0 0fa7 5224 9855 8b23
000002c0: 2f76 9ea3 427b 7f34 5487 2f23 64fd 3b30
000002d0: d56b 952f 232f 12a3 ca61 3c22 15ae 90a4
000002e0: ecaf 182f 08ea 0b28 6d01 5822 24af 3626
000002f0: cf22 0ca5 9784 5e2f 1df9 1e25 e1a7 1ea4
00000300: 0910 1026 9ab5 5ba2 e464 6e26 8237 aba1
00000310: ad58 f727 5397 ab32 0d41 9624 116c 05a9
00000320: 8fe2 99b1 e3d2 0fa0 7fbf 2e1f 2727 2a33
00000330: 2b4d a89f a175 6224 d870 731f 2906 5230
00000340: 6dfa 1ea2 77f3 5f2a e0f7 4ca1 a7cc a2a1
00000350: d30d 4cb3 b04a 8b1d 2a0b 8ca9 969f 3e23
00000360: 3540 86a2 fefa 6f20 8e8d a8a3 9d2a aba0
00000370: 9f6e c2b0 f4bb e3ac ae58 f7b3 52e3 aea2
00000380: a309 4b34 04e0 d625 c7ad 75a0 65ba 9424
00000390: edd1 a4af 94aa e823 e40e 2431 16a0 b2a2
000003a0: 15f2 9c24 7596 742a d0fa 3931 eb1b 879f
000003b0: dd8e 3bb2 a4a9 8fb1 480c 73b1 76a6 ca30
000003c0: ebf4 1faf e4db 8432 ba26 be22 799e 45a5
000003d0: b6ac 5fa3 124c 9028 f850 1f23 fc6f 2aaa
000003e0: 313c 0526 b169 5026 d46e cea4 c530 8da5
000003f0: c416 dc26 f2b0 22a3 140b b026 a8b1 7a30
2.0710334e-18 -2.8560344e-19 1.4496529e-18 -2.8759275e-18 -1.6311614e-19 2.84232e-16 8.86973e-20 5.4406126e-18
-7.322738e-13 1.1289842e-17 -3.1538434e-08 4.658923e-09 -1.2373403e-12 -8.073479e-20 1.9318012e-17 4.0513434e-08
-3.401061e-11 3.8776938e-07 2.3501477e-18 3.6570012e-19 5.7892646e-18 -1.3751671e-21 7.951719e-12 -6.5403394e-20
-1.7527742e-13 1.0752033e-08 -7.473056e-08 -4.2819903e-10 -2.575777e-19 -3.568805e-10 -2.8564062e-10 -2.186919e-08
4.2478335e-19 -1.0510285e-17 2.0570829e-17 7.3110135e-10 -6.575026e-16 -1.1652724e-08 4.875619e-20 -2.8911928e-15
2.1324635e-21 8.967914e-23 2.9926907e-14 -1.6945681e-21 -1.8490169e-22 5.1864183e-19 1.3595448e-22 2.4754446e-21
-3.647943e-21 1.28521095e-20 -6.533614e-14 -1.2063346e-21 -6.953912e-09 5.4596548e-08 1.9097694e-21 -2.308279e-24
-6.497942e-20 -1.5811746e-17 8.18593e-21 7.2365904e-22 5.0795507e-10 -5.7863595e-19 7.722566e-20 -3.4660503e-18
-4.7999176e-19 4.4107025e-16 2.0166005e-19 6.611917e-17 -3.8276075e-18 2.815663e-17 -2.0607555e-18 -3.4461056e-18
3.266668e-07 1.09966685e-07 4.5944573e-17 -1.0407776e-16 -5.06004e-13 1.0387588e-18 1.5155434e-17 2.4621212e-16
9.3703254e-21 -2.1078313e-21 -3.3443462e-18 -2.3191501e-20 -1.2314186e-20 -3.9259103e-14 4.415577e-21 -1.1512574e-13
1.9405664e-13 7.8067536e-20 -1.1766068e-20 1.7392796e-13 2.0092738e-19 -4.637811e-21 1.9663789e-19 -3.7443929e-10
6.90046e-10 2.1716462e-16 2.9703264e-20 1.3670555e-18 -2.0116842e-09 -2.1399615e-11 1.2172797e-15 -3.3934173e-14
-4.7294165e-12 2.144727e-12 1.3902129e-15 3.1106847e-13 -5.4674106e-14 9.5394984e-11 -1.3212588e-14 -3.447647e-14
1.667727e-13 -4.3606714e-13 4.759848e-13 -4.1657358e-16 -6.886162e-14 1.3798585e-15 5.7407624e-14 1.3697985e-08
7.558691e-21 -6.214817e-22 3.980273e-22 -1.1865498e-20 8.322501e-23 1.3220716e-18 2.338947e-22 3.6633832e-09
-1.8652506e-20 7.2727005e-20 -1.0652739e-19 2.9193572e-07 -1.9371462e-16 -5.4649516e-09 8.449758e-09 7.5119795e-18
2.8358013e-21 -8.786409e-20 -1.6701062e-09 2.410072e-21 2.2734687e-16 8.3770507e-10 4.5087267e-15 -3.5260605e-16
-2.7491561e-17 6.290421e-14 1.87908e-17 1.1350364e-09 -7.7749255e-16 1.6320771e-15 -6.567286e-08 -6.220294e-16
-1.052443e-08 -1.146049e-17 -4.0816612e-09 7.136363e-10 -1.9405739e-15 8.339374e-17 3.0413668e-16 1.1543636e-16
5.173532e-18 1.6130138e-16 1.8482942e-19 -1.11675696e-10 -7.1576166e-19 -9.812482e-12 3.6543177e-19 7.9804447e-17
-1.0656627e-14 1.3692693e-07 -2.9515908e-07 -8.506873e-17 -1.1050207e-08 -1.7702683e-09 4.5677995e-17 1.510666e-17
-1.7180447e-17 2.3793567e-07 9.515426e-18 6.8390293e-10 2.717956e-10 -7.9246574e-18 2.553052e-18 -6.274495e-17
1.388682e-10 7.7667975e-15 2.9274213e-18 6.3381294e-16 -1.2154858e-16 2.0237888e-10 1.3788718e-16 -3.4402988e-17
4.998177e-16 -2.9776174e-18 8.270957e-16 -1.1602104e-18 6.8652414e-15 1.9975834e-08 6.516233e-17 -2.9625665e-14
-4.478643e-09 -1.2182348e-19 3.7004335e-20 3.961682e-08 -7.127843e-20 4.9105574e-17 5.1550594e-20 7.640631e-10
-2.1545567e-18 1.9890848e-13 -6.944595e-19 -1.1031718e-18 -4.7510024e-08 3.687022e-21 -6.2191856e-14 1.0333714e-17
-3.6388755e-18 2.0327134e-19 -1.8274547e-17 -2.8996726e-19 -1.4146798e-09 -6.472595e-12 -1.15179645e-07 -4.740348e-18
1.8909354e-07 3.727488e-16 -2.0809805e-19 6.450053e-17 -2.9980587e-10 2.5225733e-17 2.3873605e-09 -4.8416494e-18
6.806432e-17 2.1723754e-13 2.7063614e-09 -5.722091e-20 -1.0917316e-08 -4.1811337e-09 -3.5368135e-09 1.4744745e-09
-1.4547978e-10 1.5466817e-08 5.1540607e-18 -1.7140719e-16 -1.2125427e-17 1.6020202e-14 8.636553e-18 -1.5137886e-13
4.622522e-16 7.2307735e-16 -8.952601e-17 -2.4492649e-16 1.5271737e-15 -8.819507e-18 1.2215456e-15 9.1201935e-10

lstm.bias_ih_l0 f4 [80]
00000000: 5044 8134 29eb 92b4 7818 d1a5 f5ec 0d2c
00000010: 7e83 9fad 8b26 6532 6bab 4e33 1ff6 77b2
00000020: 62cd 522c de38 09b0 5199 0f2b b82d 0f31
00000030: 2c5c 292f 89c2 6c27 dd5b b3b0 3764 4cb1
00000040: 8aca df2d e558 e02a 939e 01b4 e3ab 8a29
00000050: 22e9 bf2b 0fb5 8c29 f38c f226 4721 b32b
00000060: db1d 09b0 203e 3e32 8aab fa27 7949 962f
00000070: 1b88 742c 4527 7431 8c19 fa2b bf96 4a30
00000080: 843f 92b3 af12 9db3 c15b 162f b9bd 852c
00000090: 460f ac2d f92e a32b 7d45 972c 8782 b329
000000a0: 5fd9 ba35 b960 44b4 502e ae33 1fb5 a7b5
000000b0: 88b1 ecb3 6fb3 9438 89a9 9233 cbe5 b737
000000c0: a625 30b6 814b 8b36 212d 7cb5 f64e afb5
000000d0: 4b85 5237 0dee 85b3 68ef 7637 a12f ccb2
000000e0: 59e9 9eb6 0c29 b534 35c4 e435 3ebc a134
000000f0: 7d5f 522c e29a 4c29 ffb4 9b34 cb12 672c
00000100: d402 6928 d672 7332 61c5 61aa fa8d 9eb2
00000110: 1fad 822c b263 e6b3 e476 3d2b 0485 122c
00000120: 7f8b e22e 565d 6527 d119 012f 940e 2826
00000130: f625 0d2e dad1 a42a a2f4 00ae ee4a 9b34
2.4077826e-07 -2.736572e-07 -3.62723e-16 2.0168843e-12 -1.8134601e-11 1.3338318e-08 4.8119016e-08 -1.4433254e-08
2.9956805e-12 -4.9921123e-10 5.1016575e-13 2.0835227e-09 1.5403206e-10 3.2857037e-15 -1.3050073e-09 -2.9742873e-09
2.544211e-11 3.9852076e-13 -1.207175e-07 6.158249e-14 1.3636074e-12 6.2486576e-14 1.6830328e-15 1.2727951e-12
-4.9882737e-10 1.1073581e-08 6.957492e-15 2.7337047e-10 3.475004e-12 3.5528995e-09 1.7770659e-12 7.3701395e-10
-6.810208e-08 -7.314281e-08 1.3675018e-10 3.801151e-12 1.9560919e-11 1.1594884e-12 4.299393e-12 7.97184e-14
1.3921343e-06 -1.828911e-07 8.1109306e-08 -1.2495183e-06 -1.1021899e-07 7.090612e-05 6.829493e-08 2.1922306e-05
-2.6247958e-06 4.1513126e-06 -9.3942987e-07 -1.3061497e-06 1.254801e-05 -6.236596e-08 1.4718484e-05 -2.3770385e-08
-4.735932e-06 3.3743743e-07 1.7044428e-06 3.012555e-07 2.9895802e-12 4.543144e-14 2.9002692e-07 3.2837507e-12
1.29347115e-14 1.4170572e-08 -2.0052494e-13 -1.8458184e-08 3.7140425e-12 -1.0728344e-07 6.731128e-13 2.0821686e-12
1.03020696e-10 3.1830732e-15 1.1741653e-10 5.8306466e-16 3.2093404e-11 2.9277866e-13 -2.9321108e-11 2.8925518e-07

lstm.bias_hh_l0 f4 [80]
00000000: 605d 002c 2da3 2629 0de0 a026 293d 6f2c
00000010: 397e 8f33 32b9 8532 85d3 ca27 d062 e22f
00000020: 09b8 5b2c c071 d72e 4a47 262b 5107 3d2c
00000030: 82fe 9131 48f2 6627 0548 ea2e ce0d 2b26
00000040: 9189 4b2d 8620 e029 448f 22b4 d44e b129
00000050: 4cf4 c02b 48d8 3f29 7741 f626 67ab 852c
00000060: a728 7c28 73bc 3832 af4c 7228 e9a2 ac2f
00000070: fe3c 1e2e cecc 232e a96c 442b ed96 272c
00000080: 67a9 cf2e 4f42 0b27 b5d7 5f2f 739b e027
00000090: 3808 a6b4 7c88 362a 7b38 652c 79b4 8b29
000000a0: e46a 9135 a393 60b4 df56 eb32 5630 1cb6
000000b0: 4d4c 16b4 ea7f 8a39 1b3f c933 0c83 8137
000000c0: 4d8d eeb5 d7d4 4f37 99b1 92b5 f147 f7b5
000000d0: e167 7937 e5ba 74b3 51c2 5837 13b4 e8b2
000000e0: 5ecc 8db6 5e61 d834 621f fe35 aff5 a934
000000f0: caa5 892c 6f2f 1929 fa56 e826 b308 7533
00000100: 4bc5 7228 6ad0 a732 79c9 c827 6761 6c2f
00000110: cf6b f52c 30be a42e 78d0 aa2b d555 b52c
00000120: 2997 022f ac01 4827 7dda e82e 6fe0 4126
00000130: 521c ce2d 7440 922a ca26 d033 80f7 022a
1.8241728e-12 3.7000937e-14 1.1162959e-15 3.3997893e-12 6.681916e-08 1.5567455e-08 5.6295593e-15 4.117937e-10
3.1223932e-12 9.797274e-11 5.907398e-13 2.6862577e-12 4.2489896e-09 3.2050253e-15 1.0653881e-10 5.934625e-16
1.156976e-11 9.95324e-14 -1.5139545e-07 7.8740535e-14 1.3710227e-12 4.2598114e-14 1.7087423e-15 3.799117e-12
1.3997625e-14 1.0753058e-08 1.3450327e-14 3.1402372e-10 3.5979213e-11 3.7243812e-11 6.9783984e-13 2.3815908e-12
9.443362e-11 1.932607e-15 2.0358366e-10 6.2341028e-15 -3.092589e-07 1.62122e-13 3.257421e-12 6.204147e-14
1.0834451e-06 -2.0915336e-07 2.7397105e-08 -2.3273947e-06 -1.3997597e-07 0.00026416715 9.371271e-08 1.5439022e-05
-1.7773506e-06 1.2387717e-05 -1.0929535e-06 -1.8423872e-06 1.4865743e-05 -5.6980657e-08 1.2919846e-05 -2.7090243e-08
-4.225919e-06 4.030398e-07 1.8933608e-06 3.165746e-07 3.9121805e-12 3.4013967e-14 1.6121809e-15 5.705142e-08
1.347648e-14 1.9536134e-08 5.572959e-15 2.1498679e-10 6.975288e-12 7.4916406e-11 1.2137088e-12 5.1538587e-12
1.1877134e-10 2.7756482e-15 1.058895e-10 6.726449e-16 2.3432065e-11 2.5979533e-13 9.6928105e-08 1.1632188e-13

lstm.weight_ih_l1 f4 [80, 20]
00000000: c2fc 1534 419f 4bb3 ba3c 6531 a227 36b4
00000010: 4e8d e7b1 62e2 2637 1f4f 19b0 b1b2 bd35
00000020: a730 00b4 859a 0a35 4134 a8b3 06af c0b3
00000030: 3e29 de35 daf7 82b3 ce74 a235 36e0 c4b0
00000040: b7e1 b7b4 fe2d 4633 3b18 9834 43ad 9332
00000050: 9d6f a133 06b7 2ab2 6e20 0c31 b7d6 ddb3
00000060: 2901 eab1 1c37 0b37 3e8a a031 1e58 3636
00000070: 65de 08b4 0c20 2d35 f3fc e5b3 bc6d bbb3
00000080: bc83 5635 cff8 49b1 66ad c035 b33a ddb0
00000090: 0cbe 27b5 0520 c132 ec57 0f34 ea60 9632
000000a0: 9e74 d233 00f3 a4b2 60a4 6131 66a0 d7b3
000000b0: 0e85 01b2 8fd9 1d37 ecbc dc31 044a ae35
000000c0: edcd 33b4 ae94 ae35 2a01 cbb3 a870 48b5
000000d0: da2c 5435 11f3 69b1 90df 9335 2a8f 68b0
000000e0: 56ba 87b4 f140 a133 b93c e233 3017 ed32
000000f0: f625 2334 da4a 45b2 760a f430 8260 40b4
00000100: 4d3b 05b4 7743 6537 2e5c b031 c9fa ac35
00000110: 647a a1b5 01bc 2f35 dd51 76b3 feae 1b34
00000120: 39dc f335 ff3a 2231 2aa5 8235 b464 c6b0
00000130: 8a72 2cb5 79c6 9134 b0ed 0034 d119 0433
00000140: e548 f333 e630 bab3 851d 2132 7466 1eb4
00000150: 7e42 05b2 c613 3e37 264c 9f31 f15b 3135
00000160: 202a 15b4 749c 7935 fa28 c0b3 0bb2 65b5
00000170: 55ff c435 9314 80b1 3242 0736 32ec 21b0
00000180: bd5f f9b4 43b0 1a34 5332 e133 731f e532
00000190: b0ad 9e33 10f5 24b3 9b30 a231 546d 49b4
000001a0: f094 efb1 4d09 3637 f5f2 edb3 2c5f c635
000001b0: fa3c 60b5 c09b 0635 d34e 6cb3 6901 b7b3
000001c0: 8b6d eb35 a1d0 7eb1 568a 6c35 50eb 94b3
000001d0: 5700 9ab4 506a 8933 05ca 1734 4984 f032
000001e0: 0ad2 a533 7dfd 3eb2 1006 5331 cca2 3ab4
000001f0: cb9d 05b4 a26a 2037 f22f d531 c3e3 2036
00000200: 1d65 54b4 a697 0835 3da3 c8b3 5512 3fb4
00000210: 2f2d 9835 8f9f 6ab1 7b87 8335 0bf6 f3b0
00000220: 7724 8eb4 67a0 d832 7d37 4d34 6b51 da32
00000230: 6616 b733 3b8d b1b3 7994 f631 a940 dfb3
00000240: fbeb 4bb2 ca2f 2937 4e66 9e31 076c aa35
00000250: d787 89b3 5637 2035 4660 83b3 28e7 b7b3
00000260: 502c d235 386f 18b1 0afb 5735 238d bcb0
00000270: ff91 83b4 8a9c c532 7873 1a34 8fdd 9232
00000280: f626 9133 bb64 5fb2 fe2a 4e32 7d2f e4b3
00000290: 5a2c 1fb2 7b08 4637 69f9 d0b1 b23f 8835
000002a0: 0bbf 3bb4 9db4 3635 2e51 91b3 fa03 1fb3
000002b0: 9eb9 1d36 6f7f 7cb1 91a2 0f36 547b d5b0
000002c0: 3819 5cb5 230e 0c32 d8f8 df33 acac a032
000002d0: 582c b233 4977 45b2 4b4d 8633 5bf6 cdb3
000002e0: 08aa 4133 f9c3 2137 d8ea 9831 975e c435
000002f0: 1d51 9db4 7566 f334 079a f332 3d22 b4b3
00000300: 60f3 9b35 69f7 59b1 d22f 8935 52ab 0bb3
00000310: 4656 90b4 3365 8fb4 270f 0f34 4e50 6234
00000320: ff03 a333 e18f f6b3 3fa9 93b4 2a28 9bb4
00000330: 3990 4bb2 c21e 6537 b192 fd31 5c7f 9935
00000340: 3daa 44b4 8d4f f734 b829 cab3 c1ac b6b3
00000350: ac1c 6335 01ed 7db1 7228 1136 61c1 ceb1
00000360: d124 99b4 e878 d832 0f7a 4434 6396 eb32
00000370: e811 3634 7372 afb1 30e1 5131 cea8 6fb3
00000380: 3e88 59b2 532f 2537 cca6 9831 de80 9c35
00000390: 4ce6 55b4 3be0 bc35 8213 e5b3 9639 c9b3
000003a0: 2dfa 4735 e93b 6eb1 fcd5 cd35 bf85 56b3
000003b0: f964 2bb5 921d 2333 9ffd eb33 a25b c932
000003c0: cd56 9933 f36c 3cb2 72d0 c531 0d09 ffb3
000003d0: 1b97 1eb2 3a47 5d37 bf30 1633 d759 8935
000003e0: 28c4 aeb3 2c80 f534 1356 dbb3 a6f4 b6b3
000003f0: 969f af35 cba7 ecb0 3e2d 4c35 e040 bdb0
1.3968659e-07 -4.740946e-08 3.3358405e-09 -1.6964489e-07 -6.7390493e-09 9.94708e-06 -5.5773514e-10 1.4133603e-06
-1.1938629e-07 5.163386e-07 -7.8326146e-08 -8.972533e-08 1.6552292e-06 -6.098681e-08 1.2103935e-06 -1.4324602e-09
-3.4250635e-07 4.6142297e-08 2.8329836e-07 1.7191843e-08 7.517449e-08 -9.936917e-09 2.0391115e-09 -1.0330171e-07
-6.810428e-09 8.297877e-06 4.672329e-09 2.7171404e-06 -1.2746894e-07 6.4494157e-07 -1.0709655e-07 -8.7278266e-08
7.991291e-07 -2.939078e-09 1.435558e-06 -1.609655e-09 -6.24889e-07 2.2482718e-08 1.3349899e-07 1.750637e-08
9.8000996e-08 -1.9202616e-08 3.2835246e-09 -1.0040894e-07 -7.539041e-09 9.4085835e-06 6.4243206e-09 1.2985552e-06
-1.674559e-07 1.3007282e-06 -9.453136e-08 -7.466974e-07 7.904142e-07 -3.404413e-09 1.1017419e-06 -8.4604557e-10
-2.5281287e-07 7.5089595e-08 1.05349905e-07 2.7600976e-08 1.5194368e-07 -1.14839285e-08 1.775631e-09 -1.7916503e-07
-1.2408164e-07 1.36651715e-05 5.1327538e-09 1.2887987e-06 -1.2031055e-06 6.546616e-07 -5.7350793e-08 1.4499162e-07
1.8169004e-06 2.3607638e-09 9.733824e-07 -1.4435018e-09 -6.424167e-07 2.7152763e-07 1.2007399e-07 3.0757125e-08
1.1328829e-07 -8.6701945e-08 9.378145e-09 -1.4752169e-07 -7.7567375e-09 1.1329486e-05 4.636166e-09 6.607143e-07
-1.3892031e-07 9.29874e-07 -8.94815e-08 -8.5568234e-07 1.4677449e-06 -3.7276293e-09 2.0155098e-06 -5.890711e-10
-4.6449523e-07 1.4406491e-07 1.0486533e-07 2.667341e-08 7.389042e-08 -3.840711e-08 4.7203463e-09 -1.8759357e-07
-6.9727477e-09 1.0850211e-05 -1.1080366e-07 1.4779848e-06 -8.3535235e-07 5.0145536e-07 -5.5019722e-08 -8.521858e-08
1.7540746e-06 -3.7080456e-09 8.8118156e-07 -6.93459e-08 -2.8684983e-07 6.398898e-08 1.4136465e-07 2.7999834e-08
7.721617e-08 -1.1117092e-08 3.0707987e-09 -1.7381825e-07 -1.2443995e-07 9.561571e-06 6.2045666e-09 2.3974433e-06
-1.9780823e-07 5.0884626e-07 -9.3429186e-08 -1.779493e-07 1.1338033e-06 -3.414218e-09 9.799691e-07 -1.7750507e-09
-2.6476093e-07 2.5218652e-08 1.91123e-07 2.5415565e-08 8.525676e-08 -8.2678945e-08 7.1764217e-09 -1.0396008e-07
-1.1869811e-08 1.0084312e-05 4.610036e-09 1.2697427e-06 -6.404269e-08 5.968517e-07 -6.117675e-08 -8.5636486e-08
1.5659116e-06 -2.2182132e-09 8.045905e-07 -1.3718914e-09 -2.4506878e-07 2.3005004e-08 1.4384375e-07 1.709739e-08
6.7591756e-08 -1.3003212e-08 1.2000553e-08 -1.06257154e-07 -9.2651025e-09 1.1803694e-05 -6.0819514e-09 1.0151327e-06
-1.7485233e-07 6.806311e-07 -6.766855e-08 -3.702369e-08 2.3502866e-06 -3.6743264e-09 2.1403287e-06 -1.5532842e-09
-8.1993085e-07 8.152287e-09 1.0429511e-07 1.8704974e-08 8.296837e-08 -1.14940315e-08 6.253921e-08 -9.590868e-08
4.5090957e-08 9.641976e-06 4.450481e-09 1.4630667e-06 -2.9302547e-07 4.5336824e-07 2.8358967e-08 -8.388131e-08
1.1619231e-06 -3.1718292e-09 1.0221213e-06 -3.2519274e-08 -2.6884862e-07 -2.6709458e-07 1.3323425e-07 2.1077105e-07
7.591006e-08 -1.1481439e-07 -2.7504026e-07 -2.8900223e-07 -1.1848948e-08 1.3656625e-05 7.379946e-09 1.1436455e-06
-1.8315855e-07 4.6065216e-07 -9.4139466e-08 -8.506459e-08 8.4605813e-07 -3.6951067e-09 2.1630226e-06 -6.0173737e-09
-2.8525258e-07 2.5200691e-08 1.8298327e-07 2.7425989e-08 1.6956585e-07 -5.1061817e-09 3.0541507e-09 -5.580005e-08
-1.266204e-08 9.845785e-06 4.442745e-09 1.1660411e-06 -1.9920952e-07 1.4072351e-06 -1.0667192e-07 -9.370267e-08
7.449733e-07 -3.4667613e-09 1.5335968e-06 -4.99474e-08 -6.38494e-07 3.797829e-08 1.0989174e-07 2.344115e-08
7.140407e-08 -1.0967812e-08 5.757152e-09 -1.1876009e-07 -9.231168e-09 1.318921e-05 3.496893e-08 1.0233442e-06
-8.138187e-08 4.5728063e-07 -1.0213639e-07 -8.519537e-08 1.3084962e-06 -1.721895e-09 7.606176e-07 -1.3769998e-09

lstm.weight_hh_l1 f4 [80, 20]
00000000: de11 d2bc 4009 d13c abb2 d1bc c322 d13c
00000010: 3130 d63c 457e d2bc b147 d13c 81c9 d0bc
00000020: 5a33 d53c 8781 c73c 5fa3 d23c cd2d d53c
00000030: a72a d23c 32f8 d03c 4ba9 d13c 7c50 d2bc
00000040: 2ba3 d33c 464f d33c 6176 d1bc 931e d33c
00000050: 7922 d1bc 7ae2 d53c f3e2 d0bc 8636 d03c
00000060: 3296 d63c 8624 d6bc 6b7c d03c 4cb9 d5bc
00000070: 3c35 d63c 0f12 c83c 3b88 d53c 3ef7 d03c
00000080: 0f55 d13c be7c cf3c efd8 d03c c015 d1bc
00000090: b117 d13c 2aae d13c 63b8 d5bc 8223 d13c
000000a0: 508c d1bc 6c90 d03c 051f d1bc b188 d43c
000000b0: 113b d53c e2a3 d1bc 1fac d53c c23b d0bc
000000c0: 847f d13c c3b7 c83c 5a01 d03c 5bb9 d13c
000000d0: 954e d23c 5830 d03c a53c d13c f377 d1bc
000000e0: b08c d13c 9642 d23c 2005 d1bc a628 d53c
000000f0: 876a d1bc d717 d13c b489 d1bc 4fa5 d13c
00000100: a731 d23c a095 d1bc 611a d13c f74c d0bc
00000110: 032f d53c 6139 c63c 4674 d03c b315 d33c
00000120: 2a54 d13c 81de cf3c ddfd d03c 9b8a d5bc
00000130: 5f7a d53c 2133 d63c 87c7 d0bc f131 d13c
00000140: 9789 d2bc 3ea0 d23c 08f9 d1bc 421a d63c
00000150: 8119 d33c 1c74 d2bc b9b6 d13c 315b d1bc
00000160: d8b4 d33c 8103 cd3c e640 d13c e456 d23c
00000170: 96ab d23c ff28 d13c db1a d23c d24f d2bc
00000180: ddb7 d43c 1704 d33c 3600 d2bc 5adc d53c
00000190: 62e1 d1bc 30e9 d03c 8e97 d1bc 2a43 d13c
000001a0: a0aa d33c d4b4 d3bc c86f d13c 47cb d3bc
000001b0: a31a d23c 0ed8 c83c 775a d13c 99b9 d13c
000001c0: 42ab d23c b33a d03c ec83 d23c bbda d1bc
000001d0: d948 d23c 8589 d43c f944 d1bc 8fab d33c
000001e0: be7e d1bc cbb4 d03c 31ec d0bc 0163 d53c
000001f0: c0f0 d13c 6770 d1bc 7660 d13c f62e d0bc
00000200: a463 d13c 2b3d d03c deb1 d33c 4c14 d13c
00000210: 5d75 d13c 6a87 d43c 5c25 d13c 5c3b d1bc
00000220: 762b d53c 51e3 d13c 05e2 d5bc 58bd d53c
00000230: 36f9 d0bc 142d d03c 8c2c d4bc 5f24 d23c
00000240: 2be8 d23c c910 d1bc 8fe0 d53c 6d83 cfbc
00000250: 6df2 d03c 7f44 c63c a185 cf3c 4ab8 d03c
00000260: bd00 d13c 66a0 d53c f9c7 d03c 9ac3 d3bc
00000270: 480f d23c 8626 d33c 62cd d5bc a0c5 d03c
00000280: 5223 d6bc aae5 d53c 0384 d4bc b760 d23c
00000290: c1c7 d33c 1ac7 d3bc 1e1a d33c 3672 d4bc
000002a0: 114d d23c 7556 c83c 1718 d43c 149f d13c
000002b0: ec70 d63c a8e4 d13c d895 d13c fac0 d1bc
000002c0: a420 d23c 9b79 d23c 853c d1bc 9940 d23c
000002d0: 7d2f d1bc b48f c93c 97e3 c6bc 1b89 c93c
000002e0: d3a4 c73c 4612 cbbc 19a7 cb3c c9f8 cabc
000002f0: 6f7d c93c 5818 c13c a144 c83c 9fc3 cd3c
00000300: 7dff d13c c498 cb3c ac6e c73c 7997 c8bc
00000310: 5554 d03c cb74 cb3c a6b3 c9bc 1908 c93c
00000320: c2ab d0bc e90e d13c e23e d4bc 63e6 cf3c
00000330: acf0 d13c aac4 d0bc e1b0 d03c fba1 d3bc
00000340: bf1e d53c db0c c73c 2456 d33c 2eb7 d03c
00000350: 9bcb d53c 8759 cf3c 43fc d53c 8346 d2bc
00000360: 590d d63c 7a5f d13c 8e90 d1bc 1fe3 d03c
00000370: 29f5 d1bc efc8 d03c ad67 d1bc cd7f d43c
00000380: 9dc4 d23c 5ec9 d1bc 1713 d13c 78ba d5bc
00000390: d91f d33c b7e0 c93c 5a4b d33c 2981 d13c
000003a0: 6add d13c 0c24 d03c e46d d13c e7ac d1bc
000003b0: d20a d23c 474b d23c cc21 d1bc 976e d43c
000003c0: a713 d2bc 5bb1 d53c cfa6 d1bc 692f d13c
000003d0: 5501 d33c df0c d2bc 51b7 d53c 10d0 d0bc
000003e0: af10 d23c 4006 c93c 0194 d53c 41e4 d13c
000003f0: 3a10 d23c a5da d13c dbfd d13c a7e5 d1bc
-0.025643285 0.025517106 -0.02559789 0.025529271 0.026146026 -0.025694976 0.02554688 -0.02548671
0.026025463 0.024353756 0.025712667 0.026022816 0.025655104 0.025508974 0.02559342 -0.025673144
0.02583464 0.025794636 -0.025569143 0.025771415 -0.025529133 0.026108969 -0.025498843 0.025416624
0.026194666 -0.026140463 0.025449952 -0.026089333 0.026148431 0.024422674 0.026065936 0.02550852
0.025553254 0.025328036 0.025494067 -0.025523067 0.025523992 0.025595743 -0.026088899 0.025529627
-0.025579602 0.02545949 -0.025527487 0.025944086 0.026029142 -0.02559084 0.02608305 -0.02541912
0.0255735 0.024501687 0.02539127 0.02560108 0.025672236 0.025413677 0.025541613 -0.025569892
0.02557978 0.025666516 -0.02551514 0.02602036 -0.025563492 0.025524063 -0.025578357 0.02559152
0.025658442 -0.025584042 0.025525274 -0.025427325 0.026023393 0.024197282 0.025446068 0.025767183
0.025552828 0.025374653 0.025511676 -0.026067069 0.026059328 0.026147427 -0.025485767 0.02553651
-0.025700374 0.025711175 -0.025631443 0.026135568 0.025768997 -0.02569013 0.025599824 -0.025556179
0.025843069 0.025026085 0.025543641 0.025676198 0.025716584 0.025532244 0.025647571 -0.025672827
0.02596658 0.025758786 -0.025634866 0.026106048 -0.025620166 0.025501817 -0.025584962 0.025544722
0.025838196 -0.025843062 0.025565997 -0.025853766 0.025647467 0.024517085 0.025555832 0.025601195
0.025716428 0.025418615 0.02569767 -0.025616994 0.025669502 0.02594448 -0.025545584 0.025838641
-0.02557313 0.025476834 -0.02550325 0.026048185 0.025627494 -0.025566293 0.025558691 -0.025413018
0.025560208 0.025419792 0.02584165 0.025522374 0.025568658 0.025943477 0.02553051 -0.025541
0.0260217 0.025621088 -0.026108751 0.026091263 -0.025509458 0.02541212 -0.025900148 0.025652109
0.025745472 -0.0255207 0.026108054 -0.025331223 0.025506223 0.024202583 0.025332274 0.0254785
0.025513047 0.02607746 0.02548598 -0.025850106 0.025642052 0.025775205 -0.02609891 0.02548486
-0.026139889 0.026110489 -0.025941854 0.025680883 0.025852086 -0.025851775 0.02576929 -0.025933366
0.025671514 0.024455288 0.025890393 0.02558855 0.026176892 0.025621727 0.025584146 -0.025604714
0.02565033 0.025692752 -0.025541553 0.025665568 -0.02553534 0.024604656 -0.024278445 0.02460151
0.024370586 -0.024788987 0.024859952 -0.024776833 0.024595944 0.023571178 0.024446787 0.025117693
0.025634522 0.024853118 0.024344765 -0.02448629 0.025430838 0.024835965 -0.024621796 0.024539994
-0.025472526 0.025519805 -0.025908891 0.025378412 0.025627457 -0.025484402 0.025474967 -0.025834074
0.026015637 0.024298122 0.025797911 0.025477972 0.026098063 0.025311245 0.026121264 -0.025668388
0.026129412 0.025558222 -0.025581624 0.025498925 -0.025629597 0.025486438 -0.025562132 0.025939846
0.025728518 -0.025608715 0.025521798 -0.026089892 0.025772022 0.024643285 0.025792766 0.025574284
0.025618274 0.025407813 0.025565095 -0.025595142 0.025639925 0.02567066 -0.02552881 0.02593164
-0.025644137 0.026085546 -0.025592236 0.025535302 0.025757471 -0.025640903 0.026088389 -0.025489837
0.025642721 0.024539113 0.02607155 0.025621535 0.025642503 0.025616953 0.025633743 -0.025622202

lstm.bias_ih_l1 f4 [80]
00000000: a8fa 523d a5b4 513d 9027 543d 16da 513d
00000010: fd79 523d 06e0 513d 6b60 513d cb98 513d
00000020: 00ca 513d 945f 4b3d 42a8 503d 5872 523d
00000030: 8108 523d c163 503d 55de 523d 27f1 513d
00000040: 8bc3 543d cf9a 523d a854 543d 321f 523d
00000050: 709d a13d 72f7 a03d bf75 a13d 95af a03d
00000060: 5731 a23d f232 a23d 52b9 a03d bc21 a03d
00000070: 8564 a13d e8a6 993d 3298 9f3d f0af a13d
00000080: 0ea3 a13d 9890 a13d df2f a13d 04ad a13d
00000090: 166d a13d 3d21 a23d 3d55 a13d 083f a13d
000000a0: 17ac e3bd 92f1 e33d e6e2 e3bd 61cf e33d
000000b0: 3a45 e43d 2f9e e3bd 8ffd e23d 11c5 e4bd
000000c0: 8b9b e23d 224a e03d 440d e43d cddb e33d
000000d0: 29f1 e33d d952 e33d 121b e43d d2da e3bd
000000e0: c852 e23d f101 e43d 44f8 e3bd c095 e33d
000000f0: 32b4 ac3d 9cb1 ab3d 4d28 ad3d 8994 ab3d
00000100: 564f ad3d 1d20 ad3d aedd ab3d c9fa ab3d
00000110: b68d ac3d ec69 9d3d 7a3f ab3d ed66 ac3d
00000120: 5bb4 ac3d a449 ab3d 02e2 ac3d 12a9 ac3d
00000130: e6d6 ac3d 6887 ad3d 0c4a ad3d 148c ac3d
0.051508576 0.051197667 0.051795542 0.051233374 0.05138587 0.051239036 0.051117342 0.051171105
0.051218033 0.049651697 0.050941713 0.051378578 0.05127764 0.050876383 0.051481564 0.05125537
0.051944297 0.05141717 0.051838547 0.05129928 0.07891357 0.078596964 0.078837864 0.078459896
0.07919567 0.07919873 0.07847847 0.07818934 0.07880501 0.07502538 0.07792701 0.078948855
0.07892428 0.07888907 0.07870459 0.07894328 0.078821346 0.07916496 0.07877586 0.078733504
-0.11116808 0.1113006 -0.11127262 0.11123539 0.111460164 -0.111141555 0.11083519 -0.111704
0.11064824 0.1095164 0.11135343 0.11125908 0.11129982 0.11099786 0.11137976 -0.11125721
0.110509455 0.11133183 -0.11131337 0.11112547 0.08432807 0.08383486 0.084549524 0.0837794
0.08462398 0.08453391 0.083918914 0.08397443 0.08425467 0.076862186 0.083617166 0.08418069
0.084328376 0.08363655 0.08441545 0.08430685 0.08439426 0.08473092 0.08461389 0.08425155

lstm.bias_hh_l1 f4 [80]
00000000: 8ca0 533d 5c97 513d 831c 543d f693 533d
00000010: 0b03 533d f380 523d 9498 513d 4ce8 503d
00000020: caf6 513d 098a 493d 3498 503d 5ae9 513d
00000030: efd0 523d 51ce 533d bd51 523d d435 533d
00000040: 7182 533d 6b93 523d de47 543d bdb6 513d
00000050: 01a9 a23d 69c7 a03d e608 a13d 4cf4 a03d
00000060: b859 a23d b7d2 a13d 38d8 a03d 5751 a03d
00000070: b087 a13d bebf 943d da5d 9f3d b562 a13d
00000080: 76b9 a13d 8ad1 9f3d 7165 a13d 23b7 a13d
00000090: bb71 a13d 8923 a23d 8cb8 a13d 2313 a23d
000000a0: f1a7 e3bd 19c1 e43d 85d7 e3bd f206 e03d
000000b0: e20a e43d 47b0 e3bd df9a e03d ef77 e2bd
000000c0: 29dc e33d a80e df3d f30e e43d 60b4 e23d
000000d0: 1207 e43d 1989 e33d 4aa7 e33d 899d e2bd
000000e0: 05d3 e33d e2fa e33d cf12 e4bd 058a e33d
000000f0: 6cab ac3d 4268 ab3d 7246 ac3d 156c ac3d
00000100: 6275 af3d 221d ad3d f7b8 ab3d 86eb ab3d
00000110: 875b ad3d 5606 a53d c244 aa3d 68d4 ac3d
00000120: 3de3 ac3d a610 ab3d 8272 ad3d f1eb ac3d
00000130: 1fa4 ac3d 99f4 ad3d 201f ad3d 4770 ac3d
0.05166678 0.05116974 0.051785003 0.05165478 0.051516574 0.051392507 0.0511709 0.051002786
0.051260747 0.049203906 0.050926402 0.051247932 0.051468786 0.05171043 0.051347483 0.051565006
0.05163807 0.05141012 0.05182635 0.051199663 0.07942391 0.078505345 0.07863025 0.07859096
0.07927269 0.07901519 0.078537405 0.07828014 0.078872085 0.072631344 0.07781573 0.07880155
0.07896702 0.07803638 0.078806765 0.07896259 0.078830205 0.07916934 0.07896528 0.07913806
-0.11116017 0.11169643 -0.111250915 0.10938825 0.11134888 -0.111176066 0.10967039 -0.11058032
0.111259766 0.10891467 0.11135664 0.1106956 0.11134161 0.11110134 0.11115892 -0.11065204
0.11124233 0.111318365 -0.111364 0.111103095 0.08431134 0.08369495 0.08411874 0.084190525
0.08567311 0.08452822 0.083848886 0.08394532 0.08464723 0.08057849 0.08313896 0.08438951
0.0844178 0.08352785 0.08469106 0.0844344 0.08429741 0.08493919 0.08453202 0.08419853

fc.weight f4 [90, 20]
00000000: c960 05bd 21fd 043d 8411 05bd 97ea 083d
00000010: 01e5 083d 2500 08bd a488 063d 0368 06bd
00000020: 2d99 053d 0b62 ff3c 6ed6 033d 1532 053d
00000030: 5e93 083d 5856 043d 7426 053d a059 05bd
00000040: 6258 053d 3a16 063d 07df 04bd 8429 053d
00000050: a840 05bd 6d7f 063d 0df9 04bd 5dee 053d
00000060: 0fd2 053d f17c 06bd 94dc 043d 28cf 08bd
00000070: f189 073d 5019 003d 5a98 083d 1a12 053d
00000080: ae3b 053d ccf9 043d e32d 063d 0ee9 05bd
00000090: c031 053d d8ae 053d 84ef 04bd b20d 053d
000000a0: 6d2f 09bd aca5 053d 4f72 06bd 4ec1 053d
000000b0: d693 063d e34f 0abd 82ab 053d f59b 05bd
000000c0: c6d2 083d 1bbf fe3c 96f0 053d 0d38 063d
000000d0: f1b3 063d b840 053d 4ff6 053d 7760 06bd
000000e0: 5b22 063d 9460 073d 3bf3 05bd 4571 063d
000000f0: b264 05bd 2e13 053d b6eb 04bd cc30 073d
00000100: 8ae2 073d 3bf4 07bd 7206 053d 56dc 04bd
00000110: 35de 073d 5f18 013d c741 043d a993 053d
00000120: 763d 053d 8026 043d 7ec2 073d c7e6 06bd
00000130: c8f8 073d 7bb8 053d f58f 05bd a1b5 073d
00000140: 4336 05bd 52b8 043d ac68 07bd dc8e 063d
00000150: 8e55 073d ca31 05bd 5fbb 043d fc97 07bd
00000160: bb00 073d 7fbb 033d 912b 053d cfac 073d
00000170: 6536 053d 7875 043d b2ab 073d 9377 07bd
00000180: 782e 053d e7df 073d 1e9b 07bd ff96 073d
00000190: d756 08bd d982 043d 48e0 04bd 8a90 043d
000001a0: b498 053d 8898 05bd 129a 043d 2334 04bd
000001b0: 5ebe 053d fb18 043d 1969 083d bf08 053d
000001c0: 9131 053d 10a3 043d 194f 083d 6a18 05bd
000001d0: 97b3 053d aba5 053d ce59 05bd 2c62 073d
000001e0: 223f 05bd bce0 043d eae2 04bd bec0 043d
000001f0: aacb 063d 8f27 07bd 3b81 063d 2407 05bd
00000200: c4ab 063d ee38 fc3c 2024 083d ebb4 053d
00000210: da2c 083d ce25 083d 1313 053d c732 05bd
00000220: d6cc 053d aabe 053d 08d6 04bd 8f97 053d
00000230: f233 05bd b191 043d 50da 04bd 2452 053d
00000240: 76a2 053d fd2f 06bd 4342 053d e886 09bd
00000250: f629 053d 1df6 fd3c 39ea 043d 9ad0 053d
00000260: c5c0 053d b520 043d 9ce1 053d 0150 05bd
00000270: 8a2b 053d b7c2 053d 353e 05bd 451a 053d
00000280: 3e02 08bd 5839 063d 98e2 04bd a45b 053d
00000290: 0aea 053d 5134 05bd d5f3 053d 67b6 07bd
000002a0: 434b 053d b83d 033d 7086 043d 9270 063d
000002b0: 24ac 053d b2d7 063d b675 073d b1c8 05bd
000002c0: 6250 053d b9b3 063d b309 06bd 1169 073d
000002d0: e6e2 06bd 5a22 083d 4b65 06bd b1e5 043d
000002e0: e7db 053d a921 06bd 81cc 043d e009 08bd
000002f0: 3457 053d da2e fc3c fe01 063d 2bde 053d
00000300: eeee 073d 7302 043d a7d3 073d c38b 06bd
00000310: 9491 073d b2d4 053d 79e9 04bd f0cc 073d
00000320: 7430 05bd cd94 053d db6f 05bd ff97 043d
00000330: 708e 053d da62 05bd 03d3 073d d556 04bd
00000340: 7d1d 053d a87e 023d 7847 073d 6433 053d
00000350: f55f 053d 8323 043d 36f0 043d 092d 05bd
00000360: 5df4 053d 2cdd 053d f3d3 07bd 05a4 073d
00000370: 0a8d 07bd 417c 053d 061e 08bd fbcb 073d
00000380: de40 073d 0f0c 06bd a783 053d 8635 05bd
00000390: d8f0 053d 62a2 033d 24e3 073d 7fd0 073d
000003a0: 49b2 063d f217 053d 39de 053d 5f09 06bd
000003b0: 63f9 053d 552d 073d c1b7 05bd 2df1 073d
000003c0: 8539 05bd be8f 043d 3bd5 06bd a8e0 043d
000003d0: 140b 073d 022f 05bd f919 053d 1086 04bd
000003e0: f15b 063d 97ac 003d d433 043d 4209 053d
000003f0: a74f 053d d4fd 033d defe 043d 7dba 05bd
-0.032563005 0.032467965 -0.032487407 0.033426847 0.03342152 -0.033203263 0.032845154 -0.032814037
0.032616783 0.03117468 0.032186918 0.032518465 0.033343665 0.032308906 0.032507375 -0.032556176
0.03255499 0.03273604 -0.032439258 0.032510296 -0.032532364 0.032836366 -0.032464076 0.032698024
0.03267103 -0.032833997 0.032436922 -0.033400685 0.033090536 0.03127414 0.03334842 0.032487966
0.032527618 0.032464787 0.032758605 -0.03269296 0.03251815 0.032637447 -0.032454982 0.032483764
-0.033492494 0.0326287 -0.032823857 0.032655053 0.03285583 -0.033767592 0.032634266 -0.032619435
0.033404134 0.031096986 0.032700144 0.032768298 0.03288645 0.032532424 0.0327056 -0.03280684
0.032747608 0.03305109 -0.032702666 0.032822866 -0.032566734 0.032488994 -0.032451354 0.03300552
0.03317503 -0.0331919 0.03247685 -0.03243669 0.033170898 0.031517383 0.032289293 0.032611523
0.032529317 0.03226328 0.033144467 -0.03293493 0.03319624 0.032646637 -0.03260799 0.0331322
-0.03252245 0.032402344 -0.033058807 0.032851085 0.033040576 -0.032518186 0.032405253 -0.033103928
0.03295968 0.032161232 0.03251225 0.033123787 0.032522578 0.03233859 0.033122726 -0.03307302
0.03251502 0.033172514 -0.033106916 0.033102985 -0.033285942 0.03235135 -0.032440454 0.032364406
0.032616332 -0.03261617 0.032373495 -0.032276284 0.03265225 0.032250386 0.033303354 0.032479044
0.032517973 0.03238207 0.03327856 -0.032493986 0.032641973 0.032628696 -0.032556348 0.03305261
-0.03253091 0.032440886 -0.032442965 0.032410376 0.032909073 -0.03299671 0.032838088 -0.032477513
0.032878652 0.030788865 0.033237576 0.03264324 0.0332459 0.03323918 0.032488894 -0.03251913
0.03266605 0.032652535 -0.03243068 0.03261524 -0.032520242 0.032365505 -0.03243476 0.03254904
0.032625638 -0.03276061 0.032533895 -0.033575922 0.03251072 0.031001145 0.032449935 0.03266964
0.032654542 0.032257754 0.03268586 -0.032547 0.032512225 0.032656398 -0.03253003 0.032495756
-0.033205263 0.03276953 -0.03244266 0.0325581 0.0326939 -0.032520596 0.03270324 -0.033132937
0.03254248 0.03204128 0.032354772 0.0328222 0.03263487 0.032920547 0.033071242 -0.032662097
0.032547362 0.03288624 -0.032724094 0.033059184 -0.03293123 0.033235885 -0.032811444 0.032445613
0.03268042 -0.032746945 0.032421593 -0.033212543 0.032553867 0.03078406 0.032716744 0.03268258
0.033186845 0.0322289 0.03316083 -0.03284813 0.03309782 0.032673545 -0.03244922 0.033154428
-0.03251691 0.03261261 -0.032577377 0.032371517 0.032606542 -0.032564975 0.03316022 -0.032309372
0.032498825 0.03185907 0.033027142 0.032519713 0.032562215 0.03226043 0.032455646 -0.032513652
0.032703746 0.03268163 -0.033161115 0.033115406 -0.03309349 0.0325892 -0.033231758 0.033153515
0.033020847 -0.032726344 0.032596257 -0.032521747 0.03270039 0.032137282 0.033175603 0.03315782
0.03288487 0.03249354 0.03268263 -0.03272378 0.032708537 0.033002216 -0.032645945 0.033188988
-0.032525558 0.032363646 -0.032918196 0.03244081 0.03296955 -0.032515533 0.032495473 -0.032354414
0.032802526 0.031414595 0.03227599 0.032479532 0.032546666 0.03222449 0.032469623 -0.032648552

fc.bias f4 [90]
00000000: 162a 843d 7dc4 843d 8fdb 7f3d 2535 853d
00000010: e1fa 843d cb14 853d 7d1e 853d abea 843d
00000020: 7698 853d 9284 853d 675d 853d df40 803d
00000030: c8ed 843d 6e20 853d 94c7 853d bcf7 853d
00000040: 5aee 833d 7551 823d 76c7 843d 5642 833d
00000050: 8ab5 843d db9b 853d 461b 853d 77c8 843d
00000060: cdda 813d 8ef4 843d 191a 853d 49da 843d
00000070: 2231 853d 8eed 813d c9d8 843d b61d 853d
00000080: fd41 853d e0db 823d 85d5 843d a358 843d
00000090: 52d5 843d c818 863d e6f3 843d b19d 853d
000000a0: 79c7 693d aa8a 843d 8ffe 843d 1a04 853d
000000b0: d1c2 803d ae64 753d f30a 6b3d 6bda 843d
000000c0: 2c22 853d 2b2e 853d 83e2 6b3d b3fb 843d
000000d0: cff1 843d 5828 853d 9cf0 843d 9e55 733d
000000e0: 9b68 853d 5a65 853d 000c 853d 91a9 843d
000000f0: 7e16 853d de84 853d 5ac5 793d 1a24 853d
00000100: 62fb 843d dbc7 853d a61c 853d 7e43 853d
00000110: cdeb 7f3d 7039 853d e736 853d cfc7 853d
00000120: 5f2d 853d c630 853d 4ef2 843d 2076 783d
00000130: d743 763d e6ec 843d b598 843d 8bc2 6c3d
00000140: 460e 863d 2e30 853d 4e1d 853d a4b5 823d
00000150: 5272 803d c64c 853d 2d0e 853d e4ab 723d
00000160: 00d9 843d 83f7 843d
0.0645334 0.0648279 0.062465247 0.06504277 0.06493164 0.064981066 0.06499956 0.06490072
0.0652322 0.065194264 0.06511956 0.06262373 0.06490666 0.06500326 0.06532207 0.06541392
0.06441946 0.06363193 0.06483357 0.06409137 0.06479938 0.06523868 0.064993426 0.06483548
0.06340561 0.064919576 0.06499118 0.06486947 0.06503512 0.06344138 0.06486661 0.064998075
0.06506727 0.06389594 0.06486038 0.064622186 0.06486 0.065476954 0.064918324 0.06524218
0.057074998 0.064717606 0.06493866 0.06494923 0.06287158 0.05991047 0.05738349 0.064869724
0.065006584 0.065029465 0.057589065 0.0649332 0.06491434 0.065018356 0.06491205 0.059407823
0.065140925 0.06513472 0.064964294 0.06477655 0.06498431 0.06519483 0.060979225 0.065010265
0.0649326 0.0653226 0.06499605 0.06507014 0.062480737 0.06505096 0.065046124 0.06532251
0.065027945 0.065034434 0.064915285 0.060659528 0.06012329 0.06490497 0.06474439 0.057802718
0.06545691 0.0650333 0.0649973 0.063823014 0.06271805 0.06508784 0.064968444 0.05924596
0.06486702 0.064925216
