backend/model/lstm-BKNG-30-.pth (torch, 26181 bytes, 12 tensors)

conv1.weight f4 [2, 4, 3]
-1.1252322e-08 -3.8302366e-09 -3.8205425e-09 -4.522234e-09 4.6591033e-08 -2.5672788e-09 -5.6272014e-09 -4.2824395e-06
-8.211477e-05 -2.8755553e-09 -4.2363044e-06 -3.3630655e-05 -6.6070237e-07 3.7153655e-11 3.9077873e-11 2.6804354e-11
3.6685822e-06 2.6257461e-11 4.4693696e-08 2.9080625e-11 5.323029e-11 8.2852114e-11 1.1483615e-07 8.6009727e-10
00000000: 3c50 41b2 1e9b 83b1 d945 83b1 fe61 9bb1
00000010: 621b 4833 0c6c 30b1 6359 c1b1 e0b1 8fb6
00000020: 0835 acb8 4e9b 45b1 9425 8eb6 a40e 0db8
00000030: 1f5b 31b5 4c67 232e c6dd 2b2e 0ac6 eb2d
00000040: c331 7636 8cf6 e62d 3df5 3f33 bfcb ff2d
00000050: fb1b 6a2e 9831 b62e d79b f633 f76b 6c30

conv1.bias f4 [2]
-8.010664e-09 9.87561e-11
00000000: 469f 09b2 be2a d92e

lstm.weight_ih_l0 f4 [80, 2]
-9.548329e-12 4.0576817e-13 -1.4537571e-10 1.568994e-11 -4.4879675e-14 6.0079946e-16 -1.2376996e-16 -5.681516e-08
-6.836138e-15 2.461959e-16 -2.8654875e-13 7.4857655e-15 -4.2718765e-14 2.6774682e-09 -1.8251934e-14 4.760926e-08
-2.1709726e-12 6.3711874e-14 -4.6941317e-15 -1.3596451e-15 -2.4880127e-15 3.6461546e-17 -3.294515e-16 2.2380904e-10
-2.2022457e-14 5.309563e-16 -9.9999085e-08 -5.0714794e-17 -4.1958807e-14 4.1547308e-16 -1.1359753e-14 2.513347e-16
-1.2162486e-08 6.034906e-20 -1.3943106e-13 5.3932036e-15 -6.0063014e-12 8.427205e-14 -1.8655755e-15 1.8187906e-11
-1.9634545e-09 2.8366383e-13 -9.2036614e-11 1.18372855e-11 3.748709e-09 6.1081743e-16 -1.5365821e-16 3.5959456e-18
-2.8147815e-08 1.05091365e-16 -3.8742626e-13 3.0783737e-10 -1.7425822e-09 6.610182e-10 -3.046149e-14 -7.698307e-12
-7.265017e-08 5.0256887e-14 -1.6817608e-15 4.826895e-17 -2.2156821e-15 -3.218282e-11 -6.482661e-08 2.4436575e-19
-2.4460077e-14 -2.3605891e-07 -6.0733283e-15 1.7364358e-16 -1.3181489e-13 6.7856937e-16 2.8874114e-08 1.3194324e-16
-2.6206004e-18 -6.3602026e-11 -1.4448e-13 -1.9501224e-14 -2.9011479e-12 1.05104266e-13 5.2046094e-08 7.52764e-16
1.8891429e-08 -6.640971e-10 4.9896857e-06 -3.773796e-09 -9.480745e-10 1.7278097e-10 1.05128205e-10 -1.283316e-11
7.993244e-10 -1.1033189e-11 -4.842631e-09 8.0346264e-11 9.453798e-11 2.1315343e-07 -1.840905e-09 2.1630529e-11
-8.867467e-09 3.0697345e-10 -1.0709836e-08 2.2072495e-11 2.776652e-10 -1.83507e-11 -4.791645e-11 7.6103024e-13
3.3001823e-09 -2.6922374e-11 -1.0961416e-09 4.66127e-06 -1.966325e-09 2.4988898e-11 -7.228047e-10 5.0625367e-08
9.438865e-12 5.3977993e-07 -2.2807718e-09 6.860039e-11 2.2368813e-08 -3.5940662e-10 2.1122738e-10 -7.571221e-12
-1.5725869e-11 2.693425e-13 -9.314556e-11 3.0644362e-11 -1.2032038e-08 7.6223653e-16 -7.2093105e-17 -8.1155194e-13
-5.4186193e-15 3.149053e-16 -2.8479335e-13 7.873654e-14 -1.5694353e-14 -4.0777344e-08 8.3417717e-10 1.089502e-12
-2.0768756e-12 4.6736947e-14 -3.7166637e-15 -6.093433e-08 -9.811601e-16 3.2100583e-17 2.9412765e-14 2.4472798e-19
-1.7994587e-13 4.758371e-16 -7.920816e-15 -1.18925205e-14 2.5425607e-08 -4.445114e-07 -2.9184117e-14 -2.0606211e-10
-9.774125e-17 4.9644097e-20 -2.1687341e-13 2.4386595e-15 -8.237005e-12 -6.136202e-11 -2.8174848e-15 2.9476614e-16
00000000: daf9 27ad 5b6d e42a a0d7 1faf 9b02 8a2d
00000010: be1e 4aa9 2d2b 2d26 72b2 0ea5 ee04 74b3
00000020: 3e4c f6a7 1aec 8d25 0750 a1aa 00da 0628
00000030: 6263 40a9 85fe 3731 1866 a4a8 ef7a 4c33
00000040: c4c4 18ac 6577 8f29 b91f a9a7 0df2 c3a6
00000050: bc47 33a7 3226 2824 76ea bda5 a514 762f
00000060: 545c c6a8 a909 1926 14bf d6b3 76e1 69a4
00000070: 36f7 3ca9 0181 ef25 9da3 4ca8 75e2 9025
00000080: 2ef3 50b2 c57e 8e1f 44fc 1caa 864f c227
00000090: f453 d3ac 88c3 bd29 cb6d 06a7 86fb 9f2d
000000a0: 75ed 06b1 44b0 9f2a 0264 caae 653e 502d
000000b0: fecd 8031 5f0e 3026 e627 31a5 bfaa 8422
000000c0: b3c9 f1b2 fe52 f224 021a daaa 423c a92f
000000d0: a97f efb0 05b3 3530 b52f 09a9 186e 07ad
000000e0: da03 9cb3 3f56 6229 065e f2a6 eb99 5e24
000000f0: 1fa8 1fa7 a28a 0dae ce36 8bb3 823f 9020
00000100: 1951 dca8 6177 7db4 91d0 daa7 8a32 4825
00000110: 0e69 14aa 9595 4326 d906 f832 c51e 1825
00000120: be5d 41a2 c2dc 8bae 86ab 22aa c3a6 afa8
00000130: 6f26 4cac 7cac ec29 4989 5f33 2ef8 5826
00000140: b146 a232 ae8b 36b0 136d a736 a9aa 81b1
00000150: 684d 82b0 85f9 3d2f eb2d e72e 6ac3 61ad
00000160: 74b7 5b30 1119 42ad 3c64 a6b1 edae b02e
00000170: 27e4 cf2e 2bdf 6434 1603 fdb0 9f43 be2d
00000180: 8857 18b2 acc2 a82f 5bfe 37b2 d726 c22d
00000190: e7a5 982f 1a6a a1ad 20bd 52ae 0236 562b
000001a0: 6cc9 6231 cccf ecad 0ea7 96b0 0168 9c36
000001b0: f51f 07b1 ffcd db2d dcae 46b0 2e6f 5933
000001c0: de0c 262d 65e5 1035 c3bb 1cb1 96da 962e
000001d0: 8a25 c032 fc95 c5af 393f 682f c031 05ad
000001e0: 8253 8aad 58a0 972a 4ad4 ccae 7cc6 062e
000001f0: 76b5 4eb2 21b3 5b26 423c a6a4 7b6e 64ab
00000200: f139 c3a7 d287 b525 0c53 a0aa 864c b129
00000210: b75c 8da8 2a23 2fb3 004c 6530 7255 992b
00000220: aa25 12ac 087c 5229 2ce8 85a7 01db 82b3
00000230: 6b66 8da6 ae09 1424 9c76 0429 3f76 9020
00000240: de99 4aaa 9526 0926 51b0 0ea8 923c 56a8
00000250: 8067 da32 2ea5 eeb4 ff6e 03a9 5491 62af
00000260: 4060 e1a4 0870 6a1f 812d 74aa 54b9 2f27
00000270: 2ce8 10ad bfef 86ae 6c05 4ba7 ceeb a925

lstm.weight_hh_l0 f4 [80, 20]
5.678826e-10 -2.586562e-10 3.615703e-12 -1.8770635e-13 -1.59918e-12 -1.310074e-10 3.527895e-12 3.9182854e-12
4.823425e-11 1.0849794e-12 -9.269027e-13 -1.9750848e-09 -1.8934094e-09 1.5246271e-12 3.8325237e-12 3.8586296e-12
-5.5783316e-14 7.4818745e-12 -3.8227973e-11 -8.940285e-13 -7.1192596e-10 -2.1569024e-09 3.2005197e-11 -6.815375e-10
-1.5516272e-11 9.953903e-11 2.4815542e-11 3.5182714e-11 4.3417744e-10 5.898207e-12 -6.920465e-12 4.936099e-13
2.581544e-08 2.2618967e-11 2.6736424e-11 -1.2871925e-09 -3.4765628e-13 7.2611694e-11 5.5630956e-08 -9.7110054e-12
-1.9182981e-13 -9.058806e-13 1.1568301e-14 -6.3825383e-16 -5.1278337e-15 1.7742527e-13 6.7466407e-15 8.334043e-15
1.03993684e-13 -1.4387558e-15 -1.6727291e-15 1.1642488e-16 -6.7730758e-15 5.9515474e-15 7.751882e-15 4.4283213e-15
-7.690737e-17 1.7262625e-14 -6.260013e-09 -3.2108537e-15 -4.721781e-16 -2.158743e-11 2.0077715e-15 -1.031283e-17
-2.202034e-08 1.3863435e-16 1.9215082e-15 -6.0970407e-10 8.3690144e-17 1.0422668e-17 -1.845507e-17 -1.9414927e-15
-3.4941462e-17 3.4717597e-17 5.411999e-17 1.7589709e-10 -3.4894157e-19 8.8589144e-17 -3.7557528e-16 -7.0886856e-18
-4.316007e-14 -3.3343298e-08 1.8529458e-15 -1.2044955e-17 -1.3999902e-15 5.654783e-15 1.3405486e-15 1.5791109e-15
5.2397726e-09 4.2662376e-16 -3.0158015e-16 1.15783126e-10 -1.5278804e-15 7.4681984e-16 2.5651586e-15 1.0312204e-15
5.985244e-16 1.1793359e-14 -4.1671507e-14 -2.9432974e-09 5.508048e-09 -7.815392e-12 8.943543e-14 -7.980424e-15
-3.4627557e-14 4.4487287e-13 6.342382e-14 1.1600099e-13 7.5162847e-13 -2.690629e-11 -1.1581475e-09 1.1456274e-15
-1.06566035e-13 3.8534754e-14 1.0323608e-10 8.211347e-14 -1.2350846e-15 1.806287e-13 -2.4032785e-12 -4.5468962e-14
-4.8436176e-14 -6.590113e-13 7.501574e-15 1.2396067e-07 -3.7258086e-09 1.6279169e-12 9.268455e-15 7.790061e-15
9.7860806e-14 1.5388368e-15 -1.0238332e-15 8.715763e-17 -2.48486e-08 2.8152203e-15 -1.6564343e-12 3.9148453e-15
-4.6101466e-17 1.0281728e-14 1.5944096e-08 -9.069243e-16 8.967867e-08 -2.1684751e-13 1.0199938e-14 -4.7874282e-09
-3.1270409e-15 2.266649e-14 5.9276204e-15 1.2470877e-14 3.3635077e-13 1.3269978e-15 2.0627356e-08 1.3275782e-16
-8.489916e-14 3.786155e-15 1.21073975e-14 7.633152e-15 -9.8723724e-08 2.842612e-14 -1.993853e-11 -1.4767339e-15
-1.6556746e-11 -8.361057e-11 1.1679683e-12 -6.717842e-14 -7.6526936e-13 5.2699026e-12 5.1147053e-10 -1.1547704e-09
7.661319e-12 1.499239e-13 -2.7624796e-13 1.0541094e-14 -7.095387e-13 3.236265e-13 6.1512205e-13 1.2448471e-10
-6.5709568e-15 2.1428657e-12 1.0819895e-07 -7.439887e-09 -1.0873556e-14 3.5842122e-13 6.35063e-16 -4.7468468e-17
1.5588588e-11 1.6169251e-15 5.8169935e-16 -6.535702e-13 -1.4222659e-08 8.958617e-17 -2.4509782e-16 -5.1863116e-18
-3.5832546e-16 2.8540905e-16 7.485969e-16 -2.6482683e-14 2.228164e-09 9.410284e-16 -8.505792e-15 -1.1369826e-16
-7.9539104e-15 -5.5222594e-14 -2.3642876e-08 -3.7019232e-10 -2.7057737e-16 3.227826e-15 4.736217e-16 -1.1884544e-08
4.9242396e-15 1.3951478e-16 -8.965943e-16 1.1350645e-17 6.684657e-14 1.7633035e-15 4.336726e-08 -3.4043914e-15
1.4144995e-07 5.6359565e-15 -1.9404292e-14 5.933399e-08 -8.4033404e-17 7.782614e-13 3.3322253e-18 -1.8553939e-19
-3.8661587e-12 9.19524e-16 3.4841224e-18 2.0299142e-09 4.0238532e-17 8.0908904e-19 -9.389061e-19 9.3509016e-17
-4.2692967e-18 -2.9596085e-19 3.9939295e-18 2.634625e-09 -6.126287e-08 1.0515583e-17 -6.3034015e-17 6.4361727e-10
4.5395275e-08 -5.6208385e-13 7.0364526e-15 -5.749633e-16 -3.1667818e-15 2.4712395e-14 7.591997e-15 1.34418725e-14
3.577443e-13 1.7567465e-15 -3.6101e-15 -3.7528178e-10 1.7643036e-11 3.73869e-15 8.547407e-15 1.6680952e-08
00000000: 2f19 1c30 a032 8eaf b76e 7e2c ac56 53aa
00000010: 8810 e1ab 4e0b 10af e840 782c c7dc 892c
00000020: f022 542e 81b2 982b 3073 82ab 0fba 07b1
00000030: 361d 02b1 7b92 d62b 4ed8 862c 72c3 872c
00000040: c939 7ba9 5e9f 032d df20 28ae 8ba5 7bab
00000050: 56b1 43b0 a138 14b1 a6c2 0c2e f056 3bb0
00000060: 8a7b 88ad 7ee3 da2e a247 da2d 37bc 1a2e
00000070: 0bb1 ee2f 5386 cf2c 027e f3ac 57f0 0a2b
00000080: c1c0 dd32 63f5 c62d 132d eb2d 0fe9 b0b0
00000090: 8db6 c3aa c0ac 9f2e e2ee 6e33 7bd6 2aad
000000a0: 2efb 57aa 94fb 7eab 5f65 5028 d2f6 37a6
000000b0: ebbf b8a7 5ac3 472a c712 f327 fd21 1628
000000c0: 472c ea29 b858 cfa6 d010 f1a6 8f3a 0625
000000d0: 9906 f4a7 566d d627 3fa5 0b28 0e8c 9f27
000000e0: 1956 b1a4 e77c 9b28 a817 d7b1 cc5d 67a7
000000f0: 9818 08a6 92e2 bdad d9ac 1027 f63c 3ea3
00000100: 3d27 bdb2 a3d5 1f25 9275 0a27 1c98 27b0
00000110: f1f9 c024 a843 4023 cd37 aaa3 38e6 0ba7
00000120: 9923 21a4 4e1b 2024 9b95 7924 a166 412f
00000130: 8ffa cda0 cd45 cc24 2181 d8a5 5fc3 02a3
00000140: 2c60 42a9 5835 0fb3 d184 0527 b130 5ea3
00000150: 86c2 c9a6 2bbc cb27 8431 c126 e992 e326
00000160: 8709 b431 8eee f525 60d9 ada5 1b9c fe2e
00000170: d630 dca6 9441 5726 d3d6 3827 519d 9426
00000180: 4e83 2c26 4573 5428 faab 3ba9 0943 4ab1
00000190: 4d41 bd31 667d 09ad 0464 c929 36c3 0fa8
000001a0: dbf2 1ba9 f070 fa2a 58d1 8e29 029b 022a
000001b0: 8a90 532b 94ab ecad b12c 9fb0 311a a526
000001c0: 23f7 efa9 8c8b 2d29 bf04 e32e 31e7 b829
000001d0: 94fe b1a6 ae5e 4b2a 9e1d 29ac 25c6 4ca9
000001e0: 1c23 5aa9 c57e 39ab e722 0728 0d1a 0534
000001f0: 8f04 80b1 e31b e52b 34f7 2628 5155 0c28
00000200: ea5c dc29 0fc5 dd26 c78c 93a6 c9f8 c824
00000210: a672 d5b2 a6db 4a27 561f e9ab 130c 8d27
00000220: 019b 54a4 1a38 3928 70f5 8832 9ab3 82a6
00000230: 5f95 c033 0a26 74aa e9be 3728 aa7e a4b1
00000240: b953 61a7 5e29 cc28 a690 d527 c5a7 6028
00000250: 4159 bd2a 943d bf26 0930 b132 310f 1925
00000260: 092d bfa9 1e69 8827 841b 5a28 b381 0928
00000270: f101 d4b3 1605 0029 9461 afad ddd1 d4a6
00000280: 7aa2 91ad 91dc b7ae 7e60 a42b b945 97a9
00000290: 7867 57ab 106b b92c 8a97 0c30 dfb5 9eb0
000002a0: 83c7 062d 9fcc 282a 8783 9baa 37e4 3d28
000002b0: a7b7 47ab 7e2f b62a 3724 2d2b 55df 082f
000002c0: 61be eca7 70ca 162c 005b e833 f0a1 ffb1
000002d0: 6de1 43a8 f1c5 c92a 610b 3726 e0e8 5aa4
000002e0: 611e 892d 0206 e926 d6a9 2726 b2f6 37ab
000002f0: ea57 74b2 5792 ce24 0e4a 8da5 5457 bfa2
00000300: 818f cea5 f186 a425 b4c4 5726 e988 eea8
00000310: 471e 1931 d29d 8726 0b3a 19a8 ce15 03a5
00000320: f048 0fa8 51b3 78a9 3c17 cbb2 f083 cbaf
00000330: 2cfa 9ba5 e196 6827 1d83 0826 c72c 4cb2
00000340: 186a b127 7fd9 2025 7e36 81a6 e861 5123
00000350: 6d86 9629 6b1e fe26 ce42 3a33 f04f 75a7
00000360: 77e1 1734 860e cb27 40c7 aea8 69d6 7e33
00000370: 91c4 c1a4 a50f 5b2b f5df 7522 d70b 5ba0
00000380: 4307 88ac 7384 8426 9b8a 8022 a17e 0b31
00000390: 4691 3924 0acd 6e21 df8e 8aa1 fb9d d724
000003a0: 5e82 9da2 57b4 aea0 9959 9322 d00c 3531
000003b0: 9e8f 83b3 70fa 4123 b758 91a4 8aea 3030
000003c0: a2f8 4233 6936 1eab d283 fd27 ceb8 25a6
000003d0: d030 64a7 e796 de28 e8c3 0828 b225 7228
000003e0: 6364 c92a 822c fd26 4c11 82a7 3750 ceaf
000003f0: 9630 9b2d 54b3 8627 f5f9 1928 cd49 8f32

lstm.bias_ih_l0 f4 [80]
2.880917e-07 2.8559202e-06 7.393575e-10 2.0283645e-12 -5.6407606e-10 3.7587906e-09 4.2410608e-10 2.9049468e-10
7.690601e-08 3.502917e-11 3.0327546e-11 1.3190813e-13 5.15555e-10 1.8409353e-10 4.7777715e-10 1.4547728e-10
3.3991347e-14 1.466534e-09 3.6374058e-08 1.932356e-11 1.3705835e-07 1.9653912e-06 3.8535183e-10 1.3652896e-12
9.148519e-11 -4.3767933e-08 2.2898246e-10 9.114747e-10 3.356472e-08 2.145951e-11 8.061149e-11 1.3174521e-13
-1.284289e-07 9.838319e-11 -3.1861168e-07 2.735735e-10 5.040717e-14 1.4062643e-09 3.1221063e-08 2.3045192e-11
-0.0005329631 -0.0014139512 3.2016666e-05 -1.3178128e-06 -7.72381e-06 7.306471e-05 2.316254e-05 1.803548e-05
0.0001744612 4.7104095e-06 -4.8788133e-06 4.158791e-07 -1.9725207e-05 1.114286e-05 2.0010444e-05 2.031193e-05
-2.4538195e-07 5.7768397e-05 -0.00021358138 -3.166443e-06 1.7183957e-07 1.3803984e-06 6.547137e-10 9.614367e-10
6.143443e-11 5.4811693e-09 2.5685803e-10 3.060982e-10 4.2068347e-08 7.052688e-11 1.696647e-11 1.4852906e-08
4.0162682e-10 9.138221e-11 2.480705e-10 2.8934368e-09 -7.080207e-09 7.79717e-09 3.0599683e-08 -9.556656e-08
00000000: 06ab 9a34 56a8 3f36 a93b 4b30 c4bb 0e2c
00000010: 530d 1bb0 ac26 8131 a027 e92f 7eb3 9f2f
00000020: 8727 a533 570f 1a2e c861 052e ee83 142a
00000030: f5b6 0d30 b969 4a2f 9454 0330 37f4 1f2f
00000040: 5b15 1929 148f c930 b339 1c33 caf8 a92d
00000050: 502a 1334 2ae5 0336 73d9 d32f be25 c02b
00000060: 952d c92e 5afb 3bb3 d5c4 7b2f 548b 7a30
00000070: cd28 1033 85c2 bc2d 3c44 b12e f954 142a
00000080: 44e6 09b4 d058 d82e a80d abb4 0c66 962f
00000090: 8303 6329 8746 c130 ec17 0633 29b5 ca2d
000000a0: 8cb6 0bba 5454 b9ba a249 0638 b4df b0b5
000000b0: 8395 01b7 513a 9938 2d4d c237 e64a 9737
000000c0: 92ef 3639 1c0e 9e36 b0b4 a3b6 fd45 df34
000000d0: 8f77 a5b7 38f2 3a37 1adc a737 8a63 aa37
000000e0: 0abd 83b4 584c 7238 d1f4 5fb9 147f 54b6
000000f0: e782 3834 2146 b935 62f7 3330 8c23 8430
00000100: 8218 872e e054 bc31 8e35 8d2f 7e47 a82f
00000110: a3ae 3433 1b17 9b2e 183d 952d c52b 7f32
00000120: f3cb dc2f 9cf3 c82e d260 882f e1d5 4631
00000130: 2946 f3b1 51f4 0532 b56c 0333 463a cdb3

lstm.bias_hh_l0 f4 [80]
1.7919407e-07 1.5624122e-06 3.1108802e-10 2.1841892e-12 6.0879767e-11 -2.9578597e-08 1.9627207e-10 2.9875333e-10
5.0190643e-08 2.072151e-11 4.449932e-11 -1.5596527e-07 7.238479e-10 1.2640725e-10 2.3415034e-10 1.4003712e-10
4.0039583e-14 4.3887947e-09 3.457418e-08 1.2642887e-11 1.3314536e-07 1.4483971e-06 6.133852e-10 -1.7896662e-10
6.349199e-11 3.158112e-09 1.9501975e-10 4.3406836e-10 2.7949751e-08 2.1148116e-11 2.102027e-11 1.2633427e-13
2.793057e-10 9.097143e-11 2.4288627e-10 -1.332372e-08 3.227579e-14 -2.8736693e-07 3.0590428e-08 5.599592e-12
-0.00059685437 -0.0020099918 1.9105713e-05 -1.3566398e-06 -1.4054819e-05 8.8915105e-05 1.680975e-05 3.116089e-05
0.00031651152 4.8814973e-06 -5.249609e-06 3.1870792e-07 -2.1711141e-05 1.0498495e-05 1.8990508e-05 1.1233043e-05
-2.3318213e-07 4.459477e-05 -0.00032057715 -6.137019e-06 1.7655901e-07 1.3972385e-06 3.9585446e-10 1.7793431e-12
1.000895e-10 3.08855e-09 1.9367406e-10 2.784905e-10 2.7699423e-08 1.9300037e-11 1.8096679e-11 1.3169011e-13
8.5449947e-10 2.1109788e-10 2.4620256e-10 1.7212433e-10 8.38467e-14 1.470276e-09 3.0385753e-08 5.5308102e-11
00000000: 7e68 4034 13b4 d135 bf05 ab2f dbb2 192c
00000010: 43e0 852e 0614 feb2 adcd 572f cb3d a42f
00000020: 3291 5733 b144 b62d c8b5 432e 6877 27b4
00000030: 45f8 4630 7afc 0a2f bbb9 802f f2f8 192f
00000040: 7f52 3429 3fcc 9631 b77e 1433 806a 5e2d
00000050: b8f6 0e34 8c66 c235 259b 2830 a0c6 44af
00000060: d09e 8b2e 1806 5931 2e6d 562f b1a1 ee2f
00000070: 2716 f032 5305 ba2d 71e5 b82d 603d 0e2a
00000080: c88c 992f 5d0c c82e 3487 852f 57e6 64b2
00000090: 745b 1129 6947 9ab4 8862 0333 a404 c52c
000000a0: 3876 1cba 11ba 03bb 3545 a037 ca15 b6b5
000000b0: fdcc 6bb7 ef77 ba38 aa02 8d37 c0b2 0238
000000c0: 75f1 a539 becb a336 cc25 b0b6 e21a ab34
000000d0: 5220 b6b7 b122 3037 ce4d 9f37 8d75 3c37
000000e0: 9e60 7ab4 450b 3b38 2313 a8b9 98ec cdb6
000000f0: 2c94 3d34 c088 bb35 909f d92f 976b fa2b
00000100: 6119 dc2e 593e 5431 67f2 542f 0e1a 992f
00000110: adef ed32 d2c3 a92d 192e 9f2d 1745 142a
00000120: 0ee2 6a30 c51a 682f ee59 872f b140 3d2f
00000130: 55ce bc29 bd12 ca30 7d81 0233 633f 732e

lstm.weight_ih_l1 f4 [80, 20]
-3.700656e-05 -0.00012636278 1.8345933e-06 -1.564455e-07 -6.3975136e-07 5.688756e-06 1.1613524e-06 2.2046997e-06
2.8230997e-05 6.88507e-07 -4.968438e-07 2.0158819e-08 -1.3437322e-06 8.926198e-07 2.7071605e-06 1.3432981e-06
-1.6315266e-08 3.1670625e-06 -1.7083916e-05 -3.5897148e-07 -3.589026e-05 -8.380458e-05 1.3850149e-06 -1.14661965e-07
-6.2922055e-07 4.192499e-06 2.4778565e-06 1.3330211e-06 2.05529e-05 2.4135707e-07 -2.5638394e-07 1.749285e-08
-1.8731394e-06 7.6651395e-07 9.942686e-07 1.2121508e-06 -1.2075116e-08 2.9132234e-06 -2.0129517e-05 -4.597274e-07
-3.1988096e-05 -0.00011312731 1.6554527e-06 -7.7255805e-08 -1.1524469e-06 4.6883515e-06 1.2074086e-06 1.8531932e-06
1.5332169e-05 3.7004986e-07 -8.7708617e-07 1.9652362e-08 -1.6683173e-06 6.210318e-07 3.7328919e-06 8.949229e-07
-1.4968778e-08 7.5873177e-06 -2.0790678e-05 -2.7625305e-07 -3.402849e-05 -9.066623e-05 2.3829211e-06 -3.8843632e-07
-8.397297e-07 5.6379804e-06 1.7364088e-06 2.3534376e-06 1.3464617e-05 2.774219e-07 -3.9543377e-07 1.1534062e-08
-1.1515672e-06 6.046979e-07 1.2751588e-06 1.0520296e-06 -2.019624e-08 3.41637e-06 -1.756961e-05 -4.049369e-07
-3.2365817e-05 -0.000103822604 1.7095417e-06 -7.734344e-08 -6.264933e-07 4.8645534e-06 1.4804231e-06 1.6233181e-06
2.4348801e-05 2.902315e-07 -3.1420547e-07 1.9307226e-08 -1.2709643e-06 6.2108074e-07 2.333149e-06 1.1766625e-06
-2.676602e-08 3.1236375e-06 -2.319601e-05 -3.2368536e-07 -3.1915813e-05 -0.00010497068 1.6464174e-06 -9.0296794e-08
-1.4156063e-06 4.8214897e-06 1.2049417e-06 1.6543056e-06 2.0835902e-05 5.1418886e-07 -3.370848e-07 1.9701178e-08
-1.3612516e-06 1.6776661e-06 1.3137114e-06 1.0064045e-06 -1.3831788e-08 2.9772937e-06 -1.6942586e-05 -2.9367067e-07
-3.293041e-05 -0.00014573951 1.6822531e-06 -7.980372e-08 -7.130163e-07 9.990459e-06 1.7749005e-06 1.4382748e-06
1.4897521e-05 2.978781e-07 -5.1391737e-07 1.934167e-08 -1.5785748e-06 6.292217e-07 2.9864186e-06 9.3993293e-07
-1.3836467e-08 3.5226494e-06 -1.536318e-05 -2.9774827e-07 -3.374614e-05 -0.00015947854 1.9947895e-06 -1.3511417e-06
-6.550279e-07 7.2232137e-06 1.9281936e-06 1.7066155e-06 1.6745238e-05 4.788839e-07 -3.1282173e-07 2.0282e-08
-2.2124477e-06 6.31527e-07 4.621273e-06 9.219006e-07 -1.659166e-08 3.0517865e-06 -1.5594587e-05 -2.744363e-07
-3.6023637e-05 -9.645969e-05 2.5718784e-06 -9.71435e-08 -1.1820817e-06 5.634079e-06 1.2845027e-06 1.543762e-06
1.4367945e-05 2.7377305e-07 -7.44493e-07 1.17775e-08 -2.9797964e-06 8.6947443e-07 1.600426e-06 1.0109895e-06
-2.0209576e-08 6.0259263e-06 -1.5089499e-05 -5.5755737e-07 -5.2898875e-05 -0.00010176947 1.5661049e-06 -1.5195356e-07
-6.1466216e-07 4.725508e-06 1.1403114e-06 2.188394e-06 1.4250565e-05 3.0102584e-07 -2.9866814e-07 1.8540211e-08
-1.2223692e-06 7.2338213e-07 1.1546834e-06 8.924102e-07 -1.5852425e-08 2.9601222e-06 -1.5194315e-05 -5.791546e-07
-3.429699e-05 -9.7720855e-05 2.3993075e-06 -1.0842993e-07 -5.979424e-07 8.524395e-06 2.8923032e-06 1.4755439e-06
1.8252304e-05 2.8861743e-07 -2.8898117e-07 1.947539e-08 -1.213932e-06 1.0072941e-06 2.8825698e-06 8.733316e-07
-2.3202604e-08 8.2456734e-07 -1.5257667e-05 -8.563735e-07 -3.380361e-05 -0.00010119224 1.662731e-06 -1.4206341e-07
-8.5340616e-07 6.0040406e-06 1.5810795e-06 1.9652894e-06 1.4674534e-05 4.1226374e-07 -3.7724487e-07 1.9586663e-08
-1.6585863e-06 8.9191434e-07 2.2346624e-06 8.848798e-07 -2.1859446e-08 3.5752128e-06 -1.5957523e-05 -2.6966208e-07
-3.9042054e-05 -0.00010870678 3.1790346e-06 -1.2064248e-07 -1.0596801e-06 5.9860886e-06 2.1002604e-06 1.6393847e-06
1.4619417e-05 6.5503e-07 -1.0027692e-06 1.9810527e-08 -1.6166259e-06 6.398398e-07 1.6808445e-06 1.1215208e-06
00000000: 7e37 1bb8 4080 04b9 253c f635 69fb 27b4
00000010: 61bb 2bb5 0be2 be36 c4df 9b35 74f4 1336
00000020: 9bd1 ec37 d7d1 3835 d95e 05b5 b629 ad32
00000030: 495a b4b5 5e9c 6f35 aaac 3536 5f4b b435
00000040: a625 8cb2 b889 5436 6e4f 8fb7 aab8 c0b4
00000050: e088 16b8 3ec0 afb8 c0e4 b935 153c f6b3
00000060: b5e7 28b5 4bad 8c36 4049 2636 42ea b235
00000070: 0469 ac37 dd93 8134 24a5 89b4 2f43 9632
00000080: 9468 fbb5 70c2 4d35 cf72 8535 2fb1 a235
00000090: ec72 4fb2 cc80 4336 cfdb a8b7 74d0 f6b4
000000a0: f52a 06b8 c33e edb8 ec30 de35 d4e7 a5b3
000000b0: c6ad 9ab5 a250 9d36 3e0e a235 3cbb f835
000000c0: 959d 8037 44ab c634 e770 6bb5 00d0 a832
000000d0: f2ea dfb5 fbb4 2635 9882 7a36 a23a 7035
000000e0: b194 80b2 9096 fe36 a467 aeb7 ee4f 94b4
000000f0: d0b9 0eb8 1024 beb8 46ea 1f36 488a d0b4
00000100: c969 61b5 e22d bd36 8d0e e935 c0ef 1d36
00000110: 17e6 6137 93f0 9434 014c d4b4 5727 4632
00000120: 8c8f 9ab5 8652 2235 1f26 ab35 7633 8d35
00000130: 007c adb2 ca44 6536 7362 93b7 1b66 d9b4
00000140: 88c0 07b8 56bb d9b8 6873 e535 0118 a6b3
00000150: 4b2c 28b5 323a a336 f3b2 c635 c9e0 d935
00000160: a740 cc37 1dd1 9b34 12b0 a8b4 0ad9 a532
00000170: 0096 aab5 58b8 2635 3293 1c36 d1ed 9d35
00000180: 1aeb e5b2 af9f 5136 0d95 c2b7 fac6 adb4
00000190: 58dd 05b8 b423 dcb8 79fa dc35 30e9 c1b3
000001a0: ddff bdb5 48c8 a136 7bb9 a135 8209 de35
000001b0: c2c8 ae37 ca06 0a35 95f8 b4b4 593b a932
000001c0: 40b4 b6b5 2b2c e135 c852 b035 cc13 8735
000001d0: d9a0 6db2 84cd 4736 ed1f 8eb7 caa9 9db4
000001e0: c21e 0ab8 a7d1 18b9 c7c9 e135 8f60 abb3
000001f0: 1b66 3fb5 b29c 2737 1e39 ee35 bf0a c135
00000200: 5ef0 7937 0eec 9f34 22f4 09b5 c824 a632
00000210: 6bdf d3b5 c9e7 2835 486a 4836 b34f 7c35
00000220: 6db5 6db2 a866 6c36 2ee0 80b7 36da 9fb4
00000230: a48a 0db8 b239 27b9 39de 0536 e058 b5b5
00000240: 2dd5 2fb5 ef5e f236 1d66 0136 dd0e e535
00000250: 2078 8c37 a78c 0035 e4f1 a7b4 9738 ae32
00000260: 9079 14b6 3486 2935 6f10 9b36 8778 7735
00000270: 7285 8eb2 4bcd 4c36 1fd1 82b7 3d56 93b4
00000280: 1618 17b8 674a cab8 8998 2c36 349d d0b3
00000290: 05a8 9eb5 5f0c bd36 2d67 ac35 4233 cf35
000002a0: db0d 7137 15fb 9234 2bd9 47b5 fe55 4a32
000002b0: 83f8 47b6 d465 6935 38ce d635 56b1 8735
000002c0: 5499 adb2 5032 ca36 e828 7db7 0dab 15b5
000002d0: bcdf 5db8 116d d5b8 f432 d235 ad28 23b4
000002e0: 43ff 24b5 ce8f 9e36 cd0c 9935 53dc 1236
000002f0: b615 6f37 ad9c a134 a358 a0b4 5b42 9f32
00000300: 4910 a4b5 712e 4235 9ffa 9a35 f68d 6f35
00000310: da2b 88b2 83a6 4636 16eb 7eb7 3377 1bb5
00000320: 1dda 0fb8 7cef ccb8 ca03 2136 fcd9 e8b3
00000330: 4a82 20b5 ff03 0f37 6419 4236 4d0b c635
00000340: 861c 9937 47f3 9a34 4525 9bb4 d64a a732
00000350: 63ee a2b5 5d32 8735 2c72 4136 e46e 6a35
00000360: 114f c7b2 d657 5d35 2efb 7fb7 8ae1 65b5
00000370: 5ac8 0db8 2c37 d4b8 012b df35 188a 18b4
00000380: a015 65b5 5176 c936 7a35 d435 6ae3 0336
00000390: a532 7637 1955 dd34 2488 cab4 873f a832
000003a0: 979c deb5 e36b 6f35 35f7 1536 7a88 6d35
000003b0: 6ec5 bbb2 b0ed 6f36 85dc 85b7 13c6 90b4
000003c0: 16c1 23b8 82f9 e3b8 6657 5536 f489 01b4
000003d0: 553a 8eb5 1cdc c836 33f2 0c36 d408 dc35
000003e0: eb45 7537 52d5 2f35 e396 86b5 cf2b aa32
000003f0: d8fa d8b5 75c1 2b35 6199 e135 2987 9635

lstm.weight_hh_l1 f4 [80, 20]
-0.023429599 0.020638788 -0.023378761 0.022936204 -0.022781335 0.02333126 0.023626838 0.024056485
0.02326912 0.023208814 0.022640226 -0.02307762 0.023405705 0.023720317 -0.02358344 0.022869626
-0.022718377 -0.022893 -0.022409162 0.022590335 -0.021092383 0.017604148 -0.02056579 0.019273631
-0.019780876 0.020206241 0.020427557 0.020744734 0.020388376 0.019960888 0.020276114 -0.02008076
0.020231305 0.02082883 -0.02039206 0.020691838 -0.019684346 -0.020114223 -0.019098492 0.019721592
-0.023441572 0.020342702 -0.023344772 0.022550182 -0.02276185 0.023215402 0.023736067 0.023889298
0.023283027 0.0231581 0.022570807 -0.023137279 0.02332615 0.023705442 -0.023479695 0.022810576
-0.022715174 -0.022878334 -0.022323428 0.022204766 -0.02254804 0.019967655 -0.022463117 0.02222605
-0.021935321 0.0225493 0.02278756 0.023104325 0.022409633 0.022343878 0.02179072 -0.022200827
0.022654604 0.023127977 -0.022884611 0.022009576 -0.022257091 -0.02217939 -0.02161831 0.022075763
-0.022739286 0.020866882 -0.022648765 0.021849768 -0.022077369 0.022996932 0.022964153 0.023605436
0.022520652 0.022614354 0.022434477 -0.022363212 0.022724016 0.023071706 -0.022894032 0.022218201
-0.02239341 -0.022208821 -0.021542346 0.021752654 -0.023447571 0.020276861 -0.023396611 0.022800274
-0.022939185 0.02312133 0.02349993 0.023851788 0.023050115 0.023049394 0.022809647 -0.022936525
0.023257094 0.02363347 -0.023430787 0.022926606 -0.022571832 -0.022934124 -0.022305638 0.022179948
-0.02369766 0.020502796 -0.023558062 0.022902278 -0.023010887 0.023490751 0.023867307 0.02418267
0.023430211 0.023462445 0.02287162 -0.023463402 0.023631373 0.023944972 -0.02383828 0.023098728
-0.023017788 -0.0231789 -0.022509605 0.022697736 -0.024046473 0.021097042 -0.023926279 0.023325866
-0.023340242 0.023936443 0.0244416 0.02485209 0.023790816 0.024011085 0.023655266 -0.023706218
0.023991 0.024319306 -0.024160216 0.023443878 -0.02333485 -0.02348189 -0.022813546 0.02290749
-0.023191871 0.02058481 -0.023277259 0.02232603 -0.022542246 0.023037644 0.023435544 0.023721328
0.023029428 0.022963827 0.022447016 -0.022865813 0.023185778 0.023498572 -0.023455892 0.022929354
-0.022494065 -0.022666285 -0.022003753 0.022384776 -0.023221875 0.020309884 -0.023156244 0.022390826
-0.022963326 0.023125038 0.023504212 0.023785159 0.02300859 0.023048164 0.022472275 -0.022884233
0.023231559 0.023579521 -0.023552801 0.022791494 -0.022766378 -0.022733416 -0.022538243 0.022153277
-0.023066355 0.01977681 -0.023044514 0.021666905 -0.022001568 0.022970801 0.023128679 0.023138475
0.022451214 0.022918526 0.02179806 -0.022217542 0.022637006 0.023300026 -0.022757215 0.02212391
-0.021888293 -0.022543617 -0.022299455 0.021556247 -0.02325064 0.02016743 -0.02325266 0.02219564
-0.022391487 0.02295246 0.023243375 0.023568856 0.022844985 0.022952668 0.022769699 -0.022805348
0.023088869 0.02337171 -0.023420313 0.022920521 -0.022375768 -0.0228093 -0.022505296 0.021966934
-0.023575174 0.020757396 -0.023554144 0.022740016 -0.022806397 0.02331355 0.023701206 0.02401653
0.023447124 0.023359366 0.022675756 -0.023116453 0.023477053 0.02378525 -0.023640988 0.022930149
00000000: 6eef bfbc ad12 a93c d184 bfbc b5e4 bb3c
00000010: ec9f babc 3321 bf3c 128d c13c 1b12 c53c
00000020: e29e be3c 6920 be3c ff77 b93c 470d bdbc
00000030: 52bd bf3c 1c51 c23c 0f32 c1bc 1559 bb3c
00000040: e41b babc 1a8a bbbc 6b93 b7bc 5e0f b93c
00000050: efc9 acbc 9336 903c 9679 a8bc bce3 9d3c
00000060: 810b a2bc 8f87 a53c b157 a73c dcf0 a93c
00000070: 8605 a73c 0485 a33c 181a a63c 6880 a4bc
00000080: 1fbc a53c 39a1 aa3c 400d a7bc ee81 a93c
00000090: 1141 a1bc 95c6 a4bc 7174 9cbc 2d8f a13c
000000a0: 8a08 c0bc bda5 a63c 893d bfbc 29bb b83c
000000b0: 0f77 babc 3a2e be3c 2472 c23c 7db3 c33c
000000c0: 0cbc be3c 0eb6 bd3c 6ae6 b83c 648a bdbc
000000d0: 7b16 bf3c ea31 c23c 7d58 c0bc 3fdd ba3c
000000e0: 2c15 babc 586b bbbc 9fdf b6bc c5e6 b53c
000000f0: abb6 b8bc 3593 a33c 9204 b8bc 6813 b63c
00000100: b4b1 b3bc 4fb9 b83c faac ba3c 4845 bd3c
00000110: 6894 b73c 820a b73c 7482 b23c 82de b5bc
00000120: 2696 b93c e276 bd3c 8278 bbbc 6d4d b43c
00000130: 8154 b6bc 8db1 b5bc e218 b1bc 3bd8 b43c
00000140: bd47 babc 06f1 aa3c e789 b9bc 49fe b23c
00000150: 99db b4bc 1064 bc3c 521f bc3c 3060 c13c
00000160: 3b7d b83c bd41 b93c 82c8 b73c 0e33 b7bc
00000170: b727 ba3c e000 bd3c 448c bbbc f202 b63c
00000180: 6272 b7bc 46ef b5bc 9379 b0bc 9f32 b23c
00000190: 1f15 c0bc a91b a63c 40aa bfbc a4c7 ba3c
000001a0: f5ea bbbc f268 bd3c ed82 c03c d364 c33c
000001b0: 98d3 bc3c 15d2 bc3c 4cdb ba3c 61e5 bbbc
000001c0: a985 be3c fb9a c13c ecf1 bfbc 94d0 bb3c
000001d0: 90e8 b8bc 58e0 bbbc 50ba b6bc b9b2 b53c
000001e0: 9821 c2bc 7bf5 a73c d6fc c0bc 8f9d bb3c
000001f0: 5481 bcbc ad6f c03c 5f85 c33c bc1a c63c
00000200: b7f0 bf3c 5034 c03c 435d bb3c 5236 c0bc
00000210: 9596 c13c 3f28 c43c 7f48 c3bc 8b39 bd3c
00000220: cd8f bcbc ade1 bdbc 1066 b8bc 9af0 b93c
00000230: 1cfd c4bc b4d3 ac3c 0b01 c4bc e315 bf3c
00000240: 0934 bfbc 5c16 c43c c039 c83c 9c96 cb3c
00000250: f5e4 c23c e5b2 c43c b0c8 c13c 8b33 c2bc
00000260: c688 c43c 4839 c73c a5eb c5bc 600d c03c
00000270: ba28 bfbc 185d c0bc 79e3 babc 7da8 bb3c
00000280: e1fc bdbc 7aa1 a83c f3af bebc 14e5 b63c
00000290: 84aa b8bc 71b9 bc3c e6fb bf3c 3b53 c23c
000002a0: 36a8 bc3c a31e bc3c cee2 b73c 1651 bbbc
000002b0: 1af0 bd3c 1480 c03c 9226 c0bc 57d6 bb3c
000002c0: 7945 b8bc a5ae b9bc 3741 b4bc 4760 b73c
000002d0: cd3b bebc ea60 a63c 2ab2 bdbc f76c b73c
000002e0: 961d bcbc b870 bd3c e88b c03c 18d9 c23c
000002f0: 837c bc3c 81cf bc3c c717 b83c b777 bbbc
00000300: 1c50 be3c d729 c13c cef1 c0bc 3ab5 ba3c
00000310: 8e80 babc 6e3b babc 1fa2 b8bc ca7a b53c
00000320: a7f5 bcbc fa02 a23c d9c7 bcbc cb7e b13c
00000330: a23c b4bc 432d bc3c 5b78 bd3c e68c bd3c
00000340: 9ceb b73c a2bf bb3c d891 b23c 9001 b6bc
00000350: 3e71 b93c b2df be3c 576d babc 343d b53c
00000360: 144f b3bc 64ad b8bc 59ad b6bc ba96 b03c
00000370: 2078 bebc 2b36 a53c 5d7c bebc a1d3 b53c
00000380: 5a6e b7bc cc06 bc3c e468 be3c 7913 c13c
00000390: 6825 bb3c 3c07 bc3c 8587 ba3c 48d2 babc
000003a0: de24 bd3c 0776 bf3c f5db bfbc d1c3 bb3c
000003b0: 634d b7bc 92da babc 075d b8bc 00f4 b33c
000003c0: b920 c1bc 6a0b aa3c 9ff4 c0bc 4549 ba3c
000003d0: 7bd4 babc 0ffc be3c 0829 c23c 50be c43c
000003e0: 2f14 c03c 245c bf3c 82c2 b93c b75e bdbc
000003f0: f352 c03c 49d9 c23c bfaa c1bc 02d8 bb3c

lstm.bias_ih_l1 f4 [80]
0.053143006 0.04538911 0.052955754 0.051059406 0.05134907 0.052721683 0.053747963 0.054584205
0.05252288 0.052648045 0.051637873 0.052184094 0.053135652 0.053964328 0.053473208 0.05204206
0.05119973 0.05203772 0.050170835 0.050596714 0.07609682 0.059954945 0.07600941 0.07176367
0.07253556 0.07534168 0.07746575 0.0795642 0.07493183 0.07530117 0.0724734 0.074233495
0.076218955 0.079127766 0.07706916 0.07334277 0.07202261 0.073332615 0.069845 0.07096759
-0.12647678 0.1083914 -0.12494994 0.11114894 -0.12303962 0.12512311 0.12692375 0.12625393
0.12550603 0.110092156 0.123384826 -0.12435664 0.1250671 0.12569696 -0.12656876 0.123598166
-0.12322724 -0.124153376 -0.12266233 0.11490111 0.080517046 0.062277082 0.07982912 0.074836306
0.0758704 0.07879849 0.08271283 0.08477217 0.07836781 0.07905738 0.07491165 0.07762013
0.079835035 0.0829104 0.0816999 0.0765529 0.075659275 0.076648965 0.0731095 0.072969474
00000000: 7bac 593d eee9 393d 22e8 583d ab23 513d
00000010: 6753 523d b1f2 573d d326 5c3d b093 5f3d
00000020: 3b22 573d 7aa5 573d 3c82 533d fdbe 553d
00000030: c5a4 593d b309 5d3d b906 5b3d 0e2a 553d
00000040: cfb6 513d 8125 553d ef7f 4d3d 803e 4f3d
00000050: a6d8 9b3d 5193 753d d2aa 9b3d d5f8 923d
00000060: 868d 943d bd4c 9a3d 5da6 9e3d 8ef2 a23d
00000070: dc75 993d 8037 9a3d ef6c 943d bb07 983d
00000080: af18 9c3d bd0d a23d 70d6 9d3d bc34 963d
00000090: 9780 933d 692f 963d e50a 8f3d 7557 913d
000000a0: 2183 01be 4ffc dd3d c1e5 ffbd 0ea2 e33d
000000b0: 32fc fbbd 4620 003e 4df8 013e b648 013e
000000c0: a784 003e ff77 e13d 2fb1 fc3d b2ae febd
000000d0: 9711 003e b4b6 003e 3e9b 01be 0921 fd3d
000000e0: 905e fcbd 2044 febd 6336 fbbd 4651 eb3d
000000f0: 1fe6 a43d 4116 7f3d 737d a33d c743 993d
00000100: f161 9b3d 1a61 a13d 5865 a93d 089d ad3d
00000110: 4d7f a03d d6e8 a13d 476b 993d 4df7 9e3d
00000120: 8d80 a33d eecc a93d 4752 a73d c4c7 9c3d
00000130: 40f3 9a3d 22fa 9c3d 6fba 953d 0571 953d

lstm.bias_hh_l1 f4 [80]
0.053110037 0.04597823 0.05299642 0.050935265 0.0518688 0.052745506 0.053835187 0.054630645
0.05258463 0.052902468 0.051152535 0.05216553 0.053135805 0.05398949 0.05356219 0.051678047
0.0511656 0.051714845 0.050408147 0.050225068 0.0760906 0.060012177 0.0760028 0.071904026
0.072982244 0.07593787 0.07760897 0.079400465 0.07511029 0.075277366 0.07209884 0.074248575
0.076205626 0.07804688 0.07773125 0.073214896 0.072332665 0.07357168 0.069976926 0.07097307
-0.1247236 0.11202337 -0.12497408 0.12509057 -0.123664066 0.12365957 0.124711186 0.12929384
0.12259527 0.13162759 0.12344569 -0.124112286 0.12562658 0.1283532 -0.12644452 0.12425463
-0.122890666 -0.12282265 -0.12174924 0.123168856 0.07970815 0.06417229 0.07920513 0.0750211
0.07616572 0.07972496 0.08127243 0.08355412 0.078567155 0.07887892 0.0755622 0.077556536
0.079898745 0.08184988 0.081673674 0.076557234 0.07564097 0.07664261 0.07349049 0.07356503
00000000: e989 593d ab53 3c3d c612 593d 7fa1 503d
00000010: 6174 543d ac0b 583d 4982 5c3d 62c4 5f3d
00000020: fb62 573d 42b0 583d 5285 513d 86ab 553d
00000030: eea4 593d 1524 5d3d 0764 5b3d 5cac 533d
00000040: 0593 513d f2d2 533d c678 4e3d cdb8 4d3d
00000050: 63d5 9b3d 54cf 753d 5ba7 9b3d 6b42 933d
00000060: b777 953d 5085 9b3d 74f1 9e3d b69c a23d
00000070: 6cd3 993d 052b 9a3d 8ea8 933d a30f 983d
00000080: b211 9c3d 0bd7 9f3d 9031 9f3d b1f1 953d
00000090: 2623 943d c0ac 963d 1050 8f3d 545a 913d
000000a0: 166f ffbd 826c e53d 69f2 ffbd be17 003e
000000b0: 9643 fdbd 3b41 fd3d 9468 ff3d 9b65 043e
000000c0: 3b13 fb3d 62c9 063e 18d1 fc3d 952e febd
000000d0: 41a4 003e 056f 033e ac7a 01be 3679 fe3d
000000e0: 1aae fbbd 718a fbbd aa57 f9bd f43f fc3d
000000f0: 073e a33d c36c 833d 4d36 a23d aaa4 993d
00000100: c6fc 9b3d d746 a33d 2972 a63d 6c1e ab3d
00000110: d1e7 a03d 458b a13d 5bc0 9a3d f6d5 9e3d
00000120: f4a1 a33d e9a0 a73d 8744 a73d 0aca 9c3d
00000130: a7e9 9a3d cdf6 9c3d 2f82 963d 43a9 963d

fc.weight f4 [30, 20]
-0.05301535 0.046461917 -0.05278552 0.05117058 -0.051600363 0.05269324 0.053500604 0.054461632
0.05254746 0.05254297 0.051450867 -0.052240197 0.053037174 0.053767458 -0.05340222 0.051805228
-0.050303623 -0.0517188 -0.05018845 0.05072771 -0.05406539 0.047397256 -0.05368753 0.051945575
-0.052511603 0.053544324 0.054608896 0.055678997 0.05349728 0.053411864 0.05211371 -0.053030312
0.054098994 0.055051677 -0.054327585 0.052562248 -0.052213147 -0.05277568 -0.05158015 0.051161245
-0.053155188 0.046915535 -0.05294881 0.051141247 -0.051576108 0.052909087 0.053626925 0.05452578
0.052709967 0.05268638 0.05154994 -0.052323036 0.053136963 0.053879023 -0.053504374 0.05177949
-0.051672235 -0.052167572 -0.05093656 0.050980765 -0.058704074 0.048835684 -0.05771279 0.055575736
-0.056104798 0.05750288 0.058614783 0.06109792 0.05735272 0.05724953 0.055818237 -0.05678549
0.05872415 0.05912518 -0.05836984 0.056441512 -0.056036107 -0.056427166 -0.05514532 0.055060703
-0.053194758 0.045742013 -0.053056043 0.051310483 -0.05170339 0.053034768 0.05378075 0.054527342
0.052755132 0.052701417 0.05170716 -0.05242586 0.05316569 0.05401108 -0.05371749 0.05201588
-0.051723145 -0.052276973 -0.050242376 0.051138926 -0.052987285 0.04467206 -0.052604858 0.0509917
-0.051571988 0.052698392 0.05341177 0.054210138 0.052534726 0.05252428 0.05134217 -0.052277874
0.052865542 0.0535165 -0.053270996 0.051842757 -0.050791036 -0.051738776 -0.05072623 0.050788786
-0.057857018 0.0490563 -0.05701008 0.055034343 -0.05556258 0.057124384 0.058410317 0.060075935
0.05659428 0.05666662 0.055211958 -0.056195125 0.05812878 0.05856945 -0.057786178 0.05581881
-0.055453613 -0.055851612 -0.054174475 0.054509856 -0.053711068 0.045078028 -0.05366111 0.05156284
-0.052091952 0.053570643 0.054739583 0.054601185 0.053138614 0.053235848 0.051912263 -0.052788083
0.05403771 0.054592386 -0.054384053 0.052375074 -0.051743325 -0.05238923 -0.051002275 0.051157627
-0.056669295 0.048780408 -0.056500707 0.05445197 -0.054963138 0.05624312 0.058422238 0.05887392
0.056125388 0.057039253 0.05466722 -0.055658106 0.05783425 0.057850476 -0.05767124 0.055171713
-0.055029307 -0.055241335 -0.05347938 0.05391521 -0.05332609 0.046947762 -0.053143915 0.051237483
-0.051941466 0.05301423 0.053859495 0.05464182 0.052814152 0.052860238 0.051633287 -0.05254035
0.053335026 0.054062467 -0.05372847 0.052003525 -0.051740408 -0.052175246 -0.050529197 0.050454713
-0.05755256 0.050402734 -0.05746612 0.05540785 -0.05595593 0.057325695 0.05842231 0.059542015
0.057051696 0.057134595 0.055660345 -0.056605224 0.058948085 0.058732357 -0.058167785 0.05634935
-0.055929124 -0.05625019 -0.054786757 0.054919105 -0.052963473 0.04667848 -0.052686952 0.05113611
-0.051688213 0.05265566 0.053388976 0.054214876 0.052451275 0.052480422 0.051461242 -0.05191225
0.05283344 0.053376198 -0.053326998 0.05166415 -0.05115571 -0.05178054 -0.050010644 0.050697803
-0.059606742 0.050911695 -0.05944447 0.05622594 -0.05672366 0.05834708 0.06101316 0.062132593
0.05796516 0.058822073 0.05649166 -0.05815992 0.05807313 0.060310006 -0.060203258 0.05696359
00000000: a026 59bd da4e 3e3d a135 58bd 3e98 513d
00000010: e75a 53bd ded4 573d 7323 5b3d 2913 5f3d
00000020: 013c 573d 4c37 573d 25be 523d d1f9 55bd
00000030: 823d 593d 443b 5c3d 49bc 5abd b831 543d
00000040: 2c0b 4ebd 18d7 53bd 6792 4dbd dcc7 4f3d
00000050: ac73 5dbd a023 423d 75e7 5bbd e2c4 543d
00000060: 6816 57bd 4b51 5b3d 94ad 5f3d a90f 643d
00000070: f71f 5b3d 66c6 5a3d 3075 553d 5036 59bd
00000080: e896 5d3d de7d 613d 9a86 5ebd 834b 573d
00000090: 74dd 55bd 502b 58bd b545 53bd 748e 513d
000000a0: 41b9 59bd 812a 403d dae0 58bd 7c79 513d
000000b0: 7841 53bd 33b7 583d e8a7 5b3d 6d56 5f3d
000000c0: 68e6 573d accd 573d 0826 533d ae50 56bd
000000d0: 25a6 593d 40b0 5c3d 6727 5bbd bb16 543d
000000e0: 44a6 53bd aaad 55bd dba2 50bd 35d1 503d
000000f0: af73 70bd ed07 483d 3f64 6cbd 62a3 633d
00000100: 25ce 65bd 2488 6b3d 0e16 703d d041 7a3d
00000110: b0ea 6a3d 7c7e 6a3d aaa1 643d e797 68bd
00000120: bc88 703d 3f2d 723d 3715 6fbd 372f 673d
00000130: 1e86 65bd 2c20 67bd 0fe0 61bd 5587 613d
00000140: bfe2 59bd fa5b 3b3d 4b51 59bd f12a 523d
00000150: efc6 53bd fc3a 593d 3449 5c3d 1058 5f3d
00000160: c415 583d 71dd 573d e3ca 533d 80bc 56bd
00000170: 44c4 593d b93a 5d3d df06 5cbd 9a0e 553d
00000180: a6db 53bd 6120 56bd f3ca 4dbd 0d77 513d
00000190: 3209 59bd 0dfa 363d 3178 57bd acdc 503d
000001a0: 263d 53bd 45da 573d 4dc6 5a3d 730b 5e3d
000001b0: a72e 573d b323 573d 2b4c 523d 5321 56bd
000001c0: 8a89 583d 1e34 5b3d b032 5abd 1259 543d
000001d0: 430a 50bd 0aec 53bd 4fc6 4fbd e707 503d
000001e0: 7bfb 6cbd 42ef 483d 6783 69bd b16b 613d
000001f0: 9695 63bd 42fb 693d a83f 6f3d 2f12 763d
00000200: 67cf 673d 421b 683d ef25 623d dc2c 66bd
00000210: 7218 6e3d 85e6 6f3d 33b1 6cbd 44a2 643d
00000220: 5423 63bd a9c4 64bd 0ee6 5dbd ba45 5f3d
00000230: 2300 5cbd bda3 383d c1cb 5bbd 8e33 533d
00000240: 5f5e 55bd e46c 5b3d 9d36 603d 7ea5 5f3d
00000250: e0a7 593d d50d 5a3d f4a1 543d 5138 58bd
00000260: a556 5d3d 449c 5f3d d0c1 5ebd 3f87 563d
00000270: cff0 53bd 1796 56bd c3e7 50bd a98a 513d
00000280: 101e 68bd f7cd 473d 496d 67bd 0709 5f3d
00000290: 0721 61bd 305f 663d 284c 6f3d c825 713d
000002a0: bce3 653d fea1 693d bcea 5f3d c1f9 63bd
000002b0: 9be3 6c3d 9ff4 6c3d ae38 6cbd bcfb 613d
000002c0: 6966 61bd bd44 62bd 320d 5bbd 32d6 5c3d
000002d0: 756c 5abd 4c4c 403d 6fad 59bd 65de 513d
000002e0: 93c0 54bd 7325 593d c69b 5c3d 1ad0 5f3d
000002f0: a753 583d fa83 583d 6d7d 533d 8d34 57bd
00000300: d475 5a3d 9b70 5d3d 6212 5cbd a601 553d
00000310: c0ed 53bd b6b5 55bd b4f7 4ebd 9aa9 4e3d
00000320: 3cbc 6bbd 1973 4e3d 9861 6bbd 57f3 623d
00000330: 0c32 65bd 59ce 6a3d 3b4c 6f3d 54e2 733d
00000340: 0aaf 693d f705 6a3d 1afc 633d e1da 67bd
00000350: 8c73 713d 5791 703d 5841 6ebd 93ce 663d
00000360: f015 65bd 9966 66bd 1468 60bd dbf2 603d
00000370: 3af0 58bd ef31 3f3d 46ce 57bd 1974 513d
00000380: 05b7 53bd 76ad 573d 66ae 5a3d 6b10 5e3d
00000390: 26d7 563d b6f5 563d 06c9 523d f1a1 54bd
000003a0: e167 583d 00a1 5a3d 696d 5abd ca9d 533d
000003b0: a688 51bd d517 54bd f6d7 4cbd 80a8 4f3d
000003c0: 3326 74bd c888 503d 0b7c 73bd 2c4d 663d
000003d0: 1257 68bd 59fd 6e3d efe8 793d bf7e 7e3d
000003e0: e06c 6d3d 6aef 703d cd63 673d 1939 6ebd
000003f0: 17de 6d3d a007 773d b197 76bd a752 693d

fc.bias f4 [30]
0.12225973 0.113160454 0.1208284 0.07756496 0.12080715 0.12364467 0.082582355 0.11572512
0.08694405 0.11920313 0.07935159 0.12305065 0.067543246 0.0994318 0.120746225 0.11613924
0.117249265 0.05562099 0.11510427 0.07495958 0.1075202 0.1223352 0.12461872 0.0972715
0.12867232 0.11747598 0.092830904 0.10616391 0.13282363 0.11969969
00000000: 4f63 fa3d abc0 e73d e174 f73d 61da 9e3d
00000010: bd69 f73d 6b39 fd3d f020 a93d 4b01 ed3d
00000020: b90f b23d c520 f43d 1683 a23d fb01 fc3d
00000030: 1d54 8a3d e6a2 cb3d cc49 f73d 69da ed3d
00000040: 6220 f03d d6d2 633d cabb eb3d 6984 993d
00000050: 8d33 dc3d e18a fa3d 1938 ff3d 4836 c73d
00000060: adc2 033e 3f97 f03d 211e be3d 776c d93d
00000070: eb02 083e 1c25 f53d
