backend/model/lstm-CNVS-30-.pth (torch, 26181 bytes, 12 tensors)

conv1.weight f4 [2, 4, 3]
0	0x35ab8881	1.2780221e-06
1	0x16a87987	2.7218558e-25
2	0xaf91914c	-2.6478586e-10
3	0x225fa3cc	3.0308849e-18
4	0xb0026bd2	-4.7446946e-10
5	0x2296ba04	4.0854533e-18
6	0x22092dc7	1.8591197e-18
7	0xb5b97fc0	-1.3820754e-06
8	0x34497160	1.876083e-07
9	0x33670498	5.3788057e-08
10	0xb6351c64	-2.6987627e-06
11	0x21658996	7.777031e-19
12	0x993148af	-9.165364e-24
13	0xb13ccc32	-2.7473672e-09
14	0x99d54f34	-2.2055674e-23
15	0xa2a6f528	-4.525396e-18
16	0xa3ff4485	-2.7676175e-17
17	0x36605ca7	3.3432532e-06
18	0x2d35903f	1.0320688e-11
19	0xa3f0a9fa	-2.609284e-17
20	0xa8e587bf	-2.5482978e-14
21	0xb5b98cf1	-1.3824593e-06
22	0x33c1f266	9.031355e-08
23	0xa30152e6	-7.0106584e-18

conv1.bias f4 [2]
0	0x2cc1151a	5.4877327e-12
1	0xa40015e3	-2.7774114e-17

lstm.weight_ih_l0 f4 [80, 2]
0	0x3418bb1e	1.4224176e-07
1	0xa31dcc67	-8.554271e-18
2	0x310dc0e0	2.0627837e-09
3	0x97a1b6f5	-1.0450566e-24
4	0x99023e5e	-6.7334374e-24
5	0x1937a59a	9.494321e-24
6	0xa6989894	-1.0588475e-15
7	0x9926e251	-8.627703e-24
8	0xa2fafa14	-6.8027416e-18
9	0xb35b4b33	-5.1058304e-08
10	0xa2eac9d8	-6.3639537e-18
11	0x313a8d88	2.7147014e-09
12	0x9d470dc1	-2.6344541e-21
13	0x1e6a6199	1.24080396e-20
14	0x1b3d0679	1.5635805e-22
15	0xae47a66b	-4.539517e-11
16	0x99036e10	-6.794768e-24
17	0x193324d7	9.261523e-24
18	0x9e05634f	-7.061498e-21
19	0x1d8af994	3.6786354e-21
20	0x1a71577f	4.990831e-23
21	0xa0f68697	-4.1763085e-19
22	0x1a4aa6d4	4.1907384e-23
23	0x1f1ad068	3.2783158e-20
24	0x992b6791	-8.861408e-24
25	0x1b0a9480	1.1463075e-22
26	0x18880415	3.5159298e-24
27	0x17d11551	1.3511689e-24
28	0x18bbadf2	4.8514007e-24
29	0xa95cf6de	-4.9063936e-14
30	0xa69483b0	-1.0305257e-15
31	0x1c178188	5.0129124e-22
32	0x18de6824	5.749081e-24
33	0x182203e4	2.0939974e-24
34	0x995ca5aa	-1.1407189e-23
35	0xb1c195ca	-5.6340683e-09
36	0x215127ec	7.086479e-19
37	0xa318f672	-8.292123e-18
38	0x2944be8b	4.3686012e-14
39	0xa8fa8291	-2.78122e-14
40	0x9ae71e3f	-9.5588226e-23
41	0x19d4dfb5	2.201064e-23
42	0xb2807a89	-1.4956884e-08
43	0x9b0c8c35	-1.1625832e-22
44	0x9967e1db	-1.1988031e-23
45	0xb2dd2713	-2.5745555e-08
46	0x1a85f24a	5.539895e-23
47	0x9f4929b4	-4.2597902e-20
48	0x9c668394	-7.6270677e-22
49	0x1a82546d	5.390314e-23
50	0x32a95043	1.9710688e-08
51	0x2988a841	6.0688007e-14
52	0x9c918bb2	-9.631405e-22
53	0xa0345227	-1.5273775e-19
54	0x9b8b2987	-2.3022457e-22
55	0x1a8e3f3e	5.8831997e-23
56	0x99b5f607	-1.8814331e-23
57	0xa157bf28	-7.3097827e-19
58	0xb1f74fa8	-7.197702e-09
59	0x32973736	1.760382e-08
60	0x99e9dca8	-2.4180758e-23
61	0x2914411e	3.291908e-14
62	0x17ef4f08	1.5464963e-24
63	0x9e8f01ad	-1.5141407e-20
64	0x199d6731	1.6275098e-23
65	0xa9311d3e	-3.932726e-14
66	0x972dd3ad	-5.6166487e-25
67	0x9cc3fcb1	-1.2969337e-21
68	0xb1bbae94	-5.4622635e-09
69	0x995f9301	-1.1558517e-23
70	0x309425a6	1.0779118e-09
71	0x329bcdc3	1.8137944e-08
72	0x3286d624	1.5697033e-08
73	0x30ec97d0	1.7214408e-09
74	0x31aba2dc	4.99527e-09
75	0x199e30b7	1.6356493e-23
76	0x1be5fbf3	3.804769e-22
77	0xb41d89c0	-1.4671878e-07
78	0xb0edbbff	-1.7297451e-09
79	0x30d5f7c9	1.5568214e-09
80	0xa50c8150	-1.2186877e-16
81	0x25550bfd	1.8478867e-16
82	0xa4b3cd54	-7.7976715e-17
83	0x29299328	3.7653176e-14
84	0x26f2ec18	1.6856117e-15
85	0xa7150429	-2.068016e-15
86	0xa4808168	-5.5730374e-17
87	0x3235044f	1.0536566e-08
88	0x2bda9824	1.5532059e-12
89	0xab4f9959	-7.3753986e-13
90	0x24d441e5	9.2051974e-17
91	0xa4f18285	-1.047382e-16
92	0x278cf4ce	3.9123224e-15
93	0xa75b6f1a	-3.0452584e-15
94	0x25533ad8	1.832127e-16
95	0xa5646ba8	-1.9812323e-16
96	0x26210181	5.5860134e-16
97	0x33af1bf2	8.154156e-08
98	0xa73f08f0	-2.651142e-15
99	0x27a1bb6d	4.4889684e-15
100	0x240de19c	3.07656e-17
101	0xb3bb4e8b	-8.722153e-08
102	0x256a8d33	2.0344105e-16
103	0xab91576a	-1.0327132e-12
104	0x259d27a8	2.726203e-16
105	0xa5f57808	-4.2582062e-16
106	0xa64bf890	-7.076664e-16
107	0xa169524f	-7.9052405e-19
108	0x33269e6d	3.8793974e-08
109	0xa60fe2da	-4.992053e-16
110	0x263b5acb	6.5001705e-16
111	0xa6634122	-7.8844717e-16
112	0x26dcd31a	1.5322786e-15
113	0xa49fc125	-6.928246e-17
114	0xa66056c7	-7.7833217e-16
115	0xa96ac087	-5.212543e-14
116	0xa6eb4e24	-1.6327581e-15
117	0xa9a337fd	-7.2483665e-14
118	0x25637888	1.9729949e-16
119	0xa4bb481c	-8.122048e-17
120	0x9c11a625	-4.819121e-22
121	0x9b60cc2f	-1.8594821e-22
122	0x9c9a2982	-1.0201595e-21
123	0xaf8865ea	-2.481067e-10
124	0x1bc99ace	3.33527e-22
125	0x9948af72	-1.03751886e-23
126	0x9cc351d7	-1.2925173e-21
127	0x2f362cc8	1.6568713e-10
128	0x218641cd	9.09761e-19
129	0x99424a4a	-1.00445675e-23
130	0x9880e559	-3.3318806e-24
131	0x2923a956	3.6340146e-14
132	0x9d41c50a	-2.5645204e-21
133	0x1e700750	1.2707006e-20
134	0xa5dfc79f	-3.8819602e-16
135	0x29acc922	7.6732254e-14
136	0x2dd580bb	2.4272464e-11
137	0x2f645a62	2.076859e-10
138	0x9e090d33	-7.255449e-21
139	0xb2851fb8	-1.5497662e-08
140	0x19ce7b53	2.1349711e-23
141	0x192d401d	8.956838e-24
142	0xb3803c94	-5.9714836e-08
143	0x339def7d	7.354445e-08
144	0xa2ed798e	-6.436768e-18
145	0x1a8c07dc	5.791534e-23
146	0xa01362ee	-1.2484117e-19
147	0x202d5f77	1.4685257e-19
148	0x9a228e7f	-3.3615922e-23
149	0x9bea9535	-3.8808475e-22
150	0x2cd2de4d	5.9932393e-12
151	0x981142ca	-1.877453e-24
152	0x1b14f91b	1.2322763e-22
153	0xa9b8da7b	-8.209142e-14
154	0xb37db31c	-5.9069052e-08
155	0x9a01d601	-2.6849446e-23
156	0x9e96d60d	-1.5970397e-20
157	0xa24b3038	-2.7537157e-18
158	0x1d6f8e40	3.1704928e-21
159	0x33004507	2.9865102e-08

lstm.weight_hh_l0 f4 [80, 20]
0	0xaa1b7307	-1.3806674e-13
1	0x98c9e845	-5.2191815e-24
2	0x96993378	-2.4750964e-25
3	0x2313b268	8.006665e-18
4	0x162df5af	1.4052353e-25
5	0x2aa361b0	2.90224e-13
6	0xb134bd19	-2.6300937e-09
7	0x1797a72f	9.800349e-25
8	0xb34aa960	-4.7185836e-08
9	0x99a0e549	-1.663622e-23
10	0x1e408be8	1.0193327e-20
11	0x22d777f2	5.8402864e-18
12	0x168ce7ff	2.276463e-25
13	0xadcc6e52	-2.3241107e-11
14	0x1df915b2	6.5932184e-21
15	0x18011c58	1.668717e-24
16	0x2f981048	2.7660207e-10
17	0xa06ec0f1	-2.0223223e-19
18	0x328eff60	1.6647107e-08
19	0x9cc2953b	-1.2876418e-21
20	0x170266cc	4.2135013e-25
21	0x97b2e64a	-1.1561114e-24
22	0x29c7821f	8.859948e-14
23	0xa07038a0	-2.0347526e-19
24	0xb419c57f	-1.4321084e-07
25	0x966722c3	-1.8671e-25
26	0x18752e26	3.1688807e-24
27	0x1afaf1c8	1.03788195e-22
28	0x1b0f1b23	1.1837451e-22
29	0x96826499	-2.106612e-25
30	0x2528073d	1.457413e-16
31	0x9e510331	-1.1065028e-20
32	0x1cce6eeb	1.3660608e-21
33	0x97173263	-4.885433e-25
34	0x1810b962	1.8705158e-24
35	0xb1a7e275	-4.886085e-09
36	0x9979215f	-1.28797375e-23
37	0x178d962e	9.149822e-25
38	0x184cc257	2.6464499e-24
39	0x97964d7b	-9.713082e-25
40	0xb25e30e4	-1.2933217e-08
41	0x16261453	1.3415786e-25
42	0x96a2e66f	-2.6317936e-25
43	0xa9a18082	-7.172129e-14
44	0x9e09a0eb	-7.285997e-21
45	0x9893ef7a	-3.824042e-24
46	0x19e1d828	2.335176e-23
47	0x29c165a5	8.588554e-14
48	0x9a98e59b	-6.3236674e-23
49	0xafd247ac	-3.8249703e-10
50	0x17ef30d0	1.5457335e-24
51	0x1901be23	6.7075415e-24
52	0x9832d12c	-2.3111566e-24
53	0x9e565bf3	-1.134808e-20
54	0x998297e0	-1.3503027e-23
55	0x9b8192d7	-2.1436153e-22
56	0xa04987e6	-1.7070327e-19
57	0x16f1b896	3.905214e-25
58	0x192ac86a	8.829267e-24
59	0x97b0968c	-1.1411737e-24
60	0x31a6355f	4.8373034e-09
61	0xb002e163	-4.761402e-10
62	0x9757b043	-6.969272e-25
63	0xa68b64a1	-9.672338e-16
64	0xafa4063b	-2.9835853e-10
65	0xb0b5f06c	-1.3237815e-09
66	0x184ecd43	2.6728507e-24
67	0xaf4140d6	-1.7576282e-10
68	0x230496f3	7.187699e-18
69	0x1786ccae	8.711215e-25
70	0xb3cd9e01	-9.574797e-08
71	0x24a38e09	7.09306e-17
72	0x97b952fe	-1.1976295e-24
73	0xa807df47	-7.542421e-15
74	0x1af98e79	1.03214163e-22
75	0x94f40ba8	-2.4642301e-26
76	0x231c728d	8.481034e-18
77	0xa544b513	-1.706164e-16
78	0x21aa0f13	1.1523638e-18
79	0xb1b04f5e	-5.131297e-09
80	0x1b0758eb	1.1195669e-22
81	0xad594ebf	-1.2352507e-11
82	0x9aa2067a	-6.701209e-23
83	0x2a66fe49	2.0516327e-13
84	0x99a7e65e	-1.736044e-23
85	0x200706ef	1.1437239e-19
86	0x30c4f7f1	1.4331346e-09
87	0xb4010baa	-1.2018305e-07
88	0x9861119f	-2.9089465e-24
89	0x1e39e5fa	9.8413765e-21
90	0x18c911f9	5.197543e-24
91	0x99aadbec	-1.7666414e-23
92	0x244b7123	4.411444e-17
93	0x9ad1a902	-8.671342e-23
94	0x182e98f1	2.2566189e-24
95	0x15e28f82	9.150709e-26
96	0x26460a19	6.8708735e-16
97	0x9a288fa4	-3.4857618e-23
98	0x9e64cdb8	-1.2112761e-20
99	0x231a7968	8.3740655e-18
100	0x1750f5c8	6.7518644e-25
101	0x97044e57	-4.275038e-25
102	0x179b7c43	1.0048008e-24
103	0xa060c953	-1.904015e-19
104	0x98e9e3fb	-6.045929e-24
105	0xac679afd	-3.291311e-12
106	0x982e4ba4	-2.2527162e-24
107	0xb36d6d60	-5.528034e-08
108	0xb2959b52	-1.7416514e-08
109	0x29021abd	2.888899e-14
110	0xa6989a60	-1.0588962e-15
111	0xb2aa5b30	-1.9832072e-08
112	0x245699b8	4.6534058e-17
113	0x15844c20	5.343448e-26
114	0x95446341	-3.9660182e-26
115	0x28cceb9a	2.2750726e-14
116	0xa4682589	-5.0338774e-17
117	0x97e5bbdf	-1.4846203e-24
118	0x18d9b547	5.627623e-24
119	0xa07e8283	-2.155782e-19
120	0xb1c8808b	-5.8353797e-09
121	0xa2dbf5a1	-5.962014e-18
122	0x1b84169b	2.1852177e-22
123	0x19a561ee	1.7100154e-23
124	0x1ad30ec0	8.7291385e-23
125	0xa6d8b0ce	-1.5035934e-15
126	0x9f12e0d5	-3.110268e-20
127	0x9c420c90	-6.420545e-22
128	0x9a59f7aa	-4.507461e-23
129	0xb3e0a3e6	-1.0460626e-07
130	0x9aea0c98	-9.680048e-23
131	0x2684617e	9.185765e-16
132	0x9bd5aa2b	-3.5347863e-22
133	0x2fe11064	4.0938908e-10
134	0x302a270d	6.1901134e-10
135	0x200f8ed2	1.2159826e-19
136	0xb321c4f8	-3.7664876e-08
137	0x9a8f3a3b	-5.923749e-23
138	0x1d236a37	2.1627782e-21
139	0x1a4e53a4	4.2667366e-23
140	0x23903451	1.5634668e-17
141	0x1928832a	8.711885e-24
142	0x302920b4	6.1528316e-10
143	0xa19f9661	-1.0814064e-18
144	0x999d1fac	-1.6246212e-23
145	0x1fbc9285	7.9863493e-20
146	0x1b106093	1.1942606e-22
147	0x997ddacf	-1.31239815e-23
148	0x979095ad	-9.343565e-25
149	0x9c3d9de6	-6.2738933e-22
150	0x9a0c8e60	-2.906633e-23
151	0x28d2b2e9	2.3392273e-14
152	0x2e059584	3.0373495e-11
153	0x9806b859	-1.7412166e-24
154	0x31d5cb2b	6.2222134e-09
155	0x18cd182e	5.3015673e-24
156	0xa2e544b7	-6.214333e-18
157	0x993c0adf	-9.7215676e-24
158	0xb3a414a8	-7.6406025e-08
159	0x2497c4a4	6.5818933e-17
160	0x265f118e	7.739246e-16
161	0x16a7614d	2.704171e-25
162	0xa035e8f1	-1.540837e-19
163	0xa31da66a	-8.546227e-18
164	0x174b1d63	6.562993e-25
165	0x1c9d8c93	1.0425726e-21
166	0x3390d018	6.7433746e-08
167	0xa9a1480d	-7.162335e-14
168	0xad7f60dc	-1.4516579e-11
169	0xb2c9f8be	-2.3512595e-08
170	0x97b8b0b6	-1.1935329e-24
171	0x1caaccfc	1.1302644e-21
172	0x970a4f72	-4.469048e-25
173	0x1a94de4d	6.157051e-23
174	0x1a397f90	3.8360147e-23
175	0x34129325	1.365084e-07
176	0x2974138a	5.419583e-14
177	0x3407b160	1.2637383e-07
178	0x1930152d	9.103263e-24
179	0x1918a6be	7.891889e-24
180	0xb1813173	-3.760016e-09
181	0x1d9d0ba1	4.156958e-21
182	0x9b0439d7	-1.0937473e-22
183	0xb1f24718	-7.0512094e-09
184	0x258d6531	2.452817e-16
185	0x18c71bf2	5.146851e-24
186	0x9e4d9c21	-1.0884896e-20
187	0x9a0e4360	-2.9419337e-23
188	0xac26a161	-2.3679602e-12
189	0x9c89ec03	-9.126907e-22
190	0x26cf316a	1.4376904e-15
191	0x1afac57b	1.03716623e-22
192	0x9b15c128	-1.2387403e-22
193	0x98263017	-2.1479276e-24
194	0x19a1cd8c	1.673003e-23
195	0x248eb32d	6.188622e-17
196	0x26315121	6.151916e-16
197	0x31d55026	6.2082277e-09
198	0x1c91ff17	9.661234e-22
199	0x9a82a200	-5.4028465e-23
200	0x9cabe745	-1.1375613e-21
201	0x1744cefc	6.3592267e-25
202	0x98d78b95	-5.571714e-24
203	0x978ecd68	-9.228387e-25
204	0xa4ad2334	-7.508643e-17
205	0x1bbc154f	3.1115761e-22
206	0x9a86f831	-5.5822076e-23
207	0x2f828ad3	2.3745503e-10
208	0x9f571103	-4.5542093e-20
209	0x9d8e6a73	-3.7697153e-21
210	0x99e139e3	-2.3287835e-23
211	0xb0d1c6be	-1.5263237e-09
212	0x19cc123d	2.1100472e-23
213	0x34130936	1.3693793e-07
214	0x9d4fc0c7	-2.7495885e-21
215	0xa4824f6b	-5.651305e-17
216	0xb0b579b1	-1.320407e-09
217	0x9818f3b6	-1.9768582e-24
218	0x219ddaeb	1.0696681e-18
219	0xb219bdf3	-8.948962e-09
220	0x98c59405	-5.1072768e-24
221	0x2059dc8e	1.845359e-19
222	0x308f31c4	1.0418764e-09
223	0x2d89f5d1	1.5684261e-11
224	0x1e648891	1.2098461e-20
225	0x173dc41f	6.1316733e-25
226	0x3219647e	8.928621e-09
227	0x1bea7f6c	3.8794397e-22
228	0x28be3835	2.1118613e-14
229	0x9bba156e	-3.0784967e-22
230	0x2947d959	4.4375395e-14
231	0x99759975	-1.26971935e-23
232	0x331fdad5	3.72191e-08
233	0x23152d16	8.0868535e-18
234	0x1f5458f3	4.4966323e-20
235	0x1e1b2650	8.2135545e-21
236	0x14fc14b4	2.5453663e-26
237	0x19137cc1	7.624916e-24
238	0x9c92c0d1	-9.711311e-22
239	0x974a1c90	-6.530577e-25
240	0x170511bc	4.2997e-25
241	0x24627b86	4.9110567e-17
242	0x17832a83	8.476408e-25
243	0x98b83bd0	-4.762328e-24
244	0xb2d6f22a	-2.5023002e-08
245	0xa41af247	-3.3598644e-17
246	0x3286abe0	1.5677813e-08
247	0xa30f0381	-7.7527875e-18
248	0x17da8513	1.4121512e-24
249	0x9b64afe4	-1.8916551e-22
250	0x996bab23	-1.2183776e-23
251	0x194c0c2a	1.0549009e-23
252	0xad400333	-1.0914647e-11
253	0x182413e5	2.1206547e-24
254	0xb132dae4	-2.6026834e-09
255	0x179eb837	1.0257013e-24

lstm.bias_ih_l0 f4 [80]
0	0x33247be5	3.8296907e-08
1	0x1dcc25b6	5.4037343e-21
2	0xa9c0ce32	-8.562282e-14
3	0x1e23af0d	8.665348e-21
4	0xb058ec9a	-7.8916573e-10
5	0x1f5a8249	4.6271065e-20
6	0x27575678	2.9884119e-15
7	0x9f53f4b1	-4.4883392e-20
8	0x20153128	1.2637055e-19
9	0xad0a7135	-7.869529e-12
10	0xa12e2c60	-5.9012223e-19
11	0x2126c9ed	5.6510234e-19
12	0x2161d915	7.652027e-19
13	0x30df2671	1.6236311e-09
14	0x1efb8db2	2.6634263e-20
15	0xa48fb803	-6.232809e-17
16	0xa3d97a03	-2.3578861e-17
17	0x214fcfd7	7.04094e-19
18	0x274dd116	2.856281e-15
19	0xa6b1e9ee	-1.2345249e-15
20	0x1e7618a2	1.30282255e-20
21	0x22d2bf34	5.712306e-18
22	0x220b92a2	1.891564e-18
23	0x1ce8723a	1.5381999e-21
24	0x22e84bef	6.2964124e-18
25	0x1f106532	3.0576893e-20
26	0xb292a618	-1.7072168e-08
27	0x200062da	1.0874729e-19
28	0x207bc402	2.132538e-19
29	0x27578e7a	2.991448e-15
30	0xa14e1dc5	-6.9834915e-19
31	0x2c6e9c0e	3.3908462e-12
32	0x24e301ad	9.8448396e-17
33	0x1d505fb2	2.7578044e-21
34	0x9eb4c8ee	-1.9141344e-20
35	0x341359d2	1.3723118e-07
36	0x1d4fa181	2.7479717e-21
37	0x218f5333	9.71208e-19
38	0x27391da2	2.5689971e-15
39	0x1f06e292	2.8563018e-20
40	0x2f608de4	2.0423091e-10
41	0x2f094402	1.2484239e-10
42	0xb0ed0299	-1.7244758e-09
43	0x2e26fe5b	3.7969943e-11
44	0x3152a27c	3.0651384e-09
45	0xae11b4db	-3.3129815e-11
46	0xb682bef9	-3.896534e-06
47	0xaf1194e9	-1.3240577e-10
48	0xb018c7b1	-5.5581056e-10
49	0x35e7d771	1.7273543e-06
50	0xae4f968b	-4.720006e-11
51	0xafa2de31	-2.9625505e-10
52	0xb0e49cd0	-1.6633752e-09
53	0xaca1aedb	-4.595308e-12
54	0x2f46bee6	1.8075816e-10
55	0xafbb1adb	-3.4034184e-10
56	0xae2b2b31	-3.891926e-11
57	0x309586f5	1.0879534e-09
58	0x36036179	1.9577258e-06
59	0xaef39aeb	-1.10778796e-10
60	0x2b3731f6	6.5083995e-13
61	0xb1d18751	-6.0980843e-09
62	0x22398ef3	2.5147852e-18
63	0x2318a757	8.275372e-18
64	0x233d35b5	1.02570834e-17
65	0x1f78ef5a	5.271403e-20
66	0x28238f51	9.0793944e-15
67	0x201d4d67	1.3324028e-19
68	0x207829b8	2.1020221e-19
69	0x2721eaa9	2.2470448e-15
70	0xa11f099d	-5.388402e-19
71	0x212e5ac5	5.9073626e-19
72	0x2049b24f	1.708436e-19
73	0x1c195872	5.0737766e-22
74	0x9e82b92b	-1.3840869e-20
75	0x2012d50f	1.2437176e-19
76	0x1d3029c9	2.3315008e-21
77	0xac2034fa	-2.2766775e-12
78	0x26d51cc2	1.4787639e-15
79	0x1e93f45e	1.5665298e-20

lstm.bias_hh_l0 f4 [80]
0	0x9c28cfe9	-5.5855255e-22
1	0x1db3d88f	4.760482e-21
2	0x222e1998	2.3594946e-18
3	0xaf854d8e	-2.4247665e-10
4	0xafc859ae	-3.644351e-10
5	0x1f099fa2	2.9142924e-20
6	0x275600ee	2.969897e-15
7	0xa0de91be	-3.7704707e-19
8	0x2032a03f	1.5130207e-19
9	0xb39df109	-7.354726e-08
10	0xad7f93fd	-1.4527932e-11
11	0xad4b7322	-1.1564779e-11
12	0x3136b7a7	2.658888e-09
13	0xb2ce3281	-2.4004523e-08
14	0x9ea08179	-1.6994208e-20
15	0xaa231e0b	-1.4487731e-13
16	0x21b687c4	1.2368737e-18
17	0x215df0b0	7.519626e-19
18	0x26935da3	1.0225554e-15
19	0x26360987	6.3156846e-16
20	0x32c93a9c	2.3426132e-08
21	0xa187696d	-9.175862e-19
22	0xa6c66dbe	-1.3768756e-15
23	0x330e3bd4	3.3116365e-08
24	0x31000680	1.8630146e-09
25	0xb2f818fd	-2.8882363e-08
26	0x275be124	3.0514404e-15
27	0x1fefef55	1.0161638e-19
28	0x321b3cf3	9.036046e-09
29	0x289fa22c	1.7722877e-14
30	0xa1753674	-8.3081297e-19
31	0x2abc8c9f	3.3493084e-13
32	0x2084b2f7	2.24801e-19
33	0x1cfdf723	1.6806019e-21
34	0x2fa2b85d	2.9598626e-10
35	0x2069bfb9	1.9799303e-19
36	0x1d28b89b	2.2330054e-21
37	0x214e3368	6.986355e-19
38	0x26c9b10f	1.3995169e-15
39	0x1e967129	1.592867e-20
40	0x2f5b0624	1.9920116e-10
41	0x2e8264ee	5.929644e-11
42	0xb0e2c2a7	-1.6498988e-09
43	0x2efae3d9	1.14091576e-10
44	0x3145124b	2.8677671e-09
45	0xb0dd6f3b	-1.611148e-09
46	0xb0e1c257	-1.6426139e-09
47	0xb08b34cc	-1.0128587e-09
48	0xb0387a01	-6.711219e-10
49	0x31222419	2.3594622e-09
50	0x331b4020	3.614707e-08
51	0xb00200f3	-4.7295073e-10
52	0xafd88ee0	-3.939169e-10
53	0xacc27c5e	-5.527619e-12
54	0x2e8270c1	5.931745e-11
55	0xafdb799a	-3.992227e-10
56	0xaef09ab5	-1.0941418e-10
57	0x308ca759	1.0233904e-09
58	0x308dd5bf	1.031985e-09
59	0xaf2922ed	-1.5382869e-10
60	0xb45d7444	-2.0624526e-07
61	0x1d3dbbfd	2.511113e-21
62	0x220ec5a7	1.9349225e-18
63	0x1d2d994a	2.2975608e-21
64	0xb266cb07	-1.3433925e-08
65	0xa9c5429b	-8.7601116e-14
66	0x2786b05a	3.738367e-15
67	0x2d34c8a3	1.0276366e-11
68	0xa90ee292	-3.1726852e-14
69	0x322f59f1	1.0206791e-08
70	0xa14114f3	-6.541867e-19
71	0x1f92af42	6.2123345e-20
72	0x2eb1947b	8.0754035e-11
73	0x1cdb33f6	1.4505636e-21
74	0x293e8e05	4.2311657e-14
75	0x201f1304	1.3474116e-19
76	0xb378f7ca	-5.7967362e-08
77	0xa1d21a8f	-1.4237184e-18
78	0x269294ee	1.0171153e-15
79	0x1ecf68e4	2.196036e-20

lstm.weight_ih_l1 f4 [80, 20]
0	0x2599a1fb	2.6651031e-16
1	0x251f3bae	1.3811272e-16
2	0xa6e22d6f	-1.5694215e-15
3	0x24404def	4.1699376e-17
4	0x2cf7a9ea	7.0390265e-12
5	0x2d369cd7	1.0380328e-11
6	0xac9b840a	-4.4200242e-12
7	0xa6425d63	-6.7433833e-16
8	0xa6bcfa62	-1.3112987e-15
9	0xb2110139	-8.440389e-09
10	0x288b54b0	1.5468827e-14
11	0xae52d866	-4.7940672e-11
12	0xb0826e30	-9.490062e-10
13	0x31b47eb2	5.253093e-09
14	0x251a8cf8	1.3405133e-16
15	0xa5bc5b2a	-3.2674577e-16
16	0xa4e0d448	-9.750413e-17
17	0x2f2090e4	1.4603391e-10
18	0x2c172894	2.1480916e-12
19	0xa4b943e9	-8.0346005e-17
20	0x242a6c96	3.695485e-17
21	0x240d7d5d	3.0680688e-17
22	0xa5f3ba77	-4.2280134e-16
23	0x32054fa2	7.759725e-09
24	0x2fe830dc	4.223527e-10
25	0x289cdad3	1.7414379e-14
26	0xaa817925	-2.2999064e-13
27	0x2588137c	2.3605442e-16
28	0xa506d67d	-1.1695319e-16
29	0x2a8a3c4f	2.4555572e-13
30	0xa9537528	-4.695303e-14
31	0x258963b0	2.3833262e-16
32	0x2c8e01ff	4.0361044e-12
33	0xa1946d22	-1.0057757e-18
34	0x24938b57	6.398714e-17
35	0xa4a6c079	-7.2317086e-17
36	0xa34b5307	-1.1022234e-17
37	0x30501040	7.569305e-10
38	0x2b5e5e60	7.9001215e-13
39	0x2bd1ae1b	1.4898667e-12
40	0x298f5482	6.3651355e-14
41	0x2683f85f	9.157272e-16
42	0xa855b41b	-1.1862929e-14
43	0x2659efb3	7.561185e-16
44	0xb39f5381	-7.419204e-08
45	0xa83392eb	-9.968354e-15
46	0xad7af36a	-1.42649035e-11
47	0xa810fb6b	-8.048123e-15
48	0xa79569bb	-4.147044e-15
49	0x2d849df8	1.5076815e-11
50	0x2be394ff	1.6170675e-12
51	0xa760b32d	-3.1183376e-15
52	0xaa276864	-1.4868797e-13
53	0x260e8990	4.945258e-16
54	0x269ee4fb	1.1025518e-15
55	0xa78180dd	-3.5944406e-15
56	0x31934d72	4.2870676e-09
57	0x2839c157	1.0311487e-14
58	0x2d120760	8.300777e-12
59	0xa6ec7caa	-1.640958e-15
60	0x28dc11cf	2.443263e-14
61	0x280dda8c	7.874462e-15
62	0xaa5dbfa3	-1.969523e-13
63	0xacdc1320	-6.2548994e-12
64	0x2b57ae01	7.6624823e-13
65	0xa9c9d1ce	-8.9625884e-14
66	0xaf4c4cb5	-1.8580944e-10
67	0xa931fb44	-3.9519833e-14
68	0xaa097b7a	-1.2210884e-13
69	0x2e98b6bc	6.94462e-11
70	0x2c02bb08	1.8577934e-12
71	0xa97a101d	-5.5525127e-14
72	0xaa275038	-1.4860411e-13
73	0x2e68c1d1	5.2922836e-11
74	0x283b6715	1.0402938e-14
75	0xb40f9367	-1.3371537e-07
76	0xa82c22ab	-9.5554354e-15
77	0x298dbd93	6.294544e-14
78	0x2f52215c	1.911124e-10
79	0xa87f9f0c	-1.4189831e-14
80	0x24cb9fe1	8.830806e-17
81	0xa298e2ee	-4.1439954e-18
82	0x283e5374	1.0565215e-14
83	0x266825da	8.054247e-16
84	0x2666b2ae	8.0039436e-16
85	0xa540a0fd	-1.670789e-16
86	0xab1898d4	-5.421334e-13
87	0xa502612a	-1.1308623e-16
88	0xa51c0351	-1.3531967e-16
89	0xaf6f38f4	-2.1757157e-10
90	0x273a69c0	2.5870013e-15
91	0xa5335869	-1.555573e-16
92	0x2d5c609a	1.2527002e-11
93	0x2e886cd2	6.203894e-11
94	0x2631ba56	6.1661743e-16
95	0xa85fb427	-1.2418051e-14
96	0xa398d8d3	-1.6571702e-17
97	0x2b84e32c	9.442217e-13
98	0x2f29f5a7	1.5457734e-10
99	0xa3d824b9	-2.343432e-17
100	0x2599793a	2.6623415e-16
101	0xacd0741f	-5.9246076e-12
102	0xa6e0a4d7	-1.5587802e-15
103	0x248bc0d3	6.06083e-17
104	0x271c6012	2.1701429e-15
105	0xa68a3278	-9.589353e-16
106	0xac2956d3	-2.4064542e-12
107	0xa60b24e4	-4.827531e-16
108	0xa69a76de	-1.0718116e-15
109	0x2b33709e	6.374986e-13
110	0x2895eec1	1.6645866e-14
111	0xa5c9e7ba	-3.5024966e-16
112	0xa68dae4c	-9.831084e-16
113	0x3064788a	8.3117213e-10
114	0x24d55605	9.251975e-17
115	0xa670d035	-8.35489e-16
116	0xa5291edc	-1.4668869e-16
117	0x2702298f	1.8063653e-15
118	0x2b601269	7.9606336e-13
119	0xa494278e	-6.425178e-17
120	0x2e6c4bb3	5.3727422e-11
121	0x2fefd114	4.3622406e-10
122	0xa6e7d55f	-1.6086679e-15
123	0x3303a607	3.0651815e-08
124	0x2777004f	3.4278303e-15
125	0xa221974e	-2.1899669e-18
126	0xabddb299	-1.5752565e-12
127	0xa6414d09	-6.706473e-16
128	0xa5d06e32	-3.615692e-16
129	0xb28656c1	-1.5639104e-08
130	0x286a770c	1.30154236e-14
131	0xa63923a3	-6.4233065e-16
132	0xa60aec33	-4.819848e-16
133	0xa233fbde	-2.439236e-18
134	0x24860af2	5.813178e-17
135	0xa5f281cd	-4.2068265e-16
136	0xa4ab2042	-7.4214075e-17
137	0x308f7041	1.0436524e-09
138	0x2ba4191b	1.1659869e-12
139	0x3385b09b	6.2254195e-08
140	0x262db46c	6.026595e-16
141	0x2557d53c	1.8720524e-16
142	0x301bd33f	5.668887e-10
143	0xa9b9c78b	-8.2502656e-14
144	0x2748c7a2	2.7863797e-15
145	0xae3103bb	-4.0248454e-11
146	0xad304439	-1.001959e-11
147	0xa60ac501	-4.814536e-16
148	0xa68d9d3a	-9.826457e-16
149	0x2b8147bf	9.185915e-13
150	0x2883f07c	1.4648215e-14
151	0xa6059fc4	-4.6360167e-16
152	0xa6db2c4e	-1.5208186e-15
153	0xa2c4ce71	-5.3344485e-18
154	0x326a79b0	1.3648261e-08
155	0xa5cc523d	-3.5444086e-16
156	0xa4942d58	-6.4261584e-17
157	0x272d8e87	2.4085837e-15
158	0x3104ada7	1.9307238e-09
159	0x337dc589	5.908581e-08
160	0xaf1a144c	-1.4013429e-10
161	0x296d9755	5.275583e-14
162	0xab6b9bc6	-8.370495e-13
163	0x2929dad2	3.7715335e-14
164	0x2bd76cec	1.5306901e-12
165	0x3281ab52	1.5095484e-08
166	0xb08bda78	-1.0175674e-09
167	0xaaf8f16c	-4.422117e-13
168	0xaaee0689	-4.2281827e-13
169	0x30344cbd	6.559267e-10
170	0x2d80ae70	1.4629381e-11
171	0xaa8764e4	-2.4050824e-13
172	0xab2ddb3f	-6.176621e-13
173	0x336a8950	5.4607256e-08
174	0x2981eede	5.7701877e-14
175	0xaa3a7bfe	-1.6563137e-13
176	0xb352ca84	-4.9078622e-08
177	0xb3cc8753	-9.5241056e-08
178	0x30915661	1.0574689e-09
179	0xaa4684e7	-1.7632042e-13
180	0x2690fa96	1.0059929e-15
181	0x25b5e565	3.155394e-16
182	0xb26f9e5d	-1.3947639e-08
183	0x256fea09	2.080924e-16
184	0x328db12e	1.6495132e-08
185	0xb41f20c4	-1.4819949e-07
186	0xac9b0ff4	-4.407136e-12
187	0xa6a0587a	-1.1126212e-15
188	0xa76f9217	-3.3247108e-15
189	0x301ba055	5.6616517e-10
190	0x294ba505	4.5218186e-14
191	0xa6d15dfc	-1.4527763e-15
192	0xa775dd99	-3.4120708e-15
193	0xa33afbb9	-1.01363845e-17
194	0xb200e2e8	-7.502173e-09
195	0xa660828f	-7.789255e-16
196	0x29b87f55	8.19333e-14
197	0x270f0309	1.9846882e-15
198	0x2c1074e7	2.0528525e-12
199	0xa5b85651	-3.1977402e-16
200	0x24476788	4.323894e-17
201	0xa45fe95e	-4.8553087e-17
202	0x341a94e6	1.4396537e-07
203	0x20e4bd91	3.8750147e-19
204	0x24e2092e	9.802743e-17
205	0xa436b16e	-3.9615248e-17
206	0xa9fce082	-1.1229994e-13
207	0xa37c9503	-1.3692502e-17
208	0xb0cb9a42	-1.4814037e-09
209	0x29335a55	3.9824335e-14
210	0x26399a4b	6.4393875e-16
211	0xa3f018e5	-2.6031395e-17
212	0xa4916270	-6.3050486e-17
213	0x32f0e1d0	2.8042365e-08
214	0xa4c6e30a	-8.625343e-17
215	0xa363aa6a	-1.2341781e-17
216	0x20982433	2.5773756e-19
217	0x306d52f2	8.633797e-10
218	0xafd02d26	-3.786706e-10
219	0x2382d6b5	1.418556e-17
220	0x246ecb25	5.1780094e-17
221	0xafc653cc	-3.6075531e-10
222	0xa635b24d	-6.303863e-16
223	0xb126ae41	-2.4255231e-09
224	0x261c96d6	5.4327793e-16
225	0xa98b437b	-6.184546e-14
226	0xb04f1cb0	-7.534693e-10
227	0x3304cf73	3.092232e-08
228	0xa4de0c8d	-9.6298415e-17
229	0x2bd0ce2c	1.4836513e-12
230	0xa8f63204	-2.7333177e-14
231	0xa4c95f94	-8.733177e-17
232	0x2ec9a55b	9.169795e-11
233	0xb1acd772	-5.030352e-09
234	0xa3374632	-9.935314e-18
235	0xa692a866	-1.017643e-15
236	0xa3b5cca4	-1.9710728e-17
237	0x30492bbe	7.3185535e-10
238	0x2a6be58a	2.095183e-13
239	0xa3e91aa7	-2.5273198e-17
240	0x26912f6e	1.0074252e-15
241	0x260b0adb	4.8240025e-16
242	0xa890e4c0	-1.6086416e-14
243	0x268deb90	9.84769e-16
244	0x287329d7	1.3498282e-14
245	0xa7cdbcad	-5.7103493e-15
246	0xad6ac64c	-1.3345391e-11
247	0xac773f08	-3.51358e-12
248	0xa7a5f3c6	-4.6061e-15
249	0x2d34cc4f	1.0277181e-11
250	0x336df816	5.5406495e-08
251	0xa788955e	-3.7909527e-15
252	0xad2b3343	-9.731607e-12
253	0xa410cb3a	-3.1397162e-17
254	0x2710ae97	2.007866e-15
255	0xa71aad88	-2.1465865e-15

lstm.weight_hh_l1 f4 [80, 20]
0	0x30d142d2	1.5225743e-09
1	0xb242b862	-1.133421e-08
2	0xb147edbc	-2.9093448e-09
3	0x3215c5bc	8.717901e-09
4	0x3013ab11	5.372139e-10
5	0xb22aa156	-9.931986e-09
6	0x305ae897	7.963847e-10
7	0x30a6c177	1.2133076e-09
8	0x32e0360c	2.610161e-08
9	0xb0b9c87a	-1.35175e-09
10	0x2fe4c629	4.161376e-10
11	0xb06120e8	-8.1901286e-10
12	0x31224cf3	2.3617843e-09
13	0x3039b934	6.75658e-10
14	0x302aa335	6.207757e-10
15	0x31b91a74	5.387216e-09
16	0xb239334c	-1.0780081e-08
17	0xb20dffaf	-8.265416e-09
18	0xb26fe81f	-1.3964409e-08
19	0xb1fd640d	-7.3746436e-09
20	0x301c1226	5.677826e-10
21	0x2f69a5dd	2.1250153e-10
22	0xb094f2e5	-1.0837452e-09
23	0x31a2212a	4.718591e-09
24	0x2eab0a30	7.7779894e-11
25	0xaf89f5a2	-2.5094687e-10
26	0x2f487195	1.8230246e-10
27	0x3203ea64	7.678498e-09
28	0x320fbf49	8.367189e-09
29	0xafa3ffa1	-2.9831163e-10
30	0x2e8919e7	6.23464e-11
31	0xaf06af91	-1.2249603e-10
32	0x30b54443	1.3188884e-09
33	0x2fbf2e09	3.4775408e-10
34	0x2ee3096d	1.0324439e-10
35	0x31cba895	5.927243e-09
36	0xb1deda8b	-6.485896e-09
37	0xb0e01620	-1.6304433e-09
38	0xb1bc298f	-5.476245e-09
39	0xb220285c	-9.322402e-09
40	0x32259cdb	9.639929e-09
41	0x31f5259d	7.1347146e-09
42	0xb3b66a2f	-8.49435e-08
43	0x34d84e39	4.029005e-07
44	0x318daba2	4.1231525e-09
45	0xb23185b2	-1.0333155e-08
46	0x31da96bd	6.361772e-09
47	0x32688efb	1.3536687e-08
48	0x34895cef	2.5585857e-07
49	0xb2486c3d	-1.1666143e-08
50	0x30b4952e	1.3139123e-09
51	0xb180e5a6	-3.7513983e-09
52	0x32b08c51	2.0552905e-08
53	0x3213831c	8.586337e-09
54	0x30e710c4	1.6812227e-09
55	0x331c7a77	3.643296e-08
56	0xb5453cbe	-7.347661e-07
57	0xb3758c86	-5.7171313e-08
58	0xb60c30c1	-2.0890004e-06
59	0xb3b1b0cc	-8.274364e-08
60	0x33cf292a	9.646676e-08
61	0x334f923d	4.8328946e-08
62	0xb4942967	-2.7597272e-07
63	0x35945bc9	1.1053572e-06
64	0x334ea1c5	4.811024e-08
65	0xb3dca803	-1.02751095e-07
66	0x33ad1f17	8.0615955e-08
67	0x33cefef2	9.638997e-08
68	0x36178683	2.257905e-06
69	0xb410bcce	-1.3479732e-07
70	0x31ca0fed	5.8807843e-09
71	0xb33ed2f2	-4.4429676e-08
72	0x3502093c	4.844221e-07
73	0x3416f0bd	1.4057419e-07
74	0x3376f2ed	5.7497278e-08
75	0x357da38f	9.4487854e-07
76	0xb51d1f29	-5.85324e-07
77	0xb636b3d5	-2.722479e-06
78	0xb674119a	-3.6369079e-06
79	0xb51197b7	-5.4237483e-07
80	0x2f42b7bb	1.7709471e-10
81	0x2ead81e0	7.8901996e-11
82	0xb05e51a0	-8.0879126e-10
83	0x31cb0235	5.9083285e-09
84	0x2ed9440d	9.880106e-11
85	0xaf843072	-2.4045083e-10
86	0x3096c21c	1.0969106e-09
87	0x2f10b3d9	1.3160618e-10
88	0x31bf4698	5.566857e-09
89	0xaf8bcfbe	-2.5431562e-10
90	0x2e75e476	5.5909465e-11
91	0xaeb5132b	-8.234332e-11
92	0x2ffb862f	4.5751977e-10
93	0x300917a4	4.9873905e-10
94	0x2efef83a	1.15946766e-10
95	0x31350377	2.6340936e-09
96	0xb0e722ca	-1.681735e-09
97	0xb0def6d7	-1.6222782e-09
98	0x33538972	4.925227e-08
99	0xb07a4f1d	-9.1061897e-10
100	0x30aaaefa	1.2418859e-09
101	0x31f87bf6	7.2318427e-09
102	0xb14d51b0	-2.987786e-09
103	0x321911b6	8.909799e-09
104	0x2fbd56b8	3.4440517e-10
105	0xb050432f	-7.5765433e-10
106	0x30b19789	1.2921514e-09
107	0x30ee00c9	1.7317002e-09
108	0x32dc9583	2.567936e-08
109	0xb1aa9ddc	-4.9655977e-09
110	0x2fdf3e62	4.060779e-10
111	0xb07485dd	-8.8956914e-10
112	0x318e3726	4.1390136e-09
113	0xb2c1e281	-2.257116e-08
114	0x306292ee	8.242712e-10
115	0x325c827e	1.2835356e-08
116	0xb345ad92	-4.6025498e-08
117	0xb230a747	-1.0282583e-08
118	0xb38c8db7	-6.545036e-08
119	0xb20bdb17	-8.14068e-09
120	0x30dcf1eb	1.6075864e-09
121	0x302b60b8	6.2346883e-10
122	0xb0e37616	-1.6549986e-09
123	0x3226a307	9.69954e-09
124	0x2fee14a5	4.3306617e-10
125	0xb04f9d9f	-7.5530154e-10
126	0x303a6358	6.780758e-10
127	0x33198bbd	3.575018e-08
128	0x32a87e34	1.9615165e-08
129	0xb08af8fe	-1.0111589e-09
130	0x3345c46a	4.6046274e-08
131	0xb2c684fd	-2.311071e-08
132	0x31074333	1.9683284e-09
133	0x3296c79c	1.755307e-08
134	0x2ff3276b	4.422945e-10
135	0x3178e1e2	3.621715e-09
136	0xb299a8e3	-1.7888345e-08
137	0xb32108d0	-3.749375e-08
138	0xb2dbda48	-2.5594218e-08
139	0xb193a006	-4.2964556e-09
140	0x3098a42d	1.1106117e-09
141	0x300558d6	4.851136e-10
142	0xb12486c6	-2.394175e-09
143	0x3200fb33	7.507697e-09
144	0x31039b36	1.9151236e-09
145	0xb09e0bc8	-1.1499361e-09
146	0x30f560c5	1.78536e-09
147	0x308cfbe5	1.0257933e-09
148	0x32ed8072	2.7648841e-08
149	0xb1ecd9c5	-6.8932615e-09
150	0x2f741fcb	2.2202966e-10
151	0xafde4d97	-4.0436696e-10
152	0x3130af1f	2.5710916e-09
153	0x318b1763	4.048091e-09
154	0x30edebc5	1.7311029e-09
155	0x31cc7ca0	5.9513496e-09
156	0xb1e95d14	-6.7917743e-09
157	0xb1da5688	-6.3544725e-09
158	0xb3a024b3	-7.457256e-08
159	0xb1c631b3	-5.7682086e-09
160	0x35babfd3	1.3913908e-06
161	0x349ccd4b	2.9206635e-07
162	0xb5d6844c	-1.5982746e-06
163	0x36e596e6	6.8422987e-06
164	0x34e405d4	4.247255e-07
165	0xb58d65cd	-1.0534947e-06
166	0x352d1f23	6.449283e-07
167	0x351a6e69	5.753014e-07
168	0x378515f1	1.5865053e-05
169	0xb5ec54c8	-1.7608045e-06
170	0x34b4748d	3.3612415e-07
171	0xb4de51a3	-4.141012e-07
172	0x360b615f	2.0769291e-06
173	0x3542db71	7.258996e-07
174	0x34c83189	3.7288945e-07
175	0x365075b6	3.1062932e-06
176	0xb6f23770	-7.218616e-06
177	0xb69554b9	-4.450409e-06
178	0xb7b14ed6	-2.1136755e-05
179	0xb68c1f5d	-4.1759763e-06
180	0x31bc276f	5.476003e-09
181	0xb1d37d5b	-6.1551595e-09
182	0xb3075b65	-3.151526e-08
183	0x3313c79d	3.4407652e-08
184	0x31dafd8a	6.373459e-09
185	0xb151360e	-3.044423e-09
186	0x30ec7caf	1.7206697e-09
187	0x323ce2b1	1.0994584e-08
188	0x33a2e97f	7.5861855e-08
189	0xb159cdab	-3.1694565e-09
190	0x2fc843bf	3.6427925e-10
191	0xb1ccf37c	-5.9648624e-09
192	0x31bb8a16	5.458115e-09
193	0x33763601	5.7325455e-08
194	0x307d7942	9.221318e-10
195	0x32d0b4b2	2.4296558e-08
196	0xb2fc07c8	-2.93402e-08
197	0xb26b5729	-1.3698618e-08
198	0xb382d465	-6.092231e-08
199	0xb288f741	-1.5944922e-08
200	0x2f88debe	2.4896524e-10
201	0x2dc4e34a	2.2383557e-11
202	0xb3ff51b6	-1.1889226e-07
203	0x3022b0f8	5.9186744e-10
204	0x2dbefa52	2.1711664e-11
205	0xae6d1022	-5.390189e-11
206	0x2f1fc447	1.4530697e-10
207	0x2e6c59b7	5.373987e-11
208	0x31024e38	1.8961952e-09
209	0xae959d93	-6.803726e-11
210	0x2d4d628a	1.1674781e-11
211	0xadd998b7	-2.4737863e-11
212	0x2ea7f40f	7.637634e-11
213	0x2eef451a	1.08807366e-10
214	0x2dbd2e59	2.1507395e-11
215	0x33573ab2	5.011197e-08
216	0xb1e5ca11	-6.6877495e-09
217	0xafee093e	-4.3298515e-10
218	0xb18c0be8	-4.07589e-09
219	0xb0338d90	-6.5320993e-10
220	0x339fbe1f	7.438597e-08
221	0x2ee44a98	1.038149e-10
222	0xb07aae86	-9.1197483e-10
223	0x33128fe3	3.4124138e-08
224	0x2f531850	1.9198976e-10
225	0xaf3fee33	-1.7455974e-10
226	0xb3474d63	-4.640368e-08
227	0x2f232cc6	1.484067e-10
228	0x31ad88a6	5.050498e-09
229	0xb102a9dd	-1.9014046e-09
230	0x2ed25c86	9.56613e-11
231	0xae8bbc3a	-6.354424e-11
232	0x3172e843	3.534766e-09
233	0x2f3d804e	1.7235033e-10
234	0x2eb4b11c	8.216913e-11
235	0x308bd74a	1.017477e-09
236	0xb1228e28	-2.365491e-09
237	0xb0df51a2	-1.6248587e-09
238	0xb2448b0b	-1.1440316e-08
239	0xb0dca6cf	-1.6054517e-09
240	0x31b16bb1	5.163621e-09
241	0x3144c6d3	2.8634772e-09
242	0xb27a9e5c	-1.4587922e-08
243	0x339ada28	7.210866e-08
244	0x32ca806f	2.35743e-08
245	0xb30ca741	-3.2748407e-08
246	0x3288f622	1.5944412e-08
247	0x31c63d10	5.7695004e-09
248	0x340769e1	1.2611373e-07
249	0xb207c4cc	-7.902781e-09
250	0x32355d12	1.0556748e-08
251	0xb18407e0	-3.842601e-09
252	0x3528aa67	6.2832845e-07
253	0x31c844bf	5.8285816e-09
254	0x31d559a0	6.209305e-09
255	0x348a9910	2.581587e-07

lstm.bias_ih_l1 f4 [80]
0	0x358b03d2	1.0357419e-06
1	0x3440d8cf	1.7960268e-07
2	0x38666fa2	5.494024e-05
3	0x3943c222	0.0001866897
4	0x341f2d0e	1.482442e-07
5	0x355e1e3c	8.274544e-07
6	0x363031a9	2.625495e-06
7	0x357e51f6	9.474164e-07
8	0x39f2a845	0.00046283207
9	0x36055e43	1.9873412e-06
10	0x3330562e	4.1056573e-08
11	0x35d89282	1.6135893e-06
12	0x36b55132	5.4036727e-06
13	0x3584d227	9.895929e-07
14	0x33dd5b62	1.0307737e-07
15	0x384c022f	4.8639424e-05
16	0x38d3dfed	0.000101029735
17	0x388aa131	6.610377e-05
18	0x3a65928e	0.0008757495
19	0x38040f3f	3.148545e-05
20	0x353c62fc	7.01795e-07
21	0x3450f611	1.9461028e-07
22	0x36d3e3a7	6.3147922e-06
23	0x38ace128	8.243538e-05
24	0x34186eda	1.419643e-07
25	0x3567739e	8.622245e-07
26	0x3534cd1a	6.735369e-07
27	0x35c8dd96	1.4965651e-06
28	0x3a016e77	0.000493742
29	0x372c22a8	1.0260068e-05
30	0x33c5c39d	9.209109e-08
31	0x346d0e32	2.2077509e-07
32	0x370d2d06	8.414738e-06
33	0x36b5d813	5.4193747e-06
34	0x343ec599	1.7767015e-07
35	0x37c8e1ad	2.3946946e-05
36	0x388709e8	6.439147e-05
37	0x38907895	6.888915e-05
38	0x3a822f52	0.0009932315
39	0x381edac5	3.787388e-05
40	0x3ac01e13	0.00146574
41	0x3a14d44a	0.00056773855
42	0xbb27981b	-0.002557284
43	0x3c27a023	0.010231051
44	0x39bba0a0	0.00035787094
45	0xbab5dbb0	-0.0013874676
46	0x3a5900ed	0.0008278031
47	0x3a81aa84	0.0009892737
48	0x3d036769	0.03208104
49	0xbac72c16	-0.0015195634
50	0x39701097	0.00022894364
51	0xb9e36502	-0.0004337207
52	0x3b0ada7d	0.0021187358
53	0x3a6b3b0e	0.00089733384
54	0x39f2b866	0.00046295224
55	0x3bea0c68	0.007142592
56	0xbc23ed02	-0.010005238
57	0xbc15f768	-0.0091532245
58	0xbd16a97b	-0.036782723
59	0xbbbe7861	-0.00581269
60	0x357b6b8e	9.36613e-07
61	0x349f830d	2.971141e-07
62	0x37368c6e	1.0880742e-05
63	0x38b57a6e	8.653557e-05
64	0x3444d8d5	1.8332805e-07
65	0x35bfc0c0	1.4286707e-06
66	0x3528a098	6.281857e-07
67	0x354019de	7.1563215e-07
68	0x3a22b9e2	0.0006207508
69	0x360c775d	2.0931104e-06
70	0x3388cdb6	6.370412e-08
71	0x344f499a	1.9305153e-07
72	0x36a7b303	4.9978275e-06
73	0x35c3ebf7	1.4597307e-06
74	0x351ca344	5.835211e-07
75	0x37d18dda	2.4980796e-05
76	0x3885c1ea	6.3780535e-05
77	0x38abd186	8.192942e-05
78	0x3a4b93a7	0.00077658374
79	0x381f9b9a	3.805347e-05

lstm.bias_hh_l1 f4 [80]
0	0x35aa4571	1.2686197e-06
1	0x34909211	2.6928367e-07
2	0x3717858d	9.031396e-06
3	0x38af885f	8.3700514e-05
4	0x3432041d	1.6579038e-07
5	0x360793cb	2.0202594e-06
6	0x35b4412f	1.3430016e-06
7	0x35b50d74	1.3489466e-06
8	0x39fd013c	0.0004825684
9	0x361c0a0f	2.3251666e-06
10	0x34120e55	1.3602524e-07
11	0x360bb1ac	2.0816033e-06
12	0x378b4ab3	1.6604876e-05
13	0x35855344	9.933506e-07
14	0x34a592ea	3.084054e-07
15	0x37b64bd8	2.1731408e-05
16	0x3885d243	6.3810985e-05
17	0x388cd8ac	6.7160785e-05
18	0x3a498c9b	0.00076884934
19	0x39790c23	0.00023751012
20	0x3625f3bc	2.4728788e-06
21	0x3414f557	1.3872828e-07
22	0x3729466d	1.0089582e-05
23	0x3951d823	0.0002001231
24	0x3410dd65	1.3491588e-07
25	0x35568262	7.9910944e-07
26	0x35b3191e	1.3343849e-06
27	0x35a9e252	1.2657349e-06
28	0x3a0c2206	0.0005345646
29	0x3641d82d	2.8885072e-06
30	0x351912ac	5.702411e-07
31	0x34233f30	1.5203545e-07
32	0x3698b624	4.551157e-06
33	0x3711a7ec	8.681771e-06
34	0x3448c8e9	1.8699542e-07
35	0x37f71353	2.9453693e-05
36	0x389bc34a	7.4273514e-05
37	0x388a9f01	6.6099696e-05
38	0x3a524bcb	0.0008022158
39	0x3825b9da	3.9512153e-05
40	0x3a5284b8	0.0008030641
41	0x39d97577	0.00041476983
42	0xbb6cc262	-0.0036126603
43	0x3c5bb0cb	0.01340885
44	0x3a19f625	0.0005873165
45	0xba4eb837	-0.00078857265
46	0x3a6ab6a9	0.000895361
47	0x3aa25af9	0.0012386731
48	0x3ccde575	0.025133828
49	0xbabd1127	-0.0014424667
50	0x39628fc2	0.00021606594
51	0xb9ea6965	-0.00044710483
52	0x3b3a31f2	0.0028411117
53	0x3aa78458	0.001278053
54	0x39cbd7a0	0.0003887983
55	0x3b82e1f8	0.0039942227
56	0xbc185949	-0.009298631
57	0xbc1374a4	-0.008999977
58	0xbd1c017e	-0.03808736
59	0xbbbec934	-0.005822325
60	0x35edf440	1.7728962e-06
61	0x35a8f293	1.2587574e-06
62	0x372a727f	1.0159448e-05
63	0x38fdf453	0.00012109489
64	0x3543d229	7.2948984e-07
65	0x35ea4ecc	1.7457292e-06
66	0x351fe9aa	5.957214e-07
67	0x36278465	2.4962003e-06
68	0x3a033ea3	0.0005006587
69	0x36a93d58	5.043734e-06
70	0x33395a77	4.3155946e-08
71	0x34396ef2	1.726983e-07
72	0x376673bb	1.3736014e-05
73	0x366d2c08	3.5341382e-06
74	0x342b9f45	1.5983558e-07
75	0x37ecf77c	2.8248636e-05
76	0x389a2714	7.350571e-05
77	0x38c897f2	9.565045e-05
78	0x3a579a64	0.0008224605
79	0x38089e94	3.2572614e-05

fc.weight f4 [30, 20]
0	0x395f6a4d	0.00021306537
1	0x3926940b	0.00015886144
2	0xba8f6e23	-0.0010942857
3	0x3b0c5f12	0.002141897
4	0x39026bec	0.0001243797
5	0xb9855bd3	-0.0002543615
6	0x393420bc	0.00017178332
7	0x3994867d	0.0002832896
8	0x3bb358c0	0.0054732263
9	0xba1b7cca	-0.0005931376
10	0x3905d207	0.0001276211
11	0xb8b0de02	-8.433686e-05
12	0x39e6270f	0.0004389812
13	0x393b40d5	0.00017857862
14	0x38c53c88	9.404967e-05
15	0x3a9c10b4	0.0011906833
16	0xbaf37be7	-0.0018576354
17	0xbb08cd56	-0.0020874343
18	0xbbe8222c	-0.0070841517
19	0xba91569b	-0.0011088433
20	0x39844398	0.00025227363
21	0x38ce8266	9.847134e-05
22	0xba204f05	-0.00061152905
23	0x3b268049	0.0025406054
24	0x38b3222d	8.541751e-05
25	0xb95f1141	-0.00021273365
26	0x39bade59	0.00035642346
27	0x39924b1e	0.00027903257
28	0x3bb41f3e	0.0054968884
29	0xb996e6e2	-0.0002878225
30	0x383dfaec	4.52948e-05
31	0xb8c03d3b	-9.1666785e-05
32	0x3a017406	0.00049382483
33	0x398026bf	0.0002444293
34	0x38b0144c	8.3961146e-05
35	0x3a9026f2	0.0010997935
36	0xbb012f4b	-0.0019712027
37	0xbaf4f8b3	-0.0018689841
38	0xbbfa9539	-0.0076471833
39	0xbaae2b5c	-0.0013288069
40	0x39445446	0.00018723411
41	0x38d42d50	0.00010117388
42	0xba54679d	-0.0008102598
43	0x3b0888da	0.0020833523
44	0x38abb78a	8.188102e-05
45	0xb99b9465	-0.00029674466
46	0x398a4353	0.00026371572
47	0x396f16aa	0.00022801259
48	0x3bbc5dae	0.005748472
49	0xb987cb1e	-0.0002590054
50	0x3885d7e0	6.382144e-05
51	0xb907ba48	-0.00012943998
52	0x3a27f021	0.00064063264
53	0x39b5d09c	0.00034678436
54	0x38b74851	8.73959e-05
55	0x3a82e9e8	0.0009987922
56	0xbb06bb5d	-0.0020558455
57	0xbaf71090	-0.001884954
58	0xbbed0f33	-0.007234478
59	0xbaa2bdf2	-0.0012416227
60	0x3984b432	0.00025311258
61	0x38cc4b62	9.741519e-05
62	0xba1c208d	-0.0005955778
63	0x3b1642db	0.0022928033
64	0x38b49f77	8.6127715e-05
65	0xb95f73a1	-0.00021310012
66	0x3941b9b3	0.00018475093
67	0x39c9d6cd	0.00038497747
68	0x3bb31bfc	0.0054659825
69	0xb99d1ae9	-0.00029965423
70	0x385691aa	5.1157236e-05
71	0xb90cb4e4	-0.00013418827
72	0x3a1b9e62	0.00059363816
73	0x398b36e4	0.00026553043
74	0x38cb10fc	9.682958e-05
75	0x3a941cd4	0.0011300095
76	0xbaea7d6e	-0.0017890164
77	0xbb0b95bb	-0.0021298963
78	0xbbe6a634	-0.007038856
79	0xbac4e8b3	-0.0015022963
80	0x3960f119	0.0002145212
81	0x390d74e7	0.00013490357
82	0xba25df62	-0.0006327537
83	0x3b22c746	0.0024838015
84	0x390a390f	0.00013181962
85	0xb9792463	-0.00023760046
86	0x3a581ac9	0.00082437374
87	0x396d8b62	0.00022654005
88	0x3bbcc0df	0.0057602967
89	0xbab60c2b	-0.0013889124
90	0x38bb0fd7	8.919805e-05
91	0xb8dc0311	-0.00010490989
92	0x39fc795a	0.000481556
93	0x3975965a	0.00023421031
94	0x38fc4c87	0.00012030551
95	0x3ac931ad	0.0015349888
96	0xbb0cb070	-0.002146747
97	0xbb1ad8c4	-0.0023627738
98	0xbbe93fbe	-0.0071181944
99	0xbace8cc8	-0.0015758509
100	0x39a2b051	0.00031030414
101	0x38b34d9b	8.54984e-05
102	0xba38eabf	-0.0007054023
103	0x3b20d179	0.0024538918
104	0x391275f6	0.00013967589
105	0xb9a6ea37	-0.0003183649
106	0x3966c949	0.00022009494
107	0x39b49de9	0.00034449928
108	0x3bb1c1fc	0.005424736
109	0xba11b4c1	-0.00055582455
110	0x38286347	4.014678e-05
111	0xb8b0d0f4	-8.4312545e-05
112	0x3a0d502d	0.000539067
113	0x39837100	0.0002507046
114	0x38d58808	0.00010181969
115	0x3a96bec5	0.0011500946
116	0xbaf1f9fb	-0.0018461341
117	0xbb422007	-0.002962114
118	0xbbe66ade	-0.0070317825
119	0xbb1f7cad	-0.0024335787
120	0x395edfe3	0.00021254974
121	0x38d0f4ce	9.963811e-05
122	0xbac9c541	-0.0015393869
123	0x3b160af0	0.0022894703
124	0x39033262	0.00012511903
125	0xb95e4271	-0.00021196321
126	0x39365285	0.00017387613
127	0x399434ca	0.0002826809
128	0x3bb246f9	0.0054405895
129	0xb9a07e0a	-0.00030611485
130	0x38486484	4.777733e-05
131	0xb8b7f619	-8.771959e-05
132	0x3a1102e0	0.00055317394
133	0x3966c19d	0.00022006636
134	0x38add344	8.288634e-05
135	0x3b118c8b	0.0022209014
136	0xbaf33354	-0.0018554726
137	0xbb26ee52	-0.002547164
138	0xbbe7110d	-0.007051593
139	0xba9c2cdd	-0.0011915226
140	0x3999e665	0.0002935409
141	0x38dd0ed8	0.00010540866
142	0xba326f6e	-0.00068067655
143	0x3b1f2930	0.0024286024
144	0x390c7754	0.00013395894
145	0xb99f3275	-0.00030364437
146	0x393d1caf	0.0001803513
147	0x39751735	0.00023373666
148	0x3bc08b23	0.0058759614
149	0xba739aef	-0.0009292801
150	0x385d43eb	5.275376e-05
151	0xb8f0eef2	-0.00011488599
152	0x3a81c0c9	0.0009899373
153	0x3a298224	0.0006466231
154	0x38d2164b	0.00010017733
155	0x3ae5ca8c	0.0017531677
156	0xbb80eb8f	-0.003934331
157	0xbbc78b1d	-0.0060895816
158	0xbbf786a7	-0.0075538936
159	0xbbbcd0e7	-0.005762208
160	0x39846b00	0.00025256723
161	0x38e7e151	0.00011056907
162	0xba78af11	-0.0009486536
163	0x3b4369b3	0.002981764
164	0x3890dee1	6.9079695e-05
165	0xb96c43f9	-0.00022532036
166	0x399270f4	0.00027931447
167	0x3968c513	0.0002219866
168	0x3bc70355	0.0060733953
169	0xb9c970a3	-0.00038421628
170	0x381608df	3.577105e-05
171	0xb8c509dc	-9.3955285e-05
172	0x3a022256	0.0004964223
173	0x395748b7	0.00020531086
174	0x38d95241	0.00010362687
175	0x3a95b5b8	0.0011421954
176	0xbaf65a18	-0.001879516
177	0xbae81f49	-0.0017709519
178	0xbbdc8751	-0.006729998
179	0xba97e5bc	-0.0011588852
180	0x397193a7	0.00023038556
181	0x38baa9ad	8.900776e-05
182	0xbad12d22	-0.0015958885
183	0x3b172995	0.0023065556
184	0x38fd559b	0.00012079925
185	0xb95feef5	-0.00021355956
186	0x394a4104	0.00019288441
187	0x39684043	0.00022149183
188	0x3bb46ab3	0.0055058836
189	0xb99b9fbe	-0.0002968292
190	0x3846cb0f	4.739599e-05
191	0xb9057a77	-0.0001272949
192	0x3ac6ea77	0.0015176077
193	0x39afdc9c	0.00033542968
194	0x38da508a	0.000104100516
195	0x3a85522c	0.0010171584
196	0xbb306605	-0.0026916277
197	0xbb07c69c	-0.0020717746
198	0xbbe8fc43	-0.00711015
199	0xbaae6b09	-0.0013307045
200	0x39593d39	0.0002071754
201	0x390167a8	0.00012341014
202	0xba2cb146	-0.0006587695
203	0x3b166d99	0.002295351
204	0x38d036bf	9.92841e-05
205	0xb98b4245	-0.0002656152
206	0x392f96e0	0.00016745506
207	0x3966fd09	0.00022028772
208	0x3bbc5be9	0.005748261
209	0xb991c1d5	-0.0002780097
210	0x38ad15c5	8.253338e-05
211	0xb8bb054c	-8.9178415e-05
212	0x3a65d8a1	0.0008767937
213	0x39738637	0.00023224285
214	0x389b806b	7.414896e-05
215	0x3a8eb9a7	0.0010889069
216	0xbb027bb2	-0.0019910154
217	0xbafa5544	-0.0019098897
218	0xbbe607fe	-0.0070199957
219	0xba943115	-0.0011306131
220	0x3985d396	0.0002552538
221	0x394519dd	0.00018797019
222	0xba234e6f	-0.0006229644
223	0x3b4a8d09	0.0030906817
224	0x39016d94	0.0001234322
225	0xb95fcfcb	-0.00021344346
226	0x39517fd6	0.00019979416
227	0x39b3d67d	0.00034301347
228	0x3bb1f16a	0.00543039
229	0xb997b00a	-0.00028932124
230	0x387c4f08	6.0155086e-05
231	0xb8b9377b	-8.8318215e-05
232	0x3a00a2b8	0.00049070595
233	0x398659e2	0.0002562544
234	0x38c69f42	9.47104e-05
235	0x3a841875	0.001007809
236	0xbb20ed50	-0.0024555512
237	0xbb10b489	-0.0022080264
238	0xbbee5f12	-0.007274517
239	0xba941d80	-0.0011300296
240	0x395fbb4c	0.00021336711
241	0x392226e8	0.00015464018
242	0xba6f7cca	-0.00091357215
243	0x3b2e9161	0.0026636946
244	0x3918d409	0.00014574839
245	0xb94e9dbf	-0.00019704456
246	0x394d467a	0.00019576578
247	0x398bb2d3	0.0002664538
248	0x3bba9411	0.0056939204
249	0xb995c08d	-0.00028562956
250	0x389133ac	6.9237634e-05
251	0xb8c55445	-9.4093884e-05
252	0x39eb0c6a	0.00044831942
253	0x39c7278a	0.00037985697
254	0x38af20db	8.35077e-05
255	0x3a957bb7	0.0011404668

fc.bias f4 [30]
0	0x3e36bc14	0.17845184
1	0x3e34ad65	0.1764427
2	0x3e36c8fe	0.1785011
3	0x3e358153	0.17725115
4	0x3e32f269	0.17475285
5	0x3e352a2d	0.1769187
6	0x3e34c6c1	0.17653944
7	0x3e3101c5	0.17285831
8	0x3e36ca67	0.17850648
9	0x3e34087c	0.17581362
10	0x3e3554c2	0.17708114
11	0x3e34f1af	0.1767032
12	0x3e364dec	0.17803162
13	0x3e34f3de	0.17671153
14	0x3e350788	0.17678654
15	0x3e352679	0.17690457
16	0x3e34c7e6	0.1765438
17	0x3e34a840	0.17642307
18	0x3e356881	0.17715646
19	0x3e346c81	0.17619516
20	0x3e3586e8	0.17727244
21	0x3e34be1e	0.17650649
22	0x3e31e47c	0.17372316
23	0x3e35628c	0.17713374
24	0x3e369c5a	0.17833081
25	0x3e334eee	0.17510578
26	0x3e35adba	0.17742053
27	0x3e36a8ee	0.17837879
28	0x3e349ca2	0.17637876
29	0x3e367d7b	0.17821305
