backend/model/lstm-CCL-90-.pth (torch, 31230 bytes, 12 tensors)

conv1.weight f4 [2, 4, 3]
-1.3311865e-11 -9.260088e-12 -1.9081074e-11 -6.4501703e-12 1.975614e-08 -1.3398753e-06 -9.002692e-10 -4.6258774e-06
1.12260195e-05 -2.5983885e-08 -8.08522e-12 -1.6326643e-11 -8.981444e-07 2.1977772e-05 -7.486518e-11 -2.449138e-09
-3.6045131e-09 -6.201504e-11 2.867493e-05 -9.729482e-06 -9.935625e-06 -8.0271935e-11 -3.232822e-09 -1.055605e-07
00000000: 4f2f 6aad bbe7 22ad c2d6 a7ad f8f1 e2ac
00000010: 36b4 a932 c4d5 b3b5 d076 77b0 fc37 9bb6
00000020: 6357 3c37 2b33 dfb2 983c 0ead 559c 8fad
00000030: 0318 71b5 e85c b837 59a1 a4ae b14d 28b1
00000040: 44b3 77b1 5d5f 88ae f18a f037 cf3b 23b7
00000050: 2fb1 26b7 1585 b0ae 6828 5eb1 80b0 e2b3

conv1.bias f4 [2]
2.2607868e-07 -3.5842493e-08
00000000: 09c0 7234 3df1 19b3

lstm.weight_ih_l0 f4 [80, 2]
3.4674988e-16 2.4568884e-16 5.331833e-13 -4.650985e-09 7.188208e-15 9.810931e-16 -3.742283e-08 1.1494236e-16
6.096518e-17 9.73289e-17 -4.9753552e-09 1.2361934e-18 2.5470446e-15 3.0133827e-14 1.7624897e-07 1.6465399e-13
-2.480552e-16 -1.3293981e-16 3.3597595e-17 1.8246596e-16 2.223922e-16 3.1237014e-15 3.005773e-10 -2.5028573e-11
6.4629835e-09 1.4087175e-12 2.966488e-16 7.877202e-15 3.918166e-18 4.873163e-18 1.5149949e-17 -2.691728e-07
2.3547779e-18 5.107431e-18 6.922379e-19 2.9136907e-10 9.074888e-18 1.5312359e-17 -7.201641e-10 2.7176226e-16
2.8157644e-16 6.2985513e-16 -3.3131197e-12 4.9227384e-07 7.740799e-17 1.2927909e-15 3.871743e-10 1.4283875e-16
6.252812e-17 9.55261e-17 1.4124327e-19 3.4974164e-18 2.5670661e-15 3.025145e-14 6.1166227e-15 1.5013453e-13
5.6659954e-19 -3.2142372e-11 3.1145587e-16 1.7993512e-16 5.790446e-16 3.281478e-15 2.6373046e-15 1.4711162e-14
-1.1701928e-09 1.00222266e-13 1.3244204e-15 -1.34286156e-08 2.1739287e-11 2.1919601e-17 2.0577372e-17 -3.7985307e-10
4.99991e-12 -2.3202117e-12 2.0330532e-18 1.6394301e-17 -3.0729347e-15 -7.945655e-08 -2.078074e-16 3.940915e-07
-1.3396256e-11 3.7654266e-07 -6.609209e-10 -3.7290344e-09 7.40288e-12 1.1706801e-10 -4.2659817e-12 -3.7166825e-11
2.0127258e-09 -1.1695397e-10 6.97216e-13 4.825624e-12 8.419561e-11 4.757077e-10 -2.3603639e-07 1.3036437e-09
-3.3784463e-08 -1.6695038e-08 -3.2888006e-10 8.609818e-07 3.1074827e-11 2.907171e-10 8.2531475e-11 -1.160141e-09
4.2965992e-11 6.0688815e-11 6.032506e-11 -5.0424915e-06 2.9323355e-09 1.7583239e-11 -8.165991e-12 1.6002577e-09
1.5050404e-12 -1.3125169e-11 7.211999e-12 1.2255659e-11 -2.1257211e-11 -3.362287e-11 1.2798977e-11 4.51056e-13
-1.2934854e-13 2.0509882e-15 -7.5248634e-11 2.6695798e-12 7.421477e-17 -1.6454596e-10 2.9803487e-16 2.4129835e-07
2.353827e-17 4.569958e-16 1.7395049e-19 1.34514e-17 1.2147393e-14 -2.850974e-09 3.3289486e-14 1.7365636e-13
5.8494206e-20 2.9964907e-18 3.4791564e-17 1.7547847e-16 5.71792e-16 3.039057e-15 2.8312625e-11 1.1705875e-14
6.0006944e-17 3.112255e-16 1.1528757e-15 3.584279e-08 1.2964436e-18 7.1479054e-09 1.5929687e-17 2.679853e-17
1.3117742e-18 1.3090917e-10 1.4092421e-07 6.846936e-13 6.3078233e-18 8.946686e-17 7.0355547e-19 -4.308321e-19
00000000: 40e3 c725 46a1 8d25 e813 162b 7fce 9fb1
00000010: c27d 0128 f263 8d26 d6ba 20b3 ff84 0425
00000020: 7e93 8c24 d86c e024 b0f3 aab1 116e b621
00000030: ae88 3727 f0b5 0729 f33e 3d34 4862 392a
00000040: 7cfe 8ea5 e844 19a5 0af1 1a24 725e 5225
00000050: 4c33 8025 1f16 6127 7f3e a52f 5627 dcad
00000060: 0111 de31 6642 c62b a301 ab25 2fe7 0d28
00000070: 088e 9022 b9c9 b322 cebb 8b23 d482 90b4
00000080: 7fc0 2d22 526e bc22 0450 4c21 8d2e a02f
00000090: f266 2723 493b 8d23 0bf5 45b0 08a9 9c25
000000a0: 5951 a225 1b8b 3526 dc23 69ac cd24 0435
000000b0: 9d7d b224 914f ba26 f0d9 d42f 8fae 2425
000000c0: 162e 9024 a844 dc24 29c0 2620 2a08 8122
000000d0: 03fa 3827 8c3d 0829 e35f dc27 5509 292a
000000e0: 0d3b 2721 185d 0dae c68a b325 7973 4f25
000000f0: f3e5 2626 9674 6c27 af09 3e27 a181 8428
00000100: 80d4 a0b0 34ae e129 7dde be26 adb3 66b2
00000110: 8638 bf2d 322c ca23 f2ca bd23 91d3 d0af
00000120: 30eb af2c 3845 23ac 4a03 1622 f335 9723
00000130: a46d 5da7 b3a1 aab3 eb95 6fa5 8693 d334
00000140: 60ab 6bad a127 ca34 2cac 35b0 ef20 80b1
00000150: 9c3b 022d b7b7 002f 8c18 96ac 2076 23ae
00000160: 3f50 0a31 9e97 00af b53f 442b 5bc9 a92c
00000170: ea25 b92e f4c2 0230 3071 7db4 e32b b330
00000180: 691a 11b3 c768 8fb2 c1cd b4af 381e 6735
00000190: 25ab 082e cbd2 9f2f 177d b52e d572 9fb0
000001a0: 68f7 3c2e c474 852e fda7 842e ac32 a9b6
000001b0: 3182 4931 efa9 9a2d 5ba8 0fad 10f0 db30
000001c0: ccd0 d32b 82e6 66ad e9bf fd2c 959a 572d
000001d0: fcfa baad fcdf 13ae 7829 612d 05ec fd2a
000001e0: 2ea2 11aa 0eca 1327 3779 a5ae e0da 3b2c
000001f0: ab20 ab24 92eb 34af 2fce ab25 cb8b 8134
00000200: 2b1a d923 57b8 0326 4f5d 4d20 7122 7823
00000210: f6d3 5a28 ddea 43b1 2aec 1529 0a85 432a
00000220: 941d 8a1f 1c1a 5d22 a172 2024 1a50 4a25
00000230: cece 2426 b5fc 5a27 5d0a f92d d2df 5228
00000240: d95d 8a24 c768 b325 9b25 a626 90f1 1933
00000250: 4152 bf21 a499 f531 e9ec 9223 3d2c f723
00000260: 6e95 c121 a8ef 0f2f f450 1734 60b9 402b
00000270: b5b7 e822 ea4b ce24 26a7 4f21 8251 fea0

lstm.weight_hh_l0 f4 [80, 20]
-7.7143473e-16 1.7122673e-07 1.0275598e-15 3.020567e-11 -6.6954705e-08 1.36399e-17 1.5738143e-14 -6.626839e-15
-3.440471e-17 2.3314667e-16 5.88463e-09 1.8939246e-15 2.3512695e-16 7.747749e-09 1.5594674e-17 8.3197385e-08
-2.7112655e-12 6.7380794e-09 -1.4396083e-16 6.663913e-18 -1.1640278e-11 -1.3308812e-09 8.76683e-13 -8.021716e-13
-7.8235893e-13 1.9293274e-14 9.890444e-12 1.9091619e-11 -4.4485168e-14 5.528446e-13 1.4506675e-12 3.4913492e-09
-1.7575763e-08 3.6748547e-12 1.0605186e-13 -5.895936e-13 6.4071666e-14 2.8359102e-13 -2.3508674e-13 9.240447e-15
-1.16352645e-07 -2.1252888e-14 -1.4951222e-07 -2.9564381e-10 -8.822037e-11 9.098073e-18 3.431759e-15 5.162775e-15
-2.4386749e-17 1.6046927e-16 -1.4562794e-11 1.1665784e-15 1.5965306e-16 3.7697214e-15 5.3630172e-17 -5.1170103e-15
2.6981493e-17 7.078746e-17 -1.0579754e-07 -1.246139e-07 1.6877695e-09 -3.1780615e-15 -3.2460017e-11 -1.0789335e-14
-1.00976e-09 1.9641566e-13 2.6677043e-16 7.778874e-16 -6.1953665e-18 3.4502246e-17 5.12528e-16 2.3575463e-16
2.2682953e-17 2.5034707e-08 1.610529e-13 -1.8821727e-17 2.1841218e-18 1.2668632e-14 -1.6980026e-17 6.6592537e-19
-1.482153e-16 -8.167023e-15 1.3571767e-16 -1.4599456e-16 -6.156567e-17 -9.2125285e-09 1.4316385e-15 -3.125437e-15
-4.3018735e-12 8.56928e-17 3.8046748e-16 4.9490033e-16 6.575333e-17 5.747699e-09 2.6131034e-17 -4.0516316e-17
-1.0102511e-14 -1.9177244e-17 -5.530901e-17 1.4645028e-18 -3.1938896e-19 -1.9282288e-17 2.8547021e-19 -9.6120714e-20
-2.5344473e-19 8.569899e-21 3.9968904e-18 4.3947932e-18 -1.8007827e-20 -1.8989125e-08 1.6773354e-08 -3.526437e-16
-5.098749e-09 -3.3766628e-10 1.240032e-16 -1.05073587e-19 2.1195647e-20 2.464915e-16 -1.0972539e-19 -4.145201e-20
-2.620495e-14 -1.4099057e-12 1.1732764e-14 -8.432224e-15 -7.35233e-15 3.9511292e-16 9.701426e-14 9.646984e-08
2.1352959e-08 6.2296817e-15 3.9072336e-14 5.727975e-14 6.235264e-15 3.0671033e-14 1.87684e-15 1.32829e-10
2.9273686e-16 3.7156697e-15 1.6902636e-07 2.9975866e-16 -1.03289346e-13 -3.0332989e-12 6.6703926e-14 -5.3314677e-09
-7.235426e-14 1.7803682e-15 1.6482673e-08 8.1661885e-13 4.9520457e-13 2.7418667e-14 -4.718735e-11 3.8928504e-13
2.725964e-14 1.4249039e-13 8.666516e-15 -1.6924869e-14 -1.08239306e-07 7.795131e-15 -2.1131763e-14 8.7899134e-16
-1.9686277e-16 -9.455295e-10 1.973323e-16 1.6967173e-13 -9.96645e-19 3.556213e-20 -4.0144755e-07 1.7361158e-17
-5.875463e-20 6.788219e-19 5.683724e-10 3.8729266e-18 8.841535e-19 2.2321777e-18 -1.7469036e-07 1.3263346e-12
6.6018816e-20 -6.8400885e-09 1.2946487e-07 2.290768e-17 7.4045456e-17 -7.903573e-14 6.412588e-17 -3.7397e-17
-4.201051e-17 1.04176925e-08 -2.147166e-15 1.801523e-15 -4.0137194e-18 4.2388424e-17 2.6815104e-16 2.565678e-16
3.499328e-17 2.984214e-16 -5.8844098e-08 3.857359e-17 1.3127611e-09 7.400211e-10 1.5101866e-16 -1.1407739e-07
-1.95903e-15 -6.245503e-14 1.6057321e-15 -1.5180964e-12 -1.1096881e-15 2.976518e-17 9.246961e-15 3.0106154e-10
-2.7471138e-08 4.5516877e-16 6.3707957e-15 7.376113e-15 -2.3000213e-07 3.0957248e-15 2.6437985e-07 -2.027434e-08
8.444375e-17 1.8962552e-16 1.5252552e-07 1.4831067e-17 -1.5426257e-14 -4.2277922e-13 -7.414893e-11 1.2050576e-15
-2.1925283e-15 1.3146646e-16 1.2371659e-08 6.4349066e-14 -2.7045614e-16 2.9094612e-15 -9.239503e-14 2.5255402e-14
3.4333873e-15 1.9559133e-14 9.158116e-16 2.8643865e-07 2.1050885e-16 9.685365e-16 3.4770327e-08 1.4903288e-17
-1.8420457e-16 2.551293e-09 1.9028652e-16 -1.0825143e-16 -6.2589256e-17 -3.2710753e-07 9.424059e-16 1.415765e-15
-8.848134e-18 4.1363355e-17 2.5423612e-16 8.0176364e-16 5.872938e-17 2.6279719e-16 1.7796758e-17 -2.4538822e-17
00000000: d659 5ea6 72da 3734 4416 9426 90d8 042e
00000010: bdc8 8fb3 9b9c 7b23 b0c1 8d28 cdc1 eea7
00000020: eaa9 1ea4 6066 8625 c131 ca31 be78 0827
00000030: 9d8a 8725 f61a 0532 e2d5 8f23 3faa b233
00000040: d1c9 3eac c684 e731 bdf9 25a5 e1da f522
00000050: 27c7 4cad 38ea b6b0 abc3 762b 8eca 61ab
00000060: e736 5cab 43c7 ad28 9afe 2d2d 81ee a72d
00000070: e857 48a9 a79c 1b2b ce29 cc2b 77ec 6f31
00000080: 83f9 96b2 264c 812c bcce ee29 b2f4 25ab
00000090: cd46 9029 c6a5 9f2a 9257 84aa 0a76 2628
000000a0: 8bdd f9b3 d36d bfa8 9b89 20b4 2b88 a2af
000000b0: a7ff c1ae 6fd4 2723 c848 7727 3202 ba27
000000c0: 95ed e0a3 2b02 3925 7f18 80ad 251f a826
000000d0: 4411 3825 8bd1 8727 5553 7724 175c b8a7
000000e0: 40dc f823 8b39 a324 d032 e3b3 9ccd 05b4
000000f0: 1cf7 e730 e300 65a7 bbc2 0eae 065d 42a8
00000100: c6c7 8ab0 f624 5d2a 5ec8 9925 f635 6026
00000110: 9591 e4a2 101d 1f24 e4b9 1326 3ee7 8725
00000120: 9c36 d123 e70b d732 5754 352a 8c99 ada3
00000130: e528 2122 c137 6428 f49c 9ca3 e68b 4421
00000140: 6fe1 2aa5 bf1f 13a8 c978 1c25 fd51 28a5
00000150: f5f5 8da4 2145 1eb2 2352 ce26 2336 61a7
00000160: d55b 97ac 1a98 c524 1753 db25 33a5 0e26
00000170: ea9d 9724 4c7d c531 2904 f123 39d9 3aa4
00000180: 9cfd 35a8 fde0 b0a3 5b11 7fa4 5a1f d821
00000190: b288 bca0 04d9 b1a3 0a83 a820 68f5 e29f
000001a0: 7c9b 95a0 7de1 211e 9075 9322 a623 a222
000001b0: 4114 aa9e 871d a3b2 ff14 9032 0649 cba5
000001c0: 1231 afb1 4ea2 b9af 49f7 0e25 1619 f89f
000001d0: ee2f c81e ba17 8e25 778a 01a0 68c0 439f
000001e0: 8008 eca8 356d c6ab d35b 5328 c5e6 17a8
000001f0: a372 04a8 60c4 e325 ea74 da29 db2a cf33
00000200: a76b b732 ac72 e027 56f7 2f29 87fb 8029
00000210: 29a6 e027 4b21 0a29 963d 0727 0a0c 122f
00000220: 56c0 a825 01df 8527 9d7d 3534 92cc ac25
00000230: 4196 e8a9 0e73 55ac 3234 9629 1630 b7b1
00000240: 64ed a2a9 ff49 0027 c895 8d32 97db 652b
00000250: 4063 0b2b 24f7 f628 3c88 4fae e325 db2a
00000260: 7388 f528 0f6e 202a 401f 1c28 1772 98a8
00000270: 3071 e8b3 b26c 0c28 8756 bea8 1d5a 7d26
00000280: a2f7 62a5 ddf3 81b0 3782 6325 8c08 3f2a
00000290: 2f14 93a1 faef 271f 8886 d7b4 e020 a023
000002a0: ffba 8a9f 555a 4821 a73b 1c30 c2e2 8e22
000002b0: 607a 8221 a5b4 2422 8592 3bb4 3daa ba2b
000002c0: ede1 9b1f 0e06 ebb1 0803 0b34 3b49 d323
000002d0: b9bc aa24 fff8 b1a9 3ddd 9324 9676 2ca4
000002e0: 42bd 41a4 7ff9 3232 39b8 1aa7 3cd0 0127
000002f0: 8214 94a2 6b7b 4324 1c94 9a25 b9e6 9325
00000300: c660 2124 3a07 ac25 c5bb 7cb3 a8e3 3124
00000310: ad6c b430 5b6a 4b30 d71c 2e25 b5fa f4b3
00000320: ba29 0da7 e0a2 8ca9 0f69 e726 30a7 d5ab
00000330: 44ec 9fa6 8644 0924 1594 2628 a582 a52f
00000340: acf9 ebb2 8731 0326 3888 e527 51e0 0428
00000350: 81f6 76b4 0b12 5f27 17f0 8d34 bf27 aeb2
00000360: cbb6 c224 939f 5a25 e5c5 2334 deca 8823
00000370: 87f2 8aa8 e800 eeaa 230e a3ae c7aa ad26
00000380: 02fd 1da7 0d92 1725 228b 5432 b6e6 9029
00000390: 48e8 9ba5 16a6 5127 1c0e d0a9 fe7a e328
000003a0: d166 7727 4a2c b028 7cfb 8326 d4c7 9934
000003b0: 3fb3 7225 b194 8b26 6156 1533 6575 8923
000003c0: 985f 54a5 d252 2f31 ab62 5b25 5e9c f9a4
000003d0: 2d52 90a4 519d afb4 a4d0 8726 8208 cc26
000003e0: 2238 23a3 3bc1 3e24 a18e 9225 b717 6726
000003f0: b56b 8724 057e 9725 6825 a423 a854 e2a3

lstm.bias_ih_l0 f4 [80]
1.1829882e-10 9.656891e-08 4.1595574e-11 4.6210657e-12 1.3831673e-11 3.710506e-14 2.4980473e-09 -1.7427372e-07
1.5683744e-07 5.199005e-07 2.1254446e-07 5.5522725e-10 1.1078526e-11 7.477083e-10 3.5674992e-12 3.2257905e-12
2.0296548e-08 6.7736474e-13 1.44556875e-11 9.017733e-15 1.76874e-10 8.404513e-08 -2.8507787e-07 6.0135104e-12
1.7722471e-11 7.3969077e-14 1.8744113e-09 -2.9263077e-07 -2.741759e-14 -3.2847655e-07 1.4090602e-10 5.0934595e-10
1.16989725e-11 2.457444e-10 9.583973e-13 7.7608545e-12 1.5906272e-13 1.6237719e-12 3.534153e-11 -4.0070205e-09
-1.2268267e-05 -0.00082284736 8.890732e-06 -2.4822773e-06 -5.3073577e-06 1.7633998e-07 2.7325863e-05 7.275465e-05
-2.5863855e-07 2.2235868e-06 2.0537835e-05 3.3873308e-05 4.4809217e-06 2.2678425e-05 1.2144134e-06 -3.6814276e-06
4.371287e-07 1.1277041e-06 -2.1111482e-06 1.059369e-07 3.7332814e-08 8.8310166e-08 6.708855e-11 1.3793742e-11
1.4434388e-11 4.0901588e-12 1.374809e-09 6.662393e-09 2.3306882e-07 1.1622408e-11 1.426118e-10 5.7314414e-10
1.13511076e-11 3.7062522e-10 1.0575828e-12 2.8758996e-12 6.760621e-08 3.5572306e-11 -1.8599852e-07 2.899065e-10
00000000: 2812 022f 5261 cf33 74f0 362e dc96 a22c
00000010: 5154 732d 391b 2729 1daa 2b31 ff1f 3bb4
00000020: 2667 2834 4a8f 0b35 c737 6434 a59e 1830
00000030: 3fe5 422d 4b87 4d30 5a0a 7b2c adfe 622c
00000040: 9558 ae32 46a9 3e2b a14e 7e2d f472 2228
00000050: 9b79 422f 4d7c b433 ce0c 99b4 e394 d32c
00000060: 75e3 9b2d 4590 a629 fece 0031 de1a 9db4
00000070: a9f4 f6a8 7959 b0b4 85ed 1a2f 0902 0c30
00000080: 7dcf 4d2d 7319 872f e7e1 862b c887 082d
00000090: b516 332a 8c86 e42b 066f 1b2e 20ae 89b1
000000a0: ced3 4db7 5ab4 57ba 6729 1537 3395 26b6
000000b0: db15 b2b6 f757 3d34 d839 e537 db93 9838
000000c0: 03db 8ab4 ee38 1536 aa48 ac37 3013 0e38
000000d0: d35a 9636 8c3d be37 edfe a235 720e 77b6
000000e0: 83ae ea34 9e5b 9735 40ad 0db6 6d7f e333
000000f0: dd57 2033 07a5 bd33 7f87 932e 7ea9 722d
00000100: b4ee 7d2d e0e8 8f2c cbf3 bc30 07eb e431
00000110: 7841 7a34 ac76 4c2d a7cd 1c2f 6f8b 1d30
00000120: d8b0 472d ddc0 cb2f 70d7 942b 9a5f 4a2c
00000130: e82e 9133 db72 1c2e e2b6 47b4 b660 9f2f

lstm.bias_hh_l0 f4 [80]
5.3107647e-11 1.6493841e-07 4.473782e-11 8.892744e-12 2.2250328e-11 -2.5924156e-09 8.942995e-08 8.497347e-09
3.7997917e-13 8.8740335e-12 8.4590973e-10 5.020405e-10 5.8719515e-11 7.513582e-09 -1.0950138e-11 3.086467e-10
1.638503e-13 1.6692642e-12 5.2307824e-12 1.3275526e-14 5.617617e-11 9.544595e-08 1.0056093e-09 6.230171e-12
1.4501352e-11 3.471273e-14 6.8320025e-09 6.573377e-09 1.6803899e-13 1.0788287e-11 1.1656154e-10 5.891889e-10
1.4481578e-11 1.1619908e-07 8.3576744e-13 4.8452297e-12 -9.576473e-10 6.521654e-13 3.4421832e-12 2.5927851e-14
-8.152889e-06 -0.0002169596 8.416163e-06 -4.7670787e-06 -4.86044e-06 2.7980238e-07 9.838269e-05 0.00018032019
-6.9525777e-07 5.57339e-06 1.1734918e-05 3.265148e-05 4.4963876e-06 2.2473734e-05 1.2465466e-06 -1.1791852e-06
4.4812887e-07 1.5720152e-06 -3.4366774e-06 1.0664265e-07 5.7851227e-11 1.0633884e-07 1.5208913e-08 1.5317764e-11
2.980544e-11 4.1793348e-07 1.6225313e-07 1.1515346e-08 1.6508131e-13 1.1127895e-11 2.6098257e-10 5.585506e-10
4.1746002e-11 2.3728838e-10 1.6297592e-12 2.9652953e-12 1.9159396e-13 3.222673e-11 -2.1367283e-08 -7.1052586e-09
00000000: e591 692e ed19 3134 4fc2 442e 5c71 1c2d
00000010: 49b7 c32d 4226 32b1 a30c c033 bafb 1132
00000020: c5e8 d52a 181d 1c2d 9b85 6830 f6ff 0930
00000030: 2620 812e 1515 0132 0aa3 40ad 29ae a92f
00000040: a27a 382a 95ed ea2b b30a b82c 8f26 6f28
00000050: bf10 772e f7f7 cc33 bb35 8a30 6434 db2c
00000060: 491c 7f2d 0e55 1c29 eebe ea31 09dc e131
00000070: f131 3d2a 20ca 3d2d 2829 002f 7cf4 2130
00000080: 3bc3 7e2d 1f89 f933 643f 6b2b f379 aa2c
00000090: 389e 83b0 7891 372b dc38 722c 8e89 e928
000000a0: 64c8 08b7 a67f 63b9 2533 0d37 e5f4 9fb6
000000b0: dd16 a3b6 bf37 9634 ce52 ce38 5514 3d39
000000c0: c0a1 3ab5 0e03 bb36 17e1 4437 42f3 0838
000000d0: addf 9636 fa85 bc37 044f a735 7f44 9eb5
000000e0: 5d96 f034 08fe d235 aba1 66b6 6b03 e533
000000f0: b16e 7e2e 655c e433 c1a4 8232 8abc 862d
00000100: f115 032e 5760 e034 cd37 2e34 07d5 4532
00000110: 73dd 392a 95c3 432d 087a 8f2f 8188 1930
00000120: d299 372e 5f73 822f 435e e52b 03aa 502c
00000130: 33b7 572a 13bc 0d2e 278b b7b2 8422 f4b1

lstm.weight_ih_l1 f4 [80, 20]
-6.7949526e-07 -2.4201969e-05 4.86887e-07 -1.8117089e-07 -2.7800405e-07 1.9279558e-08 2.9420828e-06 7.415128e-06
-3.948898e-08 1.9165974e-07 1.8471568e-06 4.393723e-06 2.834789e-07 1.1432779e-06 1.4662567e-07 -1.2442452e-07
5.67707e-08 6.585661e-08 -2.0602845e-07 7.590513e-09 -1.0711348e-06 -2.8525583e-05 6.833707e-07 -3.031497e-07
-7.4235606e-07 1.67184e-08 4.4686935e-06 5.9463528e-06 -2.586536e-08 3.2261585e-07 1.1440528e-06 3.3512063e-06
3.456777e-07 3.4443085e-06 6.134794e-08 -1.2009549e-07 3.5014338e-08 3.19987e-07 -1.7021894e-07 7.036188e-09
-1.8933684e-06 -2.4222978e-05 4.6836362e-07 -1.8238141e-07 -3.2832946e-07 1.1677973e-08 4.1011194e-06 6.558274e-06
-2.4733586e-08 2.3258278e-07 1.2620849e-06 2.1975998e-06 3.103638e-07 1.539188e-06 1.5151919e-07 -1.4461013e-07
2.211944e-08 2.4202424e-07 -1.4722825e-07 2.8456694e-07 -9.83574e-07 -2.4896246e-05 8.5687094e-07 -2.2160435e-07
-9.4476053e-07 1.5264051e-08 3.7168215e-06 9.393283e-06 -2.3398282e-08 3.7285602e-07 1.2552385e-06 1.6528822e-06
7.4347827e-07 1.1954113e-06 2.841956e-07 -1.6753965e-07 2.0919343e-08 7.447499e-08 -1.7384832e-07 5.8281406e-09
-1.6230176e-06 -3.42354e-05 4.191425e-07 -1.9776564e-07 -2.5158104e-07 1.858147e-08 4.0653904e-06 8.582304e-06
-2.2326768e-08 1.4955795e-07 8.160421e-07 1.7734745e-06 2.416181e-07 1.6147849e-06 8.485949e-08 -3.9701737e-07
2.1057264e-08 2.0023388e-07 -1.3368219e-07 5.0688835e-09 -5.061577e-07 -2.5815256e-05 4.1453896e-07 -4.1200838e-07
-3.014931e-07 -1.00640605e-07 3.5023563e-06 6.87538e-06 -2.5977034e-08 2.1174036e-07 1.0151683e-06 1.5700505e-06
4.6318144e-07 2.88712e-06 7.3875015e-08 -2.1941139e-07 2.2144743e-08 3.745596e-07 -1.8212147e-07 5.77402e-09
-9.2156694e-07 -3.3205717e-05 4.128294e-07 -1.954699e-07 -1.1681877e-08 3.0216178e-08 3.870801e-06 6.285259e-06
-5.650214e-08 4.4544774e-07 8.712407e-07 2.8846343e-06 5.035902e-07 1.8241323e-06 1.07848976e-07 -1.2053613e-07
7.3363196e-08 6.649765e-08 -1.327469e-07 4.8496687e-09 -8.862616e-07 -2.5721001e-05 4.447695e-07 -2.2207358e-07
-4.141868e-07 1.5627081e-07 3.473276e-06 6.007241e-06 -2.2746189e-08 2.0422017e-07 1.174844e-06 1.6458808e-06
6.2657057e-07 1.0739014e-06 1.1920891e-07 -1.4837471e-07 2.0981497e-08 1.294531e-07 -1.9568624e-07 6.0659557e-09
-6.3251287e-07 -3.5152472e-05 6.7936895e-07 -2.5791468e-07 -2.8771046e-07 3.777483e-10 2.976756e-06 8.804354e-06
-2.7053764e-08 2.8889227e-08 1.1870467e-06 1.7809455e-06 4.218751e-07 1.6463808e-06 7.408362e-08 -1.234117e-07
2.980993e-08 6.688569e-08 -1.5599697e-07 5.4365916e-09 -4.936188e-07 -3.1264066e-05 7.2204017e-07 -1.7332651e-07
-2.530775e-07 1.2445965e-08 4.0319005e-06 5.458767e-06 -3.6036933e-08 1.8908747e-07 2.0190284e-06 2.5645127e-06
2.1735697e-07 1.82602e-06 9.963264e-08 -1.1921269e-07 1.9079305e-07 9.30332e-08 -2.9222542e-07 1.5309439e-08
-1.2418868e-06 -2.5365518e-05 9.797634e-07 -1.7355988e-07 -9.633374e-07 1.1602916e-08 2.9420253e-06 1.2836234e-05
-3.4604014e-08 2.4397016e-07 1.5986723e-06 1.6568264e-06 1.1299942e-06 1.2992739e-06 2.46575e-07 -1.229193e-07
2.7283473e-08 7.371073e-08 -1.8190946e-07 5.0724545e-09 -1.425472e-06 -2.4182693e-05 5.2790426e-07 -2.1831595e-07
-4.965202e-07 3.0752442e-08 3.1006261e-06 1.3624948e-05 -2.5019121e-08 2.4866034e-07 1.6003272e-06 4.296438e-06
3.9284276e-07 1.1043046e-06 1.043123e-07 -8.2567624e-07 3.4358937e-08 7.581305e-08 -1.3553088e-07 5.676166e-09
-5.829302e-07 -2.4300234e-05 4.7188686e-07 -3.114061e-07 -3.3963337e-07 1.5530057e-08 3.0338815e-06 6.79133e-06
-6.770202e-08 4.8584906e-07 7.6776644e-07 2.3077318e-06 2.1942708e-07 1.8241514e-06 2.1526326e-07 -3.367998e-07
00000000: 8f66 36b5 5505 cbb7 9fb2 0235 e087 42b4
00000010: 9640 95b4 329c a532 9970 4536 77cf f836
00000020: 989a 29b3 07cb 4d34 d3eb f735 cb6d 9336
00000030: 0b31 9834 bb72 9935 2870 1d34 8d99 05b4
00000040: 0bd4 7333 0e6d 8d33 ab38 5db4 6e67 0232
00000050: e9c3 8fb5 394a efb7 e070 3735 94c0 a2b4
00000060: 5246 47b5 279c 8f32 c9f1 9536 c886 c736
00000070: 872e deb2 fc33 ad34 5b8d 9935 49e5 6036
00000080: 9595 b934 c524 6736 63be 8333 99f3 00b4
00000090: ac62 1633 aeca ab34 6dc5 36b4 f7c2 f131
000000a0: a51f feb5 7332 cbb7 6873 fb34 9fd4 43b4
000000b0: 4245 b0b4 45a0 4832 599c 8936 250f dc36
000000c0: bb75 d4b2 debb 7934 e864 a935 7a7a 1336
000000d0: 13a0 a634 1996 ce35 47b1 2234 2146 1bb4
000000e0: 2a01 be32 8fef 8134 cb15 1eb4 95c6 9834
000000f0: 5803 84b5 48d8 d0b7 b903 6635 24f2 6db4
00000100: 739b 7db5 011e 8332 826e 7936 d897 1d37
00000110: 5efd c8b2 f12c c834 ab79 a835 9ad8 dd35
00000120: 7093 4735 0572 a035 8c93 9834 f3e4 33b4
00000130: 1fb2 b332 0fef 9f33 10ab 3ab4 de40 c831
00000140: 76d6 d9b5 fb97 0fb8 8206 e134 6859 54b4
00000150: 0911 87b4 169d 9f32 7069 8836 b7fc 0f37
00000160: 15c9 bfb2 2d96 2034 fc0d 5b35 1f08 ee35
00000170: bdb7 8134 96bb d835 ff3b b633 a725 d5b4
00000180: 6ae1 b432 dfff 5634 488a 0fb4 5f2a ae31
00000190: e4de 07b5 d78d d8b7 cd8d de34 0032 ddb4
000001a0: e5dc a1b4 c21f d8b3 060a 6b36 11b3 e636
000001b0: 1a24 dfb2 bf5a 6334 eb40 8835 86ba d235
000001c0: 2cab f834 58c0 4136 38a5 9e33 5897 6bb4
000001d0: ce38 be32 1417 c934 2b8d 43b4 d164 c631
000001e0: 9961 77b5 5e46 0bb8 d7a2 dd34 5be2 51b4
000001f0: 70b1 48b2 0ac7 0133 ede1 8136 f7e5 d236
00000200: c3ac 72b3 df25 ef34 34df 6935 a495 4136
00000210: 742e 0735 b5d4 f435 9a9a e733 b86c 01b4
00000220: d88b 9d33 78cd 8e33 3189 0eb4 23a2 a631
00000230: 6fe7 6db5 6ec3 d7b7 a8c8 ee34 1f73 6eb4
00000240: 665d deb4 65cb 2734 6d16 6936 cf91 c936
00000250: 6663 c3b2 9d47 5b34 55af 9d35 09e8 dc35
00000260: 9a31 2835 f922 9035 cbff ff33 ee50 1fb4
00000270: cd3a b432 ccff 0a34 d31d 52b4 b66c d031
00000280: f4c9 29b5 ae70 13b8 e15d 3635 8677 8ab4
00000290: a076 9ab4 59ab cf2f 47c4 4736 6ab6 1337
000002a0: db63 e8b2 1528 f832 9d52 9f35 d208 ef35
000002b0: 127e e234 37f9 dc35 e717 9f33 2683 04b4
000002c0: 5d08 0033 cca2 8f33 1f80 27b4 c4cc ba31
000002d0: 3a81 04b5 8921 03b8 39d2 4135 a11b 3ab4
000002e0: b5de 87b4 efd1 5532 c349 8736 742a b736
000002f0: 07c7 1ab3 f807 4b34 a57e 0736 fe19 2c36
00000300: a162 6934 9215 f535 a0f5 d533 ef00 00b4
00000310: cbdc 4c34 8bc9 c733 28e3 9cb4 d081 8332
00000320: e8ae a6b5 09c8 d4b7 6a80 8335 c75b 3ab4
00000330: 054c 81b5 2a56 4732 9c6f 4536 355b 5737
00000340: 849f 14b3 01fb 8234 f691 d635 1f60 de35
00000350: 4eaa 9735 b662 ae35 0361 8434 cdfb 03b4
00000360: fe5c ea32 e74a 9e33 e452 43b4 c849 ae31
00000370: d852 bfb5 f0db cab7 4eb5 0d35 3b6a 6ab4
00000380: 9c48 05b5 ab14 0433 5a14 5036 b596 6437
00000390: a1e9 d6b2 9e7f 8534 d3ca d635 1f2a 9036
000003a0: e6e7 d234 9e37 9435 4b02 e033 0aa4 5db5
000003b0: 0d92 1333 aace a233 7286 11b4 1608 c331
000003c0: a97a 1cb5 5bd8 cbb7 a357 fd34 542f a7b4
000003d0: db56 b6b4 f566 8532 b099 4b36 15e1 e336
000003e0: 9463 91b3 4b6b 0235 8218 4e35 88de 1a36
000003f0: a89b 6b34 5dd5 f435 1d23 6734 69d1 b4b4

lstm.weight_hh_l1 f4 [80, 20]
-0.028949564 0.029298194 0.02896316 0.029231548 0.028972931 0.029107679 0.028965963 -0.029094297
0.028981196 0.028953522 0.029165614 -0.028938575 0.02911432 -0.028959053 0.028948387 -0.028956223
-0.028951628 -0.029269485 0.028960753 0.028952874 -0.028932642 0.029085154 0.028944697 0.029108007
0.028920872 0.02896831 0.028915795 -0.028938815 0.029305434 0.029145109 0.028961536 -0.02894611
0.028925871 -0.028942458 0.028924294 -0.02927665 -0.02895253 -0.028940115 0.02890342 0.028942643
-0.029012678 0.02889206 0.028956017 0.028950045 0.02898756 0.028952155 0.02918877 -0.028951699
0.02897533 0.028993882 0.028946865 -0.028951347 0.028970933 -0.028952615 0.028942453 -0.028976142
-0.02894219 -0.028952511 0.0289163 0.02894218 -0.028971333 0.028899405 0.028975721 0.028976936
0.028954532 0.028965544 0.029213334 -0.028977131 0.028988022 0.028953584 0.028952911 -0.028935518
0.028994389 -0.028976223 0.029224467 -0.02907524 -0.028951904 -0.028959105 0.02897273 0.029121894
-0.028943053 0.028900964 0.029012384 0.028948393 0.029217292 0.029167771 0.02893659 -0.028982388
0.028975494 0.02894373 0.029135823 -0.028962117 0.028978458 -0.029031873 0.028968163 -0.029155241
-0.028943237 -0.028939491 0.028913582 0.028951863 -0.029247513 0.028880177 0.028975265 0.028957782
0.028952762 0.029113192 0.02894722 -0.02922653 0.028985865 0.028951973 0.028956093 -0.028921017
0.029004745 -0.029118648 0.0290135 -0.028959353 -0.029082643 -0.028962862 0.028925424 0.028946213
-0.028949047 0.028881729 0.028978573 0.028953254 0.028957937 0.028980915 0.028944138 -0.029134313
0.02898104 0.028949823 0.029206766 -0.029041748 0.028950563 -0.029253012 0.028950788 -0.028977258
-0.02896725 -0.029250212 0.029233878 0.029008312 -0.029027274 0.029160907 0.028956454 0.028953422
0.028967576 0.028961897 0.0289631 -0.029039232 0.02906613 0.02894276 0.0289537 -0.028944045
0.029043693 -0.029012188 0.029281003 -0.02895132 -0.02913692 -0.028948696 0.028978042 0.028936964
-0.029042449 0.028869962 0.028932016 0.028962418 0.028930847 0.029037198 0.028912883 -0.028960124
0.0289496 0.028959904 0.028916175 -0.028913053 0.028936561 -0.028928522 0.028921995 -0.0289742
-0.028916555 -0.028932832 0.028891174 0.028918931 -0.02894942 0.02890406 0.028982738 0.028974688
0.028953949 0.028952654 0.028944325 -0.028956866 0.028988874 0.029010834 0.02915146 -0.029239776
0.028944148 -0.028965112 0.028955773 -0.028959863 -0.029003793 -0.028949376 0.029030811 0.02899144
-0.028944869 0.02891284 0.028971445 0.028954688 0.028941501 0.028951144 0.029224047 -0.02896388
0.029068258 0.028939104 0.028952831 -0.02892273 0.028942773 -0.028959509 0.028944006 -0.028952602
-0.029017491 -0.028949047 0.028928924 0.029196657 -0.02893958 0.028955387 0.028951976 0.029284025
0.028933506 0.028960025 0.028948061 -0.028959187 0.028987553 0.028974652 0.028954376 -0.029041817
0.02929201 -0.028950136 0.028966159 -0.029295433 -0.028977416 -0.028941104 0.028928464 0.028944846
-0.028964287 0.028898213 0.029056367 0.02895132 0.029136172 0.02900193 0.02902105 -0.028957767
0.02898354 0.02894167 0.028944856 -0.028916553 0.028942548 -0.028963525 0.02922792 -0.029007128
00000000: a327 edbc c402 f03c 2644 ed3c 0077 ef3c
00000010: a458 ed3c 3a73 ee3c 074a ed3c 2a57 eebc
00000020: f969 ed3c f02f ed3c baec ee3c 9710 edbc
00000030: 2881 ee3c 893b edbc 2b25 ed3c 9a35 edbc
00000040: f72b edbc 8fc6 efbc 1a3f ed3c 942e ed3c
00000050: 2604 edbc fd43 ee3c 6e1d ed3c ea73 ee3c
00000060: 77eb ec3c f34e ed3c d1e0 ec3c 1811 edbc
00000070: f311 f03c b9c1 ee3c be40 ed3c 6420 edbc
00000080: f3f5 ec3c bc18 edbc a4f2 ec3c 96d5 efbc
00000090: db2d edbc d213 edbc ddc6 ec3c 1f19 ed3c
000000a0: ffab edbc 0baf ec3c 2b35 ed3c a528 ed3c
000000b0: 5277 ed3c 122d ed3c 4a1d ef3c 1d2c edbc
000000c0: ac5d ed3c 9484 ed3c fa21 ed3c 602b edbc
000000d0: 7354 ed3c 092e edbc b918 ed3c 605f edbc
000000e0: 2c18 edbc d12d edbc e0e1 ec3c 2718 ed3c
000000f0: 4a55 edbc 72be ec3c 7e5e ed3c 0a61 ed3c
00000100: 0e32 ed3c 2649 ed3c cd50 ef3c 7361 edbc
00000110: 4a78 ed3c 1130 ed3c a82e ed3c 2e0a edbc
00000120: a485 ed3c 8b5f edbc 2668 ef3c 332f eebc
00000130: 8b2c edbc a53b edbc 3858 ed3c 0a91 ee3c
00000140: fb19 edbc b7c1 ec3c 61ab ed3c 2e25 ed3c
00000150: 1a59 ef3c 40f1 ee3c 6d0c ed3c 796c edbc
00000160: 045e ed3c 671b ed3c 40ae ee3c f641 edbc
00000170: 3b64 ed3c 40d4 edbc a44e ed3c f9d6 eebc
00000180: 5e1a edbc 8312 edbc 2ddc ec3c 752c ed3c
00000190: 7b98 efbc 1f96 ec3c 895d ed3c df38 ed3c
000001a0: 582e ed3c ca7e ee3c b822 ed3c 7a6c efbc
000001b0: c473 ed3c b02c ed3c 5435 ed3c c5eb ecbc
000001c0: 5c9b ed3c 3b8a eebc b8ad ed3c 2a3c edbc
000001d0: b93e eebc 8643 edbc 03f5 ec3c 9c20 ed3c
000001e0: 8d26 edbc 6099 ec3c 7964 ed3c 602f ed3c
000001f0: 3239 ed3c 6269 ed3c 421c ed3c 15ab eebc
00000200: a569 ed3c 2e28 ed3c 0743 ef3c f6e8 edbc
00000210: bb29 ed3c 03a4 efbc 342a ed3c b761 edbc
00000220: ba4c edbc 249e efbc e37b ef3c d7a2 ed3c
00000230: 9bca edbc dbe2 ee3c 1636 ed3c ba2f ed3c
00000240: 694d ed3c 8041 ed3c 0644 ed3c afe3 edbc
00000250: 181c ee3c 5e19 ed3c 4f30 ed3c 101c edbc
00000260: 0aed ed3c f8aa edbc b7de ef3c 522b edbc
00000270: 8db0 eebc d125 edbc 5c63 ed3c 360d ed3c
00000280: 6eea edbc b380 ec3c d602 ed3c 9842 ed3c
00000290: 6200 ed3c 6bdf ed3c b6da ec3c c83d edbc
000002a0: b627 ed3c 523d ed3c 9de1 ec3c 11db ecbc
000002b0: 5e0c ed3c 82fb ecbc d2ed ec3c 4d5b edbc
000002c0: 69e2 ecbc 8c04 edbc 2fad ec3c 65e7 ec3c
000002d0: 5627 edbc 35c8 ec3c 356d ed3c 535c ed3c
000002e0: d530 ed3c 1e2e ed3c a61c ed3c f336 edbc
000002f0: 137a ed3c 21a8 ed3c 0bcf ee3c 4188 efbc
00000300: 471c ed3c 3e48 edbc a834 ed3c 3c3d edbc
00000310: 5d99 edbc 3e27 edbc 06d2 ed3c 757f ed3c
00000320: ca1d edbc 9fda ec3c 8655 ed3c 6232 ed3c
00000330: ba16 ed3c f32a ed3c 4567 ef3c a945 edbc
00000340: 8e20 ee3c b311 ed3c 7d2e ed3c 5cef ecbc
00000350: 6519 ed3c 7e3c edbc fb1b ed3c 022e edbc
00000360: 17b6 edbc 8d26 edbc 5afc ec3c d42d ef3c
00000370: b312 edbc d933 ed3c b22c ed3c 0de5 ef3c
00000380: f605 ed3c 933d ed3c 7c24 ed3c d13b edbc
00000390: 4e77 ed3c 405c ed3c ba31 ed3c 1be9 edbc
000003a0: ccf5 ef3c d628 edbc 704a ed3c fafc efbc
000003b0: 0c62 edbc e515 edbc 63fb ec3c be1d ed3c
000003c0: 8346 edbc f2bb ec3c 9e07 ee3c 522b ed3c
000003d0: fbae ee3c 7595 ed3c 8ebd ed3c d738 edbc
000003e0: e46e ed3c 1517 ed3c c31d ed3c 68e2 ecbc
000003f0: ec18 ed3c ea44 edbc 646f ef3c 5ba0 edbc

lstm.bias_ih_l1 f4 [80]
0.04436587 0.04450075 0.04432898 0.04443752 0.04432281 0.04458228 0.04469893 0.04435887
0.04428252 0.044352036 0.044454403 0.044351045 0.044385724 0.04437612 0.044388503 0.0443781
0.044295285 0.044336334 0.04435291 0.044425078 0.08052314 0.080345705 0.0805017 0.080521844
0.08052649 0.080517806 0.08044868 0.08046816 0.08033742 0.080492035 0.0805496 0.080559455
0.08032745 0.08045489 0.08049636 0.080384746 0.080381386 0.080507405 0.080379546 0.08047462
-0.08299839 0.0832695 0.08093066 0.08731007 0.083031945 0.082997754 0.083109304 -0.08368855
0.0866091 0.08304428 0.08296864 -0.08309963 0.082998246 -0.08433556 0.08298627 -0.083217576
-0.08305484 -0.08304711 0.083189234 0.08179644 0.094878756 0.09448485 0.09499799 0.09503146
0.09494431 0.095025405 0.094895884 0.0949694 0.09505594 0.09489389 0.094860755 0.09475493
0.094915316 0.09518395 0.094876654 0.09494925 0.09487928 0.09495957 0.09394437 0.09478603
00000000: fdb8 353d 6b46 363d 4e92 353d 1e04 363d
00000010: d68b 353d e99b 363d 3a16 373d a5b1 353d
00000020: 9661 353d 7baa 353d d215 363d 71a9 353d
00000030: cecd 353d bcc3 353d b8d0 353d d0c5 353d
00000040: f96e 353d 049a 353d 66ab 353d 12f7 353d
00000050: 51e9 a43d 4a8c a43d 13de a43d a3e8 a43d
00000060: 13eb a43d 85e6 a43d 47c2 a43d 7ecc a43d
00000070: f287 a43d 02d9 a43d 30f7 a43d 5bfc a43d
00000080: b882 a43d 89c5 a43d 47db a43d c2a0 a43d
00000090: ff9e a43d 11e1 a43d 089e a43d e1cf a43d
000000a0: 0ffb a9bd 3389 aa3d f9be a53d 9fcf b23d
000000b0: a70c aa3d bafa a93d 3635 aa3d e764 abbd
000000c0: 1d60 b13d 1f13 aa3d 76eb a93d 2430 aabd
000000d0: fcfa a93d 1fb8 acbd b5f4 a93d fa6d aabd
000000e0: a818 aabd 9a14 aabd 1e5f aa3d e484 a73d
000000f0: cb4f c23d 4681 c13d 4e8e c23d db9f c23d
00000100: 2a72 c23d ae9c c23d c658 c23d 517f c23d
00000110: b0ac c23d ba57 c23d 5b46 c23d df0e c23d
00000120: f662 c23d ceef c23d b14e c23d c174 c23d
00000130: 1150 c23d 2a7a c23d e865 c03d 2e1f c23d

lstm.bias_hh_l1 f4 [80]
0.044436153 0.044380613 0.044338454 0.044358082 0.044322412 0.044342954 0.044389777 0.044335563
0.04430207 0.0444536 0.044368245 0.044581812 0.04437939 0.044376153 0.04433309 0.044284638
0.044278454 0.04433097 0.044351805 0.04435605 0.080459654 0.08055308 0.08027733 0.08050776
0.08056226 0.08060539 0.08045866 0.080442995 0.080282204 0.08045376 0.08051631 0.080548786
0.08045983 0.08045447 0.08052334 0.08046799 0.08045862 0.08047601 0.080371246 0.08049963
-0.08300977 0.08311547 0.08592081 0.077137135 0.08305898 0.082992814 0.08288907 -0.08350673
0.089182355 0.08304047 0.082969494 -0.082851216 0.08300969 -0.083656564 0.0830301 -0.08315128
-0.08306114 -0.082994595 0.08307197 0.08235023 0.09487422 0.09473962 0.094993785 0.09494232
0.09477561 0.09483327 0.0948862 0.09496781 0.095057435 0.09494895 0.09501866 0.09470798
0.09498987 0.09479626 0.09485427 0.09502444 0.094926275 0.094929196 0.09487546 0.09485678
00000000: af02 363d 72c8 353d 3d9c 353d d2b0 353d
00000010: 6b8b 353d f5a0 353d 0ed2 353d 3599 353d
00000020: 1676 353d fa14 363d 7abb 353d 6b9b 363d
00000030: 2ac7 353d c5c3 353d 9d96 353d cf63 353d
00000040: 535d 353d 6494 353d 3daa 353d b1ae 353d
00000050: 08c8 a43d 03f9 a43d 7168 a43d 41e1 a43d
00000060: d3fd a43d 7014 a53d 83c7 a43d 4cbf a43d
00000070: ff6a a43d f1c4 a43d bce5 a43d c3f6 a43d
00000080: 20c8 a43d 50c5 a43d 6ce9 a43d 67cc a43d
00000090: 7dc7 a43d 9bd0 a43d ae99 a43d fddc a43d
000000a0: 0701 aabd 7238 aa3d 40f7 af3d 13fa 9d3d
000000b0: d41a aa3d 23f8 a93d bfc1 a93d 9405 abbd
000000c0: 3da5 b63d 1f11 aa3d e9eb a93d e6ad a9bd
000000d0: fc00 aa3d 2254 abbd af0b aa3d 384b aabd
000000e0: f51b aabd 12f9 a9bd a321 aa3d 3da7 a83d
000000f0: 6a4d c23d d906 c23d 1a8c c23d 1e71 c23d
00000100: b719 c23d f237 c23d b253 c23d 7c7e c23d
00000110: 79ad c23d 9874 c23d 2599 c23d 42f6 c13d
00000120: 0d8a c23d 8b24 c23d f542 c23d 2c9c c23d
00000130: b568 c23d 3d6a c23d 114e c23d 4544 c23d

fc.weight f4 [90, 20]
-0.040094227 0.039987657 0.039834354 0.039870784 0.039864708 0.040098563 0.040039666 -0.039836425
0.03991619 0.040086947 0.040085193 -0.03961782 0.04001689 -0.04011176 0.039909557 -0.03988882
-0.04000468 -0.039585475 0.04004002 0.03999963 -0.040081464 0.04000079 0.039852083 0.040058274
0.039546635 0.039464977 0.040053364 -0.03989287 0.040099215 0.04006424 0.03988147 -0.03978733
0.040083 -0.039884474 0.03967071 -0.0400995 -0.04006221 -0.039985254 0.039656192 0.040027026
-0.039568007 0.03951784 0.040095337 0.03975613 0.039878335 0.03963622 0.039843313 -0.04008811
0.039784506 0.04000175 0.040090047 -0.039408766 0.03960505 -0.040057138 0.04000722 -0.0398042
-0.04008221 -0.03978802 0.039835252 0.04002984 -0.040160537 0.039902613 0.040389847 0.040137794
0.039938785 0.040105674 0.040228527 -0.04023638 0.040389825 0.040358048 0.040359367 -0.0400975
0.040273298 -0.04008091 0.04011431 -0.0400359 -0.04015062 -0.040001325 0.040007755 0.040278796
-0.040072665 0.039944142 0.040211953 0.03986315 0.040161584 0.03982881 0.039651908 -0.039952785
0.04010273 0.040209603 0.040209074 -0.040075917 0.039785463 -0.04004956 0.039758973 -0.040181115
-0.039927285 -0.040111095 0.04014263 0.039975956 -0.039766107 0.040029947 0.040038474 0.039969727
0.040085338 0.040096708 0.03953604 -0.040104333 0.03976261 0.040104102 0.040103626 -0.039826654
0.04006933 -0.03988322 0.040079504 -0.04003573 -0.039781276 -0.0401157 0.039869387 0.040083826
-0.040054727 0.040027834 0.040125336 0.03976539 0.039554387 0.040057313 0.039581716 -0.039887026
0.039839756 0.040103722 0.040073004 -0.039973736 0.040098052 -0.03977333 0.040022008 -0.039595734
-0.04005285 -0.040086508 0.040044688 0.04006922 -0.039986648 0.03999852 0.039927766 0.040050864
0.040057424 0.040078413 0.040052604 -0.03972659 0.039956253 0.040092107 0.040083453 -0.03990913
0.039573863 -0.040109288 0.039557464 -0.040109385 -0.039584927 -0.040095225 0.0398862 0.040071946
-0.040384255 0.039709132 0.040463287 0.04058185 0.0400623 0.040482327 0.0400424 -0.040587354
0.040270697 0.040401727 0.040463116 -0.040383313 0.040105764 -0.040400214 0.04041062 -0.040194888
-0.040240496 -0.04012647 0.04022222 0.040465306 -0.039703015 0.039740324 0.04013397 0.039812025
0.040052358 0.039958213 0.039699238 -0.03995683 0.0400672 0.039703846 0.040169243 -0.039845157
0.04000307 -0.040189575 0.03966479 -0.039812375 -0.039853536 -0.04000723 0.03981563 0.040077932
-0.039960515 0.04004504 0.040204253 0.04008388 0.040078852 0.039915513 0.03985421 -0.040466826
0.040223155 0.039958857 0.04027797 -0.040438127 0.040539563 -0.0402667 0.04007299 -0.040423118
-0.040384702 -0.04043912 0.04033345 0.040465176 -0.039982922 0.0397708 0.040122878 0.039765045
0.040073093 0.039537497 0.040015236 -0.039988853 0.04013452 0.039671797 0.039699882 -0.040026877
0.039853472 -0.040073875 0.03971144 -0.040112745 -0.039989226 -0.03985543 0.03994909 0.0400302
-0.0397541 0.040075038 0.04010587 0.039925978 0.039688572 0.040142667 0.04012043 -0.039797045
0.040084176 0.0400946 0.040127896 -0.04008002 0.039796527 -0.039868828 0.040080722 -0.03995881
00000000: d839 24bd 19ca 233d 5929 233d 8c4f 233d
00000010: 2d49 233d 643e 243d a200 243d 852b 23bd
00000020: 297f 233d 3632 243d 5f30 243d 4c46 22bd
00000030: c0e8 233d 3b4c 24bd 3478 233d 7662 23bd
00000040: f3db 23bd 6124 22bd 0101 243d a7d6 233d
00000050: 762c 24bd ded7 233d f03b 233d 2514 243d
00000060: a7fb 213d 07a6 213d ff0e 243d b566 23bd
00000070: 133f 243d 671a 243d c15a 233d 0af8 22bd
00000080: 122e 243d e75d 23bd c17d 223d 603f 24bd
00000090: 4618 24bd 94c7 23bd 886e 223d 61f3 233d
000000a0: 1012 22bd 75dd 213d 023b 243d 53d7 223d
000000b0: 7757 233d 9759 223d be32 233d 6e33 24bd
000000c0: 14f5 223d e0d8 233d 7635 243d 166b 21bd
000000d0: e838 223d f412 24bd 9cde 233d bb09 23bd
000000e0: 3e2d 24bd c3f8 22bd 4a2a 233d 54f6 233d
000000f0: 607f 24bd ec70 233d d36f 253d 8767 243d
00000100: da96 233d d945 243d abc6 243d e7ce 24bd
00000110: cd6f 253d 7b4e 253d dd4f 253d 473d 24bd
00000120: 9df5 243d e12b 24bd e74e 243d affc 23bd
00000130: fa74 24bd 6ed8 23bd 2cdf 233d 61fb 243d
00000140: 3c23 24bd 789c 233d 4ab5 243d 8b47 233d
00000150: 7980 243d 8923 233d 0a6a 223d 88a5 23bd
00000160: c342 243d d3b2 243d 45b2 243d a526 24bd
00000170: 15f6 223d 020b 24bd 4eda 223d f494 24bd
00000180: cb8a 23bd 884b 24bd 996c 243d d4bd 233d
00000190: c9e1 22bd 71f6 233d 62ff 233d 4cb7 233d
000001a0: 8630 243d 723c 243d 8bf0 213d 7144 24bd
000001b0: 1ede 223d 3344 243d b343 243d 4621 23bd
000001c0: bd1f 243d 965c 23bd 682a 243d 81fc 23bd
000001d0: b1f1 22bd 5c50 24bd 154e 233d f02e 243d
000001e0: 6d10 24bd 3af4 233d 775a 243d 09e1 223d
000001f0: c803 223d 2313 243d 7020 223d 9460 23bd
00000200: 032f 233d cd43 243d 9723 243d 80bb 23bd
00000210: db3d 243d 5ce9 22bd 1eee 233d 232f 22bd
00000220: 750e 24bd c031 24bd e605 243d 9f1f 243d
00000230: 0ac9 23bd 7dd5 233d 4c8b 233d 600c 243d
00000240: 4113 243d 4329 243d 330e 243d 59b8 22bd
00000250: 2ba9 233d 9f37 243d 8c2e 243d c277 23bd
00000260: 3418 223d a349 24bd 0207 223d bd49 24bd
00000270: ce23 22bd e43a 24bd b65f 233d 7b22 243d
00000280: f669 25bd 0ba6 223d d5bc 253d 2739 263d
00000290: 5e18 243d ccd0 253d 8003 243d ed3e 26bd
000002a0: e3f2 243d 487c 253d a7bc 253d f968 25bd
000002b0: f145 243d b27a 25bd 9b85 253d 65a3 24bd
000002c0: 38d3 24bd a75b 24bd 0ec0 243d f3be 253d
000002d0: a19f 22bd c0c6 223d 8563 243d ef11 233d
000002e0: f10d 243d 39ab 233d ab9b 223d c6a9 23bd
000002f0: 811d 243d 80a0 223d 8188 243d ad34 23bd
00000300: 42da 233d d39d 24bd 8c77 223d 4d12 23bd
00000310: 763d 23bd 9fde 23bd b715 233d c228 243d
00000320: a3ad 23bd 4506 243d 37ad 243d ff2e 243d
00000330: b929 243d 737e 233d 2b3e 233d 8bc0 25bd
00000340: 09c1 243d e6ab 233d 83fa 243d 73a2 25bd
00000350: d00c 263d b2ee 24bd 9323 243d b692 25bd
00000360: 6e6a 25bd 7ea3 25bd b034 253d d0be 253d
00000370: 22c5 23bd b5e6 223d e357 243d ace0 223d
00000380: af23 243d 12f2 213d 04e7 233d 5acb 23bd
00000390: 1864 243d e57e 223d 589c 223d 39f3 23bd
000003a0: 653d 233d 8124 24bd 77a8 223d 434d 24bd
000003b0: becb 23bd 733f 23bd a8a1 233d b5f6 233d
000003c0: 32d5 22bd b925 243d 0e46 243d 6c89 233d
000003d0: 7c90 223d a36c 243d 5255 243d 3a02 23bd
000003e0: 4e2f 243d 3c3a 243d 265d 243d f22a 24bd
000003f0: af01 233d 7f4d 23bd af2b 243d d9ab 23bd

fc.bias f4 [90]
0.062129393 0.06209586 0.061986174 0.059299313 0.060822237 0.061884716 0.062065516 0.06236769
0.057263475 0.06148131 0.0577225 0.062472858 0.06160399 0.06187409 0.061553486 0.053813636
0.061478257 0.061548736 0.059870947 0.0616103 0.060738504 0.05793953 0.05171769 0.061109126
0.054000795 0.061701246 0.057923935 0.061865136 0.05881067 0.061928403 0.05805008 0.06163084
0.06191606 0.05994063 0.06173528 0.05718411 0.062062014 0.061570197 0.061583586 0.061491225
0.04988126 0.06300076 0.0614976 0.059321273 0.061514147 0.05868205 0.06132379 0.061757762
0.055109542 0.061973598 0.06195252 0.06164618 0.06235211 0.061566 0.061809212 0.061662856
0.06209941 0.061309427 0.06194501 0.06132588 0.061876077 0.06156616 0.061430987 0.060940143
0.05951459 0.061155822 0.060980305 0.05987442 0.061783202 0.05982277 0.04695857 0.04851887
0.06172974 0.061628517 0.0615197 0.061597176 0.06128603 0.058313895 0.061609622 0.061934795
0.061555408 0.060988132 0.061102632 0.061991304 0.061720137 0.061992425 0.06166303 0.062160924
0.06173923 0.053910077
00000000: 647b 7e3d 3a58 7e3d 37e5 7d3d d6e3 723d
00000010: bd20 793d d47a 7d3d 6938 7e3d 4375 7f3d
00000020: 1b8d 6a3d d3d3 7b3d 6e6e 6c3d 8ae3 7f3d
00000030: 7754 7c3d b06f 7d3d 821f 7c3d b06b 5c3d
00000040: a0d0 7b3d 871a 7c3d 3d3b 753d 155b 7c3d
00000050: f0c8 783d 0052 6d3d eed5 533d 904d 7a3d
00000060: f02f 5d3d 72ba 7c3d a641 6d3d 4c66 7d3d
00000070: 75e3 703d a3a8 7d3d ecc5 6d3d 9f70 7c3d
00000080: b29b 7d3d 4e84 753d 22de 7c3d e339 6a3d
00000090: bd34 7e3d 0831 7c3d 123f 7c3d 39de 7b3d
000000a0: 4b50 4c3d 8b06 813d e8e4 7b3d ddfa 723d
000000b0: 42f6 7b3d 975c 703d a82e 7b3d b5f5 7c3d
000000c0: 8bba 613d 07d8 7d3d edc1 7d3d b480 7c3d
000000d0: ed64 7f3d a12c 7c3d a82b 7d3d 3192 7c3d
000000e0: f35b 7e3d 981f 7b3d 0dba 7d3d d930 7b3d
000000f0: c571 7d3d cc2c 7c3d 0f9f 7b3d 5f9c 793d
00000100: 92c5 733d 877e 7a3d 7cc6 793d e13e 753d
00000110: 6210 7d3d b908 753d a157 403d b9bb 463d
00000120: 53d8 7c3d 2f6e 7c3d 15fc 7b3d 524d 7c3d
00000130: 0f07 7b3d 8dda 6e3d 5f5a 7c3d 57af 7d3d
00000140: 8621 7c3d b1ce 793d c146 7a3d 98ea 7d3d
00000150: 41ce 7c3d c5eb 7d3d 6092 7c3d 749c 7e3d
00000160: 46e2 7c3d d0d0 5c3d
