backend/model/lstm-AREN-30-.pth (torch, 26181 bytes, 12 tensors)

conv1.weight f4 [2, 4, 3]
0	0x94e37626	-2.2967744e-26
1	0x2e8561f7	6.065542e-11
2	0x16bceae9	3.0521287e-25
3	0xa18ee004	-9.681591e-19
4	0xa026bc0c	-1.4122966e-19
5	0xa159509c	-7.3629145e-19
6	0xb1c3679e	-5.687027e-09
7	0xa1d5c8fc	-1.4486642e-18
8	0x2f5d0ff1	2.0105496e-10
9	0x364ec38d	3.0810218e-06
10	0xadd7c0db	-2.4528315e-11
11	0xa082a530	-2.2132169e-19
12	0xa1a8ab31	-1.1429437e-18
13	0x9d8bd315	-3.7011247e-21
14	0x162ded99	1.4049801e-25
15	0xb45fb33b	-2.0833697e-07
16	0x33e6891f	1.0735152e-07
17	0x213191f9	6.0163126e-19
18	0x37dbe507	2.6213484e-05
19	0x2614faf8	5.168794e-16
20	0xb79b8fa6	-1.8544331e-05
21	0x20cc956b	3.465782e-19
22	0xa0cef256	-3.5058122e-19
23	0xa9c9e6c7	-8.9662266e-14

conv1.bias f4 [2]
0	0xa1d7ea5c	-1.4631001e-18
1	0x22128ea9	1.9862213e-18

lstm.weight_ih_l0 f4 [80, 2]
0	0x96244ccf	-1.3272051e-25
1	0x16b6788e	2.9479767e-25
2	0x1d7eced7	3.3723554e-21
3	0x9a94dc8e	-6.156769e-23
4	0xaa3c386a	-1.6717327e-13
5	0x1d29ad60	2.2456597e-21
6	0x24542ccc	4.6008117e-17
7	0x9a88a5a2	-5.6515876e-23
8	0x2417e2c6	3.293499e-17
9	0xa049c198	-1.7089417e-19
10	0x9df38334	-6.4457225e-21
11	0x174c69a0	6.6049273e-25
12	0x162bf572	1.3890719e-25
13	0x177c227a	8.1469107e-25
14	0x1a7e607c	5.2603908e-23
15	0x1a9b457a	6.421874e-23
16	0x299fa5ac	7.089758e-14
17	0x1f615238	4.7713613e-20
18	0x2007c2cb	1.1499396e-19
19	0x152b125a	3.4547652e-26
20	0x18654664	2.9633094e-24
21	0x1b39ad6a	1.5358874e-22
22	0x9a2ceef9	-3.5761807e-23
23	0xaea6ffd8	-7.594253e-11
24	0x1bc9bbcc	3.3374022e-22
25	0x1ea5333e	1.7491248e-20
26	0xb2c5b405	-2.3015682e-08
27	0x27c95924	5.5885353e-15
28	0x97007693	-4.150869e-25
29	0xa9b7b05d	-8.157427e-14
30	0x989c82f7	-4.0457296e-24
31	0x21a94da9	1.1472442e-18
32	0xa15806a4	-7.3192435e-19
33	0x1ac2d91f	8.05873e-23
34	0x1ad65012	8.8637686e-23
35	0x1c439bf3	6.4721647e-22
36	0xa6de75c6	-1.5436267e-15
37	0x320925d2	7.983049e-09
38	0x33bd3b52	8.8117886e-08
39	0x163bdcfe	1.5175473e-25
40	0x158a1d6f	5.5784194e-26
41	0x1e6caf06	1.252993e-20
42	0x30868182	9.786592e-10
43	0x9aace320	-7.150447e-23
44	0x26c215ac	1.3467328e-15
45	0x166d8657	1.9187098e-25
46	0x94c3f212	-1.9785448e-26
47	0xa1028c64	-4.423152e-19
48	0x17046a41	4.278561e-25
49	0x219c320f	1.0584222e-18
50	0x320697e1	7.83436e-09
51	0x1ccffb30	1.3763041e-21
52	0x999f350a	-1.6461637e-23
53	0x178dd1ae	9.164842e-25
54	0x3396b2bf	7.017433e-08
55	0x9f46daee	-4.2109225e-20
56	0xa483c5d2	-5.7147314e-17
57	0x9bfbbae3	-4.164524e-22
58	0x96404fd3	-1.5534825e-25
59	0x16a1ff8a	2.617222e-25
60	0x19cafcac	2.0988364e-23
61	0x1b8ca2a1	2.3266154e-22
62	0xa9401aef	-4.2655925e-14
63	0x99320880	-9.204101e-24
64	0x9ca114da	-1.0659476e-21
65	0x30031f12	4.7701676e-10
66	0xb2d5f870	-2.490944e-08
67	0xa1981058	-1.0304247e-18
68	0xa023446f	-1.382928e-19
69	0xb1613e92	-3.2777376e-09
70	0x9af0e7cf	-9.963618e-23
71	0x2fda6107	3.972291e-10
72	0x9972cb1e	-1.2552126e-23
73	0xa8f6473e	-2.7342383e-14
74	0x304ef802	7.5294804e-10
75	0x32e274ef	2.6363038e-08
76	0x98762285	-3.1812183e-24
77	0x9781d4dc	-8.390163e-25
78	0x33dfdb63	1.0424153e-07
79	0x9cb605cd	-1.2045249e-21
80	0x1e1559cf	7.906566e-21
81	0x26f3e2b6	1.6922962e-15
82	0x2fc90d11	3.657097e-10
83	0xb1e8b27e	-6.772381e-09
84	0xa23d76d0	-2.5677175e-18
85	0xa3f08d1f	-2.608062e-17
86	0x208acb70	2.3512733e-19
87	0x22118842	1.9723299e-18
88	0x9f7006bf	-5.0827557e-20
89	0xa9217d34	-3.5857778e-14
90	0x229b632f	4.211785e-18
91	0x23aeb7ce	1.8942962e-17
92	0xa4bc76ac	-8.173304e-17
93	0x23826f6a	1.4141814e-17
94	0x2915cb11	3.3260778e-14
95	0x275047dc	2.8904754e-15
96	0x329c1c0f	1.817355e-08
97	0xb2a2eb65	-1.8966327e-08
98	0xa0cd319e	-3.4761185e-19
99	0xb36ff491	-5.5868956e-08
100	0xa25cff13	-2.9950595e-18
101	0xa2bbee89	-5.093901e-18
102	0xa148fc60	-6.809665e-19
103	0xa55291a5	-1.8263943e-16
104	0x2ad29f24	3.741392e-13
105	0xa68ff699	-9.989459e-16
106	0x9e9a5319	-1.6339753e-20
107	0x9ed5a810	-2.2621761e-20
108	0x24e5d136	9.9667336e-17
109	0xaa35f0e8	-1.615961e-13
110	0x29c00e08	8.528947e-14
111	0xa38fabe6	-1.5576893e-17
112	0xa00cd172	-1.1927761e-19
113	0xa9c3c4c9	-8.6938764e-14
114	0xad88f332	-1.556941e-11
115	0x2625716c	5.739959e-16
116	0xa3d54418	-2.3122345e-17
117	0x2d9734fc	1.7190242e-11
118	0xada3ce68	-1.8622617e-11
119	0x9f4f7ea0	-4.3938697e-20
120	0xac9184a2	-4.135873e-12
121	0x9c9a093d	-1.0193253e-21
122	0x1927b165	8.669522e-24
123	0x17b38c42	1.160301e-24
124	0x33897995	6.401675e-08
125	0x18e50602	5.920118e-24
126	0xa024d49b	-1.3961686e-19
127	0x9f0c1939	-2.9667017e-20
128	0x9805d043	-1.7294992e-24
129	0x19399397	9.594081e-24
130	0xa8027e87	-7.243886e-15
131	0x1b0cc177	1.164304e-22
132	0xb31c35d8	-3.637055e-08
133	0x181574c2	1.9316746e-24
134	0x1a36f4b2	3.783438e-23
135	0x1ad013e8	8.6058944e-23
136	0x9e608683	-1.1886278e-20
137	0x330789a0	3.1557306e-08
138	0x24cc8b70	8.8707114e-17
139	0x2fb59ab8	3.3033642e-10
140	0x2bd56bbf	1.5164466e-12
141	0x995faa18	-1.156318e-23
142	0x204a3120	1.712632e-19
143	0x190f26a7	7.4007325e-24
144	0x9919d8e7	-7.953718e-24
145	0x193468b2	9.326925e-24
146	0xad2a3846	-9.675876e-12
147	0x97a79f49	-1.0832331e-24
148	0x16a0037f	2.58516e-25
149	0x179aae62	9.996037e-25
150	0x31f2dea4	7.0684383e-09
151	0x9a5ba3cf	-4.5420462e-23
152	0x9b921a2c	-2.4170587e-22
153	0x2412e283	3.1850566e-17
154	0x262673cb	5.774975e-16
155	0x1bacc768	2.8583876e-22
156	0x9f93ea20	-6.264425e-20
157	0xa4d216d0	-9.111163e-17
158	0xa6e6f56b	-1.6025977e-15
159	0x2424d65c	3.57434e-17

lstm.weight_hh_l0 f4 [80, 20]
0	0x18c13bbe	4.9949655e-24
1	0xb29c2627	-1.817814e-08
2	0x9a8538fe	-5.5099587e-23
3	0x193d11c7	9.774661e-24
4	0x997fc48f	-1.3222886e-23
5	0xb3b8360d	-8.5779995e-08
6	0x97d94869	-1.4041575e-24
7	0x1f245e25	3.4806225e-20
8	0xb0c1027a	-1.4043302e-09
9	0x9cb2fe34	-1.1844762e-21
10	0x9ee5cb40	-2.433038e-20
11	0x9fc6ab0a	-8.413922e-20
12	0xa1a6c082	-1.1299554e-18
13	0xa92b4cd2	-3.803626e-14
14	0x9a01e243	-2.6859348e-23
15	0x1cde25ad	1.4700467e-21
16	0xa185a580	-9.056238e-19
17	0x2311995f	7.892943e-18
18	0x1624f5da	1.3325392e-25
19	0xa1a4a276	-1.1156075e-18
20	0x9525be49	-3.3471593e-26
21	0x18d78cb3	5.5718267e-24
22	0x962c47bc	-1.3916685e-25
23	0x1cb3591d	1.1868262e-21
24	0x99fd6377	-2.619976e-23
25	0x99c6e8b3	-2.0566707e-23
26	0x16639fa5	1.8387289e-25
27	0x1a85cb38	5.533583e-23
28	0x1e0c3381	7.422189e-21
29	0x1f56e23e	4.5503406e-20
30	0xaf0e3d92	-1.2936699e-10
31	0xb2f7b33e	-2.8836094e-08
32	0x29859df6	5.9337883e-14
33	0xb31e06f6	-3.6793573e-08
34	0x19b9f786	1.9228526e-23
35	0x21aadad1	1.1577568e-18
36	0x9e645f7b	-1.2089964e-20
37	0x33f6d25e	1.1493533e-07
38	0x16f54e11	3.9631152e-25
39	0x207277eb	2.0537875e-19
40	0xa4b24d3f	-7.7326055e-17
41	0x192be9f0	8.887736e-24
42	0x97db5df4	-1.417626e-24
43	0x155770cf	4.3507895e-26
44	0x984461a6	-2.5381706e-24
45	0x2687beef	9.419259e-16
46	0x231aeef9	8.398961e-18
47	0xa99298b6	-6.5101936e-14
48	0x9757968a	-6.9660254e-25
49	0x338d4166	6.57772e-08
50	0x168a7c39	2.2373498e-25
51	0xa0d4260a	-3.593937e-19
52	0x2e83d86e	5.995636e-11
53	0x1455364c	1.076446e-26
54	0x9bd968ca	-3.5967357e-22
55	0xaf75c8be	-2.2353938e-10
56	0xa145952b	-6.694362e-19
57	0x1d8cd9df	3.7282965e-21
58	0xa4a702bc	-7.242934e-17
59	0x96c51dfd	-3.1845992e-25
60	0x15207c00	3.240956e-26
61	0x962b0935	-1.3816175e-25
62	0x97352067	-5.852515e-25
63	0x1a97d008	6.278823e-23
64	0x16281dcd	1.3580335e-25
65	0x972a602d	-5.5051353e-25
66	0xadb351ce	-2.0386273e-11
67	0x17118957	4.7025374e-25
68	0x1b8775dc	2.2410041e-22
69	0xacb3676c	-5.098968e-12
70	0xb3404f00	-4.4775334e-08
71	0xa6fcf72d	-1.755301e-15
72	0x293c1fed	4.1772077e-14
73	0xb0217c33	-5.8747956e-10
74	0x18a8bb8c	4.3616356e-24
75	0x95c032b2	-7.7628166e-26
76	0xb23b7cde	-1.0913224e-08
77	0x9539a44c	-3.749006e-26
78	0xac83837c	-3.7378416e-12
79	0x2421fdd6	3.5126317e-17
80	0x230df2b9	7.695024e-18
81	0x18799796	3.2259027e-24
82	0xb261d31a	-1.3144723e-08
83	0x288bc0ef	1.5515772e-14
84	0xaea67b0b	-7.570663e-11
85	0x17e2962e	1.4642818e-24
86	0xb12cdbe7	-2.5154294e-09
87	0x175191ad	6.771541e-25
88	0xb2b495c6	-2.1022867e-08
89	0xa47c8729	-5.4758275e-17
90	0x9897d9e3	-3.9252595e-24
91	0xb196902e	-4.381966e-09
92	0x188a8690	3.5808037e-24
93	0x9c0aa158	-4.58689e-22
94	0x9a688bbd	-4.8089355e-23
95	0x165f386c	1.80316e-25
96	0x19831a9d	1.3555832e-23
97	0x332750e1	3.8956276e-08
98	0x1d8b548b	3.688041e-21
99	0x9925a84a	-8.564286e-24
100	0x2e78e3e9	5.6591096e-11
101	0x9b1134ba	-1.2011156e-22
102	0x9c4b3bc8	-6.724433e-22
103	0x9985ae6c	-1.3822326e-23
104	0x9b8b7c26	-2.307585e-22
105	0x17377c19	5.928712e-25
106	0x15f778c4	9.995304e-26
107	0xa9b9f5d4	-8.258295e-14
108	0x2d17f02d	8.636686e-12
109	0x2f9cfe5b	2.8556965e-10
110	0x9e6d457f	-1.2561047e-20
111	0x97daa18d	-1.4128701e-24
112	0xaf984368	-2.7696534e-10
113	0x1ab62f8f	7.535027e-23
114	0x179ada32	1.0007097e-24
115	0xb2b36e0d	-2.0888388e-08
116	0x985561f4	-2.7579058e-24
117	0xa99e544e	-7.031234e-14
118	0x33c2f92e	9.0791545e-08
119	0x29044478	2.9369275e-14
120	0x181adbd3	2.0015016e-24
121	0x19a3e54d	1.6946419e-23
122	0x96913467	-2.3459084e-25
123	0x2fa3fcda	2.982919e-10
124	0x1b94037b	2.4486795e-22
125	0xa319dcee	-8.34093e-18
126	0x1ca6a82d	1.1028431e-21
127	0x172e1b92	5.625723e-25
128	0x197e67ff	1.3152494e-23
129	0x1cb741cd	1.2126933e-21
130	0x951a72a8	-3.11905e-26
131	0x30cd43bd	1.4934965e-09
132	0x15254fc1	3.33844e-26
133	0xa4f9ddfc	-1.0836259e-16
134	0x2f3dbacc	1.7255813e-10
135	0x32787c47	1.4463757e-08
136	0xa663cc9f	-7.903376e-16
137	0xa8b852f6	-2.0464082e-14
138	0x1d3cd129	2.4989726e-21
139	0x18d76101	5.5674146e-24
140	0x23123837	7.92658e-18
141	0x99ecdea2	-2.4491749e-23
142	0x206e01f0	2.0160025e-19
143	0xaee3294e	-1.0330102e-10
144	0x9d692e8f	-3.0861363e-21
145	0x9745d85b	-6.392721e-25
146	0xa9c6ae27	-8.823177e-14
147	0x1ffec391	1.0789672e-19
148	0xa984728c	-5.881848e-14
149	0x178b5649	9.004446e-25
150	0x17930e14	9.503206e-25
151	0x193fb4ee	9.911007e-24
152	0x9ab284e9	-7.38338e-23
153	0x3339e260	4.3279556e-08
154	0x19e6aed4	2.3852055e-23
155	0x1f0bc7b4	2.9599585e-20
156	0x9954aff8	-1.099568e-23
157	0xb0cf5a16	-1.5086836e-09
158	0x9631ce42	-1.436303e-25
159	0x9a8b27a5	-5.75531e-23
160	0x1f3fcb4e	4.0613993e-20
161	0x9967746d	-1.1965932e-23
162	0xa5f673b2	-4.2752596e-16
163	0x2313118d	7.9726025e-18
164	0x1b8ca78a	2.3269327e-22
165	0x17acd2db	1.1168467e-24
166	0x9fb6f57a	-7.7486105e-20
167	0x9f555dd4	-4.5182117e-20
168	0xadf15233	-2.7435032e-11
169	0x96949568	-2.4004978e-25
170	0xb0a7977b	-1.2193903e-09
171	0xb2dd6e9f	-2.577809e-08
172	0x26acadbd	1.1981989e-15
173	0xae73f6e5	-5.547109e-11
174	0x98a1b620	-4.1801424e-24
175	0x2759fc3e	3.025154e-15
176	0x17215540	5.2129506e-25
177	0x1c6ff652	7.939683e-22
178	0x94310552	-8.9372656e-27
179	0x9e63102a	-1.20206226e-20
180	0xa19a0ade	-1.0438322e-18
181	0x311902bd	2.2265987e-09
182	0x17b99d90	1.1995119e-24
183	0x206afe6e	1.9904755e-19
184	0x9e6453e1	-1.2087565e-20
185	0x9f47707d	-4.2232937e-20
186	0x96eaf13b	-3.7956977e-25
187	0x9911c5df	-7.536284e-24
188	0x1c84ab53	8.779314e-22
189	0x33883539	6.342675e-08
190	0xaf2be689	-1.5634262e-10
191	0x981873b0	-1.9703947e-24
192	0x9cff263b	-1.6884367e-21
193	0x95c78bae	-8.0595836e-26
194	0x97551a1d	-6.885697e-25
195	0xa554372c	-1.8406762e-16
196	0x97259dd3	-5.351358e-25
197	0x976d2a2c	-7.663206e-25
198	0x1b81998b	2.1440485e-22
199	0x326503ba	1.3330402e-08
200	0x20ee2274	4.0341567e-19
201	0x25a8065d	2.9147666e-16
202	0x995057e2	-1.0771096e-23
203	0x16b65ea8	2.9463422e-25
204	0x97758f8f	-7.9344966e-25
205	0xa30c8aad	-7.618781e-18
206	0xa6cb35dd	-1.4100554e-15
207	0x98867696	-3.475793e-24
208	0x182b63f2	2.2151691e-24
209	0xaf731d42	-2.2111116e-10
210	0x19bf27a7	1.9764953e-23
211	0x983db9cd	-2.4521483e-24
212	0x3350b47c	4.8592923e-08
213	0x2b23f374	5.824709e-13
214	0x306fc927	8.723355e-10
215	0x97748a6e	-7.9015375e-25
216	0xa492c0c5	-6.364397e-17
217	0x999e5782	-1.6372161e-23
218	0xa63ccd76	-6.5504054e-16
219	0x1623df10	1.3237421e-25
220	0xa3162dee	-8.141242e-18
221	0x1b4127f4	1.5977495e-22
222	0x166ccd65	1.9128739e-25
223	0x9a363782	-3.7681557e-23
224	0xa30ba585	-7.570255e-18
225	0x9d8f341f	-3.7905677e-21
226	0xa95438e9	-4.7122818e-14
227	0xb32b6a46	-3.9910695e-08
228	0xa03e8c80	-1.6140114e-19
229	0xa6f0ab6a	-1.6699807e-15
230	0xae5a7445	-4.967073e-11
231	0x20505431	1.7646142e-19
232	0xb3099973	-3.203736e-08
233	0x1d5f2f6c	2.953832e-21
234	0x1711c6b1	4.710281e-25
235	0x9635f1f4	-1.469741e-25
236	0x311ad0d8	2.2528663e-09
237	0x23d27e0a	2.2821625e-17
238	0x16a58712	2.674243e-25
239	0x323d34ea	1.1013279e-08
240	0x1b68d8eb	1.926068e-22
241	0x99839b65	-1.3607846e-23
242	0x2f296f18	1.5409929e-10
243	0x2d5ab481	1.2431945e-11
244	0x27015dc6	1.795318e-15
245	0x9744f3ca	-6.363872e-25
246	0x306ba25b	8.5723223e-10
247	0x30c9917a	1.4666022e-09
248	0x1a32f4fc	3.7007434e-23
249	0x958df1cf	-5.7330953e-26
250	0x27293592	2.3482502e-15
251	0x9657b4fc	-1.742467e-25
252	0xb38953d5	-6.3948086e-08
253	0x9cd9fa58	-1.4424568e-21
254	0x96b19ed8	-2.8696137e-25
255	0x30ff653a	1.8582462e-09

lstm.bias_ih_l0 f4 [80]
0	0x214e7cbd	6.9960605e-19
1	0x24c79ef0	8.6571744e-17
2	0xae9d15b0	-7.143386e-11
3	0x2046f807	1.6853318e-19
4	0xaee63bf2	-1.04698375e-10
5	0x2709d8d6	1.9130116e-15
6	0x1aa8ece9	6.986592e-23
7	0x22a30e9f	4.419672e-18
8	0xa4a3a934	-7.097662e-17
9	0x99f97e74	-2.579707e-23
10	0xb09738d5	-1.1002849e-09
11	0x9f86c542	-5.707754e-20
12	0x1fe989cb	9.89073e-20
13	0x31c19a39	5.6345724e-09
14	0x2d8a28f5	1.5706972e-11
15	0x31b6cedb	5.320414e-09
16	0xace27c0f	-6.4370796e-12
17	0x25bef7c4	3.3127639e-16
18	0x1d601792	2.9658339e-21
19	0x999ab429	-1.5995993e-23
20	0xb42e636d	-1.6241184e-07
21	0x2aa0a936	2.8539123e-13
22	0x1b9298c0	2.4252386e-22
23	0xb3224bf2	-3.7787636e-08
24	0x9e2d34da	-9.169473e-21
25	0x1cee1d3a	1.5757074e-21
26	0x1ae7b8ea	9.5838106e-23
27	0xb1a33806	-4.7502935e-09
28	0x2f2dbfb1	1.5802361e-10
29	0x33721551	5.6364403e-08
30	0xb38253f4	-6.068868e-08
31	0x2698f94b	1.061469e-15
32	0x21b1bf2e	1.2044591e-18
33	0x20758541	2.0796397e-19
34	0x9c861dee	-8.875113e-22
35	0x270b4f31	1.9333055e-15
36	0x9b240c48	-1.356973e-22
37	0xa93159d1	-3.93798e-14
38	0xaaa0fa16	-2.8595241e-13
39	0x196181c9	1.1658437e-23
40	0x29067ae4	2.9860568e-14
41	0xad1a5350	-8.772386e-12
42	0xac8ae1be	-3.9472583e-12
43	0x2ad4ca74	3.7799245e-13
44	0xb16fa7ba	-3.487442e-09
45	0x2d114bad	8.259099e-12
46	0x2c07c15c	1.929199e-12
47	0x3264686f	1.3295092e-08
48	0xaec8379e	-9.1048266e-11
49	0xacc58d2b	-5.6147496e-12
50	0xabf2a70c	-1.7241499e-12
51	0xac480db5	-2.8429318e-12
52	0xb056f202	-7.819666e-10
53	0xa90d8853	-3.1426532e-14
54	0x2de8e75a	2.6478087e-11
55	0xacbe2780	-5.40451e-12
56	0xaae6a0d4	-4.0967804e-13
57	0x35adb76f	1.2942891e-06
58	0xae92dba4	-6.678327e-11
59	0xa7e3af97	-6.319553e-15
60	0x195d4cbe	1.144093e-23
61	0xa14d4411	-6.9546787e-19
62	0x9a6e77da	-4.9314062e-23
63	0xad48d7cf	-1.1416603e-11
64	0x9c7163d1	-7.986922e-22
65	0x2131339c	6.0038237e-19
66	0xa1394c1a	-6.278116e-19
67	0x315dbb8b	3.2266338e-09
68	0xa51a4cd5	-1.3383402e-16
69	0x99abba99	-1.7756352e-23
70	0x1ead96a3	1.837939e-20
71	0x1f00ef38	2.730293e-20
72	0xa6879816	-9.40873e-16
73	0xa9c9a7b1	-8.955283e-14
74	0x1f446636	4.158916e-20
75	0xb1227705	-2.3641757e-09
76	0x1cd05f2f	1.378889e-21
77	0x2511481d	1.2601178e-16
78	0x28c9cd2e	2.2404465e-14
79	0x2eeb5a62	1.0702618e-10

lstm.bias_hh_l0 f4 [80]
0	0x20fe7ae1	4.3110588e-19
1	0xa117d65c	-5.144449e-19
2	0xa16fa6b8	-8.1197e-19
3	0x1b0f49f6	1.1852581e-22
4	0x1c4f45e6	6.8580896e-22
5	0x299907d8	6.7959256e-14
6	0x1b2854d4	1.3924044e-22
7	0x251ae988	1.3436494e-16
8	0xa4c2f9fe	-8.455759e-17
9	0x992d5373	-8.960743e-24
10	0x32d26524	2.4493211e-08
11	0x1ff6f7ea	1.0459519e-19
12	0x200d999f	1.1993994e-19
13	0x9d3a9436	-2.4693518e-21
14	0x1b5138ab	1.7306385e-22
15	0x2e8ca5c0	6.395906e-11
16	0x1b031c01	1.0845115e-22
17	0x2542912b	1.6876003e-16
18	0xa6c5d26b	-1.3726655e-15
19	0x17ac1bbd	1.1122242e-24
20	0x2e8bc71c	6.356357e-11
21	0x24b82915	7.9866876e-17
22	0x2240677b	2.6075634e-18
23	0x1b9a96d8	2.5574643e-22
24	0x1d28f370	2.236047e-21
25	0x9b9fd8ed	-2.6444528e-22
26	0x338932a9	6.388775e-08
27	0xa40e6d0e	-3.0883715e-17
28	0xa49d5a7f	-6.82412e-17
29	0x2e2a73f9	3.875653e-11
30	0x2a855df6	2.3690744e-13
31	0x1e60cecf	1.1901228e-20
32	0xb423578a	-1.5212404e-07
33	0x1980ed62	1.3330768e-23
34	0x1bc90f6d	3.326263e-22
35	0xb2f22706	-2.8190254e-08
36	0xb16e38de	-3.4665883e-09
37	0x2536acd8	1.5844545e-16
38	0xa4c15cfb	-8.385792e-17
39	0xabf8b620	-1.767201e-12
40	0x2929187c	3.7546775e-14
41	0x34622c41	2.106399e-07
42	0xac4c0e2c	-2.899801e-12
43	0x2a9b4d94	2.7587362e-13
44	0xa9854a6e	-5.919298e-14
45	0x2cd74bfa	6.1191026e-12
46	0x2c90f7ba	4.1202293e-12
47	0x320cf98c	8.205813e-09
48	0x36048d64	1.9751833e-06
49	0xac48df09	-2.8545519e-12
50	0xb132122a	-2.5912734e-09
51	0xb009712b	-5.000113e-10
52	0xaf615196	-2.0492616e-10
53	0xa8b609ec	-2.0210362e-14
54	0x2cd77cb4	6.1245124e-12
55	0xaca063de	-4.558561e-12
56	0xab1e9131	-5.633437e-13
57	0x2f4ca3bd	1.8611863e-10
58	0xaecbd869	-9.2698134e-11
59	0xa6d0bdda	-1.4484359e-15
60	0x189dead5	4.082067e-24
61	0xa12e35eb	-5.9024853e-19
62	0x1a307893	3.6493346e-23
63	0xaae50596	-4.0682448e-13
64	0x1db5f485	4.816313e-21
65	0x9bb29fb5	-2.9550838e-22
66	0x9cadb637	-1.1495281e-21
67	0x28dfd4b2	2.4850215e-14
68	0xa46f65c4	-5.1911063e-17
69	0x1c7fb256	8.4602916e-22
70	0xb41584d1	-1.3925025e-07
71	0x33e7d6b7	1.0795832e-07
72	0x20226517	1.3755382e-19
73	0x21ff7dbf	1.7312757e-18
74	0x2ba61f98	1.1803778e-12
75	0x99cda0c2	-2.1261433e-23
76	0x312cd330	2.514934e-09
77	0x24f84c2b	1.0768189e-16
78	0x1e00f0ba	6.826045e-21
79	0x98c38c9f	-5.054831e-24

lstm.weight_ih_l1 f4 [80, 20]
0	0x9c41a231	-6.406797e-22
1	0x248f3d14	6.2119835e-17
2	0x2e0d944c	3.2191402e-11
3	0x9b2c65a0	-1.4260343e-22
4	0xa1f8c54a	-1.6857356e-18
5	0x1da654ef	4.4027653e-21
6	0xa90c2177	-3.111527e-14
7	0x231a4bd7	8.3644164e-18
8	0x26242285	5.6945713e-16
9	0x9d30712c	-2.3351915e-21
10	0xa14ab15e	-6.8675006e-19
11	0xa08204f6	-2.202614e-19
12	0xa002663c	-1.1045255e-19
13	0x337a0eb1	5.8221023e-08
14	0xae9c3df4	-7.105064e-11
15	0x2ec06064	8.7482716e-11
16	0x9b610bbc	-1.8615355e-22
17	0x27409f99	2.673187e-15
18	0x9fa03eb7	-6.786639e-20
19	0xa7022d68	-1.8065739e-15
20	0x1eb45fe7	1.9097906e-20
21	0x26d8b5a4	1.5037245e-15
22	0x9fc1e923	-8.212437e-20
23	0xa4d9f64a	-9.452598e-17
24	0xa413ec25	-3.2075566e-17
25	0xa013112f	-1.245707e-19
26	0x1f04c1f9	2.8112538e-20
27	0x250f5cce	1.2434716e-16
28	0x31cbcd42	5.9314127e-09
29	0xa65f1aaa	-7.7404804e-16
30	0xaeb7d301	-8.359358e-11
31	0xa26e616f	-3.2306596e-18
32	0x28c9aae5	2.2389596e-14
33	0x2023ea76	1.3884214e-19
34	0xad640fa3	-1.29637715e-11
35	0x2f87c5b3	2.469683e-10
36	0xafec785b	-4.3013668e-10
37	0x28a456de	1.824533e-14
38	0x2f69a18c	2.124862e-10
39	0xaf0b83e8	-1.2688839e-10
40	0x9afd8d8f	-1.0486705e-22
41	0x2118b27e	5.1735836e-19
42	0x1c0a6968	4.5796604e-22
43	0x1b2c095d	1.4230532e-22
44	0x9cdd25aa	-1.4634289e-21
45	0x1d0e5938	1.8839669e-21
46	0x1948138e	1.0343707e-23
47	0x1f6a7e89	4.9656095e-20
48	0x22a2e4ba	4.415236e-18
49	0xa1a46efc	-1.114245e-18
50	0x1e64a459	1.2104206e-20
51	0x9db4154b	-4.766762e-21
52	0x2cedfd1c	6.764046e-12
53	0x9bde7f8b	-3.6809242e-22
54	0x9cdebcc6	-1.4739524e-21
55	0x3411858b	1.355276e-07
56	0x9efcbc10	-2.6759319e-20
57	0x221b314b	2.1032513e-18
58	0xa6977061	-1.050819e-15
59	0x9b191c92	-1.2665095e-22
60	0x1f53d005	4.4853058e-20
61	0xb0546126	-7.7263207e-10
62	0x9f0bdbf4	-2.9616336e-20
63	0x22e06a15	6.082764e-18
64	0xb173e6bc	-3.5492311e-09
65	0x1fa87e4d	7.1359715e-20
66	0x24d26916	9.1251005e-17
67	0x2d556aeb	1.2131389e-11
68	0x27ce78c6	5.730743e-15
69	0xb2e9bd01	-2.7210719e-08
70	0xa377822d	-1.3417463e-17
71	0xa9c62f83	-8.801208e-14
72	0xa583a7d2	-2.2838597e-16
73	0xb23baef5	-1.0924613e-08
74	0x200d3536	1.196077e-19
75	0x9f4ef3b0	-4.382377e-20
76	0x9d8c03a3	-3.706145e-21
77	0x31e13d2f	6.5553176e-09
78	0xa135f0f9	-6.164411e-19
79	0xb3033f2f	-3.055828e-08
80	0x1f73689c	5.1543782e-20
81	0x2a929b64	2.6042634e-13
82	0xa3cdf6a4	-2.2330601e-17
83	0x215b81c8	7.437185e-19
84	0xa789c8b1	-3.824273e-15
85	0x2f1ce50d	1.4269493e-10
86	0x23539c38	1.14714135e-17
87	0x28b3248f	1.9888847e-14
88	0x2c95804f	4.24908e-12
89	0x2268b718	3.1538792e-18
90	0xa72c30e2	-2.3896294e-15
91	0x32a1c4c9	1.8832354e-08
92	0xa6e71083	-1.603332e-15
93	0xae74f0ff	-5.5693224e-11
94	0x243c586f	4.0840908e-17
95	0xb23f5d2a	-1.1138846e-08
96	0xa21b655c	-2.1060076e-18
97	0x2c73c5c7	3.4642165e-12
98	0xa588abfe	-2.3708786e-16
99	0x2f603f3a	2.0395144e-10
100	0x201fce31	1.3536047e-19
101	0x2ae9cb86	4.1530337e-13
102	0x21811921	8.748032e-19
103	0x221a1e82	2.0887043e-18
104	0xa84da815	-1.1416233e-14
105	0x2453aee1	4.590146e-17
106	0x2308ce69	7.416284e-18
107	0x295a3f9b	4.8460893e-14
108	0x2c5804a7	3.0698029e-12
109	0x2d3ed02e	1.0846475e-11
110	0xa7cac581	-5.6280397e-15
111	0xa6425235	-6.741868e-16
112	0xa702a89e	-1.8132532e-15
113	0xb082fd0b	-9.530664e-10
114	0x242ea256	3.786774e-17
115	0xa3b9e25c	-2.0153607e-17
116	0xa22eeae9	-2.3705758e-18
117	0x2c0e0693	2.0183063e-12
118	0xa5cbe914	-3.5372826e-16
119	0x2b0be787	4.970403e-13
120	0x1cc5955c	1.3074975e-21
121	0x273d653e	2.6283902e-15
122	0x26db2636	1.5206535e-15
123	0x1e869866	1.4250832e-20
124	0xb39102b8	-6.752583e-08
125	0xa6c95e4d	-1.3972737e-15
126	0x1f742821	5.1702204e-20
127	0x302ffefb	6.402698e-10
128	0x2ff3bb99	4.433474e-10
129	0xa01169d2	-1.2316991e-19
130	0xa49bb39a	-6.752479e-17
131	0xb12b7416	-2.4949762e-09
132	0xa348d501	-1.0887127e-17
133	0xb1d5f088	-6.226461e-09
134	0x2105c213	4.531901e-19
135	0xa0305caf	-1.4938446e-19
136	0x9e9ec655	-1.6810929e-20
137	0x2e4b9416	4.6288383e-11
138	0xa546decf	-1.7249253e-16
139	0x9c0d7022	-4.6797915e-22
140	0x1b5a6290	1.8064385e-22
141	0x265aeb9d	7.595326e-16
142	0xadad8fad	-1.9731628e-11
143	0xa0c05a3d	-3.258578e-19
144	0xb40addfb	-1.2933008e-07
145	0x1f586b9e	4.5828798e-20
146	0xa4243e7b	-3.5614754e-17
147	0x250a2feb	1.1985827e-16
148	0x33356501	4.223421e-08
149	0xb4272f78	-1.5570356e-07
150	0xafb85572	-3.3530118e-10
151	0x2ce6df9d	6.5618192e-12
152	0x309b5a98	1.1303483e-09
153	0x2e187520	3.4664827e-11
154	0x9cccdca0	-1.3556618e-21
155	0x9f2fd89e	-3.7236873e-20
156	0x3291a787	1.6956404e-08
157	0x27f937c6	6.9171853e-15
158	0xa1294213	-5.7346876e-19
159	0xafef67f9	-4.3547724e-10
160	0xa4649002	-4.95616e-17
161	0xae3fa9b4	-4.35791e-11
162	0x24cb3983	8.8134645e-17
163	0x1ce44869	1.5106492e-21
164	0xb0c41867	-1.4267812e-09
165	0xa61682d9	-5.2219036e-16
166	0xac95a438	-4.2530666e-12
167	0xb20331f6	-7.636563e-09
168	0x2746a6b1	2.7568383e-15
169	0x204e2226	1.7460177e-19
170	0xa21010db	-1.9524562e-18
171	0xa0960b1a	-2.5418335e-19
172	0x2b97976c	1.0771223e-12
173	0x9cdbb4f7	-1.4538983e-21
174	0x1e876810	1.433672e-20
175	0x9e9d8a1b	-1.668014e-20
176	0x34266f63	1.5500477e-07
177	0xa9fe6e8c	-1.1299043e-13
178	0xa4d79f6f	-9.351148e-17
179	0xb264c3bd	-1.3315852e-08
180	0x1b4d1409	1.6963676e-22
181	0x2602c40a	4.5368493e-16
182	0x9ebd0647	-2.001375e-20
183	0x218d4bc8	9.574591e-19
184	0xaf1fedd0	-1.4545454e-10
185	0x9dc64b5e	-5.248809e-21
186	0x3219a2f8	8.942827e-09
187	0x2452a5ba	4.5676867e-17
188	0x280b356b	7.727633e-15
189	0x9e764931	-1.3038267e-20
190	0xa9bd87be	-8.4168336e-14
191	0xaeca6cdd	-9.2052345e-11
192	0x2bd751e8	1.5299402e-12
193	0x1cededb2	1.5744787e-21
194	0x24a801e9	7.286162e-17
195	0x9fc6e8cb	-8.4241385e-20
196	0x31fd0e74	7.3649122e-09
197	0x2708cc08	1.8984397e-15
198	0x32f35d63	2.833139e-08
199	0x9d21d2c1	-2.141713e-21
200	0xabc55f7b	-1.4024193e-12
201	0x2a308f3c	1.5681635e-13
202	0x9e2b3072	-9.062683e-21
203	0x2fa3f62b	2.982444e-10
204	0xb40bab98	-1.3007809e-07
205	0xaf802847	-2.3311683e-10
206	0x1eecc71c	2.5069822e-20
207	0x24039adf	2.8537278e-17
208	0x27b77981	5.092444e-15
209	0x9ea49afc	-1.7428275e-20
210	0xa8904996	-1.6019124e-14
211	0xa8ffc438	-2.8395783e-14
212	0xa205506a	-1.8067432e-18
213	0xafaadb77	-3.107876e-10
214	0x3108bf1e	1.9899242e-09
215	0xb303bc5a	-3.067212e-08
216	0xb2c711b4	-2.31747e-08
217	0x2c46279a	2.8159476e-12
218	0xa09aa913	-2.62005e-19
219	0xaf06bce1	-1.2254332e-10
220	0x1e59cb7d	1.1529965e-20
221	0x2956b917	4.7678085e-14
222	0xa20a6c85	-1.8759937e-18
223	0x208ba2fc	2.365537e-19
224	0xa72a6734	-2.3648186e-15
225	0x22928cf1	3.9722607e-18
226	0x21b0b5dd	1.1974363e-18
227	0x30774e86	8.9969665e-10
228	0x2ad00e65	3.695821e-13
229	0xa1dbc5df	-1.4892393e-18
230	0x2c3a1e1a	2.64489e-12
231	0x2925f4a4	3.6849552e-14
232	0xa5c8c6a8	-3.4829084e-16
233	0x9e593b22	-1.1500113e-20
234	0x23079a40	7.351028e-18
235	0xa2608d9b	-3.0432626e-18
236	0x33c00de5	8.943224e-08
237	0x2a9c5a60	2.7773877e-13
238	0xa42e9df9	-3.7864044e-17
239	0x24db59b6	9.5128087e-17
240	0x20767466	2.0875524e-19
241	0x2b0d9de6	5.031239e-13
242	0xa441c316	-4.2015448e-17
243	0x225167db	2.8379762e-18
244	0xb3131100	-3.4241566e-08
245	0x246ebb64	5.176675e-17
246	0x2447b4a4	4.3304255e-17
247	0x2a0d17ae	1.2531531e-13
248	0x2d1c27b1	8.876387e-12
249	0xb04d7a0c	-7.4752005e-10
250	0xa8263cc2	-9.228026e-15
251	0xa70f67fb	-1.9901604e-15
252	0xa7723d5e	-3.3617514e-15
253	0xa012b8b5	-1.2427795e-19
254	0x3257f645	1.2570642e-08
255	0xa4405788	-4.1707505e-17

lstm.weight_hh_l1 f4 [80, 20]
0	0x296ca965	5.2549453e-14
1	0xa967f1c1	-5.1501992e-14
2	0x269caae5	1.0870996e-15
3	0x2984c99c	5.896951e-14
4	0xaf1d1ce8	-1.4289336e-10
5	0xac74fa01	-3.4813266e-12
6	0xaa164d14	-1.3349418e-13
7	0x2a434dac	1.7346427e-13
8	0xa93f19e9	-4.2432993e-14
9	0xad0122f3	-7.340561e-12
10	0x28f1e315	2.6854856e-14
11	0xab54c74b	-7.5594105e-13
12	0xabe508ab	-1.6273834e-12
13	0x269307e9	1.0202318e-15
14	0xaa893fe4	-2.4380422e-13
15	0x2b40e2a0	6.852661e-13
16	0x254bc88d	1.7675393e-16
17	0x277e1a95	3.5263991e-15
18	0xa6496e33	-6.988523e-16
19	0x289499ba	1.6497969e-14
20	0x2aa6208b	2.9510105e-13
21	0xabe7006f	-1.6413658e-12
22	0x294e8bbd	4.5862392e-14
23	0x2bb9f41a	1.3212792e-12
24	0x2dddadec	2.5202028e-11
25	0x331a37a6	3.590653e-08
26	0xac9893e6	-4.33652e-12
27	0x2b8d04ee	1.0020021e-12
28	0xaaa75299	-2.9722473e-13
29	0xab036bf4	-4.6690364e-13
30	0x2c086237	1.9381283e-12
31	0xafd08e11	-3.7935924e-10
32	0xae0edf58	-3.248543e-11
33	0x285207d0	1.1659036e-14
34	0xac784db1	-3.5286047e-12
35	0x2e3a384b	4.2341502e-11
36	0x288eec03	1.586752e-14
37	0x298f6641	6.368214e-14
38	0xa92eb47a	-3.87923e-14
39	0x2bbac06c	1.3269503e-12
40	0x24f76ed3	1.0730692e-16
41	0x331449fe	3.452623e-08
42	0x26757a5e	8.516729e-16
43	0xb2fcc349	-2.9425467e-08
44	0x288c3a19	1.5568318e-14
45	0xa94029f8	-4.2668966e-14
46	0xa645b976	-6.859945e-16
47	0x26877e0f	9.401675e-16
48	0xa5253af8	-1.4331448e-16
49	0xa6584662	-7.503544e-16
50	0x25c39986	3.393114e-16
51	0xa8263fbd	-9.228672e-15
52	0xa8a8be08	-1.873416e-14
53	0x2253e50d	2.871709e-18
54	0x2cf0d155	6.844451e-12
55	0xb385be3b	-6.227898e-08
56	0x22c39257	5.30098e-18
57	0x23361e92	9.872713e-18
58	0xa396cb6b	-1.6349183e-17
59	0x29a3413c	7.2499705e-14
60	0x2a927d12	2.6021595e-13
61	0xab94bda4	-1.0568668e-12
62	0xb39c6218	-7.282159e-08
63	0x2b765aca	8.752275e-13
64	0x2d941938	1.6836851e-11
65	0xadda57b8	-2.4822686e-11
66	0xac0fea9e	-2.045176e-12
67	0xb3df6ce9	-1.0404057e-07
68	0x2d88588e	1.5500736e-11
69	0x33006d2f	2.9901624e-08
70	0xae7aa607	-5.699088e-11
71	0xad1b8bb9	-8.841755e-12
72	0x31a08ae1	4.6724016e-09
73	0x2793dadd	4.103799e-15
74	0xb2280d10	-9.781857e-09
75	0x2ded5e37	2.698562e-11
76	0x27fa09a0	6.9399374e-15
77	0x288f2a6d	1.5894589e-14
78	0xa8159415	-8.303272e-15
79	0x30a27a76	1.1821857e-09
80	0x2fb0940f	3.2119415e-10
81	0xafb019cc	-3.2032543e-10
82	0x3039450a	6.740072e-10
83	0x315ad8fe	3.184652e-09
84	0x31b2ab70	5.199972e-09
85	0xb1bd4791	-5.50876e-09
86	0xb2254db5	-9.621933e-09
87	0x2fa17edb	2.9375866e-10
88	0xaebb2115	-8.509652e-11
89	0xaf89035c	-2.4922542e-10
90	0x2faeafff	3.1775468e-10
91	0xb119a687	-2.235909e-09
92	0xb21747a4	-8.805646e-09
93	0x295b3f8f	4.8682897e-14
94	0xb01d844e	-5.7304284e-10
95	0x32a07203	1.8678298e-08
96	0x2d06e23b	7.667251e-12
97	0x2d83e0bb	1.4992776e-11
98	0xac445167	-2.7898463e-12
99	0x2e93695f	6.703504e-11
100	0x2f95da36	2.725799e-10
101	0xb00f8231	-5.220811e-10
102	0x2d8a518f	1.5725003e-11
103	0x305f7366	8.129092e-10
104	0x323ccd3b	1.0989704e-08
105	0xb2a3ecc5	-1.9083368e-08
106	0xb05697fd	-7.8068735e-10
107	0x3001c17b	4.720488e-10
108	0xaf1f39b5	-1.4481467e-10
109	0xafd54569	-3.8793793e-10
110	0x2f727403	2.2050987e-10
111	0xb16df1ed	-3.4625558e-09
112	0xb24e34e5	-1.2002805e-08
113	0x2c5a16f1	3.0992398e-12
114	0xb0898aea	-1.0007544e-09
115	0x342a0f9b	1.5838161e-07
116	0x2d1ee579	9.032213e-12
117	0x2d4699e4	1.12891675e-11
118	0xad670da4	-1.3133859e-11
119	0xb4147aa5	-1.3828192e-07
120	0x2c225da7	2.3073572e-12
121	0xac674c30	-3.2869367e-12
122	0x296611ab	5.1085584e-14
123	0x2c639560	3.234156e-12
124	0x30c8aba9	1.4600704e-09
125	0xaf4ef8bb	-1.8823958e-10
126	0x332047f1	3.7318333e-08
127	0x2c5da371	3.1496717e-12
128	0xab6cf81f	-8.418838e-13
129	0xac04275e	-1.8780181e-12
130	0x2ba4f941	1.1722083e-12
131	0xb21bd052	-9.069554e-09
132	0xaf62b012	-2.0617133e-10
133	0xb37db0f3	-5.9067087e-08
134	0xad6e5e7d	-1.3549714e-11
135	0x2e64d2e8	5.202852e-11
136	0x292368ae	3.6284066e-14
137	0xb2d9391a	-2.5288092e-08
138	0xa9396455	-4.1165276e-14
139	0x2b596f9d	7.724878e-13
140	0x2aa190ee	2.869991e-13
141	0xabe44bd9	-1.6221426e-12
142	0x2873e6f0	1.3539286e-14
143	0x2c01405a	1.8367725e-12
144	0x2daecd5f	1.9872713e-11
145	0xae5b116f	-4.981032e-11
146	0xac68a3f0	-3.3060187e-12
147	0x2c475e5d	2.8331983e-12
148	0xaa6e37c7	-2.1157998e-13
149	0xab3e7c36	-6.7673937e-13
150	0xaf2cd424	-1.5718676e-10
151	0x314830af	2.9131504e-09
152	0xadddab32	-2.5200817e-11
153	0x27b3d346	4.9911543e-15
154	0xabf7b428	-1.7600409e-12
155	0x2d29b6bd	9.647114e-12
156	0xb3a0141a	-7.454237e-08
157	0xb418e233	-1.4238394e-07
158	0xa84e3b46	-1.144815e-14
159	0x2a76345e	2.1867358e-13
160	0x29cd0a67	9.105633e-14
161	0xb18d32e6	-4.1094266e-09
162	0x27b64ce9	5.0598534e-15
163	0x2a6441ff	2.0273365e-13
164	0x2d918aa2	1.6546157e-11
165	0xac8f395f	-4.070674e-12
166	0xaac89a75	-3.5634313e-13
167	0x2aa45b9a	2.9195814e-13
168	0xa979617d	-5.5373664e-14
169	0x2e9afd76	7.048133e-11
170	0xb400b937	-1.198831e-07
171	0xabf751cd	-1.757311e-12
172	0xacd58801	-6.0689236e-12
173	0xb01586a6	-5.439723e-10
174	0xab1ec161	-5.6401243e-13
175	0x2c4ad897	2.8826158e-12
176	0x27a2ab5f	4.5149833e-15
177	0x27abc182	4.7671836e-15
178	0xa72f0f07	-2.4294275e-15
179	0x2a318f6b	1.5770516e-13
180	0x2a34a8a0	1.6045715e-13
181	0xab3e9e62	-6.772136e-13
182	0x27c53251	5.4733037e-15
183	0x2bea68fd	1.665584e-12
184	0x2d673bba	1.3144092e-11
185	0xad24ed75	-9.375047e-12
186	0xabbe51cc	-1.3523015e-12
187	0x2ada5075	3.8780407e-13
188	0xaaaac480	-3.0334416e-13
189	0xab2fe06f	-6.2483954e-13
190	0x2a5fdc11	1.988273e-13
191	0xaca1e081	-4.60082e-12
192	0xb33a8f01	-4.343656e-08
193	0x281a228d	8.556209e-15
194	0xac2937bd	-2.4047285e-12
195	0x2cd5c825	6.0760446e-12
196	0x27c9e435	5.603613e-15
197	0x28a4842c	1.8264978e-14
198	0xa7ade9b8	-4.8270544e-15
199	0x2a3fdbac	1.7040422e-13
200	0x2a3944f6	1.6455226e-13
201	0xb09e443f	-1.151541e-09
202	0x27ba6c96	5.17431e-15
203	0x2ac5725a	3.5073577e-13
204	0x2ce386b5	6.4666835e-12
205	0xacdd5512	-6.2906425e-12
206	0xab36bbd3	-6.492005e-13
207	0x3428515e	1.567582e-07
208	0xab0cabe4	-4.997654e-13
209	0xaa9027ea	-2.5607234e-13
210	0x2a00f272	1.1452799e-13
211	0xac42ab15	-2.7664028e-12
212	0xad31f42c	-1.0115502e-11
213	0x2c3dad56	2.6954736e-12
214	0xabacc7b6	-1.2276766e-12
215	0x2c9d0a6c	4.4633654e-12
216	0x2791d382	4.04749e-15
217	0x2813a896	8.1966955e-15
218	0xa79ee82a	-4.4105522e-15
219	0x2a64c72c	2.031957e-13
220	0x2dc617a3	2.252049e-11
221	0xae96e0ea	-6.861163e-11
222	0x2c2bde41	2.4423937e-12
223	0x2e3fe4c5	4.363156e-11
224	0x30922dd9	1.0635929e-09
225	0xb0d54095	-1.5516145e-09
226	0xaf572951	-1.9568815e-10
227	0x2e940c82	6.7324826e-11
228	0xad9bb2f1	-1.7700926e-11
229	0xb2a83fa1	-1.958671e-08
230	0x2dd69f3f	2.4399703e-11
231	0xafc813ac	-3.6393766e-10
232	0xb0f0df15	-1.7525702e-09
233	0x2a7e9b29	2.2613564e-13
234	0xb01edf18	-5.77971e-10
235	0x30675f15	8.417243e-10
236	0x2b898950	9.772547e-13
237	0x2c3af74b	2.6569465e-12
238	0xaae960f3	-4.1456386e-13
239	0x2db47815	2.0516958e-11
240	0xaf7731b1	-2.2482173e-10
241	0xb0782e5e	-9.0287766e-10
242	0x2d6f0059	1.3585654e-11
243	0x30c6894a	1.4445416e-09
244	0x32724fa5	1.4104363e-08
245	0xb280d9f3	-1.5000273e-08
246	0xb0e7abe4	-1.6856316e-09
247	0x30a53e44	1.2023027e-09
248	0xaf70863f	-2.1875567e-10
249	0xb06d2ab1	-8.6280766e-10
250	0x304b745d	7.401633e-10
251	0xb1bcd3a1	-5.4955795e-09
252	0xb309d54e	-3.2091798e-08
253	0x2c9f36a0	4.5251164e-12
254	0xb0e0aea0	-1.6347776e-09
255	0x322b9ca0	9.989122e-09

lstm.bias_ih_l1 f4 [80]
0	0x301cb0c0	5.7003646e-10
1	0x320b2f49	8.101616e-09
2	0x31091cbd	1.995246e-09
3	0x31fc4fad	7.3432234e-09
4	0x37367073	1.0874227e-05
5	0x36bf7ef6	5.707024e-06
6	0x3339736b	4.317864e-08
7	0x32e0aa74	2.6154545e-08
8	0x3129887f	2.4670326e-09
9	0x31acc5ac	5.0283315e-09
10	0x3106d7c0	1.9622206e-09
11	0x3501c34a	4.834043e-07
12	0x36c9429a	5.9980202e-06
13	0x2ab0eb3a	3.1427102e-13
14	0x34517c7e	1.9509932e-07
15	0x35b09986	1.3157703e-06
16	0x2bab0d7f	1.2154027e-12
17	0x2d2ec3b0	9.934206e-12
18	0x2c89f533	3.9209968e-12
19	0x310e701b	2.0727444e-09
20	0x303dae84	6.90058e-10
21	0x320061b4	7.472796e-09
22	0x30810254	9.386647e-10
23	0x328378ad	1.5305284e-08
24	0x35e11da7	1.6772436e-06
25	0x367e25cc	3.787095e-06
26	0x32fee7f4	2.9674972e-08
27	0x31c9704b	5.862636e-09
28	0x30a85e2b	1.2250373e-09
29	0x318ac76e	4.039001e-09
30	0x3124cad9	2.3980447e-09
31	0x34fc2063	4.6962222e-07
32	0x37366f22	1.08739205e-05
33	0x2acca354	3.635101e-13
34	0x33486aaf	4.6663157e-08
35	0x3587758b	1.0092493e-06
36	0x2c1e01e0	2.2454191e-12
37	0x2d2a53d1	9.681992e-12
38	0x2b73118b	8.635529e-13
39	0x3049c825	7.3407797e-10
40	0x387866f7	5.92237e-05
41	0xb8d71471	-0.000102558064
42	0x35d27c94	1.5682476e-06
43	0x386a1cec	5.5816883e-05
44	0x3b19690a	0.0023408555
45	0xbb604adc	-0.0034224307
46	0xb939b5c9	-0.00017710695
47	0x38436f0e	4.659505e-05
48	0xb821e985	-3.8602873e-05
49	0xb92b96f7	-0.0001636407
50	0x384babd6	4.8559006e-05
51	0xba46c9c5	-0.00075831666
52	0xbb8ae13b	-0.0042382753
53	0x351d9fd8	5.871966e-07
54	0xb99da5b0	-0.0003006882
55	0x3b16a9db	0.0022989425
56	0x35b16839	1.321786e-06
57	0x36524aef	3.1336056e-06
58	0xb56eb3f8	-8.89238e-07
59	0x3882aeb9	6.231428e-05
60	0x30b1ce8b	1.2937148e-09
61	0x33286361	3.9205933e-08
62	0x2c3b2f7e	2.6600662e-12
63	0xb469ec28	-2.1785729e-07
64	0x366cfb16	3.5312892e-06
65	0x3670683f	3.5823466e-06
66	0x32c79425	2.3234017e-08
67	0x32c6747d	2.3103206e-08
68	0x30a33bac	1.1876771e-09
69	0x31f95e88	7.2576007e-09
70	0x31d6a133	6.246546e-09
71	0x34e247ae	4.2147934e-07
72	0x36c11887	5.7547036e-06
73	0x2abe832b	3.3841796e-13
74	0x3379c1c7	5.815107e-08
75	0x36079422	2.0202792e-06
76	0x2bbed038	1.3558104e-12
77	0x2d5f7594	1.270219e-11
78	0x2d970cfd	1.717248e-11
79	0x30612066	8.1900564e-10

lstm.bias_hh_l1 f4 [80]
0	0x304c1101	7.423893e-10
1	0x330ba135	3.2510076e-08
2	0x326c2c4d	1.3747081e-08
3	0x31b086ee	5.137614e-09
4	0x36ec33b6	7.039368e-06
5	0x36594635	3.2376386e-06
6	0x32c0e552	2.2456025e-08
7	0x31b46fc1	5.2513944e-09
8	0x30cd0903	1.4918274e-09
9	0x314f41b6	3.0159817e-09
10	0x31238ecb	2.380079e-09
11	0x34d9acd0	4.0545137e-07
12	0x3734b27a	1.0770391e-05
13	0x2c343b84	2.5612576e-12
14	0x353aa53d	6.9530853e-07
15	0x35e40f99	1.6991863e-06
16	0x2bd8eda0	1.5413677e-12
17	0x2d602923	1.274206e-11
18	0x2c7f4c5c	3.6280067e-12
19	0x302a2878	6.190315e-10
20	0x30041001	4.8044063e-10
21	0x32bcbdcd	2.1972392e-08
22	0x2ccd61a3	5.8372903e-12
23	0x322a988d	9.929988e-09
24	0x362eb6ca	2.6034418e-06
25	0x366ca800	3.526453e-06
26	0x32c65cfa	2.3092515e-08
27	0x32033732	7.6377535e-09
28	0x31c3f38c	5.702935e-09
29	0x3163c859	3.3146732e-09
30	0x313c00c1	2.735803e-09
31	0x3503b7e5	4.9068905e-07
32	0x3709f3b7	8.222581e-06
33	0xb451fea2	-1.9557277e-07
34	0x33b27afd	8.311142e-08
35	0x362dc486	2.58934e-06
36	0x2be21413	1.6063838e-12
37	0x2d0c1dfe	7.964738e-12
38	0x2b77b318	8.800057e-13
39	0x33733159	5.6622728e-08
40	0x376dcb97	1.4173703e-05
41	0xb93e72e5	-0.00018162614
42	0x361010e4	2.1467504e-06
43	0x39549075	0.0002027171
44	0x3b1f598e	0.0024314853
45	0xbb4ae401	-0.0030958655
46	0xb999ce62	-0.000293362
47	0x395d2fa6	0.00021093953
48	0xb81f81ad	-3.8029324e-05
49	0xb81be2a6	-3.7165963e-05
50	0x3870189b	5.7243375e-05
51	0xba9fdf37	-0.001219726
52	0xbb8484a6	-0.0040441332
53	0x352fc69b	6.548159e-07
54	0xb9d7b819	-0.0004114516
55	0x3ab3efed	0.001372812
56	0x35bc2068	1.4016523e-06
57	0x365b4a25	3.26767e-06
58	0xb5d44940	-1.5816549e-06
59	0x37a78f1a	1.9974588e-05
60	0x300b547f	5.068798e-10
61	0x325a5feb	1.2711079e-08
62	0x2c837404	3.7361243e-12
63	0x31a69721	4.8484172e-09
64	0x3600dcf8	1.9202107e-06
65	0x368d8cb4	4.2185075e-06
66	0x32c420b9	2.2832284e-08
67	0x31aa07c6	4.948535e-09
68	0x30ac4be0	1.2536212e-09
69	0x320c9237	8.182318e-09
70	0x320f24e5	8.332084e-09
71	0x34f34b8a	4.531724e-07
72	0x36dbc1f6	6.5492886e-06
73	0x2aaf26f4	3.1113274e-13
74	0x3514e2ee	5.546452e-07
75	0x35b2df18	1.3326962e-06
76	0x2c9030ef	4.098159e-12
77	0x2d2e2c98	9.900657e-12
78	0x2b89eea8	9.800676e-13
79	0x33491abb	4.682327e-08

fc.weight f4 [30, 20]
0	0x36a09f42	4.7869116e-06
1	0xb7a1d95d	-1.9293913e-05
2	0x3473498e	2.2657898e-07
3	0x37978846	1.806406e-05
4	0x39becbe4	0.00036391534
5	0xb9e81411	-0.0004426544
6	0xb80b5aac	-3.3224627e-05
7	0x37ca1cf8	2.4093766e-05
8	0xb6a924f9	-5.0408967e-06
9	0xb7af1847	-2.087293e-05
10	0x37273515	9.966335e-06
11	0xb92a057f	-0.00016214511
12	0xba2a707b	-0.0006501746
13	0x33e7181d	1.0761162e-07
14	0xb85ba2a5	-5.2365143e-05
15	0x39b4bd38	0.00034473254
16	0x34b104e9	3.2972392e-07
17	0x35013312	4.813056e-07
18	0xb44f12cd	-1.9285217e-07
19	0x375178ac	1.2485467e-05
20	0x3700e146	7.681845e-06
21	0xb7d24c34	-2.5069436e-05
22	0x34a0ff4b	2.9988072e-07
23	0x37d7a62b	2.5707375e-05
24	0x39b319f4	0.00034160877
25	0xb9e6aa0a	-0.00043995708
26	0xb80e23ec	-3.3888893e-05
27	0x3786a0c5	1.6048909e-05
28	0xb88cf62e	-6.721575e-05
29	0xb77944cb	-1.4857574e-05
30	0x37bc826d	2.247208e-05
31	0xb920c96c	-0.00015333825
32	0xba242e27	-0.0006262981
33	0x371739e0	9.013776e-06
34	0xb8953e67	-7.116497e-05
35	0x39863c17	0.00025603242
36	0x34af29a9	3.2626602e-07
37	0x363def62	2.8302534e-06
38	0xb528dcdf	-6.2906287e-07
39	0x36ca1e6f	6.023612e-06
40	0x36be196c	5.6654007e-06
41	0xb8a812b9	-8.0143516e-05
42	0x350b12c9	5.180887e-07
43	0x37a2b71f	1.9397177e-05
44	0x3a10bae0	0.00055210106
45	0xba062e01	-0.00051185495
46	0xb8193004	-3.652276e-05
47	0x37a5d2a3	1.9767618e-05
48	0xb7efa0f9	-2.8565979e-05
49	0xb778c89f	-1.4828663e-05
50	0x3749e833	1.2034597e-05
51	0xb9bcd916	-0.00036019896
52	0xba2d3bd6	-0.00066083425
53	0x357c81d9	9.406627e-07
54	0xb891f9d5	-6.9606736e-05
55	0x39873db5	0.00025795182
56	0x346a2557	2.1806532e-07
57	0x37788e0f	1.48150275e-05
58	0xb481e08f	-2.419151e-07
59	0x37045d9f	7.889611e-06
60	0x36ee33ee	7.098998e-06
61	0xb7a0666a	-1.9121177e-05
62	0x3507abd6	5.0541473e-07
63	0x37ac14a0	2.0513602e-05
64	0x39ac4794	0.00032859726
65	0xba067681	-0.0005129353
66	0xb7fc4849	-3.0074401e-05
67	0x37cc926c	2.4386878e-05
68	0xb75a2674	-1.3002766e-05
69	0xb7971f9a	-1.8015318e-05
70	0x373a178d	1.1091947e-05
71	0xb95b45ec	-0.00020911515
72	0xba29a953	-0.00064720697
73	0x33eea455	1.11126305e-07
74	0xb8431a33	-4.6516023e-05
75	0x39718f53	0.00023036943
76	0x344027e5	1.7895907e-07
77	0x35285120	6.270293e-07
78	0xb4405031	-1.7910567e-07
79	0x372a7947	1.0161027e-05
80	0x36ab4dcc	5.105254e-06
81	0xb7b70b23	-2.1820486e-05
82	0x36c823d8	5.9646372e-06
83	0x378c3374	1.671326e-05
84	0x39af9eee	0.00033497013
85	0xba028ae0	-0.00049798004
86	0xb83eaabf	-4.545855e-05
87	0x378eebb1	1.7037471e-05
88	0xb6c67682	-5.914656e-06
89	0xb7791c44	-1.4848138e-05
90	0x38c66439	9.460044e-05
91	0xb91de6ff	-0.0001505874
92	0xba0fbb40	-0.00054829195
93	0x33dda916	1.0321871e-07
94	0xb879ab46	-5.9525737e-05
95	0x397fe535	0.00024404081
96	0x3469618a	2.17353e-07
97	0x364dbd89	3.0657704e-06
98	0xb4aab1d0	-3.1794343e-07
99	0x3703f0ee	7.864304e-06
100	0x36c40201	5.8414885e-06
101	0xb7e73617	-2.7562533e-05
102	0x3474d968	2.2803363e-07
103	0x37a51c56	1.9682728e-05
104	0x39dfc3e5	0.00042679827
105	0xba09ddd2	-0.0005259189
106	0xb81b153d	-3.697466e-05
107	0x3785990f	1.5926109e-05
108	0xb7d21ffb	-2.5048843e-05
109	0xb74bff02	-1.21591165e-05
110	0x36da2398	6.50105e-06
111	0xb9140ce3	-0.0001411918
112	0xba06e958	-0.0005146465
113	0x3419f21b	1.4337313e-07
114	0xb892f048	-7.0065784e-05
115	0x39703e5f	0.00022911419
116	0x3498d2ab	2.8465487e-07
117	0x3535768a	6.760025e-07
118	0xb4662a97	-2.1435913e-07
119	0x373656eb	1.08682825e-05
120	0x36b58c6a	5.4105667e-06
121	0xb8381583	-4.3889053e-05
122	0x34a1e7d3	3.015726e-07
123	0x37be9088	2.2717068e-05
124	0x39adb0c3	0.0003312883
125	0xba154b4e	-0.000569512
126	0xb8734a4f	-5.800492e-05
127	0x379aa1d5	1.843359e-05
128	0xb70fe9bd	-8.577886e-06
129	0xb7593ebb	-1.29488135e-05
130	0x38861e8e	6.395309e-05
131	0xb93b0ba3	-0.00017838045
132	0xba1b8c40	-0.00059336796
133	0x3429e2d3	1.582187e-07
134	0xb8660363	-5.4839427e-05
135	0x3982d5f3	0.00024954937
136	0x370d8e98	8.437455e-06
137	0x34fe5c6c	4.7378433e-07
138	0xb475398a	-2.2838336e-07
139	0x36bdf338	5.6609533e-06
140	0x36ac4a94	5.1346815e-06
141	0xb80d0f5b	-3.363132e-05
142	0x349a6a74	2.876219e-07
143	0x37862262	1.5990056e-05
144	0x39fe48bb	0.00048500844
145	0xb9d51558	-0.00040642428
146	0xb84be728	-4.8614253e-05
147	0x381a4b29	3.678646e-05
148	0xb6cbb0a8	-6.070437e-06
149	0xb764aa60	-1.36295275e-05
150	0x36e525e1	6.8291415e-06
151	0xb93149d4	-0.00016907539
152	0xba16eeb9	-0.00057576183
153	0x34dd8781	4.126305e-07
154	0xb8edb3ac	-0.00011334507
155	0x397c3e24	0.00024055742
156	0x34af734c	3.268018e-07
157	0x34f2bb2a	4.5212192e-07
158	0xb44baaa6	-1.896793e-07
159	0x36f260f3	7.2234484e-06
160	0x36b99a2c	5.5313776e-06
161	0xb798914e	-1.8187475e-05
162	0x349e5768	2.949339e-07
163	0x3787d831	1.6193926e-05
164	0x39b3131a	0.00034155772
165	0xb9dfb5c7	-0.0004266931
166	0xb8046dbf	-3.157346e-05
167	0x37b3dba2	2.1440737e-05
168	0xb6b8f931	-5.512637e-06
169	0xb77eceb1	-1.5187704e-05
170	0x372fc3db	1.0476414e-05
171	0xb950efde	-0.00019925783
172	0xba058f31	-0.00050948845
173	0x3435f437	1.6945783e-07
174	0xb8859c55	-6.371053e-05
175	0x398ec58e	0.0002723154
176	0x34a5e283	3.0898454e-07
177	0x34f73f36	4.6053327e-07
178	0xb459bfd9	-2.0279494e-07
179	0x36ebfe85	7.0331757e-06
180	0x36a97b9e	5.0509834e-06
181	0xb80349a6	-3.1301424e-05
182	0x34ab94f7	3.1959618e-07
183	0x37c25783	2.3167353e-05
184	0x39bf72ca	0.00036515883
185	0xba0155c3	-0.0004933739
186	0xb81e2f90	-3.771443e-05
187	0x37e7d455	2.763622e-05
188	0xb6cd5fdb	-6.120635e-06
189	0xb7ab018c	-2.0385509e-05
190	0x3714e9d2	8.875928e-06
191	0xb981d75a	-0.00024765247
192	0xba1eadcc	-0.00060531194
193	0x359453a9	1.1051208e-06
194	0xb85f7b08	-5.3281925e-05
195	0x3981270b	0.00024633887
196	0x3486d0ad	2.5111277e-07
197	0x3512fa89	5.4753815e-07
198	0xb46c93d7	-2.2032997e-07
199	0x36d5a6f0	6.3673288e-06
200	0x3699ec1d	4.5872425e-06
201	0xb8077828	-3.2298412e-05
202	0x34912c1c	2.7040448e-07
203	0x37abe1a5	2.0489862e-05
204	0x39a8f8a3	0.00032228706
205	0xb9f2cc83	-0.0004631021
206	0xb807b6da	-3.2356802e-05
207	0x37990c57	1.8244767e-05
208	0xb6b5cf22	-5.418334e-06
209	0xb7a6db73	-1.9890931e-05
210	0x36fc1b69	7.513376e-06
211	0xb93124f4	-0.00016893802
212	0xba18c94b	-0.0005828335
213	0x33dd695c	1.0310279e-07
214	0xb838cdf9	-4.4060846e-05
215	0x3a0d7652	0.0005396354
216	0x349301f8	2.7382316e-07
217	0x3522f37a	6.070401e-07
218	0xb514a9f6	-5.538162e-07
219	0x36cbcfcb	6.0740617e-06
220	0x36c351aa	5.82096e-06
221	0xb79ff518	-1.9068408e-05
222	0x349993d0	2.8606019e-07
223	0x378442bf	1.5766707e-05
224	0x399ac837	0.0002952234
225	0xba035563	-0.0005009977
226	0xb80840fb	-3.2485445e-05
227	0x37f2a52a	2.8925559e-05
228	0xb700fe31	-7.688578e-06
229	0xb78ba497	-1.6646734e-05
230	0x36e095b0	6.693146e-06
231	0xb90519dd	-0.00012693503
232	0xba101714	-0.0005496603
233	0x33f57c8b	1.1431356e-07
234	0xb83f1d95	-4.55655e-05
235	0x39891637	0.00026147228
236	0x3448c16b	1.8696817e-07
237	0x354c4bb0	7.610606e-07
238	0xb44c17b3	-1.9007602e-07
239	0x36aa511b	5.0758367e-06
240	0x36a35f58	4.868878e-06
241	0xb7a44e00	-1.9586645e-05
242	0x348358f0	2.4465362e-07
243	0x37b4218b	2.1473292e-05
244	0x3999ed6b	0.00029359324
245	0xba141055	-0.00056481856
246	0xb85b20cb	-5.224421e-05
247	0x3787373a	1.6118971e-05
248	0xb8c0d71f	-9.195343e-05
249	0xb7a5ae87	-1.9750803e-05
250	0x36f992f1	7.4378845e-06
251	0xb9163d40	-0.00014327932
252	0xba06ebe6	-0.0005146846
253	0x33de8616	1.0362071e-07
254	0xb866af68	-5.4999633e-05
255	0x3972f504	0.00023170194

fc.bias f4 [30]
0	0x3e03588b	0.12826745
1	0x3e033c78	0.12816036
2	0x3e03412a	0.12817827
3	0x3e0227dc	0.12710518
4	0x3e031145	0.12799557
5	0x3e035bb6	0.12827954
6	0x3e03191f	0.12802552
7	0x3e034999	0.12821044
8	0x3e0347bb	0.12820332
9	0x3e0331db	0.12811987
10	0x3e033ea4	0.12816864
11	0x3e0351d9	0.12824191
12	0x3e033532	0.12813261
13	0x3e021574	0.12703496
14	0x3e034db5	0.12822612
15	0x3e033c10	0.12815881
16	0x3e0336f2	0.12813929
17	0x3e034127	0.12817822
18	0x3e03557f	0.12825583
19	0x3e034105	0.12817772
20	0x3e0204ee	0.12697193
21	0x3e034a9f	0.12821434
22	0x3e02d3b5	0.12776072
23	0x3e0347d6	0.12820372
24	0x3e0344c4	0.12819201
25	0x3e033c10	0.12815881
26	0x3e0344b5	0.12819178
27	0x3e02b2c0	0.127635
28	0x3e025005	0.12725838
29	0x3e0327a5	0.12808092
